results/Test1/BalanceBall1/BalanceBall1-299648.pt (torch, 884853 bytes, 33 tensors)

network_body._body_endoder.seq_layers.0.weight f4 [128, 150]
-0.17954932 0.11146493 0.104938015 0.18691349 0.10332255 -0.102693565 -0.029136725 -0.031219942
-0.07727688 0.00911642 -0.051806875 -0.03769812 -0.06043221 0.19598067 0.024613656 0.052045308
0.07480081 -0.026738143 0.02048121 -0.024410075 0.007476825 0.16202953 0.10082271 0.00029622682
-0.12228424 0.048494905 -0.107756734 -0.04920135 0.01946791 0.00033507138 -0.15135339 0.15410735
-0.017052678 0.07348636 0.17533915 -0.027896043 0.0009582726 -0.05286545 0.0038616685 0.026992891
-0.0068265316 -0.019571772 0.004679004 0.11121037 0.10091266 0.021848662 -0.008526031 0.15380393
0.002574111 0.036545753 0.0027889782 0.059501898 -0.09269143 -0.2040616 0.021714512 -0.15731254
-0.1407377 -0.035598233 0.0044741216 0.1216197 0.0961367 -0.09267385 0.016739493 0.13897847
0.23792002 -0.066606544 0.017997028 -0.0757512 -0.052562498 0.023682008 -0.099110715 0.04798403
-0.032990187 0.008583177 0.0077065337 0.07641717 0.058980703 -0.036325328 -0.0074252994 -0.061391648
-0.02414374 -0.040101122 0.011063443 -0.17938527 0.081486136 -0.081368685 -0.06493674 0.03143994
-0.066922545 0.042799074 -0.062221278 -0.022591041 -0.014299206 -0.12060092 -0.097779155 -0.04653305
0.067928776 -0.0094856005 -0.07956443 0.07835548 -0.07106446 -0.018406695 0.04430903 -0.008361328
-0.049799528 0.15687883 -0.09872718 -0.027511131 0.10573006 -0.04322734 -0.019850086 -0.08046029
0.041521043 -0.05241764 0.11907361 -0.06575855 0.014628698 -0.0015879879 0.031746596 -0.0046298406
0.1338082 -0.07772168 0.093437485 0.07134346 0.14117396 -0.17869607 -0.0111427745 0.0027274282
0.024016272 -0.068892665 -0.03113733 -0.005832834 0.009303411 0.17054836 -0.09609851 0.20239401
-0.11445318 -0.017261283 -0.1267054 -0.008414223 -0.05029527 -0.007972086 -0.088150255 -0.12441438
0.024648331 0.17136088 0.07986131 -0.013655164 -0.020927122 -0.10229073 0.11911262 0.10103357
-0.121021256 -0.035071064 -0.12443214 -0.064444855 0.0697534 -0.06197214 0.004396911 0.07016715
0.0049830647 -0.053613447 -0.13680455 -0.07700124 -0.119767636 0.07441153 0.06220914 0.03640525
-0.01108902 -0.09621029 -0.047494818 -0.038936224 -0.06439856 -0.015889062 -0.0544897 0.009500619
-0.03265502 -0.0992619 0.09490599 0.031385884 -0.058808662 -0.056823563 -0.13335389 0.0799931
-0.018281942 -0.102796435 -0.054477766 0.0750036 0.04207757 0.14880565 -0.10384041 0.07215364
-0.014743571 -0.011892133 -0.034373008 -0.003048854 0.02684721 0.06963678 0.006510242 -0.050492145
0.15162148 0.009823293 -0.009193982 -0.241042 0.06752638 0.047445986 0.0035207202 0.045241162
-0.0061657904 -0.12852657 0.039516643 -0.10389428 0.1466429 0.16822435 -0.0029962568 -0.028674027
-0.11405836 0.060652647 0.039743055 -0.07363773 0.006526535 -0.02014254 0.0185234 -0.048129268
0.03505101 0.061320398 -0.0711454 0.0111791305 0.09339253 -0.012102396 0.014234039 -0.02526736
0.07029243 -0.06296827 0.17689604 -0.029127818 -0.07564823 0.16540475 0.015814278 0.0071661677
-0.15855701 0.016304782 -0.07659108 0.036154795 0.09022055 0.013255517 -0.059479054 0.040685043
0.04043619 0.07951112 -0.106781624 0.027680116 0.10041864 -0.035778794 0.01930065 -0.040647037
00000000: c7db 37be ba47 e43d bee9 d63d 4066 3f3e
00000010: c69a d33d 0151 d2bd 24b0 eebc f7c0 ffbc
00000020: 5743 9ebd 095d 153c 7233 54bd 5869 1abd
00000030: c487 77bd 28af 483e 94a2 c93c 762d 553d
00000040: 2b31 993d f309 dbbc 36c8 a73c a3f7 c7bc
00000050: 2700 f53b 12eb 253e 237c ce3d e44e 9b39
00000060: 2970 fabd 98a2 463d 90af dcbd 5b87 49bd
00000070: 2b7b 9f3c 85ac af39 62fc 1abe 51ce 1d3e
00000080: 0fb2 8bbc 0480 963d 1b8c 333e 3e86 e4bc
00000090: 9634 7b3a 7189 58bd 0c14 7d3b 3220 dd3c
000000a0: 19b1 dfbb fb54 a0bc 5552 993b 43c2 e33d
000000b0: 4cab ce3d f7fb b23c c4b0 0bbc c77e 1d3e
000000c0: 6bb2 283b 00b1 153d 4ac7 363b 43b8 733d
000000d0: 01d5 bdbd 86f5 50be a2e2 b13c 8a16 21be
000000e0: 8b1d 10be 74cf 11bd a79b 923b c013 f93d
000000f0: 51e3 c43d cacb bdbd 4321 893c 5f50 0e3e
00000100: 4ea1 733e 0369 88bd 816e 933c 7223 9bbd
00000110: c64b 57bd c500 c23c 8ffa cabd e78a 443d
00000120: b820 07bd 74a0 0c3c 1787 fc3b 9b80 9c3d
00000130: c095 713d dec9 14bd ed4f f3bb cf75 7bbd
00000140: 18c9 c5bc 1341 24bd 7143 353c c6b0 37be
00000150: 34e2 a63d a0a4 a6bd 8efd 84bd 2bc7 003d
00000160: b00e 89bd 154e 2f3d bddb 7ebd d910 b9bc
00000170: 3847 6abc 9dfd f6bd 7040 c8bd 7099 3ebd
00000180: 3e1e 8b3d 7e69 1bbc adf2 a2bd d778 a03d
00000190: 3e8a 91bd a3c9 96bc 637d 353d f4fd 08bc
000001a0: 97fa 4bbd d8a4 203e 7a31 cabd 065f e1bc
000001b0: 0089 d83d 270f 31bd a69c a2bc 5dc8 a4bd
000001c0: f811 2a3d e1b3 56bd dddc f33d 6bac 86bd
000001d0: 35ad 6f3c 0824 d0ba b808 023d ebb5 97bb
000001e0: 0405 093e 8b2c 9fbd 275c bf3d 851c 923d
000001f0: e88f 103e 1afc 36be 2f90 36bc a7be 323b
00000200: c6bd c43c 9917 8dbd b713 ffbc 5c21 bfbb
00000210: 556d 183c 3ba4 2e3e 4ccf c4bd 6040 4f3e
00000220: 6e66 eabd 8967 8dbc 0fbf 01be cfdb 09bc
00000230: 6a02 4ebd 5a9d 02bc 1f88 b4bd f7cc febd
00000240: 4ceb c93c 3a79 2f3e 548e a33d e9b9 5fbc
00000250: 5b6f abbc cd7d d1bd 51f1 f33d b0ea ce3d
00000260: fed9 f7bd ada6 0fbd 47d6 febd aafb 83bd
00000270: dfda 8e3d 80d6 7dbd f613 903b cbb3 8f3d
00000280: fa48 a33b c699 5bbd 7e16 0cbe d3b2 9dbd
00000290: bc48 f5bd 1265 983d 03cf 7e3d ac1d 153d
000002a0: b9ae 35bc e709 c5bd ed89 42bd 977b 1fbd
000002b0: 64e3 83bd c729 82bc 9730 5fbd 7ca8 1b3c
000002c0: 45c1 05bd d349 cbbd 125e c23d 7c8e 003d
000002d0: 5ae1 70bd d3bf 68bd ec8d 08be 6cd3 a33d
000002e0: 03c4 95bc f086 d2bd 1424 5fbd 7d9b 993d
000002f0: 8859 2c3d 8260 183e 48aa d4bd 4ac5 933d
00000300: 058f 71bc 39d7 42bc b6ca 0cbd 48cf 47bb
00000310: aeee db3c ba9d 8e3d de53 d53b dad0 4ebd
00000320: a942 1b3e e1f1 203c 5ba2 16bc b7d3 76be
00000330: 454b 8a3d b956 423d e2bb 663b cc4e 393d
00000340: 660a cabb 789c 03be 34dc 213d 86c6 d4bd
00000350: 8e29 163e 0143 2c3e d95c 44bb cbe5 eabc
00000360: 6e97 e9bd e96e 783d 9dc9 223d 61cf 96bd
00000370: 8bdc d53b f801 a5bc 63be 973c 3223 45bd
00000380: a691 0f3d 192b 7b3d aeb4 91bd ac28 373c
00000390: 9544 bf3d 2149 46bc e335 693c 7ffd cebc
000003a0: 7af5 8f3d 82f5 80bd 3c24 353e 769d eebc
000003b0: 76ed 9abd dd5f 293e f28c 813c 2cd2 ea3b
000003c0: c55c 22be 9b91 853c c9db 9cbd 0d17 143d
000003d0: 8dc5 b83d ab2d 593c 4fa0 73bd 5ca5 263d
000003e0: 6ba0 253d bad6 a23d 53b0 dabd 69c1 e23c
000003f0: 4aa8 cd3d c98c 12bd 661c 9e3c 827d 26bd

network_body._body_endoder.seq_layers.0.bias f4 [128]
0.00738002 0.0008529238 0.010078014 -0.019567566 0.034136247 0.009733315 0.0155623 -0.011778805
-0.0059077474 0.017949603 0.028660035 -0.009716363 -0.015380843 0.011234125 0.0018385928 0.017539492
-0.012258511 0.004973108 0.01610702 0.009663758 0.007996304 -0.014656968 0.006277478 -0.0021494979
-0.009851667 0.010878579 0.010336434 -0.0048172357 0.015666569 -0.00087477994 0.007310535 0.0038390064
-0.016825072 -0.005775174 0.025356732 -9.479723e-05 0.0040042503 0.01233074 0.026070239 0.0065956144
-0.014103114 0.028899645 -0.013217517 0.007343031 0.0042783977 0.0011255807 0.0005320146 0.0048847627
0.026503969 -0.0035228357 -0.0050751073 -0.010544532 0.008531149 0.010478957 0.00013898453 0.036583025
-0.021858517 -0.010191396 0.024441037 -0.0036873003 0.006704468 -0.01742027 -0.017303675 -0.004940643
0.013795387 0.016899355 -0.0052631195 0.017180849 -0.0076905265 0.009625567 -0.008661034 0.012894366
0.015851386 -0.006804368 0.0020459595 0.0052744662 0.009455912 0.03710249 -0.007154691 0.002220577
-0.009278076 -0.020954931 -0.008561918 0.033512272 -0.008160394 -0.008531378 0.014197244 0.0011401197
0.017252188 0.015325368 0.0014855228 -0.0074923523 -0.026463015 -0.011624284 -0.0073036044 -0.0015004115
0.011971687 0.0122405505 0.0007660593 -0.015207938 0.0042588436 0.012835535 0.001684086 -0.012487221
0.0028686388 0.0056640864 0.03726889 0.01582816 -0.00063495996 -0.011584229 -0.019940864 0.011613819
-0.0030433475 -0.004127436 0.007854215 -6.2249754e-05 0.01802018 0.0141958725 0.022960026 0.013297501
0.018215002 -0.0031637312 -0.017243976 0.012390314 0.022804616 0.029365696 -0.020972945 0.0258432
00000000: 18d4 f13b bf96 5f3a 411e 253c 294c a0bc
00000010: 73d2 0b3d 7b78 1f3c 04f9 7e3c e4fb 40bc
00000020: c795 c1bb 0c0b 933c 73c8 ea3c 6131 1fbc
00000030: eeff 7bbc 560f 383c f0fc f03a fbae 8f3c
00000040: ecd7 48bc 74f5 a23b dff2 833c bd54 1e3c
00000050: ee02 033c c823 70bc 4db3 cd3b 97de 0cbb
00000060: e368 21bc 113c 323c 255a 293c e7d9 9dbb
00000070: 2d57 803c 7d51 65ba 368d ef3b d797 7b3b
00000080: bcd4 89bc ac3d bdbb ecb8 cf3c e0cd c6b8
00000090: 1636 833b df06 4a3c 4191 d53c 0620 d83b
000000a0: bf10 67bc f3be ec3c 498e 58bc cf9d f03b
000000b0: cd31 8c3b 3988 933a e576 0b3a 5c10 a03b
000000c0: da1e d93c 60df 66bb 164d a6bb f9c2 2cbc
000000d0: 3bc6 0b3c eeaf 2b3c 60bc 1139 15d8 153d
000000e0: a210 b3bc d0f9 26bc 9238 c83c a2a6 71bb
000000f0: 27b1 db3b f4b4 8ebc 70c0 8dbc 1ee5 a1bb
00000100: 0c06 623c 8470 8a3c 3f76 acbb dabe 8c3c
00000110: d000 fcbb 8eb4 1d3c 02e7 0dbc e442 533c
00000120: c4da 813c 2df7 debb 8115 063b 6ed5 ac3b
00000130: f8ec 1a3c c8f8 173d e671 eabb 1a87 113b
00000140: 1203 18bc ada9 abbc 4947 0cbc 2a44 093d
00000150: 2cb3 05bc 31c7 0bbc 8f9b 683c 1270 953a
00000160: 7654 8d3c 4117 7b3c e0b5 c23a 6882 f5bb
00000170: f7c8 d8bc c873 3ebc 1353 efbb 75a9 c4ba
00000180: e524 443c 978c 483c 5fd1 483a b72a 79bc
00000190: c58d 8b3b 234c 523c 8dbc dc3a 3397 4cbc
000001a0: c6ff 3b3b cd99 b93b 43a7 183d 0faa 813c
000001b0: 7173 26ba c7cb 3dbc 065b a3bc e347 3e3c
000001c0: e672 47bb 713f 87bb f7ae 003c 158c 82b8
000001d0: 0e9f 933c ce95 683c aa16 bc3c c3dd 593c
000001e0: a137 953c 9a56 4fbb 3d43 8dbc be00 4b3c
000001f0: bfd0 ba3c 5490 f03c 74cf abbc 1eb5 d33c

network_body._body_endoder.seq_layers.2.weight f4 [128, 128]
0.016851388 -0.05983921 0.014001435 0.038698226 -0.059311315 -0.019784763 -0.010994796 -0.10702482
-0.12125256 -0.083655626 0.076318644 0.045824084 0.029511942 -0.015414869 -0.066901766 -0.15672
-0.0089877 0.06017006 -0.04182928 0.022074427 0.120194 0.11430214 -0.0804833 -0.048410535
0.019108756 -0.1201702 0.013399459 0.11577243 -0.014570796 0.067585416 -0.07809775 -0.0582925
0.16203614 0.018822365 0.04529916 0.050236586 0.03007657 0.044099133 -0.0575123 0.0608562
0.05044658 0.0014110387 0.13604237 -0.096867815 -0.12361585 0.021696959 0.1780175 -0.0015659492
-0.006982937 0.03627029 0.04662049 -0.039522853 0.038515907 0.09540793 0.07160746 -0.097128876
0.049178462 -0.009933612 -0.06941033 0.11853923 0.055615224 0.1379267 -0.10866938 -0.014803569
0.046135858 0.020323766 0.044149633 0.071870096 0.09072169 0.014706848 0.00616906 -0.044552285
0.0054122084 0.06998325 0.14919895 -0.1288175 -0.108518034 -0.09843584 -0.037768964 0.0021459241
-0.015536574 0.0052134185 0.015705496 0.15751618 -0.015733777 0.1710847 0.08300853 0.09588034
0.03289605 0.014934202 0.0109529495 0.05938922 -0.024415646 0.048186332 0.023759803 -0.080749065
-0.031243682 -0.04202827 0.09389127 0.13079067 0.08328093 0.068814784 -0.103634484 -0.07499771
-0.07644107 -0.013142882 0.042720806 -0.086549394 -0.06869799 -0.049519207 0.0992344 0.084453076
-0.083948866 -0.07273587 0.041462507 0.08788878 -0.098621875 -0.016792757 0.01336218 -0.123030715
0.21654066 0.04013086 -0.2100477 0.06941481 -0.10318692 -0.17539014 -0.12607452 0.028243285
-0.029253585 0.09473506 0.00669081 -0.034207437 0.09707847 -0.019211676 -0.010256032 0.062448602
0.027252072 -0.10815413 0.0015618845 -0.084490076 0.0074151047 0.18709196 -0.040906284 0.103571795
0.046748925 -0.087357305 0.02288787 -0.00990244 -0.1959319 0.009471092 -0.048610725 0.10636405
0.22529146 -0.04594205 0.05599361 0.10515507 0.027630685 0.0038946108 0.05769524 0.074132726
0.09865723 -0.07820322 -0.12167424 -0.046805225 -0.020233758 0.019564578 0.020821106 -0.037769295
-0.03303179 -0.02132434 0.16643566 0.026723092 0.14984512 -0.008988235 0.019344881 0.31196564
0.06931701 0.11272227 -0.14421853 -0.042616274 -0.07937995 0.04518542 0.19139925 -0.080757394
-0.021790525 -0.1417208 0.05357257 -0.029909989 -0.041254513 0.011640141 -0.07206238 0.14628239
0.12151805 -0.0010022684 0.044919267 -0.07603702 0.039160565 -0.062456664 0.009653165 0.0128985625
0.03814199 -0.10755976 0.14699066 0.07292673 -0.004539698 0.038891118 -0.05165651 0.03284347
-0.09871436 0.075810425 0.026913006 0.048990376 -0.10043119 -0.13964657 -0.028674781 -0.14563124
-0.10714192 -0.0061499993 0.041992985 -0.10013724 -0.09777087 -0.063344784 -0.0037020547 -0.1751296
-0.1786534 -0.16746053 0.11300308 0.07397718 -0.00798856 0.106652535 0.081878096 -0.11636703
0.016450083 -0.026432386 0.10865859 -0.025077732 0.089327544 0.053075343 0.03122787 -0.18101344
-0.07898958 0.110664405 0.04349534 0.017846346 0.013852572 0.08470836 0.022791412 -0.032793004
-0.11008588 0.06246076 -0.091944434 -0.0018770158 -0.110033944 -0.07738737 -0.0344231 -0.095056705
00000000: ec0b 8a3c f619 75bd 4666 653c 0882 1e3d
00000010: 6cf0 72bd a813 a2bc 8423 34bc d42f dbbd
00000020: 4353 f8bd a453 abbd f34c 9c3d 09b2 3b3d
00000030: 07c3 f13c a68e 7cbc cb03 89bd 357b 20be
00000040: 2541 13bc e174 763d 2e55 2bbd 6ed5 b43c
00000050: 4628 f63d 3e17 ea3d 6ed4 a4bd 204a 46bd
00000060: f789 9c3c cb1b f6bd 6889 5b3c 191a ed3d
00000070: 59ba 6ebc 396a 8a3d b7f1 9fbd 1ec4 6ebd
00000080: cdec 253e 5c31 9a3c 9d8b 393d e1c4 4d3d
00000090: 2463 f63c 4ba1 343d 0492 6bbd 5a44 793d
000000a0: 13a1 4e3d 9af2 b83a b14e 0b3e a262 c6bd
000000b0: 4f2a fdbd d2bd b13c 384a 363e 8940 cdba
000000c0: 1fd1 e4bb 2890 143d 20f5 3e3d b7e2 21bd
000000d0: dbc2 1d3d 3c65 c33d efa6 923d 81eb c6bd
000000e0: 5b6f 493d 97c0 22bc 0127 8ebd b2c4 f23d
000000f0: cacc 633d a83c 0d3e 0d8e debd ab8a 72bc
00000100: f4f8 3c3d 077e a63c 3fd6 343d a130 933d
00000110: 4bcc b93d fef4 703c d325 ca3b 757c 36bd
00000120: e558 b13b 6153 8f3d 9cc7 183e bce8 03be
00000130: b43e debd bb98 c9bd a1b3 1abd a2a2 0c3b
00000140: 1d8d 7ebc 53d5 aa3b d0a8 803c ec4b 213e
00000150: 1fe4 80bc d430 2f3e 6000 aa3d e95c c43d
00000160: 02be 063d 95ae 743c 0074 333c 1c42 733d
00000170: 5203 c8bc 085f 453d eba3 c23c c45f a5bd
00000180: c0f2 ffbc d625 2cbd 114a c03d fded 053e
00000190: 318f aa3d c4ee 8c3d 513e d4bd 6698 99bd
000001a0: 238d 9cbd 3e55 57bc 03fc 2e3d cf40 b1bd
000001b0: 88b1 8cbd a7d4 4abd 683b cb3d bcf5 ac3d
000001c0: 62ed abbd 8bf6 94bd 97d4 293d 08ff b33d
000001d0: 44fa c9bd f790 89bc 0ced 5a3c 87f7 fbbd
000001e0: d6bc 5d3e 4260 243d bf16 57be 5a29 8e3d
000001f0: aa53 d3bd 7999 33be ae19 01be 765e e73c
00000200: 37a5 efbc 7504 c23d 953e db3b 191d 0cbd
00000210: 14d1 c63d ce61 9dbc eb08 28bc 1bca 7f3d
00000220: bd3f df3c ea7f ddbd 26b8 cc3a 2209 adbd
00000230: 68fa f23b 0995 3f3e 598d 27bd 731d d43d
00000240: cd7b 3f3d 63e8 b2bd 587f bb3c d83d 22bc
00000250: 5fa2 48be a42c 1b3c 0a1c 47bd 65d5 d93d
00000260: ceb2 663e bb2d 3cbd 8e59 653d 8b5b d73d
00000270: bf59 e23c ba3c 7f3b d851 6c3d e6d2 973d
00000280: cd0c ca3d 0329 a0bd 5830 f9bd d6b6 3fbd
00000290: 44c1 a5bc e545 a03c 0691 aa3c fab3 1abd
000002a0: 584c 07bd 62b0 aebc 1c6e 2a3e 63ea da3c
000002b0: 0071 193e 6443 13bc 2879 9e3c f6b9 9f3e
000002c0: 14f6 8d3d efda e63d 06ae 13be 678e 2ebd
000002d0: f591 a2bd 5914 393d 2afe 433e 2264 a5bd
000002e0: 0b82 b2bc 421f 11be e96e 5b3d cb05 f5bc
000002f0: 7efa 28bd 4ab6 3e3c 7195 93bd 0dcb 153e
00000300: 75de f83d 8c5e 83ba 44fd 373d 4cb9 9bbd
00000310: d466 203d 8fd2 7fbd 4f28 1e3c 7e54 533c
00000320: c63a 1c3d 4b48 dcbd b884 163e 9c5a 953d
00000330: bfc1 94bb 4b4c 1f3d c795 53bd e086 063d
00000340: c12a cabd 7f42 9b3d aa78 dc3c 22aa 483d
00000350: deae cdbd 83ff 0ebe 60e7 eabc 5b20 15be
00000360: 396d dbbd ef85 c9bb d600 2c3d c114 cdbd
00000370: 183c c8bd e9ba 81bd 2c9e 72bb 2d55 33be
00000380: ebf0 36be c67a 2bbe 296e e73d 5981 973d
00000390: 73e2 02bc a56c da3d b4af a73d d651 eebd
000003a0: 53c2 863c bb88 d8bc 6588 de3d d16f cdbc
000003b0: 5cf1 b63d 8865 593d 97d1 ff3c 965b 39be
000003c0: 4ac5 a1bd 05a4 e23d 2b28 323d 8032 923c
000003d0: e6f5 623c 947b ad3d 0eb5 ba3c f551 06bd
000003e0: b574 e1bd dbd6 7f3d 5d4d bcbd 3306 f6ba
000003f0: 7a59 e1bd 457d 9ebd 3dff 0cbd 17ad c2bd

network_body._body_endoder.seq_layers.2.bias f4 [128]
-0.0083120605 0.013600064 -0.0065234774 0.006384486 0.00489959 -0.0064179003 -0.021580711 -0.016000545
-0.015960868 -0.012440334 0.009339223 -0.0016684103 -0.0052437605 0.000510426 -0.0037806272 -0.016108748
-0.014184952 -0.0046440964 0.009278066 0.008324533 0.019477816 0.0050012576 0.004947725 0.019696815
0.0014258323 0.0024653026 0.019188983 0.011094358 -0.027327899 0.027349599 0.008551557 -0.011124805
-0.0014743559 0.014350135 0.0053923125 0.0059147784 0.028799348 0.03126341 0.0012778358 0.0035647135
-0.008053715 0.016279854 0.008872786 0.0079639265 0.0071006767 -0.0001238303 0.001084005 0.0024941098
0.025426948 0.008816178 0.022781562 0.025258265 -0.0016641287 0.022933034 -0.00943066 -0.0020850883
-0.0062022693 -0.0104774395 -0.011174621 0.008740482 -0.0063705817 0.007460793 0.0041030436 0.01462149
-0.027244028 0.0017909658 -0.01472135 -0.013052429 0.011919976 0.008914206 -0.01155896 0.0013884638
0.024323957 0.03009757 0.016779723 0.010337564 0.01148285 -0.01834876 0.01705213 0.018083474
0.0027690963 -0.0076222294 0.017573621 -0.01636133 0.0020577423 0.046611384 -0.00435335 -0.010128243
0.011298251 0.011204611 0.0011102047 0.004991708 -0.01735369 0.01209951 -0.0036135598 -0.0013189763
0.0058333664 0.022500427 0.0006550688 0.014193602 0.021853244 0.014337389 0.018358268 -0.010482564
-0.0043426696 -0.008696161 -0.009511664 0.023207111 0.009491442 -0.012716128 0.016035687 0.0024845852
0.0130826235 -0.0061075455 -0.0061597293 -0.0039490596 0.011153037 -0.022021538 0.003929869 -0.013744943
-0.0048501003 0.010152886 -0.0050333454 -0.0032428615 0.02577317 -0.007833391 0.0048922063 0.0066327597
00000000: 4f2f 08bc ced2 5e3c e5c2 d5bb f334 d13b
00000010: bd8c a03b 404d d2bb 08ca b0bc 9313 83bc
00000020: 5ec0 82bc 8bd2 4bbc 8a03 193c 8fae daba
00000030: dad3 abbb 1cce 053a 66c4 77bb 7ef6 83bc
00000040: 0068 68bc 812d 98bb 0803 183c 9f63 083c
00000050: f18f 9f3c 97e1 a33b 8720 a23b 375b a13c
00000060: fee2 ba3a ea90 213b 3732 9d3c 1cc5 353c
00000070: c2de dfbc 440c e03c d41b 0c3c d044 36bc
00000080: 2d3f c1ba d41c 6b3c ffb1 b03b c2d0 c13b
00000090: 9cec eb3c 100e 003d 0e7d a73a f89d 693b
000000a0: bbf3 03bc 545d 853c 295f 113c 217b 023c
000000b0: cbac e83b 71d8 01b9 2c15 8e3a 3874 233b
000000c0: 2d4c d03c bb71 103c 66a0 ba3c 6cea ce3c
000000d0: e51e daba 0fde bb3c 0e83 1abc faa5 08bb
000000e0: 683c cbbb 91a9 2bbc c215 37bc 3d34 0f3c
000000f0: 50c0 d0bb ab79 f43b d372 863b f98e 6f3c
00000100: de2e dfbc d7be ea3a d131 71bc dbd9 55bc
00000110: 014c 433c e40c 123c cb61 3dbc 1dfd b53a
00000120: 0943 c73c 2e8f f63c a175 893c e35e 293c
00000130: 9022 3c3c 2450 96bc e9b0 8b3c cb23 943c
00000140: ba79 353b e5c3 f9bb 8ef6 8f3c 3208 86bc
00000150: 30db 063b 94eb 3e3d 8ca6 8ebb eef0 25bc
00000160: 4d1c 393c 8b93 373c 4a84 913a 7b91 a33b
00000170: 5329 8ebc 063d 463c 79d1 6cbb 80e1 acba
00000180: d325 bf3b d152 b83c ecb8 2b3a 488c 683c
00000190: 9305 b33c 5ee7 6a3c 1464 963c 0fbf 2bbc
000001a0: f44c 8ebb 587a 0ebc cfd6 1bbc d71c be3c
000001b0: fe81 1b3c 4e57 50bc 465d 833c 6cd4 223b
000001c0: 8058 563c ce21 c8bb 8ed7 c9bb 1d67 81bb
000001d0: 3abb 363c 8366 b4bc 21c6 803b 7832 61bc
000001e0: 97ed 9ebb 4a58 263c c3ee a4bb 3086 54bb
000001f0: 4122 d33c a057 00bc cd4e a03b 9f57 d93b

action_model._discrete_distribution.branches.0.weight f4 [3, 128]
-0.012269251 -0.014984729 -0.005386366 -0.0028834362 0.0069561373 -0.0010934495 0.0023529576 0.0046531046
0.00095253694 0.010823064 -0.019092435 0.005699122 -0.0001577119 0.004809189 0.00097460154 0.0013253433
-0.0011406128 -0.0013897684 -0.01306736 -0.013985492 -0.0068038288 0.0030981759 -0.0055949665 0.05437793
-0.00601811 0.015426533 0.025240261 -0.010008723 0.026424577 -0.015033798 -0.0050782533 0.015282397
0.0067514074 0.031855546 0.02214887 -0.013669395 -0.01178525 -0.029971082 0.011997657 -0.0043365117
0.020044116 -0.017335076 0.018998448 0.017434279 -0.004443659 0.02088736 0.008397531 0.018239396
-0.02700222 -0.0019290415 -0.012088544 -0.021737877 0.008549396 -0.010350495 0.01369113 0.009982279
0.0044245706 -0.009500217 -4.2909887e-06 -0.0055158255 0.00935984 -0.006896172 0.015758226 -0.030943468
0.0058670714 0.0016000118 -0.010332804 0.025612008 0.008862539 0.013742533 0.0019225962 0.009001121
-0.019081524 -0.023297915 -0.00514752 -0.0068583256 -0.014678864 0.01382967 0.03148417 -0.022729784
0.0061439388 -0.0071010157 0.028820321 0.012749418 0.018150808 -0.0319216 -0.004968774 -0.0029967888
0.0021300511 -0.0041301814 0.023434434 0.017061928 -0.00552414 -0.038366135 0.002920658 -0.006381304
0.01296893 0.028288055 -0.0013393463 -0.01596422 -0.019443229 -0.018421289 0.004156829 0.0056878272
0.0013737523 0.010727655 -0.005554244 -0.009134869 0.016321335 0.0011756344 -0.01464834 -0.0018461492
0.002933695 0.015714116 0.0039866515 0.021565823 -0.00067334267 -0.006227787 0.023376098 -0.0099906
0.0015232204 0.012690428 0.018913832 0.018567638 -0.011281367 0.00381481 -0.006568569 -0.0060952688
0.013860738 -0.008551916 0.03546118 0.022486681 -0.0042741843 -6.8841844e-05 -0.013260637 0.011215595
0.0056276536 -0.004159467 0.0051859855 -0.01623976 -0.0073621757 -0.0032912043 0.007137252 -0.008981366
0.003310754 -0.0013548387 0.0043166513 0.003972508 -0.008331602 -0.025877863 0.021857673 -0.007766522
0.0004295248 0.004959177 0.006932243 -0.00059424917 -0.0015808925 -0.007970442 0.011262583 0.003902159
0.0012497054 -0.0028702803 -0.0025315976 0.0017416055 0.0078491885 0.022145748 -0.021747896 0.001907691
-0.019361539 -4.9232058e-05 -0.010329083 0.022376476 0.0069207978 -0.010278948 -0.026262147 -0.015501869
-0.008327099 -0.0037829275 -0.011931078 -0.008296128 -0.007052709 -0.01401146 0.0026431754 0.010914736
0.007870613 0.004894339 -0.0065755513 0.0066768182 -0.01645745 0.0078757 0.001322731 -0.01679449
0.017532375 -0.007491104 -0.010675709 0.011813147 0.009979677 -0.00638027 0.008496952 0.0065136105
-0.0079388665 -0.0033454732 -0.0005779947 0.02220592 -0.009888116 0.010658078 -0.0061931605 6.390842e-05
-0.0076104263 0.0063888216 -0.0122845005 -0.0015854536 -0.027002271 0.0013532303 0.0127746 -0.008178469
0.00027360226 0.0059167384 0.023179125 -0.0030204377 -0.00022685858 -0.025054978 0.018877195 -0.0251379
-0.010899872 -0.0040442576 -0.002198233 0.007926461 0.0062186364 -0.016110651 0.031077884 0.0023134677
-0.0008362174 0.0019021403 0.014557407 -0.0030146814 -0.004014195 -0.011990206 0.002074623 -0.015523705
0.0043299613 -0.00833522 0.019936984 0.02562151 -0.016305137 -0.0033051895 -0.015558761 -0.0003117727
0.01713744 -0.009121198 -0.013037012 -0.029699953 0.0021463996 -0.011308733 -0.0058168434 0.01596573
00000000: f804 49bc 8282 75bc 1d80 b0bb 08f8 3cbb
00000010: 4ff0 e33b 1452 8fba 1434 1a3b 1279 983b
00000020: acb3 793a 3853 313c bd67 9cbc b3bf ba3b
00000030: 775f 25b9 6796 9d3b 677c 7f3a 24b7 ad3a
00000040: 9d80 95ba e428 b6ba 7b18 56bc 6823 65bc
00000050: a7f2 debb c40a 4b3b fb55 b7bb 64bb 5e3d
00000060: 9133 c5bb 92bf 7c3c aac4 ce3c a0fb 23bc
00000070: 5b78 d83c 5250 76bc 7a67 a6bb 0563 7a3c
00000080: e93a dd3b f67a 023d 8c71 b53c 99f5 5fbc
00000090: ec16 41bc ea85 f5bc d291 443c 4c19 8ebb
000000a0: 8f33 a43c 4a02 8ebc a2a2 9b3c 55d2 8e3c
000000b0: 1d9c 91bb f81b ab3c cc95 093c c96a 953c
000000c0: c233 ddbc e4d7 fcba 070f 46bc a213 b2bc
000000d0: c412 0c3c 1f95 29bc c350 603c b68c 233c
000000e0: fdfb 903b cca6 1bbc 50fb 8fb6 19be b4bb
000000f0: 045a 193c 49f9 e1bb 6517 813c 287d fdbc
00000100: 9040 c03b 7db7 d13a ec4a 29bc 46d0 d13c
00000110: 2f34 113c 5c28 613c a0ff fb3a 7079 133c
00000120: db50 9cbc 45db bebc 87ac a8bb cebb e0bb
00000130: 9e7f 70bc d795 623c 8cf5 003d d033 babc
00000140: 1853 c93b a3af e8bb 9818 ec3c efe2 503c
00000150: 01b1 943c 39c0 02bd 19d1 a2bb c665 44bb
00000160: 5498 0b3b 7956 87bb 92f9 bf3c 75c5 8b3c
00000170: d803 b5bb cf25 1dbd 8368 3f3b 421a d1bb
00000180: a37b 543c 5abc e73c 018d afba 65c7 82bc
00000190: 6847 9fbc 3ee8 96bc 0236 883b f460 ba3b
000001a0: 7a0f b43a 0cc3 2f3c 6000 b6bb 6baa 15bc
000001b0: 52b4 853c bf17 9a3a 97ff 6fbc 7dfa f1ba
000001c0: 3c43 403b e4ba 803c 75a2 823b cfaa b03c
000001d0: 4383 30ba 7712 ccbb 3b7f bf3c 9daf 23bc
000001e0: cca6 c73a 83eb 4f3c 2ef1 9a3c 291b 983c
000001f0: 7cd5 38bc e401 7a3b 273d d7bb d2ba c7bb
00000200: 2618 633c 561d 0cbc be3f 113d fd35 b83c
00000210: 750e 8cbb 2f5f 90b8 2543 59bc 9dc1 373c
00000220: 2e68 b83b 234c 88bb 33ef a93b 3f09 85bc
00000230: 683e f1bb 3fb1 57bb 9cdf e93b 9426 13bc
00000240: 3cf9 583b d894 b1ba b272 8d3b d02b 823b
00000250: 4681 08bc d0fd d3bc dd0e b33c 4f7e febb
00000260: d831 e139 9880 a23b de27 e33b 63c7 1bba
00000270: f335 cfba 7596 02bc b286 383c 5dbb 7f3b
00000280: 28cd a33a 501b 3cbb 29e9 25bb 9546 e43a
00000290: e299 003c 006b b53c a528 b2bc 7d0b fa3a
000002a0: 179c 9ebc 857e 4eb8 503b 29bc df4e b73c
000002b0: dcc7 e23b 0869 28bc b723 d7bc 8dfb 7dbc
000002c0: 626e 08bc feea 77bb 917a 43bc 7cec 07bc
000002d0: 691a e7bb 5390 65bc 2039 2d3b b9d3 323c
000002e0: bef3 003c b160 a03b b977 d7bb 36c9 da3b
000002f0: c6d1 86bc 1409 013c 7d5f ad3a 9994 89bc
00000300: 0ea0 8f3c ef77 f5bb 2be9 2ebc ee8b 413c
00000310: cd81 233c 9511 d1bb cd36 0b3c 2070 d53b
00000320: 0512 02bc ba3f 5bbb 9184 17ba 31e9 b53c
00000330: c401 22bc 389f 2e3c ffef cabb 9206 8638
00000340: e260 f9bb 5259 d13b ee44 49bc ffce cfba
00000350: de33 ddbc e05e b13a 8e4c 513c fcfe 05bc
00000360: 4672 8f39 33e1 c13b 26e2 bd3c 89f2 45bb
00000370: e3e0 6db9 1940 cdbc 59a4 9a3c ffed cdbc
00000380: 6095 32bc b185 84bb 3b10 10bb fddd 013c
00000390: b4c5 cb3b 7cfa 83bc 0c97 fe3c 8c9d 173b
000003a0: 9a35 5bba 3d51 f93a 3182 6e3c f691 45bb
000003b0: 8289 83bb 9272 44bc 66f6 073b 2357 7ebc
000003c0: 59e2 8d3b 7290 08bc e352 a33c 33e4 d13c
000003d0: 5a92 85bc e19b 58bb 2cea 7ebc 6c75 a3b9
000003e0: d163 8c3c 1471 15bc 3199 55bc 514d f3bc
000003f0: 9caa 0c3b 4448 39bc 389b bebb 90ca 823c

action_model._discrete_distribution.branches.0.bias f4 [3]
-0.00886132 -0.0019940194 0.01427667
00000000: 122f 11bc 18ae 02bb b2e8 693c

exp_avg f4 [128, 150]
0.0002726172 -1.9028765e-05 0.00021469612 -5.177882e-06 2.1607705e-06 0.00025718464 -1.807668e-05 0.00019774835
0.00013202206 2.1508242e-06 0.00022001352 -1.80194e-05 0.00016393239 0.00020047356 2.2948736e-06 0.00024079364
-1.6224469e-05 0.00010954517 0.0001961736 2.5727177e-06 0.00029133316 -1.3788761e-05 0.000106067775 6.5268716e-05
2.5672475e-06 0.00028234924 -1.2835084e-05 2.5331019e-05 0.00014091158 2.5642382e-06 0.00027907966 -1.1300419e-05
-0.00010758784 0.00010272987 2.5634902e-06 0.00024278008 -1.0773595e-05 -0.00016230808 8.534446e-05 2.5616348e-06
0.00022012826 -9.959394e-06 -0.00023336965 7.3419746e-05 2.5601987e-06 0.00020603463 -9.0214035e-06 -0.00032173214
2.9637897e-05 2.5601987e-06 0.0002049769 -7.1432855e-06 -0.00039359543 -4.1379913e-06 2.5601987e-06 0.00018398523
-5.8625765e-06 -0.00046535686 -1.1105784e-05 2.5601987e-06 0.00014368999 -5.0145295e-06 -0.00051499205 -2.0036565e-05
2.5601987e-06 2.3411469e-05 -5.6706704e-06 -0.00047343658 -0.00010067138 7.3602437e-06 1.8111568e-05 -1.3163807e-06
-0.0003028331 -4.8159545e-05 7.862569e-06 -8.568752e-06 -4.717699e-06 -0.0002766694 1.0761492e-05 9.322531e-06
0.0003400141 -2.3593016e-07 -0.00034145234 0.00059043453 -1.7405031e-05 0.00078400905 4.30731e-06 -0.0010822887
0.00045491045 -5.032048e-05 0.0008907023 8.807437e-06 -0.0012412755 0.00023994801 -6.10596e-05 0.00096430024
1.1809413e-05 -0.0012346532 -0.00028147624 -7.17376e-05 0.0009008871 1.3615514e-05 -0.00081665546 -0.00078546477
-6.707046e-05 0.0012399368 2.3894312e-05 -0.0007799773 -0.0012616968 -9.30016e-05 0.0015905307 2.4384713e-05
-0.00054094795 -0.0015677798 -0.00011222733 0.001375585 2.8024335e-05 0.00022097125 -0.0011000808 -9.429053e-05
0.0010792682 2.0420048e-05 0.00078267994 -0.00025140608 -6.59501e-05 0.0010791977 6.7859028e-06 0.00085370784
-5.191218e-05 -6.561771e-05 0.0010855085 6.622317e-06 0.00095551007 0.00017191235 -6.805763e-05 0.0012030335
1.1505665e-05 0.0008710151 0.00055448513 -7.2324634e-05 0.001341964 2.5435553e-05 0.00067041704 0.0011188
-9.2250644e-05 0.0013238665 2.666985e-05 0.0003037055 0.001374774 -9.4242685e-05 0.00010595886 -8.5637785e-06
-9.943568e-05 -0.00013415288 1.3568972e-06 9.3538336e-05 -7.654018e-06 -0.00010231673 -0.00018842693 1.3852756e-06
7.081212e-05 -6.898742e-06 -8.572111e-05 -0.0001809247 1.359988e-06 4.814231e-05 -5.162603e-06 4.4794447e-06
-0.00015634482 2.77397e-06 4.5846064e-05 -3.999889e-06 1.2969763e-05 -0.00017159611 2.7018593e-06 3.609203e-05
-3.193354e-06 1.2953551e-05 -6.799043e-05 2.6959542e-06 2.3469105e-05 -2.3868813e-06 -8.533976e-06 -9.506549e-05
2.6950863e-06 -7.94401e-06 -2.2332572e-06 -6.15601e-05 -9.800179e-05 2.694417e-06 -1.7206397e-05 -1.4227177e-06
-6.625233e-05 -5.693291e-05 2.6944242e-06 -2.1645523e-05 -5.659671e-07 -0.00017378357 -7.659934e-05 2.6944315e-06
-2.5250405e-05 3.8712088e-07 -0.00023720232 -7.029874e-05 2.69451e-06 -3.5478213e-05 1.184657e-06 -0.00029044156
-4.5203575e-05 2.627403e-06 -7.150001e-05 1.6194718e-06 -0.00028353697 -5.6922232e-05 3.1800325e-06 -0.00024857995
-1.9976608e-06 -0.00018261066 4.7172893e-05 1.4030356e-05 -0.0002492061 -6.251547e-08 1.5895755e-05 8.3575615e-05
1.9932932e-05 -0.00025856966 -4.4212547e-06 5.360022e-06 9.004363e-05 2.4020655e-05 -0.0002354334 -3.319145e-06
5.2201438e-05 0.0002624072 1.7693126e-05 0.00021611225 -1.6228245e-06 -0.0005208839 0.0006728923 -1.2021295e-05
0.00019482682 -2.1062822e-06 -0.0005145991 0.0004133198 -1.0236352e-05 0.00047348984 7.13575e-08 -0.00087893096
0.00020287013 -3.2923657e-05 0.00011890142 5.297719e-07 -0.00065821834 3.8921935e-05 -6.334981e-06 0.00014227002
00000000: 10ee 8e39 f69f 9fb7 0d20 6139 abbd adb6
00000010: c101 1136 bdd6 8639 60a3 97b7 ab5a 4f39
00000020: 676f 0a39 e156 1036 6eb3 6639 5e28 97b7
00000030: 44e5 2b39 3636 5239 a101 1a36 8d7d 7c39
00000040: c819 88b7 9ebb e538 f3b3 4d39 f4a6 2c36
00000050: 13be 9839 4756 67b7 b470 de38 e0e0 8838
00000060: fa48 2c36 4608 9439 4456 57b7 f37d d437
00000070: aac1 1339 4715 2c36 7051 9239 ee96 3db7
00000080: c8a0 e1b8 ae70 d738 6d08 2c36 c892 7e39
00000090: 3dc0 34b7 3e31 2ab9 f5fa b238 8de8 2b36
000000a0: 3bd2 6639 4617 27b7 b0b4 74b9 edf8 9938
000000b0: e1cf 2b36 000b 5839 a25a 17b7 28ae a8b9
000000c0: e69e f837 e1cf 2b36 11ef 5639 5bb0 efb6
000000d0: 7c5b ceb9 13d9 8ab6 e1cf 2b36 29ec 4039
000000e0: 26b7 c4b6 24fb f3b9 fb52 3ab7 e1cf 2b36
000000f0: 7dab 1639 7b42 a8b6 8800 07ba 3214 a8b7
00000100: e1cf 2b36 bf63 c437 b046 beb6 9537 f8b9
00000110: 891f d3b8 03f8 f636 4cee 9737 7fae b0b5
00000120: 92c5 9eb9 ebfe 49b8 7ae9 0337 82c2 0fb7
00000130: ba4c 9eb6 f00d 91b9 428c 3437 f767 1c37
00000140: ec43 b239 fd53 7db4 f504 b3b9 64c7 1a3a
00000150: 0501 92b7 f585 4d3a 8387 9036 95db 8dba
00000160: 0c81 ee39 340f 53b8 057e 693a a7c3 1337
00000170: 4bb2 a2ba 8e9a 7b39 200d 80b8 18c9 7c3a
00000180: 0b21 4637 16d4 a1ba 1a93 93b9 d571 96b8
00000190: 8329 6c3a 306e 6437 d214 56ba a6e7 4dba
000001a0: 2ea8 8cb8 6085 a23a a570 c837 6477 4cba
000001b0: 855f a5ba db09 c3b8 5b79 d03a c68d cc37
000001c0: 67ce 0dba f67d cdba 975b ebb8 f94c b43a
000001d0: cd15 eb37 85b4 6739 9630 90ba d8bd c5b8
000001e0: 3b76 8d3a b84b ab37 c32c 4d3a 27cf 83b9
000001f0: b14e 8ab8 de73 8d3a 76b2 e336 5dcb 5f3a
00000200: 47bc 59b8 3d9c 89b8 9f47 8e3a 4535 de36
00000210: 327b 7a3a 5f43 3439 29ba 8eb8 1baf 9d3a
00000220: 7408 4137 d554 643a de5a 113a feac 97b8
00000230: d7e4 af3a 6f5e d537 edbe 2f3a b3a4 923a
00000240: b076 c1b8 9785 ad3a 11b9 df37 aa3a 9f39
00000250: c331 b43a 28a4 c5b8 3b36 de38 26ad 0fb7
00000260: 2088 d0b8 64ab 0cb9 a21e b635 032a c438
00000270: c269 00b7 e092 d6b8 7894 45b9 b5ed b935
00000280: f880 9438 be7b e7b6 2cc5 b3b8 9bb6 3db9
00000290: d588 b635 69ec 4938 6c3a adb6 234e 9636
000002a0: 7ef0 23b9 7128 3a36 d64a 4038 c936 86b6
000002b0: b598 5937 7bee 33b9 9751 3536 8661 1738
000002c0: 674d 56b6 1453 5937 1696 8eb8 24ec 3436
000002d0: 85df c437 4f2e 20b6 262d 0fb7 e55d c7b8
000002e0: 3bdd 3436 4347 05b7 11df 15b6 d419 81b8
000002f0: 4f86 cdb8 bbd1 3436 7556 90b7 35f4 beb5
00000300: f3f0 8ab8 3fcb 6eb8 dbd1 3436 6893 b5b7
00000310: f7ec 17b5 ac39 36b9 f5a3 a0b8 fbd1 3436
00000320: d5d0 d3b7 7dd5 cf34 83b9 78b9 596d 93b8
00000330: 54d3 3436 71ce 14b8 8100 9f35 6846 98b9
00000340: f898 3db8 7152 3036 47f2 95b8 a15c d935
00000350: b0a7 94b9 c8bf 6eb8 8b68 5536 d653 82b9
00000360: 8d0f 06b6 2d7b 3fb9 82db 4538 ec63 6b37
00000370: e0a7 82b9 3e40 86b3 e057 8537 5145 af38
00000380: a535 a737 a290 87b9 4a5a 94b6 3dda b336
00000390: ced5 bc38 f77f c937 acde 76b9 7abe 5eb6
000003a0: def2 5a38 b393 8939 b36b 9437 319c 6239
000003b0: d3cf d9b5 ed8b 08ba 0a65 303a 12af 49b7
000003c0: 6d4a 4c39 a759 0db6 29e6 06ba d8b2 d839
000003d0: ccbc 2bb7 bb3e f839 333d 9933 0f68 66ba
000003e0: 89b9 5439 8217 0ab8 b75a f938 a635 0e35
000003f0: 498c 2cba 1c40 2338 1391 d4b6 512e 1539

exp_avg_sq f4 [128, 150]
1.5905882e-06 2.7660693e-11 1.495463e-08 9.063442e-09 7.0922166e-09 1.5903395e-06 2.7431165e-11 1.467347e-08
8.032485e-09 7.0912973e-09 1.5886931e-06 2.7529624e-11 1.6308515e-08 7.4419564e-09 7.0967086e-09 1.5881823e-06
2.829483e-11 1.7816088e-08 6.3418413e-09 7.094018e-09 1.5733362e-06 2.715956e-11 1.8705904e-08 4.639637e-09
7.0940516e-09 1.5702567e-06 2.7708138e-11 1.7884927e-08 3.9293293e-09 7.0940245e-09 1.5676538e-06 2.8136842e-11
1.7679419e-08 5.0879105e-09 7.0940116e-09 1.5692872e-06 3.069847e-11 1.8033603e-08 5.878533e-09 7.0939805e-09
1.5641299e-06 3.3027612e-11 1.7213043e-08 6.896147e-09 7.0940014e-09 1.5636062e-06 3.57735e-11 1.5114143e-08
6.2434546e-09 7.0940014e-09 1.5513599e-06 3.68262e-11 1.342517e-08 7.337541e-09 7.0943007e-09 1.5564219e-06
3.9415242e-11 1.4782636e-08 9.572735e-09 7.094449e-09 1.5547143e-06 4.0513874e-11 1.6233606e-08 9.860799e-09
7.094661e-09 1.7318381e-06 1.961231e-10 8.031295e-08 3.803378e-07 8.400339e-09 1.9312745e-06 3.498097e-10
2.4105984e-07 9.576128e-07 1.0084467e-08 2.1640822e-06 3.9321216e-10 6.3913205e-07 1.4599726e-06 1.2182612e-08
2.5089253e-06 3.7682077e-10 1.531432e-06 1.8474916e-06 1.5193182e-08 3.23e-06 4.1451204e-10 3.655106e-06
2.176603e-06 2.155049e-08 3.6210179e-06 3.6508238e-10 6.065732e-06 1.6249343e-06 2.5928477e-08 3.9549564e-06
4.490074e-10 7.0159726e-06 1.6995825e-06 2.972237e-08 4.3093237e-06 7.776961e-10 6.407811e-06 3.3606873e-06
3.367471e-08 4.545118e-06 1.2322336e-09 4.8754096e-06 5.467257e-06 3.660328e-08 4.9771293e-06 1.9920665e-09
3.5046978e-06 8.130954e-06 4.085694e-08 5.4664238e-06 3.1043292e-09 2.7187152e-06 1.03814045e-05 4.6039034e-08
6.0688085e-06 4.23e-09 2.722603e-06 1.1750569e-05 5.1278427e-08 6.993689e-06 6.3831553e-09 4.7799363e-06
1.1346196e-05 5.815424e-08 7.0425463e-06 7.533482e-09 7.3989772e-06 8.717532e-06 5.9164424e-08 7.2912508e-06
8.7653165e-09 1.0370991e-05 6.5573686e-06 6.329494e-08 8.100096e-06 9.811235e-09 1.309944e-05 4.984476e-06
6.913781e-08 8.167318e-06 9.708922e-09 1.3278817e-05 4.553436e-06 6.94026e-08 8.0551666e-07 2.0005886e-11
1.027844e-08 1.4016637e-08 3.5903522e-09 8.0162374e-07 1.8563174e-11 9.916381e-09 1.5081731e-08 3.5926895e-09
7.9847325e-07 1.7428078e-11 1.1345233e-08 1.4879431e-08 3.5923695e-09 7.9770643e-07 1.6807314e-11 1.4205579e-08
1.1848161e-08 3.591003e-09 7.927015e-07 1.669446e-11 1.5518223e-08 9.268686e-09 3.5903758e-09 7.8982447e-07
1.6309589e-11 1.7302733e-08 6.8331407e-09 3.5903784e-09 7.907396e-07 1.6164218e-11 1.6730654e-08 5.25351e-09
3.5903758e-09 7.888769e-07 1.6578492e-11 1.5856536e-08 6.600533e-09 3.590363e-09 7.8500466e-07 1.767877e-11
1.3902054e-08 8.661642e-09 3.590363e-09 7.8407504e-07 1.8764995e-11 1.1500429e-08 9.050991e-09 3.590363e-09
7.756493e-07 2.0027015e-11 1.0328635e-08 1.32925955e-08 3.5933694e-09 7.749948e-07 2.0917523e-11 9.595137e-09
1.7624677e-08 3.5936187e-09 7.691134e-07 2.2641427e-11 9.186322e-09 1.7403188e-08 3.58838e-09 9.2903906e-07
1.6766863e-10 1.8271922e-07 3.0289357e-07 5.433257e-09 1.1027821e-06 2.9700364e-10 5.5533286e-07 6.332604e-07
7.835436e-09 1.3067375e-06 3.9755232e-10 1.1012501e-06 8.835423e-07 1.0556779e-08 1.5346252e-06 4.9401017e-10
1.9116528e-06 1.1555688e-06 1.3940353e-08 2.049281e-06 7.813905e-10 3.2935864e-06 1.8360513e-06 2.103228e-08
2.5788465e-06 1.0477358e-09 4.961797e-06 2.5868387e-06 2.879653e-08 3.0163028e-06 1.2194878e-09 6.079328e-06
2.8981347e-06 3.50142e-08 3.6227566e-06 1.7141155e-09 6.813611e-06 4.1278595e-06 4.280663e-08 4.115019e-06
00000000: 327c d535 584e f32d 9475 8032 71b5 1b32
00000010: ccaf f331 a673 d535 7e49 f12d 9b16 7c32
00000020: 3eff 0932 b6a7 f331 143b d535 3427 f22d
00000030: ce16 8c32 24b4 ff31 4fd7 f331 8729 d535
00000040: 4be2 f82d fe09 9932 6de7 d931 a4bf f331
00000050: 6c2b d335 e4e5 ee2d b8ae a032 ae6a 9f31
00000060: f0bf f331 9cc1 d235 2eb9 f32d 5fa1 9932
00000070: bf02 8731 b3bf f331 2d68 d235 897e f72d
00000080: 74dd 9732 bcd1 ae31 96bf f331 4ca0 d235
00000090: 6803 072e 50e8 9a32 20fc c931 50bf f331
000000a0: 18ef d135 c941 112e e2db 9332 27f3 ec31
000000b0: 7fbf f331 1add d135 6155 1d2e 5ad4 8132
000000c0: 0286 d631 7fbf f331 5238 d035 9df6 212e
000000d0: 86a4 6632 b11d fc31 21c2 f331 40e6 d035
000000e0: 9e59 2d2e b8f6 7d32 5575 2432 6fc3 f331
000000f0: 94ab d035 912e 322e 1472 8b32 4168 2932
00000100: 4cc5 f331 8171 e835 bfa3 572f 8378 ac33
00000110: 3b31 cc34 1551 1032 0b9b 0136 574f c02f
00000120: 036b 8134 5387 8035 f43f 2d32 a63a 1136
00000130: b12b d82f d290 2b35 47f4 c335 b24b 5132
00000140: 025f 2836 cf28 cf2f 9a8b cd35 54f7 f735
00000150: 2982 8232 fac2 5836 62e1 e32f 3e4a 7536
00000160: c111 1236 071e b932 9d00 7336 c7b4 c82f
00000170: 3e88 cb36 5118 da35 53b9 de32 d1b4 8436
00000180: 2cd8 f62f bf6a eb36 361d e435 2f50 ff32
00000190: cf98 9036 7fc5 5530 ad02 d736 2b88 6136
000001a0: bca1 1033 4482 9836 5e5b a930 7397 a336
000001b0: 6173 b736 bb35 1d33 3701 a736 cee4 0831
000001c0: 4032 6b36 2e6a 0837 ae7a 2f33 396c b736
000001d0: f053 5531 2c73 3636 cb2b 2e37 74bc 4533
000001e0: aba2 cb36 7957 9131 f7b5 3636 4f24 4537
000001f0: 3a3d 5c33 55ab ea36 d452 db31 5763 a036
00000200: 8a5b 3e37 43c5 7933 034f ec36 9b6c 0132
00000210: bb44 f836 8441 1237 f91b 7e33 5ea7 f436
00000220: 4596 1632 11ff 2d37 5e07 dc36 c3ec 8733
00000230: a6e5 0737 458e 2832 abc5 5b37 5340 a736
00000240: ea78 9433 5d06 0937 4acc 2632 16c8 5e37
00000250: b8c9 9836 7c0a 9533 af3a 5835 40f9 af2d
00000260: 0f95 3032 d2cd 7032 25ba 7631 2a2f 5735
00000270: 8d48 a32d b45c 2a32 148d 8132 43e3 7631
00000280: aa56 5635 8b4c 992d dde8 4232 6ea0 7f32
00000290: a2dd 7631 f821 5635 b5d6 932d cc0c 7432
000002a0: c38c 4b32 98c5 7631 08ca 5435 95d8 922d
000002b0: ef4c 8532 1d3c 1f32 8fba 7631 5304 5435
000002c0: ee75 8f2d 1da1 9432 f1c8 ea31 9bba 7631
000002d0: 3643 5435 952e 8e2d 19b7 8f32 5d82 b431
000002e0: 8fba 7631 35c3 5335 72d3 912d e434 8832
000002f0: e7ca e231 55ba 7631 1cb9 5235 0d81 9b2d
00000300: e1d5 6e32 4ece 1432 55ba 7631 3a79 5235
00000310: 030f a52d 6c93 4532 ae7e 1b32 55ba 7631
00000320: 3736 5035 d428 b02d d171 3132 745d 6432
00000330: 39ef 7631 3d09 5035 13fe b72d dcd7 2432
00000340: 1365 9732 9cf3 7631 1275 4e35 f627 c72d
00000350: dfd1 1d32 047e 9532 7397 7631 1463 7935
00000360: 865a 382f 7a31 4434 609d a234 6faf ba31
00000370: 4e03 9435 8c47 a32f 2f12 1535 53fd 2935
00000380: 9d9c 0632 2963 af35 848e da2f aace 9335
00000390: 912c 6d35 345d 3532 52f9 cd35 e0ca 0730
000003a0: f249 0036 0b19 9b35 527e 6f32 6186 0936
000003b0: 78c9 5630 6207 5d36 3e6e f635 79aa b432
000003c0: 3f10 2d36 edff 8f30 837d a636 8d99 2d36
000003d0: 3d5c f732 b06b 4a36 ea9a a730 08fd cb36
000003e0: 937d 4236 8562 1633 7c1e 7336 1496 eb30
000003f0: 79a0 e436 0b82 8a36 63da 3733 be13 8a36

exp_avg f4 [128]
-4.712131e-05 4.3065305e-05 6.3591775e-05 -1.0531269e-05 -2.1862494e-05 3.2451764e-05 1.8055225e-05 2.1966857e-06
2.0676007e-05 8.719891e-06 -2.7091188e-05 -5.7549845e-05 -3.7340064e-06 2.3436221e-05 8.297602e-06 -8.7054815e-07
8.17731e-06 1.6307291e-05 -1.2534673e-05 8.1294245e-05 -2.9318207e-07 -2.7949229e-05 9.275241e-06 2.584454e-05
1.4283626e-05 7.981167e-05 -4.105534e-05 -8.6494874e-05 -2.6070977e-05 2.561582e-05 1.7118467e-05 -2.2250884e-05
1.8470388e-05 1.5087976e-05 3.0676629e-06 1.8831493e-05 1.9155033e-05 -2.5926758e-05 5.0263992e-05 -3.5185167e-05
-2.3231478e-05 0.00012198671 -1.426639e-06 -4.646064e-05 9.014496e-06 -1.6435044e-05 4.2361502e-05 2.276129e-06
-4.2927913e-05 2.004174e-05 -1.4627908e-06 9.211517e-06 -2.5958977e-06 -3.9215745e-05 -1.09486255e-05 6.836027e-07
-9.58883e-06 -8.852272e-06 1.8919793e-05 7.8376394e-07 1.0470375e-05 -1.8775429e-05 8.990284e-06 1.2719656e-05
-2.5300033e-05 6.0161638e-05 -5.6878165e-05 -9.076214e-06 1.3886523e-06 3.82495e-06 -1.7207614e-05 -6.434706e-05
1.9773239e-05 2.0903009e-07 -3.0256922e-05 -1.3840119e-05 -2.723277e-05 3.35445e-05 6.3908697e-06 2.8073426e-05
5.3576314e-05 1.4470853e-06 2.7395736e-05 -8.964595e-06 2.352123e-05 -4.9904284e-05 -1.8783949e-05 -1.9733747e-05
1.5370979e-05 7.10901e-06 3.981624e-05 1.8833947e-05 4.280602e-05 -0.00010623843 -6.320527e-06 4.6569014e-05
3.4718094e-06 3.0421726e-05 -7.1993614e-05 -5.5294818e-06 5.2413943e-05 2.538661e-05 2.1030846e-05 4.3722936e-05
9.8247065e-06 -3.5118184e-05 1.9566209e-05 1.0708721e-05 -3.9922447e-06 7.456529e-06 2.9410344e-06 1.2708502e-05
-3.348703e-06 1.2331209e-05 7.777706e-06 4.4660464e-05 8.497971e-06 2.8971954e-05 1.2917378e-05 -1.9846124e-05
1.2851183e-05 -1.1210195e-05 3.0684892e-05 -6.4059573e-06 -8.815708e-06 -2.239313e-05 1.7178763e-05 -2.2334867e-05
00000000: 1fa4 45b8 05a1 3438 935c 8538 75af 30b7
00000010: 5965 b7b7 d11c 0838 4d75 9737 c66a 1336
00000020: 6371 ad37 a64b 1237 e241 e3b7 ad61 71b8
00000030: be95 7ab6 e798 c437 ee35 0b37 9daf 69b5
00000040: 4731 0937 a4cb 8837 034c 52b7 847c aa38
00000050: a366 9db4 8374 eab7 db9c 1b37 bacc d837
00000060: b5a3 6f37 9060 a738 d632 2cb8 9564 b5b8
00000070: ffb2 dab7 8ee1 d637 a199 8f37 69a7 bab7
00000080: dbf0 9a37 5d22 7d37 0cde 4d36 53f8 9d37
00000090: 1faf a037 4a7d d9b7 8dd2 5238 c993 13b8
000000a0: 38e1 c2b7 1ed3 ff38 f17a bfb5 bbde 42b8
000000b0: f73c 1737 fddd 89b7 51ad 3138 99bf 1836
000000c0: 7f0d 34b8 4f1f a837 1c55 c4b5 2a8b 1a37
000000d0: 2f35 2eb6 967b 24b8 fdaf 37b7 d280 3735
000000e0: b6df 20b7 3884 14b7 f2b5 9e37 d963 5235
000000f0: eba9 2f37 ed7f 9db7 fad4 1637 8266 5537
00000100: 683b d4b7 1156 7c38 7790 6eb8 0b46 18b7
00000110: bb61 ba35 1258 8036 1259 90b7 11f2 86b8
00000120: b5de a537 c171 6034 3fd0 fdb7 dc32 68b7
00000130: ee71 e4b7 22b2 0c38 2771 d636 397f eb37
00000140: 21b7 6038 7939 c235 e5cf e537 a466 16b7
00000150: 754f c537 5150 51b8 3992 9db7 e689 a5b7
00000160: edf0 8037 ee89 ee36 5d00 2738 98fd 9d37
00000170: 9d8a 3338 53cc deb8 ea14 d4b6 1953 4338
00000180: 3bfd 6836 2932 ff37 47fb 96b8 e389 b9b6
00000190: 0bd7 5b38 54f5 d437 666b b037 2563 3738
000001a0: cbd4 2437 dd4b 13b8 1d22 a437 9ba9 3337
000001b0: 1ff5 85b6 1933 fa36 965e 4536 9a36 5537
000001c0: 48ba 60b6 24e2 4e37 fe7c 0237 cf51 3b38
000001d0: 8292 0e37 cc08 f337 b7b7 5837 3a7b a6b7
000001e0: 699b 5737 6c13 3cb7 a7b3 0038 c1f2 d6b6
000001f0: 2de7 13b7 e1d8 bbb7 1d1b 9037 c35b bbb7

exp_avg_sq f4 [128]
1.7350652e-08 3.0943845e-08 2.4424114e-08 1.6338891e-08 4.772561e-08 2.0123936e-08 4.0172992e-08 5.6064358e-09
8.287891e-09 5.3475593e-09 2.9595276e-08 4.1196284e-08 1.5793507e-09 3.4476862e-08 1.8601495e-08 5.8010148e-08
4.4895563e-09 2.5129726e-08 3.0801361e-09 2.4159512e-08 2.0722377e-09 3.929889e-08 2.1183109e-08 1.9619293e-08
6.339512e-09 7.278082e-08 5.17487e-08 3.7660545e-08 5.188255e-09 4.428313e-09 6.185531e-09 1.1945473e-08
1.3979471e-08 5.586938e-09 2.412613e-08 2.1347544e-08 1.12905845e-08 1.9304165e-08 5.6425492e-08 3.7785593e-08
8.282139e-09 4.4569518e-08 8.183361e-09 1.4849604e-08 8.858865e-09 1.1061787e-08 1.24024435e-08 2.2605393e-08
5.13504e-08 8.39634e-09 3.061447e-09 1.21777575e-08 4.8627102e-09 1.0117302e-08 1.2057999e-08 3.0626797e-08
2.2458053e-08 8.965154e-09 2.4759638e-08 8.9557e-09 4.3726214e-08 1.3838423e-08 6.0737806e-09 4.663991e-09
1.239525e-08 1.07688834e-07 3.036222e-08 1.0193647e-08 3.556341e-09 7.7645135e-09 1.2620153e-08 3.7549636e-08
6.782088e-09 5.393589e-09 1.3859283e-08 2.5195156e-08 3.5758347e-08 9.0251596e-08 2.9114883e-08 3.7013703e-09
1.6741188e-08 3.2551264e-09 2.3618464e-08 5.933072e-08 7.3075794e-09 5.9574294e-08 2.676886e-08 3.8747583e-09
2.9950744e-08 7.565789e-09 1.6093312e-08 6.2288357e-09 1.16065895e-08 9.372535e-08 2.5901159e-08 1.8552784e-08
2.6336382e-08 4.5375845e-08 3.7219948e-08 2.0312008e-08 6.475867e-08 1.2590808e-08 5.937193e-09 8.690542e-09
9.213197e-09 2.8526046e-08 3.2476123e-08 1.3338882e-08 1.4843256e-08 4.1682715e-09 4.881057e-09 1.8239538e-08
3.0387013e-09 6.2753855e-09 6.723695e-09 6.6481083e-09 5.0248885e-09 3.1324863e-08 2.207186e-08 3.167573e-08
7.5382225e-09 6.280913e-09 8.6437355e-09 8.333308e-08 4.257327e-09 1.22695365e-08 2.6076319e-09 6.816239e-09
00000000: 7d0a 9532 1ee7 0433 32cd d132 9a59 8c32
00000010: ddfa 4c33 01dd ac32 ac8a 2c33 bba2 c031
00000020: 8862 0e32 a1bd b731 b338 fe32 cbef 3033
00000030: 7610 d930 b613 1433 1fc9 9f32 d526 7933
00000040: 8e42 9a31 dadc d732 54aa 5331 5487 cf32
00000050: 3167 0e31 96c9 2833 26f6 b532 4887 a832
00000060: f0d2 d931 ae4b 9c33 4c42 5e33 35c0 2133
00000070: 6044 b231 da27 9831 8288 d431 bf38 4d32
00000080: 5d2a 7032 3af7 bf31 ec3d cf32 bf5f b732
00000090: 84f8 4132 4fd2 a532 7c58 7233 b349 2233
000000a0: 3c49 0e32 b46c 3f33 cd96 0c32 401d 7f32
000000b0: b331 1832 410a 3e32 8612 5532 c92d c232
000000c0: 5d8c 5c33 7e3f 1032 8c61 5231 5836 5132
000000d0: da14 a731 5dd0 2d32 a427 4f32 858a 0333
000000e0: c8e9 c032 2a05 1a32 05af d432 96db 1932
000000f0: 7bcd 3b33 07be 6d32 8ab1 d031 e640 a031
00000100: e3f2 5432 9042 e733 9d67 0233 2220 2f32
00000110: d063 7431 b164 0532 05d0 5832 4346 2133
00000120: e007 e931 8352 b931 c519 6e32 bc6c d832
00000130: b894 1933 57d0 c133 4e18 fa32 325b 7e31
00000140: 43ce 8f32 cab0 5f31 8de1 ca32 d1d2 7e33
00000150: 2616 fb31 a1de 7f33 58f1 e532 bc22 8531
00000160: 31a3 0033 b1fa 0132 913d 8a32 6b05 d631
00000170: 5266 4732 0e46 c933 407d de32 015e 9f32
00000180: 513a e232 45e3 4233 c4db 1f33 947a ae32
00000190: 7511 8b33 f64e 5832 1a00 cc31 684d 1532
000001a0: 1248 1e32 7009 f532 e07b 0b33 0629 6532
000001b0: 5501 7f32 8138 8f31 3bb6 a731 2bad 9c32
000001c0: 66d1 5031 e09e d731 3f06 e731 616d e431
000001d0: 63a7 ac31 0d8a 0633 8998 bd32 d50b 0833
000001e0: 7481 0132 7fcf d731 8d7f 1432 d8f4 b233
000001f0: d847 9231 fec9 5232 f231 3331 4634 ea31
