results/Test1/BalanceBall1/BalanceBall1-60032.pt (torch, 884794 bytes, 33 tensors)

network_body._body_endoder.seq_layers.0.weight f4 [128, 150]
-0.175748 0.103190385 0.10479113 0.18332028 0.10048621 -0.09899054 -0.037375327 -0.03169538
-0.07870942 0.006270479 -0.04822258 -0.04603094 -0.060103998 0.19701374 0.021774622 0.05567559
0.06725884 -0.02665815 0.02248376 -0.027245935 0.011246455 0.15557237 0.10082917 -0.0001779962
-0.12511918 0.052233253 -0.11367437 -0.049692303 0.021825274 -0.0024999962 -0.14763738 0.14902535
-0.019703997 0.073676735 0.17250395 -0.02426253 -0.0032885831 -0.056474928 0.005085427 0.02415748
-0.0032417409 -0.022666035 0.00066193525 0.11296443 0.09807719 0.02538213 -0.010759589 0.14843845
0.0028521186 0.033710293 0.0062258765 0.05814942 -0.100277744 -0.20404676 0.019035894 -0.15398493
-0.14138235 -0.045125805 0.0044072666 0.1189628 0.09924838 -0.09300643 0.006505029 0.13952254
0.23528323 -0.06318854 0.025430439 -0.068835855 -0.052301176 0.014839267 -0.09082434 0.05341538
-0.02319204 0.010012191 -0.00019706161 0.087203935 0.062466174 -0.03243233 -0.0032242322 -0.07160588
-0.0192797 -0.037342615 0.012312902 -0.17897925 0.07671459 -0.07502797 -0.06359028 0.03424393
-0.06445627 0.036883317 -0.053816177 -0.02260134 -0.020681243 -0.11329204 -0.1063452 -0.041956887
0.073281616 -0.014006508 -0.07243547 0.073172115 -0.06083946 -0.012145558 0.027795909 -0.007363549
-0.060757633 0.16442473 -0.08892266 -0.037940934 0.10287511 -0.052125957 -0.013706619 -0.068234175
0.033848185 -0.059392896 0.11051113 -0.06121825 0.02501413 -0.014002133 0.024849633 -0.008333645
0.14032477 -0.06673969 0.08483873 0.061359376 0.1356796 -0.17583436 0.0054027997 -0.0043998915
0.015856657 -0.07363196 -0.02671857 0.013206613 0.004117288 0.16524932 -0.102372594 0.21025312
-0.09186014 -0.01682659 -0.12435222 -0.017133579 -0.03216497 0.013366723 -0.07176863 -0.10735152
0.005251452 0.19263834 0.100633115 -0.008420812 0.0019750989 -0.12246172 0.12260493 0.0939536
-0.12432626 -0.04027731 -0.1278557 -0.061081935 0.062921114 -0.06468522 -0.0020086989 0.06677684
0.008258484 -0.059964176 -0.13752584 -0.08239232 -0.12316165 0.07763845 0.057024777 0.038321745
-0.015747005 -0.09957938 -0.044257052 -0.04294457 -0.06247925 -0.020269934 -0.057865795 0.012705431
-0.035537567 -0.0971086 0.09359648 0.028009456 -0.055640217 -0.058256898 -0.13204283 0.079305574
-0.021658497 -0.09973383 -0.05519522 0.074675396 0.041898124 0.145429 -0.1007792 0.07244906
-0.015757034 -0.009480799 -0.037749644 -2.4148342e-06 0.027824573 0.06556634 0.008151592 -0.05386878
0.15472338 0.011343082 -0.01638038 -0.23995414 0.06406684 0.05049997 0.0056182947 0.0354254
-0.0051014028 -0.13199107 0.04239454 -0.10145272 0.1363726 0.16891836 -0.0064482503 -0.03278972
-0.11608928 0.049115065 0.03693652 -0.075169094 -0.000580192 -0.014499971 0.018254537 -0.05321129
0.038711827 0.051142115 -0.072579496 0.0114461295 0.09023068 -0.0092361 0.002720177 -0.029449662
0.069874674 -0.068188876 0.18029922 -0.032300826 -0.082367934 0.16164646 0.009444174 0.003860265
-0.1622791 0.0099503575 -0.07833926 0.031082757 0.0881514 0.010792268 -0.0662821 0.04494055
0.03660964 0.077719025 -0.10995816 0.024082212 0.09906383 -0.03179492 0.016466102 -0.04393833
00000000: 49f7 33be 7b55 d33d bb9c d63d 50b8 3b3e
00000010: b7cb cd3d 8dbb cabd df16 19bd 04d3 01bd
00000020: 6832 a1bd 9778 cd3b 0a85 45bd f08a 3cbd
00000030: 9c2f 76bd f8bd 493e b160 b23c 160c 643d
00000040: 01bf 893d 3162 dabc dd2f b83c de32 dfbc
00000050: 0d43 383c 5d4e 1f3e 867f ce3d 7ea4 3ab9
00000060: 3e1f 00be 89f2 553d 1cce e8bd 288a 4bbd
00000070: ebca b23c fad6 23bb 412e 17be 1a9a 183e
00000080: 476a a1bc d4e3 963d e0a4 303e 37c2 c6bc
00000090: 4585 57bb 4152 67bd a7a3 a63b e8e5 c53c
000000a0: 6373 54bb 1fae b9bc b985 2d3a e559 e73d
000000b0: b2dc c83d 2fee cf3c fd48 30bc 4000 183e
000000c0: 9cea 3a3b ce13 0a3d 7002 cc3b 162e 6e3d
000000d0: 6b5e cdbd a2f1 50be 2af1 9b3c 3aae 1dbe
000000e0: 89c6 10be d6d5 38bd d56a 903b c5a2 f33d
000000f0: bc42 cb3d 287a bebd 2328 d53b ffde 0e3e
00000100: 16ee 703e fe68 81bd 7f53 d03c d0f9 8cbd
00000110: c239 56bd 6620 733c 1d02 babd 16ca 5a3d
00000120: 3cfd bdbc 2c0a 243c 53a2 4eb9 fa97 b23d
00000130: 88dc 7f3d c3d7 04bd a44d 53bb 1ba6 92bd
00000140: 76f0 9dbc 92f4 18bd 0ebc 493c 5646 37be
00000150: 8a1c 9d3d 44a8 99bd 9f3b 82bd 5d43 0c3d
00000160: a601 84bd f612 173d 5a6e 5cbd 7226 b9bc
00000170: b66b a9bc a805 e8bd 83cb d9bd fcda 2bbd
00000180: ac14 963d 8d7b 65bc 0c59 94bd 43db 953d
00000190: cc32 79bd 2afe 46bc 3fb4 e33c ed49 f1bb
000001a0: ffdc 78bd f55e 283e 151d b6bd f467 1bbd
000001b0: 30b0 d23d 0782 55bd ba91 60bc 5cbe 8bbd
000001c0: 65a4 0a3d f745 73bd a953 e23d fdbf 7abd
000001d0: 6fea cc3c 3469 65bc 7591 cb3c d789 08bc
000001e0: 4cb1 0f3e d2ae 88bd eebf ad3d f853 7b3d
000001f0: 98ef 0a3e ec0d 34be f809 b13b f72c 90bb
00000200: d2e5 813c 5acc 96bd e7e0 dabc 8d60 583c
00000210: 51ea 863b 1e37 293e b9a8 d1bd 984c 573e
00000220: 2b21 bcbd ebd7 89bc 60ac febd b85b 8cbc
00000230: 6abf 03bd 1a00 5b3c 6efb 92bd 1ddb dbbd
00000240: 5f14 ac3b fc42 453e bc18 ce3d 72f7 09bc
00000250: a970 013b 36cd fabd 4b18 fb3d bf6a c03d
00000260: c49e febd d2f9 24bd 9bec 02be 0d31 7abd
00000270: c9dc 803d af79 84bd 60a4 03bb 4cc2 883d
00000280: 984e 073c ff9c 75bd 93d3 0cbe 4ebd a8bd
00000290: 2d3c fcbd e800 9f3d d092 693d 43f7 1c3d
000002a0: ddff 80bc 46f0 cbbd e246 35bd a5e6 2fbd
000002b0: 3eea 7fbd 220d a6bc af04 6dbd 712a 503c
000002c0: d78f 11bd e0e0 c6bd 83af bf3d 1674 e53c
000002d0: ffe6 63bd c99e 6ebd 3c36 07be f66a a23d
000002e0: 296d b1bc 4041 ccbd 6214 62bd 6aef 983d
000002f0: 5e9d 2b3d 57eb 143e 5365 cebd 2c60 943d
00000300: e514 81bc 5a55 1bbc 5f9f 1abd 890e 22b6
00000310: 5cf0 e33c a547 863d 418e 053c 83a5 5cbd
00000320: ce6f 1e3e 56d8 393c 2630 86bc 8ab6 75be
00000330: 7a35 833d 0ed9 4e3d ac19 b83b 391a 113d
00000340: ab29 a7bb ab28 07be e6a5 2d3d 72c6 cfbd
00000350: 42a5 0b3e eff8 2c3e d84b d3bb 834e 06bd
00000360: 37c0 edbd e12c 493d c04a 173d 41f2 99bd
00000370: 0718 18ba 4991 6dbc 8a8a 953c 15f4 59bd
00000380: 4b90 1e3d 657a 513d 8fa4 94bd 8c88 3b3c
00000390: ddca b83d 0353 17bc ff44 323b 6b40 f1bc
000003a0: 741a 8f3d 9ca6 8bbd 5ca0 383e df4d 04bd
000003b0: 85b0 a8bd a686 253e bdbb 1a3c 80fc 7c3b
000003c0: 7e2c 26be d306 233c 5570 a0bd 44a1 fe3c
000003d0: b988 b43d 0ed2 303c e9be 87bd 9513 383d
000003e0: fdf3 153d 272b 9f3d be31 e1bd 0f48 c53c
000003f0: fae1 ca3d 643b 02bd ebe3 863c aef8 33bd

network_body._body_endoder.seq_layers.0.bias f4 [128]
-0.012790016 -0.007226058 -0.001255121 -0.009701749 0.020359837 0.009018466 0.015747076 -0.0048880517
-0.0059388205 0.021914832 0.014591461 -0.009655927 -0.009490724 -0.0048305606 0.0004292893 0.015299182
-0.008246115 0.0031245574 0.0042047137 0.0060369847 -0.007812505 -0.008024555 -0.0049321093 -0.006491336
-0.0028517132 0.0047315364 -0.0032526262 0.0011357364 0.011050492 -0.003577325 0.0036756082 0.0123885935
-0.0053540436 -0.0031729487 0.016654642 0.0034056855 0.0075643295 0.0134069165 0.017572418 0.01091943
-0.011167637 0.009384892 0.012541794 0.0019439145 0.0027626671 0.004910687 -0.005887657 0.010985008
0.021141196 -0.0050474554 -0.003157605 -0.0010145307 0.002522524 0.004272779 -0.010473768 0.012150251
-0.011591699 -0.00925171 0.00783308 0.0023230424 0.00093961094 -0.008786795 -0.0044755125 0.00683011
0.0047229235 0.0062576323 0.007687259 0.01429873 -0.006663071 0.006745731 0.0071803676 0.003782987
0.013483096 -0.0043276027 0.0029162685 0.0047072317 0.0070974124 0.012536021 -0.005837662 -0.0054679303
0.0053876964 -0.008273853 0.000436106 0.02014174 0.0011391973 -0.009487199 0.011224037 0.00992042
0.01588675 -0.005441133 -0.0012524931 -0.004800825 -0.007606239 -0.0015077711 -0.009216444 -0.0015316806
0.00305517 0.0007309883 0.0063300817 -0.008861008 -0.0046921 0.00022292229 -0.011048504 -0.004398905
-0.003166452 -0.0055811335 0.01639188 -0.0005951351 0.0014796362 -0.0021999548 -0.012366622 0.0048580496
-0.0038390176 0.0016009221 0.009498531 0.001687284 0.0026958708 0.007992805 0.0013234982 -0.0024033517
0.0144407535 -0.002392459 -0.0102867205 0.013191853 -0.0020738475 0.008716239 -0.009516939 0.017494073
00000000: 378d 51bc 91c8 ecbb df82 a4ba 16f4 1ebc
00000010: acc9 a63c 30c2 133c 0300 813c f32b a0bb
00000020: 709a c2bb bc86 b33c 0611 6f3c e533 1ebc
00000030: fb7e 1bbc ae49 9ebb 3c12 e139 6ca9 7a3c
00000040: b71a 07bc 60c5 4c3b b2c7 893b e6d1 c53b
00000050: 0500 00bc 6c79 03bc 889d a1bb 46b5 d4bb
00000060: cfe3 3abb 010b 9b3b 032a 55bb fddc 943a
00000070: 1f0d 353c 8e71 6abb 79e2 703b 87f9 4a3c
00000080: f970 afbb 3ff1 4fbb 516f 883c ec31 5f3b
00000090: 32de f73b afa8 5b3c 08f4 8f3c 69e7 323c
000000a0: 77f8 36bc 17c3 193c 197c 4d3c f2ca fe3a
000000b0: dd0d 353b d4e9 a03b 3fed c0bb 77fa 333c
000000c0: 4d30 ad3c 2065 a5bb d2ef 4ebb 00fa 84ba
000000d0: ee50 253b ab02 8c3b 2b9a 2bbc d911 473c
000000e0: 1ceb 3dbc 7c94 17bc 5256 003c 2f3e 183b
000000f0: 3950 763a 7df6 0fbc 52a7 92bb 1ecf df3b
00000100: c1c2 9a3b d30c cd3b 67e5 fb3b 3845 6a3c
00000110: e455 dabb 4b0b dd3b 4a49 eb3b fdeb 773b
00000120: 34e8 5c3c 90ce 8dbb de1e 3f3b 1f3f 9a3b
00000130: 6991 e83b e263 4d3c dc49 bfbb 532c b3bb
00000140: 468b b03b 0e8f 07bc 28a5 e439 4a00 a53c
00000150: 1e51 953a 3270 1bbc 06e5 373c 4289 223c
00000160: ee24 823c 884b b2bb b22a a4ba 3d50 9dbb
00000170: c23d f9bb 67a0 c5ba 9100 17bc acc2 c8ba
00000180: 3f39 483b cb9f 3f3a 936c cf3b c32d 11bc
00000190: 30c0 99bb 3fc0 6939 c904 35bc b124 90bb
000001a0: 4084 4fbb f1e1 b6bb 4448 863c d702 1cba
000001b0: 5af0 c13a 1e2d 10bb 5f9d 4abc 4630 9f3b
000001c0: 0798 7bbb 08d6 d13a ba9f 1b3c db27 dd3a
000001d0: 35ad 303b 41f4 023c 3b79 ad3a 8d81 1dbb
000001e0: e998 6c3c cdca 1cbb a289 28bc a422 583c
000001f0: 63e9 07bb 8ece 0e3c efec 1bbc bb4f 8f3c

network_body._body_endoder.seq_layers.2.weight f4 [128, 128]
0.024187861 -0.06104711 0.015070569 0.03704413 -0.05248839 -0.024827786 -0.011191538 -0.10905635
-0.10913855 -0.08659066 0.07857192 0.03908951 0.026366735 -0.02340482 -0.06740944 -0.16413385
-0.010436159 0.061164334 -0.03410229 0.01299931 0.119421475 0.11538633 -0.08765559 -0.05492917
0.031109136 -0.119353645 0.007714921 0.113095656 -0.0063909316 0.06803406 -0.07584298 -0.058614146
0.16192032 0.017324781 0.048839156 0.05538827 0.03232674 0.040643096 -0.06015584 0.056461047
0.054101855 -0.0034007765 0.13641874 -0.09885001 -0.12118043 0.021948094 0.18543696 -0.0019111033
-0.011411576 0.04960461 0.052162427 -0.038825005 0.037358478 0.09855139 0.08018173 -0.096467935
0.054222193 -0.007023999 -0.07655183 0.12333846 0.05544153 0.13645703 -0.105599776 -0.012855301
0.063292995 0.023282282 0.041052736 0.06506221 0.08744633 0.01568957 0.009115598 -0.043880478
0.004866395 0.07239362 0.1424378 -0.12482795 -0.11240858 -0.087812595 -0.043782912 0.0028806943
-0.016561901 -0.0005896525 0.012657113 0.1573887 -0.014948769 0.17129776 0.08469657 0.10499025
0.031031735 0.020653518 0.012917662 0.06211084 -0.024006017 0.040500455 0.026376849 -0.07941687
-0.032149233 -0.0443853 0.09170832 0.13739301 0.08396429 0.07217865 -0.096339755 -0.080963984
-0.07795687 -0.024486106 0.045883533 -0.08774545 -0.06129305 -0.05146174 0.09745566 0.08778748
-0.07778571 -0.07560305 0.043969058 0.08584964 -0.10134881 -0.020459099 0.010605635 -0.1311824
0.20902297 0.036274366 -0.2057499 0.066779375 -0.09820358 -0.18226516 -0.13094519 0.025684778
-0.030249 0.102422304 0.026769614 -0.039960533 0.119032465 -0.035739675 -0.007037265 0.051055793
0.0033960808 -0.093671985 -0.02208771 -0.071017824 0.007779402 0.19947797 -0.027227905 0.0948909
0.040183783 -0.07387228 0.0067148893 0.010121613 -0.2131479 -0.02165398 -0.055860106 0.10504909
0.1970108 -0.020029102 0.074707516 0.09200365 0.010680439 0.016500488 0.06492996 0.07798008
0.101018734 -0.06622775 -0.14230154 -0.042167522 -0.026916133 0.039788134 0.012610142 -0.035223577
-0.025299855 0.0031214105 0.16246648 0.026744425 0.14957358 -0.00069863664 0.02706793 0.3081758
0.070061855 0.09507003 -0.14760265 -0.034527127 -0.07191561 0.04557217 0.19253068 -0.07843925
-0.0037864528 -0.14605477 0.060347382 -0.049241032 -0.050399777 -0.006149473 -0.069409415 0.15433393
0.088144876 0.0297238 0.05508491 -0.06522724 0.03920261 -0.071040116 -0.0038069359 0.0022703577
0.042887773 -0.116163336 0.1403962 0.06824304 -0.004602972 0.029264139 -0.03288771 0.01456657
-0.08938937 0.07494845 0.02810431 0.037294846 -0.08444411 -0.12385572 0.010399163 -0.17287043
-0.102130346 0.021120273 0.040635835 -0.11484767 -0.08119513 -0.05507211 0.0041809515 -0.15574557
-0.16183701 -0.15365687 0.11971664 0.08079118 0.0057029193 0.0968181 0.05649966 -0.096225895
0.030766793 -0.0062204455 0.08961877 -0.02421545 0.10196113 0.04740276 0.049816694 -0.17159082
-0.086428165 0.113691084 0.030321425 0.0029235163 0.014003097 0.06642417 0.0063244062 -0.020532025
-0.100885704 0.07829772 -0.07698651 0.0008373969 -0.13077985 -0.07410827 -0.05117055 -0.1019093
00000000: 9f25 c63c 890c 7abd 8cea 763c 96bb 173d
00000010: 11fe 56bd a463 cbbc b65c 37bc f058 dfbd
00000020: 0884 dfbd 7256 b1bd 51ea a03d 521c 203d
00000030: 0dff d73c 77bb bfbc f60d 8abd b412 28be
00000040: 6cfc 2abc 7487 7a3d d8ae 0bbd 0ffb 543c
00000050: 3f93 f43d ab4f ec3d c684 b3bd 69fd 60bd
00000060: 96d8 fe3c af6f f4bd 73cd fc3b b29e e73d
00000070: 056b d1bb 7155 8b3d 9053 9bbd 6315 70bd
00000080: 71ce 253e b3ec 8d3c 910b 483d d0de 623d
00000090: 0b69 043d 6079 263d f865 76bd b343 673d
000000a0: e899 5d3d 90df 5ebb 5bb1 0b3e e071 cabd
000000b0: 722d f8bd 7dcc b33c 30e3 3d3e fc7d faba
000000c0: 9ef7 3abc 342e 4b3d 45a8 553d f806 1fbd
000000d0: 3405 193d 50d5 c93d 5236 a43d fb90 c5bd
000000e0: 1718 5e3d 9329 e6bb 35c7 9cbd e098 fc3d
000000f0: a816 633d 64bb 0b3e b244 d8bd 0a9f 52bc
00000100: c29f 813d 7cba be3c ea26 283d 563f 853d
00000110: 1017 b33d 6a87 803c 9759 153c 04bc 33bd
00000120: 4876 9f3b 1b43 943d 37db 113e cca5 ffbd
00000130: 7836 e6bd 17d7 b3bd b655 33bd 08ca 3c3b
00000140: d3ac 87bc e992 1aba c85f 4f3c 812a 213e
00000150: aeeb 74bc ae68 2f3e 6575 ad3d 2105 d73d
00000160: 4436 fe3c 9131 a93c 9aa4 533c f067 7e3d
00000170: 44a8 c4bc cee3 253d 4314 d83c 50a5 a2bd
00000180: eaae 03bd 5ccd 35bd 92d1 bb3d c1b0 0c3e
00000190: 78f5 ab3d 66d2 933d c74d c5bd 72d0 a5bd
000001a0: daa7 9fbd 1697 c8bc 5ff0 3b3d e3b3 b3bd
000001b0: 6c0e 7bbd 8cc9 52bd d596 c73d ecc9 b33d
000001c0: 1d4e 9fbd c6d5 9abd e618 343d f0d1 af3d
000001d0: f78f cfbd d799 a7bc 42c3 2d3c ae54 06be
000001e0: 1e0a 563e 6e94 143d 1ab0 52be a0c3 883d
000001f0: f51e c9bd b8a3 3abe 7f16 06be e268 d23c
00000200: c0cc f7bc c9c2 d13d f34b db3c a8ad 23bd
00000210: 4bc7 f33d c463 12bd dc98 e6bb e11f 513d
00000220: c890 5e3b 19d7 bfbd 49f1 b4bc cb71 91bd
00000230: 5bea fe3b f443 4c3e 0e0d dfbc 2956 c23d
00000240: c097 243d 5a4a 97bd 9308 dc3b 1fd5 253c
00000250: 7143 5abe b063 b1bc 91cd 64bd fa23 d73d
00000260: 33bd 493e 1214 a4bc 4100 993d 696c bc3d
00000270: 02fd 2e3c 082c 873c 00fa 843d 05b4 9f3d
00000280: e9e2 ce3d 6aa2 87bd 7fb7 11be dab7 2cbd
00000290: 397f dcbc e2f8 223d c59a 4e3c 9946 10bd
000002a0: a441 cfbc 9490 4c3b 9d5d 263e 2017 db3c
000002b0: d129 193e b624 37ba 90bd dd3c 38c9 9d3e
000002c0: 977c 8f3d 13b4 c23d 2625 17be 516c 0dbd
000002d0: 7e48 93bd e2a9 3a3d c326 453e c2a4 a0bd
000002e0: 2326 78bb 628f 15be d12e 773d f7b0 49bd
000002f0: ff6f 4ebd 8581 c9bb 8626 8ebd b709 1e3e
00000300: 4d85 b43d 547f f33c b7a0 613d dc95 85bd
00000310: ea92 203d 7b7d 91bd c97d 79bb 48ca 143b
00000320: 17ab 2f3d 0be7 edbd 05c4 0f3e 02c3 8b3d
00000330: 87d4 96bb 59bb ef3c 43b5 06bd 9fa8 6e3c
00000340: c611 b7bd 937e 993d 033b e63c 7bc2 183d
00000350: 09f1 acbd 11a8 fdbd 4061 2a3c f204 31be
00000360: b729 d1bd 6c04 ad3c c371 263d 4135 ebbd
00000370: a249 a6bd 4b93 61bd 5d00 893b c47b 1fbe
00000380: 9ab8 25be 3a58 1dbe ff2d f53d d975 a53d
00000390: 8edf ba3b 9148 c63d 306c 673d 1512 c5bd
000003a0: a40a fc3c e1d4 cbbb 0c8a b73d 7b5f c6bc
000003b0: ffd0 d03d 6529 423d 970c 4c3d 81b5 2fbe
000003c0: 4001 b1bd dfd6 e83d a364 f83c 7798 3f3b
000003d0: 3f6d 653c 6509 883d f73c cf3b c732 a8bc
000003e0: 2a9d cebd 8e5a a03d 1aab 9dbd c184 5b3a
000003f0: 27eb 05be 14c6 97bd 3698 51bd d3b5 d0bd

network_body._body_endoder.seq_layers.2.bias f4 [128]
-0.0039493213 0.0010413162 -0.0025376433 -0.0059368834 0.0025193084 -0.003971335 -0.012392584 -0.0069196876
-0.008561265 -0.009614 0.006309973 -0.00464803 -0.0072675436 -0.0075392327 -0.0009236252 -0.007244034
-0.00637371 -0.0020536997 0.0039027631 0.010363359 0.011239435 -0.0008470048 0.0044509987 0.008962302
-0.0027173536 -0.015105935 0.009082968 0.0046383147 0.0014426936 0.013430659 0.011860755 -0.004293976
0.0005934988 0.013249546 7.23882e-05 0.0029907138 0.011929754 0.014813334 -0.002817234 0.00366328
0.0019333445 0.010407577 0.0022052121 0.010124884 0.006942136 0.0016057487 0.00048419755 -0.0037422783
0.010491442 0.007735322 0.00729232 -0.001451681 0.0041335537 0.0102365995 -0.003429454 -0.0031119564
0.00074183044 -0.002619546 -0.007961519 -0.0011441838 0.00094184803 0.004400008 0.0078010624 0.0041876384
-0.011783829 -0.002794232 -0.011478317 -0.011149757 0.0074251387 0.00750247 -0.006980788 0.0010628096
0.017079674 0.015959764 0.01383764 0.0070945476 0.0036947937 -0.005545653 0.0103626745 0.013022527
-0.0016090758 -0.0026370243 -0.001760398 -0.00022344821 -0.0043087937 0.021114541 0.0015285821 -0.0044675237
0.009424803 0.0043863743 -0.0040628146 0.0061865663 -0.008145442 -0.007784164 -0.0031009554 -0.0012885322
-7.1653034e-05 0.01666267 -0.00017522462 0.015947903 0.014352035 0.009349668 0.01686408 -0.0047343997
-0.0026143035 -0.0032152783 -0.00757361 0.0070541687 0.002010533 -0.005454392 0.012885012 0.00096070167
0.014323697 -0.0045412355 -0.0058249063 -0.0013034521 0.0082249185 -0.003421971 0.0017993373 -0.01153262
-0.00017936411 0.0026093647 -0.004279671 -0.00034981398 0.016197227 -0.0066948235 0.0019138171 0.0049473937
00000000: 4f69 81bb c67c 883a 974e 26bb 308a c2bb
00000010: fb1a 253b f921 82bb 440a 4bbc 8cbe e2bb
00000020: 8c44 0cbc 0a84 1dbc e4c3 ce3b 804e 98bb
00000030: 9324 eebb ab0b f7bb 701f 72ba 5d5f edbb
00000040: 8eda d0bb 5d97 06bb 80c5 7f3b 14cb 293c
00000050: 9b25 383c 8809 5eba afd9 913b 9ed6 123c
00000060: a115 32bb e27e 77bc bbd0 143c 01fd 973b
00000070: c418 bd3a 440c 5c3c 9d53 423c 7bb4 8cbb
00000080: 0895 1b3a a014 593c 1ecf 9738 daff 433b
00000090: 0475 433c a0b3 723c 58a1 38bb a413 703b
000000a0: 4768 fd3a 8b84 2a3c 5285 103b d7e2 253c
000000b0: dc7a e33b fc77 d23a e5db fd39 0341 75bb
000000c0: 4ce4 2b3c 9678 fd3b 6af4 ee3b 5546 beba
000000d0: c372 873b 69b7 273c b1c0 60bb f7f1 4bbb
000000e0: 6677 423a b0ac 2bbb 0871 02bc 70f8 95ba
000000f0: 5ae6 763a f12d 903b 0ea0 ff3b 7538 893b
00000100: f610 41bc 6f1f 37bb 8d0f 3cbc 78ad 36bc
00000110: 944e f33b 48d7 f53b 18bf e4bb f94d 8b3a
00000120: acea 8b3c 0dbe 823c 45b7 623c 6179 e83b
00000130: 5a24 723b 4fb8 b5bb 35c8 293c 705c 553c
00000140: a0e7 d2ba edd1 2cbb 28bd e6ba 6c4d 6ab9
00000150: c830 8dbb 67f8 ac3c b45a c83a 4e64 92bb
00000160: 7d6a 1a3c 93bb 8f3b 5c21 85bb aeb8 ca3b
00000170: 7674 05bc 4d12 ffbb 6639 4bbb f7e3 a8ba
00000180: 6e44 96b8 2780 883c 80bc 37b9 2da5 823c
00000190: cc24 6b3c 5a2f 193c 8a26 8a3c 0623 9bbb
000001a0: bc54 2bbb 6bb7 52bb 0c2c f8bb a826 e73b
000001b0: 25c3 033b c2ba b2bb a81b 533c 99d7 7b3a
000001c0: f1ad 6a3c a5ce 94bb dbde bebb 98d8 aaba
000001d0: cfc1 063c 2643 60bb bed7 eb3a 50f3 3cbc
000001e0: b013 3cb9 e001 2b3b 7b3c 8cbb 3d67 b7b9
000001f0: 0cb0 843c 4060 dbbb 0cd9 fa3a bf1d a23b

action_model._discrete_distribution.branches.0.weight f4 [3, 128]
-0.0053319647 -0.007327193 -0.0020793676 -0.001125355 0.012495559 -0.0061860867 0.0040149414 0.0036584118
0.0017570007 0.009939119 -0.011502095 0.000287458 -0.0036554178 -0.0031764533 -0.011395649 0.0016892953
-0.0016772839 -0.0077274023 -0.009693866 -0.012634662 -0.008213999 -0.013060887 -0.00063805294 0.032586113
-0.010534788 0.0030657437 0.01433311 -0.0086378995 0.024024557 -0.013191226 -0.008548065 0.014475267
0.0046990374 0.018657496 0.009915009 -0.012672609 -0.0011770839 -0.014666034 0.0068029007 -0.007911545
0.022994796 -0.017764192 0.010886226 0.010547043 -0.0019570393 0.020997679 0.002304174 0.0069752308
-0.019980118 -8.479177e-05 0.0007809892 -0.006577128 0.0077368612 -0.0023756234 0.0129688885 0.002757258
-0.0046916367 0.0016708192 0.003376947 -0.0012484002 0.021740815 -0.009055365 0.018144023 -0.027375972
0.0112825185 0.0076491665 -0.008212822 0.013578706 0.0056036366 0.009115095 0.002806598 0.0074688536
-0.013471175 -0.009492746 -0.0073160967 -0.00247733 -0.011154832 0.020081362 0.0203237 -0.019508744
0.004479809 -0.0092565175 0.004932595 0.012358766 0.0034909558 -0.0042294515 -0.0055975383 -0.0053259092
0.003834203 0.0026072161 0.016892884 0.011409091 -0.0011204907 -0.011422804 0.005350259 -0.008173993
0.006493266 0.014191594 -0.0010778737 -0.012760307 -0.015783357 -0.02190987 0.0008410571 0.001887292
-0.00093614624 0.007982294 -0.008850417 -0.00027256212 0.004916318 0.0006465409 -0.012684354 0.001433946
-0.011842738 0.010644259 0.008163687 0.014669398 -0.005888786 0.0018197272 0.012890093 -0.00849641
0.0005403547 0.009180588 0.0134435035 0.017317612 -0.014971486 0.011773669 -0.0071453503 -0.006368297
0.015004701 -0.0056461906 0.031195927 0.008388251 -0.0063049872 0.0013368988 -0.014279801 0.012947063
0.0047071828 -0.004989144 0.0037007688 -0.008121766 -6.518363e-05 -0.0054879715 0.0142074535 -0.009564569
0.01139215 -0.0027368732 0.0046982905 0.0034095456 -0.007013722 -0.014859915 0.018965496 0.0028010304
0.004566655 -0.006265415 0.009860486 -0.004280393 0.005383425 -0.004681391 0.0074553466 0.0067362306
0.0051687085 0.0027764381 0.004239826 4.82999e-05 0.008289301 0.009019139 -0.015883604 0.00017686978
-0.014297534 0.0011669155 -0.008101276 0.02255169 0.0065751914 -0.008458739 -0.022329627 -0.015681066
-0.0070573953 -0.0007594001 -0.011994895 -0.0019302128 -0.0048245005 -0.011699507 -0.0012622478 0.014418955
0.014842814 -0.0017724888 -0.011344721 0.012443711 -0.014841632 0.008206654 -0.0063618026 -0.015004069
0.015018917 -0.00898684 -0.010485074 0.013438148 0.009494411 -0.010663655 0.00564176 -0.0037187512
-0.0090557225 -0.0062351297 -0.0027515406 0.018051883 -0.010139879 0.005327637 -0.0058480073 0.0067686928
-0.0011833046 0.013466517 0.004209378 -0.0082531385 -0.016811483 -0.006278861 0.015406243 -0.0023193795
-0.0015689905 -8.835152e-05 0.023493238 0.0036103819 -0.0014292736 -0.0008514017 0.011635187 -0.025354328
-0.0041886093 0.0046709846 -0.0033179135 0.0044830437 0.0013997703 -0.013636959 0.021577103 0.003133485
0.000605153 0.003479487 0.01424913 -0.0013864413 0.004346741 -0.011979131 -0.0027016415 -0.016412135
0.009885254 -0.007364314 0.009184259 0.021182347 -0.017729508 0.0018728788 -0.010749539 -0.01036729
0.012318022 -0.0059555075 -0.019578144 -0.026885338 0.005903025 -0.0038952795 -0.008679687 -0.00026311356
00000000: c3b7 aebb f318 f0bb 0046 08bb a680 93ba
00000010: 2cba 4c3c a8b4 cabb c58f 833b f7c1 6f3b
00000020: 294b e63a b0d7 223c 4873 3cbc f6b5 9639
00000030: bc8f 6fbb 0b2c 50bb d1b4 3abc 586b dd3a
00000040: 4fd8 dbba 2636 fdbb 05d3 1ebc 9d01 4fbc
00000050: 0294 06bc 55fd 55bc 0243 27ba 0479 053d
00000060: 1a9a 2cbc a5ea 483b 6cd5 6a3c fa85 0dbc
00000070: 26cf c43c 0320 58bc 2f0d 0cbc ac29 6d3c
00000080: 62fa 993b 9bd7 983c 9072 223c c6a0 4fbc
00000090: 6248 9aba ce49 70bc deea de3b 6d9f 01bc
000000a0: 955f bc3c 3686 91bc 245c 323c 81cd 2c3c
000000b0: ac41 00bb 5303 ac3c a001 173b 7a90 e43b
000000c0: 58ad a3bc 3cd2 b1b8 4cbb 4c3a f384 d7bb
000000d0: 7f85 fd3b 59b0 1bbb 767b 543c 1db3 343b
000000e0: 4dbc 99bb 64ff da3a c54f 5d3b 5ca1 a3ba
000000f0: cb19 b23c f45c 14bc c6a2 943c 9343 e0bc
00000100: 50da 383c dca5 fa3b 128f 06bc 3979 5e3c
00000110: b69e b73b 7b57 153c e7ee 373b 49bd f43b
00000120: 34b6 5cbc 7687 1bbc debb efbb b35a 22bb
00000130: c2c2 36bc ab81 a43c e37d a63c cdd0 9fbc
00000140: 5dcb 923b a6a8 17bc 9ba1 a13b 6c7c 4a3c
00000150: 85c8 643b 3697 8abb 8e6b b7bb f784 aebb
00000160: 4047 7b3b d4dd 2a3b f262 8a3c 32ed 3a3c
00000170: 6edd 92ba b626 3bbc 3a51 af3b 36ec 05bc
00000180: 77c5 d43b dc83 683c 7147 8dba 9b10 51bc
00000190: 194c 81bc 547c b3bc 637a 5c3a 035f f73a
000001a0: b667 75ba 2bc8 023c 5701 11bc abe6 8eb9
000001b0: 1119 a13b a07c 293a 09d2 4fbc 3ef3 bb3a
000001c0: 0b08 42bc 4265 2e3c fcc0 053c ea57 703c
000001d0: b8f6 c0bb ea83 ee3a f830 533c 8734 0bbc
000001e0: 97a6 0d3a 2d6a 163c 2442 5c3c aadd 8d3c
000001f0: f74a 75bc 59e6 403c 8b23 eabb 26ad d0bb
00000200: 47d6 753c ae03 b9bb 9a8e ff3c e06e 093c
00000210: 119a cebb e13a af3a d4f5 69bc eb1f 543c
00000220: b63e 9a3b f97b a3bb 9988 723b 2811 05bc
00000230: 32b3 88b8 71d4 b3bb 61c6 683c b6b4 1cbc
00000240: 24a6 3a3c 1d5d 33bb 1ef4 993b af72 5f3b
00000250: 5dd3 e5bb 0077 73bc 875d 9b3c 7e91 373b
00000260: e1a3 953b 1c4e cdbb e08d 213c 8a42 8cbb
00000270: 7167 b03b 5b66 99bb fb4b f43b 99bb dc3b
00000280: 455e a93b e7f4 353b 3dee 8a3b 9f95 4a38
00000290: d9cf 073c 03c5 133c 551e 82bc 1f76 3939
000002a0: 3440 6abc 30f3 983a 37bb 04bc 52be b83c
000002b0: b474 d73b 8696 0abc 9fec b6bc 9475 80bc
000002c0: b941 e7bb 7a12 47ba 3c86 44bc 32ff fcba
000002d0: d816 9ebb 4aaf 3fbc 0272 a5ba 7b3d 6c3c
000002e0: 462f 733c db52 e8ba 35df 39bc b5e0 4b3c
000002f0: 512a 73bc 3475 063c ab76 d0bb a0d3 75bc
00000300: e711 763c 8a3d 13bc 96c9 2bbc ae2b 5c3c
00000310: 728e 1b3c 9cb6 2ebc 83de b83b 4bb6 73bb
00000320: 745e 14bc 0f50 ccbb 3153 34bb 8be1 933c
00000330: bc21 26bc 7593 ae3b a4a0 bfbb e9cb dd3b
00000340: 1d19 9bba aba2 5c3c d2ee 893b 2c38 07bc
00000350: 3cb8 89bc e7be cdbb 776a 7c3c bb00 18bb
00000360: 96a6 cdba 5c49 b9b8 e474 c03c 289c 6c3b
00000370: 7756 bbba 9a30 5fba 83a1 3e3c e1b3 cfbc
00000380: 9a40 89bb 0f0f 993b 5a71 59bb 7fe6 923b
00000390: 7f78 b73a 8d6d 5fbc 77c2 b03c 285b 4d3b
000003a0: 21a3 1e3a 1b08 643b 2f75 693c 40b9 b5ba
000003b0: 1b6f 8e3b 1e44 44bc 060e 31bb be72 86bc
000003c0: c3f5 213c 5850 f1bb 9379 163c 9a86 ad3c
000003d0: 793d 91bc 627b f53a d61e 30bc 91db 29bc
000003e0: 87d1 493c 6b26 c3bb 5862 a0bc a43e dcbc
000003f0: 2a6e c13b f247 7fbb 3f35 0ebc 81f2 89b9

action_model._discrete_distribution.branches.0.bias f4 [3]
-0.0033735328 0.0009204966 0.005009869
00000000: 7d16 5dbb 7b4d 713a d429 a43b

exp_avg f4 [128, 150]
0.0 0.0 0.0 0.0 0.0 0.0 0.0 0.0
0.0 0.0 0.0 0.0 0.0 0.0 0.0 0.0
0.0 0.0 0.0 0.0 0.0 0.0 0.0 0.0
0.0 0.0 0.0 0.0 0.0 0.0 0.0 0.0
0.0 0.0 0.0 0.0 0.0 0.0 0.0 0.0
0.0 0.0 0.0 0.0 0.0 0.0 0.0 0.0
0.0 0.0 -3.6096337e-10 5.531476e-12 6.6475293e-12 5.8364154e-11 2.9986465e-11 -6.5000777e-10
-9.221514e-13 3.7488102e-10 2.4241944e-11 7.687152e-11 -5.9652516e-10 1.5780145e-13 1.4426134e-10 2.0873184e-12
5.8490865e-11 1.7893444e-06 -2.4108903e-07 1.1065434e-05 -1.00729285e-05 2.4264793e-06 7.4773334e-06 1.2241413e-06
2.5657562e-06 -2.0457355e-05 5.743936e-07 1.2344338e-05 1.4746175e-06 6.3886146e-05 -1.8679195e-05 1.3941249e-06
1.0502286e-05 3.008718e-06 2.4867582e-05 7.2798525e-06 5.4758306e-07 -3.443267e-06 1.6687976e-06 1.9605533e-05
1.1750622e-05 1.1565121e-05 -3.0272442e-05 5.098708e-07 6.608902e-05 5.0512263e-05 7.263395e-06 -4.3250075e-05
5.9414197e-07 0.00012231883 6.631392e-05 6.7503393e-06 -0.000117148054 2.661986e-06 0.00016117682 8.2197104e-05
-4.5779207e-06 -0.00014554124 -1.0819226e-06 9.543496e-05 0.00010684748 8.007652e-07 -0.00013840999 -3.359145e-06
-1.2162293e-05 0.00011873539 -1.1053105e-05 -0.0001490018 -2.5405095e-06 3.7407863e-05 1.3764816e-05 -1.22496685e-05
-0.00013461136 1.6767941e-06 -4.0295028e-05 -4.2556753e-06 -6.9113894e-06 -0.00015362921 -2.1918067e-06 -0.00023217754
-5.9873342e-05 -6.525235e-06 -0.0001611761 -8.8460956e-07 -0.00028031002 -0.00011789861 5.128085e-06 -0.00018203093
9.991277e-06 -0.0003224102 -0.00017186289 -1.3819459e-05 -0.00019471062 1.5617154e-05 -0.00017104861 -0.00010086013
-2.9792262e-05 -0.00014993644 1.1563102e-05 -0.00036412585 6.195116e-05 -2.4769306e-05 0.0 0.0
0.0 0.0 0.0 0.0 0.0 0.0 0.0 0.0
0.0 0.0 0.0 0.0 0.0 0.0 0.0 0.0
0.0 0.0 0.0 0.0 0.0 0.0 0.0 0.0
0.0 0.0 0.0 0.0 0.0 0.0 0.0 0.0
0.0 0.0 0.0 0.0 0.0 0.0 0.0 0.0
0.0 0.0 0.0 0.0 0.0 0.0 0.0 0.0
-2.9408265e-09 1.7494227e-11 3.3288095e-10 4.2042705e-10 2.609834e-10 -3.1637997e-09 5.7898157e-12 6.324328e-10
-3.2996675e-10 1.9214418e-10 -1.5258504e-09 4.0155782e-12 -5.8198946e-10 -2.687487e-10 3.6261084e-11 -2.4348345e-05
1.7554102e-06 2.8739403e-05 7.5320415e-05 6.0055204e-06 -5.227655e-05 6.1877824e-07 -3.9191214e-06 0.0002029858
7.0668607e-06 9.328891e-06 -7.8751117e-07 -1.1292442e-05 0.00019832315 5.343853e-06 6.62412e-05 9.571119e-06
1.1007123e-06 5.1508534e-05 2.747934e-06 5.8083624e-05 7.763998e-06 0.00026647453 -0.00023311285 -1.6550374e-06
-0.00012584055 1.2096203e-05 8.630385e-05 -0.00013430265 3.4724162e-05 -0.00043281406 1.0175043e-05 0.0002948555
-2.3159575e-05 7.707753e-05 -0.00048837013 4.4704717e-05 0.00057061226 0.0003179689 9.0930895e-05 -0.00050041307
00000000: 0000 0000 0000 0000 0000 0000 0000 0000
00000010: 0000 0000 0000 0000 0000 0000 0000 0000
00000020: 0000 0000 0000 0000 0000 0000 0000 0000
00000030: 0000 0000 0000 0000 0000 0000 0000 0000
00000040: 0000 0000 0000 0000 0000 0000 0000 0000
00000050: 0000 0000 0000 0000 0000 0000 0000 0000
00000060: 0000 0000 0000 0000 0000 0000 0000 0000
00000070: 0000 0000 0000 0000 0000 0000 0000 0000
00000080: 0000 0000 0000 0000 0000 0000 0000 0000
00000090: 0000 0000 0000 0000 0000 0000 0000 0000
000000a0: 0000 0000 0000 0000 0000 0000 0000 0000
000000b0: 0000 0000 0000 0000 0000 0000 0000 0000
000000c0: 0000 0000 0000 0000 1471 c6af 1b9f c22c
000000d0: 9fe3 e92c 1958 802e c2e1 032e 3bac 32b0
000000e0: 01c8 81ab d017 ce2f 013c d52d d20a a92e
000000f0: baf8 23b0 2cab 312a f59d 1e2f c9e1 122c
00000100: 6e9f 802e 6829 f035 066f 81b4 ada5 3937
00000110: e6fe 28b7 99d6 2236 cee5 fa36 2d4d a435
00000120: 5b2f 2c36 d69b abb7 0730 1a35 871a 4f37
00000130: 79eb c535 9dfa 8538 44b1 9cb7 c41d bb35
00000140: fa32 3037 62e9 4936 ba9a d037 7545 f436
00000150: 9ffd 1235 e012 67b6 73fb df35 9076 a437
00000160: 8a24 4537 d107 4237 93f1 fdb7 0ede 0835
00000170: 4699 8a38 21dd 5338 17b8 f336 6a67 35b8
00000180: 207d 1f35 b642 0039 0412 8b38 f980 e236
00000190: 62ad f5b8 92a4 3236 9301 2939 3c61 ac38
000001a0: 0a9c 99b6 6e9c 18b9 9436 91b5 4124 c838
000001b0: 4e13 e038 2af4 5635 2622 11b9 ac6d 61b6
000001c0: a70c 4cb7 9401 f938 b970 39b7 5e3d 1cb9
000001d0: 9f7d 2ab6 63e6 1c38 6fef 6637 ed83 4db7
000001e0: 7626 0db9 350e e135 7502 29b8 f9cb 8eb6
000001f0: 62e8 e7b6 8717 21b9 f416 13b6 af74 73b9
00000200: 8320 7bb8 58f3 dab6 6101 29b9 e875 6db5
00000210: 93f6 92b9 5640 f7b8 ea11 ac36 8edf 3eb9
00000220: 35a0 2737 2a09 a9b9 1836 34b9 20da 67b7
00000230: 3c2b 4cb9 9501 8337 835b 33b9 df84 d3b8
00000240: 65ea f9b7 4238 1db9 25ff 4137 25e8 beb9
00000250: c7eb 8138 aec7 cfb7 0000 0000 0000 0000
00000260: 0000 0000 0000 0000 0000 0000 0000 0000
00000270: 0000 0000 0000 0000 0000 0000 0000 0000
00000280: 0000 0000 0000 0000 0000 0000 0000 0000
00000290: 0000 0000 0000 0000 0000 0000 0000 0000
000002a0: 0000 0000 0000 0000 0000 0000 0000 0000
000002b0: 0000 0000 0000 0000 0000 0000 0000 0000
000002c0: 0000 0000 0000 0000 0000 0000 0000 0000
000002d0: 0000 0000 0000 0000 0000 0000 0000 0000
000002e0: 0000 0000 0000 0000 0000 0000 0000 0000
000002f0: 0000 0000 0000 0000 0000 0000 0000 0000
00000300: 0000 0000 0000 0000 0000 0000 0000 0000
00000310: 0000 0000 0000 0000 0000 0000 0000 0000
00000320: 9117 4ab1 7fe1 992d d400 b72f d921 e72f
00000330: 267a 8f2f 276a 59b1 06b6 cb2c 80d7 2d30
00000340: b166 b5af c743 532f 17b6 d1b0 1d49 8d2c
00000350: def9 1fb0 04bf 93af 5a7a 1f2e ac3f ccb7
00000360: 6f9b eb35 6615 f137 57f5 9d38 0783 c936
00000370: 8543 5bb8 1e1a 2635 ff80 83b6 96d8 5439
00000380: df1f ed36 4883 1c37 5b65 53b5 ab74 3db7
00000390: f7f4 4f39 594f b336 f9ea 8a38 a593 2037
000003a0: 30bc 9335 de0a 5838 2669 3836 d19e 7338
000003b0: 1e42 0237 9bb5 8b39 c16f 74b9 a722 deb5
000003c0: 11f4 03b9 ccf0 4a37 07fe b438 98d3 0cb9
000003d0: c9a4 1138 52eb e2b9 7ab5 2a37 d696 9a39
000003e0: cf46 c2b7 afa4 a138 f705 00ba 5381 3b38
000003f0: 2495 153a 10b5 a639 27b2 be38 272e 03ba

exp_avg_sq f4 [128, 150]
0.0 0.0 0.0 0.0 0.0 0.0 0.0 0.0
0.0 0.0 0.0 0.0 0.0 0.0 0.0 0.0
0.0 0.0 0.0 0.0 0.0 0.0 0.0 0.0
0.0 0.0 0.0 0.0 0.0 0.0 0.0 0.0
0.0 0.0 0.0 0.0 0.0 0.0 0.0 0.0
0.0 0.0 0.0 0.0 0.0 0.0 0.0 0.0
0.0 0.0 7.6141767e-11 1.0783023e-14 5.0198114e-12 1.5423033e-12 5.782073e-13 1.1184516e-10
1.6604112e-14 1.8140297e-11 7.339765e-12 8.6570416e-13 1.3164979e-10 1.9919552e-14 1.9148329e-11 3.916601e-12
1.2761655e-12 7.904178e-09 3.686025e-12 1.2194871e-09 9.916712e-10 1.0634023e-10 1.00341015e-08 9.0910465e-12
2.47916e-09 2.2911415e-09 1.9940707e-10 1.1384537e-08 1.4345051e-11 4.8117874e-09 3.0286296e-09 2.3253133e-10
1.9181623e-08 2.0032443e-11 7.499174e-09 6.505635e-09 3.607911e-10 2.503915e-08 4.1821793e-11 1.2645711e-08
9.215627e-09 6.681464e-10 2.6686218e-08 4.6649573e-11 1.6364975e-08 1.0809066e-08 8.957697e-10 3.234767e-08
5.6592547e-11 2.1446697e-08 1.601484e-08 1.1143124e-09 4.1059295e-08 7.1223874e-11 2.5893936e-08 2.1700673e-08
1.3882058e-09 4.3934303e-08 9.162928e-11 3.659049e-08 2.519005e-08 1.6797137e-09 4.6580258e-08 1.1052884e-10
4.152234e-08 3.4293276e-08 2.0103932e-09 4.7959862e-08 1.3439022e-10 5.0408797e-08 3.706051e-08 2.2053328e-09
4.8052637e-08 1.4528527e-10 5.636919e-08 4.034751e-08 2.3047153e-09 5.3221424e-08 1.7583712e-10 6.838892e-08
6.0410876e-08 2.3891065e-09 5.705559e-08 1.7541053e-10 7.0078066e-08 8.631271e-08 2.6573947e-09 6.450693e-08
1.8956182e-10 8.9479e-08 1.11546186e-07 3.2437055e-09 6.818264e-08 1.9051213e-10 1.140215e-07 1.3366295e-07
3.5528307e-09 7.796134e-08 1.8393569e-10 1.2189987e-07 1.392284e-07 3.9795425e-09 0.0 0.0
0.0 0.0 0.0 0.0 0.0 0.0 0.0 0.0
0.0 0.0 0.0 0.0 0.0 0.0 0.0 0.0
0.0 0.0 0.0 0.0 0.0 0.0 0.0 0.0
0.0 0.0 0.0 0.0 0.0 0.0 0.0 0.0
0.0 0.0 0.0 0.0 0.0 0.0 0.0 0.0
0.0 0.0 0.0 0.0 0.0 0.0 0.0 0.0
8.243934e-10 9.167539e-14 5.5242935e-11 1.2383597e-11 5.821913e-12 1.0086748e-09 1.1122492e-13 1.4071923e-10
5.7361768e-11 6.107375e-12 1.0998775e-09 1.1797299e-13 1.2670451e-10 1.563481e-11 6.6090484e-12 4.0945935e-08
1.3338662e-11 6.6784134e-09 4.2746104e-09 5.5977606e-10 6.6997636e-08 2.8537533e-11 1.555622e-08 1.2093754e-08
1.195084e-09 9.9333256e-08 4.313187e-11 2.4547893e-08 1.5400113e-08 1.5907163e-09 1.2897704e-07 1.01738375e-10
4.113729e-08 2.2864432e-08 2.1431497e-09 2.534581e-07 1.8046539e-10 7.707283e-08 7.803425e-08 4.2120996e-09
3.2399808e-07 2.8540678e-10 1.0202039e-07 9.225499e-08 5.516498e-09 3.3641106e-07 4.0290773e-10 1.511663e-07
1.6661001e-07 7.085435e-09 4.4518748e-07 6.3001154e-10 1.905902e-07 1.7752595e-07 8.340634e-09 5.8040996e-07
00000000: 0000 0000 0000 0000 0000 0000 0000 0000
00000010: 0000 0000 0000 0000 0000 0000 0000 0000
00000020: 0000 0000 0000 0000 0000 0000 0000 0000
00000030: 0000 0000 0000 0000 0000 0000 0000 0000
00000040: 0000 0000 0000 0000 0000 0000 0000 0000
00000050: 0000 0000 0000 0000 0000 0000 0000 0000
00000060: 0000 0000 0000 0000 0000 0000 0000 0000
00000070: 0000 0000 0000 0000 0000 0000 0000 0000
00000080: 0000 0000 0000 0000 0000 0000 0000 0000
00000090: 0000 0000 0000 0000 0000 0000 0000 0000
000000a0: 0000 0000 0000 0000 0000 0000 0000 0000
000000b0: 0000 0000 0000 0000 0000 0000 0000 0000
000000c0: 0000 0000 0000 0000 0170 a72e eb3f 4228
000000d0: 719e b02c 550f d92b 3ac0 222b 3af3 f52e
000000e0: 7a8e 9528 5190 9f2d 5d1f 012d 8fac 732b
000000f0: 1fc0 102f 5c6b b328 346e a82d 9bcd 892c
00000100: b59a b32b f1ca 0732 c3b0 812c e39a a730
00000110: 544b 8830 3ad8 e92e 7262 2c32 6fee 1f2d
00000120: d85d 2a31 3072 1d31 1a40 5b2f b995 4332
00000130: 5e5c 7c2d ee54 a531 3720 5031 c0ab 7f2f
00000140: d6c4 a432 0d35 b02d b7d5 0032 2c88 df31
00000150: d558 c62f ac15 d732 27ef 372e 6d40 5932
00000160: c252 1e32 a0a8 3730 9d3b e532 c02a 4d2e
00000170: f692 8c32 c6b2 3932 303a 7630 a4ee 0a33
00000180: 8be5 782e c939 b832 0191 8932 6226 9930
00000190: 2c59 3033 7a9f 9c2e 5e6d de32 4968 ba32
000001a0: 26cb be30 47b2 3c33 b37e c92e ab27 1d33
000001b0: 8161 d832 acdb e630 890f 4833 350e f32e
000001c0: 4c56 3233 db49 1333 3627 0a31 6dfc 4d33
000001d0: 7cc3 132f 0f81 5833 762c 1f33 a08c 1731
000001e0: 6f62 4e33 2bbe 1f2f 941a 7233 8e4a 2d33
000001f0: fb60 1e31 9395 6433 c055 412f 35dd 9233
00000200: 3bbb 8133 9b2d 2431 490d 7533 addd 402f
00000210: d37d 9633 ea5a b933 629d 3631 0f87 8a33
00000220: e96c 502f 9a27 c033 2a8b ef33 dfe7 5e31
00000230: ce6b 9233 6678 512f fcdb f433 fe84 0f34
00000240: 0f26 7431 b36b a733 4b3d 4a2f 95e3 0234
00000250: d07e 1534 6dbc 8831 0000 0000 0000 0000
00000260: 0000 0000 0000 0000 0000 0000 0000 0000
00000270: 0000 0000 0000 0000 0000 0000 0000 0000
00000280: 0000 0000 0000 0000 0000 0000 0000 0000
00000290: 0000 0000 0000 0000 0000 0000 0000 0000
000002a0: 0000 0000 0000 0000 0000 0000 0000 0000
000002b0: 0000 0000 0000 0000 0000 0000 0000 0000
000002c0: 0000 0000 0000 0000 0000 0000 0000 0000
000002d0: 0000 0000 0000 0000 0000 0000 0000 0000
000002e0: 0000 0000 0000 0000 0000 0000 0000 0000
000002f0: 0000 0000 0000 0000 0000 0000 0000 0000
00000300: 0000 0000 0000 0000 0000 0000 0000 0000
00000310: 0000 0000 0000 0000 0000 0000 0000 0000
00000320: 879b 6230 446f ce29 04f6 722e c3da 592d
00000330: 21d7 cc2c 97a1 8a30 cd74 fa29 f1b8 1a2f
00000340: 9c47 7c2e 58e2 d62c 802a 9730 66d3 042a
00000350: 2650 0b2f 7686 892d 0489 e82c 88dc 2f33
00000360: fea7 6a2d f277 e531 dfdf 9231 bdde 1930
00000370: 57e0 8f33 d004 fb2d 7da0 8532 e5c4 4f32
00000380: 4840 a430 0951 d533 2bb2 3d2e 63dd d232
00000390: 3549 8432 5ba0 da30 f07c 0a34 9db9 df2e
000003a0: eeae 3033 6b67 c432 b046 1331 0413 8834
000003b0: 7e6c 462f 3d83 a533 c893 a733 05ba 9031
000003c0: f5f1 ad34 6fe7 9c2f 4d16 db33 b81d c633
000003d0: a18b bd31 fc9b b434 3980 dd2f 4750 2234
000003e0: 69e5 3234 2574 f331 1a02 ef34 1f2d 2d30
000003f0: 09a5 4c34 f69d 3e34 7f4a 0f32 78cd 1b35

exp_avg f4 [128]
-1.23846585e-05 5.0477363e-05 3.7085727e-05 4.9094524e-05 5.3863278e-05 -3.279153e-05 -1.5134508e-05 -1.772045e-05
5.6043827e-05 -5.8948648e-05 -8.4236955e-05 -1.5211075e-05 1.3757783e-05 6.03027e-07 -1.4606057e-05 -8.414028e-05
2.331809e-06 7.711603e-05 -3.3407923e-05 1.5456138e-05 9.619456e-06 1.1868929e-05 2.4195072e-06 7.3773153e-06
-8.265717e-07 3.454297e-06 6.533928e-05 1.8231173e-06 3.3069533e-05 -1.5936863e-05 -3.1784315e-05 -2.7084275e-06
1.7886119e-06 -2.1235435e-05 -8.2017825e-05 9.5235315e-05 8.977603e-06 -7.591061e-05 -1.7226954e-05 -7.1363225e-05
1.7867286e-06 -4.5295164e-05 0.00011519437 3.2617763e-06 -1.9433728e-05 -1.7557502e-05 5.139753e-06 -7.526441e-06
-0.00015847382 2.704543e-06 4.713427e-05 2.1397287e-05 -5.969643e-05 3.6818074e-05 -3.1605472e-05 -4.54096e-05
5.5069162e-05 -1.0487938e-05 -2.8113618e-05 1.7730721e-05 1.7431876e-05 -8.448721e-06 9.30436e-06 6.2086896e-05
-1.7678161e-05 9.168544e-05 -9.8900506e-05 -6.458164e-05 4.5245546e-05 -2.0786492e-05 0.000110290915 -7.462797e-05
7.9976335e-06 -1.2050255e-05 -3.0626157e-05 -9.2232156e-05 -3.399058e-05 -0.00011264034 8.590918e-06 -5.257225e-06
9.2104065e-06 2.4407687e-05 0.00013945859 -7.301418e-05 3.0454128e-05 3.656567e-05 -2.857483e-05 4.6591227e-05
-9.047695e-05 2.8157367e-06 2.180201e-06 2.5359703e-05 1.991016e-05 -9.585506e-05 2.5081708e-05 -2.0935313e-06
-5.0933748e-05 -4.7668862e-05 -3.5483037e-05 -2.160303e-05 4.553588e-05 -3.4189306e-05 -2.0248268e-05 -1.6018863e-05
3.743094e-05 3.43607e-05 -2.1721444e-05 -1.658666e-05 3.9928018e-05 -2.4472774e-05 3.0252444e-05 1.2833621e-07
3.5140456e-05 -1.002014e-05 2.638673e-05 1.696708e-05 -1.2449744e-05 -7.753125e-05 -4.41595e-05 3.1706073e-05
-3.547515e-05 -3.252594e-05 -3.430325e-05 -3.920052e-05 7.128581e-06 -9.3489e-06 -1.550056e-05 -7.328422e-05
00000000: b4c7 4fb7 a8b7 5338 7f8c 1b38 d8ea 4d38
00000010: 41eb 6138 a389 09b8 38ea 7db7 60a6 94b7
00000020: 9a10 6b38 a13f 77b8 5fa8 b0b8 1233 7fb7
00000030: 3ad1 6637 b3df 2135 8a0c 75b7 7874 b0b8
00000040: 2c7c 1c36 5ab9 a138 7c1f 0cb8 cea7 8137
00000050: 4063 2137 a920 4737 d15e 2236 a88a f736
00000060: 93e1 5db5 5fd0 6736 c206 8938 d5b1 f435
00000070: 24b4 0a38 27b0 85b7 2650 05b8 6ec2 35b6
00000080: 3d10 f035 c022 b2b7 fc00 acb8 12b9 c738
00000090: 839e 1637 3332 9fb8 9a82 90b7 d7a8 95b8
000000a0: 87cf ef35 50fb 3db8 8294 f138 e4e4 5a36
000000b0: 9d05 a3b7 7348 93b7 2476 ac36 a38b fcb6
000000c0: fe2b 26b9 b27f 3536 09b2 4538 537e b337
000000d0: 8e62 7ab8 1b6d 1a38 1e90 04b8 3076 3eb8
000000e0: 10fa 6638 5af5 2fb7 89d5 ebb7 6fbc 9437
000000f0: ab3a 9237 fbbe 0db7 ec19 1c37 a634 8238
00000100: 904b 94b7 3f47 c038 ce68 cfb8 0170 87b8
00000110: 09c6 3d38 a75e aeb7 fc4b e738 9681 9cb8
00000120: 932d 0637 732b 4ab7 9674 00b8 c36c c1b8
00000130: 1b91 0eb8 5239 ecb8 b621 1037 3867 b0b6
00000140: 6586 1a37 1cbf cc37 a13b 1239 301f 99b8
00000150: be77 ff37 175e 1938 fbb3 efb7 f36a 4338
00000160: 71be bdb8 fdf5 3c36 914f 1236 8cbb d437
00000170: be04 a737 cb05 c9b8 8f66 d237 987e 0cb6
00000180: b2a1 55b8 0df0 47b8 9fd3 14b8 2738 b5b7
00000190: c7fd 3e38 7d66 0fb8 d3da a9b7 3f60 86b7
000001a0: 2aff 1c38 851e 1038 7236 b6b7 9523 8bb7
000001b0: 6278 2738 e24a cdb7 a1c6 fd37 cacc 0934
000001c0: c763 1338 2c1c 28b7 1259 dd37 8754 8e37
000001d0: 3edf 50b7 4698 a2b8 e737 39b8 23fc 0438
000001e0: 27cb 14b8 766c 08b8 d6e0 0fb8 3d6b 24b8
000001f0: 0b32 ef36 38d9 1cb7 3307 82b7 2bb0 99b8

exp_avg_sq f4 [128]
9.948856e-10 7.513329e-09 1.4678659e-09 2.8735294e-09 4.9887934e-09 1.1721978e-09 2.5704952e-09 1.5514913e-09
3.2217118e-09 1.0278391e-09 3.7098011e-09 4.2478137e-09 5.9036165e-10 1.7616782e-09 4.1652424e-09 1.21513155e-08
1.6845169e-09 3.5307242e-09 1.6921727e-09 2.205538e-09 8.3253904e-10 6.405931e-09 3.8318393e-09 8.2618284e-10
1.3448421e-09 1.4672371e-09 8.1471505e-09 2.3082325e-09 4.2654427e-09 1.235447e-09 2.5410658e-09 5.140424e-09
1.6633719e-09 8.754232e-10 3.1756047e-09 2.4559823e-09 2.9482699e-09 2.1785589e-09 5.564455e-09 1.9709616e-09
1.4930696e-09 3.8138404e-09 5.4020433e-09 1.9076203e-09 3.47479e-09 2.99116e-09 1.1020669e-09 4.3691184e-09
6.648623e-09 1.0046188e-09 1.1104653e-09 4.6571706e-09 1.5134813e-09 1.0023133e-09 2.5393079e-09 1.3703523e-09
2.406242e-09 5.577382e-09 1.8732975e-09 2.1597646e-09 2.0189794e-09 5.175862e-09 1.1510953e-09 2.3910032e-09
5.8860467e-10 9.327393e-09 3.987477e-09 3.0037888e-09 2.464275e-09 2.110903e-09 6.483502e-09 1.9176125e-09
2.5390283e-09 6.661768e-10 1.1294656e-09 4.339806e-09 3.1839824e-09 6.7934836e-09 2.3848221e-09 1.1676036e-09
6.5004224e-10 8.4825086e-10 7.491013e-09 2.968934e-09 1.323422e-09 2.921719e-09 2.517886e-09 2.142492e-09
5.0273736e-09 1.0167456e-09 3.4814054e-09 2.5767466e-09 3.1095195e-09 9.718644e-09 5.2629203e-09 1.0552237e-09
4.4052966e-09 2.8435643e-09 3.5355308e-09 1.3827597e-09 9.738157e-09 1.5104877e-09 2.4480817e-09 1.6031115e-09
1.0437173e-09 2.71865e-09 2.100224e-09 7.954516e-10 2.0949298e-09 9.453519e-10 2.6858455e-09 1.8495588e-09
1.1598313e-09 1.6847489e-09 1.2805533e-09 1.6966982e-09 1.8440836e-09 3.319796e-09 1.772326e-09 1.7000367e-09
1.8739261e-09 6.96805e-10 1.1503323e-09 9.1868095e-09 4.001421e-10 1.1693561e-09 1.3674396e-09 2.2213742e-09
00000000: 6dbc 8830 f813 0132 f1bd c930 aa77 4531
00000010: e469 ab31 0b1b a130 a1a4 3031 3f3c d530
00000020: f464 5d31 e043 8d30 83ef 7e31 2af4 9131
00000030: 0247 2230 8b1f f230 dc1d 8f31 0dc2 5032
00000040: ab84 e730 28a1 7231 0992 e830 3c90 1731
00000050: bad8 6430 2a1b dc31 37a9 8331 7319 6330
00000060: 6dd5 b830 d1a7 c930 8cf7 0b32 db9e 1e31
00000070: 3b8f 9231 6dcc a930 e79e 2e31 a69f b031
00000080: b29c e430 6ea2 7030 d439 5a31 19c6 2831
00000090: 839a 4a31 9db5 1531 7731 bf31 8671 0731
000000a0: b734 cd30 e50a 8331 e09c b931 3617 0331
000000b0: 27c9 6e31 0b8d 4d31 8877 9730 2c1f 9631
000000c0: e871 e431 e212 8a30 069f 9830 e804 a031
000000d0: e402 d030 c4c1 8930 fa7f 2e31 fc56 bc30
000000e0: 0f5b 2531 2ca3 bf31 66bb 0031 fb6a 1431
000000f0: 43be 0a31 5dd7 b131 9134 9e30 f94e 2431
00000100: 5fcb 2130 4f3e 2032 3802 8931 366b 4e31
00000110: fc57 2931 660f 1131 7dc5 de31 ffc6 0331
00000120: 0f7b 2e31 061e 3730 8a3b 9b30 561d 9531
00000130: 36cd 5a31 1d6c e931 3ce2 2331 6679 a030
00000140: a8ae 3230 592a 6930 d3b1 0032 0a06 4c31
00000150: c6e3 b530 6dc7 4831 1e07 2d31 1e3b 1331
00000160: 3fbd ac31 8ebd 8b30 883d 6f31 9b12 3131
00000170: 3faf 5531 0cf7 2632 23d5 b431 6207 9130
00000180: 665d 9731 8368 4331 b7f5 7231 880b be30
00000190: de4c 2732 9099 cf30 1c3b 2831 7954 dc30
000001a0: 8a72 8f30 ffd2 3a31 8853 1031 eea6 5a30
000001b0: 65f6 0f31 9ded 8130 e591 3831 9133 fe30
000001c0: f067 9f30 d58c e730 77ff af30 4331 e930
000001d0: ec72 fd30 7822 6431 2d96 f330 b9a6 e930
000001e0: 75c6 0031 4b89 3f30 b819 9e30 04d4 1d32
000001f0: fefa db2f 0fb7 a030 81f0 bb30 d4a6 1831
