results/Test1/BalanceBall1/BalanceBall1-287040.pt (torch, 884853 bytes, 33 tensors)

network_body._body_endoder.seq_layers.0.weight f4 [128, 150]
000000 49 f7 33 be 7b 55 d3 3d bb 9c d6 3d 50 b8 3b 3e
       -0.175748 0.103190385 0.10479113 0.18332028
000010 b7 cb cd 3d 8d bb ca bd df 16 19 bd 04 d3 01 bd
       0.10048621 -0.09899054 -0.037375327 -0.03169538
000020 68 32 a1 bd 97 78 cd 3b 0a 85 45 bd f0 8a 3c bd
       -0.07870942 0.006270479 -0.04822258 -0.04603094
000030 9c 2f 76 bd f8 bd 49 3e b1 60 b2 3c 16 0c 64 3d
       -0.060103998 0.19701374 0.021774622 0.05567559
000040 01 bf 89 3d 31 62 da bc dd 2f b8 3c de 32 df bc
       0.06725884 -0.02665815 0.02248376 -0.027245935
000050 0d 43 38 3c 5d 4e 1f 3e 86 7f ce 3d 7e a4 3a b9
       0.011246455 0.15557237 0.10082917 -0.0001779962
000060 3e 1f 00 be 89 f2 55 3d 1c ce e8 bd 28 8a 4b bd
       -0.12511918 0.052233253 -0.11367437 -0.049692303
000070 eb ca b2 3c fa d6 23 bb 41 2e 17 be 1a 9a 18 3e
       0.021825274 -0.0024999962 -0.14763738 0.14902535
000080 47 6a a1 bc d4 e3 96 3d e0 a4 30 3e 37 c2 c6 bc
       -0.019703997 0.073676735 0.17250395 -0.02426253
000090 45 85 57 bb 41 52 67 bd a7 a3 a6 3b e8 e5 c5 3c
       -0.0032885831 -0.056474928 0.005085427 0.02415748
0000a0 63 73 54 bb 1f ae b9 bc b9 85 2d 3a e5 59 e7 3d
       -0.0032417409 -0.022666035 0.00066193525 0.11296443
0000b0 b2 dc c8 3d 2f ee cf 3c fd 48 30 bc 40 00 18 3e
       0.09807719 0.02538213 -0.010759589 0.14843845
0000c0 9c ea 3a 3b ce 13 0a 3d bd 02 cc 3b 0d 2e 6e 3d
       0.0028521186 0.033710293 0.0062259124 0.058149386
0000d0 6b 5e cd bd a2 f1 50 be 1b f1 9b 3c 3a ae 1d be
       -0.100277744 -0.20404676 0.019035866 -0.15398493
0000e0 89 c6 10 be e8 d5 38 bd c7 6a 90 3b be a2 f3 3d
       -0.14138235 -0.045125872 0.00440726 0.11896275
0000f0 be 42 cb 3d 28 7a be bd e7 27 d5 3b ff de 0e 3e
       0.099248394 -0.09300643 0.006505001 0.13952254
000100 16 ee 70 3e fc 1b 85 bd 39 fe 8f 3c 1e 28 a2 bd
       0.23528323 -0.06499478 0.017577277 -0.07917808
000110 22 d9 56 bd 37 bc b6 3c 19 53 c8 bd de 9b 45 3d
       -0.052453168 0.022306545 -0.097814746 0.04824435
000120 2d 95 0c bd c9 45 0f 3c 4e b9 d9 3b 0a 56 9e 3d
       -0.034321953 0.008744665 0.0066444045 0.077312544
000130 86 4d 6f 3d e2 27 17 bd 57 44 f2 bb 46 52 7e bd
       0.05842354 -0.03690327 -0.0073934007 -0.06209018
000140 cf 6e bb bc 1b 58 24 bd f8 b5 2c 3c d5 f0 36 be
       -0.022879986 -0.040123086 0.010541432 -0.17865308
000150 60 b0 a4 3d 33 cf a3 bd 21 87 83 bd 19 81 fb 3c
       0.08041453 -0.079985045 -0.06422258 0.030701207
000160 eb 38 88 bd a0 e6 2a 3d f1 7e 79 bd 49 cd ac bc
       -0.06651481 0.041723847 -0.060912076 -0.021093981
000170 b7 bb 73 bc b0 48 f6 bd ce 64 ca bd 5e 1d 39 bd
       -0.014876298 -0.12025583 -0.09882508 -0.045194022
000180 25 c3 8e 3d 21 81 23 bc 02 82 a3 bd 68 42 9e 3d
       0.069708146 -0.009979517 -0.079837814 0.0772751
000190 ba 05 90 bd 34 97 90 bc 64 4d 35 3d e6 e3 08 bc
       -0.07032342 -0.017650224 0.04426326 -0.0083551165
0001a0 0c 62 4e bd 0d 66 21 3e 9c 06 c8 bd 79 63 e1 bc
       -0.050386474 0.15761586 -0.09766886 -0.027513253
0001b0 df 78 d8 3d d2 62 33 bd d1 c7 9b bc 36 6c a3 bd
       0.10569929 -0.043795414 -0.019016178 -0.07979624
0001c0 e5 11 2a 3d 27 94 56 bd 38 b3 f2 3d b9 5d 85 bd
       0.04152097 -0.052387383 0.118505895 -0.06512017
0001d0 e7 5e 70 3c 90 38 f5 ba ae 68 03 3d 49 50 a4 bb
       0.014671064 -0.0018708874 0.032082252 -0.0050144535
0001e0 18 de 09 3e bf a0 9f bd 9b df bd 3d 3c 6f 92 3d
       0.13463628 -0.07794332 0.09271165 0.071501225
0001f0 f4 fd 0f 3e 8a fe 35 be 20 ce 41 bc 7f cb 1d 3b
       0.14061719 -0.1777288 -0.011828929 0.0024077592
000200 4d 25 c3 3c cc 8a 8e bd e1 00 f7 bc 13 a6 d5 bb
       0.023821497 -0.06960067 -0.030151786 -0.0065200417
000210 7c 37 18 3c c9 5f 2e 3e e1 3a c6 bd ed 41 50 3e
       0.009290572 0.17028727 -0.09679199 0.20337649
000220 8a c4 eb bd 2e 65 8c bc 88 1c 02 be 98 81 14 bc
       -0.11512096 -0.01713809 -0.12706196 -0.009064101
000230 76 f7 48 bd a2 1f 0b bc 03 b0 b3 bd 8d b9 fe bd
       -0.049064122 -0.008491429 -0.08773806 -0.12437735
000240 a8 77 c2 3c 3a bd 30 3e a4 81 a2 3d 2a 9b 59 bc
       0.023738697 0.17259684 0.07934883 -0.013281623
000250 02 d3 aa bc 3d 66 d3 bd 4b 18 fb 3d bf 6a c0 3d
       -0.02085257 -0.10322235 0.12260493 0.0939536
000260 c4 9e fe bd d2 f9 24 bd 9b ec 02 be 0d 31 7a bd
       -0.12432626 -0.04027731 -0.1278557 -0.061081935
000270 c9 dc 80 3d af 79 84 bd 60 a4 03 bb 4c c2 88 3d
       0.062921114 -0.06468522 -0.0020086989 0.06677684
000280 98 4e 07 3c ff 9c 75 bd 93 d3 0c be 4e bd a8 bd
       0.008258484 -0.059964176 -0.13752584 -0.08239232
000290 2d 3c fc bd e8 00 9f 3d d0 92 69 3d 43 f7 1c 3d
       -0.12316165 0.07763845 0.057024777 0.038321745
0002a0 dd ff 80 bc 46 f0 cb bd e2 46 35 bd a5 e6 2f bd
       -0.015747005 -0.09957938 -0.044257052 -0.04294457
0002b0 3e ea 7f bd 22 0d a6 bc af 04 6d bd 71 2a 50 3c
       -0.06247925 -0.020269934 -0.057865795 0.012705431
0002c0 d7 8f 11 bd e0 e0 c6 bd 83 af bf 3d 16 74 e5 3c
       -0.035537567 -0.0971086 0.09359648 0.028009456
0002d0 ff e6 63 bd c9 9e 6e bd 3c 36 07 be f6 6a a2 3d
       -0.055640217 -0.058256898 -0.13204283 0.079305574
0002e0 29 6d b1 bc 40 41 cc bd 62 14 62 bd 6a ef 98 3d
       -0.021658497 -0.09973383 -0.05519522 0.074675396
0002f0 5e 9d 2b 3d 57 eb 14 3e 53 65 ce bd 2c 60 94 3d
       0.041898124 0.145429 -0.1007792 0.07244906
000300 e5 14 81 bc 5a 55 1b bc 5f 9f 1a bd 89 0e 22 b6
       -0.015757034 -0.009480799 -0.037749644 -2.4148342e-06
000310 5c f0 e3 3c a5 47 86 3d 41 8e 05 3c 83 a5 5c bd
       0.027824573 0.06556634 0.008151592 -0.05386878
000320 d0 6f 1e 3e 22 d8 39 3c 39 30 86 bc 8e b6 75 be
       0.1547234 0.011343034 -0.016380416 -0.2399542
000330 70 35 83 3d 23 d9 4e 3d 8e 19 b8 3b 30 1a 11 3d
       0.06406677 0.050500046 0.0056182807 0.035425365
000340 5b 29 a7 bb ab 28 07 be ee a5 2d 3d 72 c6 cf bd
       -0.0051013655 -0.13199107 0.04239457 -0.10145272
000350 42 a5 0b 3e ef f8 2c 3e f0 4b d3 bb e8 e1 dd bc
       0.1363726 0.16891836 -0.0064482614 -0.02708526
000360 2c 9d e9 bd 5c b0 71 3d 0c 0f 24 3d 00 4a 9a bd
       -0.11406931 0.05900608 0.040053412 -0.07533646
000370 57 6b f7 3b d1 ec a1 bc 63 ea 95 3c 65 11 45 bd
       0.0075506377 -0.019766243 0.01830024 -0.04811229
000380 07 a8 0b 3d f7 a8 7d 3d 65 a8 92 bd 12 d1 33 3c
       0.03409579 0.061928716 -0.07161025 0.010975139
000390 57 6a be 3d ee 73 4f bc 71 43 70 3c 94 90 d0 bc
       0.092976265 -0.012661917 0.014664517 -0.025459565
0003a0 49 1a 90 3d a4 46 81 bd fd 9a 34 3e 55 0a e8 bc
       0.070362635 -0.06312302 0.17637248 -0.02832524
0003b0 9c aa 9b bd d8 15 29 3e 46 2a 88 3c 0e f4 d5 3b
       -0.076009005 0.16512239 0.01662172 0.0065293377
0003c0 e3 97 21 be c9 35 82 3c 62 a1 9d bd d2 a9 16 3d
       -0.15780596 0.015894787 -0.07696797 0.036783047
0003d0 e5 88 b7 3d b0 c6 67 3c 40 54 74 bd 56 23 24 3d
       0.089616574 0.014146492 -0.05965066 0.04007276
0003e0 44 5a 27 3d 98 5b a1 3d d3 50 da bd 79 9e df 3c
       0.04085757 0.07878798 -0.10659947 0.027297245
0003f0 ec 5b cd 3d f9 e4 10 bd 26 37 9c 3c 29 78 25 bd
       0.10027298 -0.035374615 0.019069266 -0.040397797

network_body._body_endoder.seq_layers.0.bias f4 [128]
000000 68 4d d3 3b 43 ac fc 39 77 ed 36 3c 1c 65 9e bc
       0.0064484365 0.0004819353 0.0111650145 -0.019335322
000010 dc 1e 0b 3d b1 67 22 3c ab bc 80 3c b9 0c 3e bc
       0.033964977 0.009912417 0.015714964 -0.011599713
000020 38 e6 ad bb fd f5 95 3c ad 58 ea 3c 08 c6 19 bc
       -0.005306985 0.018305773 0.028606737 -0.009385593
000030 5a 98 7f bc c5 de 42 3c f6 ff 97 3a de 63 8f 3c
       -0.015600288 0.011893933 0.0011596668 0.017503675
000040 21 2d 4e bc f8 5d b1 3b 1d 3f 7b 3c f6 b1 29 3c
       -0.012584002 0.0054128133 0.015334872 0.010357371
000050 29 af f8 3b 24 83 6a bc a4 28 e0 3b c6 d8 d9 ba
       0.00758924 -0.014313493 0.0068407822 -0.001662039
000060 07 23 24 bc f8 3c 3c 3c 76 1b 2a 3c 18 88 ab bb
       -0.010018117 0.011489145 0.010382524 -0.0052347295
000070 d5 d5 75 3c 65 cb e8 b9 b8 8a f1 3b 2c a8 59 3b
       0.015004595 -0.0004440203 0.007371273 0.003321181
000080 14 6d 89 bc a6 dc a9 bb 2d b2 d3 3c 18 f3 7e b9
       -0.016775645 -0.005183774 0.025841797 -0.00024313887
000090 2c 2f 94 3b 4e dc 3e 3c ae cd d4 3c 09 bb dd 3b
       0.004522225 0.011649204 0.025976982 0.006766681
0000a0 b4 14 63 bc 56 68 f2 3c 8c 7b 55 bc ba 72 d6 3b
       -0.0138599165 0.029590767 -0.013029944 0.006544438
0000b0 b1 4a 94 3b db 3e 66 3a 73 32 42 3a 8c 35 8d 3b
       0.0045255055 0.000878317 0.000740803 0.004309362
0000c0 02 c3 d8 3c d2 09 59 bb e4 e6 a7 bb ef a4 27 bc
       0.026460174 -0.0033117426 -0.00512396 -0.010232194
0000d0 3e a9 0f 3c da 01 22 3c 0c 3a b5 39 0e e2 16 3d
       0.008768378 0.009888137 0.0003456626 0.036836676
0000e0 fc 5a b2 bc 09 f7 25 bc 8b 8b cf 3c 73 d2 6d bb
       -0.0217719 -0.010129699 0.025335094 -0.0036288768
0000f0 7f 00 ed 3b b0 0c 90 bc 5d 9b 90 bc 24 ba 86 bb
       0.007232725 -0.017584175 -0.017652208 -0.004111545
000100 6d da 5d 3c 18 0f 8d 3c 29 47 b9 bb 98 87 8e 3c
       0.013540846 0.017219111 -0.005654235 0.01739864
000110 77 30 f4 bb 41 65 1c 3c fc c9 12 bc 22 08 52 3c
       -0.0074520665 0.009545625 -0.00895929 0.012819322
000120 bc 73 82 3c 86 5c eb bb e2 4b a8 3a 7a ea b5 3b
       0.015924327 -0.0071826605 0.0012839998 0.0055516334
000130 e9 33 1f 3c 0c f0 17 3d 05 c3 d4 bb f5 53 3c 3b
       0.009716966 0.03709416 -0.0064929747 0.0028736566
000140 a7 e6 11 bc 4f 46 a9 bc cd 6d 06 bc a9 9d 06 3d
       -0.008905089 -0.020663409 -0.0082048895 0.0328652
000150 89 8a ef bb 18 5b 0b bc cc 9d 67 3c 85 dc ab 39
       -0.007310216 -0.008505605 0.014136743 0.00032779961
000160 48 38 8e 3c 46 b3 77 3c 04 a8 ac 3a 1e e1 e2 bb
       0.017360821 0.015118426 0.0013172631 -0.0069238087
000170 0b 62 d6 bc f7 9a 3f bc 55 ba f5 bb 01 a0 b8 ba
       -0.026169797 -0.011694661 -0.007499019 -0.0014085771
000180 f1 f0 43 3c b7 a5 4d 3c a0 9c 2a 3a 86 97 7a bc
       0.0119593 0.0125517165 0.00065083243 -0.015294915
000190 7b ec 99 3b 1c da 55 3c fc 88 07 3b de cc 45 bc
       0.00469738 0.01305249 0.0020681014 -0.01207277
0001a0 23 e1 3b 3b 02 21 bd 3b 1d 63 16 3d 29 ae 88 3c
       0.0028668127 0.005771757 0.036715616 0.016684609
0001b0 5d c7 8f ba 3d 42 39 bc 40 b1 9d bc ac c2 44 3c
       -0.0010969449 -0.011307296 -0.019249558 0.012009304
0001c0 1c f8 61 bb 85 9e 80 bb e3 a1 f0 3b 46 ed c0 39
       -0.003448016 -0.003925147 0.007343517 0.00036797876
0001d0 0f 8a 92 3c 51 84 6a 3c 71 23 bd 3c e0 a8 5a 3c
       0.017888097 0.014313773 0.023088189 0.013345927
0001e0 09 ad 95 3c c2 09 67 bb 95 19 88 bc 19 e0 4c 3c
       0.018270986 -0.003525362 -0.016613761 0.012504601
0001f0 9c 1b b7 3c e9 0d f1 3c 35 11 a8 bc d9 50 ce 3c
       0.022352032 0.029425578 -0.020516017 0.025185036

network_body._body_endoder.seq_layers.2.weight f4 [128, 128]
000000 a9 16 90 3c d7 f2 73 bd 8a 98 65 3c 40 25 1d 3d
       0.01758893 -0.059557762 0.014013419 0.038365602
000010 0f b3 72 bd d6 04 a3 bc 74 53 35 bc d5 9f db bd
       -0.059252795 -0.019899767 -0.01106726 -0.10723845
000020 06 3c f8 bd 63 51 ab bd 34 ca 9b 3d a4 f1 3b 3d
       -0.121208236 -0.08365133 0.076069266 0.045884743
000030 7f cc f1 3c ae 65 80 bc 02 da 88 bd e6 65 20 be
       0.029516457 -0.015673485 -0.06682207 -0.15663871
000040 e2 10 16 bc 4d ea 77 3d 93 8a 2b bd 98 1c b4 3c
       -0.009159299 0.06052618 -0.0418802 0.02198629
000050 a2 d8 f5 3d 90 33 eb 3d 7d 7a a4 bd 4e 15 44 bd
       0.1200421 0.11484444 -0.08031175 -0.04787188
000060 f8 3e 9d 3c 82 e7 f7 bd 95 cc 60 3c e7 49 ed 3d
       0.019195065 -0.121047035 0.013720651 0.115863614
000070 2e ca 6f bc ed a0 8a 3d f8 7d a0 bd 4a 25 6d bd
       -0.014635606 0.067689754 -0.07836527 -0.05789689
000080 25 a0 25 3e 90 2d 99 3c 1f 1c 38 3d 3f 36 4d 3d
       0.16174372 0.018698484 0.044948693 0.05010056
000090 f9 db f3 3c 0b 47 35 3d 8c 0b 6c bd b0 a8 78 3d
       0.029767977 0.044257205 -0.0576282 0.060707748
0000a0 fa e5 4b 3d 6a d8 00 3b 56 7b 0b 3e 2b ff c6 bd
       0.04977987 0.0019660243 0.13621268 -0.09716638
0000b0 63 cb fc bd 5a ce b0 3c 7e 88 36 3e 95 fe c6 ba
       -0.123434804 0.021582771 0.17825505 -0.0015182073
0000c0 ae ff e4 bb 34 00 13 3d c5 6a 3d 3d 9c ea 20 bd
       -0.006988487 0.035888866 0.0462444 -0.03928624
0000d0 6b d3 1c 3d 5d ac c4 3d 8c 99 92 3d 23 24 c6 bd
       0.03828756 0.09603188 0.07158193 -0.09674861
0000e0 b9 76 4c 3d 78 1a 24 bc 78 dd 8c bd f5 a6 f2 3d
       0.04991791 -0.010016076 -0.06878179 0.11848251
0000f0 85 02 64 3d 7c 00 0d 3e e4 14 df bd 04 84 79 bc
       0.055666465 0.13769716 -0.108926564 -0.015229229
000100 08 cc 3d 3d 92 5b a8 3c 85 50 35 3d d4 98 93 3d
       0.046337157 0.020551477 0.044266243 0.07206884
000110 90 39 b9 3d 9c 6b 7d 3c 5e 8c c4 3b c0 4d 37 bd
       0.09044182 0.015467551 0.0059981784 -0.044751883
000120 8b 33 ad 3b 6c 05 8f 3d 16 9d 18 3e 42 ac 03 be
       0.0052856854 0.06983456 0.14903674 -0.1285868
000130 c1 c6 dd bd 0a 0e ca bd e3 f0 14 bd a8 59 05 3b
       -0.10828925 -0.09865959 -0.03636254 0.0020347629
000140 cd 75 80 bc b1 90 ad 3b b5 0f 79 3c 57 4d 21 3e
       -0.015681172 0.0052967896 0.015201499 0.15752159
000150 fe 4f 74 bc 31 43 2f 3e 91 60 a9 3d b6 c3 c4 3d
       -0.01491165 0.17115475 0.08270372 0.096076414
000160 42 ee 07 3d 83 25 61 3c 26 b7 45 3c a4 2d 76 3d
       0.033186205 0.013741854 0.012067592 0.06010212
000170 94 61 c4 bc d4 ac 46 3d 68 0c c1 3c cd 39 a6 bd
       -0.02397231 0.048504665 0.023565486 -0.081164934
000180 45 9f 01 bd b4 b6 2e bd ae db c1 3d 29 58 07 3e
       -0.031646032 -0.042654708 0.09465729 0.13217224
000190 53 91 aa 3d 99 a5 8c 3d e0 af d4 bd 7f 7b 9a bd
       0.083285 0.06867523 -0.10385108 -0.07543086
0001a0 a1 b6 9c bd 57 fc 51 bc 5b cb 2e 3d c1 a3 b2 bd
       -0.07652021 -0.01281651 0.042674404 -0.0872264
0001b0 c5 e8 8b bd 6b cf 4a bd 91 f3 cc 3d bf ea ac 3d
       -0.06831507 -0.049514215 0.10007394 0.08443212
0001c0 a5 4d ac bd 86 bc 95 bd 1d 3e 2a 3d d0 90 b3 3d
       -0.08413247 -0.073113486 0.041563142 0.08767855
0001d0 11 70 ca bd 3a ba 84 bc 92 4a 58 3c 30 e7 fb bd
       -0.09884656 -0.016202081 0.013201373 -0.12299955
0001e0 e5 b3 5d 3e 54 cd 22 3d 83 97 56 be de de 8e 3d
       0.21650656 0.039746597 -0.20956235 0.06976102
0001f0 f0 d7 d3 bd c2 fc 32 be be bb 00 be 36 a1 e5 3c
       -0.10343921 -0.17479232 -0.12571618 0.028030973
000200 48 9b ff bc b5 bc c1 3d ff fa 6e 3b e1 52 0b bd
       -0.031201974 0.09459821 0.0036465523 -0.034014586
000210 12 97 c6 3d 6e f3 9f bc 56 07 20 bc 88 04 80 3d
       0.09696783 -0.019525256 -0.009767374 0.06250864
000220 52 4c d8 3c d6 f7 dd bd 1c e0 ae 3a ff 80 ac bd
       0.02640358 -0.108382866 0.0013341936 -0.084230416
000230 fb f0 de 3b 80 c3 3e 3e 70 9f 28 bd ac 88 d4 3d
       0.0068036295 0.18629265 -0.041167676 0.103776306
000240 73 77 3c 3d f5 be b5 bd ba f0 bf 3c e5 c0 37 bc
       0.046012353 -0.08874313 0.023430217 -0.011215423
000250 39 f7 47 be 90 b5 0e 3c 7b a3 47 bd 52 87 d7 3d
       -0.19527902 0.00871028 -0.04873989 0.10523857
000260 2f c5 66 3e 07 ac 3e bd 42 23 64 3d f6 09 d7 3d
       0.22536157 -0.046550777 0.055697687 0.10499947
000270 f8 bb de 3c 91 48 9a 3b 94 e9 68 3d 76 f6 98 3d
       0.02718924 0.0047083576 0.056863382 0.07468884
000280 3a a0 c9 3d 7f 32 a3 bd d7 d7 f9 bd b2 9a 3d bd
       0.09845014 -0.07968616 -0.12199371 -0.046290107
000290 d8 4a a5 bc 56 14 a2 3c a4 ba ad 3c 93 af 1a bd
       -0.02017729 0.019785088 0.021207161 -0.037765097
0002a0 e8 db 03 bd 35 9b b9 bc ee 43 29 3e 31 6b da 3c
       -0.03219214 -0.022657016 0.1652982 0.026662441
0002b0 99 17 18 3e f4 63 11 bc c7 af 9c 3c f8 9b 9f 3e
       0.14852752 -0.008873928 0.019126786 0.31173682
0002c0 9b 5d 8e 3d d4 87 e6 3d c9 ac 13 be 7f db 31 bd
       0.069514476 0.11256376 -0.14421381 -0.04342222
0002d0 7e 45 a3 bd d8 d5 2f 3d 26 c6 43 3e 61 8e a6 bd
       -0.07972239 0.042928547 0.19118556 -0.08132625
0002e0 92 c0 b6 bc a9 25 10 be cb e7 5a 3d 38 9d f7 bc
       -0.022308622 -0.14076866 0.05344371 -0.030226335
0002f0 f4 3e 2a bd 2c 3b 3c 3c ae a0 93 bd e0 cb 14 3e
       -0.041563943 0.011488717 -0.072083816 0.14530897
000300 e0 3b f7 3d 72 47 1c bb ae d7 36 3d 4d 93 9b bd
       0.12071967 -0.0023846296 0.044639282 -0.07596455
000310 f3 44 21 3d dc 62 81 bd 1c d8 1d 3c 3e f9 4b 3c
       0.039372396 -0.06317684 0.009634044 0.012449561
000320 bd b4 1a 3d bf d1 dd bd d2 85 15 3e 96 86 95 3d
       0.03777002 -0.108310215 0.1460183 0.07301061
000330 44 55 8d bb e4 ac 1d 3d 27 45 58 bd 55 38 08 3d
       -0.004313143 0.03849496 -0.052800324 0.033256847
000340 dd 41 cc bd d9 47 9c 3d 31 8e de 3c f5 9d 47 3d
       -0.099735 0.07630891 0.027167412 0.048734624
000350 49 9a cf bd 01 a9 0f be 45 e1 ee bc 55 93 14 be
       -0.101368494 -0.14029314 -0.029160151 -0.14509328
000360 0f 57 d8 bd df 05 cf bb fe 28 27 3d 61 79 cf bd
       -0.1056348 -0.0063178386 0.040810578 -0.10130573
000370 53 8e c6 bd 73 c7 81 bd 85 13 62 bb 5d b2 33 be
       -0.09695115 -0.0633687 -0.0034496498 -0.17548509
000380 84 10 37 be 0a b3 2b be 80 8b e5 3d 00 61 94 3d
       -0.17877394 -0.16767517 0.11208248 0.07245064
000390 55 cc 0a bc c6 9d d8 3d f1 44 a7 3d 5b ee ee bd
       -0.008471568 0.10576968 0.081674464 -0.116665564
0003a0 f8 a8 85 3c e8 66 d7 bc a0 b0 de 3d a8 b1 d2 bc
       0.016315922 -0.026294187 0.10873532 -0.025719479
0003b0 07 88 b6 3d 54 59 58 3d 60 b1 ef 3c a9 a0 39 be
       0.08912664 0.052819565 0.029259384 -0.18127693
0003c0 13 ba a1 bd 1c 4a e2 3d 1a 89 2d 3d 73 0a 8d 3c
       -0.07896819 0.110492915 0.04236708 0.017216897
0003d0 ce 2b 62 3c bf d5 ac 3d ec 62 b9 3c 81 6d 07 bd
       0.013804389 0.08439206 0.022630177 -0.033063415
0003e0 fc 41 e2 bd 70 03 7e 3d 54 0c c0 bd c7 83 c7 ba
       -0.11047742 0.062014997 -0.093773514 -0.0015221768
0003f0 09 e4 e1 bd 6e aa 9f bd c3 24 0f bd eb 8d c1 bd
       -0.110298224 -0.07796179 -0.034947168 -0.09450897

network_body._body_endoder.seq_layers.2.bias f4 [128]
000000 f8 ab 09 bc 24 a2 57 3c 43 c6 d1 bb 29 4b da 3b
       -0.008402817 0.013161216 -0.0064018085 0.006661792
000010 0f 92 9c 3b 7b f0 cd bb 45 1e b0 bc dd ea 81 bc
       0.0047781537 -0.006284771 -0.021498809 -0.015859062
000020 38 c1 81 bc 76 c1 54 bc e1 3f 18 3c 41 a0 b0 ba
       -0.015839204 -0.012985578 0.009292574 -0.0013475494
000030 a8 02 ac bb 32 b5 b2 3a 03 c3 88 bb a7 07 81 bc
       -0.00524934 0.0013634323 -0.004173638 -0.01575072
000040 be f6 68 bc e9 3d 93 bb 56 22 15 3c c2 a4 07 3c
       -0.014218984 -0.0044934643 0.009102425 0.008279027
000050 89 6e 9b 3c 38 e6 9f 3b 83 88 a8 3b 3e 7d a7 3c
       0.018973606 0.004879739 0.0051432266 0.020445462
000060 0c ca 9a 3a 6e 9e 16 3b 07 f1 9c 3c ea 6f 36 3c
       0.0011809482 0.0022982615 0.0191579 0.011135081
000070 31 d2 df bc bd fe de 3c 4e ae 0f 3c ce 81 32 bc
       -0.027321907 0.027221078 0.008769585 -0.010895206
000080 3e b9 c9 ba 03 f3 68 3c 45 97 cf 3b 3f ef bd 3b
       -0.001539029 0.014218095 0.0063351714 0.0057963426
000090 bf 1e e9 3c d8 ad fc 3c d6 8f d7 3a 68 e8 76 3b
       0.028457044 0.030844614 0.0016446065 0.0037675146
0000a0 0d 31 fa bb a9 8a 85 3c 6a 42 16 3c 5c c1 03 3c
       -0.007635242 0.01630147 0.009171108 0.008041706
0000b0 d7 28 e2 3b e2 f6 28 b7 8d 50 be 3a ba 37 3c 3b
       0.006901841 -1.0071062e-05 0.0014519856 0.002871974
0000c0 3c b8 d0 3c 7c ea 0c 3c 92 18 c2 3c ac 12 d1 3c
       0.025478475 0.008600827 0.023693357 0.025521599
0000d0 cb 6a db ba a8 15 bd 3c 6a c7 1d bc 3e e8 08 bb
       -0.0016740201 0.023081616 -0.009630064 -0.002089038
0000e0 99 03 c5 bb 8a 1c 2f bc 1a ae 35 bc a4 34 0e 3c
       -0.0060123918 -0.010687957 -0.011088872 0.008679543
0000f0 90 d8 ba bb cc e7 f0 3b 37 9d 87 3b f6 9b 70 3c
       -0.005702086 0.007351851 0.0041386145 0.0146856215
000100 e6 80 dc bc a1 1e 01 3b 22 cc 70 bc e0 68 53 bc
       -0.026916932 0.0019702094 -0.014697107 -0.012903422
000110 f9 9f 40 3c 6a dc 1a 3c 22 68 38 bc 41 de 28 3b
       0.01175689 0.009451965 -0.011255296 0.002576724
000120 90 b0 c5 3c f7 94 f5 3c 17 ba 88 3c bd 26 26 3c
       0.024132043 0.029978259 0.016690297 0.010141072
000130 73 09 41 3c 21 0d 97 bc d2 fd 8d 3c a9 65 93 3c
       0.011782038 -0.018438878 0.017332945 0.017992811
000140 1b e9 30 3b 9a c4 fc bb 60 7a 8f 3c b0 c2 84 bc
       0.002699441 -0.0077138664 0.017514408 -0.016206115
000150 bc 5e e8 3a aa 6d 3d 3d 79 0c 8a bb f1 05 25 bc
       0.0017728428 0.046247162 -0.0042129126 -0.010072217
000160 a4 0a 38 3c e8 3b 3b 3c bc 43 97 3a f8 28 aa 3b
       0.011233006 0.011427857 0.0011540572 0.005192872
000170 fe d7 8d bc 1f ae 48 3c 25 48 49 bb 6b 0b 98 ba
       -0.017314907 0.012248545 -0.0030713168 -0.0011600083
000180 f4 18 c9 3b dd 5b bb 3c 5e 40 35 3a d5 fb 69 3c
       0.006137008 0.022870952 0.00069141935 0.014281233
000190 9e c0 b0 3c b8 a9 71 3c 80 36 94 3c ca 77 1d bc
       0.021576222 0.014749937 0.018092394 -0.0096110795
0001a0 45 1a 7c bb 48 c4 0a bc 35 c0 1b bc 1a e9 ba 3c
       -0.0038467806 -0.008469649 -0.009506275 0.02281623
0001b0 98 4b 20 3c 06 ea 54 bc 1b fe 82 3c 60 8b 2b 3b
       0.009783648 -0.012995249 0.015990308 0.0026175603
0001c0 0e 68 55 3c 60 5d bf bb 41 fe b8 bb 1f 49 82 bb
       0.013025297 -0.0058399886 -0.005645544 -0.003976002
0001d0 b8 8c 37 3c 5f d5 b3 bc 88 f2 98 3b 56 17 5b bc
       0.011202984 -0.02195233 0.004667584 -0.013372263
0001e0 55 6e a4 bb 96 78 2d 3c 45 81 9c bb 16 b7 43 bb
       -0.0050180354 0.010587832 -0.0047761523 -0.0029863766
0001f0 4b ea d2 3c 9d f8 f8 bb 4d ed a1 3b ff c3 cb 3b
       0.025746485 -0.0075979964 0.0049416185 0.006218433

action_model._discrete_distribution.branches.0.weight f4 [3, 128]
000000 03 42 48 bc 14 4f 6f bc ab 40 aa bb 4a ab 43 bb
       -0.01222277 -0.014606256 -0.0051956973 -0.0029856735
000010 3d b2 ea 3b ce f1 62 ba a2 cd 14 3b c5 8b 8e 3b
       0.007162361 -0.00086572475 0.0022705575 0.004350158
000020 1c 52 41 3a a1 5c 30 3c be aa 9c bc e3 bc b8 3b
       0.0007374601 0.010764272 -0.019124385 0.0056377514
000030 df 9c df b9 08 15 a8 3b 73 5a a1 3a ee e5 c6 3a
       -0.00042650753 0.0051294602 0.0012310281 0.0015174726
000040 03 d6 8a ba c4 a3 65 ba 26 2d 58 bc 66 a2 65 bc
       -0.0010592345 -0.000876006 -0.013194358 -0.01401577
000050 88 2b df bb a1 c0 27 3b 27 58 be bb de 1a 5e 3d
       -0.0068106093 0.0025596994 -0.0058088484 0.05422484
000060 6f cd ce bb e8 23 80 3c 37 9a cd 3c 73 ac 1c bc
       -0.0063111107 0.015642121 0.02509795 -0.0095625995
000070 59 3b d8 3c 91 f5 76 bc ac 83 9e bb f6 05 78 3c
       0.026395487 -0.015073196 -0.004837474 0.01513814
000080 d4 90 d9 3b a8 19 02 3d 0a e9 b7 3c 2a 71 5e bc
       0.0066395793 0.03176275 0.022449989 -0.013576785
000090 ed 8f 39 bc d5 c3 f0 bc 66 5b 46 3c 0a af 82 bb
       -0.0113258185 -0.029390255 0.012106752 -0.0039881514
0000a0 5a 3d a7 3c 3e ee 8c bc 2b b6 99 3c 39 7d 92 3c
       0.020414997 -0.017203446 0.018763622 0.017881976
0000b0 d4 fa 8b bb a1 a7 a9 3c 07 78 09 3c 20 21 97 3c
       -0.0042718444 0.020709815 0.008390433 0.018448412
0000c0 2f 46 de bc 39 4b 06 bb ad f7 45 bc f5 eb b0 bc
       -0.027133076 -0.0020491614 -0.012082976 -0.021596888
0000d0 6e db 0e 3c 68 96 28 bc 7a 7a 61 3c 67 e6 20 3c
       0.008719308 -0.010289766 0.013762111 0.009820557
0000e0 14 66 93 3b a5 8e 1d bc 14 02 83 39 f4 83 b9 bb
       0.0044982526 -0.009616529 0.00024987815 -0.005661482
0000f0 c1 02 1a 3c 1a 92 e3 bb 5d d1 83 3c eb 5f ff bc
       0.009400071 -0.006944907 0.016091043 -0.031173667
000100 75 ac c5 3b 3a 83 f5 3a 4f 7c 2f bc c5 cb d1 3c
       0.0060325214 0.0018731125 -0.01071079 0.02560986
000110 09 3a 0f 3c a8 a8 63 3c 09 33 f6 3a c1 58 0c 3c
       0.008741864 0.013895191 0.001878352 0.008566082
000120 0d eb 97 bc d5 40 bc bc a2 f9 a4 bb 6a f6 e8 bb
       -0.018544698 -0.022980133 -0.0050346414 -0.007109453
000130 5f 0d 6f bc c1 06 61 3c ab a4 00 3d 28 ab bb bc
       -0.01459059 0.01373452 0.03140704 -0.022908762
000140 db f4 c2 3b 6a d9 e6 bb fe b3 e9 3c 89 b3 55 3c
       0.005949599 -0.0070449607 0.02852821 0.013043293
000150 b9 e0 8d 3c 96 2e fe bc 78 c5 a0 bb 59 c1 46 bb
       0.01731907 -0.031028073 -0.0049063526 -0.0030327647
000160 68 dc 09 3b 1d 8b 87 bb ae 1d bf 3c 6d e8 8b 3c
       0.0021035913 -0.0041364566 0.023329582 0.017078603
000170 b5 ec b6 bb 14 f1 1c bd c0 e0 3b 3b 20 8f cd bb
       -0.005582417 -0.038315848 0.0028667897 -0.0062731653
000180 06 c8 55 3c 63 b0 e5 3c a6 8c c4 ba 8f 49 83 bc
       0.013048178 0.02803821 -0.001499553 -0.016026286
000190 60 8a a1 bc 49 7f 9b bc 27 71 ae 3b fe c2 c1 3b
       -0.019719303 -0.018981593 0.0053235474 0.0059131375
0001a0 bf 01 10 3b 06 8c 2f 3c b1 6a c9 bb cf d2 01 bc
       0.0021973697 0.0107145365 -0.006146752 -0.007923796
0001b0 cf 54 87 3c 87 0e 4e 3a 6d 6d 71 bc ae 69 e9 ba
       0.016519932 0.0007860441 -0.014735562 -0.0017807984
0001c0 c3 09 58 3b ef 6d 81 3c 6b c0 8d 3b 31 0c b4 3c
       0.0032964803 0.01579949 0.0043259165 0.02197847
0001d0 6a 4d 30 ba 6c 2e d7 bb 74 2f c0 3c 9e 94 26 bc
       -0.0006725403 -0.006566813 0.023460127 -0.010167269
0001e0 ef be f1 3a 17 1e 4f 3c 0a d7 9d 3c a8 22 9b 3c
       0.0018443743 0.012641451 0.019267578 0.018937424
0001f0 b4 5d 34 bc 7e 04 83 3b bf 93 d8 bb 66 54 c4 bb
       -0.011008669 0.0039983382 -0.0066094096 -0.0059915064
000200 0f 9f 63 3c 6b 9e 06 bc 53 e9 10 3d ef c9 ad 3c
       0.013892903 -0.008216481 0.035378765 0.021214454
000210 60 6e 8c bb 9b 42 23 b9 c7 b9 60 bc 5d 94 38 3c
       -0.0042856187 -0.00015569704 -0.013716168 0.011265841
000220 49 ee cf 3b d1 9d 7f bb 62 41 ab 3b ae 7a 84 bc
       0.0063455445 -0.0039003978 0.0052263 -0.01617178
000230 d4 b2 f0 bb 48 0d 4c bb bb 3d d4 3b 2c 92 15 bc
       -0.0073455367 -0.0031135846 0.0064770854 -0.009129088
000240 04 87 63 3b 77 33 08 bb f7 f0 95 3b d4 50 84 3b
       0.0034717927 -0.0020782629 0.0045758444 0.004037956
000250 8b a9 00 bc bc 10 d2 bc 84 5b b6 3c 39 4d db bb
       -0.007852922 -0.025642745 0.022260435 -0.0066925553
000260 26 1c 8a 39 88 3f b5 3b b2 74 e3 3b 5f e5 f8 b9
       0.00026342383 0.005531255 0.0069414014 -0.0004747314
000270 f9 e0 bd ba cf ce 04 bc 8e 72 33 3c e9 38 89 3b
       -0.0014486603 -0.008105948 0.010952605 0.0041876924
000280 35 2a c9 3a f4 f2 31 bb 68 39 3f bb 27 47 d7 3a
       0.0015347662 -0.0027152868 -0.0029178504 0.0016424403
000290 b4 80 f1 3b fc 93 b4 3c e7 2c b4 bc 97 ac bc 3a
       0.007370079 0.02204322 -0.021994067 0.0014394698
0002a0 f6 3a a3 bc 5a fd 65 b9 45 4b 20 bc fa 1c b5 3c
       -0.019925576 -0.00021933523 -0.009783571 0.022108544
0002b0 0f d3 d8 3b 34 e3 25 bc 69 28 d8 bc 82 b2 76 bc
       0.006616957 -0.01012497 -0.026386457 -0.015057208
0002c0 49 b3 08 bc 08 06 72 bb 2e e3 48 bc 1a 6e 0e bc
       -0.008343526 -0.0036929864 -0.012261195 -0.008693242
0002d0 91 20 eb bb 12 99 66 bc c1 ac 45 3b 1b a5 32 3c
       -0.007175513 -0.014074581 0.0030162784 0.010903622
0002e0 c3 34 ef 3b 4c 79 89 3b 60 df dd bb 09 a4 ef 3b
       0.007299991 0.004195368 -0.006771013 0.0073132557
0002f0 47 51 8a bc 60 40 fe 3b 9e 10 76 3a 72 5e 89 bc
       -0.01688446 0.007759139 0.00093866314 -0.016768668
000300 0a 68 94 3c e4 1c fc bb 17 99 2a bc a7 7f 3f 3c
       0.018116016 -0.0076938737 -0.010412476 0.0116881495
000310 1c 7f 21 3c 2a 56 e4 bb e3 f9 0f 3c 11 04 fe 3b
       0.009856965 -0.0069682794 0.008787605 0.0077519496
000320 56 75 09 bc f8 32 54 bb a2 c5 65 ba 0b 01 b8 3c
       -0.0083897915 -0.0032379013 -0.00087651063 0.022461435
000330 9c b2 2a bc c9 e8 2e 3c 39 0f ca bb 74 75 82 39
       -0.01041856 0.0106756175 -0.0061663655 0.00024883042
000340 ac 59 ef bb 05 a5 c7 3b 95 f1 4d bc 8e a7 ea ba
       -0.007304391 0.00609267 -0.012569805 -0.0017902718
000350 02 01 d2 bc cc 57 56 3a 08 28 50 3c ea cb 00 bc
       -0.025635246 0.0008176535 0.012704857 -0.007861117
000360 ec c4 61 39 6d 85 be 3b 21 41 c1 3c 72 92 50 bb
       0.00021531031 0.0058142454 0.023590626 -0.003182557
000370 6c b1 5b 39 97 04 c8 bc ab 5b 9b 3c 73 49 d0 bc
       0.00020951562 -0.024416251 0.01896461 -0.025425648
000380 e2 15 30 bc 8d 5f 66 bb 9d 50 23 bb 2d c6 03 3c
       -0.010747405 -0.0035152168 -0.0024919875 0.008042854
000390 b6 31 d1 3b b7 e5 84 bc ec c9 f9 3c 44 64 1a 3b
       0.0063841 -0.016222818 0.030491792 0.0023558298
0003a0 1f 77 a9 ba 5b 67 03 3b c9 83 77 3c c1 0a 5d bb
       -0.0012929178 0.0020050618 0.015107104 -0.0033728334
0003b0 e0 79 80 bb 5d 03 3d bc 62 c4 08 3b 81 23 80 bc
       -0.0039207786 -0.011536446 0.0020869006 -0.01564193
0003c0 fd e7 86 3b b1 20 08 bc aa 95 a2 3c 65 2d ce 3c
       0.0041170106 -0.0083085755 0.019846756 0.02516813
0003d0 62 ab 84 bc 0e e1 36 bb 42 a3 80 bc 4b 13 56 b8
       -0.016195003 -0.002790514 -0.015702847 -5.1039544e-05
0003e0 d2 45 8c 3c 28 df 17 bc 6b d1 67 bc 79 87 f5 bc
       0.017123137 -0.009269513 -0.01414905 -0.029971825
0003f0 24 4f fd 3a 98 3f 30 bc e7 5c c1 bb 70 3c 81 3c
       0.0019325954 -0.010757349 -0.0059009674 0.01577589

action_model._discrete_distribution.branches.0.bias f4 [3]
000000 9f bf 0e bc d7 c7 08 bb fa 0c 69 3c
       -0.008712678 -0.0020871067 0.014224285

exp_avg f4 [128, 150]
000000 00 00 00 00 00 00 00 00 00 00 00 00 00 00 00 00
       0.0 0.0 0.0 0.0
000010 00 00 00 00 00 00 00 00 00 00 00 00 00 00 00 00
       0.0 0.0 0.0 0.0
000020 00 00 00 00 00 00 00 00 00 00 00 00 00 00 00 00
       0.0 0.0 0.0 0.0
000030 00 00 00 00 00 00 00 00 00 00 00 00 00 00 00 00
       0.0 0.0 0.0 0.0
000040 00 00 00 00 00 00 00 00 00 00 00 00 00 00 00 00
       0.0 0.0 0.0 0.0
000050 00 00 00 00 00 00 00 00 00 00 00 00 00 00 00 00
       0.0 0.0 0.0 0.0
000060 00 00 00 00 00 00 00 00 00 00 00 00 00 00 00 00
       0.0 0.0 0.0 0.0
000070 00 00 00 00 00 00 00 00 00 00 00 00 00 00 00 00
       0.0 0.0 0.0 0.0
000080 00 00 00 00 00 00 00 00 00 00 00 00 00 00 00 00
       0.0 0.0 0.0 0.0
000090 00 00 00 00 00 00 00 00 00 00 00 00 00 00 00 00
       0.0 0.0 0.0 0.0
0000a0 00 00 00 00 00 00 00 00 00 00 00 00 00 00 00 00
       0.0 0.0 0.0 0.0
0000b0 00 00 00 00 00 00 00 00 00 00 00 00 00 00 00 00
       0.0 0.0 0.0 0.0
0000c0 00 00 00 00 00 00 00 00 a7 82 3a 80 89 e5 00 00
       0.0 0.0 -5.373328e-39 8.2342e-41
0000d0 d9 13 01 00 e5 75 09 00 54 dc 04 00 f3 5c 69 80
       9.8955e-41 8.68812e-40 4.46381e-40 -9.676071e-39
0000e0 44 26 00 80 2e c4 3c 00 f2 ed 03 00 e2 75 0c 00
       -1.3727e-41 5.580506e-39 3.60865e-40 1.144314e-39
0000f0 96 b1 60 80 8c 06 00 00 4f 62 17 00 9d 56 00 00
       -8.879913e-39 2.349e-42 2.147483e-39 3.1071e-41
000100 28 7b 09 00 72 fb 9c 37 b0 ea 4d b6 cf 68 95 b8
       8.707e-40 1.8713738e-05 -3.0683987e-06 -7.124396e-05
000110 83 59 aa 36 f1 b7 9e 34 18 6e a5 b6 29 60 ba 35
       5.0768153e-06 2.9563628e-07 -4.9302e-06 1.3886066e-06
000120 37 f2 18 b9 11 6d 59 b7 8f bb c1 35 78 1e 1c b9
       -0.00014586082 -1.2959602e-05 1.4434207e-06 -0.0001488867
000130 50 73 33 b7 49 12 e7 38 24 e1 82 b9 9d 35 58 37
       -1.069608e-05 0.00011018344 -0.00024963275 1.2887086e-05
000140 23 d7 03 b9 f2 eb 20 b7 bb 02 0b b9 2e 22 ab b9
       -0.00012573278 -9.5916785e-06 -0.0001325709 -0.00032641127
000150 9e 68 05 37 53 48 3f b8 22 97 36 b6 38 ae 3c 39
       7.951776e-06 -4.5605306e-05 -2.7208084e-06 0.00017993979
000160 e8 4d 84 b9 0b cb 73 37 49 30 92 b9 14 ea c4 33
       -0.00025235047 1.4531203e-05 -0.00027883265 9.16954e-08
000170 63 3c 1c 3a 77 07 ca b9 9e cf 17 38 de 78 80 b8
       0.0005959926 -0.00038534004 3.6194564e-05 -6.126029e-05
000180 ac c0 02 36 dd 3e df 39 0a e3 0c ba 9b 56 9b 37
       1.948366e-06 0.0004258071 -0.00053744076 1.8517769e-05
000190 9b d9 c2 b8 68 24 ac b6 97 3e 97 39 c8 22 9f b5
       -9.291173e-05 -5.1302377e-06 0.00028847597 -1.1856546e-06
0001a0 c8 6c b8 37 45 8d c0 b9 7f 85 6b b6 32 78 1a 3a
       2.1985164e-05 -0.00036726348 -3.5095434e-06 0.0005892544
0001b0 6d 4d ac 39 b9 88 3b 38 b7 f0 ec b9 5d 5b fa b6
       0.00032864083 4.4711607e-05 -0.00045192774 -7.4612167e-06
0001c0 f2 c1 2d 3a ba 38 fe 39 df b3 56 38 2a cb d8 39
       0.00066283264 0.0004848892 5.1189094e-05 0.000413501
0001d0 01 58 56 b7 ca 0e a7 b9 3f b4 88 b9 eb 8a 1a b7
       -1.2775884e-05 -0.0003186374 -0.00026074235 -9.21146e-06
0001e0 9f 14 6d 3a 70 a0 6e b7 34 a0 11 ba 8a c6 9e ba
       0.00090439053 -1.422326e-05 -0.0005555183 -0.0012113613
0001f0 9d e8 71 b8 2a 44 86 3a b9 54 da b7 b8 e4 28 b8
       -5.7675516e-05 0.0010243703 -2.6027077e-05 -4.0267332e-05
000200 06 bb d7 ba 9c 73 8d b8 4d bf 8d 3a 1a e0 ea b7
       -0.0016458936 -6.744938e-05 0.0010814458 -2.799933e-05
000210 78 5d da 39 c4 27 d5 ba 19 5c 8d b8 c9 9d 74 3a
       0.0004164984 -0.0016262461 -6.7405585e-05 0.0009331373
000220 83 b5 05 b8 84 ef 83 3a 33 9f f9 ba 51 c5 60 b8
       -3.1878717e-05 0.0010065888 -0.0019044637 -5.3589527e-05
000230 37 0d 69 3a 9c 91 3b b8 60 c7 ce 3a 3b 6a 99 ba
       0.0008890214 -4.4719884e-05 0.0015775971 -0.0011704633
000240 01 02 65 b8 24 5a 6b 3a 3b 92 3f b8 61 b2 e1 3a
       -5.459972e-05 0.00089779706 -4.5674136e-05 0.0017219299
000250 31 3d 5f ba 33 d3 61 b8 00 00 00 00 00 00 00 00
       -0.0008515893 -5.3840875e-05 0.0 0.0
000260 00 00 00 00 00 00 00 00 00 00 00 00 00 00 00 00
       0.0 0.0 0.0 0.0
000270 00 00 00 00 00 00 00 00 00 00 00 00 00 00 00 00
       0.0 0.0 0.0 0.0
000280 00 00 00 00 00 00 00 00 00 00 00 00 00 00 00 00
       0.0 0.0 0.0 0.0
000290 00 00 00 00 00 00 00 00 00 00 00 00 00 00 00 00
       0.0 0.0 0.0 0.0
0002a0 00 00 00 00 00 00 00 00 00 00 00 00 00 00 00 00
       0.0 0.0 0.0 0.0
0002b0 00 00 00 00 00 00 00 00 00 00 00 00 00 00 00 00
       0.0 0.0 0.0 0.0
0002c0 00 00 00 00 00 00 00 00 00 00 00 00 00 00 00 00
       0.0 0.0 0.0 0.0
0002d0 00 00 00 00 00 00 00 00 00 00 00 00 00 00 00 00
       0.0 0.0 0.0 0.0
0002e0 00 00 00 00 00 00 00 00 00 00 00 00 00 00 00 00
       0.0 0.0 0.0 0.0
0002f0 00 00 00 00 00 00 00 00 00 00 00 00 00 00 00 00
       0.0 0.0 0.0 0.0
000300 00 00 00 00 00 00 00 00 00 00 00 00 00 00 00 00
       0.0 0.0 0.0 0.0
000310 00 00 00 00 00 00 00 00 00 00 00 00 00 00 00 00
       0.0 0.0 0.0 0.0
000320 b6 58 6e 81 f2 d5 02 00 50 f5 35 00 28 26 44 00
       -4.3777343e-38 2.6042e-40 4.955283e-39 6.258502e-39
000330 d7 4d 2a 00 84 35 80 81 41 f0 00 00 a2 83 66 00
       3.885015e-39 -4.7096565e-38 8.6187e-41 9.414442e-39
000340 64 7c 35 80 45 25 1f 00 35 55 f7 80 a0 a6 00 00
       -4.911904e-39 2.86027e-39 -2.2713934e-38 5.9774e-41
000350 68 56 5e 80 12 90 2b 80 b3 e0 05 00 b8 32 d6 37
       -8.663533e-39 -4.000609e-39 5.39784e-40 2.5534406e-05
000360 40 43 c1 b5 3a 50 35 37 ee df fa b7 45 61 40 32
       -1.4399193e-06 1.080712e-05 -2.9906598e-05 1.1197987e-08
000370 78 cd d3 b8 cd 13 f3 35 17 fc 46 34 21 1b 80 b9
       -0.000100995356 1.8110674e-06 1.8531897e-07 -0.00024434275
000380 b1 ef 11 37 c5 5d 07 b9 9e 4c 97 b6 cb 3a 8a b8
       8.698481e-06 -0.00012909535 -4.50907e-06 -6.591304e-05
000390 66 56 d5 b9 74 fd 35 37 57 ef 3e b9 5a 65 99 b6
       -0.00040690898 1.0847452e-05 -0.00018208973 -4.571554e-06
0003a0 34 1e ab b8 da 24 13 ba b1 4c 64 37 f0 18 9b b9
       -8.159541e-05 -0.00056130963 1.3607715e-05 -0.00029582484
0003b0 b0 79 8d b7 0c d8 a6 b7 ba 76 cb b9 da b7 bf 37
       -1.6865175e-05 -1.9889347e-05 -0.00038807635 2.2854587e-05
0003c0 60 3d d6 38 66 01 98 b7 76 1f 30 ba ff 51 17 b9
       0.00010215747 -1.8120463e-05 -0.0006718555 -0.00014431028
0003d0 14 6c 53 b7 07 ed 16 b9 f3 03 86 b7 f0 43 15 ba
       -1.2601744e-05 -0.00014393414 -1.5975884e-05 -0.00056940224
0003e0 71 d9 df b9 7d 53 1a 36 39 fe 80 b9 cd b6 89 b7
       -0.0004269588 2.2996385e-06 -0.00024603473 -1.6416796e-05
0003f0 e5 3f 25 b9 9b 63 de b9 19 02 37 37 67 7f 67 b9
       -0.00015759429 -0.00042417352 1.0908138e-05 -0.00022077338

exp_avg_sq f4 [128, 150]
000000 00 00 00 00 00 00 00 00 00 00 00 00 00 00 00 00
       0.0 0.0 0.0 0.0
000010 00 00 00 00 00 00 00 00 00 00 00 00 00 00 00 00
       0.0 0.0 0.0 0.0
000020 00 00 00 00 00 00 00 00 00 00 00 00 00 00 00 00
       0.0 0.0 0.0 0.0
000030 00 00 00 00 00 00 00 00 00 00 00 00 00 00 00 00
       0.0 0.0 0.0 0.0
000040 00 00 00 00 00 00 00 00 00 00 00 00 00 00 00 00
       0.0 0.0 0.0 0.0
000050 00 00 00 00 00 00 00 00 00 00 00 00 00 00 00 00
       0.0 0.0 0.0 0.0
000060 00 00 00 00 00 00 00 00 00 00 00 00 00 00 00 00
       0.0 0.0 0.0 0.0
000070 00 00 00 00 00 00 00 00 00 00 00 00 00 00 00 00
       0.0 0.0 0.0 0.0
000080 00 00 00 00 00 00 00 00 00 00 00 00 00 00 00 00
       0.0 0.0 0.0 0.0
000090 00 00 00 00 00 00 00 00 00 00 00 00 00 00 00 00
       0.0 0.0 0.0 0.0
0000a0 00 00 00 00 00 00 00 00 00 00 00 00 00 00 00 00
       0.0 0.0 0.0 0.0
0000b0 00 00 00 00 00 00 00 00 00 00 00 00 00 00 00 00
       0.0 0.0 0.0 0.0
0000c0 00 00 00 00 00 00 00 00 0b 4c 32 2e 19 d9 ce 27
       0.0 0.0 4.0540054e-11 5.7411864e-15
0000d0 e4 12 3c 2c 4c 23 67 2b 74 4e ad 2a 66 f3 82 2e
       2.6726893e-12 8.211667e-13 3.078541e-13 5.954952e-11
0000e0 a2 41 1f 28 9a e9 29 2d 3c 7f 89 2c 26 bd 01 2b
       8.840505e-15 9.658408e-12 3.9079e-12 4.60925e-13
0000f0 84 23 9a 2e 50 0e 3f 28 ba 5a 33 2d 9b bd 12 2c
       7.009418e-11 1.0605733e-14 1.0195117e-11 2.08531e-12
000100 c3 40 3f 2b 25 6f 3e 34 ca 5a 36 2f b8 6e 95 33
       6.7946706e-13 1.7735563e-07 1.6585058e-10 6.958493e-08
000110 3a 37 cc 34 8a b3 ba 30 31 79 d4 34 07 24 af 2f
       3.8038144e-07 1.3584309e-09 3.9576256e-07 3.1857914e-10
000120 c9 b9 7f 34 93 57 81 35 8c db 5a 31 5e 4f 2a 35
       2.3816314e-07 9.636736e-07 3.1847973e-09 6.344543e-07
000130 2b bc c4 2f e2 cd 2c 35 e0 f6 c5 35 78 2a b8 31
       3.5785894e-10 6.437459e-07 1.4749494e-06 5.359933e-09
000140 38 c0 81 35 fd 22 bd 2f 4d 85 cf 35 73 4a f6 35
       9.667192e-07 3.440376e-10 1.5461497e-06 1.8350096e-06
000150 04 ae 0e 32 f5 da dc 35 67 37 d1 2f c3 b2 6e 36
       8.305054e-09 1.6455002e-06 3.8056244e-10 3.5568817e-06
000160 3d 26 12 36 b3 ed 79 32 67 b7 09 36 f7 64 b4 2f
       2.1777953e-06 1.4547754e-08 2.0521345e-06 3.281355e-10
000170 25 e9 c5 36 3c 1a da 35 59 bf a4 32 37 e7 1f 36
       5.898199e-06 1.6249901e-06 1.9179128e-08 2.382743e-06
000180 f5 4b df 2f 96 34 e7 36 2b 45 e1 35 d1 bf c4 32
       4.0617434e-10 6.8904583e-06 1.6783937e-06 2.2904631e-08
000190 48 cd 35 36 08 82 41 30 33 6d d4 36 49 54 58 36
       2.7090591e-06 7.0397776e-10 6.330805e-06 3.2235569e-06
0001a0 77 ce e5 32 34 2e 44 36 cc e0 98 30 fe 33 a3 36
       2.6752998e-08 2.923317e-06 1.1123347e-09 4.8638312e-06
0001b0 e5 6b b0 36 dd 13 fe 32 53 00 60 36 72 72 fa 30
       5.2577693e-06 2.9578525e-08 3.337879e-06 1.8222421e-09
0001c0 d5 b9 6c 36 b2 e3 03 37 7f 3e 11 33 ee 33 80 36
       3.527491e-06 7.861223e-06 3.3817283e-08 3.8207427e-06
0001d0 2f 02 41 31 d8 33 33 36 3b 97 28 37 a6 0f 27 33
       2.8086438e-09 2.6703256e-06 1.0048791e-05 3.889695e-08
0001e0 3a b7 8d 36 25 f5 84 31 98 b0 2e 36 ee ff 3e 37
       4.223458e-06 3.8695753e-09 2.6030812e-06 1.1384471e-05
0001f0 0e f9 3a 33 12 fd a7 36 f5 1d cc 31 a5 d2 97 36
       4.3533014e-08 5.006449e-06 5.940587e-09 4.524673e-06
000200 f2 38 38 37 65 5c 56 33 56 a0 aa 36 14 ff f0 31
       1.0980513e-05 4.990979e-08 5.0850604e-06 7.0139183e-09
000210 9d 9c eb 36 1e bb 0d 37 a2 04 5b 33 f0 8d b1 36
       7.021778e-06 8.4478215e-06 5.0994124e-08 5.2915348e-06
000220 f9 d5 0d 32 04 ca 25 37 b3 2f d8 36 3c 44 6d 33
       8.255932e-09 9.881802e-06 6.4428546e-06 5.524292e-08
000230 9f 04 cb 36 09 3e 1f 32 c2 9d 53 37 0f 5e a6 36
       6.0504094e-06 9.269123e-09 1.2613311e-05 4.9581354e-06
000240 02 c5 83 33 39 80 cd 36 5c 6a 1d 32 d8 e4 57 37
       6.1359984e-08 6.124403e-06 9.162786e-09 1.28682805e-05
000250 03 0b 97 36 de 8b 84 33 00 00 00 00 00 00 00 00
       4.5014326e-06 6.172171e-08 0.0 0.0
000260 00 00 00 00 00 00 00 00 00 00 00 00 00 00 00 00
       0.0 0.0 0.0 0.0
000270 00 00 00 00 00 00 00 00 00 00 00 00 00 00 00 00
       0.0 0.0 0.0 0.0
000280 00 00 00 00 00 00 00 00 00 00 00 00 00 00 00 00
       0.0 0.0 0.0 0.0
000290 00 00 00 00 00 00 00 00 00 00 00 00 00 00 00 00
       0.0 0.0 0.0 0.0
0002a0 00 00 00 00 00 00 00 00 00 00 00 00 00 00 00 00
       0.0 0.0 0.0 0.0
0002b0 00 00 00 00 00 00 00 00 00 00 00 00 00 00 00 00
       0.0 0.0 0.0 0.0
0002c0 00 00 00 00 00 00 00 00 00 00 00 00 00 00 00 00
       0.0 0.0 0.0 0.0
0002d0 00 00 00 00 00 00 00 00 00 00 00 00 00 00 00 00
       0.0 0.0 0.0 0.0
0002e0 00 00 00 00 00 00 00 00 00 00 00 00 00 00 00 00
       0.0 0.0 0.0 0.0
0002f0 00 00 00 00 00 00 00 00 00 00 00 00 00 00 00 00
       0.0 0.0 0.0 0.0
000300 00 00 00 00 00 00 00 00 00 00 00 00 00 00 00 00
       0.0 0.0 0.0 0.0
000310 00 00 00 00 00 00 00 00 00 00 00 00 00 00 00 00
       0.0 0.0 0.0 0.0
000320 ed 4d f1 2f c0 d2 5b 29 00 5c 01 2e e9 fb e7 2c
       4.3893014e-10 4.8810565e-14 2.9412917e-11 6.5933825e-12
000330 2e 20 5a 2c 51 9f 13 30 9a 59 85 29 cc c1 a4 2e
       3.0997527e-12 5.370469e-10 5.92193e-14 7.492282e-11
000340 28 52 06 2e 2e d2 64 2c 4d f8 20 30 c5 70 8d 29
       3.0541042e-11 3.2517422e-12 5.856052e-10 6.28122e-14
000350 3a 59 94 2e d5 71 12 2d dc 9d 77 2c 72 71 20 34
       6.7461106e-11 8.324415e-12 3.518844e-12 1.4942432e-07
000360 12 34 25 2f 1c ba 3d 34 bc 5a 9c 34 c3 aa f8 30
       1.5025162e-10 1.7669703e-07 2.9123282e-07 1.8092908e-09
000370 f1 34 ae 34 82 84 9a 2f 70 80 16 35 d7 a6 28 35
       3.2448546e-07 2.810659e-10 5.6066256e-07 6.282766e-07
000380 54 ca 94 31 d3 57 0e 35 fa 9c c9 2f be c4 95 35
       4.330369e-09 5.3026923e-07 3.6673226e-10 1.1158625e-06
000390 8a 2f 67 35 c0 eb f5 31 96 37 4f 35 b2 f3 00 30
       8.6123384e-07 7.15724e-09 7.71944e-07 4.691244e-10
0003a0 8a ad 01 36 7b 2f 9a 35 fa 70 36 32 45 1c ac 35
       1.932351e-06 1.1487713e-06 1.0619482e-08 1.2823226e-06
0003b0 84 6d 4f 30 b7 a9 5d 36 36 83 f4 35 28 1a 9a 32
       7.546179e-10 3.3030353e-06 1.8217604e-06 1.7939854e-08
0003c0 5b e9 f6 35 8c 9f 8c 30 77 62 a6 36 5e e4 2e 36
       1.8396344e-06 1.0231687e-09 4.9586483e-06 2.6060948e-06
0003d0 16 94 df 32 19 c9 16 36 8a 95 a4 30 eb dc cc 36
       2.6027958e-08 2.2468796e-06 1.1975072e-09 6.105392e-06
0003e0 2b ae 44 36 dc 82 0a 33 97 91 3e 36 ba c2 e6 30
       2.9307655e-06 3.2249645e-08 2.839695e-06 1.6790047e-09
0003f0 f6 e1 e5 36 a7 77 8b 36 31 71 2c 33 9d 6e 63 36
       6.851037e-06 4.156452e-06 4.0149818e-08 3.3890021e-06

exp_avg f4 [128]
000000 34 d3 e1 b7 8e bc a2 b8 e8 f7 62 b6 f8 0d 4a 38
       -2.692044e-05 -7.759883e-05 -3.3820925e-06 4.8173562e-05
000010 fd 43 86 36 02 5e aa b6 c0 f4 66 b7 a9 e2 f4 b6
       4.001426e-06 -5.0773388e-06 -1.3766054e-05 -7.2981534e-06
000020 b9 61 b1 b7 a7 d5 6d 33 c9 93 a7 37 8d 26 ad 38
       -2.114555e-05 5.5375178e-08 1.997677e-05 8.2564635e-05
000030 b3 27 81 36 13 49 f3 35 7c a7 11 b8 4d 6e 6c b7
       3.849121e-06 1.8126178e-06 -3.4726676e-05 -1.4092378e-05
000040 43 a3 74 b3 92 52 1e b7 38 62 ff b5 2c 7b 44 b8
       -5.6959163e-08 -9.436759e-06 -1.9027566e-06 -4.6844754e-05
000050 26 32 8e b7 46 e6 8e 38 d3 a2 cf b5 e8 4a 8f 37
       -1.6951071e-05 6.8139794e-05 -1.547009e-06 1.708181e-05
000060 0b c6 6f b7 eb c8 9d b8 e0 91 5d b8 ba 95 c2 38
       -1.4291621e-05 -7.523767e-05 -5.2826363e-05 9.2785296e-05
000070 95 57 53 b5 7c 93 0b b6 1b 31 30 b8 72 91 0b b7
       -7.8731074e-07 -2.0798461e-06 -4.2007403e-05 -8.31891e-06
000080 74 3f 20 b8 5a ef dc 36 25 f3 75 36 52 ff 38 b8
       -3.8206068e-05 6.584375e-06 3.6649374e-06 -4.4106804e-05
000090 97 8d 5a b6 49 1d 9c b7 03 5f 9b b8 2c c3 02 39
       -3.2566948e-06 -1.8610286e-05 -7.408673e-05 0.00012470473
0000a0 cf ed 4b 37 60 26 8f b8 e2 df a7 36 c8 65 ef 35
       1.2155112e-05 -6.825919e-05 5.0030512e-06 1.783651e-06
0000b0 28 e5 63 36 14 c0 60 b6 7c 9e 2b b8 4c d6 98 b8
       3.3959022e-06 -3.3490405e-06 -4.0917177e-05 -7.287841e-05
0000c0 dd 93 52 38 04 52 e6 b7 26 09 45 b6 0e 8e f4 b6
       5.020561e-05 -2.7456328e-05 -2.9360613e-06 -7.288304e-06
0000d0 4c a4 f2 37 57 03 c6 b7 a5 16 b6 b7 53 de 86 b7
       2.8925155e-05 -2.3604995e-05 -2.1706635e-05 -1.6077573e-05
0000e0 34 f1 d4 37 85 36 31 37 2a fe fb 37 3e 0b 5c b7
       2.5384688e-05 1.0562716e-05 3.0039886e-05 -1.3115639e-05
0000f0 ba d3 31 b7 92 54 1c 38 b1 b7 60 b7 5c 46 62 b7
       -1.0599319e-05 3.727206e-05 -1.3394209e-05 -1.34870315e-05
000100 d0 26 da b7 50 bf 83 37 36 6c 9e 38 05 4e 40 38
       -2.6005699e-05 1.5705504e-05 7.554183e-05 4.584903e-05
000110 6d 17 10 b7 6e 90 af b6 4b aa ca b6 e2 cb 85 b6
       -8.588523e-06 -5.2322202e-06 -6.039894e-06 -3.987444e-06
000120 f1 7a d9 b7 a6 80 22 b7 95 e2 5d b6 d9 2a b8 37
       -2.5925665e-05 -9.685906e-06 -3.3063454e-06 2.1954462e-05
000130 9d 26 ca 36 98 cb b8 b8 a6 47 0d 38 97 79 0b 37
       6.0245643e-06 -8.811726e-05 3.3683747e-05 8.3133555e-06
000140 4d 55 f8 b6 73 ee 9d b6 d2 66 2d b8 c9 e1 88 37
       -7.4009063e-06 -4.7067238e-06 -4.1342173e-05 1.6317603e-05
000150 e5 6e 71 b7 03 f0 3f 34 15 c9 62 b8 19 a6 6e b7
       -1.4390539e-05 1.7875577e-07 -5.406987e-05 -1.4224578e-05
000160 11 37 4d b6 ce 7c d4 b7 dd 5d d8 b6 c1 f3 a2 37
       -3.0579433e-06 -2.5330486e-05 -6.4482288e-06 1.9425412e-05
000170 2b 31 5e b8 e0 cd 1d 39 79 f0 84 b7 67 a3 35 b8
       -5.2974716e-05 0.00015049381 -1.5847605e-05 -4.3305943e-05
000180 44 e7 95 b8 45 9f 21 b8 0e 86 6c 38 e0 f4 a1 b7
       -7.14795e-05 -3.8533723e-05 5.6391633e-05 -1.9306724e-05
000190 63 c5 47 b8 63 fb 96 b7 e7 47 ac 36 a0 27 3a 37
       -4.7629128e-05 -1.7998454e-05 5.13437e-06 1.109569e-05
0001a0 87 bb d5 b7 8d ec 94 37 dd 95 cc b8 7b 4a f9 37
       -2.5478903e-05 1.7753127e-05 -9.755392e-05 2.9717796e-05
0001b0 87 7d 79 b7 ee 18 d1 b7 e2 a0 63 b7 69 7c 23 b8
       -1.4870783e-05 -2.492635e-05 -1.3567713e-05 -3.8978094e-05
0001c0 37 18 24 b7 20 ff 30 37 ca 8c 8f b8 85 a3 db b7
       -9.7808e-06 1.0549818e-05 -6.8449954e-05 -2.618298e-05
0001d0 38 24 38 b7 c4 f9 25 b8 c7 81 e1 37 d2 99 75 38
       -1.09756875e-05 -3.9571678e-05 2.6882522e-05 5.855581e-05
0001e0 d9 77 21 b7 99 63 a0 37 a3 3a e7 36 21 f1 50 b8
       -9.624252e-06 1.9119865e-05 6.8911627e-06 -4.9815633e-05
0001f0 fe 16 c5 37 ac 26 30 38 3d 1b 00 b6 7a c8 59 b5
       2.3494937e-05 4.1997686e-05 -1.908934e-06 -8.113053e-07

exp_avg_sq f4 [128]
000000 de 8b 84 32 bf 3d 03 33 cb 6a cd 32 44 bc 8c 32
       1.5430427e-08 3.0556972e-08 2.3913705e-08 1.6383758e-08
000010 27 d7 4e 33 12 f7 ad 32 1d 05 2e 33 44 9d c1 31
       4.8158793e-08 2.0252205e-08 4.0517182e-08 5.6349183e-09
000020 04 0c 10 32 e0 6d b8 31 55 35 ff 32 24 59 31 33
       8.384635e-09 5.367596e-09 2.971016e-08 4.1292097e-08
000030 99 b0 d9 30 29 27 11 33 25 f5 9d 32 27 07 7d 33
       1.583902e-09 3.379606e-08 1.8388684e-08 5.8912658e-08
000040 38 3a 8c 31 ad f6 c6 32 d0 05 51 31 32 a4 cb 32
       4.081155e-09 2.3162409e-08 3.0416807e-09 2.3706978e-08
000050 b1 79 0e 31 e8 dd 21 33 ef ff a3 32 f2 cf a9 32
       2.0732893e-09 3.7687556e-08 1.9092083e-08 1.9768752e-08
000060 01 c5 d8 31 c8 bb 98 33 d2 a2 5e 33 c4 77 1f 33
       6.308824e-09 7.112209e-08 5.1836487e-08 3.7129e-08
000070 d4 e6 b5 31 71 bf 95 31 3c 7b d2 31 29 bd 4f 32
       5.2940354e-09 4.358235e-09 6.1258145e-09 1.2091996e-08
000080 cc bd 71 32 76 aa c1 31 f5 cf ce 32 03 80 b0 32
       1.4071201e-08 5.6364184e-09 2.4076124e-08 2.054731e-08
000090 bc 76 42 32 10 6d a6 32 e3 3c 72 33 bf 1c 21 33
       1.1319283e-08 1.937454e-08 5.6400392e-08 3.7511878e-08
0000a0 3a b4 ec 31 86 00 2d 33 22 f3 0f 32 e1 38 59 32
       6.8889934e-09 4.0280177e-08 8.3789775e-09 1.2643995e-08
0000b0 ea 17 1b 32 14 2a 40 32 d7 c1 53 32 80 cc b0 32
       9.027625e-09 1.1185438e-08 1.23258905e-08 2.0582092e-08
0000c0 88 07 44 33 04 a8 0d 32 29 9f 54 31 84 55 4c 32
       4.5641656e-08 8.2454825e-09 3.0940532e-09 1.1893807e-08
0000d0 93 ce aa 31 a4 e4 16 32 34 e1 4e 32 33 38 fc 32
       4.971136e-09 8.783136e-09 1.2041983e-08 2.9362218e-08
0000e0 76 0f bc 32 49 73 1d 32 30 cd be 32 29 d7 16 32
       2.1893111e-08 9.164816e-09 2.221222e-08 8.780071e-09
0000f0 45 a3 33 33 50 42 6d 32 28 a6 d2 31 45 51 a0 31
       4.1825178e-08 1.3810293e-08 6.130694e-09 4.665852e-09
000100 ff b0 44 32 0e 90 d4 33 c1 68 02 33 48 f5 29 32
       1.1448946e-08 9.898223e-08 3.0363257e-08 9.892865e-09
000110 3b ab 70 31 8c 6a f2 31 56 33 5e 32 80 d3 17 33
       3.502193e-09 7.05524e-09 1.2933773e-08 3.5349785e-08
000120 73 ee eb 31 cd 8b bd 31 a9 4a 2b 32 6f 3e d7 32
       6.8665087e-09 5.5165175e-09 9.970486e-09 2.5057686e-08
000130 0c 4e 13 33 39 1b c4 33 60 05 e5 32 ff 3b 7e 31
       3.4297088e-08 9.131913e-08 2.6661553e-08 3.6995969e-09
000140 95 8e 69 32 aa e1 60 31 8e 9b cc 32 14 e4 6e 33
       1.3594804e-08 3.2724565e-09 2.3819464e-08 5.562113e-08
000150 74 f3 ec 31 44 2c 80 33 11 08 e5 32 3e c0 84 31
       6.8961814e-09 5.968516e-08 2.6662777e-08 3.863561e-09
000160 db 27 01 33 eb 0e e0 31 cb 89 71 32 59 f8 cb 31
       3.00714e-08 6.520954e-09 1.4059377e-08 5.9363114e-09
000170 95 a4 44 32 fc 3c c3 33 60 c0 e1 32 cf bf 9c 32
       1.1446123e-08 9.091488e-08 2.628093e-08 1.8248015e-08
000180 8a 7b e5 32 2b a3 3f 33 41 ed 18 33 b3 a0 8f 32
       2.6715288e-08 4.4619053e-08 3.560604e-08 1.6720469e-08
000190 18 c2 87 33 39 29 57 32 af 25 ce 31 20 85 16 32
       6.321733e-08 1.252402e-08 5.999673e-09 8.761418e-09
0001a0 16 0e 1f 32 db 75 f2 32 3f 1e 0b 33 6f 68 50 32
       9.258221e-09 2.8226102e-08 3.2390968e-08 1.2130939e-08
0001b0 20 41 6b 32 9c 12 84 31 08 c6 91 31 7e 3d 9c 32
       1.3693608e-08 3.8438213e-09 4.242569e-09 1.8188754e-08
0001c0 eb ab 53 31 89 18 d9 31 e8 19 db 31 d3 19 de 31
       3.0802265e-09 6.3183205e-09 6.376684e-09 6.4639862e-09
0001d0 05 2e af 31 0e 8d 07 33 50 39 b4 32 33 31 06 33
       5.098402e-09 3.1560425e-08 2.098082e-08 3.1244053e-08
0001e0 78 4f 01 32 ea 87 d9 31 15 02 ea 31 6f 6c af 33
       7.526857e-09 6.330983e-09 6.810533e-09 8.1687965e-08
0001f0 96 5d 91 31 6d 4d 32 32 e8 99 33 31 14 cb ec 31
       4.230695e-09 1.0378568e-08 2.6135414e-09 6.8915913e-09
