results/Test1/BalanceBall1/checkpoint.pt (torch, 884322 bytes, 33 tensors)

network_body._body_endoder.seq_layers.0.weight f4 [128, 150]
-0.17982343 0.11544897 0.10307785 0.18623401 0.10318269 -0.10293879 -0.025853334 -0.030268164
-0.07659056 0.008977369 -0.052016437 -0.03458021 -0.05728185 0.19681211 0.02447348 0.051912323
0.077806056 -0.024051605 0.019345807 -0.024552856 0.0072919303 0.16457994 0.10469108 -0.0026899378
-0.12243009 0.04833926 -0.10570712 -0.043957677 0.015982686 0.00018634822 -0.15143587 0.15559092
-0.012477635 0.07233269 0.17518683 -0.02793817 0.0023388884 -0.04822981 0.0061451527 0.026838612
-0.0068201427 -0.018594941 0.010011189 0.11157416 0.100755796 0.021954056 -0.008103596 0.1594481
0.00034725195 0.036392152 0.0030485613 0.05929775 -0.087151915 -0.20672093 0.021572828 -0.15701164
-0.14193259 -0.029783916 0.001857053 0.12145861 0.09646941 -0.09452741 0.021731136 0.13554682
0.23775356 -0.06623019 0.01583011 -0.07193066 -0.053141568 0.02350354 -0.09876642 0.04567698
-0.030424364 0.00851098 0.0075518517 0.07670436 0.056761608 -0.03469579 -0.0076171565 -0.061530054
-0.02418381 -0.042704374 0.011720155 -0.18054791 0.08153056 -0.08158046 -0.067787215 0.031697895
-0.06864388 0.043018326 -0.062387235 -0.025889998 -0.013970014 -0.121687576 -0.09752151 -0.046667285
0.06467143 -0.008738172 -0.079361364 0.07864803 -0.071185835 -0.020965686 0.04453237 -0.0073449602
-0.04953731 0.15658395 -0.100878276 -0.027479257 0.10686417 -0.042872034 -0.020255994 -0.082123876
0.042044777 -0.051584452 0.119485125 -0.06601333 0.013474999 -0.00084967696 0.032160185 -0.0042992923
0.13368008 -0.07829761 0.09309642 0.07172266 0.14139761 -0.17884749 -0.011388972 0.0023385643
0.02436601 -0.068680346 -0.031290535 -0.005942658 0.009392619 0.17087743 -0.095879704 0.20218046
-0.11452072 -0.017052561 -0.12635039 -0.008188887 -0.050584048 -0.008028407 -0.088094056 -0.12442201
0.024923388 0.17106465 0.079896495 -0.0133367395 -0.021133069 -0.10201123 0.11922688 0.10267408
-0.12288863 -0.03602107 -0.12501857 -0.06429019 0.071030945 -0.061744664 0.0055100503 0.069580555
0.0051726936 -0.052238394 -0.13703963 -0.0737878 -0.12035439 0.07468031 0.063694835 0.03561151
-0.0077515948 -0.09686945 -0.047246907 -0.03766063 -0.06411677 -0.012385696 -0.055147517 0.009760374
-0.031624272 -0.098130144 0.09529497 0.030726695 -0.0584664 -0.05592464 -0.13191442 0.08204593
-0.018949714 -0.102427 -0.053325046 0.07741876 0.045322325 0.14812927 -0.103310615 0.07338802
-0.009390743 -0.009677404 -0.035048526 -0.002413923 0.027988784 0.07356712 0.0056899576 -0.05117098
0.15241148 0.011008949 -0.0066077877 -0.24126466 0.06686865 0.04814102 0.0043696645 0.04770966
-0.006094728 -0.12918372 0.04018355 -0.10317618 0.14904308 0.16965392 -0.0036604947 -0.027855352
-0.11336643 0.06250069 0.042275026 -0.07424435 0.0072486373 -0.019671058 0.01958023 -0.045769684
0.034528464 0.061865833 -0.07073824 0.01157965 0.09518716 -0.012558954 0.014562297 -0.025112687
0.07060506 -0.06210511 0.17655778 -0.029112542 -0.07555481 0.1656025 0.015442275 0.007066555
-0.15847246 0.016379654 -0.07654413 0.035923902 0.09013975 0.013217472 -0.059427347 0.040869784
0.040359374 0.07953538 -0.10673283 0.027792128 0.10030395 -0.035578426 0.019230459 -0.040737916
00000000: a223 38be 8270 ec3d 7b1a d33d 21b4 3e3e
00000010: 7251 d33d 93d1 d2bd 5fca d3bc f1f4 f7bc
00000020: 83db 9cbd d115 133c 300f 55bd faa3 0dbd
00000030: 60a0 6abd 1d89 493e 9c7c c83c 04a2 543d
00000040: c858 9f3d df07 c5bc 197b 9e3c 1223 c9bc
00000050: 25f1 ee3b a587 283e 4768 d63d ab49 30bb
00000060: a1bc fabd 63ff 453d f97c d8bd f70c 34bd
00000070: 1fee 823c 7866 4339 0112 1bbe 3a53 1f3e
00000080: ff6e 4cbc 2923 943d 2d64 333e 97de e4bc
00000090: 0948 193b 9f8c 45bd 475d c93b a6dc db3c
000000a0: 817b dfbb 6b54 98bc f805 243c fe80 e43d
000000b0: 0e59 ce3d fed8 b33c f2c4 04bc 5d46 233e
000000c0: 5e0f b639 f00f 153d 5fca 473b 33e2 723d
000000d0: b47c b2bd a7ae 53be 80b9 b03c a9c7 20be
000000e0: c756 11be 66fd f3bc 5c68 f33a 4bbf f83d
000000f0: c191 c53d 9697 c1bd 7f05 b23c c9cc 0a3e
00000100: ab75 733e b2a3 87bd 26ae 813c 6250 93bd
00000110: f9aa 59bd 7f8a c03c 0c46 cabd c917 3b3d
00000120: 843c f9bc a371 0b3c 8675 f73b 2d17 9d3d
00000130: dc7e 683d 2c1d 0ebd 5799 f9bb f006 7cbd
00000140: 201d c6bc c8ea 2ebd e505 403c 8de1 38be
00000150: 7ff9 a63d a813 a7bd 06d4 8abd a7d5 013d
00000160: 2a95 8cbd fc33 303d c289 7fbd 4317 d4bc
00000170: 7ce2 64bc 5637 f9bd 5cb9 c7bd 3226 3fbd
00000180: 7472 843d 8d2a 0fbc 3688 a2bd 3812 a13d
00000190: e1c9 91bd 3bc0 abbc 9367 363d fead f0bb
000001a0: a2e7 4abd 8b57 203e 4599 cebd 2e1c e1bc
000001b0: 9adb da3d 969a 2fbd e6ef a5bc 9030 a8bd
000001c0: 2537 2c3d 384a 53bd 9eb4 f43d ff31 87bd
000001d0: 3ec6 5c3c dbbc 5eba 66ba 033d 14e1 8cbb
000001e0: 6ee3 083e 7f5a a0bd 56a9 be3d 54e3 923d
000001f0: 89ca 103e cc23 37be d098 3abc 9942 193b
00000200: 3a9b c73c 48a8 8cbd 812a 00bd a1ba c2bb
00000210: 80e3 193c 7efa 2e3e 945c c4bd 6508 4f3e
00000220: d789 eabd d0b1 8bbc ff61 01be ae2a 06bc
00000230: 3831 4fbd 9489 03bc a86a b4bd f7d0 febd
00000240: 222c cc3c 922b 2f3e c6a0 a33d 5782 5abc
00000250: 421f adbc 44eb d0bd 392d f43d ca46 d23d
00000260: 09ad fbbd d48a 13bd de04 00be 93aa 83bd
00000270: ac78 913d f9e7 7cbd a78d b43b 4080 8e3d
00000280: b37f a93b edf7 55bd 1e54 0cbe 0f1e 97bd
00000290: 5d7c f6bd fef1 983d 7072 823d 60dd 113d
000002a0: 1701 febb 7d63 c6bd f985 41bd 0842 1abd
000002b0: a74f 83bd 60ed 4abc 5de2 61bd fae9 1f3c
000002c0: 7488 01bd 75f8 c8bd 022a c33d 8db6 fb3c
000002d0: 777a 6fbd 3c11 65bd 9314 07be b207 a83d
000002e0: 6e3c 9bbc 3fc5 d1bd 5d6b 5abd ba8d 9e3d
000002f0: e7a3 393d 33af 173e 8494 d3bd 754c 963d
00000300: a2db 19bc f98d 1ebc 0b8f 0fbd e832 1ebb
00000310: bc48 e53c 5caa 963d d372 ba3b a998 51bd
00000320: c111 1c3e e15e 343c 2486 d8bb 150e 77be
00000330: 6ef2 883d 852f 453d 672f 8f3b 346b 433d
00000340: 49b6 c7bb bd48 04be 8297 243d 084e d3bd
00000350: c09e 183e c2b9 2d3e e9e4 6fbb e830 e4bc
00000360: a92c e8bd 5d00 803d 9428 2d3d 6c0d 98bd
00000370: fa85 ed3b 3325 a1bc b866 a03c fe78 3bbd
00000380: b86d 0d3d 0767 7d3d 36df 90bd 93b8 3d3c
00000390: 7cf1 c23d 12c4 4dbc b396 6e3c 1fb9 cdbc
000003a0: 6399 903d ee61 7ebd 90cb 343e 6d7d eebc
000003b0: 7bbc 9abd b493 293e 9901 7d3c 8f8e e73b
000003c0: 9b46 22be a02e 863c 2bc3 9cbd f124 133d
000003d0: 309b b83d 188e 583c 176a 73bd 1367 273d
000003e0: df4f 253d 72e3 a23d be96 dabd 51ac e33c
000003f0: 286c cd3d afba 11bd 3289 9d3c cddc 26bd

network_body._body_endoder.seq_layers.0.bias f4 [128]
0.0076595084 0.0006190196 0.010153377 -0.01962374 0.034568246 0.0094256895 0.015335684 -0.011828459
-0.005791254 0.018171553 0.029001793 -0.009834508 -0.014859018 0.011799891 0.0021364267 0.017749058
-0.012784337 0.005598473 0.01656849 0.009408362 0.00932773 -0.015277839 0.005549204 -0.0025435218
-0.011424938 0.010958728 0.01060955 -0.004318605 0.01683807 -0.0016080802 0.0070592943 0.0041408036
-0.017143361 -0.005869088 0.02657565 -0.00014701889 0.0046299705 0.012172615 0.02623212 0.0064933156
-0.013825132 0.028876048 -0.013099081 0.0074042743 0.0039604306 0.001358324 0.0005854309 0.0053082914
0.026487054 -0.0031302813 -0.004990637 -0.010343446 0.009359738 0.010899434 0.00011313383 0.036856394
-0.02150999 -0.009957756 0.024417037 -0.00375817 0.0066623054 -0.017126994 -0.017355137 -0.005846481
0.014427219 0.017122637 -0.004906687 0.017282847 -0.008526674 0.010538072 -0.007900163 0.013083232
0.015980907 -0.0070867883 0.0018495818 0.006077935 0.010003067 0.037192613 -0.0072125955 0.00253818
-0.008554239 -0.02108597 -0.00883875 0.032789316 -0.009028217 -0.007907491 0.014577237 0.0013125262
0.017821983 0.014241906 0.0011749282 -0.008269842 -0.026816199 -0.0114541175 -0.007370107 -0.0014702986
0.012241364 0.012683678 0.00052796537 -0.015907202 0.004429243 0.012232635 0.0014513719 -0.013432624
0.0027508691 0.0055859555 0.037516642 0.015692467 -0.0010592621 -0.011839918 -0.020265836 0.011771976
-0.0028829947 -0.0033709772 0.008053544 -0.00014738034 0.017785424 0.013771611 0.022062391 0.013780897
0.01837594 -0.0035544168 -0.017296936 0.012342591 0.02267325 0.029832006 -0.020788392 0.02642892
00000000: 9dfc fa3b b445 223a 5a5a 263c f7c1 a0bc
00000010: 6f97 0d3d 356e 1a3c 8542 7b3c 27cc 41bc
00000020: 8fc4 bdbb 82dc 943c 2b95 ed3c eb20 21bc
00000030: 3d73 73bc 5454 413c 4b03 0c3b 7966 913c
00000040: 6575 51bc 6573 b73b a4ba 873c 8825 1a3c
00000050: 56d3 183c e74f 7abc 19d6 b53b 37b1 26bb
00000060: aa2f 3bbc 3d8c 333c aed3 2d3c 1683 8dbb
00000070: feef 893c 38c6 d2ba a751 e73b 94af 873b
00000080: 3c70 8cbc 7b51 c0bb 2db5 d93c 1529 1ab9
00000090: 02b7 973b a66f 473c bee4 d63c e1c5 d43b
000000a0: ce82 62bc 768d ec3c 879d 56bc 8e9f f23b
000000b0: 80c6 813b ca09 b23a 9a77 193a 2df1 ad3b
000000c0: 61fb d83c 6825 4dbb 7f88 a3bb 8f77 29bc
000000d0: 9659 193c 8a93 323c 4342 ed38 bbf6 163d
000000e0: b835 b0bc db25 23bc 3d06 c83c a14b 76bb
000000f0: 784f da3b e94d 8cbc 5c2c 8ebc d693 bfbb
00000100: 2460 6c3c c644 8c3c 46c8 a0bb c294 8d3c
00000110: 76b3 0bbc e1a7 2c3c af6f 01bc 0d5b 563c
00000120: 64ea 823c 4a38 e8bb ab6d f23a 6a29 c73b
00000130: e7e3 233c 4857 183d a357 ecbb 9857 263b
00000140: 1427 0cbc 7cbc acbc 68d0 10bc 174e 063d
00000150: 16eb 13bc 6c8e 01bc 5dd5 6e3c 1209 ac3a
00000160: 68ff 913c e256 693c 0c00 9a3a 3b7e 07bc
00000170: a5ad dbbc 0daa 3bbc f080 f1bb 09b7 c0ba
00000180: 0190 483c 34cf 4f3c 2867 0a3a d24f 82bc
00000190: 2f23 913b 646b 483c f63b be3a 8214 5cbc
000001a0: ed47 343b 640a b73b 0dab 193d 7d8d 803c
000001b0: f0d6 8aba 37fc 41bc 8a04 a6bc 3fdf 403c
000001c0: a0f0 3cbb 9deb 5cbb 03f3 033c 1c8a 1ab9
000001d0: bdb2 913c 53a2 613c 30bc b43c 45c9 613c
000001e0: 2489 963c 38f1 68bb 4eb2 8dbc 9438 4a3c
000001f0: 40bd b93c 4062 f43c 6b4c aabc 7681 d83c

network_body._body_endoder.seq_layers.2.weight f4 [128, 128]
0.016403176 -0.06066148 0.013158829 0.03871321 -0.05996759 -0.019431802 -0.011730639 -0.10681403
-0.12142423 -0.08482353 0.075984694 0.044973984 0.0305327 -0.015986579 -0.067193046 -0.15694839
-0.009159702 0.059765697 -0.040805507 0.022312617 0.12020601 0.114296064 -0.079764076 -0.04923556
0.020649293 -0.11938556 0.013289269 0.11578296 -0.014861265 0.06714711 -0.078131266 -0.057848215
0.16148229 0.018874798 0.044102497 0.049863085 0.030389031 0.043662313 -0.05717115 0.060446527
0.050398733 0.00084657315 0.13641293 -0.09720561 -0.123390794 0.020782558 0.17797337 -0.0016234408
-0.0071961842 0.034743715 0.046165615 -0.040252347 0.03821504 0.09516141 0.07128628 -0.097577296
0.04807782 -0.010548892 -0.06980401 0.119146354 0.054621276 0.1379907 -0.109465845 -0.015737344
0.045861334 0.020113619 0.043558516 0.07087856 0.0907049 0.0134879295 0.006141835 -0.045454606
0.0048167105 0.06957449 0.14921051 -0.12972294 -0.10879592 -0.0979434 -0.0378016 0.0019621567
-0.01529527 0.0054384167 0.0155350845 0.15758377 -0.0163503 0.17142238 0.082716785 0.0959377
0.03288879 0.015459786 0.010073224 0.05840524 -0.023532107 0.04849382 0.022768162 -0.08117225
-0.031765103 -0.042211056 0.09313252 0.1299442 0.08258971 0.067960575 -0.10438396 -0.07561111
-0.07630489 -0.013427082 0.041933905 -0.08611082 -0.069668435 -0.048474174 0.09835833 0.08450173
-0.08391689 -0.072685495 0.04139354 0.08778192 -0.098423354 -0.01714204 0.012936154 -0.12291943
0.21666461 0.03956833 -0.21069364 0.0688574 -0.10402946 -0.17606908 -0.12639575 0.028222956
-0.029348658 0.09490933 0.0051399916 -0.035560105 0.09450668 -0.020508168 -0.010340097 0.062156815
0.027892023 -0.10788159 0.0018293197 -0.08507817 0.0070855473 0.18604486 -0.042715944 0.104694955
0.04638943 -0.08892453 0.023252402 -0.010807666 -0.19535664 0.009581438 -0.04840425 0.10650701
0.22414649 -0.04632466 0.056801513 0.10509927 0.026659437 0.0014030348 0.057635013 0.075416006
0.09719244 -0.0781561 -0.12084135 -0.05061421 -0.021274792 0.01945405 0.021098847 -0.03799132
-0.035115097 -0.02153355 0.16624643 0.026171595 0.15000455 -0.010162393 0.018150128 0.31207955
0.06862376 0.112042665 -0.1460653 -0.043110676 -0.07932588 0.045675717 0.19046286 -0.08086743
-0.021129763 -0.14203425 0.052934825 -0.029430423 -0.040986314 0.011166714 -0.07201735 0.14597303
0.121120505 -0.0014854609 0.04477217 -0.075586475 0.03904159 -0.062855214 0.009076929 0.01242321
0.0374299 -0.10763021 0.14651977 0.07382294 -0.00511952 0.03853272 -0.05207193 0.032731466
-0.09885997 0.07616676 0.027108828 0.048967276 -0.100398496 -0.14104597 -0.029273644 -0.14632897
-0.10820853 -0.006592232 0.04160529 -0.09995996 -0.098161764 -0.06330874 -0.0043202504 -0.1761263
-0.17905332 -0.16775241 0.11333996 0.07346435 -0.009368307 0.106342584 0.08256436 -0.115425594
0.016437642 -0.026662208 0.10877937 -0.026329616 0.089430414 0.05258061 0.03125052 -0.18168554
-0.07972409 0.11076112 0.04293878 0.016781596 0.0136512 0.08457966 0.023131259 -0.03308152
-0.11053279 0.063105956 -0.092219636 -0.0018245814 -0.10999423 -0.076978624 -0.034889247 -0.09457673
00000000: f45f 863c 2c78 78bd 2198 573c be91 1e3d
00000010: 93a0 75bd 712f 9fbc de31 40bc 50c1 dabd
00000020: 44ad f8bd f5b7 adbd dd9d 9b3d a436 383d
00000030: b61f fa3c 49f6 82bc 829c 89bd 14b7 20be
00000040: 9312 16bc e0cc 743d ad23 27bd f3c8 b63c
00000050: 922e f63d 0e14 ea3d 595b a3bd 3aab 49bd
00000060: b528 a93c 6b80 f4bd 3cbb 593c 9e1f ed3d
00000070: aa7c 73bc 6d84 893d 4903 a0bd 40f2 6cbd
00000080: 9d5b 253e 529f 9a3c d2a4 343d 3c3d 4c3d
00000090: 6bf2 f83c 41d7 323d 4c2c 6abd c796 773d
000000a0: e76e 4e3d 90ec 5d3a d5af 0b3e bc13 c7bd
000000b0: 50b4 fcbd 2f40 aa3c a73e 363e a2c9 d4ba
000000c0: f8cd ebbb 6d4f 0e3d 2818 3d3d a5df 24bd
000000d0: 6087 1c3d fce3 c23d 8bfe 913d 9bd6 c7bd
000000e0: 40ed 443d 43d5 2cbc 68f5 8ebd 0103 f43d
000000f0: 8fba 5f3d 6f4d 0d3e a12f e0bd 9aeb 80bc
00000100: 18d9 3b3d 51c5 a43c 6a6a 323d c728 913d
00000110: 7ec3 b93d 7afc 5c3c 7241 c93b 9c2e 3abd
00000120: 7fd5 9d3b 127d 8e3d a4ca 183e 17d6 04be
00000130: 65d0 debd 8d96 c8bd dad5 1abd 8797 003b
00000140: 0399 7abc bf34 b23b de86 7e3c a45d 213e
00000150: 10f1 85bc 5989 2f3e 6b67 a93d fc7a c43d
00000160: 65b6 063d 0b4b 7d3c 2a0a 253c 553a 6f3d
00000170: 68c6 c0bc 75a1 463d 4c84 ba3c a33d a6bd
00000180: 201c 02bd 80e5 2cbd 43bc be3d 1810 053e
00000190: cb24 a93d ea2e 8b3d 42c7 d5bd ffd9 9abd
000001a0: bd45 9cbd 44fd 5bbc e3c2 2b3d df5a b0bd
000001b0: 53ae 8ebd db8c 46bd 1870 c93d 3e0f ad3d
000001c0: 9edc abbd 22dc 94bd 468c 293d 02c7 b33d
000001d0: 2f92 c9bd 776d 8cbc 2af2 533c 2fbd fbbd
000001e0: 54dd 5d3e 6712 223d 13c0 57be 1c05 8d3d
000001f0: 660d d5bd 744b 34be e36d 01be d433 e73c
00000200: 996c f0bc d35f c23d 606d a83b 79a7 11bd
00000210: b88c c13d bf00 a8bc 8369 29bc 2598 7e3d
00000220: d07d e43c 06f1 dcbd c9c5 ef3a 773d aebd
00000230: e12d e83b 8b82 3e3e eaf6 2ebd 4f6a d63d
00000240: d802 3e3d 101e b6bd d27b be3c a312 31bc
00000250: 920b 48be 77fb 1c3c 8943 46bd 5920 da3d
00000260: a886 653e edbe 3dbd b4a8 683d 493e d73d
00000270: e464 da3c 09e6 b73a b112 6c3d b573 9a3d
00000280: d40c c73d 4e10 a0bd ab7b f7bd d950 4fbd
00000290: 7948 aebc 1a5e 9f3c 7dd7 ac3c c99c 1bbd
000002a0: d9d4 0fbd 2167 b0bc 813c 2a3e d065 d63c
000002b0: cb9a 193e 2a80 26bc 94af 943c e4c8 9f3e
000002c0: 9d8a 8c3d a076 e53d 2492 15be d294 30bd
000002d0: 9b75 a2bd 7616 3b3d b208 433e d39d a5bd
000002e0: 5318 adbc 6d71 11be 30d2 583d 1218 f1bc
000002f0: 44e1 27bd 98f4 363c d57d 93bd f479 153e
00000300: 070e f83d ccb3 c2ba 0663 373d 15cd 9abd
00000310: 13ea 1f3d 3cba 80bd 66b7 143c b88a 4b3c
00000320: 1850 193d 3a6d dcbd 4709 163e 7b30 973d
00000330: a5c1 a7bb 7cd4 1d3d 6049 55bd 6e11 063d
00000340: 1977 cabd 51fd 9b3d 5513 de3c e991 483d
00000350: ba9d cdbd 5b6e 10be 48cf efbc 43d7 15be
00000360: 6f9c ddbd a603 d8bb 4f6a 2a3d cfb7 ccbd
00000370: 0909 c9bd 03a8 81bd e390 8dbb 745a 34be
00000380: c159 37be 4ac7 2bbe c81e e83d 7a74 963d
00000390: 877d 19bc 24ca d93d 8117 a93d 4164 ecbd
000003a0: 3ca8 863c b46a dabc b8c7 de3d 35b1 d7bc
000003b0: 4b27 b73d c45e 573d 8c00 003d c60b 3abe
000003c0: 6246 a3bd bad6 e23d 93e0 2f3d 8f79 893c
000003d0: 48a9 5f3c 1a38 ad3d c47d bd3c 7d80 07bd
000003e0: 045f e2bd b23d 813d a6dd bcbd cb26 efba
000003f0: a844 e1bd f8a6 9dbd 07e8 0ebd 72b1 c1bd

network_body._body_endoder.seq_layers.2.bias f4 [128]
-0.008794847 0.01347046 -0.0066849915 0.0045118276 0.0051654438 -0.0066980114 -0.021807024 -0.0157309
-0.015928676 -0.0125706615 0.009049457 -0.0018150072 -0.00516386 0.00051236554 -0.003840832 -0.015902467
-0.014535135 -0.004967694 0.009303278 0.0079815425 0.020072289 0.005033938 0.0050959066 0.019628454
0.00017967034 0.0028844113 0.01912592 0.010324027 -0.027266575 0.027613133 0.008327266 -0.01097414
-0.0012467565 0.014378027 0.005328003 0.0058354456 0.029209837 0.03094653 0.001706777 0.0037533324
-0.008020139 0.016196458 0.009153597 0.0075483103 0.006458543 -0.00030358694 0.00095575466 0.002300216
0.025455343 0.009527922 0.02256017 0.025134847 -0.0015024679 0.022636726 -0.0102314595 -0.0024296353
-0.0061645256 -0.011418438 -0.011130227 0.00885407 -0.006079709 0.0072274785 0.0043703015 0.014935459
-0.027529456 0.0014799549 -0.0146977855 -0.013167384 0.012053987 0.009078307 -0.011841972 0.002214335
0.02431062 0.03025848 0.01681686 0.010469443 0.01119631 -0.017554887 0.016852219 0.017679766
0.0033990315 -0.0073099895 0.018236585 -0.01733163 0.0026833566 0.046839725 -0.0044106483 -0.010292428
0.010498936 0.011124583 0.0014968633 0.0053321086 -0.017520674 0.011567438 -0.0039070407 -0.0014657964
0.0056427075 0.02368224 0.0010262141 0.014210991 0.022201326 0.014520955 0.018077286 -0.009773795
-0.004246729 -0.008601398 -0.010108087 0.0228934 0.009688851 -0.012049702 0.015819423 0.0026008124
0.013126953 -0.0063339397 -0.006565914 -0.0043335296 0.011202017 -0.02201189 0.0037684594 -0.014903706
-0.0050530373 0.010564865 -0.0052844924 -0.003754289 0.025650674 -0.007916334 0.005133124 0.006735475
00000000: 4318 10bc 34b3 5c3c c60d dbbb f4d7 933b
00000010: e242 a93b fe7a dbbb a5a4 b2bc 17de 80bc
00000020: db7c 82bc 2df5 4dbc 2c44 143c 89e5 edba
00000030: 9935 a9bb 4550 063a 78b6 7bbb e445 82bc
00000040: c624 6ebc 0ac8 a2bb c76c 183c 04c5 023c
00000050: a46e a43c bcf3 a43b 90fb a63b dacb a03c
00000060: e465 3c39 6408 3d3b f6ad 9c3c 1c26 293c
00000070: 275e dfbc f034 e23c 166f 083c e1cc 33bc
00000080: 356a a3ba d191 6b3c 8796 ae3b 4437 bf3b
00000090: 7849 ef3c 9483 fd3c efb5 df3a 78fa 753b
000000a0: e766 03bc 6fae 843c f8f8 153c d157 f73b
000000b0: 2fa2 d33b c02a 9fb9 9c8b 7a3a 38bf 163b
000000c0: b987 d03c 001b 1c3c 1bd0 b83c 98e7 cd3c
000000d0: 75ee c4ba a870 b93c daa1 27bc 843a 1fbb
000000e0: caff c9bb 6614 3bbc 8e5b 36bc a910 113c
000000f0: 4c38 c7bb 7cd4 ec3b bf34 8f3b dbb3 743c
00000100: 7485 e1bc 0cfb c13a fbce 70bc 03bc 57bc
00000110: 167e 453c 2ebd 143c d504 42bc 601e 113b
00000120: 1127 c73c a2e0 f73c 83c3 893c 0788 2b3c
00000130: ba70 373c 44cf 8fbc aa0d 8a3c 28d5 903c
00000140: 49c2 5e3b a388 efbb e464 953c 10fb 8dbc
00000150: 41db 2f3b 03db 3f3d 3387 90bb 92a1 28bc
00000160: bb03 2c3c e243 363c 6632 c43a f8b8 ae3b
00000170: 8487 8fbc 5a85 3d3c a206 80bb f71f c0ba
00000180: 76e6 b83b 4201 c23c 0882 863a 37d5 683c
00000190: 8edf b53c 4de9 6d3c d116 943c 4422 20bc
000001a0: 2528 8bbb e1ec 0cbc 649c 25bc f18a bb3c
000001b0: fdbd 1e3c 1d6c 45bc bc97 813c 6472 2a3b
000001c0: 6e12 573c f08c cfbb e126 d7bb 4800 8ebb
000001d0: aa88 373c 4752 b4bc 42f8 763b ac2e 74bc
000001e0: f393 a5bb 4118 2d3c 8929 adbb 840a 76bb
000001f0: 5d21 d23c 83b3 01bc c433 a83b 42b5 dc3b

action_model._discrete_distribution.branches.0.weight f4 [3, 128]
-0.011958583 -0.015558925 -0.005654753 -0.003594794 0.0072728777 -0.001459185 0.0019737536 0.004930293
0.00095323165 0.0102484105 -0.019650584 0.005766196 3.3972156e-05 0.0053603603 0.00095846516 0.0014518072
-0.0013586427 -0.0010817698 -0.013007326 -0.0143394545 -0.0067917663 0.0027690646 -0.005600971 0.0545351
-0.006390438 0.015409972 0.025249878 -0.01131254 0.026487185 -0.01485108 -0.0056673368 0.015097479
0.0073237405 0.031774227 0.02223909 -0.01372594 -0.012678737 -0.030222172 0.01237023 -0.0024375836
0.020171372 -0.017294362 0.019400729 0.017508432 -0.004109821 0.020940797 0.008665843 0.017805014
-0.026484001 -0.0012707071 -0.012003049 -0.021487664 0.008509964 -0.011256382 0.012871696 0.009547455
0.003889149 -0.008610839 -0.00011691534 -0.0055740704 0.010385285 -0.006662132 0.015878063 -0.030955642
0.0056936406 0.0010467784 -0.0100999465 0.025497695 0.00886527 0.012545254 0.002281347 0.008377064
-0.018863987 -0.023642661 -0.004644793 -0.007025668 -0.014915548 0.014162568 0.031470273 -0.022457957
0.0062573724 -0.0071864245 0.029178234 0.011808613 0.018474266 -0.032131527 -0.0043225964 -0.00290284
0.0023265535 -0.0034966506 0.023619672 0.017571019 -0.0054277093 -0.03810524 0.0031240648 -0.0063073966
0.013305535 0.028400451 -0.0013015819 -0.016179672 -0.01909652 -0.018014494 -0.00029361167 0.0051309494
0.0010962705 0.010820241 -0.0058423504 -0.009180457 0.01580196 0.0017130126 -0.014392163 -0.0016391973
0.0024670304 0.016085656 0.0031467548 0.021277744 -0.00039153444 -0.0064735683 0.02364591 -0.010352714
0.0019052464 0.013221074 0.019134644 0.019100042 -0.011295278 0.004894435 -0.0066597895 -0.0060761026
0.013837914 -0.0079158535 0.035591442 0.02355835 -0.0049934145 0.0003297595 -0.013729917 0.011571538
0.0054589133 -0.004027154 0.0056323446 -0.01596985 -0.0073475135 -0.0038917987 0.0070685344 -0.00890347
0.0017937835 -0.0013606434 0.004274029 0.003924559 -0.009450017 -0.027512755 0.021703696 -0.007767839
0.0028093937 0.0049985424 0.0070306733 0.0005273208 -0.0017210015 -0.008426738 0.0117214685 0.00447297
0.00084085576 -0.0026790795 -0.0016646461 0.001755517 0.008322167 0.021654524 -0.021812584 0.0013542965
-0.019389894 -0.00023289982 -0.010482025 0.022753483 0.0064899153 -0.009619956 -0.025840037 -0.015619404
-0.008997906 -0.00420083 -0.012341291 -0.00839265 -0.006994311 -0.014355609 0.0036093006 0.01111499
0.009510889 0.0043592555 -0.0068087154 0.0063481857 -0.01728937 0.0071626473 0.0015981718 -0.017161515
0.017547512 -0.0068086176 -0.0116244275 0.011737871 0.010489248 -0.0046960055 0.008077116 0.008174025
-0.008429388 -0.0031078425 -0.0010905616 0.022397438 -0.009888175 0.0103915185 -0.006187363 6.18605e-05
-0.00800092 0.0069684056 -0.012674297 -0.0008555174 -0.027068581 0.00080473564 0.012675108 -0.0080024125
0.0006066695 0.004824198 0.02309455 -0.003192019 -0.0005835648 -0.025050256 0.019155804 -0.025064623
-0.010925132 -0.0034397068 -0.0022543161 0.0075438265 0.0051937536 -0.017469378 0.034433473 0.00376225
-0.00057490333 0.0020024094 0.015407173 -0.0030866473 -0.0026688548 -0.012351939 0.0015181032 -0.015939165
0.0048256028 -0.008511606 0.020628534 0.026232684 -0.016614228 -0.0032373308 -0.015449796 -0.0005009739
0.016084028 -0.009419356 -0.012525022 -0.029642412 0.0017730171 -0.012445922 -0.006267333 0.01597711
00000000: efed 43bc ddea 7ebc 824b b9bb a396 6bbb
00000010: 5251 ee3b 2042 bfba 175a 013b 4c8e a13b
00000020: 4be2 793a f3e8 273c 43fa a0bc 5cf2 bc3b
00000030: 537d 0e38 f6a5 af3b 8241 7b3a 914a be3a
00000040: 7c14 b2ba 2cca 8dba ae1c 55bc 08f0 6abc
00000050: 778d debb 3279 353b 5a88 b7bb 3260 5f3d
00000060: e166 d1bb 1b7a 7c3c d5d8 ce3c 3b58 39bc
00000070: a7fb d83c f251 73bc 11b5 b9bb 6b5b 773c
00000080: fdfb ef3b b125 023d c12e b63c c4e2 60bc
00000090: 7aba 4fbc 7d94 f7bc 81ac 4a3c debf 1fbb
000000a0: 6f3e a53c e8ac 8dbc 47ee 9e3c d86d 8f3c
000000b0: adab 86bb 098c ab3c 2efb 0d3c d2db 913c
000000c0: faf4 d8bc db8d a6ba 70a8 44bc e606 b0bc
000000d0: 606d 0b3c b06c 38bc cee3 523c ee6c 1c3c
000000e0: 18e1 7e3b 7a14 0dbc 7230 f5b8 b1a6 b6bb
000000f0: 0b27 2a3c 044e dabb b612 823c b096 fdbc
00000100: b891 ba3b 0e34 893a 3f7a 25bc 8be0 d03c
00000110: a33f 113c 9c8a 4d3c a782 153b f43f 093c
00000120: a688 9abc 41ae c1bc 5933 98bb 9337 e6bb
00000130: 5860 74bc 1e0a 683c f9e6 003d c0f9 b7bc
00000140: a50a cd3b 197c ebbb 3107 ef3c ea78 413c
00000150: 5857 973c 599c 03bd 91a4 8dbb 933d 3ebb
00000160: 1779 183b 1028 65bb 0b7e c13c 19f1 8f3c
00000170: edda b1bb 3d14 1cbd 1cbd 4c3b 47ae cebb
00000180: 75ff 593c 10a8 e83c d799 aaba 3b8b 84bc
00000190: 4e70 9cbc 2293 93bc e4ef 99b9 8621 a83b
000001a0: bcb0 8f3a 6147 313c 3071 bfbb a169 16bc
000001b0: 1d73 813c 2a87 e03a 1bcd 6bbc 56da d6ba
000001c0: e7ad 213b 11c6 833c c939 4e3b aa4e ae3c
000001d0: dd46 cdb9 3a20 d4bb 11b5 c13c 6e9e 29bc
000001e0: 76b9 f93a 349d 583c 42c0 9c3c b177 9c3c
000001f0: d40f 39bc 7f61 a03b 5d3a dabb 0b1a c7bb
00000200: 6bb8 623c 7fb1 01bc 55c8 113d 71fd c03c
00000210: cc9f a3bb 92e3 ac39 72f3 60bc 8c96 3d3c
00000220: afe0 b23b 37f6 83bb 888f b83b 34d3 82bc
00000230: 69c3 f0bb 8c0d 7fbb 2a9f e73b dcdf 11bc
00000240: 631d eb3a 9e57 b2ba 270d 8c3b 9699 803b
00000250: 3ed4 1abc 6e62 e1bc f3cb b13c 5b89 febb
00000260: ce1d 383b d0ca a33b 9061 e63b e63b 0a3a
00000270: 3a93 e1ba 4d10 0abc 670b 403c fe91 923b
00000280: e06c 5c3a 7f93 2fbb 4130 daba 6019 e63a
00000290: b359 083c d464 b13c 4eb0 b2bc a682 b13a
000002a0: 8ed7 9ebc 9236 74b9 cdbc 2bbc 8365 ba3c
000002b0: 5ba9 d43b 059d 1dbc 7cae d3bc 87e8 7fbc
000002c0: f46b 13bc 1ea7 89bb 2033 4abc 5381 09bc
000002d0: 8930 e5bb ca33 6bbc 048a 6c3b a61b 363c
000002e0: 8fd3 1b3c 16d8 8e3b a51b dfbb 7104 d03b
000002f0: 70a2 8dbc a4b4 ea3b bf79 d13a 4e96 8cbc
00000300: cdbf 8f3c d31a dfbb 6274 3ebc 3350 403c
00000310: 18db 2b3c f3e0 99bb e155 043c 59ec 053c
00000320: 6a1b 0abc f2ac 4bbb 2df1 8eba d57a b73c
00000330: 0302 22bc 3041 2a3c 5dbf cabb 1abb 8138
00000340: 4a16 03bc 3957 e43b dba7 4fbc cd44 60ba
00000350: eebe ddbc e5f4 523a 42ab 4f3c 8d1c 03bc
00000360: e708 1f3a 4e14 9e3b c830 bd3c 3131 51bb
00000370: 5ffa 18ba 3236 cdbc a2ec 9c3c 5354 cdbc
00000380: 53ff 32bc b46c 61bb 26bd 13bb 3432 f73b
00000390: 5d30 aa3b f11b 8fbc 1d0a 0d3d 1590 763b
000003a0: 1cb5 16ba db3a 033b 5e6e 7c3c 5949 4abb
000003b0: f4e7 2ebb ca5f 4abc 17fb c63a da92 82bc
000003c0: 1720 9e3b 4374 0bbc 2cfd a83c ede5 d63c
000003d0: 901a 88bc 6629 54bb 2421 7dbc ca53 03ba
000003e0: a7c2 833c a453 1abc c035 4dbc a5d4 f2bc
000003f0: 9564 e83a fbe9 4bbc 335e cdbb 6ee2 823c

action_model._discrete_distribution.branches.0.bias f4 [3]
-0.008771217 -0.0021930523 0.014396086
00000000: 27b5 0fbc 50b9 0fbb 90dd 6b3c

exp_avg f4 [128, 150]
0.0015121076 1.3723472e-05 -0.00024523344 -4.0218103e-05 -0.00011718089 0.0014982824 1.3914744e-05 -0.00021850897
-0.00016295 -0.00011718309 0.001462676 1.2999309e-05 -0.00041957735 -0.00034563433 -0.0001171826 0.001378482
1.13582455e-05 -0.0005466069 -0.00015966475 -0.00011718115 0.0013085426 9.289112e-06 -0.00086659484 -0.0002896913
-0.00011717507 0.0013278566 1.12896005e-05 -0.00058246247 -0.00015782019 -0.00011716756 0.0013073229 1.0645124e-05
-0.0005986959 -0.0005212675 -0.000117158765 0.001275901 8.48266e-06 -0.00074589177 -0.0005284808 -0.0001171546
0.0012095217 5.75714e-06 -0.00092356326 -0.0005853524 -0.00011715011 0.0011641607 3.9195133e-06 -0.0008957548
-0.0004148635 -0.0001171577 0.0011876274 3.4864543e-06 -0.00044177676 -5.4166205e-05 -0.00011717351 0.0012467293
4.180853e-06 -0.0004962897 -2.4801751e-05 -0.00011713295 0.0012445989 2.1533517e-06 -0.00068606687 -0.00023382154
-0.000117117 0.0012440246 2.0320986e-07 -0.00074757653 -0.00032306337 -0.00011710215 0.0012560223 -2.928041e-06
-0.00060836104 -0.00014556093 -0.00011710121 0.0012200876 -5.989651e-06 -0.0006945591 9.573417e-05 -0.000117098505
0.0011912623 -7.383888e-06 -0.00061333703 0.0003806083 -0.00011715916 0.0011643964 -7.506607e-06 -0.00030819452
0.000570049 -0.00011722401 0.0012162167 -3.9195556e-06 -0.00027018585 0.00036743918 -0.00011724051 0.0012590947
9.566423e-08 -0.0002844398 0.00017273996 -0.0001172589 0.001309529 1.5022348e-06 0.00030709233 -3.3228273e-05
-0.00011725111 0.0013637276 2.5705217e-06 0.00042459153 -0.00020059409 -0.00011729895 0.0014212433 2.4996357e-06
0.00044467306 -0.00042648564 -0.000117334865 0.0014811633 2.68656e-06 0.00016200921 -0.00023943732 -0.00011730402
0.001529007 3.380696e-08 0.00061915483 -0.0002586672 -0.00011725356 0.0016165925 -2.399727e-07 0.00071650284
-0.0001309218 -0.000117253025 0.0016550759 3.635713e-07 0.00033040557 -7.7526245e-05 -0.00011725959 0.001722742
3.226408e-06 0.00037721143 -0.00021212069 -0.00011726436 0.0017896119 4.953661e-06 0.00042908487 -8.548536e-06
-0.00011730338 0.0018289217 6.911472e-06 -0.00022240733 -0.000114797054 -0.00011730378 0.0017882695 -7.867995e-06
4.4364082e-05 -0.000106070554 -0.00012325407 0.0017559031 -8.328024e-06 5.903209e-05 -7.892825e-05 -0.00012325389
0.0017317537 -9.89089e-06 9.291283e-06 -0.00012001105 -0.00012325343 0.0016834377 -1.1616654e-05 0.000106321306
-1.5307876e-05 -0.00012316853 0.001620012 -1.3525507e-05 -1.7611139e-05 -0.000109350636 -0.00012316921 0.0016154889
-1.2920747e-05 3.427293e-05 0.00026635572 -0.00012316661 0.0015675621 -1.339921e-05 -5.8190326e-05 0.00016062382
-0.00012315261 0.0015526311 -1.3667259e-05 -0.0001353823 0.00022846909 -0.00012314088 0.0015078682 -1.4623294e-05
-0.00028495153 0.0001814478 -0.00012314184 0.0014649192 -1.5159783e-05 -0.0003770078 0.00040980495 -0.00012313691
0.001470285 -1.4262395e-05 -0.00021043207 0.00064564566 -0.00012315506 0.0015358313 -1.1549611e-05 -0.00043855692
0.00070769025 -0.00012315495 0.0015531348 -9.847525e-06 -0.0007114448 0.0004885377 -0.00012315363 0.0015509115
-8.795644e-06 -0.0007621765 0.00019829092 -0.00012313583 0.0015478963 -8.274118e-06 -0.0007763665 -5.5174014e-06
-0.00012312474 0.0015372407 -8.152422e-06 -0.00063659094 -1.5292622e-05 -0.00012311735 0.0015170788 -7.330587e-06
-0.0007189206 -7.681521e-06 -0.00012313269 0.0014879041 -6.570656e-06 -0.0005478305 4.877721e-05 -0.00012319333
0.0014943981 -4.5059905e-06 -0.0004125566 -0.0001495825 -0.00012319013 0.0015258116 -1.6386111e-06 -0.00014685432
-0.00029127108 -0.00012323092 0.001581316 4.659439e-07 0.00034688003 -0.00044081744 -0.00012318403 0.0016632979
00000000: e931 c63a dd3d 6637 ad92 80b9 dcaf 28b8
00000010: 03bf f5b8 0462 c43a 5f73 6937 8e1f 65b9
00000020: 8fdd 2ab9 31c0 f5b8 43b7 bf3a 9b17 5a37
00000030: b8fa dbb9 4136 b5b9 eebf f5b8 2eae b43a
00000040: 4b8f 3e37 2b4a 0fba ae6b 27b9 27bf f5b8
00000050: 6783 ab3a 6fd8 1b37 322c 63ba b5e1 97b9
00000060: e3bb f5b8 790b ae3a 7768 3d37 65b0 18ba
00000070: 897c 25b9 dbb7 f5b8 7a5a ab3a 7698 3237
00000080: cdf1 1cba aba5 08ba 22b3 f5b8 223c a73a
00000090: bf50 0e37 f387 43ba bf89 0aba e6b0 f5b8
000000a0: d088 9e3a 752d c136 481b 72ba 5672 19ba
000000b0: 7dae f5b8 c096 983a 5d84 8336 16d1 6aba
000000c0: 0982 d9b9 90b2 f5b8 2aaa 9b3a d4f8 6936
000000d0: 469e e7b9 8530 63b8 0dbb f5b8 4b69 a33a
000000e0: 4149 8c36 7019 02ba 5b0d d0b7 46a5 f5b8
000000f0: cf21 a33a 4d82 1036 2bd9 33ba fe2d 75b9
00000100: b69c f5b8 8a0e a33a e731 5a34 03f9 43ba
00000110: d560 a9b9 bd94 f5b8 1da1 a43a 5d7f 44b6
00000120: 6b7a 1fba b7a1 18b9 3c94 f5b8 59eb 9f3a
00000130: b6fa c8b6 1213 36ba e4c4 c838 c892 f5b8
00000140: 2124 9c3a 1dc3 f7b6 5ac8 20ba 628c c739
00000150: 58b3 f5b8 a99e 983a 43e1 fbb6 2b95 a1b9
00000160: 576f 153a 29d6 f5b8 7669 9f3a ba84 83b6
00000170: bba7 8db9 daa4 c039 05df f5b8 3508 a53a
00000180: f76f cd33 dd20 95b9 8821 3539 e5e8 f5b8
00000190: 80a4 ab3a 65a0 c935 3c01 a139 965e 0bb8
000001a0: b6e4 f5b8 1bbf b23a 3a81 2c36 b69b de39
000001b0: 9156 52b9 65fe f5b8 0349 ba3a 6abf 2736
000001c0: 0223 e939 ef99 dfb9 ad11 f6b8 9823 c23a
000001d0: c04a 3436 04e1 2939 7711 7bb9 1e01 f6b8
000001e0: f668 c83a 2533 1133 c74e 223a b99d 87b9
000001f0: 07e6 f5b8 d8e3 d33a 99d5 80b4 b1d3 3b3a
00000200: 0e48 09b9 bde5 f5b8 22ef d83a dc30 c334
00000210: 493a ad39 9695 a2b8 43e9 f5b8 a1cd e13a
00000220: 4485 5836 76c4 c539 b76c 5eb9 d3eb f5b8
00000230: 6991 ea3a a037 a636 ccf6 e039 af6b 0fb7
00000240: c600 f6b8 6eb8 ef3a 18e9 e736 0336 69b9
00000250: 33bf f0b8 fd00 f6b8 5e64 ea3a c800 04b7
00000260: 9213 3a38 3272 deb8 c33d 01b9 5526 e63a
00000270: 97b8 0bb7 3999 7738 4886 a5b8 b73d 01b9
00000280: 03fc e23a 0df1 25b7 c2e1 1b37 71ae fbb8
00000290: 973d 01b9 cca6 dc3a 26e5 42b7 d1f8 de38
000002a0: 6a69 80b7 cd26 01b9 9556 d43a 9ceb 62b7
000002b0: a2bb 93b7 2d53 e5b8 fc26 01b9 d0be d33a
000002c0: 30c6 58b7 47c0 0f38 a9a5 8b39 4926 01b9
000002d0: a876 cd3a 2bcd 60b7 6311 74b8 216d 2839
000002e0: 8722 01b9 a881 cb3a 6e4c 65b7 69f5 0db9
000002f0: 3491 6f39 611f 01b9 a9a3 c53a 9256 75b7
00000300: 8c65 95b9 0643 3e39 a31f 01b9 8802 c03a
00000310: c656 7eb7 21a9 c5b9 17db d639 501e 01b9
00000320: 94b6 c03a 8548 6fb7 6ea7 5cb9 8c40 293a
00000330: 2f23 01b9 f24d c93a 34c5 41b7 1dee e5b9
00000340: 4a84 393a 2823 01b9 8e92 cb3a cc36 25b7
00000350: 4180 3aba 3611 003a cd22 01b9 f447 cb3a
00000360: 0191 13b7 cdcc 47ba 50ec 4f39 061e 01b9
00000370: c8e2 ca3a 11d1 0ab7 1385 4bba 1e22 b9b6
00000380: 0c1b 01b9 3d7d c93a 63c6 08b7 e5e0 26ba
00000390: a848 80b7 1019 01b9 b8d8 c63a 43f9 f5b6
000003a0: f275 3cba e2df 00b7 2e1d 01b9 c705 c33a
000003b0: 8179 dcb6 489c 0fba 2196 4c38 752d 01b9
000003c0: aedf c33a 2a32 97b6 694c d8b9 3fd9 1cb9
000003d0: 992c 01b9 befd c73a 40ee dbb5 e8fc 19b9
000003e0: beb5 98b9 8c37 01b9 2944 cf3a d826 fa34
000003f0: 73dd b539 841d e7b9 f62a 01b9 0403 da3a

exp_avg_sq f4 [128, 150]
5.6174713e-06 1.4291738e-09 3.514003e-07 3.7088796e-07 2.6125475e-08 5.5953396e-06 1.4230604e-09 3.921877e-07
3.6504917e-07 2.6123672e-08 5.5746477e-06 1.4259268e-09 4.6646537e-07 3.8975796e-07 2.612877e-08 5.524493e-06
1.4203144e-09 5.131399e-07 3.7750007e-07 2.6126669e-08 5.4874317e-06 1.3951754e-09 4.7020032e-07 4.323174e-07
2.6122143e-08 5.467683e-06 1.3607921e-09 4.0862736e-07 4.7585937e-07 2.6127957e-08 5.452955e-06 1.3240289e-09
3.7178074e-07 4.0579604e-07 2.6134515e-08 5.4607267e-06 1.2840997e-09 3.2398074e-07 3.1424815e-07 2.6135234e-08
5.4263996e-06 1.2502798e-09 3.1615886e-07 3.031748e-07 2.6139165e-08 5.4342254e-06 1.2246982e-09 3.0850487e-07
3.5330132e-07 2.6138766e-08 5.4277107e-06 1.1948257e-09 2.8623828e-07 3.8045783e-07 2.612762e-08 5.431251e-06
1.1644987e-09 2.88489e-07 3.9310893e-07 2.614211e-08 5.4415395e-06 1.1299579e-09 3.450721e-07 4.342873e-07
2.6144702e-08 5.588038e-06 1.248983e-09 5.153737e-07 7.815753e-07 2.7377217e-08 5.7719867e-06 1.368156e-09
7.133872e-07 1.3083372e-06 2.8963225e-08 5.9678027e-06 1.398729e-09 1.1397681e-06 1.7880513e-06 3.093913e-08
6.280366e-06 1.3868965e-09 2.0000684e-06 2.2163154e-06 3.3768227e-08 6.9716357e-06 1.4363971e-09 3.9742604e-06
2.540227e-06 3.975142e-08 7.3454808e-06 1.4092458e-09 6.21357e-06 2.038696e-06 4.3875122e-08 7.663301e-06
1.5199785e-09 7.0558594e-06 2.1642345e-06 4.7447507e-08 7.992765e-06 1.8573044e-09 6.4153733e-06 3.767971e-06
5.1169863e-08 8.214216e-06 2.3321547e-09 4.9735145e-06 5.7179873e-06 5.3927828e-08 8.6185155e-06 3.1054628e-09
3.7057807e-06 8.15098e-06 5.79329e-08 9.092858e-06 4.199641e-09 3.0528906e-06 1.0174333e-05 6.281231e-08
9.691418e-06 5.318786e-09 3.1418851e-06 1.1407526e-05 6.774647e-08 1.0578932e-05 7.426249e-09 5.0396284e-06
1.099258e-05 7.4221674e-08 1.0635843e-05 8.589403e-09 7.546632e-06 8.503644e-06 7.517201e-08 1.08615795e-05
9.814054e-09 1.0394175e-05 6.440644e-06 7.906196e-08 1.16125975e-05 1.0857974e-08 1.290909e-05 4.943604e-06
8.4563446e-08 1.1655864e-05 1.0809704e-08 1.2970502e-05 4.572011e-06 8.4812456e-08 2.2763982e-06 4.939567e-10
2.103527e-07 2.369765e-07 1.0692815e-08 2.2676825e-06 4.961548e-10 2.3730101e-07 2.1179613e-07 1.0695073e-08
2.255177e-06 5.000051e-10 2.7094202e-07 1.9232944e-07 1.0694934e-08 2.2359438e-06 4.9695725e-10 3.0435208e-07
1.8470516e-07 1.0718487e-08 2.220642e-06 4.881154e-10 2.952535e-07 1.9680246e-07 1.0717886e-08 2.2153304e-06
4.6678567e-10 2.7522913e-07 2.121228e-07 1.0719008e-08 2.2081335e-06 4.4955248e-10 2.504779e-07 2.0970752e-07
1.0722759e-08 2.204257e-06 4.380766e-10 2.2798095e-07 2.1514505e-07 1.0725797e-08 2.1945139e-06 4.3064854e-10
2.1377585e-07 2.3776448e-07 1.0725704e-08 2.1997387e-06 4.2441858e-10 2.1492998e-07 2.527368e-07 1.0727033e-08
2.1842743e-06 4.151983e-10 2.1940394e-07 2.9407835e-07 1.07284235e-08 2.182414e-06 4.1280715e-10 2.2910336e-07
2.824812e-07 1.0728726e-08 2.1777655e-06 4.1100898e-10 2.3997438e-07 2.620193e-07 1.0723793e-08 2.3131477e-06
5.569924e-10 4.2723156e-07 5.045756e-07 1.2460405e-08 2.4715396e-06 6.8140976e-10 7.870032e-07 8.2070113e-07
1.4722514e-08 2.643454e-06 7.8182333e-10 1.3117386e-06 1.0662986e-06 1.7285315e-08 2.847012e-06 8.8288227e-10
2.0854677e-06 1.3200774e-06 2.0469985e-08 3.3204983e-06 1.1665872e-09 3.3823214e-06 1.9660379e-06 2.7146829e-08
3.815634e-06 1.4257397e-09 4.9421333e-06 2.7060314e-06 3.4458704e-08 4.2215997e-06 1.6039137e-09 5.9471163e-06
3.0408648e-06 4.0314116e-08 4.7773506e-06 2.085391e-09 6.6098155e-06 4.1851617e-06 4.7652428e-08 5.2248697e-06
00000000: b67d bc36 956c c430 17a8 bc34 741e c734
00000010: 876a e032 9abf bb36 7d95 c330 de8d d234
00000020: fafb c334 9066 e032 dc0d bb36 57fa c330
00000030: 836e fa34 ed3f d134 c671 e032 095f b936
00000040: df34 c330 b5be 0935 37ab ca34 276d e032
00000050: ae20 b836 5fc0 bf30 d76f fc34 4019 e834
00000060: 3363 e032 0a77 b736 9e06 bb30 5161 db34
00000070: 9d79 ff34 fc6f e032 87f8 b636 20f9 b530
00000080: 2899 c734 2fdc d934 687e e032 493b b736
00000090: 3e7c b030 93ef ad34 f0b5 a834 fd7f e032
000000a0: 6b14 b636 4fd6 ab30 8bbc a934 07c4 a234
000000b0: a288 e032 a457 b636 3d52 a830 96a0 a534
000000c0: 5dad bd34 c187 e032 ae1f b636 3137 a430
000000d0: 4aac 9934 ba41 cc34 3e6f e032 173e b636
000000e0: 280c a030 a0e1 9a34 7b0c d334 1c8f e032
000000f0: 7896 b636 dc4c 9b30 5942 b934 fe27 e934
00000100: cf94 e032 e280 bb36 afa8 ab30 3658 0a35
00000110: 72cd 5135 232b eb32 fdac c136 b609 bc30
00000120: 987f 3f35 209a af35 ceca f832 093f c836
00000130: 673d c030 22fa 9835 fafc ef35 efe1 0433
00000140: efbb d236 159d be30 ea38 0636 02bc 1436
00000150: 8f08 1133 e5ed e936 bb6a c530 a35a 8536
00000160: c478 2a36 26bb 2a33 3379 f636 6eaf c130
00000170: 297e d036 88d0 0836 3571 3c33 a191 0037
00000180: 7de7 d030 5fc1 ec36 443d 1136 16c9 4b33
00000190: aa18 0637 1744 ff30 a343 d736 40dd 7c36
000001a0: dcc5 5b33 cacf 0937 b343 2031 2ae2 a636
000001b0: 23dd bf36 469e 6733 3e98 1037 e167 5531
000001c0: d4b0 7836 31c0 0837 e6d1 7833 878d 1837
000001d0: 6f4c 9031 43e0 4c36 6db2 2a37 6fe3 8633
000001e0: 5398 2237 89c0 b631 2dd9 5236 f362 3f37
000001f0: 047c 9133 2b7c 3137 fa29 ff31 141a a936
00000200: c66c 3837 cc63 9f33 9970 3237 9890 1332
00000210: 1339 fd36 dfaa 0e37 406e a133 213a 3637
00000220: aa9a 2832 a462 2e37 b61c d836 c6c8 a933
00000230: bad3 4237 e089 3a32 1f94 5837 3ce1 a536
00000240: 3f99 b533 8e8d 4337 95b5 3932 e29b 5937
00000250: 4769 9936 2422 b633 39c4 1836 1dc7 0730
00000260: 4fdd 6134 9b73 7e34 7fb3 3732 7d2e 1836
00000270: ca61 0830 cecc 7e34 146a 6334 6ebd 3732
00000280: a557 1736 bb70 0930 fd75 9134 1d83 4e34
00000290: d1bc 3732 390d 1636 429a 0830 d565 a334
000002a0: 5e53 4634 6824 3832 5706 1536 112c 0630
000002b0: 5583 9e34 a650 5334 c321 3832 16ab 1436
000002c0: 1f4f 0030 34c3 9334 dfc3 6334 b226 3832
000002d0: 722f 1436 e324 f72f 6c79 8634 f72b 6134
000002e0: 3137 3832 d9ec 1336 cdd5 f02f edca 7434
000002f0: 9f02 6734 8e44 3832 7645 1336 65c0 ec2f
00000300: 428a 6534 344c 7f34 2544 3832 399f 1336
00000310: 9b53 e92f 81c7 6634 e2af 8734 fd49 3832
00000320: 8c95 1236 f741 e42f 4c95 6b34 d2e1 9d34
00000330: 1b50 3832 9675 1236 71f1 e22f 74ff 7534
00000340: eca7 9734 7051 3832 ba25 1236 5ff4 e12f
00000350: d4d5 8034 a9ab 8c34 be3b 3832 933b 1b36
00000360: db1a 1930 425e e534 2c72 0735 7111 5632
00000370: badc 2536 f34d 3b30 7342 5335 274e 5c35
00000380: 4dee 7c32 3266 3136 ede7 5630 ff0e b035
00000390: be1d 8f35 cf7a 9432 4b0f 3f36 51af 7230
000003a0: 10f4 0b36 842d b135 f9d5 af32 bad5 5e36
000003b0: a355 a030 d7fb 6236 46f0 0336 8230 e932
000003c0: 0c08 8036 c2f3 c330 9ad4 a536 4499 3536
000003d0: bfff 1333 44a7 8d36 b270 dc30 578d c736
000003e0: a911 4c36 d725 2d33 214d a036 964e 0f31
000003f0: e2c9 dd36 446e 8c36 66aa 4c33 4a51 af36

exp_avg f4 [128]
-5.8651905e-05 -6.150633e-05 -2.530572e-05 1.7493358e-05 7.961843e-06 1.5331532e-06 2.9147934e-06 -4.695776e-06
4.37842e-07 5.8791147e-06 3.9752817e-06 4.716269e-05 -5.3708486e-06 -5.7499296e-05 -4.680528e-05 1.5356407e-05
-2.562268e-05 -2.5206988e-05 6.7610304e-06 -5.8378287e-06 -1.2105234e-05 3.6698482e-05 4.8521597e-05 3.172657e-05
9.952056e-06 -4.42123e-05 -8.318181e-07 2.0050227e-05 -4.3209097e-06 2.1765939e-06 -8.327695e-06 -1.2440484e-05
1.4500261e-05 -2.069894e-06 -3.7780774e-05 2.0125267e-07 -6.9446064e-06 -5.9250347e-06 9.103232e-06 4.043488e-05
-3.0290737e-05 -2.339966e-05 -2.2234196e-06 -1.1156802e-06 -5.7455004e-06 -1.7514718e-05 2.1696637e-06 -3.377441e-05
4.707045e-05 1.8375817e-05 1.02825e-05 -9.905894e-06 -7.980742e-06 -4.306187e-06 2.515529e-06 -3.6806966e-06
-3.6502468e-06 -4.543277e-06 -5.2064756e-06 2.2814576e-05 -3.3995636e-06 2.307767e-06 -1.1679004e-05 1.9067042e-07
-1.3922994e-05 -4.5689398e-05 -1.0203836e-06 1.9678613e-05 -1.5554879e-05 -5.1749244e-05 -2.0068877e-05 5.267684e-06
-5.4999987e-06 3.212323e-06 4.9695955e-05 -1.6791657e-05 -5.7114876e-06 -3.2014214e-05 5.59895e-06 3.2418632e-06
-6.033192e-05 -4.2390326e-07 -4.6319587e-06 7.467041e-05 2.6021004e-05 1.5606807e-05 -7.786197e-07 4.362469e-06
-1.1802097e-05 -5.46034e-07 -3.5302746e-05 -2.029358e-06 -7.3025008e-06 6.964322e-05 -5.02544e-06 8.089605e-06
-7.216241e-06 9.069367e-06 5.696958e-05 4.5715688e-06 -1.9827778e-05 1.948303e-05 1.2623115e-06 1.0199114e-05
1.2091524e-06 -7.5815224e-06 4.9511473e-06 1.9610054e-05 -2.9907524e-05 4.3549094e-06 -3.6858492e-06 -1.9871259e-05
1.1342952e-05 -6.1884803e-06 -2.2603144e-05 -1.4885292e-08 2.0783958e-07 -2.2226404e-06 4.9214374e-05 -3.6115063e-07
2.8163286e-06 -5.9049157e-06 -1.4309984e-05 7.8839375e-06 -1.2357106e-06 -2.5359119e-05 -3.187746e-07 -2.5295187e-06
00000000: 0101 76b8 f6fc 80b8 9f47 d4b7 b3be 9237
00000010: db93 0537 bec6 cd35 c59b 4336 6990 9db6
00000020: 8c10 eb34 3645 c536 6963 8536 8ed0 4538
00000030: 3d37 b4b6 662b 71b8 c950 44b8 a2d1 8037
00000040: 49f0 d6b7 9873 d3b7 cfdc e236 91e2 c3b6
00000050: 9617 4bb7 b2ec 1938 ab83 4b38 2512 0538
00000060: c1f7 2637 9870 39b8 1b4a 5fb5 8931 a837
00000070: 55fc 90b6 9911 1236 2db7 0bb7 79b7 50b7
00000080: 2646 7337 82e8 0ab6 cc76 1eb8 ea17 5834
00000090: b705 e9b6 a9cf c6b6 15ba 1837 9f98 2938
000000a0: dd18 feb7 634a c4b7 0f36 15b6 7bbe 95b5
000000b0: 79c9 c0b6 92ec 92b7 8a9a 1136 ffa8 0db8
000000c0: 836d 4538 c425 9a37 0083 2c37 7e31 26b7
000000d0: 07e5 05b7 dd7d 90b6 76d0 2836 e301 77b6
000000e0: c3f6 74b6 7472 98b6 49b3 aeb6 ee61 bf37
000000f0: 0f24 64b6 23df 1a36 f1f0 43b7 16bb 4c34
00000100: ce96 69b7 9ea2 3fb8 1df4 88b5 8013 a537
00000110: d97b 82b7 540d 59b8 9659 a8b7 10c1 b036
00000120: a18c b8b6 4a93 5736 a070 5038 cfdb 8cb7
00000130: 4ea5 bfb6 0047 06b8 9dde bb36 c98e 5936
00000140: e80c 7db8 d294 e3b4 396c 9bb6 5f98 9c38
00000150: ae47 da37 5deb 8237 5702 51b5 5361 9236
00000160: 9f01 46b7 2c93 12b5 0912 14b8 1b30 08b6
00000170: 0108 f5b6 6b0d 9238 33a0 a8b6 97b8 0737
00000180: 0a23 f2b6 a228 1837 9ff2 6e38 7a65 9936
00000190: d453 a6b7 7d6f a337 b16c a935 dc1c 2b37
000001a0: 294a a235 c864 feb6 0822 a636 4580 a437
000001b0: ebe1 fab7 6320 9236 685a 77b6 34b1 a6b7
000001c0: 9c4d 3e37 a4a6 cfb6 e29b bdb7 35ba 7fb2
000001d0: 822a 5f34 ac28 15b6 886b 4e38 2ae4 c1b4
000001e0: 2800 3d36 d722 c6b6 ea14 70b7 4145 0437
000001f0: b1da a5b5 4bba d4b7 0c24 abb4 cdc0 29b6

exp_avg_sq f4 [128]
2.1203116e-08 3.0974466e-08 2.4942945e-08 1.5727785e-08 4.7115638e-08 1.9013685e-08 3.9150354e-08 5.412347e-09
7.897108e-09 5.316182e-09 2.8657162e-08 4.1208217e-08 1.8664537e-09 3.453772e-08 1.9106096e-08 5.5127718e-08
5.0427684e-09 2.816017e-08 3.158694e-09 2.5210403e-08 2.6704279e-09 4.3299547e-08 2.8761805e-08 1.981306e-08
7.201141e-09 7.158471e-08 4.9405706e-08 3.6489126e-08 5.169739e-09 4.2193546e-09 6.1230003e-09 1.3934098e-08
1.3300043e-08 5.286939e-09 2.4746047e-08 2.3279624e-08 1.1520486e-08 1.9068194e-08 5.4195862e-08 3.7225703e-08
1.3285477e-08 5.0957077e-08 8.018219e-09 1.9420213e-08 8.468935e-09 1.0621169e-08 1.1982792e-08 2.7076808e-08
6.122231e-08 8.994619e-09 3.1834932e-09 1.2388455e-08 4.7687516e-09 1.2967523e-08 1.1682225e-08 3.3441783e-08
2.4923885e-08 8.703221e-09 3.7292015e-08 9.511157e-09 4.551986e-08 1.4365872e-08 6.02601e-09 4.5627395e-09
1.6096788e-08 1.3038121e-07 2.9493517e-08 1.0464069e-08 3.9648893e-09 9.2066585e-09 1.2934999e-08 4.5927887e-08
6.5367387e-09 5.1178732e-09 1.9464565e-08 2.7010032e-08 4.017665e-08 8.895826e-08 3.866058e-08 3.5786814e-09
2.1481444e-08 3.1171041e-09 2.2364546e-08 7.214702e-08 7.67395e-09 5.6635272e-08 2.5344567e-08 3.7908023e-09
2.9514398e-08 1.1062586e-08 2.050487e-08 7.0576998e-09 1.116554e-08 9.559171e-08 2.4863192e-08 1.7626453e-08
2.5104015e-08 4.3121563e-08 3.864508e-08 2.692582e-08 6.468903e-08 1.2732781e-08 5.774567e-09 8.591904e-09
8.75615e-09 2.8331492e-08 3.2321008e-08 1.5833944e-08 1.6554454e-08 4.693254e-09 5.3662377e-09 1.778828e-08
2.9632508e-09 6.8312245e-09 7.956429e-09 6.307866e-09 4.792162e-09 3.2389167e-08 2.3967816e-08 3.2941074e-08
7.169039e-09 6.1318333e-09 1.1017528e-08 8.542572e-08 4.02178e-09 1.7876411e-08 2.4714353e-09 6.5013004e-09
00000000: 2522 b632 c908 0533 1e42 d632 c419 8732
00000010: 315c 4a33 8953 a332 4526 2833 82f7 b931
00000020: d9ab 0732 a2a9 b631 c429 f632 eafc 3033
00000030: 0043 0031 a056 1433 c01e a432 91c5 6c33
00000040: a944 ad31 dee4 f132 5510 5931 438e d832
00000050: aa82 3731 5bf8 3933 e10f f732 6131 aa32
00000060: e86d f731 1cba 9933 2632 5433 38b8 1c33
00000070: 81a1 b131 d6f9 9031 7b62 d231 d062 6f32
00000080: 357e 6432 68a8 b531 2291 d432 6ff8 c732
00000090: a2eb 4532 67cb a332 fbc4 6833 18e2 1f33
000000a0: 253e 6432 e6db 5a33 80c0 0932 80d1 a632
000000b0: c57e 1132 6578 3632 e0dc 4d32 8896 e832
000000c0: 5279 8333 c186 1a32 9bc4 5a31 00d5 5432
000000d0: 62da a331 c5c7 5e32 f8b2 4832 a1a1 0f33
000000e0: 3418 d632 2c85 1532 012b 2033 8366 2332
000000f0: 9e81 4333 c6cd 7632 580d cf31 48c6 9c31
00000100: 3645 8a32 eafe 0b34 ee58 fd32 76c5 3332
00000110: 893b 8831 502b 1e32 ba38 5e32 3f42 4533
00000120: c399 e031 4ad9 af31 0833 a732 b003 e832
00000130: b28e 2c33 5209 bf33 c20b 2633 d4ec 7531
00000140: 3286 b832 ad34 5631 281c c032 3eef 9a33
00000150: 64d6 0332 243f 7333 4bb5 d932 4040 8231
00000160: d986 fd32 c50d 3e32 b022 b032 2f80 f231
00000170: 90d2 3f32 1948 cd33 bd92 d532 fb68 9732
00000180: 50a4 d732 a934 3933 b7fa 2533 814a e732
00000190: 2ceb 8a33 5dbf 5a32 a169 c631 989b 1332
000001a0: f46d 1632 9c5d f332 53d1 0a33 3603 8832
000001b0: a133 8e32 4c42 a131 ed61 b831 d7cc 9832
000001c0: 0fa2 4b31 16b8 ea31 bfb0 0832 93bc d831
000001d0: 4da8 a431 441c 0b33 c9e1 cd32 187b 0d33
000001e0: 8953 f631 2db0 d231 9a47 3d32 4973 b733
000001f0: f32f 8a31 a58e 9932 f3d5 2931 0b62 df31
