results/Test1/BalanceBall1/checkpoint.pt (torch, 884322 bytes, 33 tensors)

network_body._body_endoder.seq_layers.0.weight f4 [128, 150]
00000000: 4b98 38be caeb eb3d cab1 d33d 2fc0 3e3e
00000010: 995a d43d 40b9 d3bd eae5 d5bc 78f6 f5bc
00000020: e478 9cbd 325f 1b3c 5ad4 56bd c19f 0ebd
00000030: fdde 68bd 59ee 493e 2ea1 cc3c 00f5 523d
00000040: 96ea 9e3d 83ab c0bc 47f7 9f3c 76fe c4bc
00000050: 152c e23b 305a 283e 8236 d83d d824 1cbb
00000060: 78b3 f9bd f95f 443d e4ec d8bd 6d72 31bd
00000070: d53c 843c a668 353a 5f78 1bbe bb1d 1f3e
00000080: e835 41bc 724e 953d b3e8 333e 68fd e7bc
00000090: f575 0e3b 02ce 41bd 63ea de3b dc00 e03c
000000a0: 285a ebbb 9442 99bc 28cc 363c cf05 e63d
000000b0: 0e62 cf3d 5bfe b03c 950c 06bc 486d 243e
000000c0: a3ac 5a3a fe21 173d 3ceb 2f3b 570b 743d
000000d0: 593b b1bd a7e5 53be dc09 b53c eb69 21be
000000e0: 43a3 0fbe abba f0bc 1d7c 883a 7816 fa3d
000000f0: 8d5a c63d 59d8 bcbd dbf3 cb3c f996 0c3e
00000100: 231d 733e 4770 88bd 32d4 843c d377 94bd
00000110: 338b 5cbd 5b5d c53c 610c cbbd f641 483d
00000120: e2c0 fabc 16a8 023c 2566 063c 521d 9d3d
00000130: 490b 6e3d 6e5a 15bd 4451 01bc 45e8 7abd
00000140: f71f cbbc f83e 2bbd 72d8 5a3c 21ae 39be
00000150: c937 a93d cdbb a8bd da17 8ebd f6dc 073d
00000160: a64c 8ebd d9ab 343d 2189 80bd b589 dbbc
00000170: 794a 66bc 1830 f9bd fbc5 c6bd 818f 42bd
00000180: 466b 833d 4767 02bc b4b6 9dbd d4a9 a33d
00000190: 32d8 92bd a9b2 b1bc 52b6 373d 690b bcbb
000001a0: 3250 45bd fbf2 1f3e 3d66 d0bd 41bd e2bc
000001b0: b758 dc3d f398 2bbd 1060 a6bc 683e aabd
000001c0: e282 293d 1be3 52bd 0e21 f63d 8c93 87bd
000001d0: 5b03 3a3c 95a9 79ba e9dd 033d bc58 67bb
000001e0: b363 093e a16e a3bd 8333 bd3d 7518 913d
000001f0: cae3 103e aa59 36be d8b1 62bc ed7b db3a
00000200: 8138 b93c 11ab 8cbd f5d6 f9bc acb6 0dbc
00000210: 66bf 193c 001a 2d3e a53c c4bd 9ad1 4f3e
00000220: 4a3e efbd 1bdf 86bc 955b 02be 1012 08bc
00000230: b426 4cbd 1bce 33bc 18d9 b2bd a3eb 00be
00000240: 3b67 cb3c 3810 303e f957 9d3d c85e 45bc
00000250: 5377 b7bc 66f9 d0bd b37b f23d 37c8 d23d
00000260: 67d0 fbbd 72eb 12bd d355 febd 0f55 85bd
00000270: 6001 923d 9740 7dbd 4c79 b83b 1e34 903d
00000280: 0d23 8f3b 7cb4 54bd 5a57 0cbe f7b9 96bd
00000290: 7fc8 f4bd 3a56 973d f730 833d 6750 113d
000002a0: a830 fdbb 65b0 c4bd 39a1 44bd 5c82 18bd
000002b0: cf43 83bd 1c1c 48bc 1c7c 5ebd 0982 133c
000002c0: 41a6 ffbc 5710 c9bd 7c56 c23d 7541 013d
000002d0: 247e 72bd 2243 63bd 51ff 06be 6b87 a73d
000002e0: 8e70 94bc bb43 d3bd e08d 58bd 6ff5 9e3d
000002f0: 9c3b 383d 9e88 183e d108 d5bd 174e 973d
00000300: 4dd0 12bc d1ce 22bc 4b29 0cbd 7f5b 4bbb
00000310: f17c e93c c5d3 973d 5dd0 a73b 0233 4ebd
00000320: 5178 1b3e 53b6 473c f8a2 bfbb 26af 77be
00000330: 0e7f 8a3d 7483 403d 02b0 dd3b 9fd7 463d
00000340: e815 08bc b921 03be bdc8 263d 1ed8 ccbd
00000350: ccd8 1a3e e687 2f3e e438 88bb 7e0e e2bc
00000360: 2de9 e6bd 8d9f 803d 13c3 303d fd27 98bd
00000370: b916 003c 3026 8abc f38a 9b3c e7c2 35bd
00000380: 582b 0a3d 44c6 803d 0f02 8ebd 213e 213c
00000390: 4139 c53d 1813 5dbc b188 683c 5b67 d2bc
000003a0: dfab 913d 6222 82bd f4f7 343e 3d42 f0bc
000003b0: cbe7 99bd 0e0e 2a3e 1e3b 603c 3144 e53b
000003c0: 7cee 22be bc17 883c ce49 9cbd 853b 093d
000003d0: 92eb b83d 78c7 513c c452 71bd f773 283d
000003e0: d926 233d dafd a23d ca52 dbbd 795a e53c
000003f0: 6fc7 ce3d 010e 12bd 120f 9e3c 8576 29bd
-0.18026845 0.115195826 0.10336645 0.18628 0.10368843 -0.10338068 -0.026110608 -0.030024752
-0.076402456 0.009483146 -0.052448608 -0.034820322 -0.056853283 0.19719829 0.0249792 0.05150318
0.077595875 -0.023519283 0.01952709 -0.024047118 0.0069022276 0.16440654 0.105572715 -0.0023825672
-0.12192434 0.04794309 -0.10592058 -0.043322016 0.016142288 0.0006920196 -0.15182637 0.15538685
-0.011792637 0.07290353 0.17569236 -0.028319076 0.0021737788 -0.047315605 0.0068028434 0.02734416
-0.0071823783 -0.018708505 0.011157073 0.11231577 0.10126124 0.021605661 -0.008181711 0.16057312
0.0008341765 0.03689765 0.0026843091 0.059581127 -0.08653898 -0.20693074 0.022099428 -0.15763061
-0.14027123 -0.029385885 0.0010412965 0.12211317 0.0968524 -0.092209525 0.024896553 0.13729466
0.23741584 -0.0666204 0.016214464 -0.07249417 -0.05384369 0.024092367 -0.099144705 0.04889103
-0.030609552 0.007974645 0.008203064 0.07671608 0.05811623 -0.036463194 -0.00789291 -0.061256666
-0.024795515 -0.0418081 0.013357269 -0.18132831 0.08262593 -0.08238945 -0.06938143 0.03316971
-0.06948213 0.0441092 -0.06276155 -0.026799062 -0.014055842 -0.12167376 -0.097057305 -0.047500137
0.06416945 -0.007959194 -0.077008635 0.079913765 -0.07170142 -0.021691637 0.04485161 -0.005738665
-0.048172183 0.15620033 -0.101757504 -0.027678134 0.107591085 -0.04189391 -0.020309478 -0.08312684
0.041384585 -0.051486116 0.120180234 -0.06619939 0.011353339 -0.0009523866 0.032194052 -0.0035300693
0.13416938 -0.07980085 0.09238341 0.07084743 0.14149395 -0.17807642 -0.013836347 0.0016745307
0.022609951 -0.06868566 -0.030498007 -0.008649509 0.009384012 0.1690445 -0.095818795 0.202948
-0.116818026 -0.016463807 -0.12730248 -0.008305088 -0.049841598 -0.010974432 -0.087328136 -0.12589888
0.024829498 0.17193687 0.07682795 -0.012046523 -0.022395765 -0.10203819 0.1184 0.10292094
-0.12295609 -0.03586907 -0.124187134 -0.06510364 0.071291685 -0.061829176 0.005629694 0.070411906
0.004368192 -0.051929936 -0.13705197 -0.07359689 -0.11952304 0.07389493 0.06405824 0.03547707
-0.0077267475 -0.09603957 -0.048005316 -0.037233695 -0.06409418 -0.012213733 -0.05431758 0.009003171
-0.031207206 -0.0981757 0.09489152 0.031556565 -0.05920233 -0.055483945 -0.13183333 0.08180126
-0.018120077 -0.10315653 -0.052869678 0.077616565 0.044978723 0.14895865 -0.10402072 0.07387941
-0.008960796 -0.009937004 -0.034219068 -0.0031029878 0.02850196 0.07413439 0.0051212744 -0.050341614
0.15182616 0.012189466 -0.005848285 -0.24187908 0.06762515 0.047000363 0.0067653665 0.048545476
-0.008306004 -0.12805833 0.040718783 -0.100021586 0.15121764 0.17141685 -0.0041571725 -0.027594801
-0.112749435 0.06280432 0.043154787 -0.07429502 0.0078179175 -0.016863912 0.018987155 -0.044375326
0.033732742 0.06287816 -0.069339864 0.009841473 0.09630061 -0.013493322 0.014192746 -0.02568405
0.0711286 -0.06354214 0.17672712 -0.02932846 -0.07514914 0.16606924 0.01368597 0.0069966544
-0.15911287 0.01661288 -0.076312646 0.033504028 0.090293065 0.012803905 -0.058916822 0.041126218
0.03983197 0.079585746 -0.1070915 0.027997242 0.10096633 -0.035657886 0.019294295 -0.041372795

network_body._body_endoder.seq_layers.0.bias f4 [128]
00000000: 571b fa3b 2dc7 d63a 4df7 393c ea88 9cbc
00000010: aefd 0e3d 7872 243c 518e 723c cfb7 49bc
00000020: ea8a b6bb 21f9 9f3c f08a f23c 4498 23bc
00000030: 7067 6cbc 3edf 593c 85cd 883b 54ab 883c
00000040: 5ba4 2abc 99c2 873b 237e 943c 56a8 2f3c
00000050: 5474 3a3c 2844 7dbc 0b10 a33b a993 27bb
00000060: f838 4fbc 1101 563c 7fe8 3a3c 57a5 b1bb
00000070: 9460 973c fe73 1aba c003 f83b 55dd b53b
00000080: 7d83 88bc 6116 11bc 8f49 cb3c b0fc a53a
00000090: 2cc6 ae3b 229b 3b3c ff37 d43c 34fd bc3b
000000a0: e5dd 59bc 5c8a f43c 4df5 5fbc a00f f93b
000000b0: 6d41 4a3b 5949 5b3b 3326 1b3a 2268 933b
000000c0: c77b d53c 5fe5 34bb 96e5 a0bb b014 1ebc
000000d0: e459 013c f4cb 333c 9817 6f3a e8c2 1b3d
000000e0: 9815 afbc 2fd1 26bc db46 cf3c aa0c 59bb
000000f0: 7de6 fc3b 7ed2 78bc 98af 89bc 8587 84bb
00000100: 7b75 723c ff6d 9b3c 2e5b c9bb 790a 863c
00000110: 0585 efbb cc17 333c 3da0 ebbb d8c4 5b3c
00000120: 5a2d 7b3c 2e95 e9bb 79e4 d43a b743 843b
00000130: 17be 213c 6b22 143d 28c9 f3bb 3a81 063b
00000140: 7b14 02bc f244 a6bc 23c6 fcbb c695 093d
00000150: 40b9 12bc b7fc ffbb 11fc 693c 8317 563b
00000160: 8e4a 813c 3897 853c 86ac ae39 161f 00bc
00000170: c6c1 e3bc 9911 44bc 2351 dabb 9b55 60ba
00000180: 5e6d 503c 58ce 653c f12a a53a 3aac 82bc
00000190: 6fcf b33b de68 4b3c 1e55 4d3a 5603 7cbc
000001a0: 1567 163b 1992 c73b 2c73 1e3d 5748 893c
000001b0: f26c aeba 77ac 6bbc 6d7b a6bc def2 4f3c
000001c0: 6cde c4ba 5c03 18bb c6b0 0c3c 0270 053b
000001d0: e2da 993c b611 673c f5ba be3c f996 613c
000001e0: d0e3 9d3c 63d0 67bb 1869 8cbc eea4 323c
000001f0: 5077 cf3c e813 e93c b99f a5bc 148c cc3c
0.0076326537 0.0016386263 0.011350465 -0.019108254 0.034909897 0.010037057 0.014804439 -0.01231189
-0.005570759 0.019527974 0.029607266 -0.009985033 -0.014428958 0.013297854 0.0041748905 0.016683258
-0.010415162 0.004143071 0.018126553 0.010721287 0.011380274 -0.015458144 0.0049762777 -0.002557019
-0.01264786 0.013061778 0.01140797 -0.0054213214 0.01847867 -0.0005891918 0.0075688064 0.0055500665
-0.016664261 -0.008855433 0.024815349 0.0012663808 0.0053336825 0.011450561 0.025905607 0.005767489
-0.013297533 0.029851131 -0.013669324 0.0076007396 0.003086175 0.0033460467 0.0005918473 0.0044984976
0.026059998 -0.0027602536 -0.0049101813 -0.009648487 0.007894967 0.010973919 0.0009120642 0.038027674
-0.021372601 -0.010181709 0.025302341 -0.003311912 0.007717906 -0.015186904 -0.016807362 -0.0040444755
0.014798517 0.018973349 -0.0061449027 0.016362416 -0.0073095583 0.010930967 -0.0071907328 0.01341363
0.015330637 -0.0071283793 0.0016242407 0.0040363926 0.009871981 0.036165636 -0.007439751 0.0020523802
-0.007939453 -0.020296548 -0.0077140494 0.0335901 -0.0089553 -0.0078121084 0.014281289 0.0032667823
0.01578262 0.016307458 0.00033316406 -0.007819911 -0.02780236 -0.011967086 -0.0066625043 -0.0008557678
0.012721388 0.014026247 0.0012601299 -0.015951265 0.0054873745 0.012415139 0.0007832813 -0.015381655
0.0022949625 0.0060904142 0.038684055 0.016758127 -0.0013307615 -0.014384381 -0.020322526 0.012692181
-0.00150199 -0.0023195362 0.008587068 0.0020360951 0.01878113 0.014103344 0.023282507 0.013768905
0.019273669 -0.003537201 -0.017139956 0.01090358 0.025325447 0.028451875 -0.020217763 0.024969138

network_body._body_endoder.seq_layers.2.weight f4 [128, 128]
00000000: 0774 7e3c 5ba2 7bbd 6e8c 5a3c c74c 1a3d
00000010: 7eed 76bd 2093 9fbc 6cef 43bc aaf3 dcbd
00000020: 3481 fbbd 14b9 afbd faa2 983d 200c 383d
00000030: 81e2 003d 87cd 8bbc fd47 89bd 64c4 20be
00000040: 1a68 21bc d03b 793d d5b7 2bbd 0496 af3c
00000050: 56b9 f43d 68eb e73d 5837 a5bd 5eb1 4cbd
00000060: 2446 a63c 85cd f4bd 4371 7f3c 373b ec3d
00000070: 0a62 86bc a33e 873d 9021 a0bd eea0 6cbd
00000080: b469 253e 9234 a13c 0985 323d ecc7 4a3d
00000090: ffe1 f23c e092 323d db67 6fbd 072d 753d
000000a0: 96e6 4b3d a9ae 4c3a cd9b 0a3e 448e c7bd
000000b0: aab2 fdbd 54b6 9e3c 6a3e 363e e697 1cbb
000000c0: a3ea f2bb d191 0c3d 57df 3a3d 2066 2abd
000000d0: 361d 1e3d e81e c23d 48b7 913d 664b c9bd
000000e0: 4635 413d 7084 1fbc 0063 91bd 3655 f23d
000000f0: 7961 5b3d 21cc 0c3e 4471 e1bd 6162 5fbc
00000100: 8f91 3c3d 795d a83c 67de 303d b95d 8f3d
00000110: 131b ba3d 4521 453c b35a f23b 2c48 3dbd
00000120: 4138 923b 7862 8f3d dc91 173e dbfd 04be
00000130: 671e dfbd 8746 cbbd 3ed1 19bd 9c19 a539
00000140: a8b2 7fbc e556 a23b d1aa 823c 1d76 213e
00000150: e3f7 84bc b94c 2f3e 3fd2 aa3d 8c28 c23d
00000160: cf9f 063d e76a 843c 1a5b 2b3c 38ab 6b3d
00000170: 064b b9bc 3c0d 483d ad9f b43c 8df5 a7bd
00000180: 6b1b 03bd 57f8 2dbd ed00 be3d af10 053e
00000190: 7f2d a83d c4af 893d d233 d4bd 47fa 9abd
000001a0: 40c7 9bbd 7856 58bc 7cfe 253d 3089 afbd
000001b0: 993d 90bd 313c 46bd 40ee ca3d 0d52 ac3d
000001c0: 2a86 abbd 1011 96bd 27d5 263d f02a b13d
000001d0: a843 c9bd 6d55 89bc 28db 493c 0720 fcbd
000001e0: 89b9 5d3e ba66 243d 9268 58be 44fe 8b3d
000001f0: 61f8 d5bd 427c 34be 4317 03be 6375 e03c
00000200: dc60 f1bc e089 c33d 33a4 813b f210 11bd
00000210: 97b1 be3d 06fd b1bc 5a4d 3cbc 97f8 803d
00000220: 2ab0 053d 1135 dfbd f4da 853b 5e05 b4bd
00000230: 3ff0 e13b 0326 3c3e 8c50 3abd 387f d23d
00000240: 9c4d 3b3d 55cf b6bd 4ff8 c13c 555c 4dbc
00000250: 8219 47be f096 233c e54e 47bd 5c64 d73d
00000260: daa4 683e e011 4bbd abe4 543d 62ac d93d
00000270: 7e2c da3c bb41 9a3a d5ab 693d 8a32 9c3d
00000280: 9c59 c73d 9dde a0bd 04be f4bd 2430 4cbd
00000290: 6b94 a3bc acf7 973c 2160 be3c 0b8b 20bd
000002a0: 6a8f 09bd 93b5 b8bc bfae 2b3e 0660 d83c
000002b0: 29d8 1b3e 935e 1fbc 7c24 913c 3468 9f3e
000002c0: 0650 8a3d cd7d e63d dcac 16be 4460 33bd
000002d0: bd0b a5bd daf6 3a3d 7fdb 443e 6115 a5bd
000002e0: 5e50 b6bc 93b2 0fbe 847c 583d e2c6 eabc
000002f0: d976 26bd 09c2 433c 627b 96bd 8488 173e
00000300: 6cf4 003e 31a9 24bb e4bf 323d d71e 9dbd
00000310: 1eca 1d3d 748a 80bd 93b5 073c eb5a 643c
00000320: b3be 1e3d 6e7f dcbd 5974 163e d31f 963d
00000330: 8259 b1bb 5661 223d 95bd 59bd 3a47 033d
00000340: 223a ccbd 9842 9c3d c789 dd3c f26b 433d
00000350: b792 cfbd 3850 12be 3350 e6bc 096b 13be
00000360: a35b e2bd 23ce c4bb ca87 2c3d 9265 c9bd
00000370: 003e c5bd aef8 86bd 2813 92bb 1829 34be
00000380: 1edd 38be 2b34 2cbe bb0f e73d b7ee 943d
00000390: a692 1ebc 2cb6 dc3d 000f aa3d f120 e9bd
000003a0: e9b1 883c 1371 01bd 0d2e e23d 6d51 dbbc
000003b0: f02e b63d a1ff 593d 2deb fa3c 683b 3bbe
000003c0: e9e3 9dbd dcb6 de3d b9c0 373d 0804 a93c
000003d0: 7388 633c 7907 ad3d 02dd b73c b921 10bd
000003e0: b525 e5bd 1451 7c3d 3d6e bcbd 12c9 0fbb
000003f0: da06 dfbd 44ca 9fbd 171c 0fbd 0995 c1bd
0.015530593 -0.06143413 0.013339145 0.037670877 -0.060285084 -0.019479334 -0.011958938 -0.10788663
-0.12280503 -0.08580223 0.0745296 0.04493344 0.03146601 -0.017065777 -0.06703184 -0.15699917
-0.00985148 0.060848057 -0.041923363 0.021433838 0.119494125 0.11324197 -0.080671966 -0.049973838
0.020297118 -0.11953262 0.015590969 0.11534732 -0.01640417 0.06603744 -0.078189015 -0.057770662
0.16153604 0.019678388 0.043583903 0.049507067 0.029648779 0.043597102 -0.058448654 0.059857395
0.04978045 0.0007808009 0.13535996 -0.09743932 -0.12387593 0.01937405 0.17797247 -0.002389425
-0.007413225 0.03431875 0.04562315 -0.0416013 0.038602076 0.09478551 0.07115036 -0.09828834
0.047169946 -0.009736165 -0.07098961 0.11832659 0.053559754 0.13749744 -0.11007932 -0.013634295
0.046037253 0.020552384 0.04318085 0.07000298 0.09087195 0.012031858 0.007396066 -0.046211407
0.0044622724 0.07001203 0.14801735 -0.12987463 -0.10894471 -0.099255614 -0.037553065 0.00031490333
-0.01560656 0.0049542063 0.015950592 0.15767713 -0.016231483 0.17119111 0.083408825 0.0948039
0.03286725 0.016164256 0.010458732 0.057536334 -0.022618782 0.048840746 0.022048796 -0.08201132
-0.03200857 -0.042473163 0.0927752 0.12994646 0.08211803 0.06722978 -0.103614464 -0.07567268
-0.07606363 -0.0132042095 0.0405259 -0.08571088 -0.07042999 -0.048397247 0.09908724 0.084140874
-0.08375199 -0.07327473 0.04073062 0.08650768 -0.098273575 -0.016764367 0.012320317 -0.12310796
0.21652807 0.04013703 -0.2113364 0.06835607 -0.10447765 -0.17625526 -0.12801842 0.027399724
-0.029465131 0.09547782 0.0039563417 -0.03541655 0.09311216 -0.021727096 -0.011493051 0.06297415
0.032638706 -0.108987935 0.004084939 -0.08790086 0.0068950946 0.18373875 -0.04548697 0.10278171
0.04572831 -0.08926264 0.023677973 -0.012534221 -0.19443324 0.009984717 -0.048659224 0.10517189
0.22719136 -0.049577594 0.051975887 0.106285825 0.026632544 0.0011768857 0.057048637 0.07626827
0.097338885 -0.0785496 -0.11950305 -0.049850598 -0.019968232 0.018550716 0.023239197 -0.0391951
-0.033584036 -0.022547519 0.16765879 0.026412975 0.15219177 -0.009727138 0.017717592 0.31134188
0.067535445 0.11254463 -0.14714378 -0.043792978 -0.080588795 0.045645572 0.19224356 -0.08060718
-0.022255119 -0.14032964 0.052853122 -0.028659288 -0.040640686 0.011948117 -0.07347752 0.1479817
0.1259324 -0.002512526 0.043640032 -0.07671898 0.038522832 -0.06276408 0.008283037 0.013937692
0.038756084 -0.10766493 0.1469282 0.07330289 -0.0054122815 0.039643608 -0.053159315 0.03205035
-0.099720255 0.07629889 0.027043236 0.047710367 -0.101354055 -0.14288414 -0.028114414 -0.143963
-0.110526346 -0.0060060187 0.042121686 -0.09833826 -0.09630966 -0.06590401 -0.00445785 -0.17593801
-0.180531 -0.16816776 0.11282297 0.07272094 -0.009678518 0.10776934 0.08303642 -0.11383236
0.016686397 -0.031601977 0.1104394 -0.026772225 0.08895671 0.053222302 0.030629719 -0.1828438
-0.07709486 0.108747214 0.04486153 0.020631805 0.0138875125 0.08448691 0.022444252 -0.03518841
-0.11188833 0.06160076 -0.09200714 -0.0021939916 -0.10889979 -0.07802251 -0.034938898 -0.09452254

network_body._body_endoder.seq_layers.2.bias f4 [128]
00000000: 81e7 15bc a70f 623c 2e0b e6bb 08c0 913b
00000010: 0b9d b53b 9b46 e0bb 8294 afbc 75b5 76bc
00000020: c426 81bc c1a1 4ebc 3e04 073c e6cc 4bbb
00000030: 4b00 80bb 5936 603a 4e98 26bb 1b5b 86bc
00000040: 9b99 71bc 243b 36bb 3eb6 173c cf78 063c
00000050: 2efb 963c 0a8d ae3b 37e4 843b e89e ad3c
00000060: c58d 9fb9 409c b13b 8190 9e3c a40c 243c
00000070: a485 e0bc 1914 da3c 5c01 eb3b c380 26bc
00000080: 4552 4fba 99c2 653c 0d7e e03b babd b83b
00000090: c7a4 f13c 48c4 fa3c c336 043b d6a1 763b
000000a0: 576c efbb aca2 803c 7120 413c fb65 013c
000000b0: 674f b33b 4db8 f538 b5af 133a 2e1c 1e3b
000000c0: 872a d33c bc7b 213c 2edb bd3c 012e d83c
000000d0: 9752 08bb 26a4 bc3c 7eb7 21bc af01 cfba
000000e0: 475e edbb 2d7a 14bc ce49 35bc e33c 083c
000000f0: 72c6 c1bb 9c86 d73b 55d2 9a3b 34eb 753c
00000100: 1c1c e0bc 383e b73a 0788 74bc 5a9f 5fbc
00000110: 7896 423c 6e32 2d3c 9264 44bc 3d08 903a
00000120: cf14 cb3c 044e fc3c 11ff 853c 203e 183c
00000130: 770f 583c dccd 8fbc cd0e 8b3c 50ed a43c
00000140: 7491 183b 3533 f3bb e6e1 973c b9df 8cbc
00000150: be25 f43a ace6 3e3d 436c 8fbb 4b1c 1cbc
00000160: 8333 2e3c cfbd 363c 8797 2f3b 9752 b23b
00000170: b042 90bc 9802 533c 44d0 2abb 9f4d c9ba
00000180: db5a c33b 3a72 be3c 208d 0a3a dd2f 5d3c
00000190: ab32 b43c c9b2 4e3c 29ad 953c 53fd 1cbc
000001a0: 9813 8ebb b500 10bc 933c 26bc 2c84 c93c
000001b0: e3ee 243c 8d38 42bc f376 7f3c 36f2 463b
000001c0: aef9 523c b248 c3bb 1f57 c5bb 2a36 9cbb
000001d0: c0af 373c 7d71 b7bc 4068 7b3b c737 79bc
000001e0: dde2 65bb f3e4 2b3c c5b7 a6bb ab6d 64bb
000001f0: 7086 c83c 7c62 f0bb 4fa9 823b 7ec2 f23b
-0.009149433 0.013797677 -0.0070203757 0.0044479407 0.0055424026 -0.0068443543 -0.021433119 -0.015057911
-0.015765555 -0.012611807 0.0082407575 -0.003109747 -0.003906285 0.00085530203 -0.002542037 -0.016400864
-0.014746095 -0.0027806247 0.0092597585 0.008207514 0.018430319 0.0053268718 0.0040555256 0.021193936
-0.0003043247 0.005420238 0.019356014 0.010012779 -0.027407475 0.026620911 0.007171793 -0.010162535
-0.00079086825 0.0140234465 0.006850964 0.0056378515 0.029497517 0.030611172 0.0020174242 0.0037633083
-0.0073066163 0.015702568 0.01178752 0.007897849 0.005472112 0.00011716839 0.00056337874 0.0024125683
0.025777115 0.009856161 0.023175802 0.026389124 -0.002080118 0.02302749 -0.009870408 -0.0015793348
-0.0072439048 -0.009062332 -0.01106496 0.008315298 -0.005913549 0.006577326 0.0047247806 0.01500969
-0.027357154 0.0013980335 -0.01492501 -0.013648832 0.011876695 0.010571105 -0.011986868 0.0010988783
0.024790196 0.03079892 0.016356977 0.0092921555 0.013187281 -0.017554216 0.016974831 0.02013269
0.0023280056 -0.007421876 0.018540334 -0.017196523 0.0018626971 0.046606705 -0.0043769195 -0.00952823
0.010632399 0.011153652 0.0026793198 0.0054419744 -0.017609924 0.012879036 -0.0026064077 -0.0015358216
0.0059617586 0.023247827 0.00052853115 0.013500181 0.021996817 0.012615868 0.018271046 -0.009581882
-0.004335832 -0.008789231 -0.010146278 0.024599157 0.010066721 -0.011854303 0.015592325 0.0030356771
0.012876911 -0.0059595937 -0.0060223485 -0.004767199 0.011211336 -0.022392983 0.0038361698 -0.015211052
-0.0035077848 0.0104915975 -0.005087825 -0.0034855406 0.024478167 -0.007335959 0.0039874683 0.007408439

action_model._discrete_distribution.branches.0.weight f4 [3, 128]
00000000: e8a6 36bc 742f 84bc 3071 9dbb 7c37 38bb
00000010: 8e92 ee3b 582c 26ba 1306 5c3b fb76 b93b
00000020: 14c3 8d3a 7de6 223c 851f 9ebc c0e9 cc3b
00000030: 1f4f 903a a788 b03b 68a2 163b 07fd 6bb9
00000040: edd6 7bba af78 613a 830f 51bc 9add 60bc
00000050: 7b4b d3bb 0930 393b 6370 9fbb 338f 613d
00000060: 4f76 d6bb c2cf 863c 02ad ce3c 6f01 37bc
00000070: 1013 d53c b1ad 6dbc 87f5 84bb c8df 773c
00000080: c425 f53b 1e69 f93c 047b b43c e30d 4fbc
00000090: aba9 3cbc 21f2 ffbc df8f 4f3c 2678 8aba
000000a0: aa07 a63c b997 8bbc 4eac ac3c f35b 973c
000000b0: e848 9aba 11ee a63c 5f08 173c b053 8d3c
000000c0: 3b2e d7bc ec55 8dba eec0 3cbc ae92 b9bc
000000d0: 3428 ef3b 2179 22bc 7ad1 513c 55a1 343c
000000e0: d6ed 5c3b bdef 18bc b3a6 dd39 f0ed aebb
000000f0: 2223 283c 0f1a c4bb e203 8e3c 3793 fbbc
00000100: 0637 de3b 3401 c03a 6628 27bc 0e20 d73c
00000110: 98bd 173c e38c 563c a351 193b 461d cf3b
00000120: 8838 8fbc c749 bfbc 3968 79bb 0998 d3bb
00000130: 7386 67bc a9da 553c 606f fe3c 02e5 cdbc
00000140: a2fc c43b 35e1 e4bb a21f 033d c551 473c
00000150: 3b37 913c 807b febc 7647 9dbb d243 31bb
00000160: 5f41 083b f140 a6bb 9a66 c33c a2d9 953c
00000170: e708 8cbb d0bd 30bd 9e6d 5c3b 61cf cdbb
00000180: 00cd 4b3c 66e4 e73c d777 56b9 6eea 83bc
00000190: 742b 9cbc 1045 8dbc 5704 0bbb 2508 c23b
000001a0: ae16 f739 9779 373c 9ebd d2bb 7124 21bc
000001b0: 671c 843c bf63 243b f7e2 66bc 026a c2ba
000001c0: 5233 223b 9cea 863c 0394 683b 3b9a b13c
000001d0: 7406 4439 68dd b7bb 885f c73c 6d29 1ebc
000001e0: 392e 373a 4ff9 563c e421 9c3c 03f1 953c
000001f0: f687 23bc b2d9 a53b 5a26 c4bb 9c31 e4bb
00000200: 4c8d 5b3c ab33 0cbc 53b8 103d d833 be3c
00000210: ad41 bcbb 3b82 d3b7 aed8 75bc 05ba 313c
00000220: f87c b03b 4d10 87bb 39aa aa3b cda4 85bc
00000230: 6e5a 19bc 86cf 88bb 49ca ec3b a6b0 1abc
00000240: 3026 9d3a 94d2 d5ba dc46 7a3b 2b51 5e3b
00000250: c0db 01bc 01fa e2bc a8ec ae3c f8e4 01bc
00000260: 381b 5f3b 9c44 a93b 0530 ed3b 506b 8438
00000270: 508c c8ba 6ee0 05bc 45e0 403c 365d 973b
00000280: 1714 7539 0503 faba ba47 f2ba 5db1 803a
00000290: 4826 ee3b b366 b23c 4cd3 b8bc 12ce 59b9
000002a0: b83d afbc b863 29ba 22d0 30bc 91e1 b23c
000002b0: e190 b23b 0dad 14bc 438d dbbc 61cd 7dbc
000002c0: 866c 28bc 76cb 9dbb 7cf9 60bc 64fd 09bc
000002d0: 2907 c7bb 66c2 7abc d18a 843b 5c79 243c
000002e0: cd3b 1a3c b16b ac3b 5712 e6bb 7cda c23b
000002f0: ce18 8bbc fa33 e23b f7b5 303a e8a4 90bc
00000300: 9bdc 8c3c bbd6 f2bb 53e9 2fbc 56e2 443c
00000310: afed 293c eb26 85bb c115 fd3b 1634 143c
00000320: 8a68 23bc be94 72bb 6f45 bdba ee7a b43c
00000330: 13b0 41bc 2779 313c a35b c3bb 653d a83a
00000340: 722b f2bb 73ac d83b 06c8 53bc 4fff 7dba
00000350: a65f d4bc e414 b3ba 5854 453c 37f4 08bc
00000360: 2a50 0e3a 7135 b33b 492b bd3c 480c 6bbb
00000370: 0125 f4ba 3ad3 ddbc 025c 9f3c 9f0f cfbc
00000380: 36c5 25bc 3cf9 40bb e7c7 43bb ae76 f83b
00000390: 5395 9a3b d74e 92bc 5eae 133d 6ed5 523b
000003a0: 71c3 3dba ddd1 043b 6719 863c 19ed adbb
000003b0: fc52 68bb 2b09 58bc e3aa b63a 4f72 83bc
000003c0: f244 b13b 7fae 0bbc 8e15 a33c 6cf5 d13c
000003d0: 858d 8abc 5233 6ebb 4bcd 82bc 5768 fab9
000003e0: da44 993c 8552 24bc 6c3a 38bc 1547 f7bc
000003f0: 13cb 893a 44a5 50bc 8fd0 c5bb 4bfa 863c
-0.011148192 -0.016135909 -0.0048047528 -0.0028109243 0.0072806543 -0.0006339005 0.0033572956 0.0056599355
0.0010815584 0.009942648 -0.019302139 0.006253451 0.0011009908 0.005387384 0.0022984985 -0.00022505606
-0.00096069166 0.0008601052 -0.012760046 -0.013724709 -0.006448207 0.002825739 -0.0048656925 0.055068206
-0.006544865 0.016456489 0.02522898 -0.011169775 0.026010066 -0.014506743 -0.0040575895 0.015129037
0.0074813087 0.030445632 0.022031315 -0.012637588 -0.011515061 -0.031243386 0.012668579 -0.0010564371
0.020267326 -0.01704012 0.021078255 0.018476462 -0.0011770995 0.02037719 0.009218304 0.01725182
-0.026267162 -0.0010783053 -0.011520607 -0.02265295 0.0072984938 -0.009916575 0.012806291 0.011024793
0.0033711097 -0.009334502 0.00042276605 -0.005338423 0.010262283 -0.0059845517 0.017335836 -0.030709846
0.0067814616 0.0014648796 -0.010202503 0.026260402 0.009261511 0.013095113 0.0023394607 0.0063206283
-0.01748301 -0.02335061 -0.0038056506 -0.006457333 -0.014131176 0.013052621 0.031058967 -0.025133613
0.0060115615 -0.0069848546 0.03201259 0.0121654915 0.017726531 -0.031064749 -0.0047997786 -0.002704848
0.0020790917 -0.0050736596 0.023852635 0.018292252 -0.004273522 -0.04314977 0.0033634673 -0.006280825
0.0124390125 0.028307151 -0.00020453274 -0.016102996 -0.019063689 -0.017244846 -0.0021212304 0.005921381
0.0004712841 0.011198423 -0.0064312955 -0.009835348 0.016126825 0.0025083867 -0.014092199 -0.0014832618
0.0024749828 0.016469292 0.0035488612 0.021679988 0.0001869442 -0.0056111105 0.024337545 -0.009653431
0.00069877837 0.013120963 0.019059129 0.0183034 -0.009981146 0.0050613517 -0.005986017 -0.0069639217
0.013400387 -0.0085572405 0.035332035 0.02321808 -0.005745134 -2.5213803e-05 -0.015005274 0.010847573
0.005385991 -0.0041218163 0.0052082804 -0.016313935 -0.009359939 -0.0041751293 0.0072262627 -0.00944153
0.001198953 -0.0016313368 0.0038189208 0.0033922892 -0.007925928 -0.027707102 0.02135308 -0.007928126
0.0034043323 0.0051656496 0.0072383904 6.314239e-05 -0.0015300605 -0.008171184 0.01177222 0.004619266
0.00023372505 -0.0019074386 -0.0018484511 0.0009818483 0.007267747 0.021777486 -0.022561692 -0.000207715
-0.021391734 -0.00064616976 -0.01079181 0.021836074 0.0054494 -0.009074462 -0.026800757 -0.015490861
-0.01027978 -0.004815514 -0.013731357 -0.008422229 -0.0060738516 -0.015305137 0.0040448685 0.0100387
0.009413672 0.0052618613 -0.0070212292 0.0059464555 -0.016979601 0.0069031687 0.0006740982 -0.017656758
0.017195037 -0.007410852 -0.010736781 0.012016853 0.01037161 -0.0040634773 0.0077235405 0.009045621
-0.0099736545 -0.0037014927 -0.0014440248 0.022031274 -0.0118217645 0.010832108 -0.0059618517 0.001283568
-0.007390433 0.0066123544 -0.012926107 -0.0009689228 -0.025924515 -0.0013662842 0.012044035 -0.008359007
0.00054288155 0.005469017 0.023091929 -0.0035865474 -0.0018626751 -0.02707826 0.019453052 -0.025276003
-0.0101178195 -0.002944543 -0.002987379 0.007582507 0.004717508 -0.01785986 0.03605496 0.003217067
-0.0007238901 0.002026669 0.016369535 -0.0053078053 -0.0035449853 -0.01318578 0.0013936426 -0.016045718
0.0054098302 -0.00852549 0.019907739 0.025629722 -0.016913185 -0.0036346507 -0.015967032 -0.00047761455
0.018709589 -0.01002944 -0.011244398 -0.030185262 0.0010512791 -0.012734715 -0.006036825 0.01647677

action_model._discrete_distribution.branches.0.bias f4 [3]
00000000: fde0 0abc bbbe 23bb 7d5a 6c3c
-0.008476493 -0.002498551 0.014425871

exp_avg f4 [128, 150]
00000000: 7810 0a14 6a63 a010 4021 b392 7e04 6b91
00000010: 5730 2b92 50cd 0814 ac9f a210 f29b 9f92
00000020: 680d 6e92 2a31 2b92 098d 0514 bfec 9710
00000030: 523d 1993 aa77 fc92 f930 2b92 01ba fb13
00000040: e1be 8410 2aa2 4793 b940 6992 6b30 2b92
00000050: 79f4 ee13 6220 5910 1840 9e93 9e9a d392
00000060: 1c2e 2b92 727b f213 7ef1 8310 96ba 5493
00000070: ef8e 6692 5d2b 2b92 7abb ee13 7ad2 7810
00000080: 5fa8 5a93 0e61 3e93 0c28 2b92 7dfe e813
00000090: b046 4610 6835 8893 6803 4193 8226 2b92
000000a0: 77df dc13 a991 0610 3ca7 a893 e0c8 5593
000000b0: d324 2b92 ef96 d413 493b b70f 4d93 a393
000000c0: 9384 1793 a927 2b92 d0ee c6b9 1fb5 a934
000000d0: db53 aab9 476a 8ab9 0108 cf37 038c 9dba
000000e0: a78c 72b7 f800 8bba 9e37 80ba 4c12 a438
000000f0: 4b1c abba 9ccf 91b7 30d4 56ba 7297 b4ba
00000100: 8b32 b338 21b5 83ba 5f98 2936 ffd8 1c38
00000110: 3eb6 b7ba 7d8c 8738 4632 6fba c39b 44b4
00000120: 32ee b139 3b9c 95ba f640 7038 959c bdba
00000130: a7f9 f1b6 de6c 853a 5377 e3ba 3fb7 c638
00000140: 06f1 22ba 9339 9c36 0c30 9d3a a901 23ba
00000150: 6add 3538 3a0e 18ba 72d6 8e36 f1fe ae3a
00000160: aebd f4b9 dcb6 4038 ca4c 16ba b496 6037
00000170: f256 e03a 5c4d f3b7 94e3 6938 10a3 f8b9
00000180: 0334 af37 75c5 cb3a 4533 d239 e478 4238
00000190: 3bc2 29ba acfb d137 11f4 923a c923 a93a
000001a0: 4f75 6c38 b79a 19ba eb0a e537 0ba6 e939
000001b0: 184c db3a ffec 5738 9b7f 22ba c201 fb37
000001c0: 794b b6b7 bb98 d53a ed46 6538 44af 7cba
000001d0: ec1a 1638 68df 1ab9 617c f43a fcff a638
000001e0: 8fce a1ba 130d 1538 6fd8 1dba 4fa0 083b
000001f0: 4c09 d438 3977 b0ba 57a2 dc37 2f13 90ba
00000200: 33c2 f83a aae2 db38 258a b5ba 3394 d937
00000210: f8f0 e2ba d4cc a63a 6b58 e738 d701 bcba
00000220: bfcd e837 af5b 04bb 9dd4 413a e1a7 e838
00000230: 2b68 f2ba 8f24 4cb7 3a95 2abb 283c df38
00000240: 850e 0e39 2afe f3ba 207a 45b7 7c6d 32bb
00000250: e334 89b9 4a44 0e39 8847 2314 b1e8 3790
00000260: 569f 8111 2ef5 1a92 a00f 3492 0353 2014
00000270: 6ca9 4290 b07a ac11 8c9c e691 900f 3492
00000280: 821e 1e14 6331 6790 572d 5910 c552 2f92
00000290: 6d0f 3492 2cb5 1914 02c4 8790 fa52 1b12
000002a0: cce7 b290 a3ef 3392 9cea 1314 0b13 9e90
000002b0: e9d2 cd90 e8bf 1f92 efef 3392 f380 1314
000002c0: b501 9790 c846 4811 0a8f c212 f2ee 3392
000002d0: a220 0f14 2e99 9c90 0405 aa91 7ea7 6a12
000002e0: a4e9 3392 a2c3 0d14 2ebb 9f90 7cc7 4592
000002f0: 62e2 a612 4ae5 3392 64ad 0914 9ae7 aa90
00000300: 5b24 d092 b189 8412 a8e5 3392 7ac1 0514
00000310: bb2c b190 28b1 0993 a0ab 1513 d3e3 3392
00000320: 872d 7ab9 9e4c b236 f15c f837 d4bf 03b9
00000330: 94e8 8337 51d1 37ba 463d 27b6 96e2 b3b9
00000340: f5b0 b9b9 0f57 4738 8b76 52ba 3363 09b6
00000350: 3d61 2bb9 5787 10ba 234b 6738 73f2 30ba
00000360: b115 af36 f5ae 3639 64b5 2fba 4d56 4638
00000370: 1848 05ba ccd0 1336 755a b638 1748 b1b9
00000380: 7d97 0d38 a0fb 5aba b9e4 ff34 9e0e f039
00000390: 1741 2fba 8aae 6b38 0107 b9b9 3b95 e6b5
000003a0: c985 393a 6492 2439 05ef df37 813e 8bb9
000003b0: 248c 7fb6 8408 fe38 18b4 fc39 2886 8637
000003c0: a138 c238 87e5 2eb6 139e dcb9 5819 383a
000003d0: 3ef2 5bb7 db81 b838 1d6e 28b6 7486 51ba
000003e0: 740d 083a 51ce 7eb7 02b6 52b8 f8fb 92b6
000003f0: 85b0 8cba 5a50 e439 9f7d d4b6 44cc 7bb8
6.9704674e-27 6.3262044e-29 -1.1304685e-27 -1.8539616e-28 -5.401767e-28 6.906736e-27 6.4143747e-29 -1.0072754e-27
-7.5116083e-28 -5.4018685e-28 6.742598e-27 5.9923763e-29 -1.9341548e-27 -1.5932935e-27 -5.401845e-28 6.354472e-27
5.2358915e-29 -2.5197284e-27 -7.3601613e-28 -5.4017766e-28 6.0320715e-27 4.282065e-29 -3.994801e-27 -1.3354088e-27
-5.401492e-28 6.1211115e-27 5.2042467e-29 -2.6850156e-27 -7.2751383e-28 -5.4011535e-28 6.0264513e-27 4.907152e-29
-2.7598482e-27 -2.4029223e-27 -5.4007448e-28 5.881598e-27 3.910307e-29 -3.438389e-27 -2.4361704e-27 -5.400555e-28
5.575616e-27 2.6539053e-29 -4.257407e-27 -2.6983419e-27 -5.4003475e-28 5.3665156e-27 1.8068029e-29 -4.1292235e-27
-1.9124244e-27 -5.400697e-28 -0.00037943432 3.1610486e-07 -0.00032487404 -0.00026400594 2.468005e-05 -0.0012019876
-1.4457072e-05 -0.0010605147 -0.00097822 7.8235375e-05 -0.0013054697 -1.7382023e-05 -0.00081950705 -0.0013778044
8.5447995e-05 -0.0010048487 2.5271654e-06 3.739539e-05 -0.0014016104 6.4634696e-05 -0.0009124618 -1.8310588e-07
0.0003393754 -0.0011414358 5.728096e-05 -0.0014466221 -7.211423e-06 0.001017954 -0.0017354287 9.475508e-05
-0.0006215725 4.655865e-06 0.0011992468 -0.0006218204 4.335997e-05 -0.000580046 4.2568945e-06 0.0013351125
-0.0004668063 4.594667e-05 -0.00057334884 1.3386529e-05 0.0017115755 -2.900388e-05 5.5763478e-05 -0.00047423737
2.0885846e-05 0.0015546518 0.0004009252 4.6365793e-05 -0.0006475781 2.5031935e-05 0.0011211653 0.0012904342
5.6376037e-05 -0.0005859541 2.7304011e-05 0.00044564935 0.0016731052 5.1480714e-05 -0.0006198824 2.992235e-05
-2.1731235e-05 0.0016296128 5.466391e-05 -0.0009639154 3.578786e-05 -0.0001476981 0.001865279 7.9631776e-05
-0.0012344884 3.5536545e-05 -0.0006021326 0.0020847504 0.000101106794 -0.0013463265 2.6301639e-05 -0.0010992045
0.0018978774 0.00010484953 -0.0013850374 2.5937426e-05 -0.0017314246 0.0012725838 0.000110314075 -0.001434381
2.7752363e-05 -0.002019625 0.00073940476 0.00011093892 -0.0018494179 -1.21678595e-05 -0.0026028887 0.000106446736
0.00013547584 -0.0018615176 -1.17705495e-05 -0.0027225902 -0.0002617008 0.00013567615 8.243504e-27 -3.6269645e-29
2.045081e-28 -4.889604e-28 -5.6817244e-28 8.094307e-27 -3.8390272e-29 2.7212427e-28 -3.638408e-28 -5.6817167e-28
7.982978e-27 -4.5594763e-29 4.2830633e-29 -5.5322285e-28 -5.6817e-28 7.760256e-27 -5.355011e-29 4.9011653e-28
-7.056576e-29 -5.6777816e-28 7.467872e-27 -6.234935e-29 -8.11832e-29 -5.0408096e-28 -5.677818e-28 7.447034e-27
-5.956163e-29 1.5799029e-28 1.2278383e-27 -5.6776964e-28 7.226091e-27 -6.176716e-29 -2.6824362e-28 7.404383e-28
-5.6770425e-28 7.1572626e-27 -6.300284e-29 -6.2408123e-28 1.05318805e-27 -5.676506e-28 6.950928e-27 -6.7410016e-29
-1.3135608e-27 8.364315e-28 -5.6765514e-28 6.7529405e-27 -6.988311e-29 -1.7379176e-27 1.8891062e-27 -5.6763256e-28
-0.00023858818 5.313733e-06 2.9607183e-05 -0.00012564595 1.572472e-05 -0.00070120866 -2.4920605e-06 -0.0003431036
-0.00035417793 4.7526377e-05 -0.00080285285 -2.0472332e-06 -0.00016344055 -0.0005513331 5.514467e-05 -0.0006749995
5.2179316e-06 0.00017422049 -0.00067027495 4.7287253e-05 -0.000508429 2.2026243e-06 8.695285e-05 -0.00033813782
3.3758104e-05 -0.0008353535 4.766387e-07 0.00045787258 -0.00066854194 5.619092e-05 -0.00035291168 -1.7179767e-06
0.00070771255 0.00015694794 2.6694974e-05 -0.00026558715 -3.8079534e-06 0.0001211325 0.00048199366 1.6036516e-05
9.261189e-05 -2.6061623e-06 -0.00042079444 0.00070228195 -1.3109819e-05 8.797991e-05 -2.5098045e-06 -0.00079927524
0.0005189993 -1.5187617e-05 -5.023741e-05 -4.380472e-06 -0.0010733759 0.00043547415 -6.3327166e-06 -6.00333e-05

exp_avg_sq f4 [128, 150]
00000000: d851 6236 54d8 6b30 d084 6234 b814 6f34
00000010: 33ba 8632 a66d 6136 14d6 6a30 a1cf 7c34
00000020: 2051 6b34 d3b7 8632 3a98 6036 284f 6b30
00000030: 8158 9634 a63e 7b34 93be 8632 f092 5e36
00000040: 1262 6a30 ab63 a534 b857 7334 d0bb 8632
00000050: 9c14 5d36 0c3c 6630 b78c 9734 ed56 8b34
00000060: cbb5 8632 0549 5c36 888f 6030 35b4 8334
00000070: 975f 9934 7abd 8632 19b1 5b36 787e 5a30
00000080: faa7 6f34 a6ca 8234 2ac6 8632 4801 5c36
00000090: 94e7 5330 e6d7 5034 dd91 4a34 20c7 8632
000000a0: 3a9f 5a36 e652 4e30 24cd 4b34 7a6e 4334
000000b0: 49cc 8632 e9ef 5a36 2f1a 4a30 19de 4634
000000c0: 80be 6334 c1cb 8632 174c 8036 d9fe aa30
000000d0: dc35 2d35 8fa5 2235 b062 9c32 9f13 9536
000000e0: c383 eb30 47cf 6b35 0949 ab35 b22f b432
000000f0: 74b0 9f36 2c96 0931 9f6d 5435 b78b 0c36
00000100: 968d c032 3bd0 c536 e1b7 2531 6118 9335
00000110: 8559 9336 1dbe f232 1c78 ec36 4a66 2b31
00000120: b0cb 0236 094f de36 b994 1333 1edd 0537
00000130: fbaa 1531 c49e 9136 d9fd f636 65a3 2b33
00000140: 35f1 1837 e2a7 ec30 4f5d 1337 3123 df36
00000150: 545b 4a33 72c4 2c37 c001 c230 710f 6e37
00000160: f551 b836 69e9 6f33 50e8 3737 0c95 af30
00000170: b64b 9537 73ec 9136 ee56 8433 1482 3b37
00000180: dd5d e630 821b 9137 37d2 b736 a4c4 8b33
00000190: 57c0 4137 0d92 3b31 c5aa 6b37 6d5a 1c37
000001a0: fa4a 9433 866e 4837 bb42 8f31 8306 2037
000001b0: 65f3 6c37 b686 9b33 5fae 5137 ba05 d231
000001c0: c0d4 cb36 22ca 9937 0597 a433 bc03 5c37
000001d0: 9a1b 1032 74f1 a136 859a a937 db71 ae33
000001e0: 4acb 7037 a19d 3a32 97ac ca36 ca4d b237
000001f0: 7a42 c033 a616 8837 6b3e 7932 52a8 3637
00000200: 1c57 9e37 f012 d633 3ee0 8a37 50f4 8c32
00000210: 284c 8837 93cb 5a37 a96e d733 3eff 8d37
00000220: 8aa2 9932 07a2 b037 c326 0d37 80a0 dc33
00000230: 80cc 9737 ba39 ad32 273c cd37 a216 cd36
00000240: 1a4c e933 d869 9937 7645 aa32 76b2 c537
00000250: f940 d936 d62d ea33 f26c b735 fb06 a32f
00000260: d298 0734 52c2 1834 9b91 dc31 25b9 b635
00000270: bdc0 a32f e5f7 1834 0b87 0834 779d dc31
00000280: 36b7 b535 0f06 a52f 62a7 2e34 27f5 f733
00000290: ce9c dc31 782a b435 8b04 a42f c330 4434
000002a0: d220 ee33 0b19 dd31 dbee b235 7d19 a12f
000002b0: 5053 3e34 68b9 fd33 0016 dd31 3f81 b235
000002c0: 480f 9a2f d56a 3134 e6bc 0834 ea1b dd31
000002d0: d5ec b135 425f 942f 5376 2134 5d2e 0734
000002e0: b32f dd31 ce9c b135 a195 902f e0f5 1234
000002f0: a8af 0a34 c33f dd31 dbd3 b035 0022 8e2f
00000300: b1cd 0934 5d44 1934 3b3f dd31 a43f b135
00000310: a713 8c2f 2a8c 0a34 2beb 2234 4346 dd31
00000320: 10eb ca35 6364 e72f aacd a234 056d 9a34
00000330: 10a1 fc31 9831 ea35 9a19 2b30 b7bc d734
00000340: 137e 0c35 97ca 1032 ae3e ff35 6708 4830
00000350: d697 e034 ec6d 6935 a44b 1e32 ed4f 1a36
00000360: 666f 8030 c2bd 4635 755b d735 218e 4d32
00000370: 8a69 3436 ced1 8930 b46c ca35 3d3c 1536
00000380: 0907 8032 bcfa 5936 07df 8730 7e17 3c36
00000390: ccae 3036 b75b a432 6a17 7b36 2afc 7e30
000003a0: 785f 9536 c4ca 3136 3157 c832 f4a5 9336
000003b0: ff49 9b30 e208 dd36 f212 4b36 bb53 0033
000003c0: 9140 aa36 3921 ca30 be49 0837 5835 7f36
000003d0: bcbc 1d33 dc38 b436 6844 fd30 ea1d 0d37
000003e0: 5d96 9536 099d 2f33 ae99 c236 3c76 3331
000003f0: 467d 0737 4093 c936 52b3 4533 a907 d236
3.3724264e-06 8.579992e-10 2.1096207e-07 2.2266147e-07 1.5684327e-08 3.3591436e-06 8.543293e-10 2.3544864e-07
2.1915594e-07 1.5683247e-08 3.3467209e-06 8.560499e-10 2.8004072e-07 2.3398988e-07 1.5686316e-08 3.3166107e-06
8.526807e-10 3.0806163e-07 2.266305e-07 1.568506e-08 3.2943562e-06 8.3758844e-10 2.8228325e-07 2.5954014e-07
1.5682323e-08 3.2825058e-06 8.1694695e-10 2.453177e-07 2.8568022e-07 1.5685817e-08 3.2736627e-06 7.948766e-10
2.2319719e-07 2.4361833e-07 1.5689768e-08 3.27833e-06 7.7090445e-10 1.9450053e-07 1.8865781e-07 1.5690205e-08
3.2577213e-06 7.506017e-10 1.8980478e-07 1.8200981e-07 1.5692551e-08 3.2624177e-06 7.352438e-10 1.8520986e-07
2.1210326e-07 1.569231e-08 3.8235553e-06 1.244156e-09 6.45259e-07 6.059062e-07 1.8205668e-08 4.4428302e-06
1.7135949e-09 8.784595e-07 1.2761749e-06 2.0976447e-08 4.759111e-06 2.0021487e-09 7.9135674e-07 2.094295e-06
2.2416128e-08 5.8952987e-06 2.4115183e-09 1.0959449e-06 4.391363e-06 2.8258961e-08 7.0473307e-06 2.494192e-09
1.9490071e-06 6.6253165e-06 3.4361367e-08 7.978901e-06 2.1779545e-09 4.3398195e-06 7.360923e-06 3.9962647e-08
9.116066e-06 1.7218975e-09 8.783608e-06 6.6500147e-06 4.7114852e-08 1.0297737e-05 1.4115855e-09 1.4189501e-05
5.4931684e-06 5.585881e-08 1.09617395e-05 1.2775287e-09 1.779744e-05 4.348863e-06 6.1625414e-08 1.1176355e-05
1.676138e-09 1.7298156e-05 5.478297e-06 6.5084606e-08 1.1548479e-05 2.7295102e-09 1.4046852e-05 9.3193785e-06
6.905425e-08 1.1946662e-05 4.169434e-09 9.538259e-06 1.4123366e-05 7.242254e-08 1.249797e-05 6.1124554e-09
6.074639e-06 1.8333147e-05 7.6643154e-08 1.3113891e-05 8.388179e-09 4.8262827e-06 2.0218324e-05 8.1232166e-08
1.4352447e-05 1.0862466e-08 6.040161e-06 2.1255477e-05 8.952789e-08 1.622301e-05 1.45079e-08 1.08872355e-05
1.8875631e-05 9.968596e-08 1.6555303e-05 1.6409246e-08 1.6247926e-05 1.3041211e-05 1.00318466e-07 1.6927366e-05
1.7885458e-08 2.1056285e-05 8.41328e-06 1.0273743e-07 1.809583e-05 2.0166102e-08 2.4465915e-05 6.112111e-06
1.0863751e-07 1.8288309e-05 1.9822192e-08 2.3567332e-05 6.4746678e-06 1.09048116e-07 1.366627e-06 2.9654487e-10
1.262845e-07 1.4226796e-07 6.419396e-09 1.3613941e-06 2.9786476e-10 1.4246287e-07 1.2715115e-07 6.4207444e-09
1.3538872e-06 3.001763e-10 1.6265906e-07 1.1546427e-07 6.4206693e-09 1.3423405e-06 2.9834654e-10 1.8271662e-07
1.10887086e-07 6.4347936e-09 1.333155e-06 2.930384e-10 1.7725438e-07 1.1814956e-07 6.4344476e-09 1.3299649e-06
2.8023295e-10 1.6523275e-07 1.2734708e-07 6.43512e-09 1.3256455e-06 2.6988728e-10 1.503734e-07 1.2589722e-07
6.4373693e-09 1.3233164e-06 2.6299765e-10 1.3686758e-07 1.2916155e-07 6.4391954e-09 1.317468e-06 2.5853808e-10
1.283395e-07 1.4274106e-07 6.439135e-09 1.320605e-06 2.5479815e-10 1.2903243e-07 1.517298e-07 6.4399344e-09
1.5118585e-06 4.2089984e-10 3.0324492e-07 2.8764057e-07 7.352476e-09 1.7448792e-06 6.224582e-10 4.018418e-07
5.2337526e-07 8.427967e-09 1.9017223e-06 7.2771517e-10 4.1833727e-07 8.695922e-07 9.214009e-09 2.2994311e-06
9.344887e-10 7.403688e-07 1.6045366e-06 1.1964887e-08 2.6883522e-06 1.0027692e-09 1.508181e-06 2.2237793e-06
1.490436e-08 3.2481466e-06 9.885931e-10 2.8027857e-06 2.632779e-06 1.913382e-08 3.7415543e-06 9.276301e-10
4.45166e-06 2.649308e-06 2.3322714e-08 4.400261e-06 1.1298765e-09 6.5873473e-06 3.0260385e-06 2.9878475e-08
5.0739113e-06 1.4706877e-09 8.123401e-06 3.8029011e-06 3.6726064e-08 5.3710373e-06 1.8427615e-09 8.41122e-06
4.4580506e-06 4.0888185e-08 5.799541e-06 2.6115137e-09 8.0757945e-06 6.007409e-06 4.6030728e-08 6.2593795e-06

exp_avg f4 [128]
00000000: 4844 8e38 ce6a 7738 defb 0db8 9318 23b8
00000010: 04cd 90b8 7195 4738 559e 8638 95b6 9cb7
00000020: 7b90 9f38 ab52 61b7 53e4 0c39 dc85 00b9
00000030: 8305 17b8 64b6 01b9 ebae 23b8 d6aa 0539
00000040: 2eb8 4836 e5c4 98b8 9182 2638 d177 91b8
00000050: 48d7 1c38 130f a7b7 0f62 c4b8 33b7 04b8
00000060: 3978 7838 edd2 42b9 f202 dbb8 7aaa 78b8
00000070: ba17 2138 ad3f 18b7 5384 fcb7 27c6 64b7
00000080: 3f7d bdb7 9a56 88b8 8e84 dd38 0ad5 fdb8
00000090: 2d65 bfb8 4ca0 4238 364d 6139 eba5 0d38
000000a0: 26ae 1638 ce7a 27b9 111e eab5 d44a 6037
000000b0: e760 54b7 24cd cdb7 ebac 05b8 3734 ec38
000000c0: 2eb9 0239 cac3 8838 76c0 7336 71e9 2bb8
000000d0: 9447 7637 4feb 4438 5df3 50b8 ca3d ba38
000000e0: 96df 1bb8 6da7 4db5 e50c edb8 25e8 6837
000000f0: c94a 0d39 9270 f1b7 6862 66b8 27c6 01b8
00000100: 999b e838 0879 a5b9 fcd7 dc36 e05b a9b8
00000110: 8e9e 3ab8 0d14 5937 0349 70b7 d2ce 6539
00000120: 2191 36b8 cf94 5e37 8159 a838 5c3b 8938
00000130: 5784 a638 c7c7 b838 4f13 8db8 2e4f b437
00000140: fcf0 9eb8 824c edb7 b29b 21b9 3819 0739
00000150: b156 eeb8 c625 6bb9 8483 bdb8 7f18 3438
00000160: d4a5 8b38 bd6b f1b8 2251 2836 bf01 03b7
00000170: 2c72 10b7 9c08 13b9 c8e5 23b8 1e18 bfb8
00000180: b1b5 afb7 c8cd 07b9 4151 8eb8 0c3e 2538
00000190: baf6 0ab9 271e 0739 808c d2b6 fd6d c4b7
000001a0: c51a 9bb8 812f 8eb8 520b 3939 94a7 96b8
000001b0: 9db7 3cb8 800f dcb7 5f23 d2b6 1897 eab8
000001c0: 435c 2837 8538 3a38 cfdd 8c38 3569 1438
000001d0: e93c 4538 d77f 8a38 64e8 dd38 a3d2 9fb8
000001e0: 17d3 42b8 fdd6 be36 9b1a 2fb8 2996 ff38
000001f0: 4cb5 0e38 870c 6bb8 bdf6 c137 db89 a937
6.783806e-05 5.898886e-05 -3.385159e-05 -3.8885115e-05 -6.904642e-05 4.7584475e-05 6.4191096e-05 -1.868167e-05
7.6086224e-05 -1.3430293e-05 0.00013436498 -0.00012256898 -3.600634e-05 -0.00012370344 -3.9025133e-05 0.0001274751
2.990953e-06 -7.284599e-05 3.9699084e-05 -6.936456e-05 3.7393795e-05 -1.991497e-05 -9.364273e-05 -3.164187e-05
5.9239774e-05 -0.00018579858 -0.000104432824 -5.9286576e-05 3.840749e-05 -9.074732e-06 -3.010236e-05 -1.3635995e-05
-2.2588878e-05 -6.501116e-05 0.000105627914 -0.00012103662 -9.126435e-05 4.6402492e-05 0.00021486435 3.3771543e-05
3.5924975e-05 -0.0001597211 -1.7443109e-06 1.3368863e-05 -1.26587465e-05 -2.453343e-05 -3.1870713e-05 0.00011263083
0.00012466751 6.521454e-05 3.6321849e-06 -4.0986986e-05 1.4679408e-05 4.694919e-05 -4.9817714e-05 8.88068e-05
-3.716311e-05 -7.661209e-07 -0.000113034424 1.3882328e-05 0.00013474668 -2.8781858e-05 -5.492792e-05 -3.094054e-05
0.000110916044 -0.00031561428 6.581655e-06 -8.075661e-05 -4.449352e-05 1.2938876e-05 -1.4322114e-05 0.00021916188
-4.3527343e-05 1.3266878e-05 8.027536e-05 6.5437256e-05 7.940147e-05 8.811015e-05 -6.7270004e-05 2.1494543e-05
-7.578914e-05 -2.8288228e-05 -0.00015412158 0.00012883998 -0.00011364872 -0.00022425418 -9.036719e-05 4.2938158e-05
6.6589244e-05 -0.00011511843 2.5081176e-06 -7.808615e-06 -8.609652e-06 -0.0001402222 -3.907623e-05 -9.112082e-05
-2.0946232e-05 -0.00012951263 -6.7862224e-05 3.939685e-05 -0.00013252618 0.00012885836 -6.274844e-06 -2.3416238e-05
-7.395962e-05 -6.779936e-05 0.00017647192 -7.183771e-05 -4.4993696e-05 -2.6233261e-05 -6.2626054e-06 -0.00011186133
1.0035062e-05 4.4398494e-05 6.717035e-05 3.538393e-05 4.7025187e-05 6.604165e-05 0.00010581387 -7.620945e-05
-4.6449797e-05 5.687469e-06 -4.174803e-05 0.00012187317 3.4024284e-05 -5.6040033e-05 2.312229e-05 2.0210564e-05

exp_avg_sq f4 [128]
00000000: d82d ea32 4d4c 0d33 fc61 0533 9067 8e32
00000010: 6d5f 5d33 e7aa 9632 ca1d 1833 25bb e531
00000020: b9e0 5b32 fef0 ce31 4b46 0f33 8e50 4133
00000030: fcc5 4131 cdf4 2b33 183a 9e32 6c29 4333
00000040: a204 9831 d9c7 0533 1d53 7f31 41ad ea32
00000050: d239 9a31 893d 2c33 a6a9 e232 341d 9532
00000060: f5e3 6232 1604 cc33 15ab 6133 29a6 3033
00000070: a09b c931 8515 b031 fbeb f531 6243 3c32
00000080: 079b 8232 d4ab c031 b7fb 0233 a252 0433
00000090: 28c4 5432 7846 8d32 f434 8f33 f015 3233
000000a0: 8d40 4632 519c 8533 4799 b531 98fc 9b32
000000b0: a728 f431 573d 4132 e010 7732 ace7 db32
000000c0: 2143 6e33 1781 3f32 9101 4331 2e7a 4c32
000000d0: f018 9031 273f 6632 3d0f 7e32 d457 1f33
000000e0: c597 cd32 7a08 e131 fa0c 2533 2e0e 0d32
000000f0: d031 5b33 c392 5732 c605 c031 d6ef b831
00000100: d4ee e032 1b02 1c34 2e00 eb32 1656 9932
00000110: ec5e ac31 e797 0d32 1d49 2a32 7d32 6e33
00000120: e84f de31 4c6d b931 a7c5 e032 8c49 bb32
00000130: 28b6 2333 ec8b e233 87ba 2633 1259 6631
00000140: 5839 c732 b380 5331 2af4 db32 a3d2 c333
00000150: fd8a 4532 27c6 bd33 1859 e832 b723 a431
00000160: a4df cc32 a21d 7b32 7fc9 a732 52ec de31
00000170: 5884 3532 e0bb f233 028e d532 efdb da32
00000180: b2bf c232 9477 8133 4c4d 4533 888d c332
00000190: 856e a633 de7d ac32 864a cb31 8caf 2e32
000001a0: 207b 1d32 dc3d 1833 e107 5233 1d67 9b32
000001b0: f316 8432 a5e1 b531 e6e3 9b31 b786 c632
000001c0: 8560 5d31 1090 f331 7d42 4b32 48ab 3232
000001d0: b02f 9b31 832e fe32 c6df 1f33 af64 2633
000001e0: aec5 3a32 8a7d c631 f5f7 2b32 8456 b933
000001f0: 65ac da31 9022 a732 fbdc 1e31 1277 e431
2.7262033e-08 3.2898516e-08 3.1055592e-08 1.657807e-08 5.154236e-08 1.7540016e-08 3.541735e-08 6.686053e-09
1.2798574e-08 6.0227867e-09 3.3358713e-08 4.500958e-08 2.8197737e-09 4.0036685e-08 1.8420039e-08 4.543965e-08
4.424309e-09 3.1148236e-08 3.7154628e-09 2.7319972e-08 4.4885633e-09 4.0102837e-08 2.638701e-08 1.7359163e-08
1.3206763e-08 9.5002335e-08 5.2542493e-08 4.1129315e-08 5.8675624e-09 5.1247206e-09 7.1572663e-09 1.0958361e-08
1.520449e-08 5.60747e-09 3.0496917e-08 3.08088e-08 1.2384625e-08 1.6446606e-08 6.6685885e-08 4.1463807e-08
1.1539794e-08 6.221729e-08 5.285219e-09 1.8159241e-08 7.1059563e-09 1.1248026e-08 1.4381129e-08 2.5600308e-08
5.5474747e-08 1.1147015e-08 2.8377125e-09 1.1902143e-08 4.1937867e-09 1.3402121e-08 1.4788211e-08 3.709995e-08
2.3934158e-08 6.5493255e-09 3.842886e-08 8.210504e-09 5.1035215e-08 1.2548017e-08 5.588592e-09 5.382371e-09
2.6185639e-08 1.4529398e-07 2.7357682e-08 1.7850692e-08 5.01665e-09 8.241819e-09 9.911926e-09 5.5459612e-08
6.4701347e-09 5.3966343e-09 2.6166914e-08 2.180311e-08 3.8117065e-08 1.0549397e-07 3.8819532e-08 3.3520036e-09
2.3192726e-08 3.0777698e-09 2.5605988e-08 9.11871e-08 1.14985115e-08 8.837042e-08 2.704887e-08 4.7770885e-09
2.3850426e-08 1.4616861e-08 1.9532989e-08 6.487917e-09 1.0565678e-08 1.13031774e-07 2.4861041e-08 2.5478554e-08
2.2671745e-08 6.028782e-08 4.5937938e-08 2.2765349e-08 7.750081e-08 2.0080673e-08 5.91655e-09 1.0168048e-08
9.166598e-09 3.544652e-08 4.89016e-08 1.8091265e-08 1.5377259e-08 5.293446e-09 4.5370028e-09 2.3111495e-08
3.2214598e-09 7.088609e-09 1.1831273e-08 1.03999085e-08 4.516515e-09 2.9590643e-08 3.7223593e-08 3.8741458e-08
1.0871572e-08 5.7768306e-09 1.0009889e-08 8.630471e-08 6.364234e-09 1.9457076e-08 2.311764e-09 6.64921e-09
