results/ppo/BalanceBall1/BalanceBall1-1216.pt (torch, 160131 bytes, 11 tensors)

network_body._body_endoder.seq_layers.0.weight f4 [128, 16]
00000000: cedb ebbd 16d7 353e 136c b7bd cefa 99bd
00000010: 2bad 383e a71a eabd 0ddb a13d cef3 7c3e
00000020: 1acf 373e ef73 6fbd 69b2 e5bd 7c7b 883e
00000030: 6a8a 163f 8c48 7c3c c3b8 883e 106b 7dbe
00000040: 343c 53be 24e2 9f3e 160b 37bd 0081 bb3e
00000050: 7b3f bbbe 942c 31bf 0c42 b83e 7ec3 353e
00000060: e091 1c3e 4ba0 3fbe 505a b4be 2e0a ac3d
00000070: a17d 223e 9d77 e93c b5c3 903e dd3a 023d
00000080: e41d 873d 05a2 6e3d 1a72 563e ea23 15be
00000090: 5757 413e 9a5f d43e 0390 6cbe be21 c7be
000000a0: 5daa 8ebe 543a 33be 6927 c9be 7469 cb3e
000000b0: 28d7 5abd 3549 703e 499b 51be c33f 78be
000000c0: f13c b23e a47a a83c daf4 96bd c792 ff3e
000000d0: cd86 4a3e 20a9 bfbd 42a0 843a cf71 0b3e
000000e0: 488d 20bd 9b8e 56be c938 23be 55ce a33c
000000f0: 980e ecbe 5df1 73be 1041 8a3c 5590 0bbe
00000100: c29c 62be 924a 853e b902 1f3e ad8f 3fbe
00000110: e81c 03be b806 05bf d6ef 0b3f 36d2 833e
00000120: ac01 2d3e 125a 8a3e 1e5a 913e 2dd1 acbe
00000130: 6160 313d ca94 10be 214b 34be 5c19 34be
00000140: 398d 39bd 4e3e 5ebe b533 753d f570 b33d
00000150: af63 3ebe 147a 1c3d 2a2b bbbd 1381 903e
00000160: a7b7 893d fbac 08bd 10fb 75be f2ef 1a3e
00000170: 086e df3e 6317 b03d adb8 ce3e 8796 c43e
00000180: b6b2 563e 5972 9f3e 0e2e 803e 908b 4abe
00000190: 010c 8cbe 5dfe c43e a47f 6a3e 8058 46be
000001a0: c0c1 b6bc 1848 bc3d 68d0 643c 9148 6d3e
000001b0: bad1 49be c6ed 07be 7dc6 9e3d 4226 6d3e
000001c0: 8ebe 2d3e 399b 8f3d 96b3 563c 6351 fc3d
000001d0: 0b32 a4be 779f 2c3e ac2c 163f 736e 733e
000001e0: 5994 d03d 695b 0dbc 5470 8cbd ce53 bdbd
000001f0: ddb2 803d 23eb c7be a7f9 a13e dda2 033d
00000200: 0950 bdbe 4b24 47be 1e38 77be 0bd5 59be
00000210: 5073 2f3e 4c09 0ebf a537 bb3c db8f d1bd
00000220: e0bf 4d3e fb2c 323e 8e4c 843e cfed 24bd
00000230: a47e 9dbe cafc 7c3e a85e a53c d782 f8bd
00000240: 41c7 6c3e 13ff 7fbe 51e6 833e 0fd6 893e
00000250: 6fda 913d 9e82 483e e578 1b3d c90f a0bd
00000260: 748a 243e d50f 263c 30cd 35be 9ef9 77bd
00000270: c4c5 333e 2108 e9bd 35ca 083e d175 2f3e
00000280: 52a5 6abe 6899 1bbe bd83 273d 8857 52be
00000290: f5f7 93be 62ae e13c dd29 7abe ff8f 963e
000002a0: 2162 88be 8241 e43c 7a02 9fbd c1cf 4e3d
000002b0: b657 c23e 90ce cfbe 24f0 b5be 39ee e73d
000002c0: 7633 99bd 651a 583e e7a1 79be c2c6 af3e
000002d0: 9b35 06bc 3e69 ac3d 3ad2 9e3e fd39 80be
000002e0: a880 8f3d ecdc 2fbe a4c0 38bf e58d 7b3d
000002f0: ac5d d1b8 7b3c f1bd d945 8fbd 568f ec3d
00000300: 6b0c 28be e396 583d 0483 fd3d 4677 44be
00000310: a5b4 d23e 1f35 a0be 6977 84be 528e 5abe
00000320: 0dcb 95be c08e 02bd 85b6 a33d 3374 a03d
00000330: 827e b9bd e7a9 2bbb 3ed4 9d3d bca4 ed3d
00000340: 797f d7bd f6b9 9f3e bcff 4dbe 40a4 91be
00000350: 7a56 a93d 4260 dabe b089 a0bd c43d 7a3e
00000360: 21c1 07be c3c2 3bbe e5fa 663e 7595 c7bc
00000370: 1041 783c 5a32 febc 6386 d33e 72be d03e
00000380: af94 88bc b2d7 a83e 0c29 c03e 1e16 f13d
00000390: ec6d 50bd e458 a13d 0176 95be 89a8 e63d
000003a0: 245e e93d acd3 973d be92 0c3e c4d3 27be
000003b0: 2a40 e73e 8fa5 e33d 0f80 ee3d ace8 d9bd
000003c0: fba3 083e a8b1 72bd b087 e8be f31a 95be
000003d0: d946 afba f28b 953e 1517 be3d 843f e43d
000003e0: fa9a 6bbd 9daf 86bd 2208 373e 735f 40be
000003f0: a1bd 113f dc2e 513e b546 39bf 4924 ae3e
-0.11516534 0.1775783 -0.089561604 -0.0751854 0.18034808 -0.11430865 0.07903109 0.24702379
0.17950097 -0.058460172 -0.1121567 0.2665671 0.58804953 0.015398156 0.26703462 -0.24747872
-0.20628434 0.3122722 -0.044688307 0.36621857 -0.3657187 -0.69208646 0.3598789 0.17750356
0.15290022 -0.1871349 -0.35225153 0.08400379 0.15868236 0.028499419 0.28274313 0.031794418
0.06597498 0.058259983 0.20941964 -0.14564481 0.18880974 0.41479188 -0.23101811 -0.3889293
-0.27864352 -0.17502719 -0.3928788 0.39728892 -0.053427845 0.23465426 -0.20469393 -0.24243073
0.3481212 0.020566292 -0.073709205 0.4991667 0.19777985 -0.0935843 0.0010118561 0.13617633
-0.039197236 -0.20952837 -0.1593963 0.019995848 -0.46104884 -0.23822542 0.016876727 -0.13629277
-0.22130111 0.26033455 0.15528382 -0.18707152 -0.12803996 -0.51963377 0.54662836 0.25746316
0.16895169 0.27021843 0.28389066 -0.33753338 0.043304805 -0.14119259 -0.17606784 -0.17587799
-0.045300696 -0.21703455 0.059863765 0.08761779 -0.18592714 0.03820236 -0.09139092 0.28223476
0.06724482 -0.033368092 -0.24021554 0.15130594 0.43638635 0.08598211 0.4037527 0.38396093
0.2096661 0.31141928 0.25035137 -0.19779801 -0.27352908 0.38475314 0.22900254 -0.19369698
-0.022309184 0.09193438 0.013965704 0.23172213 -0.1970891 -0.13274297 0.077527024 0.23159125
0.16967222 0.07012028 0.01310434 0.12320211 -0.3206943 0.16857706 0.58661914 0.23772602
0.10184545 -0.008627751 -0.068573624 -0.092445 0.062841155 -0.39046583 0.31635782 0.03213774
-0.36975124 -0.19447438 -0.24142501 -0.21272676 0.17133832 -0.55482936 0.022853682 -0.102325164
0.20092726 0.17399971 0.25839657 -0.040265854 -0.30760682 0.24705806 0.020186737 -0.12134331
0.23122884 -0.24999647 0.25761655 0.26921126 0.07121741 0.19581077 0.03795709 -0.07815511
0.1606844 0.010135611 -0.17754054 -0.060540788 0.1755591 -0.113785036 0.13358386 0.17134787
-0.22914627 -0.15195239 0.04089712 -0.20541203 -0.28900114 0.027548973 -0.24430032 0.29406735
-0.26637366 0.027863268 -0.07764144 0.0504911 0.37957543 -0.40587282 -0.35534775 0.11324734
-0.074805185 0.21103819 -0.24378167 0.34331328 -0.0081914915 0.08418511 0.31019765 -0.25044242
0.07006961 -0.17174119 -0.72168946 0.061414618 -9.983344e-05 -0.11779114 -0.06995744 0.11550777
-0.16410987 0.05287827 0.12378505 -0.19186124 0.41153446 -0.31290528 -0.25872353 -0.21343353
-0.29256478 -0.03187442 0.07993797 0.07834663 -0.090573326 -0.00261938 0.077064976 0.11603686
-0.1052236 0.31196564 -0.20117086 -0.28445625 0.08268447 -0.42651564 -0.07838762 0.24437624
-0.13257267 -0.18336014 0.22556646 -0.024363259 0.015152231 -0.031029869 0.41313466 0.40770298
-0.01667246 0.32977062 0.37531316 0.11771797 -0.05088608 0.07878283 -0.29191592 0.11262614
0.11394909 0.0741342 0.13727853 -0.16389376 0.4516614 0.11115562 0.11645519 -0.10640082
0.13343804 -0.059251457 -0.4541602 -0.29122123 -0.0013372555 0.29208332 0.09281746 0.11144927
-0.057520844 -0.06576464 0.17874196 -0.18786411 0.56929976 0.20428032 -0.72373515 0.34012058

network_body._body_endoder.seq_layers.0.bias f4 [128]
00000000: 0000 0000 0000 0000 0000 0000 0000 0000
00000010: 0000 0000 0000 0000 0000 0000 0000 0000
00000020: 0000 0000 0000 0000 0000 0000 0000 0000
00000030: 0000 0000 0000 0000 0000 0000 0000 0000
00000040: 0000 0000 0000 0000 0000 0000 0000 0000
00000050: 0000 0000 0000 0000 0000 0000 0000 0000
00000060: 0000 0000 0000 0000 0000 0000 0000 0000
00000070: 0000 0000 0000 0000 0000 0000 0000 0000
00000080: 0000 0000 0000 0000 0000 0000 0000 0000
00000090: 0000 0000 0000 0000 0000 0000 0000 0000
000000a0: 0000 0000 0000 0000 0000 0000 0000 0000
000000b0: 0000 0000 0000 0000 0000 0000 0000 0000
000000c0: 0000 0000 0000 0000 0000 0000 0000 0000
000000d0: 0000 0000 0000 0000 0000 0000 0000 0000
000000e0: 0000 0000 0000 0000 0000 0000 0000 0000
000000f0: 0000 0000 0000 0000 0000 0000 0000 0000
00000100: 0000 0000 0000 0000 0000 0000 0000 0000
00000110: 0000 0000 0000 0000 0000 0000 0000 0000
00000120: 0000 0000 0000 0000 0000 0000 0000 0000
00000130: 0000 0000 0000 0000 0000 0000 0000 0000
00000140: 0000 0000 0000 0000 0000 0000 0000 0000
00000150: 0000 0000 0000 0000 0000 0000 0000 0000
00000160: 0000 0000 0000 0000 0000 0000 0000 0000
00000170: 0000 0000 0000 0000 0000 0000 0000 0000
00000180: 0000 0000 0000 0000 0000 0000 0000 0000
00000190: 0000 0000 0000 0000 0000 0000 0000 0000
000001a0: 0000 0000 0000 0000 0000 0000 0000 0000
000001b0: 0000 0000 0000 0000 0000 0000 0000 0000
000001c0: 0000 0000 0000 0000 0000 0000 0000 0000
000001d0: 0000 0000 0000 0000 0000 0000 0000 0000
000001e0: 0000 0000 0000 0000 0000 0000 0000 0000
000001f0: 0000 0000 0000 0000 0000 0000 0000 0000
0.0 0.0 0.0 0.0 0.0 0.0 0.0 0.0
0.0 0.0 0.0 0.0 0.0 0.0 0.0 0.0
0.0 0.0 0.0 0.0 0.0 0.0 0.0 0.0
0.0 0.0 0.0 0.0 0.0 0.0 0.0 0.0
0.0 0.0 0.0 0.0 0.0 0.0 0.0 0.0
0.0 0.0 0.0 0.0 0.0 0.0 0.0 0.0
0.0 0.0 0.0 0.0 0.0 0.0 0.0 0.0
0.0 0.0 0.0 0.0 0.0 0.0 0.0 0.0
0.0 0.0 0.0 0.0 0.0 0.0 0.0 0.0
0.0 0.0 0.0 0.0 0.0 0.0 0.0 0.0
0.0 0.0 0.0 0.0 0.0 0.0 0.0 0.0
0.0 0.0 0.0 0.0 0.0 0.0 0.0 0.0
0.0 0.0 0.0 0.0 0.0 0.0 0.0 0.0
0.0 0.0 0.0 0.0 0.0 0.0 0.0 0.0
0.0 0.0 0.0 0.0 0.0 0.0 0.0 0.0
0.0 0.0 0.0 0.0 0.0 0.0 0.0 0.0

network_body._body_endoder.seq_layers.2.weight f4 [128, 128]
00000000: c7ce dbbc 4a18 b4bd 93dc 913d c5cc 98bd
00000010: 300a 8ebd 5a47 013e 4596 0abd 0a36 12ba
00000020: 70d6 4b3d 1273 b5bd e71b a73d 0560 623e
00000030: 2e92 073c 5cd9 2b3e 5fe1 813d e03a 70bd
00000040: 7fe6 65bd 1c69 4dbd 205b c33a 9c19 a6bd
00000050: 808d e3bb bd55 2d3e 2471 53bd ec1a cfbb
00000060: 7ef4 0f3e fce7 0abd 5301 17bd 4a89 ce3c
00000070: 790b b93c 971a 3dbd c639 4b3e e575 3f3e
00000080: 4b78 60bd 24e5 5ebc 2dbf 26bd c0e8 fc3c
00000090: f085 573d 2712 93bd d6f4 18bd dcb5 74bd
000000a0: 55f6 863c 66e3 83be 4e64 3d3d 11f6 cd3c
000000b0: 7229 063e 637c 953c 31f3 d03c 2c08 fabc
000000c0: 5a52 98bd dd75 33be 47e2 c83d 5790 e4bb
000000d0: 4007 d73c 9042 9e3b 6129 c03d c402 5a3d
000000e0: af4b d43c e293 fabc 5a0e cd3c acae 75bd
000000f0: 7490 593a 47c6 a93d fec7 4fbc 41c6 8e3d
00000100: 286e 2dbd 214a 19be 16f0 9b3d c00d 4b3d
00000110: 2b56 4b3d e25d 01bc a472 2a3d 10e7 af3d
00000120: d969 d43d 2788 9ebd aeaa 6a3d 2b57 90bb
00000130: ec06 33bb 0e16 2cbc a878 4bbd 379d 71b7
00000140: 872d be3d 1319 2ebd 12b1 8fb9 3af8 b1bd
00000150: 7e1a de3d 709f ad3d 4ba3 bdbd 6e60 2fbd
00000160: 1023 1ebd cb0e 623d 483b 293e d31f b6bd
00000170: dfb9 0f3d b424 50bc dcf0 6abd 0808 c33c
00000180: d2ba 0a3e 6831 a83d 867c 74bd db13 24be
00000190: 958c 28bd f897 eabd a7b3 153e dfd8 ccbc
000001a0: e179 1e3d 233e 463d 7e0c f73d cbdb 99bd
000001b0: 3b8d 87bb 7eed 8bbd d383 993d 5298 013e
000001c0: 336d 213d 224b 933c 5434 d33d 06da ae3d
000001d0: a124 1d3c 8361 7b3d 2986 093e fff1 c6bd
000001e0: 101d f23d b5ee c63d e3c0 003b 4326 cf3d
000001f0: df4b 723c 06c9 a4bd 0cbf 0f3d 55ee ac3d
00000200: 0e61 0a3d 28b3 163c ed5c e9bd f35d 86bc
00000210: 83d3 013c 85ca 03be 7677 05b9 5dab 5c3d
00000220: b2bd 943d d82c 533c 47c0 3a3d 069b 7bbc
00000230: 2d9c 263d 762e 68bc eb3c acbd 92f2 e43d
00000240: 5056 4cbe 4b8d dc3d f468 543b 1a50 903c
00000250: bf7e 193d 5e70 1dbe 3f97 91bd ee36 ce3c
00000260: e658 c43c 6503 7fbc 779f 03be 37ca b53d
00000270: bf09 c1bd 7c21 1f3d b18c 30bd b6fe 673c
00000280: 082b 2fbe 33d9 903d d20c 093c 830e d9ba
00000290: 3052 b4bd 9d47 e2bc d426 03be d408 383b
000002a0: 016b 713e ff24 10be 0b1c b0bd 5689 88bc
000002b0: a4ad acbd e123 1f3e 3afd 6f3c ee49 063e
000002c0: bafd 1ebd d1e8 df3d ee2b 2dbe 9d02 b63d
000002d0: c235 853d fb86 f53d f39d c93c 0f26 cdbd
000002e0: 5b01 d2bd 3cb4 02bd fa3c 94bc c89d 97bd
000002f0: e469 de3d b46c e2bd 49f4 533d 13b6 12bd
00000300: bebb e23c 4b54 553c f499 1dbd f02b 6c3c
00000310: 03f1 9f3e d418 7e3d b671 d63d 5e8a 8abd
00000320: 4d7d 313e d1e8 b83d a086 1abe 32c4 963c
00000330: 16f7 af3d 744d 0fbd b3d2 c73d 7733 af3c
00000340: 461b 243e 9c5e de3d 3407 c5bd 567c 2e3d
00000350: c210 9b3b 4fce ebbb c749 b5bc 8f59 49bd
00000360: 2828 923b 6a9e 4e3d fc48 ebbd eac0 b8bc
00000370: a1ac 033d 71ae b1bd 4837 66bd 01cf 473b
00000380: 343b 1c3b a59f 0cbe bf03 7cbd b57f 43bd
00000390: d173 c63d 1a12 cabc 5e31 87bc a648 dbbd
000003a0: e6e8 613d 314f a0bd 0e66 5cbd 36fc 143c
000003b0: 0e2b f1bd 603b b23d 12ad de3a 330c eb3d
000003c0: 6586 893e 3118 503d 5321 19be 2287 353c
000003d0: 82c7 b0bc 4753 8abd feee b9bd 96f8 ea3a
000003e0: 04e6 803e 4cf8 8c3d aa00 f13c 6129 02bd
000003f0: 693b 643c 604a c3bd 4d1f 81bd 2ec3 1a3e
-0.026831998 -0.08793695 0.07122149 -0.07460932 -0.06935537 0.12624875 -0.033834714 -0.00055775105
0.04976505 -0.088598385 0.08159619 0.22106941 0.008274598 0.16782135 0.06341814 -0.058649898
-0.05612802 -0.05014907 0.0014904477 -0.08110353 -0.0069443583 0.16927238 -0.05162157 -0.006320348
0.1405811 -0.033912644 -0.036866497 0.025211949 0.022588478 -0.046167936 0.19846258 0.18697317
-0.05480222 -0.013604436 -0.040709663 0.030872703 0.052617967 -0.07181197 -0.03734287 -0.059743747
0.016474882 -0.2575943 0.046238236 0.025141748 0.13101748 0.018247789 0.025506588 -0.030521475
-0.07437582 -0.1752543 0.09808784 -0.0069752145 0.026248574 0.004829712 0.093828924 0.053225294
0.025914995 -0.030588094 0.025031257 -0.059981033 0.0008299418 0.082897715 -0.012681959 0.06971408
-0.04234138 -0.14969684 0.07614152 0.04957366 0.049642723 -0.007895919 0.041613236 0.085889935
0.10371751 -0.07740813 0.05729168 -0.0044049225 -0.0027317358 -0.010503305 -0.049675614 -1.4401324e-05
0.092860274 -0.04250438 -0.00027407013 -0.086899236 0.10844897 0.08477676 -0.09259661 -0.042816572
-0.038607657 0.05518989 0.1652652 -0.08892789 0.03508937 -0.012704063 -0.057358608 0.02380754
0.13547829 0.082125485 -0.059689067 -0.160232 -0.041149694 -0.11454767 0.14619313 -0.025005756
0.03869045 0.048399102 0.120629296 -0.07512625 -0.004136709 -0.068324074 0.074958466 0.12655762
0.03941078 0.017980162 0.10312715 0.085376784 0.009591253 0.06137229 0.13430084 -0.09714126
0.118219495 0.097134985 0.001964622 0.1011472 0.014788597 -0.08046155 0.035094306 0.08443896
0.033783965 0.009197988 -0.11394677 -0.01640222 0.0079239635 -0.12870224 -0.00012728371 0.053874362
0.07262744 0.01288911 0.045593526 -0.015356785 0.040676285 -0.014171233 -0.08410057 0.11179079
-0.199548 0.10769137 0.003241119 0.01761632 0.03747439 -0.15374896 -0.07108926 0.025172677
0.023968171 -0.015564774 -0.128538 0.0887646 -0.09425687 0.038850293 -0.043102924 0.014159849
-0.17106259 0.070726775 0.008364873 -0.0016560111 -0.088047385 -0.027622038 -0.1280778 0.0028081434
0.23575975 -0.14076613 -0.08599099 -0.01666705 -0.08431557 0.1554103 0.014647776 0.1311414
-0.03881619 0.10933078 -0.16911289 0.08887217 0.06504394 0.11988636 0.024611449 -0.10017025
-0.10254165 -0.031910166 -0.018095482 -0.07403141 0.10860041 -0.1105589 0.05174664 -0.03581817
0.027677413 0.013020585 -0.0384769 0.014414772 0.31238565 0.062035397 0.104709074 -0.06764673
0.17332955 0.09028781 -0.15090418 0.0184041 0.0859205 -0.034985974 0.097569846 0.021386845
0.16026029 0.10857889 -0.096205145 0.042599045 0.0047322223 -0.0071962248 -0.022129906 -0.049157675
0.0044603534 0.050444044 -0.1148853 -0.022552926 0.032147054 -0.0867585 -0.056205064 0.0030488374
0.0023838999 -0.13732775 -0.06152701 -0.047729213 0.09690059 -0.024666835 -0.016503032 -0.10707216
0.05515375 -0.078276046 -0.053808264 0.009093335 -0.1177579 0.08702731 0.0016988835 0.11476936
0.26860347 0.05080432 -0.14954118 0.011079581 -0.021579508 -0.06754165 -0.09078787 0.0017926868
0.25175488 0.06883296 0.029419262 -0.031777743 0.01393018 -0.0953567 -0.06304798 0.15113518

network_body._body_endoder.seq_layers.2.bias f4 [128]
00000000: 0000 0000 0000 0000 0000 0000 0000 0000
00000010: 0000 0000 0000 0000 0000 0000 0000 0000
00000020: 0000 0000 0000 0000 0000 0000 0000 0000
00000030: 0000 0000 0000 0000 0000 0000 0000 0000
00000040: 0000 0000 0000 0000 0000 0000 0000 0000
00000050: 0000 0000 0000 0000 0000 0000 0000 0000
00000060: 0000 0000 0000 0000 0000 0000 0000 0000
00000070: 0000 0000 0000 0000 0000 0000 0000 0000
00000080: 0000 0000 0000 0000 0000 0000 0000 0000
00000090: 0000 0000 0000 0000 0000 0000 0000 0000
000000a0: 0000 0000 0000 0000 0000 0000 0000 0000
000000b0: 0000 0000 0000 0000 0000 0000 0000 0000
000000c0: 0000 0000 0000 0000 0000 0000 0000 0000
000000d0: 0000 0000 0000 0000 0000 0000 0000 0000
000000e0: 0000 0000 0000 0000 0000 0000 0000 0000
000000f0: 0000 0000 0000 0000 0000 0000 0000 0000
00000100: 0000 0000 0000 0000 0000 0000 0000 0000
00000110: 0000 0000 0000 0000 0000 0000 0000 0000
00000120: 0000 0000 0000 0000 0000 0000 0000 0000
00000130: 0000 0000 0000 0000 0000 0000 0000 0000
00000140: 0000 0000 0000 0000 0000 0000 0000 0000
00000150: 0000 0000 0000 0000 0000 0000 0000 0000
00000160: 0000 0000 0000 0000 0000 0000 0000 0000
00000170: 0000 0000 0000 0000 0000 0000 0000 0000
00000180: 0000 0000 0000 0000 0000 0000 0000 0000
00000190: 0000 0000 0000 0000 0000 0000 0000 0000
000001a0: 0000 0000 0000 0000 0000 0000 0000 0000
000001b0: 0000 0000 0000 0000 0000 0000 0000 0000
000001c0: 0000 0000 0000 0000 0000 0000 0000 0000
000001d0: 0000 0000 0000 0000 0000 0000 0000 0000
000001e0: 0000 0000 0000 0000 0000 0000 0000 0000
000001f0: 0000 0000 0000 0000 0000 0000 0000 0000
0.0 0.0 0.0 0.0 0.0 0.0 0.0 0.0
0.0 0.0 0.0 0.0 0.0 0.0 0.0 0.0
0.0 0.0 0.0 0.0 0.0 0.0 0.0 0.0
0.0 0.0 0.0 0.0 0.0 0.0 0.0 0.0
0.0 0.0 0.0 0.0 0.0 0.0 0.0 0.0
0.0 0.0 0.0 0.0 0.0 0.0 0.0 0.0
0.0 0.0 0.0 0.0 0.0 0.0 0.0 0.0
0.0 0.0 0.0 0.0 0.0 0.0 0.0 0.0
0.0 0.0 0.0 0.0 0.0 0.0 0.0 0.0
0.0 0.0 0.0 0.0 0.0 0.0 0.0 0.0
0.0 0.0 0.0 0.0 0.0 0.0 0.0 0.0
0.0 0.0 0.0 0.0 0.0 0.0 0.0 0.0
0.0 0.0 0.0 0.0 0.0 0.0 0.0 0.0
0.0 0.0 0.0 0.0 0.0 0.0 0.0 0.0
0.0 0.0 0.0 0.0 0.0 0.0 0.0 0.0
0.0 0.0 0.0 0.0 0.0 0.0 0.0 0.0

action_model._discrete_distribution.branches.0.weight f4 [3, 128]
00000000: 5b5b 8b3c a539 bcbb 0f64 7bba f0f6 01bc
00000010: e37f e93b 9ac0 2e3c 8deb f43b af0e ca3b
00000020: eb4c 1e3b 784d b8bb 29e0 11bc bd05 dabb
00000030: f222 683b 0333 3bbc c3e8 4a3b aea5 4a3b
00000040: cf37 dfbb 9f19 2f3c 966e 44ba b319 92bb
00000050: c748 b53b 7914 b73b 1825 84bc 10cc e23b
00000060: 603b d4b9 9f3f 07bc 9a27 a6bc b0ef 8b39
00000070: 3bd7 91bb 57fc 4b3c 0df9 cfb9 53b0 593b
00000080: 0fb6 f0bb 24aa 913b 207d 323c 7c4d 37ba
00000090: d7c2 213c 5204 173c bfdb 8dbc bbac a7bb
000000a0: 5869 97bc 0366 d63b b77d e53b 6378 26bc
000000b0: 352a 98bb 8f23 54bb 55f0 e6bb a1b3 13bc
000000c0: 0734 153c 2da7 e1bb bafe 0f3c c180 a3bb
000000d0: cbc2 6dba 2ff0 823b fb83 37bc d0fe 9d3c
000000e0: 59fa c03a f605 a8bb 207b b8bb 836e c1b9
000000f0: 421a b43b cb64 003c d02c 0fbc ec2e 3d3b
00000100: 6591 2fbc fb3a be3b 33cc d0bb 8d1a f43b
00000110: 986c 03bc 843c 083a e2f5 863a f8f6 b23c
00000120: 7236 9a3b cd15 593b ef68 4c3b 4da8 fcbb
00000130: 87da 81bc bd1d 993b 2d6e 7d3b 2a2b de3b
00000140: 3f9d b8ba 0f2f 7abb 055d 643c 4bbf 403c
00000150: 316c 3a3c 1895 e739 35f2 6bbc 1db8 3f3b
00000160: 502c da3b 4bd6 863b 735b 00bc 9980 80bc
00000170: 186a 553b 6bb3 3c3c 6b6c ffba 4f42 33bc
00000180: 5772 143c c0a5 8ebb 4970 a939 b33f 8ebb
00000190: 56e7 a6bb 5b54 49bb 0be1 0dbc 4e73 0d3c
000001a0: 6a56 e03a 4769 8dbc 33b6 e93b 7f71 3c3c
000001b0: c889 e4bb 472b 253c e36d 4bba d74f 7c3b
000001c0: 3734 81bb ad6e 3bbc 7de3 43bc 4054 f43b
000001d0: 1f91 80bc 0a0b 123c 442a 02bc da6a debb
000001e0: 8be6 1f3b 5764 16bb f3b7 82bc b65c 09bb
000001f0: 1232 ebbb 7891 0f3a 903c 583b 403c d13b
00000200: 750a f93b fbc0 053b 1bf1 8aba fd76 b5bb
00000210: e7ca 01bc 4d40 4fbb 9aa2 2d3a 1aa7 543b
00000220: 32cb 31bb e454 813c c83a 853b 5c63 04b9
00000230: 9702 a4bb 1025 993b 2184 a03b c211 0f3c
00000240: efcb 0b3c d461 a8ba d335 733c 0388 66bc
00000250: 8733 0a3c 276d 03bc 8d5a 19bb 0d29 823b
00000260: 185f 98bc e58a d5bb bfb0 323c 5bdf 4ebb
00000270: 7203 503b f56f 0c3b f014 d13b e81d 18bc
00000280: d01c 16bc cbfe fdbb ec5d 993b ea43 593a
00000290: d344 cc3b f4dc 263c 7545 143c 9b76 6d3c
000002a0: 77cd e3bb 1130 24bc 8958 3ebc efe7 313c
000002b0: cbad 853a e364 15bb a71e 24bb 795e 333c
000002c0: 1bdf c8bb 1323 223b 70ac a4ba b534 773c
000002d0: 2f1a 06bc b7f2 0fbc 80fa 1dbc 6f95 8c3c
000002e0: 90c7 00ba d34e cfb9 07b6 3f3c efd3 303c
000002f0: 8f8a 86ba 8d4c 0d3b 4fa0 d23a 2cd7 9abb
00000300: 58e9 8abb 8603 20bb c0c2 b43b 5a87 843c
00000310: 9faa b139 afdd 6ebc fc8d 1cbc 3f44 653b
00000320: ed7f f2bb 1f9d 573b 8ea6 07bb d5aa 2abc
00000330: 5514 fdbb 122b 313c afab 0b3c abc8 1a3b
00000340: a38f e9bb 8762 26bb 402a be3b ca0f db3b
00000350: ab44 e83b 067a 3dbc a13f 19bb f28f d03b
00000360: 200c f4bb 0f8d febb 93c2 0b3b 2363 47bb
00000370: c839 463b af5e 6e3b 5af1 ed3b 7546 f13a
00000380: d041 1a3a 7eca b8bb 0ce7 203c 96ac 813a
00000390: f399 26bb 73cd 323c 1c8f 193c df93 973c
000003a0: 8df5 a53a 5f13 d93b 2cdc 1fbc 2bbc ca3b
000003b0: 6c48 25bb fbd5 9bbb ab67 fc3a d88a ca3b
000003c0: b28e abbb 3eb5 ad3b eb22 85bb 3785 993c
000003d0: dcbe 20bb 607c da3b 413b b73a cffb a4bb
000003e0: 8f5a e3bb 8e9b ca3b 072b 78bb fe3c bd3a
000003f0: 259c 5f39 c52f f7ba 4373 f23b 8bc6 67bc
0.017011335 -0.0057441765 -0.00095898 -0.00793241 0.007125841 0.010666037 0.007474369 0.006166301
0.0024154733 -0.0056244694 -0.008903542 -0.006653516 0.003542122 -0.011425736 0.003096149 0.0030921507
-0.006812073 0.010687261 -0.0007493285 -0.00445863 0.0055323574 0.0055871573 -0.016130969 0.006921299
-0.0004048003 -0.008254915 -0.020282555 0.00026690727 -0.0044507063 0.012450299 -0.00039667674 0.003321667
-0.007345922 0.004445331 0.01089409 -0.0006992442 0.009873114 0.009217339 -0.017316697 -0.0051170266
-0.018482849 0.0065429225 0.007003512 -0.010160538 -0.0046437033 -0.0032369827 -0.007047693 -0.009014995
0.009106643 -0.006886384 0.008788759 -0.004989714 -0.0009069859 0.0039959173 -0.0112009 0.019286543
0.0014723047 -0.0051276637 -0.005629912 -0.00036894166 0.0054962942 0.007836531 -0.0087387115 0.002886708
-0.010715817 0.005805371 -0.0063719987 0.007449454 -0.008021496 0.0005197006 0.0010296667 0.02184628
0.0047061974 0.0033124567 0.0031190475 -0.0077104927 -0.015851272 0.0046727345 0.0038670406 0.006780048
-0.0014084949 -0.0038175022 0.013938193 0.011764358 0.011378334 0.00044170837 -0.014401008 0.0029254027
0.0066581145 0.004114901 -0.007834303 -0.01568632 0.0032564458 0.011517386 -0.0019487267 -0.010941102
0.009060464 -0.004353255 0.0003231785 -0.0043410896 -0.0050934954 -0.0030720446 -0.008659611 0.008633448
0.0017115597 -0.017262114 0.0071323155 0.011501669 -0.0069744326 0.010081119 -0.000776021 0.0038499737
-0.003942992 -0.011439961 -0.011956093 0.0074563324 -0.0156942 0.008913765 -0.007944647 -0.00678764
0.002439889 -0.002294799 -0.015956854 -0.00209598 -0.0071775997 0.00054766936 0.0032995082 0.006385356
0.0076001235 0.0020409215 -0.001060042 -0.005537866 -0.007921911 -0.003162402 0.0006623656 0.0032448233
-0.002712917 0.01578755 0.004065845 -0.00012625515 -0.0050051915 0.0046736076 0.0048985635 0.008732261
0.008532508 -0.0012846538 0.014844376 -0.014070514 0.008435137 -0.008021629 -0.002339992 0.003972179
-0.018600032 -0.0065168017 0.010906397 -0.0031566236 0.0031740335 0.0021429036 0.00638067 -0.009284474
-0.009162143 -0.007751321 0.004680386 0.0008288013 0.0062337904 0.010184515 0.009049763 0.01449361
-0.0069519836 -0.010021226 -0.011617788 0.01085852 0.0010198889 -0.002279573 -0.0025042684 0.010947817
-0.006130112 0.0024740144 -0.0012563597 0.01508825 -0.008184954 -0.008785895 -0.009642243 0.0171611
-0.00049125496 -0.00039540845 0.011701114 0.010792716 -0.0010264682 0.002156052 0.0016069504 -0.0047253575
-0.0042392425 -0.0024416163 0.00551638 0.016177822 0.00033887193 -0.014579221 -0.009555336 0.0034983305
-0.007400504 0.0032900048 -0.002069864 -0.010416706 -0.007723371 0.010813491 0.008524819 0.0023618143
-0.0071277185 -0.0025388317 0.0058033764 0.006685232 0.007088264 -0.011564737 -0.0023383873 0.006364816
-0.0074477345 -0.0077682803 0.0021325692 -0.003042408 0.0030246843 0.0036372354 0.0072614374 0.0018407839
0.00058844406 -0.0056393733 0.009820711 0.0009893354 -0.002542135 0.010913241 0.009372499 0.018503128
0.0012661681 0.0066246237 -0.009757083 0.006186982 -0.0025220169 -0.004755733 0.001925697 0.0061811022
-0.0052355165 0.005301147 -0.0040630004 0.01874028 -0.0024527824 0.0066676587 0.0013979451 -0.0050349007
-0.0069382857 0.0061830943 -0.0037867443 0.0014437733 0.00021325106 -0.0018858841 0.007398994 -0.014146457

action_model._discrete_distribution.branches.0.bias f4 [3]
00000000: 0000 0000 0000 0000 0000 0000
0.0 0.0 0.0

network_body._body_endoder.seq_layers.0.weight f4 [128, 16]
00000000: 0b2a 4cbe 91d2 1ebe ad94 d3bd 9212 eabd
00000010: d004 48be 8705 05be 6684 5bbf c46a 2d3e
00000020: 9d1a efbd 5dd7 d9be 9d33 93be 0eb9 8abe
00000030: 7943 c9be f0ee 4bbe 8d34 8dbe 7c98 c43e
00000040: 4d12 8b3e 222d fcbe eb8b f8bd 440c d2bd
00000050: 38b4 5e3d 63f3 d6bd eee3 edbe 2ad4 2d3d
00000060: 2fcc 4b3d 4a35 3ebd 76d2 eabd 263a a73e
00000070: 832a 333e 0236 ae3e c73b eebd 09a0 ffbd
00000080: 9b01 663e 2036 ae3d 880b 67be c1d7 96be
00000090: 9246 9cbd 4aa7 9a3e 6086 c63e 666c 9abd
000000a0: 2a40 a43d 0309 ddbe a873 053f 75bb 7a3d
000000b0: f0b8 423e cefc b8be 68dc ff3e c6b4 2ebe
000000c0: 281f 163d bfcb 9d3b 3e6b babe b9b3 143e
000000d0: 17e7 d7be 9b6c 993d b44f f0bc 97e1 21bf
000000e0: e5c8 173f dbf3 743e 7631 233e 0b1c a2be
000000f0: e2ec 9c3e 997b 113e 6df2 4b3e 1266 813e
00000100: a932 5abe 5b5f 993e c102 803e 6b91 73be
00000110: 77db c2bc 199f b03d ac01 963e 0a2f 03bf
00000120: 8806 803d 79d6 b33d b377 9d3e 9722 6fbe
00000130: e922 133d 5dfb d43e b78b 8e3d 2a10 a8bc
00000140: 170a 8fbd 4adf a6be aadf 83be 6f02 863c
00000150: 298d f3bd 5d17 a5be 4c6b f73d d165 4fbe
00000160: fcf0 31be 8b25 a73e c68e 793b 9978 d53c
00000170: d1ce 713e 8e71 8bbe 3281 163e 98a9 bcbd
00000180: 6c0e 40be cb47 943e 8d67 2c3e 6d35 1d3d
00000190: cbb7 f6bd c374 d93d 8eca 483e 31ca 10be
000001a0: 22cc 5cbe 3fe3 593d 9123 003e 28e6 79be
000001b0: c92f dbbc c377 883e 2605 c63d 3b41 f7bd
000001c0: e297 db3c bd6a 4dbd b57a f4bd f757 213e
000001d0: a8d6 e1bc a273 843d 4f90 1b3e 9be5 20be
000001e0: 05e9 ec3e 2414 063e d934 e1be 1c86 9dbe
000001f0: 3d11 843e 2e65 8d3d bd92 673e 007c db3e
00000200: c7a1 963e ac6f 05bd afb8 b43e 669c 9c3c
00000210: b756 20bd 34fc 603e 3fa1 913d 86cd 933d
00000220: dd0f 613e 67ab caba 82ff f23c 44d6 0dbd
00000230: 4a37 f53d 4742 593e e333 a13b a4ff eabe
00000240: 05ab 023e e070 29be 7af4 2dbd 5dd3 debc
00000250: 0589 d23e c114 603e 2911 de3d e024 0bbf
00000260: 8587 67be 6eba 783e 9dc9 ef3e 0d7c aa3e
00000270: d051 ae3d 0c48 95bd dbb2 663e 95e2 f4be
00000280: 2c56 0abe c3df acbe 72bd a9be 7d4b bdbe
00000290: e4b6 09be f76a fdbd 908b 5abe 579b 1ebe
000002a0: b799 e3bc 29cb 2fbd a7dd 253e 54e9 95be
000002b0: 3dfb 963d dcc3 d8be 627d b2bd 2239 b4bd
000002c0: 058a 7fbd 87cf eb3c 8581 7bbe 744b b0bd
000002d0: bd00 743d 710f ba3d ebd1 843b 45cc 97be
000002e0: ddea b9be eabb 2cbd 92af 9abe 0825 1dbe
000002f0: 6a54 c3be 125e 45be b5c5 aa3e f029 f03d
00000300: 541d 1ebd 971e 8c3e 4ef4 19be 37ee e43e
00000310: d58d 24be be64 683e 2ad3 67bd 71ab 3ebe
00000320: 8795 613e 87e2 b1be c3d1 943d c941 bb3e
00000330: 6f9f 083d 5100 223e 9002 cdbd aef5 863e
00000340: f726 3f3d 8eaa f43e 274f 9bbe 276f ee3e
00000350: f3e8 593d 1d2c f7bc affb ffbd eda8 f33c
00000360: 313f 513e a990 9c3e 833a 263e ac45 de3e
00000370: 51b1 243d 8a3a 893e f495 593e 75dc 363e
00000380: 523b d03c 6f03 853e 2f53 85bd e751 9e3e
00000390: 12ea d13d e6cd 9cbe abac 26be 11cb 73be
000003a0: a4ae 84bd 9ff9 18bf a21d 973e e668 98be
000003b0: 5c6d 7a3e de3c 0bbe 5715 14be aabd 003f
000003c0: 094f 5d3d f79a 573d ce22 6ebe 82d7 403e
000003d0: 9ed9 97be d48b eebd 550b bbbe 1935 68be
000003e0: 7a5e bf3c 6cc0 abbe 13f0 c6be 6e77 c23e
000003f0: 315a 523e c213 ab3e c3da d33d c427 3ebe
-0.19937913 -0.15510012 -0.10331092 -0.11429323 -0.19533086 -0.1299039 -0.857489 0.16935259
-0.11674998 -0.42547122 -0.28750315 -0.2709431 -0.3930929 -0.19915366 -0.27579156 0.38397586
0.271624 -0.49253184 -0.12136062 -0.10256246 0.05437109 -0.10495641 -0.4646296 0.042438664
0.04975527 -0.04643754 -0.114659235 0.3266155 0.17496686 0.3402558 -0.116324954 -0.12481696
0.2246155 0.08506417 -0.22562993 -0.29461482 -0.07630648 0.30205756 0.38774395 -0.075402066
0.08020051 -0.43170938 0.521296 0.06121393 0.1901586 -0.36130375 0.49972844 -0.17061147
0.036650807 0.004815548 -0.36409944 0.14521684 -0.42168495 0.07491418 -0.02933488 -0.6323485
0.59290916 0.23921148 0.15936837 -0.3166202 0.30649477 0.14207305 0.19916697 0.25273186
-0.21308388 0.29955563 0.250021 -0.23785941 -0.02378629 0.086240955 0.2929815 -0.5124365
0.06251246 0.08781142 0.30755386 -0.23353039 0.035921965 0.41598025 0.06960242 -0.02051552
-0.06984346 -0.3259223 -0.2575658 0.016358582 -0.118921585 -0.32244387 0.12081012 -0.20253684
-0.17377084 0.3264583 0.0038079484 0.026058482 0.2361405 -0.27235073 0.14697722 -0.09212035
-0.18755502 0.28961024 0.16836376 0.03838103 -0.120467745 0.10617974 0.19608518 -0.1413963
-0.21562245 0.053195234 0.12513568 -0.24404204 -0.026756184 0.2665387 0.09668951 -0.120729886
0.026805822 -0.05015062 -0.11937467 0.15756212 -0.027568176 0.06467368 0.15191768 -0.15712588
0.4627153 0.1309362 -0.43985632 -0.3076638 0.25794402 0.06904064 0.2261457 0.42868042
0.294203 -0.0325772 0.35297152 0.019117545 -0.039145198 0.21971208 0.071108334 0.07216935
0.21978708 -0.0015462459 0.029662851 -0.034628168 0.11973436 0.21216689 0.0049195155 -0.45898163
0.12760551 -0.16546965 -0.04246948 -0.027200395 0.41120163 0.21882917 0.10843117 -0.5435314
-0.2261029 0.24289867 0.46833506 0.33297768 0.08511698 -0.072891325 0.22529165 -0.47829118
-0.13509434 -0.33764467 -0.33152348 -0.36971655 -0.13448673 -0.123739175 -0.21342301 -0.15488945
-0.027783258 -0.042918358 0.16197835 -0.29279578 0.07372139 -0.4233693 -0.08715321 -0.0879996
-0.062387485 0.02878548 -0.24561127 -0.086081415 0.059571017 0.090849765 0.0040533445 -0.29648033
-0.36312 -0.042171396 -0.30212075 -0.15346158 -0.3815034 -0.19274166 0.33353963 0.11726749
-0.03860219 0.27367088 -0.15034601 0.44712994 -0.1606973 0.2269468 -0.056597866 -0.18620087
0.22029696 -0.3474314 0.072665714 0.36573628 0.033355173 0.15820433 -0.100102544 0.26359314
0.04666802 0.47786373 -0.30333826 0.46569178 0.053200673 -0.030172402 -0.12499177 0.029743636
0.20434262 0.30579117 0.16233258 0.4341253 0.040208165 0.26802474 0.21248609 0.17857535
0.025418911 0.25979182 -0.06510007 0.30921862 0.102497235 -0.30625838 -0.16276805 -0.23807932
-0.064786226 -0.5975589 0.29514796 -0.2976753 0.2445578 -0.13597438 -0.14461266 0.50289404
0.054030452 0.05263802 -0.23255464 0.1883221 -0.29658216 -0.11647764 -0.36532083 -0.22676505
0.02336048 -0.33545244 -0.38855037 0.37981743 0.20542218 0.33413512 0.1034446 -0.18569857

network_body._body_endoder.seq_layers.0.bias f4 [128]
00000000: 0000 0000 0000 0000 0000 0000 0000 0000
00000010: 0000 0000 0000 0000 0000 0000 0000 0000
00000020: 0000 0000 0000 0000 0000 0000 0000 0000
00000030: 0000 0000 0000 0000 0000 0000 0000 0000
00000040: 0000 0000 0000 0000 0000 0000 0000 0000
00000050: 0000 0000 0000 0000 0000 0000 0000 0000
00000060: 0000 0000 0000 0000 0000 0000 0000 0000
00000070: 0000 0000 0000 0000 0000 0000 0000 0000
00000080: 0000 0000 0000 0000 0000 0000 0000 0000
00000090: 0000 0000 0000 0000 0000 0000 0000 0000
000000a0: 0000 0000 0000 0000 0000 0000 0000 0000
000000b0: 0000 0000 0000 0000 0000 0000 0000 0000
000000c0: 0000 0000 0000 0000 0000 0000 0000 0000
000000d0: 0000 0000 0000 0000 0000 0000 0000 0000
000000e0: 0000 0000 0000 0000 0000 0000 0000 0000
000000f0: 0000 0000 0000 0000 0000 0000 0000 0000
00000100: 0000 0000 0000 0000 0000 0000 0000 0000
00000110: 0000 0000 0000 0000 0000 0000 0000 0000
00000120: 0000 0000 0000 0000 0000 0000 0000 0000
00000130: 0000 0000 0000 0000 0000 0000 0000 0000
00000140: 0000 0000 0000 0000 0000 0000 0000 0000
00000150: 0000 0000 0000 0000 0000 0000 0000 0000
00000160: 0000 0000 0000 0000 0000 0000 0000 0000
00000170: 0000 0000 0000 0000 0000 0000 0000 0000
00000180: 0000 0000 0000 0000 0000 0000 0000 0000
00000190: 0000 0000 0000 0000 0000 0000 0000 0000
000001a0: 0000 0000 0000 0000 0000 0000 0000 0000
000001b0: 0000 0000 0000 0000 0000 0000 0000 0000
000001c0: 0000 0000 0000 0000 0000 0000 0000 0000
000001d0: 0000 0000 0000 0000 0000 0000 0000 0000
000001e0: 0000 0000 0000 0000 0000 0000 0000 0000
000001f0: 0000 0000 0000 0000 0000 0000 0000 0000
0.0 0.0 0.0 0.0 0.0 0.0 0.0 0.0
0.0 0.0 0.0 0.0 0.0 0.0 0.0 0.0
0.0 0.0 0.0 0.0 0.0 0.0 0.0 0.0
0.0 0.0 0.0 0.0 0.0 0.0 0.0 0.0
0.0 0.0 0.0 0.0 0.0 0.0 0.0 0.0
0.0 0.0 0.0 0.0 0.0 0.0 0.0 0.0
0.0 0.0 0.0 0.0 0.0 0.0 0.0 0.0
0.0 0.0 0.0 0.0 0.0 0.0 0.0 0.0
0.0 0.0 0.0 0.0 0.0 0.0 0.0 0.0
0.0 0.0 0.0 0.0 0.0 0.0 0.0 0.0
0.0 0.0 0.0 0.0 0.0 0.0 0.0 0.0
0.0 0.0 0.0 0.0 0.0 0.0 0.0 0.0
0.0 0.0 0.0 0.0 0.0 0.0 0.0 0.0
0.0 0.0 0.0 0.0 0.0 0.0 0.0 0.0
0.0 0.0 0.0 0.0 0.0 0.0 0.0 0.0
0.0 0.0 0.0 0.0 0.0 0.0 0.0 0.0

network_body._body_endoder.seq_layers.2.weight f4 [128, 128]
00000000: e73d 42bd c2ce b13d 39b2 47bd 356a dabd
00000010: e21a 0ebd df34 1f3d 1d3b 8e3c 2f57 cc3d
00000020: b1f0 9e3d e48b 5c3d 8ccc da3d 8196 78bc
00000030: c936 2bbc 29f3 013e 122c 193e 167b 143d
00000040: f0b1 bd3d 67e3 e6bd 7aac 193d 9b12 c5bd
00000050: 2af7 43bc 3114 f7bd 29cb 24be ffed 113e
00000060: f6aa 673c df5c 43bd be8c 7bbd af00 8e3c
00000070: aa29 15be 80b6 093d 7414 b2bd 77f7 313c
00000080: b256 943d 80af 2f3e 050f 613d e91a 893d
00000090: bc92 d7bc 3c1a 493d 4704 1f3d dadf 58bc
000000a0: 25b6 10bd ac8c ccbd f705 21bd d7c4 61bc
000000b0: eb00 e03d 5236 76bc b372 35bd a2b6 98bd
000000c0: b560 0e3e c164 8a3b 51d4 12bd 4dd7 03bd
000000d0: 2d14 b93d 4980 c0bd bfca a93d b05d 95bd
000000e0: 25cb bf3d ed6f bfbd cc0e 703c f629 42be
000000f0: b835 0ebe 05ae 193c bf4e aa39 6731 993d
00000100: 60b7 9bbc 2bd5 d9bd 4518 9abd 8f7c 7d3c
00000110: ec4f 783d d7be d8bd 256b bebd 2055 f6bc
00000120: 4917 483e 86af b5bc 19e3 483d 096b 86bd
00000130: 53ef 2abd 2161 2fbc 6cc4 cf3c 0cc4 793d
00000140: a6ac 0ebc f23a a13d caf9 58bc c480 d03c
00000150: b991 8c3d 7a21 0cbd 3490 27be 7e83 e83d
00000160: c46b b5bd 6268 223d 6803 0cbe 9d02 de3d
00000170: e8f7 903d 7def 0bba f3a8 f1bb d464 753e
00000180: f4e4 f4bd b1b9 9abd 2b15 f43d c6eb f0bd
00000190: 9c4a e13d bcf4 d3bc a310 a13b 13e4 b3bd
000001a0: 5440 81bd 326c 693e b840 e23d abd5 babd
000001b0: 4441 a2bc 7f13 1ebd 014f 02be bf61 cc3c
000001c0: bd1c 8cbd 6b5a 1d3e 4d02 ba3d 4044 aa3c
000001d0: a033 03be 604e b43b 23bd 59bd 0f39 dabd
000001e0: a3ed df3c eb11 91bd 6969 a73d ed64 88bc
000001f0: 662d 96bd 9130 583d 8a92 f5bc 6b12 163e
00000200: 7e8c 7f3d 4031 103d 30db fbbc 20c2 a0bd
00000210: 6fd7 e63b 9c18 febd 9282 c9bc 24c0 c03d
00000220: 10b6 8fbc b914 163e 02d6 453d 7340 7d3d
00000230: a767 a3bd 4169 263d 014f ba3d ab00 07be
00000240: bb66 e23d 5b2b 663d 2bdf dfbd efe1 42bd
00000250: 2981 84bc d5b2 18be 2d3e 2e3d 4c26 66bd
00000260: 8d8e a8bd 4afe 663c 3c1d c6bc a93b 933d
00000270: 75ed 203d 162f 2dbe 6503 e93d 4f8a 66bd
00000280: 91c6 0ebc 552d b13d e342 c73d 965a 55bd
00000290: 92a5 14be 0777 233e f623 703c 8159 e53d
000002a0: 43aa 68bd bb3e 11be 0734 313e 8c3b 5dbd
000002b0: c216 16be 8c4a 6cbd 7212 b8bd db34 0dbd
000002c0: 3d56 98bd 3e44 663d eb5e 26bd 0e9f 093d
000002d0: 44e2 793c a347 9d3c 3d30 a83d d5ac 87bd
000002e0: d2ec 843d af26 7bbc 2973 85bc 8597 1a3d
000002f0: d9b7 e5bd 5662 febd 5ccd a4bd 7a77 bebd
00000300: 7122 e5bc b8e5 6abd ea5c 433d 03fe 733e
00000310: d5cd 943c 1824 66bd 1368 9ebd d2c5 b4bc
00000320: 764d 35bd fc9c 2dbd 69d8 7b3d 0d1e 86be
00000330: e97c de3c 4a60 d33d c649 a4bd d241 4b3e
00000340: 2aa3 383d e4b3 243e fc0b b13d c895 39bc
00000350: 2f60 343d de29 06bb ce6f 763c b03d 433e
00000360: cd76 4d3d 1105 c93c fd95 363e c896 be3c
00000370: 05e3 1bbd e8fb 9c3d 4267 0bbd c8fc 603d
00000380: 86a9 60bd 78c3 97bc 231d 653e 85f9 1c39
00000390: f3bf 413d 4807 22be 3017 a53c f004 b53d
000003a0: 9bef cd3d f0c8 6bbe 4e85 603e 8ecf ba3b
000003b0: 5f41 7e3d 36cc 1fbe ebbd debd 9378 433d
000003c0: 077d 3b3c c10c c1bd a1d6 cb3d cc69 803d
000003d0: 39fc 71bd 9368 033e d7f3 e1bd 5c67 84bd
000003e0: bdab 98bd 32d3 163d dc0b d6bd 15c8 dc3c
000003f0: a929 a4bd 395c 52bc cfaf c6bb 3f42 4c3d
-0.047422316 0.08682014 -0.04875395 -0.10664789 -0.034693606 0.03886878 0.017362172 0.099775665
0.07760752 0.053844348 0.106835455 -0.015172602 -0.0104500735 0.12690414 0.14958218 0.036250196
0.092624545 -0.11273842 0.037518002 -0.09622689 -0.011960784 -0.12064398 -0.16093124 0.14250945
0.014139881 -0.04769599 -0.06141352 0.01733431 -0.14566675 0.03362131 -0.086953074 0.010862223
0.07243098 0.17156792 0.054945964 0.06694586 -0.026315086 0.049097285 0.03882244 -0.013236964
-0.035329957 -0.099877685 -0.03931233 -0.01377984 0.10937675 -0.015027599 -0.04429884 -0.074567094
0.13904078 0.0042234366 -0.035847012 -0.03218775 0.09037051 -0.093994685 0.08290624 -0.0729326
0.093649186 -0.0934752 0.014651965 -0.1896132 -0.1388768 0.009379868 0.00032483597 0.07480126
-0.019008338 -0.10636362 -0.0752416 0.015471592 0.060623094 -0.10583275 -0.0929778 -0.030069888
0.19540133 -0.022178423 0.049044702 -0.06563384 -0.041732144 -0.01070431 0.025362216 0.06097798
-0.008708155 0.07872571 -0.013243148 0.025452025 0.06863732 -0.034211613 -0.16363603 0.11353205
-0.08858445 0.03965033 -0.13673174 0.10840342 0.07078534 -0.0005338116 -0.0073748766 0.23964244
-0.11957732 -0.07554949 0.119181 -0.1176372 0.11000559 -0.025873534 0.0049153133 -0.08783736
-0.06311098 0.2279518 0.110475 -0.09122785 -0.019806512 -0.03859281 -0.1272545 0.024948953
-0.06841419 0.15366523 0.0908247 0.020784497 -0.12812662 0.005502507 -0.05315889 -0.10655414
0.027334994 -0.07083496 0.08174402 -0.016649688 -0.07332878 0.05278069 -0.029977102 0.14655463
0.062389843 0.03520322 -0.030744165 -0.078495264 0.0070447247 -0.124070376 -0.024598394 0.09411648
-0.017542869 0.14656343 0.048299797 0.06182904 -0.079787545 0.04062772 0.090971 -0.13183849
0.110547505 0.05619369 -0.10931238 -0.04757875 -0.01617487 -0.14911969 0.042539764 -0.056188866
-0.082303144 0.014098713 -0.024183862 0.07189114 0.039288957 -0.16912493 0.113776006 -0.056284245
-0.008714334 0.086512245 0.097295545 -0.052088343 -0.14516285 0.15963374 0.014657011 0.11198712
-0.056803 -0.14184086 0.17305003 -0.054011866 -0.14657119 -0.05768828 -0.08987893 -0.034474235
-0.07438324 0.056217425 -0.040617865 0.033598952 0.0152517 0.019199198 0.08212326 -0.06624762
0.064904824 -0.015329047 -0.016290264 0.037742157 -0.11216707 -0.124211 -0.08046982 -0.09300132
-0.027970525 -0.057347983 0.04769603 0.23827367 0.018164555 -0.056186765 -0.07734694 -0.022066984
-0.044263326 -0.04238604 0.06148568 -0.26194802 0.027159171 0.103211 -0.08021884 0.19849327
0.04507748 0.16084248 0.08644864 -0.011327215 0.04403704 -0.0020471732 0.015041305 0.190665
0.050162125 0.024538549 0.17830653 0.023265257 -0.0380583 0.07665235 -0.03403402 0.05492857
-0.05484917 -0.018525824 0.22374396 0.00014970273 0.047302198 -0.1582309 0.020152658 0.088388324
0.10055467 -0.2302587 0.21925852 0.005701012 0.06207406 -0.15605244 -0.10876068 0.04772241
0.011443383 -0.09426261 0.099530466 0.06270179 -0.05907843 0.1283286 -0.11032837 -0.06465027
-0.074546315 0.036822505 -0.10451481 0.026950875 -0.080157585 -0.01283937 -0.0060634385 0.049867865

network_body._body_endoder.seq_layers.2.bias f4 [128]
00000000: 0000 0000 0000 0000 0000 0000 0000 0000
00000010: 0000 0000 0000 0000 0000 0000 0000 0000
00000020: 0000 0000 0000 0000 0000 0000 0000 0000
00000030: 0000 0000 0000 0000 0000 0000 0000 0000
00000040: 0000 0000 0000 0000 0000 0000 0000 0000
00000050: 0000 0000 0000 0000 0000 0000 0000 0000
00000060: 0000 0000 0000 0000 0000 0000 0000 0000
00000070: 0000 0000 0000 0000 0000 0000 0000 0000
00000080: 0000 0000 0000 0000 0000 0000 0000 0000
00000090: 0000 0000 0000 0000 0000 0000 0000 0000
000000a0: 0000 0000 0000 0000 0000 0000 0000 0000
000000b0: 0000 0000 0000 0000 0000 0000 0000 0000
000000c0: 0000 0000 0000 0000 0000 0000 0000 0000
000000d0: 0000 0000 0000 0000 0000 0000 0000 0000
000000e0: 0000 0000 0000 0000 0000 0000 0000 0000
000000f0: 0000 0000 0000 0000 0000 0000 0000 0000
00000100: 0000 0000 0000 0000 0000 0000 0000 0000
00000110: 0000 0000 0000 0000 0000 0000 0000 0000
00000120: 0000 0000 0000 0000 0000 0000 0000 0000
00000130: 0000 0000 0000 0000 0000 0000 0000 0000
00000140: 0000 0000 0000 0000 0000 0000 0000 0000
00000150: 0000 0000 0000 0000 0000 0000 0000 0000
00000160: 0000 0000 0000 0000 0000 0000 0000 0000
00000170: 0000 0000 0000 0000 0000 0000 0000 0000
00000180: 0000 0000 0000 0000 0000 0000 0000 0000
00000190: 0000 0000 0000 0000 0000 0000 0000 0000
000001a0: 0000 0000 0000 0000 0000 0000 0000 0000
000001b0: 0000 0000 0000 0000 0000 0000 0000 0000
000001c0: 0000 0000 0000 0000 0000 0000 0000 0000
000001d0: 0000 0000 0000 0000 0000 0000 0000 0000
000001e0: 0000 0000 0000 0000 0000 0000 0000 0000
000001f0: 0000 0000 0000 0000 0000 0000 0000 0000
0.0 0.0 0.0 0.0 0.0 0.0 0.0 0.0
0.0 0.0 0.0 0.0 0.0 0.0 0.0 0.0
0.0 0.0 0.0 0.0 0.0 0.0 0.0 0.0
0.0 0.0 0.0 0.0 0.0 0.0 0.0 0.0
0.0 0.0 0.0 0.0 0.0 0.0 0.0 0.0
0.0 0.0 0.0 0.0 0.0 0.0 0.0 0.0
0.0 0.0 0.0 0.0 0.0 0.0 0.0 0.0
0.0 0.0 0.0 0.0 0.0 0.0 0.0 0.0
0.0 0.0 0.0 0.0 0.0 0.0 0.0 0.0
0.0 0.0 0.0 0.0 0.0 0.0 0.0 0.0
0.0 0.0 0.0 0.0 0.0 0.0 0.0 0.0
0.0 0.0 0.0 0.0 0.0 0.0 0.0 0.0
0.0 0.0 0.0 0.0 0.0 0.0 0.0 0.0
0.0 0.0 0.0 0.0 0.0 0.0 0.0 0.0
0.0 0.0 0.0 0.0 0.0 0.0 0.0 0.0
0.0 0.0 0.0 0.0 0.0 0.0 0.0 0.0

value_heads.value_heads.extrinsic.weight f4 [1, 128]
00000000: 0cea e43d 1cc3 50bd 6869 253d 132f 4bbe
00000010: badc 063e d05d acbc d089 1a3d de61 433e
00000020: 37c7 0fbe 2887 363d 98d5 123d f0b1 d6bc
00000030: a55e bebd b067 793c b03e a43d 14bc 163e
00000040: 4e33 263e 4099 c83d cc96 1fbd 30fb f83c
00000050: ae9f 1f3e 8076 8f3b 0804 723d 60ef 6e3d
00000060: e689 423e f4ee 5fbd f291 0c3e 2ed4 3c3e
00000070: b438 153e 6cfd 9fbd 36ff e3bd 4cbb ed3d
00000080: 5061 943d 9846 3b3d 7045 17be 76dc 483e
00000090: 40a3 a43c f65b 533e fc6d 1a3e 4c81 4c3e
000000a0: 3d5b d8bd a8de 60bd 7b2e fabd a0cd 87bd
000000b0: 7617 e4bd a42c 513e 6c49 3f3e 6f38 5abe
000000c0: 5ecb 86bd 8491 2d3e e8cc 113e 18e5 7b3d
000000d0: ae6b 9bbd 70ea ed3d 1208 15be 625c bbbd
000000e0: 8c69 f13d a463 593e 4816 54be 68aa 1f3d
000000f0: 08dc 233e eca3 523e e881 703d 3096 1e3e
00000100: 1887 d13d f2a2 3e3e ee38 32be 288a 4dbd
00000110: 0e4c 81bd 1a3c 1abe 18ba 54be 4810 adbd
00000120: 2cdb 293e 0028 4ebd 4099 3dbd c4b0 acbd
00000130: a8d9 3a3d 9002 d33c be89 1c3e 1c31 9a3d
00000140: 3090 2b3e 6844 de3d fdf7 1ebe a671 16be
00000150: 903d ca3d 6c49 c73d 0089 9fbd 2b02 44be
00000160: f8bd 65bd 2493 373e c0e7 913c b4b4 503e
00000170: cd4a 0ebe d435 26be 448f 30bd 5254 293e
00000180: 9843 533d 488e fa3c f03f 363e f0b9 4ebc
00000190: 1061 a2bc e856 673d 72c6 c4bd e19f fdbd
000001a0: 2083 553c f83b 17be 615c 5bbe 15d3 57be
000001b0: ff27 c4bd 9441 b43d 68f0 96bc d8ca 8b3c
000001c0: c009 d4bb d062 7a3c e056 02be 505a 76bc
000001d0: 4f8a 12be 1c4d 6dbd e4ed cb3d 3408 4f3e
000001e0: 5c00 2abe cf87 fabd 4443 21bd 3f1f ddbd
000001f0: 4834 15bd 8030 f93d c876 c93d e6ae 2f3e
0.111774534 -0.05096732 0.040383726 -0.19842176 0.13170138 -0.021040827 0.037729084 0.19080302
-0.14040838 0.04456249 0.03584823 -0.026207894 -0.09295396 0.015222475 0.08019769 0.14720184
0.16230509 0.09794855 -0.03896217 0.030393213 0.15588257 0.00437814 0.059085876 0.058333755
0.18997917 -0.054671243 0.13727549 0.18440315 0.14572412 -0.07812008 -0.11132662 0.1160799
0.072451234 0.04572162 -0.14772582 0.19615349 0.020097375 0.20640549 0.15081018 0.19971198
-0.10564277 -0.05489984 -0.12215897 -0.06631017 -0.11137287 0.20427185 0.18680352 -0.2131059
-0.06581758 0.16950041 0.14238322 0.061497778 -0.07588898 0.11616981 -0.1455386 -0.0914848
0.117877096 0.21229416 -0.20711625 0.03898087 0.16001904 0.20570344 0.05871764 0.1548698
0.10230845 0.18616846 -0.1740453 -0.050180584 -0.063133344 -0.1506199 -0.20774114 -0.08450371
0.16587514 -0.050331116 -0.04628873 -0.08432153 0.04561773 0.025758058 0.1528692 0.07528898
0.16754222 0.10852891 -0.15524288 -0.14691791 0.09875023 0.09730801 -0.077898026 -0.19141452
-0.05608937 0.17927223 0.017810702 0.20381433 -0.13895722 -0.16231471 -0.04310538 0.16536072
0.051578134 0.030585423 0.17797828 -0.012617573 -0.019821674 0.056479365 -0.09608163 -0.1238401
0.013031751 -0.1476897 -0.21421959 -0.21076615 -0.09577941 0.088015705 -0.018425182 0.017064497
-0.006470889 0.015282348 -0.12728453 -0.015036181 -0.14310573 -0.057934865 0.099574834 0.20217973
-0.166017 -0.12232935 -0.03937079 -0.10796975 -0.036426812 0.12167454 0.09837109 0.17156562
