results/ppo/BalanceBall1/BalanceBall1-3264.pt (torch, 176515 bytes, 11 tensors)

network_body._body_endoder.seq_layers.0.weight f4 [128, 32]
00000000: 0d82 8dbd 182e 2d3c c216 1fbe 8d8b 3a3e
00000010: dbe3 d0be 92ab d4bc a4c2 ef3d bad4 2dbe
00000020: d9b5 503e 77ca 813c 1576 d23c d30b 4d3e
00000030: 4e62 1e3e 0757 143e a97e 193e 4eeb a0bd
00000040: 07cb 0fbe 7a0e 413e 070e 873c 97b8 66bd
00000050: 0e62 0d3d e6be 3d3e 98cc 263e 8ef5 b53c
00000060: f0b5 aebc f553 e1bd 5aca 88be a8ef bfbe
00000070: 9f05 7f3e 1811 89bd 0ba0 ff3d fc71 253e
00000080: 281b cdbe 9a6d 50bd 0a4f dc3d 667e b0bd
00000090: f6ac 16be 0161 49be 8bcc fe3d 2cf9 17be
000000a0: 2492 be3e 5236 723d ac9c 36be 9aeb 853d
000000b0: 219d 52bd e59c 0ebe 6c95 e33d af50 113d
000000c0: 0ef1 b33c d9d3 5a3d a5f0 fd3d b98f 3fbe
000000d0: 092e fc3d 6828 fabc c162 c23d cdfe 0abe
000000e0: a555 88be b0bb a0be 78a9 8bbb d22a 3fbe
000000f0: 291b 00be c0eb 43bc f5b2 6b3b 9b8f 3bbe
00000100: 864c 40bd 2e85 e83d 82b6 9f3e 317c 6e3e
00000110: 094a 17be 8c3e 603c 60aa 233e ece7 1b3d
00000120: f1dd 55bc df90 453e 8504 e83d 1991 0a3e
00000130: 80b2 893e ca6c 2f3e 6dd6 353e 8124 923b
00000140: 605e 2fbe f540 113e 478c dcbd 19ca d9bd
00000150: af51 e7be 6bcc d53e 8f7f b2be bc59 73be
00000160: baf7 d8bd 7d8a e4bd 26f4 3e3e 1138 a13d
00000170: 28bd 91be d6f2 063c dbb7 85be 3cee 09be
00000180: 6797 48bb 88ae 13bd baaf 04be d6e0 52bd
00000190: 4f10 8b3d 8ff3 c3bd 30f2 703e 717d be3d
000001a0: f559 62be c301 cabd 48ef 09be cab1 433e
000001b0: e2d1 57be 58c1 143e c00d f7bd 72a7 063e
000001c0: a93c df3d 09c0 f9bd ac15 803e b958 943e
000001d0: a644 99be 6e77 cabd 4f40 803e 3b44 a33e
000001e0: e260 5b3b 7521 53bd c722 83bc ff3d 47be
000001f0: 8912 913d 74d7 3ebe 2090 883e 9883 873e
00000200: 2047 4e3d 1ba3 003e 5e57 383e ba50 b8bd
00000210: 32d5 e43d 6eee aebd b518 0c3e 3b4b 9dbe
00000220: c7c2 2b3c 12aa a63d 56b0 753e 961a 1f3d
00000230: 990e ad3e 7bf1 bdbe c09d 57be 970b bc3c
00000240: 7988 bd3d c38d 283e 60a3 79bd ab90 adbd
00000250: 4c7a 203e 96f7 9a3e 0d57 6d3e ea86 3a3c
00000260: 2d5d 143e 28c4 aabe 4cbc acbd a53c 72be
00000270: 4124 353d 8d48 64bd d797 963e 2cae 8bbe
00000280: 31bb 97bd 73d9 8e3d fc31 4cbd df9e 493e
00000290: b2d8 5cbd 10b2 20be bf75 9b3d 4614 14be
000002a0: d80d 5bbe 2229 56bd 542e 533e 7870 3e3d
000002b0: 36f0 b2bd 6c09 c73d f412 893e 8395 2e3e
000002c0: c445 01be e8d7 02bf accf 6e3e 1370 d43c
000002d0: 5118 4dbe e6f9 963e 083a 2e3e 9979 7c3e
000002e0: ed15 c43e 215f ab3d 4653 033e 5f9e 66be
000002f0: 9db5 02be 267b a5bd c123 4a3e df7e b23d
00000300: 826a 473d f809 443d a318 a7bd a2eb 1b3e
00000310: 0bf9 173d 1228 94bd 0ac1 f53b c3d8 91bd
00000320: e8de 883e 9b9a febc d382 c9bd bc56 d73d
00000330: 0d2e f3bc 12f4 8b3d 44c7 8abe e5ad f6bd
00000340: 15a6 5e3d 5f27 d83b caed 4fbe a2f6 87be
00000350: f7c7 96be cfe0 3439 07aa 2cbe 914e b93d
00000360: 15a4 313d b141 bf3d 8901 813d 5106 40bc
00000370: d48a 9ebe 5cd1 5d39 db94 0fbd 3590 2a3e
00000380: ab45 183e 1012 29be 3c26 aa3e e50b 5e3d
00000390: e74c 063e 8aeb 0c3e 461c ca3e 6d43 7b3e
000003a0: e1ce 313e 1ce5 b3be b391 d4bd 3a38 abbe
000003b0: 269e 1ebd 612e fabe 268f 363e 4a5a e4bd
000003c0: 9aaf 7ebc 63bb 03be a879 2c3e f084 573e
000003d0: 8bb5 173d 9eca d3bd a7c4 263e 69c5 f93c
000003e0: 1993 fcbe 8ce2 12be 7dc8 88bd f99e 913e
000003f0: 7037 113d 3ea7 1f3e 5f2c 9a3c 526f b33e
-0.06909571 0.010570072 -0.15536025 0.18217297 -0.4079884 -0.025960717 0.11707047 -0.1697568
0.2038187 0.015843613 0.025691072 0.20024042 0.15467188 0.14486323 0.14989723 -0.07857381
-0.14042293 0.18853179 0.016486181 -0.056328382 0.03451734 0.18529853 0.16288984 0.022211816
-0.021326989 -0.11002342 -0.26716882 -0.3748753 0.24904488 -0.066927135 0.12481698 0.16156763
-0.4005978 -0.050885774 0.10757263 -0.086178586 -0.14714417 -0.1966591 0.12441357 -0.14841145
0.3722087 0.059133835 -0.17833203 0.06539078 -0.05141938 -0.13927038 0.11112484 0.035477336
0.02196553 0.05342469 0.12399415 -0.1870717 0.12313468 -0.030536845 0.09491492 -0.13573761
-0.26627842 -0.31393194 -0.0042621456 -0.18668678 -0.12510361 -0.011958063 0.003596482 -0.183165
-0.04694798 0.11353527 0.3119393 0.23289563 -0.14774336 0.013686787 0.15982962 0.038062975
-0.013053403 0.19293545 0.11328987 0.13531913 0.26893997 0.17131343 0.17757578 0.004459918
-0.17125845 0.14184935 -0.10768943 -0.1063425 -0.45179507 0.4175752 -0.34862944 -0.237647
-0.10594125 -0.11159227 0.18647823 0.07872022 -0.28464627 0.008236608 -0.26116833 -0.13469785
-0.003060782 -0.036055118 -0.1295766 -0.05148395 0.0679022 -0.095679395 0.23529887 0.0930127
-0.22104628 -0.09863617 -0.13470185 0.1911079 -0.21076158 0.1452688 -0.120631695 0.13149813
0.10900242 -0.12194831 0.25016534 0.2897394 -0.29935187 -0.09886061 0.25049064 0.31887993
0.0033474495 -0.05154558 -0.016007794 -0.19457243 0.070836134 -0.18636876 0.2667246 0.26467586
0.0503608 0.1256222 0.18002078 -0.08999772 0.11173476 -0.085415706 0.136813 -0.3072146
0.01048345 0.08137907 0.23993048 0.038843714 0.338002 -0.37098297 -0.2105627 0.022954745
0.09254546 0.16460328 -0.060946822 -0.08474859 0.15671653 0.30267018 0.23177738 0.011384705
0.14488669 -0.3335278 -0.08434352 -0.23655947 0.044224028 -0.055733252 0.2941272 -0.2728132
-0.07408751 0.06975069 -0.049852356 0.19689511 -0.053917594 -0.15692925 0.07590818 -0.14460859
-0.21392 -0.05228532 0.20623142 0.046493977 -0.08737223 0.09718594 0.26772273 0.17049222
-0.1262427 -0.51110697 0.23321408 0.025932347 -0.20028807 0.29487532 0.17014325 0.24655761
0.38297978 0.08367754 0.12824735 -0.22521351 -0.12764592 -0.08080129 0.19740202 0.08715605
0.04868556 0.04786107 -0.08158996 0.15226606 0.03710274 -0.07234205 0.0074998187 -0.07121422
0.26732564 -0.031079581 -0.09839406 0.1051459 -0.029685045 0.06833662 -0.27105153 -0.120448865
0.054357607 0.0065964903 -0.20305553 -0.26555353 -0.29449436 0.00017249885 -0.16861735 0.090481885
0.04336937 0.093387015 0.06299121 -0.011720256 -0.30965292 0.00021154195 -0.03505407 0.16656573
0.14870326 -0.16510797 0.33232296 0.054210562 0.13115273 0.13761726 0.39474696 0.2453744
0.17364074 -0.35135734 -0.103793524 -0.33441335 -0.03872504 -0.4886351 0.17828044 -0.11150034
-0.015544796 -0.12864451 0.16843283 0.21046805 0.037038367 -0.103413805 0.16285954 0.03048964
-0.49330977 -0.14344233 -0.06678865 0.284416 0.03545326 0.15591142 0.018819986 0.35045868

network_body._body_endoder.seq_layers.0.bias f4 [128]
00000000: 0000 0000 0000 0000 0000 0000 0000 0000
00000010: 0000 0000 0000 0000 0000 0000 0000 0000
00000020: 0000 0000 0000 0000 0000 0000 0000 0000
00000030: 0000 0000 0000 0000 0000 0000 0000 0000
00000040: 0000 0000 0000 0000 0000 0000 0000 0000
00000050: 0000 0000 0000 0000 0000 0000 0000 0000
00000060: 0000 0000 0000 0000 0000 0000 0000 0000
00000070: 0000 0000 0000 0000 0000 0000 0000 0000
00000080: 0000 0000 0000 0000 0000 0000 0000 0000
00000090: 0000 0000 0000 0000 0000 0000 0000 0000
000000a0: 0000 0000 0000 0000 0000 0000 0000 0000
000000b0: 0000 0000 0000 0000 0000 0000 0000 0000
000000c0: 0000 0000 0000 0000 0000 0000 0000 0000
000000d0: 0000 0000 0000 0000 0000 0000 0000 0000
000000e0: 0000 0000 0000 0000 0000 0000 0000 0000
000000f0: 0000 0000 0000 0000 0000 0000 0000 0000
00000100: 0000 0000 0000 0000 0000 0000 0000 0000
00000110: 0000 0000 0000 0000 0000 0000 0000 0000
00000120: 0000 0000 0000 0000 0000 0000 0000 0000
00000130: 0000 0000 0000 0000 0000 0000 0000 0000
00000140: 0000 0000 0000 0000 0000 0000 0000 0000
00000150: 0000 0000 0000 0000 0000 0000 0000 0000
00000160: 0000 0000 0000 0000 0000 0000 0000 0000
00000170: 0000 0000 0000 0000 0000 0000 0000 0000
00000180: 0000 0000 0000 0000 0000 0000 0000 0000
00000190: 0000 0000 0000 0000 0000 0000 0000 0000
000001a0: 0000 0000 0000 0000 0000 0000 0000 0000
000001b0: 0000 0000 0000 0000 0000 0000 0000 0000
000001c0: 0000 0000 0000 0000 0000 0000 0000 0000
000001d0: 0000 0000 0000 0000 0000 0000 0000 0000
000001e0: 0000 0000 0000 0000 0000 0000 0000 0000
000001f0: 0000 0000 0000 0000 0000 0000 0000 0000
0.0 0.0 0.0 0.0 0.0 0.0 0.0 0.0
0.0 0.0 0.0 0.0 0.0 0.0 0.0 0.0
0.0 0.0 0.0 0.0 0.0 0.0 0.0 0.0
0.0 0.0 0.0 0.0 0.0 0.0 0.0 0.0
0.0 0.0 0.0 0.0 0.0 0.0 0.0 0.0
0.0 0.0 0.0 0.0 0.0 0.0 0.0 0.0
0.0 0.0 0.0 0.0 0.0 0.0 0.0 0.0
0.0 0.0 0.0 0.0 0.0 0.0 0.0 0.0
0.0 0.0 0.0 0.0 0.0 0.0 0.0 0.0
0.0 0.0 0.0 0.0 0.0 0.0 0.0 0.0
0.0 0.0 0.0 0.0 0.0 0.0 0.0 0.0
0.0 0.0 0.0 0.0 0.0 0.0 0.0 0.0
0.0 0.0 0.0 0.0 0.0 0.0 0.0 0.0
0.0 0.0 0.0 0.0 0.0 0.0 0.0 0.0
0.0 0.0 0.0 0.0 0.0 0.0 0.0 0.0
0.0 0.0 0.0 0.0 0.0 0.0 0.0 0.0

network_body._body_endoder.seq_layers.2.weight f4 [128, 128]
00000000: 7fdf b3bd b825 2ebe 92d7 30be 0f12 c6bd
00000010: 3650 eebc d3fe a8bc 99f4 04bd 7b2e 373e
00000020: 859b 323d d43d 473c 72de 09be 60f7 0bbe
00000030: e3f7 f7bc c1f5 8d3d 9bc8 11bd d363 b93c
00000040: 4737 943d a868 d73b 1c93 d63d ee78 e93d
00000050: d25e b1bd 6d97 13bc af71 ef3c 440f 903d
00000060: 06b4 71bd 179e 9a3d f221 063e eb56 f63d
00000070: eae6 943c 98e5 3abe 3493 c23d 10fb a33d
00000080: 91ec 1c3d cd28 233e 5390 ebbd e666 03be
00000090: 9234 66bd 76ec cd3d 3e86 0c3d 2c08 f9bc
000000a0: 8ed3 d13d a197 603d c101 efbc ab48 873b
000000b0: 9ac4 0a3d b37b b3bc c1e6 cdbc b686 50bd
000000c0: 740d 38bd ad35 ccbd f2d0 bbbd ec52 c5bd
000000d0: ad8a 143e 912d bd3d 02aa 98bd 2373 9fbd
000000e0: 4bfd d7bd bcd2 47bc 17e3 dc3d 3ef3 3e3d
000000f0: f123 dc3c b3cd 0cbd a01e b83d 41db 963d
00000100: 1a3b fd3d 1d74 abbd 7c41 bc3d 83ea fcbc
00000110: d030 b6bd d053 a0bd 8c53 ffbd 6ee5 8fbd
00000120: 90fa 913d 80f4 0cbe 9d80 9f3d 4f67 b8bd
00000130: 6d85 b33d 16b4 e7bc 2cd4 7fbd 9c45 36be
00000140: ccc6 97bc b667 04bd 7876 713e 075b 7ebd
00000150: bee2 59bc 661d 57bd e35b 863c a67a cc3d
00000160: d37b 8abd 37a7 3c3d d748 d03d a46d 4db9
00000170: ffa8 6a3d 1469 e4bd 29d4 e4bc 8bd4 50bd
00000180: 8694 03be 5d3b dd3d 8b71 8bbd 4a36 a93d
00000190: 2436 7b3e 0853 0fbe 0a58 05bd 0874 a5bd
000001a0: 2967 8d3c dcf9 d4bd e0f6 733e 716b dc3d
000001b0: 068e 383d d5b5 f4bc 9424 e13d bfcc 15bd
000001c0: 7007 233d 13ef 193b cb19 4a3e f504 c2bc
000001d0: 016f 573c eb10 1d3e ecec c5bd f63c dc3d
000001e0: 0041 37bd d360 b03c 9cc6 4fbd 8b22 e3bd
000001f0: cd54 a8bd 37aa 56bd 0a51 26bd 99cc d03c
00000200: d974 f4bb 0042 8f3d afff debc d8d7 283d
00000210: ef58 9bbd e53b 203d 3445 ab3b 424c 5dbc
00000220: 3d27 cd3c 43b1 76bd 2fde 263c dc25 f6bc
00000230: 73e7 003d 31e7 073e 72b1 b53d 3ee0 023d
00000240: 196a e9bd 847f 75bd e5a9 21bd 4963 2abd
00000250: 5c5b 593d b6f6 c33d 8c94 96bd 7fbe 9bbc
00000260: b0a8 b3bd ade8 f53d 4190 413d 2f9c 4fbd
00000270: 9e22 e7bd 1598 cabb cf2e ce3d 94f7 9abd
00000280: 2954 55bb 9df1 d63b ae5b f43a 3b87 0d3e
00000290: 6669 823d 34f6 1e3d 149a 123e c1b2 083e
000002a0: 7bdf 0d3d dca8 73bc 979d cb3c 14db f6bd
000002b0: 0d9d 1abb a3fc 7abd f93f a5bd d816 543d
000002c0: 73ab 58be 416e 473c 8091 853d fe45 733d
000002d0: 46e9 e0bc 5edd 5c3d 05e0 0d3c 99a6 43bb
000002e0: 45e5 8a3d 38ad f93d 1ebf 3bbb 78a8 a53d
000002f0: 8c3f f53c dec3 c03d b9a5 843d 1de6 5d3e
00000300: ec50 9ebc d279 043e 2080 29be 4198 873c
00000310: 6c2e 82bd e8dc d13d 9bca 6cbc f9a9 3c3d
00000320: d7e8 1fbd 4c90 e6bc 3799 12be cce7 053e
00000330: 6f6c 973d c393 c13d 29f4 04be 9910 d1ba
00000340: d9b0 a63d 4c4b 173e 3dda f53c 4b17 093c
00000350: 4386 3abe 49f6 093d 1b53 593d e8c0 543b
00000360: 2f03 bebc 346e b93d 70c6 4b3d 4ad5 3d3d
00000370: 38c8 a53c 24ee 1fbe 01fb 72bd e2b5 f6bd
00000380: 37d9 01bc 6f77 b83c 9278 c13d b4ea b73c
00000390: f7ff debd c3fe babd 91de a1bc c0ce c1bd
000003a0: ce5f 12be 1e8b 78bd 1a4b 43be 9d05 94bd
000003b0: b681 febd c8b5 86bc c735 d9bc a809 0dbe
000003c0: bda7 f1bd c6f1 5a3d 3fdc 77bd 81d5 7e3d
000003d0: 1c51 99bd 6b55 0a3c 4f43 753d de2e 8fbd
000003e0: 6504 14bd c361 c5bd dc83 d0bd 0dde 3bbc
000003f0: 6c33 3abd 0ffc 53bc 55c9 b03d 3504 46bd
-0.08782863 -0.17006576 -0.17269734 -0.09671413 -0.029090982 -0.020629322 -0.03245983 0.17888825
0.043605346 0.012160737 -0.13463762 -0.13668585 -0.030269569 0.069316395 -0.035591703 0.022630608
0.07237106 0.0065737553 0.10477278 0.11400019 -0.08660664 -0.009008271 0.029229013 0.07034162
-0.059009574 0.075496845 0.13098887 0.12028297 0.018176515 -0.18251646 0.09500733 0.08006871
0.038311545 0.15933533 -0.11502137 -0.12832221 -0.05620248 0.10054867 0.03430771 -0.030399404
0.10245429 0.054832105 -0.029175641 0.0041285357 0.0338789 -0.02190957 -0.025134446 -0.05090972
-0.044934705 -0.09971175 -0.091707125 -0.09634957 0.14506026 0.09237207 -0.074543014 -0.077856325
-0.10546359 -0.012196239 0.107855015 0.046618693 0.026872607 -0.034375858 0.08990216 0.07366038
0.12364788 -0.08371756 0.09192178 -0.030873543 -0.08896029 -0.07828486 -0.12467107 -0.07026182
0.07127869 -0.13765144 0.07788203 -0.090040796 0.08765683 -0.028284114 -0.062458202 -0.17799991
-0.01852741 -0.03232547 0.23580348 -0.06209853 -0.013298688 -0.05251827 0.016401237 0.09984331
-0.06761899 0.046057906 0.10170143 -0.00019591168 0.057290073 -0.111528546 -0.027933197 -0.050983947
-0.12849626 0.10802338 -0.06808766 0.08262308 0.24532372 -0.13996518 -0.032554664 -0.08078772
0.017261105 -0.103992194 0.23824644 0.1076268 0.04505732 -0.02987186 0.10993305 -0.036572214
0.039802015 0.0023488447 0.19736402 -0.023684004 0.013149024 0.15338485 -0.0966433 0.10753815
-0.044739723 0.021530544 -0.050726518 -0.11090573 -0.082192995 -0.052408423 -0.04060463 0.025488185
-0.0074602184 0.069950104 -0.027221529 0.04122147 -0.07585322 0.03911962 0.0052267555 -0.013506951
0.025043124 -0.060227644 0.010184809 -0.03004735 0.031470727 0.13271786 0.08871736 0.031952135
-0.1139719 -0.05993606 -0.039468665 -0.041598592 0.053065643 0.09568541 -0.07352552 -0.019011734
-0.08772409 0.1200727 0.047256712 -0.050686058 -0.112858996 -0.0061826804 0.10067522 -0.07566753
-0.0032551384 0.0065595643 0.0018643045 0.13821118 0.063677594 0.038809016 0.14316589 0.13349439
0.034636956 -0.014871802 0.024855418 -0.120535046 -0.0023592145 -0.06127609 -0.080688424 0.051779598
-0.21159153 0.012172283 0.065218925 0.05939292 -0.027454983 0.05392205 0.008659367 -0.0029853939
0.06782011 0.12191242 -0.002864785 0.080887735 0.029937528 0.09412359 0.064769216 0.21669813
-0.019325696 0.12937096 -0.16552782 0.016552093 -0.063565105 0.10247213 -0.014452602 0.046060536
-0.039040413 -0.028144978 -0.1431626 0.13076705 0.07393729 0.094520114 -0.12983765 -0.0015950381
0.081392 0.14774817 0.03001129 0.00836737 -0.1821528 0.03368214 0.05305777 0.0032463614
-0.023194877 0.09054223 0.04974979 0.046345986 0.020237073 -0.15618187 -0.059321407 -0.1204641
-0.007925323 0.022517888 0.09446825 0.022450782 -0.10888665 -0.09130623 -0.019759448 -0.094632626
-0.14294359 -0.060679547 -0.19071618 -0.07227633 -0.12427084 -0.016444102 -0.0265149 -0.13773215
-0.11799572 0.05345323 -0.060512777 0.062215332 -0.074861735 0.008443217 0.059878644 -0.06991361
-0.036137003 -0.09637787 -0.101814 -0.011466515 -0.045459196 -0.012938513 0.08632151 -0.048343856

network_body._body_endoder.seq_layers.2.bias f4 [128]
00000000: 0000 0000 0000 0000 0000 0000 0000 0000
00000010: 0000 0000 0000 0000 0000 0000 0000 0000
00000020: 0000 0000 0000 0000 0000 0000 0000 0000
00000030: 0000 0000 0000 0000 0000 0000 0000 0000
00000040: 0000 0000 0000 0000 0000 0000 0000 0000
00000050: 0000 0000 0000 0000 0000 0000 0000 0000
00000060: 0000 0000 0000 0000 0000 0000 0000 0000
00000070: 0000 0000 0000 0000 0000 0000 0000 0000
00000080: 0000 0000 0000 0000 0000 0000 0000 0000
00000090: 0000 0000 0000 0000 0000 0000 0000 0000
000000a0: 0000 0000 0000 0000 0000 0000 0000 0000
000000b0: 0000 0000 0000 0000 0000 0000 0000 0000
000000c0: 0000 0000 0000 0000 0000 0000 0000 0000
000000d0: 0000 0000 0000 0000 0000 0000 0000 0000
000000e0: 0000 0000 0000 0000 0000 0000 0000 0000
000000f0: 0000 0000 0000 0000 0000 0000 0000 0000
00000100: 0000 0000 0000 0000 0000 0000 0000 0000
00000110: 0000 0000 0000 0000 0000 0000 0000 0000
00000120: 0000 0000 0000 0000 0000 0000 0000 0000
00000130: 0000 0000 0000 0000 0000 0000 0000 0000
00000140: 0000 0000 0000 0000 0000 0000 0000 0000
00000150: 0000 0000 0000 0000 0000 0000 0000 0000
00000160: 0000 0000 0000 0000 0000 0000 0000 0000
00000170: 0000 0000 0000 0000 0000 0000 0000 0000
00000180: 0000 0000 0000 0000 0000 0000 0000 0000
00000190: 0000 0000 0000 0000 0000 0000 0000 0000
000001a0: 0000 0000 0000 0000 0000 0000 0000 0000
000001b0: 0000 0000 0000 0000 0000 0000 0000 0000
000001c0: 0000 0000 0000 0000 0000 0000 0000 0000
000001d0: 0000 0000 0000 0000 0000 0000 0000 0000
000001e0: 0000 0000 0000 0000 0000 0000 0000 0000
000001f0: 0000 0000 0000 0000 0000 0000 0000 0000
0.0 0.0 0.0 0.0 0.0 0.0 0.0 0.0
0.0 0.0 0.0 0.0 0.0 0.0 0.0 0.0
0.0 0.0 0.0 0.0 0.0 0.0 0.0 0.0
0.0 0.0 0.0 0.0 0.0 0.0 0.0 0.0
0.0 0.0 0.0 0.0 0.0 0.0 0.0 0.0
0.0 0.0 0.0 0.0 0.0 0.0 0.0 0.0
0.0 0.0 0.0 0.0 0.0 0.0 0.0 0.0
0.0 0.0 0.0 0.0 0.0 0.0 0.0 0.0
0.0 0.0 0.0 0.0 0.0 0.0 0.0 0.0
0.0 0.0 0.0 0.0 0.0 0.0 0.0 0.0
0.0 0.0 0.0 0.0 0.0 0.0 0.0 0.0
0.0 0.0 0.0 0.0 0.0 0.0 0.0 0.0
0.0 0.0 0.0 0.0 0.0 0.0 0.0 0.0
0.0 0.0 0.0 0.0 0.0 0.0 0.0 0.0
0.0 0.0 0.0 0.0 0.0 0.0 0.0 0.0
0.0 0.0 0.0 0.0 0.0 0.0 0.0 0.0

action_model._discrete_distribution.branches.0.weight f4 [3, 128]
00000000: 839b 473b 40f4 0138 c844 fb3b 6b44 e3ba
00000010: 5706 593b ff7f bc3b 25e7 0fbc 7f5d a73c
00000020: e3b4 a53b 0f9b d23b ab0c 3bbc 68b9 b1bb
00000030: 8036 43bb 2ff3 3cbc c5a1 59bb cd0a 77bb
00000040: 0729 353a fbe5 34bc b6ba 1dbb 462d 88bc
00000050: 013b 31bc 5246 3f3b 1696 133c 5837 bf39
00000060: baca c7ba 7f03 91bb 5b72 ed3b 9b3c 123c
00000070: 5503 07bc 6672 34bc 2d26 86bc 0c67 c9bb
00000080: c7e9 bb3b ffd4 fc3a 4c7f abbb 5008 0e3c
00000090: 8f67 453b d74b ca3b b875 1bbc f3fb 063c
000000a0: 056d 1d3b b151 8ebb e9e4 1abc 559a 583c
000000b0: 2b7d 2e3b 719b 0bbc dc96 9c3c 4f3f 003b
000000c0: d5ea e13b 1739 593b ef15 7bbc a03c 623b
000000d0: 66f1 043c 4b72 28b9 5f12 d83c 3334 74bb
000000e0: 3031 e3bb a7ff 903b 965d 273b e1d1 a9bc
000000f0: aab6 253c 90aa e438 8d05 713c 905d 09bb
00000100: 1556 0e3b 108f 04bb e9fe 36ba 17a4 cbbb
00000110: 9b43 e3bb 3fd6 04bb 9035 873c 099a 8f3b
00000120: a7a3 063c f723 963b 7e32 25bb d836 f93a
00000130: 38fd c43a 2f09 f03b ac82 1b3c ffa4 f9bb
00000140: 6ca2 c139 2804 e83b ef03 8f3c 14c0 073c
00000150: b3a9 f2bb 3c01 04bd 2906 443b cac2 10bb
00000160: 87c1 0c3b 7158 1a3b c3d7 273c f24a c4bb
00000170: b263 a3ba ed25 bebb abd4 833c 8785 20bc
00000180: a2a0 a13b 2e93 3c3a ee7f 3b3c db74 4fbc
00000190: 0b71 e03b 43aa 943b 0f7f 1e3a 3d1d abbb
000001a0: fa0b 3a3b 3c76 1ebb 4c1f 31bc c258 93bc
000001b0: 3136 333c d423 403c df7f 603c c02b 0ebb
000001c0: 6807 46bc 5b9a 513a a750 9b3c 52f3 c63b
000001d0: 0735 57bb ad7a 93bb df2b 8839 8d63 54bb
000001e0: 5d04 4abb 28da 5bbc 849c c13b 7de5 9d3c
000001f0: 4f3d fd3a a043 4ebc 1ef1 49bc cd7e d2bb
00000200: 8023 1dba 172c 483b db96 3b3c f979 00bb
00000210: 4d7b 233a aa00 b43b 7513 c23a 6c20 933b
00000220: fdd9 41bc 91f2 2ebc 7f59 15bc 8c0f 2037
00000230: f384 a3ba 0d9b bb3b 4172 a3bb 1fd0 623b
00000240: ea4d 6f3c 4f52 5dbb 1f95 1c3c ad1c cbbb
00000250: b911 cb3a 6763 c43b a6ab 2dbb cbb5 2e3b
00000260: 45f1 9f3b a6ef c3ba c7fc 003c b326 143c
00000270: caac 99bc ad00 353b 470b 42bb 4f51 143a
00000280: 7fcf 8dba c5f8 64bc cad9 e6bb 1811 a1bb
00000290: 8d07 e63b 2bcd 2ebc d454 34bc c773 78bc
000002a0: 056c 403c 6b67 3ebb a1a1 cabb 30cc f83a
000002b0: 58a3 12bb 5af9 b2bb 4d81 a2bc 8f75 7dba
000002c0: 3d9b cd3b 9732 303c a45d 463b 1536 e13a
000002d0: 98e0 1fbc ca0f 6abc 0a50 7bbb bf24 1abc
000002e0: a806 bfbb 4819 983b f32e 193b 40b7 af3b
000002f0: bfd6 393c c2ae 583c 2b21 173b aa19 e43a
00000300: 39cd c6bb 2a6c 69ba 5c4c a8bb 2dd7 d93b
00000310: 421d 263c 137d 013c c2e6 0e3b d8e9 df3b
00000320: a23d 203b b445 10bc 579c 373b cb03 773b
00000330: 37b5 a33a 620f 6abb 85dd e23a 4b37 a7bb
00000340: 46f6 153b 7a2a b0ba 15f8 a2bb 0b18 c7bb
00000350: fa76 6dbb 0da2 0a3a f7c7 d63a 0062 46bc
00000360: f7b3 89ba 5772 093b 3533 633c a781 71bc
00000370: e3d8 13bb bf77 b13b af0e f2ba c5a7 ff3a
00000380: a878 e53b 4d24 d8bb f503 a33b 7b1b 2abb
00000390: ef94 343c d0cd ecb8 7285 203c 3a4a 37bb
000003a0: 6b2d 10bc 77ff 93b9 3a10 53bc 9a8d c6bb
000003b0: d72b 39bb 7362 9fbb 9364 8cbb 5b4a da3c
000003c0: 8b3d 6bbb 53c5 2c3c e148 a83a 2d15 643c
000003d0: 0d10 26bc e846 ed3b afb0 f0bb 879f 0c3c
000003e0: cd10 f0bb 56a0 27ba ac9f 873b 448b 433c
000003f0: ed6d d5bb eb48 beba 9041 773c 9c09 3d3b
0.0030457682 3.0983472e-05 0.0076681115 -0.0017339116 0.003311535 0.005752563 -0.0087831365 0.020430325
0.005056964 0.006427176 -0.0114165945 -0.0054237135 -0.0029787123 -0.011532589 -0.0033207994 -0.0037695647
0.00069107156 -0.01104116 -0.0024067587 -0.01662315 -0.01081729 0.0029186201 0.009007951 0.00036471593
-0.0015242912 -0.0044254656 0.0072462982 0.008925582 -0.0082405405 -0.011013603 -0.016375626 -0.0061463173
0.0057346555 0.0019289552 -0.005233681 0.008668974 0.003012154 0.0061735916 -0.009488516 0.00823878
0.002402128 -0.0043432345 -0.0094539905 0.013220389 0.00266249 -0.008520947 0.019114904 0.0019568985
0.0068944492 0.00331456 -0.015325054 0.0034520999 0.0081141945 -0.00016064306 0.026375948 -0.0037262558
-0.006933354 0.0044250074 0.002553796 -0.02072996 0.010114351 0.00010903657 0.014710796 -0.0020960309
0.002171879 -0.0020226873 -0.00069807336 -0.0062146294 -0.0069355494 -0.0020269302 0.016505033 0.004382376
0.008217729 0.004581924 -0.0025207098 0.0019013537 0.0015029078 0.0073253135 0.009491604 -0.007618546
0.00036932842 0.0070805736 0.01745793 0.008285541 -0.0074054836 -0.03222774 0.0029910898 -0.002208876
0.0021477656 0.002355125 0.010244313 -0.0059903795 -0.0012465625 -0.005802861 0.016092619 -0.00979746
0.004932479 0.00071935623 0.011444075 -0.012662138 0.0068494133 0.0045368983 0.0006046155 -0.0052219913
0.0028388486 -0.002417936 -0.010810684 -0.017986659 0.010938213 0.011727292 0.013702362 -0.0021693558
-0.012086727 0.0007995718 0.018959356 0.0060714865 -0.0032838003 -0.004500708 0.00025972628 -0.003240797
-0.0030825355 -0.013418712 0.0059085507 0.019274468 0.001932064 -0.012589365 -0.012325553 -0.0064238072
-0.00059943646 0.0030543858 0.011449541 -0.0019603951 0.000623633 0.005493243 0.0014806824 0.004489949
-0.011831758 -0.0106779495 -0.009115576 9.540363e-06 -0.0012475535 0.0057252706 -0.0049879854 0.0034608913
0.0146059785 -0.0033770984 0.009557038 -0.006198487 0.0015492953 0.005993295 -0.0026500016 0.002665865
0.0048810565 -0.001494874 0.007872767 0.00904243 -0.01875915 0.002761881 -0.0029608773 0.0005657868
-0.0010819285 -0.013975327 -0.0070450054 -0.004915368 0.007019943 -0.010669033 -0.011006553 -0.015164322
0.011744504 -0.002905334 -0.0061838184 0.0018981751 -0.0022375192 -0.005461854 -0.019837046 -0.00096687017
0.0062746094 0.010754249 0.0030268217 0.0017182255 -0.009758137 -0.014285991 -0.0038347268 -0.009408175
-0.005829651 0.0046416856 0.0023373931 0.0053624213 0.011342703 0.013225259 0.002306054 0.0017402668
-0.006066945 -0.00089043623 -0.005136056 0.0066479654 0.010138812 0.007903355 0.0021805023 0.0068332963
0.0024450799 -0.008805681 0.002801677 0.003769147 0.0012489919 -0.0035714735 0.001730845 -0.005103027
0.0022882386 -0.0013440393 -0.0049734213 -0.006075864 -0.0036234246 0.00052884297 0.0016386498 -0.012108326
-0.0010505904 0.0020972693 0.013867189 -0.014740384 -0.0022559694 0.005415886 -0.0018467511 0.0019504955
0.0070029087 -0.0065961243 0.004974837 -0.002595632 0.011021837 -0.000112916925 0.009797441 -0.0027967826
-0.008799891 -0.0002822836 -0.012882287 -0.0060593607 -0.002825489 -0.004864031 -0.0042844503 0.026646784
-0.0035894837 0.010545093 0.0012839102 0.013921064 -0.010135663 0.0072411187 -0.007345281 0.008582956
-0.0073262216 -0.00063944364 0.0041389074 0.011935059 -0.0065133483 -0.0014517581 0.015091315 0.002884484

action_model._discrete_distribution.branches.0.bias f4 [3]
00000000: 0000 0000 0000 0000 0000 0000
0.0 0.0 0.0

network_body._body_endoder.seq_layers.0.weight f4 [128, 32]
00000000: ccff 2f3e 4efe db3d 8243 4a3e 3eb8 2e3e
00000010: e7e2 2ebd 62a9 433e b808 b7bd 2f6e 2f3e
00000020: e6fa be3e a2b8 9dbd 8d88 d13c 6730 f6bd
00000030: e72b 8fbe 55a3 cf3d 08a7 b8bd ba82 8c3e
00000040: 0f88 293e cc22 57bd dfc0 bdbe 35a4 6ebe
00000050: 3044 bfbd 5b4c 73be 9d3d 173e 551f d6bd
00000060: 6f18 f43d 6815 f63d b3a2 b63d 4b41 123e
00000070: 5d0b c63d f0c1 273d d8ba a2bc ac67 b1bd
00000080: d919 cb3b 468d 05be b32d 0abe abe5 113d
00000090: 9bef 2ebe 62bf bbbe 2cc2 71bd ea7d 013d
000000a0: 88b6 5b3d 8de1 8a3d 9719 923b 63ef 033e
000000b0: 67ef abbd 8f71 31be 1975 efbd 9adf 3fbe
000000c0: 5082 3a3e 3ed3 f1bb 9eb1 11be 91e9 a8bd
000000d0: 0d57 94bd 86c5 483e 5549 0f3d bc0c 95bd
000000e0: 56ea e0be 16eb 17be 42b4 ccbc 9873 b7bd
000000f0: f7c1 3e3e 5a41 383e 53fa 143e 7b31 433e
00000100: 391c 35bd e00c 46be cfb4 ea3d 2eda 18bd
00000110: bb58 ee3d dcf4 4f3e 3ae8 153e af3d 6c3e
00000120: c164 833c 65ff fc3d 04c7 223d 5b44 dabd
00000130: 3488 55bb 561b 31bc ad86 cb3d b545 92bc
00000140: b0a2 6cbe fbfe 753e 469b 8ebc 846e 3b3e
00000150: 4450 333d 3b15 2bbd b8f2 30bd b3e9 a9bd
00000160: 896e 9f3d d9e5 8ebe 6129 2a3e 4532 473d
00000170: 382e fa3c 2f8b cb3e 4c0b 3d3e 3d58 433e
00000180: 2bce bbbe 10c6 16be 9d3e 9c3e f997 c7bd
00000190: a6aa 3f3e 9e98 e63d 3762 99be 48ac 78be
000001a0: b6c0 b13e 11d4 78be e74f 9bbe 3ae7 9fbe
000001b0: 7683 00be 8ef4 3a3e b650 fc3b 9109 18be
000001c0: d34a c2bc fad7 93be 026c 8a3e f128 223e
000001d0: ebee 103e 101f 49be fbda 193d 386a b33d
000001e0: fae1 51bd 8bad 583e 0c57 d5bd 84eb 853e
000001f0: 1d53 1bbd 0249 2d3e b16b e43d c3c0 8dbd
00000200: 9f63 fa3c 00b8 b13d 3780 1cbe ad80 eb3d
00000210: 12ec 3e3c 0924 8a3e 96d1 023b 4794 49be
00000220: 5435 e33c 4f5c 8e3d 165b 873e e211 883e
00000230: 71c4 e83b 6066 b13d 2078 9bbe c696 cb3c
00000240: 2b62 863d 64db 193e bac3 143d e872 853d
00000250: f472 df3c 5fb5 8ebd 3fa0 ef3d 5313 87bd
00000260: 0e96 693d c1be a9bc 0b35 6d3e 46b4 a6be
00000270: d05f ac3c 239e ccbd cef9 253e 9b25 1a3e
00000280: 1735 943e a978 92bd 0be8 ad3e 5475 aa3a
00000290: 8801 8d3c eaea cc3d 9ce8 b6bd d7a4 b73e
000002a0: a344 283e acb9 8fbc 1999 4abc f46f 1d3d
000002b0: 6090 e7be 2a8b 62be 2bd9 b13c 3581 973b
000002c0: e6f7 83be 68e0 bbbd 0335 0b3e 1a4f 03be
000002d0: f55c 70bd 143b 0dbe a527 5abd 10f5 1e3d
000002e0: 8717 9c3d 964b d93c 32fb cf3e 3f3e 403e
000002f0: 3c56 cabc 6020 b0bd 5bac c8bc d717 7bbe
00000300: ab21 96be 993d 033d f150 c63c 4cd2 eabd
00000310: 70dc 303e f6ca 4c3e 9bab 95bc fd84 aebe
00000320: ea87 cc3d 4ce8 1dbe e2c3 7cbe c9f2 99bd
00000330: 4ae9 9abd 4d3b 043d a223 a93e 97fd 5a3e
00000340: 00fd 1fbe 30ec acbd 1a7f 1cbd ca69 cf3d
00000350: 2083 f93b a26b 173d a2c7 683e 2fe8 a4bd
00000360: a82c d5be aa83 a4bd 9622 043d dd2e f03d
00000370: ba60 f63d 9beb 33be c022 d1bc 067a 203d
00000380: 56fe 563d bac5 6c3d f328 bd3c 8ad2 483d
00000390: 1474 26be a308 55be 3d0d 26bd 322a 21be
000003a0: 174c 053d 6feb 713e 773f c2bc bb44 d93c
000003b0: 500d 9dbe 9266 113d 09a5 d6bc b166 03bd
000003c0: d13d 0e3b 795c febd 6dd8 01be e488 3b3e
000003d0: e601 223e e4dc 863c c196 c3bb a9b1 8b3d
000003e0: faff 8f3d 95a0 14bd 838b 873e c33a 9ebe
000003f0: 4c75 01be 2c01 603e ded3 703e c0fd 7f3e
0.17187423 0.10741864 0.19752315 0.1706247 -0.04269686 0.19107583 -0.0893721 0.17131875
0.37300795 -0.077012315 0.025577808 -0.12020951 -0.27963182 0.10138575 -0.09016234 0.27443486
0.16555808 -0.05252342 -0.3706121 -0.23304828 -0.093391776 -0.23759596 0.14769597 -0.10455195
0.11918723 0.12015802 0.08917751 0.1428272 0.09670136 0.040956438 -0.019864485 -0.08662352
0.0061981496 -0.13042173 -0.13493995 0.03561942 -0.1708359 -0.3666945 -0.059023067 0.03161422
0.053640872 0.06781302 0.004458617 0.12884288 -0.08395272 -0.17328475 -0.116922565 -0.18737641
0.18213773 -0.0073799184 -0.14227912 -0.08247674 -0.07243166 0.19606599 0.034982044 -0.072778195
-0.43928784 -0.14835772 -0.024988297 -0.08957595 0.18628679 0.1799368 0.14548616 0.19061844
-0.04421637 -0.19340849 0.11460268 -0.037317447 0.11638018 0.2030825 0.14639369 0.23070405
0.016039254 0.123534 0.039740577 -0.10657569 -0.0032582404 -0.01080974 0.09937797 -0.017855505
-0.23108935 0.24023049 -0.017408025 0.18303877 0.04377772 -0.041768294 -0.043200225 -0.08296528
0.07784755 -0.27909735 0.16617347 0.048631925 0.030539617 0.39754626 0.1846134 0.19076629
-0.3668073 -0.14723992 0.3051652 -0.09745783 0.18717441 0.11259578 -0.29957744 -0.2428447
0.3471734 -0.24299647 -0.30334398 -0.312311 -0.12550148 0.18257353 0.007700051 -0.148474
-0.02371732 -0.28875715 0.27035528 0.1583593 0.1415364 -0.19640756 0.03756235 0.08760494
-0.0512409 0.21159951 -0.104169935 0.26156247 -0.03792106 0.16922382 0.11153353 -0.06921532
0.030565081 0.08677673 -0.15283285 0.11499152 0.011652963 0.26980618 0.0019961349 -0.1968547
0.02773539 0.069512 0.2643668 0.26576144 0.0071034958 0.086621046 -0.30365086 0.024852168
0.06561693 0.15025097 0.036319472 0.06516057 0.027276494 -0.069681875 0.117004864 -0.06595483
0.05702787 -0.020720841 0.23164766 -0.32559413 0.02104178 -0.099911 0.16208574 0.15053408
0.28946754 -0.0715192 0.33966097 0.0013004937 0.017212644 0.10005744 -0.089310855 0.3586795
0.16432433 -0.01754459 -0.012365603 0.038436845 -0.45227337 -0.221234 0.02171 0.004623557
-0.2577507 -0.091736615 0.13594441 -0.12823144 -0.0586824 -0.13792068 -0.053260464 0.03880793
0.07621675 0.0265253 0.40621334 0.18773745 -0.024699323 -0.08599925 -0.024496248 -0.24520813
-0.29322562 0.032041166 0.024208518 -0.11465892 0.1727159 0.19999298 -0.018270304 -0.34085837
0.09986861 -0.15420645 -0.24684098 -0.07517011 -0.075640276 0.032283116 0.33034998 0.213858
-0.15623856 -0.08443487 -0.03820715 0.101275995 0.0076145083 0.03696788 0.22732404 -0.08052098
-0.41635633 -0.080329254 0.032259546 0.117276885 0.12030168 -0.17570345 -0.025529265 0.03917887
0.052488647 0.057805754 0.023090815 0.04902891 -0.16255218 -0.20804076 -0.04053997 -0.15738752
0.032543268 0.23624967 -0.023711903 0.026522031 -0.3067422 0.03549821 -0.026201742 -0.032080356
0.0021704326 -0.124199815 -0.12680216 0.18313938 0.15821037 0.01646275 -0.005968899 0.06820995
0.070312455 -0.036285955 0.26473626 -0.30904207 -0.12642401 0.21875447 0.23518321 0.24999142

network_body._body_endoder.seq_layers.0.bias f4 [128]
00000000: 0000 0000 0000 0000 0000 0000 0000 0000
00000010: 0000 0000 0000 0000 0000 0000 0000 0000
00000020: 0000 0000 0000 0000 0000 0000 0000 0000
00000030: 0000 0000 0000 0000 0000 0000 0000 0000
00000040: 0000 0000 0000 0000 0000 0000 0000 0000
00000050: 0000 0000 0000 0000 0000 0000 0000 0000
00000060: 0000 0000 0000 0000 0000 0000 0000 0000
00000070: 0000 0000 0000 0000 0000 0000 0000 0000
00000080: 0000 0000 0000 0000 0000 0000 0000 0000
00000090: 0000 0000 0000 0000 0000 0000 0000 0000
000000a0: 0000 0000 0000 0000 0000 0000 0000 0000
000000b0: 0000 0000 0000 0000 0000 0000 0000 0000
000000c0: 0000 0000 0000 0000 0000 0000 0000 0000
000000d0: 0000 0000 0000 0000 0000 0000 0000 0000
000000e0: 0000 0000 0000 0000 0000 0000 0000 0000
000000f0: 0000 0000 0000 0000 0000 0000 0000 0000
00000100: 0000 0000 0000 0000 0000 0000 0000 0000
00000110: 0000 0000 0000 0000 0000 0000 0000 0000
00000120: 0000 0000 0000 0000 0000 0000 0000 0000
00000130: 0000 0000 0000 0000 0000 0000 0000 0000
00000140: 0000 0000 0000 0000 0000 0000 0000 0000
00000150: 0000 0000 0000 0000 0000 0000 0000 0000
00000160: 0000 0000 0000 0000 0000 0000 0000 0000
00000170: 0000 0000 0000 0000 0000 0000 0000 0000
00000180: 0000 0000 0000 0000 0000 0000 0000 0000
00000190: 0000 0000 0000 0000 0000 0000 0000 0000
000001a0: 0000 0000 0000 0000 0000 0000 0000 0000
000001b0: 0000 0000 0000 0000 0000 0000 0000 0000
000001c0: 0000 0000 0000 0000 0000 0000 0000 0000
000001d0: 0000 0000 0000 0000 0000 0000 0000 0000
000001e0: 0000 0000 0000 0000 0000 0000 0000 0000
000001f0: 0000 0000 0000 0000 0000 0000 0000 0000
0.0 0.0 0.0 0.0 0.0 0.0 0.0 0.0
0.0 0.0 0.0 0.0 0.0 0.0 0.0 0.0
0.0 0.0 0.0 0.0 0.0 0.0 0.0 0.0
0.0 0.0 0.0 0.0 0.0 0.0 0.0 0.0
0.0 0.0 0.0 0.0 0.0 0.0 0.0 0.0
0.0 0.0 0.0 0.0 0.0 0.0 0.0 0.0
0.0 0.0 0.0 0.0 0.0 0.0 0.0 0.0
0.0 0.0 0.0 0.0 0.0 0.0 0.0 0.0
0.0 0.0 0.0 0.0 0.0 0.0 0.0 0.0
0.0 0.0 0.0 0.0 0.0 0.0 0.0 0.0
0.0 0.0 0.0 0.0 0.0 0.0 0.0 0.0
0.0 0.0 0.0 0.0 0.0 0.0 0.0 0.0
0.0 0.0 0.0 0.0 0.0 0.0 0.0 0.0
0.0 0.0 0.0 0.0 0.0 0.0 0.0 0.0
0.0 0.0 0.0 0.0 0.0 0.0 0.0 0.0
0.0 0.0 0.0 0.0 0.0 0.0 0.0 0.0

network_body._body_endoder.seq_layers.2.weight f4 [128, 128]
00000000: dd0c 6b3e fad8 9ebd 4924 393c 07bd 68bd
00000010: bff2 c6bd 8747 8f3d 642a c43c 970d 80be
00000020: ea7a cc3c b01a 503d 2eae a6bd c44d be3c
00000030: 9116 b2bd f30d a0bb bb86 303c 788c e7bc
00000040: 1595 353e 04f7 713c 8295 60bd ef69 b13d
00000050: a580 3bbe 852e cd3d 9b3d e93c 49d0 aa3d
00000060: 7504 89bb 4fc5 103e 89a5 05bd 1c3e 0f3b
00000070: 76ed 82bd b0c9 c3bd aa8f 893c 68c6 57bd
00000080: 5967 e13a fb5c 543d 6b4e cb3d 816d 763c
00000090: c03e a5bd 8384 e63c 614b 093e 0669 06bc
000000a0: 8d11 35be 6d14 79bc 13e1 2d3d 6937 10bd
000000b0: 9c7d 42bd 1527 19bd 151b 78bc 2128 c9ba
000000c0: c0a4 78bd ea53 243e a05a 08be d2a3 c93c
000000d0: 6dd5 3e3d deb2 3f3c 1508 da3d ba8b 9fbd
000000e0: 0ed3 083d 9db0 f6ba 431c e03d 405b 0ebc
000000f0: ef4b 0cbe a88c d83d a3c7 96bc cb4b 1abd
00000100: 5ca6 0fbd 44e0 e23d 974c b73d f84c 243e
00000110: 2bb8 38bd 0030 93bc c026 093b 7b46 99bb
00000120: c656 80bd 474f 05bc 6e2e 01be 64f7 8ebc
00000130: fa3e b3bd f570 02be bca6 af3d 973e ccbd
00000140: 7cb4 3f3d 31c8 fa3a c131 d3bd b340 233d
00000150: 737f 8d3c db54 f03d 51d8 d7bc 39f2 4bbc
00000160: ab52 b3bd 3a44 11bd 8ff0 9abd 437d e13d
00000170: 8686 7e3c ce90 3fbe fd25 c33d 2d38 093d
00000180: 2d12 0bbc 6ce3 69bc a8d4 ccbd f0e4 ccbd
00000190: 0029 0fbd a835 0abd 486f 6ebc a1f6 d73d
000001a0: b42c d3bd e538 a73d feaf b4bd 3b39 b4bd
000001b0: 0745 41bd 268c b4bd dd32 a13d 79a0 a1bd
000001c0: ade9 5dbd 1af3 33be 6a3f bdbd b905 08bd
000001d0: 54fc a33d 1775 91bc e73c a4bd 908d 55bd
000001e0: 546a 923d 1ffa 8abc 36f1 23bc dac7 e53d
000001f0: 1cad 3ebd 67e8 b2bd 2c04 3c3d 91ad a13c
00000200: 2af4 bb3d fe2f d73d 58b1 18bd 8248 e43d
00000210: 8356 4dbd 7a35 56bd 8682 e6bd d57d 61bd
00000220: d80b 0b3d 484e da3c 01e3 65bd 2571 973d
00000230: 21a6 e7bc af8e d3bc 5f31 533d f2c5 f5bc
00000240: 640c 4a3e e6b5 f3bd b812 6ebb 7cd7 633c
00000250: e23b bdbd aa37 22be 4481 31bc 20a7 6d3d
00000260: cd96 c23d 179e 643d dc47 093e efea d63d
00000270: f556 78be 4957 4d3d 110d babd 5157 a2bd
00000280: da9b 3bbc 3012 2f3d 1d13 ec3c a5ee 29bc
00000290: 9f57 ce3d 2faa 3bbe 66db 19bd a54d 7a3c
000002a0: 60c1 d83c fe55 84bb f687 3fbc b140 653d
000002b0: 6340 64bd 1a7f 703c 1033 2cbe 9567 bdbb
000002c0: ba66 d2bd 5bf4 1abe b3ad 4c3d 30ea 68bc
000002d0: 5c96 38bd ae09 133d dc4f d4bd a3da 4ebc
000002e0: 76d8 dbbc 8e21 cb3d 075c 97bd 8ad8 8f3d
000002f0: 73e6 e9bd 4b99 32be 87ef b9bc 1d27 8f3d
00000300: 411d 093e 233c c9bc 17e6 703a e821 033e
00000310: 39f8 b4bc ba0c 9f3a 38fa 533d 7ff4 8b3d
00000320: 2be0 5a3d e402 ac3c e0ae 743d 217e 19be
00000330: a828 02be b727 71bd d331 393e e0da c93d
00000340: 77ba 033e d6ed 303d cbc4 4f3d 0b0a 4c3d
00000350: 63ab e4bc 87ec 29bd 3012 0e3d 8646 7c3d
00000360: 7c98 aebc 5eeb 99bd b1b5 2abb 4f3f dcbd
00000370: 1f74 bdbc bdf7 27bd 95ea c83d 8686 7c3b
00000380: 6b77 ca3d 4a2f 863d 23aa 173d 6f1e 2b3e
00000390: 9ffd d8bc 76a1 29be 7183 24ba 766e 8abd
000003a0: b4ec 6a3d 3a27 1a3d 422b eabd 5f88 cebc
000003b0: 9c9b cd3d 6067 c53d fc90 b03c 7fe3 813d
000003c0: 3340 bfbc 5fa2 bcbd 8265 72bc 69a5 533e
000003d0: 80b6 753d b623 c13d 8cb4 3d3d fbca ebbc
000003e0: 020b 80bd f044 c5bd 9b7b 1c3e 31a1 053e
000003f0: 6c21 1abe 79c9 0d3e 2b3f 1f3d 6135 8b3b
0.22954126 -0.07756229 0.011300155 -0.056820896 -0.09714269 0.06996065 0.023945995 -0.25010368
0.024960954 0.0508067 -0.08138691 0.02323044 -0.086957105 -0.0048844754 0.01077431 -0.028265223
0.17732652 0.014768366 -0.05483008 0.08662783 -0.18310793 0.100186385 0.028471759 0.083405085
-0.0041814395 0.14137767 -0.03262857 0.0021857088 -0.06392948 -0.09559953 0.016792137 -0.05267945
0.0017196938 0.051846486 0.099270664 0.015040756 -0.08068609 0.028139358 0.13407661 -0.0082037505
-0.17682476 -0.015202624 0.042450976 -0.035209093 -0.04748307 -0.037390787 -0.015143176 -0.0015347042
-0.060703993 0.16047636 -0.1331582 0.024614248 0.046590257 0.01170036 0.10646073 -0.077903226
0.033404402 -0.0018820945 0.109428905 -0.008688748 -0.13700841 0.10573703 -0.018405741 -0.037669938
-0.035070762 0.110779315 0.08950155 0.16044986 -0.04509751 -0.017967224 0.0020927638 -0.0046775914
-0.06266551 -0.008136577 -0.12615368 -0.01745195 -0.08752246 -0.12738402 0.08576724 -0.099728756
0.046802983 0.0019133148 -0.10312224 0.039856624 0.017272687 0.11734935 -0.026348265 -0.012447887
-0.08756002 -0.035465457 -0.07565414 0.1101022 0.015535003 -0.18707582 0.0952873 0.03350084
-0.00848822 -0.014275413 -0.100014985 -0.10004604 -0.03495121 -0.033742577 -0.014552899 0.105450876
-0.10311261 0.08165149 -0.0882263 -0.08799978 -0.04718497 -0.08815794 0.078710295 -0.07891936
-0.05417793 -0.17573205 -0.09240611 -0.033208583 0.08007112 -0.017756028 -0.08019429 -0.052136958
0.07149187 -0.01696497 -0.01000624 0.11219759 -0.04655181 -0.087357335 0.045902416 0.019736083
0.0917743 0.10507201 -0.037278503 0.11146642 -0.050131332 -0.052297093 -0.11255364 -0.055051643
0.033946842 0.026648656 -0.05612469 0.073946275 -0.028277459 -0.025824873 0.051560756 -0.030001614
0.19731289 -0.11899929 -0.0036327075 0.013906356 -0.09239937 -0.15841547 -0.010834042 0.05802071
0.09501419 0.05581483 0.13406318 0.10494029 -0.24251921 0.05013207 -0.090845235 -0.079268105
-0.011450732 0.042741954 0.028817708 -0.010371839 0.10075306 -0.18326639 -0.03756275 0.015277301
0.026459396 -0.0040385714 -0.01169013 0.055969898 -0.055725466 0.014678741 -0.16816354 -0.00578017
-0.102735 -0.15132277 0.04997034 -0.014215991 -0.04506527 0.035897903 -0.103667945 -0.012625369
-0.026836615 0.099185094 -0.073906 0.070237234 -0.11420908 -0.17441289 -0.022697223 0.06989882
0.13390066 -0.024564808 0.00091895595 0.12805903 -0.022091018 0.001213453 0.0517523 0.06833743
0.05343644 0.020997472 0.059737086 -0.1498952 -0.12710822 -0.058875766 0.18085413 0.098562
0.128641 0.043195568 0.050724786 0.049814265 -0.027913755 -0.041485336 0.034685314 0.061590694
-0.021312945 -0.07515596 -0.0026048238 -0.10754263 -0.02312666 -0.041007746 0.09810368 0.003853233
0.098860584 0.065519884 0.03702749 0.16710828 -0.026488123 -0.16565499 -0.000627569 -0.0675935
0.057354644 0.037635066 -0.11434032 -0.025211511 0.10039446 0.09638858 0.021553509 0.063422196
-0.023346042 -0.09210657 -0.014794709 0.20668568 0.0599885 0.094306394 0.04631476 -0.028783312
-0.062520996 -0.096322894 0.15281527 0.13049771 -0.15051812 0.13846387 0.0388786 0.0042483066

network_body._body_endoder.seq_layers.2.bias f4 [128]
00000000: 0000 0000 0000 0000 0000 0000 0000 0000
00000010: 0000 0000 0000 0000 0000 0000 0000 0000
00000020: 0000 0000 0000 0000 0000 0000 0000 0000
00000030: 0000 0000 0000 0000 0000 0000 0000 0000
00000040: 0000 0000 0000 0000 0000 0000 0000 0000
00000050: 0000 0000 0000 0000 0000 0000 0000 0000
00000060: 0000 0000 0000 0000 0000 0000 0000 0000
00000070: 0000 0000 0000 0000 0000 0000 0000 0000
00000080: 0000 0000 0000 0000 0000 0000 0000 0000
00000090: 0000 0000 0000 0000 0000 0000 0000 0000
000000a0: 0000 0000 0000 0000 0000 0000 0000 0000
000000b0: 0000 0000 0000 0000 0000 0000 0000 0000
000000c0: 0000 0000 0000 0000 0000 0000 0000 0000
000000d0: 0000 0000 0000 0000 0000 0000 0000 0000
000000e0: 0000 0000 0000 0000 0000 0000 0000 0000
000000f0: 0000 0000 0000 0000 0000 0000 0000 0000
00000100: 0000 0000 0000 0000 0000 0000 0000 0000
00000110: 0000 0000 0000 0000 0000 0000 0000 0000
00000120: 0000 0000 0000 0000 0000 0000 0000 0000
00000130: 0000 0000 0000 0000 0000 0000 0000 0000
00000140: 0000 0000 0000 0000 0000 0000 0000 0000
00000150: 0000 0000 0000 0000 0000 0000 0000 0000
00000160: 0000 0000 0000 0000 0000 0000 0000 0000
00000170: 0000 0000 0000 0000 0000 0000 0000 0000
00000180: 0000 0000 0000 0000 0000 0000 0000 0000
00000190: 0000 0000 0000 0000 0000 0000 0000 0000
000001a0: 0000 0000 0000 0000 0000 0000 0000 0000
000001b0: 0000 0000 0000 0000 0000 0000 0000 0000
000001c0: 0000 0000 0000 0000 0000 0000 0000 0000
000001d0: 0000 0000 0000 0000 0000 0000 0000 0000
000001e0: 0000 0000 0000 0000 0000 0000 0000 0000
000001f0: 0000 0000 0000 0000 0000 0000 0000 0000
0.0 0.0 0.0 0.0 0.0 0.0 0.0 0.0
0.0 0.0 0.0 0.0 0.0 0.0 0.0 0.0
0.0 0.0 0.0 0.0 0.0 0.0 0.0 0.0
0.0 0.0 0.0 0.0 0.0 0.0 0.0 0.0
0.0 0.0 0.0 0.0 0.0 0.0 0.0 0.0
0.0 0.0 0.0 0.0 0.0 0.0 0.0 0.0
0.0 0.0 0.0 0.0 0.0 0.0 0.0 0.0
0.0 0.0 0.0 0.0 0.0 0.0 0.0 0.0
0.0 0.0 0.0 0.0 0.0 0.0 0.0 0.0
0.0 0.0 0.0 0.0 0.0 0.0 0.0 0.0
0.0 0.0 0.0 0.0 0.0 0.0 0.0 0.0
0.0 0.0 0.0 0.0 0.0 0.0 0.0 0.0
0.0 0.0 0.0 0.0 0.0 0.0 0.0 0.0
0.0 0.0 0.0 0.0 0.0 0.0 0.0 0.0
0.0 0.0 0.0 0.0 0.0 0.0 0.0 0.0
0.0 0.0 0.0 0.0 0.0 0.0 0.0 0.0

value_heads.value_heads.extrinsic.weight f4 [1, 128]
00000000: 1281 233e 8852 dbbd 5c53 a83d 08cc cc3c
00000010: 6e04 abbd 04d6 f73d a027 353e 742e a53d
00000020: 8729 cbbd 73b4 bcbd 6cc4 403e 5067 343e
00000030: 96d3 83bd a0fe 433d eedf 0b3e 7c73 79bd
00000040: ca60 0abe 5862 a13c 00f8 3c3d 98b6 a73d
00000050: 5e91 4f3e 0628 043e 3ccd 033e 52d8 aebd
00000060: 2ad9 33be 02e2 aebd dcf0 8f3d 7c68 8c3d
00000070: fc11 2e3e 40c7 913b 985c 9bbd ea97 123e
00000080: b825 973d b0a4 26be f8eb 943c 0a83 3abe
00000090: 581b 983d 3465 02be bc32 bc3d 6901 17be
000000a0: c0d6 c2bc 404e 5d3d 300a 0cbd 00f3 3e3e
000000b0: 1a07 1cbe 4b62 18be 3028 ec3d 9086 1e3d
000000c0: ece8 b5bd 9094 03bc 0081 be3c 2839 dc3d
000000d0: d2d8 82bd 180f 0f3e d80c 693d a871 683d
000000e0: c8d4 d73d a0de 89bc 8230 393e 0086 7fbb
000000f0: a29b 453e cd7f 26be 0083 15bd 94cd 98bd
00000100: eda8 0ebe e46b d03d 9423 3ebd 46e6 aabd
00000110: 6241 043e 146d 143e 6006 e93c 50f6 3c3e
00000120: 5e76 523e 88a4 093e e0ee 143c 6295 abbd
00000130: a07b d03b b06c f83c 3ca9 0a3e b0d1 1cbe
00000140: 60b2 52bc 8a2d d7bd 7b25 3abe b518 e8bd
00000150: fc74 2f3e 72ca 1b3e 9801 f1bc e48c 383e
00000160: 6813 293e 52e1 2fbe fc0b 0abd c006 183e
00000170: 6fcf 52be d84c 263d 52a4 05be 30d0 363e
00000180: 7025 1d3e 80f8 4ebc 70df 693c 50cf f63c
00000190: 6742 52be 0094 743b ac83 153e 8866 0e3d
000001a0: a0f5 d1bb fe38 06be 4c89 53be d08a 773d
000001b0: 127a 4f3e 2c18 3b3e c87a 95bc 8223 33be
000001c0: 88da 46bd b837 d43d 0886 83bd fc89 853d
000001d0: 36d0 98bd a8c9 283e dcd4 bf3d 583b 833d
000001e0: a000 ddbc fe81 083e 58ba 4c3e 40a8 13bb
000001f0: 8851 c13c 8095 13be c8d9 683d 68ec 40be
0.15967205 -0.10709101 0.082190245 0.024999633 -0.08350454 0.12101367 0.17690897 0.08065501
-0.0992003 -0.092141055 0.18824929 0.17617536 -0.06436841 0.04785025 0.13659641 -0.06090115
-0.13513485 0.019700214 0.04613495 0.08189124 0.20270297 0.12905893 0.1287126 -0.085373536
-0.1756331 -0.08539201 0.07028362 0.06855866 0.16999048 0.0044488013 -0.0758602 0.14315763
0.07380241 -0.16273761 0.018178925 -0.1821405 0.074270904 -0.12733918 0.09189364 -0.14746632
-0.023784041 0.054029703 -0.034189403 0.18647385 -0.15237084 -0.14881246 0.11531103 0.038702548
-0.08882317 -0.0080310255 0.023254871 0.10753089 -0.063890114 0.13970602 0.056897014 0.056749016
0.10538632 -0.016829789 0.1808491 -0.0038989782 0.1929765 -0.1625969 -0.036501884 -0.07461086
-0.13931628 0.101768285 -0.04642065 -0.083447024 0.12915567 0.14494735 0.028445423 0.18453336
0.20552966 0.1344167 0.009090155 -0.08378102 0.0063623935 0.030325264 0.1354112 -0.15314364
-0.012859911 -0.10506733 -0.1817836 -0.113328375 0.1713447 0.15213946 -0.029419705 0.18022496
0.16511309 -0.17175797 -0.033702835 0.14846325 -0.20586942 0.040600628 -0.13050964 0.17852855
0.15346313 -0.012632489 0.014274463 0.030128151 -0.20533143 0.003731966 0.1460101 0.03476575
-0.0064074546 -0.13107678 -0.20657843 0.060435116 0.2026141 0.1827094 -0.018247023 -0.17494014
-0.04854825 0.1036219 -0.06422049 0.06520459 -0.07461588 0.16483176 0.093667716 0.06407803
-0.026977837 0.13330838 0.1999296 -0.0022530705 0.023598447 -0.14412498 0.056848317 -0.18840182
