results/ppo/BalanceBall1/BalanceBall1-512.pt (torch, 147820 bytes, 11 tensors)

network_body._body_endoder.seq_layers.0.weight f4 [128, 4]
-1.1607145 -0.45289788 1.5525749 0.14935583 -0.70338356 -0.5105165 -0.14256863 -0.31653214
-0.2241542 -1.0096427 -0.35096046 0.47139117 -0.18352859 0.19144945 -0.40576416 -0.21290223
0.03137883 0.76451904 0.7862454 0.86462826 0.3682979 -0.6383952 -0.00018053493 0.51877385
-0.43439665 0.32728484 0.69840074 -0.29156008 -0.5710148 -0.69805396 0.7737113 0.71603364
0.3859566 -0.42757758 -0.58371717 -0.0922683 0.15445742 0.11763388 0.9939023 -0.59889734
0.055719197 -0.58044183 0.71509695 -0.59380394 0.4564555 0.7739208 0.32972667 0.29616153
-0.21668671 -0.37707087 0.24339302 -0.082610056 0.6309335 -0.14423215 -0.38643935 0.11829143
-0.21630843 -0.06724863 0.15518217 -0.18653995 0.119452775 -0.22077917 0.78036994 0.90443105
0.43365753 -0.42109495 0.19644803 0.055449758 0.16900417 -0.59389216 -0.339615 -0.122056484
0.28193107 0.7136725 -0.06842349 -0.5360088 -0.41331384 0.3721263 0.38731316 0.12922493
0.12813336 0.24338292 1.4157186 -0.70447946 0.15842932 -1.4585135 -0.4887024 -1.1094594
0.06987909 0.14001349 0.09573679 0.24586026 -0.06754848 -0.4920968 0.47791415 0.4738464
-0.38770545 -0.59851754 0.32637602 -0.16638519 0.39553645 -0.5053478 -0.15920748 -0.21996188
-0.1769836 -0.20860021 -0.15169768 -0.07575689 -0.022093406 0.23067322 -1.0353837 -0.5026293
0.5539175 0.17290196 -0.15288562 0.6277963 0.12900443 -0.3571381 -0.3088051 0.22302231
0.09104482 0.46288076 -0.15967615 0.069799095 -0.07995628 -0.37789166 0.08274607 0.98968
-0.2474856 0.17925721 -0.59990335 -0.18129426 0.37156004 0.19633111 0.021044424 0.05970715
-0.23891959 -0.22602785 -0.060987223 -0.3664691 -0.3206956 -0.35977182 -0.3370456 0.7146417
-0.63507044 0.46055943 0.09682719 0.39963853 -0.2459181 0.53452 -0.3841198 -0.33389112
0.1204182 0.23017752 0.0075102765 0.11573323 -0.57408756 -0.29629812 0.8878565 0.7209225
0.37643182 0.3902965 0.8668685 0.62077796 -0.46469256 0.33822477 0.11425498 0.50314516
-0.5866421 -0.20436463 0.3213952 -1.121667 0.2931074 -0.25771514 -0.1958971 -0.3690525
0.27440396 0.3411495 -0.028285667 0.26811603 -0.20000806 0.8795665 0.053002886 -0.35216597
-0.019430775 -0.3781067 -0.88428324 -0.4979793 -0.36830366 -0.70771384 0.9573666 -0.033690438
-0.023633284 1.0177159 0.26348883 1.3730837 0.9706914 -0.27538377 -0.8619118 -0.9232775
0.34921324 1.061154 0.5303928 -0.87003607 0.013364235 0.03706559 -1.0995901 -0.23533022
0.3079755 -0.6211246 0.61807084 0.15455273 -0.28425235 -0.28036016 0.8397877 -0.6774901
0.9980367 -0.23395573 0.5029197 0.11891701 -0.0051346463 -0.17589228 0.49332696 -0.79762363
-0.12920696 -0.6675922 0.43120718 -0.056181867 -0.27036682 -0.13703051 0.48318788 -0.060637202
-0.29870299 0.63215953 0.057153106 0.81558 0.08775032 0.64038926 -0.08049147 -0.42703414
0.76763123 0.9706016 0.16747963 0.094609484 0.11893746 0.31455362 0.052579433 0.3040126
0.75238276 0.36179507 0.8025595 -0.058753803 -0.23380086 0.26371965 -0.80631465 0.15137194
00000000: 4b92 94bf 3be2 e7be c6ba c63f bcf0 183e
00000010: f210 34bf 36b1 02bf 83fd 11be 8010 a2be
00000020: ae88 65be f93b 81bf 17b1 b3be 2f5a f13e
00000030: ebee 3bbe 530b 443e 52c0 cfbe 0b03 5abe
00000040: 1787 003d 85b7 433f 6147 493f 4758 5d3f
00000050: 8b91 bc3e de6d 23bf fa4d 3db9 5dce 043f
00000060: 3d69 debe e191 a73e 64ca 323f 5d47 95be
00000070: 072e 12bf aab3 32bf f211 463f fb4d 373f
00000080: 1a9c c53e 73eb dabe 7d6e 15bf 2af7 bcbd
00000090: 162a 1e3e 08ea f03d 6270 7e3f 5651 19bf
000000a0: d039 643d d697 14bf 9810 373f 8903 18bf
000000b0: 89b4 e93e ac1f 463f efd1 a83e 7ca2 973e
000000c0: 1fe3 5dbe 6f0f c1be 053c 793e 762f a9bd
000000d0: dc84 213f 98b1 13be 61db c5be c742 f23d
000000e0: f57f 5dbe a6b9 89bd 13e8 1e3e 5404 3fbe
000000f0: a8a3 f43d ef13 62be 53c6 473f cb88 673f
00000100: 5c08 de3e c299 d7be ac29 493e 491f 633d
00000110: 6e0f 2d3e 5109 18bf 04e2 adbe c0f8 f9bd
00000120: 4559 903e 3eb3 363f 9d21 8cbd df37 09bf
00000130: df9d d3be 5787 be3e e94d c63e 8a53 043e
00000140: 6435 033e 5f39 793e 4436 b53f c458 34bf
00000150: 4c3b 223e 92b0 babf 3337 fabe c402 8ebf
00000160: c51c 8f3d b25f 0f3e a611 c43d cbc2 7b3e
00000170: dc56 8abd 1df4 fbbe 2ab1 f43e ff9b f23e
00000180: 5481 c6be 7238 19bf c21a a73e e160 2abe
00000190: c183 ca3e 795e 01bf 4907 23be b03d 61be
000001a0: 303b 35be 4b9b 55be a356 1bbe 6e26 9bbd
000001b0: 3bfd b4bc 9a35 6c3e 7487 84bf 50ac 00bf
000001c0: 8acd 0d3f 360d 313e 0c8e 1cbe 42b7 203f
000001d0: bd19 043e ceda b6be b41b 9ebe f65f 643e
000001e0: b575 ba3d b5fe ec3e 2582 23be d4f2 8e3d
000001f0: 1ec0 a3bd 047b c1be c676 a93d ab5b 7d3f
00000200: dd6c 7dbe 348f 373e 4493 19bf 34a5 39be
00000210: 1e3d be3e 060b 493e 5b65 ac3c 7c8f 743d
00000220: 56a7 74be d873 67be bdcd 79bd d6a1 bbbe
00000230: 3732 a4be 0334 b8be 3e91 acbe c2f2 363f
00000240: fa93 22bf 72ce eb3e 554d c63d 6c9d cc3e
00000250: f4d1 7bbe 4dd6 083f 5aab c4be c7f3 aabe
00000260: d19d f63d a8b3 6b3e c418 f63b 8b05 ed3d
00000270: 67f7 12bf 63b4 97be 904a 633f 618e 383f
00000280: acbb c03e f1d4 c73e 18eb 5d3f 4eeb 1e3f
00000290: 2fec edbe cc2b ad3e 84fe e93d 1fce 003f
000002a0: 2d2e 16bf f644 51be e98d a43e c992 8fbf
000002b0: 2c12 963e 3df3 83be 4099 48be 73f4 bcbe
000002c0: ad7e 8c3e 26ab ae3e 58b7 e7bc 8146 893e
000002d0: eace 4cbe 452b 613f 8e19 593d 194f b4be
000002e0: 4a2d 9fbc 3497 c1be 6360 62bf 25f7 febe
000002f0: 4c92 bcbe bc2c 35bf fa15 753f fcfe 09bd
00000300: 979a c1bc 8444 823f 02e8 863e 35c1 af3f
00000310: 3b7f 783f 1aff 8cbe 40a6 5cbf ea5b 6cbf
00000320: 14cc b23e e5d3 873f d3c7 073f afba 5ebf
00000330: aaf5 5a3c 17d2 173d 5ebf 8cbf 68fa 70be
00000340: f7ae 9d3e 0602 1fbf e439 1e3f 1243 1e3e
00000350: 8689 91be 5e8b 8fbe 54fc 563f fe6f 2dbf
00000360: 557f 7f3f 1792 6fbe 58bf 003f c38a f33d
00000370: 8940 a8bb 1b1d 34be 5a95 fc3e 1031 4cbf
00000380: d44e 04be 53e7 2abf 30c7 dc3e f51e 66bd
00000390: 856d 8abe ba51 0cbe 6764 f73e b75e 78bd
000003a0: 99ef 98be 35d5 213f 6019 6a3d dac9 503f
000003b0: 71b6 b33d 8df0 233f b6d8 a4bd 38a4 dabe
000003c0: 7b83 443f 5979 783f c87f 2b3e 9ec2 c13d
000003d0: 7c95 f33d 2c0d a13e 885d 573d 8aa7 9b3e
000003e0: 289c 403f 343d b93e 8a74 4d3f d4a7 70bd
000003f0: 7e69 6fbe 4306 873e a36a 4ebf 3f01 1b3e

network_body._body_endoder.seq_layers.0.bias f4 [128]
0.0 0.0 0.0 0.0 0.0 0.0 0.0 0.0
0.0 0.0 0.0 0.0 0.0 0.0 0.0 0.0
0.0 0.0 0.0 0.0 0.0 0.0 0.0 0.0
0.0 0.0 0.0 0.0 0.0 0.0 0.0 0.0
0.0 0.0 0.0 0.0 0.0 0.0 0.0 0.0
0.0 0.0 0.0 0.0 0.0 0.0 0.0 0.0
0.0 0.0 0.0 0.0 0.0 0.0 0.0 0.0
0.0 0.0 0.0 0.0 0.0 0.0 0.0 0.0
0.0 0.0 0.0 0.0 0.0 0.0 0.0 0.0
0.0 0.0 0.0 0.0 0.0 0.0 0.0 0.0
0.0 0.0 0.0 0.0 0.0 0.0 0.0 0.0
0.0 0.0 0.0 0.0 0.0 0.0 0.0 0.0
0.0 0.0 0.0 0.0 0.0 0.0 0.0 0.0
0.0 0.0 0.0 0.0 0.0 0.0 0.0 0.0
0.0 0.0 0.0 0.0 0.0 0.0 0.0 0.0
0.0 0.0 0.0 0.0 0.0 0.0 0.0 0.0
00000000: 0000 0000 0000 0000 0000 0000 0000 0000
00000010: 0000 0000 0000 0000 0000 0000 0000 0000
00000020: 0000 0000 0000 0000 0000 0000 0000 0000
00000030: 0000 0000 0000 0000 0000 0000 0000 0000
00000040: 0000 0000 0000 0000 0000 0000 0000 0000
00000050: 0000 0000 0000 0000 0000 0000 0000 0000
00000060: 0000 0000 0000 0000 0000 0000 0000 0000
00000070: 0000 0000 0000 0000 0000 0000 0000 0000
00000080: 0000 0000 0000 0000 0000 0000 0000 0000
00000090: 0000 0000 0000 0000 0000 0000 0000 0000
000000a0: 0000 0000 0000 0000 0000 0000 0000 0000
000000b0: 0000 0000 0000 0000 0000 0000 0000 0000
000000c0: 0000 0000 0000 0000 0000 0000 0000 0000
000000d0: 0000 0000 0000 0000 0000 0000 0000 0000
000000e0: 0000 0000 0000 0000 0000 0000 0000 0000
000000f0: 0000 0000 0000 0000 0000 0000 0000 0000
00000100: 0000 0000 0000 0000 0000 0000 0000 0000
00000110: 0000 0000 0000 0000 0000 0000 0000 0000
00000120: 0000 0000 0000 0000 0000 0000 0000 0000
00000130: 0000 0000 0000 0000 0000 0000 0000 0000
00000140: 0000 0000 0000 0000 0000 0000 0000 0000
00000150: 0000 0000 0000 0000 0000 0000 0000 0000
00000160: 0000 0000 0000 0000 0000 0000 0000 0000
00000170: 0000 0000 0000 0000 0000 0000 0000 0000
00000180: 0000 0000 0000 0000 0000 0000 0000 0000
00000190: 0000 0000 0000 0000 0000 0000 0000 0000
000001a0: 0000 0000 0000 0000 0000 0000 0000 0000
000001b0: 0000 0000 0000 0000 0000 0000 0000 0000
000001c0: 0000 0000 0000 0000 0000 0000 0000 0000
000001d0: 0000 0000 0000 0000 0000 0000 0000 0000
000001e0: 0000 0000 0000 0000 0000 0000 0000 0000
000001f0: 0000 0000 0000 0000 0000 0000 0000 0000

network_body._body_endoder.seq_layers.2.weight f4 [128, 128]
-0.036372025 0.116246134 -0.09207585 -0.045712855 -0.06159971 -0.039846394 0.16209401 -0.0014630237
-0.09753926 -0.017213944 0.09015984 -0.20222653 -0.062422357 0.03673235 -0.09779179 -0.040056173
0.032320343 0.04885446 0.020974653 -0.07338618 -0.06878618 0.07003416 -0.08400513 0.038424365
0.11481707 -0.022553181 0.016244527 0.013140551 -0.065202326 0.11464313 -0.055399507 -0.10221459
-0.03256963 -0.13766444 -0.032717504 0.15169801 -0.02005805 -0.08596182 -0.023092367 -0.08551348
0.16712908 -0.005051084 -0.033555742 -0.06229055 0.10521532 -0.0125383735 0.046553373 -0.07019601
0.17077951 -0.057090677 0.16753754 -0.06295062 0.064075395 -0.0252245 0.07777111 0.055479567
-0.17273025 -0.17811315 0.08988524 0.098361105 -0.03261553 0.048392996 -0.04692283 0.12841439
0.047917746 -0.03182113 -0.05020886 0.06030814 -0.067314975 -0.094552 0.012287518 0.091635674
-0.0932699 -0.0055968775 0.0057030185 -0.050566833 0.016075524 -0.008181472 0.03129102 0.06715173
-0.10481313 -0.26238853 -0.06346936 -0.018611675 0.16233268 0.0659213 0.011217542 0.124083735
0.11261441 0.07228049 -0.04681089 -0.025310814 0.07087589 0.02387895 0.07645288 0.060696397
-0.011803781 -0.1956819 0.05285784 0.038488965 -0.036474753 -0.08731082 -0.037689663 0.097176835
-0.011254267 -0.15521567 -0.026405487 0.032350887 0.04664763 -0.017326321 0.00813632 -0.04157966
-0.12260852 -0.03976861 0.049865626 -0.044426933 -0.04997247 0.057360005 0.0892784 0.038874496
-0.0008522586 -0.13320293 -0.051261395 -0.14048383 0.19925234 0.049570568 0.04079079 -0.25654995
-0.054862827 -0.009323059 -0.07949199 -0.063202135 0.09097709 0.158047 0.018273445 -0.00066034036
0.17265093 -0.0061975676 -0.11621252 0.21098523 0.0023423578 -0.09869827 0.04757562 0.09287742
0.13861325 -0.035261266 -0.021284558 -0.07762803 0.06487979 0.07330161 -0.0654385 -0.09092565
-0.012815095 -0.13735063 -0.041617345 0.03639225 0.020227227 0.017132405 -0.00948383 -0.007930265
0.123667195 -0.16918087 -0.10665118 0.05624381 0.13707118 -0.007348771 -0.06856075 -0.0151883
0.01874535 -0.0102476645 0.06302613 -0.08500779 -0.03817165 0.006445005 0.05319656 0.13719471
0.037689235 -0.23855709 -0.07273462 0.13080034 -0.05939549 0.06830768 0.036505762 0.023960171
-0.024235351 -0.038650934 0.07236646 0.0039597386 -0.20223938 0.17536834 -0.12352044 -0.19326808
-0.079478584 -0.024582742 -0.093553066 -0.17251736 -0.016169079 0.07688874 -0.0317831 0.06776223
-0.035460427 0.02601221 -0.005434447 0.03068742 0.059938993 0.013260825 -0.03984206 0.017358799
0.12302625 -0.016486047 0.059331834 0.09936314 -0.09669368 0.056897186 0.115321785 -0.016826492
0.071647964 0.03756849 0.02686284 -0.06210848 0.18099959 0.10728886 0.118581176 -0.089610554
0.023506938 -0.08381849 -0.15721981 0.13072172 0.030666985 0.054275457 -0.25235635 -0.09648454
-0.02240786 0.011984841 -0.1874686 -0.04628914 -0.010678673 0.004255942 0.0021460461 0.0046129846
-0.10264969 -0.070683 -0.06711331 -0.050398406 0.043192327 -0.0034350662 -0.005526154 0.08589782
0.05867655 -0.038810443 -0.042851195 0.1930867 0.11234927 -0.05345255 0.07267215 0.009350923
00000000: d5fa 14bd 7412 ee3d 4392 bcbd 673d 3bbd
00000010: fa4f 7cbd f935 23bd f9fb 253e eec2 bfba
00000020: aac2 c7bd 4204 8dbc b9a5 b83d 7914 4fbe
00000030: 96ae 7fbd a974 163d 1047 c8bd f111 24bd
00000040: 5662 043d 9d1b 483d 09d3 ab3c 7e4b 96bd
00000050: c5df 8cbd 126e 8f3d e20a acbd de62 1d3d
00000060: 3625 eb3d 73c1 b8bc 3e13 853c 774b 573c
00000070: cc88 85bd 04ca ea3d 98ea 62bd e255 d1bd
00000080: bb67 05bd e8f7 0cbe ca02 06bd b956 1b3e
00000090: c850 a4bc c00c b0bd 342c bdbc b121 afbd
000000a0: e323 2b3e 9083 a5bb bf71 09bd 6024 7fbd
000000b0: 217b d73d c06d 4dbc c0ae 3e3d edc2 8fbd
000000c0: d3e0 2e3e ead7 69bd f68e 2b3e 41ec 80bd
000000d0: f639 833d 9ca3 cebc 7646 9f3d 8b3e 633d
000000e0: 33e0 30be 4b63 36be c115 b83d 8c71 c93d
000000f0: dd97 05bd bc37 463d 2732 40bd 107f 033e
00000100: 6645 443d e056 02bd cea7 4dbd ab05 773d
00000110: 6fdc 89bd 7ba4 c1bd 9651 493c 7cab bb3d
00000120: 4a04 bfbd 0366 b7bb 63e0 ba3b 2b1f 4fbd
00000130: d1b0 833c 950b 06bc 032b 003d d986 893d
00000140: 44a8 d6bd ca57 86be 39fc 81bd 8377 98bc
00000150: 8a3a 263e bf01 873d c8c9 373c 9d1f fe3d
00000160: 62a2 e63d cb07 943d c7bc 3fbd a058 cfbc
00000170: 6127 913d ca9d c33c 5493 9c3d c99c 783d
00000180: a564 41bc d660 48be 7681 583d 9ba6 1d3d
00000190: 8d66 15bd 04d0 b2bd 7a60 1abd a604 c73d
000001a0: d163 38bc dbf0 1ebe 5250 d8bc 5d82 043d
000001b0: 9611 3f3d eeef 8dbc 334e 053c 6f4f 2abd
000001c0: 2d1a fbbd 69e4 22bd e63f 4c3d 04f9 35bd
000001d0: efaf 4cbd 53f2 6a3d 98d7 b63d dd3a 1f3d
000001e0: 1b6a 5fba 5966 08be 78f7 51bd feda 0fbe
000001f0: ce08 4c3e 820a 4b3d 3e14 273d 845a 83be
00000200: d8b7 60bd bebf 18bc b2cc a2bd 1f70 81bd
00000210: 3252 ba3d 13d7 213e 31b2 953c b11a 2dba
00000220: 68cb 303e f714 cbbb d400 eebd 830c 583e
00000230: 3e82 193b 5222 cabd a7de 423d 8436 be3d
00000240: a2f0 0d3e 1e6e 10bd f45c aebc 72fb 9ebd
00000250: b2df 843d 281f 963d 9f04 86bd 3a37 babd
00000260: 67f6 51bc a5a5 0cbe f376 2abd 0a10 153d
00000270: 92b3 a53c 4259 8c3c 1162 1bbc f1ed 01bc
00000280: 3a45 fd3d c03d 2dbe ef6b dabd e95f 663d
00000290: 635c 0c3e f6cd f0bb 9469 8cbd 59d8 78bc
000002a0: d98f 993c d2e5 27bc d813 813d 9018 aebd
000002b0: e059 1cbd 9f30 d33b a3e4 593d c57c 0c3e
000002c0: 0760 1a3d 4f48 74be e3f5 94bd 86f0 053e
000002d0: af48 73bd e6e4 8b3d 1187 153d 1f48 c43c
000002e0: 3789 c6bc 7150 1ebd de34 943d b2c0 813b
000002f0: d717 4fbe c293 333e 49f8 fcbd 11e8 45be
00000300: abc5 a2bd bf61 c9bc c098 bfbd 64a8 30be
00000310: 0475 84bc d877 9d3d ff2e 02bd edc6 8a3d
00000320: f43e 11bd 8f17 d53c 7213 b2bb 2f64 fb3c
00000330: 9782 753d ee43 593c 6e31 23bd 0a34 8e3c
00000340: 30f5 fb3d bf0d 87bc f005 733d e77e cb3d
00000350: 5607 c6bd 060d 693d d42d ec3d b6d7 89bc
00000360: 2bbc 923d 6be1 193d 750f dc3c 7665 7ebd
00000370: f557 393e 43ba db3d b0da f23d bd85 b7bd
00000380: 9f91 c03c 07a9 abbd 3bfe 20be eadb 053e
00000390: 5439 fb3c f14f 5e3d da34 81be b099 c5bd
000003a0: b090 b7bc 115c 443c c5f7 3fbe ae99 3dbd
000003b0: 9af5 2ebc 6e75 8b3b aea4 0c3b 8528 973b
000003c0: 003a d2bd 40c2 90bd b472 89bd 8f6e 4ebd
000003d0: 70ea 303d d91e 61bb bd14 b5bb 32eb af3d
000003e0: d256 703d b3f7 1ebd bc84 2fbd 85b8 453e
000003f0: 6017 e63d 10f1 5abd 23d5 943d 9d34 193c

network_body._body_endoder.seq_layers.2.bias f4 [128]
0.0 0.0 0.0 0.0 0.0 0.0 0.0 0.0
0.0 0.0 0.0 0.0 0.0 0.0 0.0 0.0
0.0 0.0 0.0 0.0 0.0 0.0 0.0 0.0
0.0 0.0 0.0 0.0 0.0 0.0 0.0 0.0
0.0 0.0 0.0 0.0 0.0 0.0 0.0 0.0
0.0 0.0 0.0 0.0 0.0 0.0 0.0 0.0
0.0 0.0 0.0 0.0 0.0 0.0 0.0 0.0
0.0 0.0 0.0 0.0 0.0 0.0 0.0 0.0
0.0 0.0 0.0 0.0 0.0 0.0 0.0 0.0
0.0 0.0 0.0 0.0 0.0 0.0 0.0 0.0
0.0 0.0 0.0 0.0 0.0 0.0 0.0 0.0
0.0 0.0 0.0 0.0 0.0 0.0 0.0 0.0
0.0 0.0 0.0 0.0 0.0 0.0 0.0 0.0
0.0 0.0 0.0 0.0 0.0 0.0 0.0 0.0
0.0 0.0 0.0 0.0 0.0 0.0 0.0 0.0
0.0 0.0 0.0 0.0 0.0 0.0 0.0 0.0
00000000: 0000 0000 0000 0000 0000 0000 0000 0000
00000010: 0000 0000 0000 0000 0000 0000 0000 0000
00000020: 0000 0000 0000 0000 0000 0000 0000 0000
00000030: 0000 0000 0000 0000 0000 0000 0000 0000
00000040: 0000 0000 0000 0000 0000 0000 0000 0000
00000050: 0000 0000 0000 0000 0000 0000 0000 0000
00000060: 0000 0000 0000 0000 0000 0000 0000 0000
00000070: 0000 0000 0000 0000 0000 0000 0000 0000
00000080: 0000 0000 0000 0000 0000 0000 0000 0000
00000090: 0000 0000 0000 0000 0000 0000 0000 0000
000000a0: 0000 0000 0000 0000 0000 0000 0000 0000
000000b0: 0000 0000 0000 0000 0000 0000 0000 0000
000000c0: 0000 0000 0000 0000 0000 0000 0000 0000
000000d0: 0000 0000 0000 0000 0000 0000 0000 0000
000000e0: 0000 0000 0000 0000 0000 0000 0000 0000
000000f0: 0000 0000 0000 0000 0000 0000 0000 0000
00000100: 0000 0000 0000 0000 0000 0000 0000 0000
00000110: 0000 0000 0000 0000 0000 0000 0000 0000
00000120: 0000 0000 0000 0000 0000 0000 0000 0000
00000130: 0000 0000 0000 0000 0000 0000 0000 0000
00000140: 0000 0000 0000 0000 0000 0000 0000 0000
00000150: 0000 0000 0000 0000 0000 0000 0000 0000
00000160: 0000 0000 0000 0000 0000 0000 0000 0000
00000170: 0000 0000 0000 0000 0000 0000 0000 0000
00000180: 0000 0000 0000 0000 0000 0000 0000 0000
00000190: 0000 0000 0000 0000 0000 0000 0000 0000
000001a0: 0000 0000 0000 0000 0000 0000 0000 0000
000001b0: 0000 0000 0000 0000 0000 0000 0000 0000
000001c0: 0000 0000 0000 0000 0000 0000 0000 0000
000001d0: 0000 0000 0000 0000 0000 0000 0000 0000
000001e0: 0000 0000 0000 0000 0000 0000 0000 0000
000001f0: 0000 0000 0000 0000 0000 0000 0000 0000

action_model._discrete_distribution.branches.0.weight f4 [3, 128]
-0.017002886 -0.00016950232 0.005123015 0.0052868477 -0.011745843 -0.0071627456 0.0049021263 0.004035296
0.0025730275 0.0025555051 0.009055576 0.0068239854 0.009437818 0.0072057373 0.009666448 0.0039347233
-0.006330978 0.0055771507 0.013351314 0.0020831525 0.013763842 0.0031074723 0.0070293183 0.0006287952
0.0067006685 -0.0132077355 -0.0072561125 0.0045526084 -0.0017606373 0.010129495 0.016610062 0.009358833
-0.011203797 -0.0036188203 -0.008630048 0.002987122 -0.0085661225 -0.00559135 0.0052365432 0.014025557
0.0016272803 0.0023381908 -0.0021126396 -0.0140992645 -0.013467702 0.0024260476 0.0010367375 0.0018204589
-0.012841532 0.0070918933 -0.009693331 0.01759411 0.0034342413 -0.010157111 0.0052798167 -0.0077277063
0.0064027137 -0.0047078687 -0.01011503 -0.0032145535 0.0073719504 -0.0046780626 0.00917638 0.008259021
0.0006633374 0.0023208733 0.00026214882 -0.000706359 -0.0017765707 0.00856484 0.0027629954 0.013107291
-0.0053708456 -0.0041467845 -0.0025237903 0.00637453 0.004195975 -0.006068978 0.013722998 0.00982078
0.008963452 0.0009611851 -0.0037063023 0.002083577 -0.0036392228 0.014578836 0.0007469751 -0.008303807
-0.0038082495 -0.018542083 0.018619172 0.0026524034 -0.012714892 0.0054127057 0.005151418 -0.0025395844
0.011765551 -0.009128141 0.0041571925 -0.0017870069 0.006148152 -0.0025162583 -0.0021537931 -0.0015705539
-0.0051267096 -0.00764082 -0.0018111797 0.0093668895 0.0029573978 -0.0016619731 -0.011071942 0.0014507875
0.006067116 -0.0026329185 0.008526034 0.006962241 -0.0061687133 -0.01328548 0.0037808914 0.0005330742
0.015537428 0.0032002837 -0.011583586 -0.001697779 -0.007803902 0.009098883 0.010740254 -0.0026889285
-0.0075920313 0.010889155 0.0010737351 0.010582807 -0.0132909855 -0.017331405 -0.016852241 0.0025272013
0.0076161833 -0.013583501 -0.013067444 0.010948814 -0.011886961 -0.0029016181 0.0027474232 -0.001660998
-0.013176887 0.0002215618 -0.00869848 -0.0027106816 -0.004089217 -0.002974373 -0.0019180235 -0.002304725
0.006647434 -0.011252931 -0.0020934993 -0.0017514548 -0.010105357 -0.0029713588 0.004135666 0.00967053
-0.012438818 0.0016304785 0.0033363418 -0.008042187 0.013498588 0.006003047 0.0044905464 0.00053578295
-0.0005992902 -0.0061299987 -0.011049794 -0.00046587922 -0.020383283 -0.014574294 0.0066941488 -0.0002677558
0.0035365645 0.0003860489 -0.0013077207 0.005228824 0.00049970084 -0.010081074 0.0033792895 0.003341813
-0.014065887 0.0027011305 -0.0007817753 0.003228638 0.0036955331 -0.004474047 -0.0058259973 0.00692996
-0.01284277 -0.0012355668 -0.0017582646 -0.0065024267 0.008973301 0.0021157397 0.009094632 0.007387284
0.0047133868 0.0035509062 0.004546472 0.007939823 0.0005035537 0.00024781804 -0.0038788493 -0.0007460273
-0.011458753 -0.011659431 -0.0005456445 -0.0104996255 -0.006624162 -0.005821725 0.018711964 -0.01058897
3.430457e-05 0.020268379 -0.0027693133 0.006077768 0.0041355444 -0.0093324715 0.016158026 0.00023552064
0.0045696255 -0.0041816547 -0.010871993 0.021577159 0.015197906 -0.010406272 -0.008358173 -0.0085289385
0.0034870484 0.0015268323 0.0014177666 -0.004306275 0.002838245 -0.01472182 -0.005696999 -0.0015722684
-0.0067434916 -0.02691395 0.0071630897 0.004371085 0.013197203 0.0141661195 0.007978455 -0.0029917217
0.0045897802 0.0073774206 -0.00981673 -0.0015551215 0.002281502 -0.0050043766 0.0048980555 0.010166253
00000000: a349 8bbc 6fbc 31b9 f7de a73b 4b3d ad3b
00000010: a371 40bc 77b5 eabb 04a2 a03b 843a 843b
00000020: 3da0 283b 437a 273b d75d 143c bd9b df3b
00000030: 14a1 1a3c 1b1e ec3b 0660 1e3c daee 803b
00000040: 1874 cfbb 88c0 b63b 78bf 5a3c 8085 083b
00000050: bd81 613c bca6 4b3b 3256 e63b bbd5 243a
00000060: 4891 db3b 4265 58bc afc4 edbb 0c2e 953b
00000070: 2fc5 e6ba 2ef6 253c d311 883c ca55 193c
00000080: 2190 37bc bb29 6dbb 0b65 0dbc 97c3 433b
00000090: ec58 0cbc a537 b7bb 4f97 ab3b 73cb 653c
000000a0: 774a d53a 553c 193b 3674 0abb 9a00 67bc
000000b0: a3a7 5cbc 53fe 1e3b 23e3 873a 779c ee3a
000000c0: 4a65 52bc 1d63 e83b c7d0 1ebc 8621 903c
000000d0: 0211 613b 036a 26bc 5002 ad3b b338 fdbb
000000e0: dbcd d13b 7744 9abb 83b9 25bc 42ab 52bb
000000f0: 6790 f13b 6f4a 99bb 8758 163c d850 073c
00000100: d2e3 2d3a cb19 183b 0571 8939 f32a 39ba
00000110: d2db e8ba 8b53 0c3c 5f13 353b f7bf 563c
00000120: ebfd afbb c0e1 87bb 2d66 25bb 6fe1 d03b
00000130: 647e 893b 47de c6bb 6dd6 603c 56e7 203c
00000140: 71db 123c 0af8 7b3a 6fe5 72bb 9f8c 083b
00000150: 0780 6ebb 12dc 6e3c a7d0 433a b10c 08bc
00000160: d393 79bb 91e5 97bc 3c87 983c f2d3 2d3b
00000170: 1f52 50bc 115d b13b 3acd a83b 286f 26bb
00000180: 4cc4 403c 338e 15bc 0f39 883b 003a eaba
00000190: 7076 c93b cfe7 24bb a726 0dbb 0bdb cdba
000001a0: f5fd a7bb d85f fabb 1b65 edba 9577 193c
000001b0: e7d0 413b 90d6 d9ba 1767 35bc 5a28 be3a
000001c0: a8ce c63b 0b8d 2cbb c7b0 0b3c 8323 e43b
000001d0: eb22 cabb 58ab 59bc d5c8 773b 01be 0b3a
000001e0: b290 7e3c dabb 513b 15c9 3dbc 0388 deba
000001f0: e0b7 ffbb 7b13 153c e4f7 2f3c bc38 30bb
00000200: 93c6 f8bb 6d68 323c 92bc 8c3a 8263 2d3c
00000210: 6fc2 59bc 97fa 8dbc b60d 8abc 679f 253b
00000220: 2d91 f93b 558d 5ebc d518 56bc a862 333c
00000230: 87c1 42bc 1329 3ebb 1d0e 343b d8b5 d9ba
00000240: dfe3 57bc 0b53 6839 1284 0ebc b1a5 31bb
00000250: d7fe 85bb b3ed 42bb 3066 fbba df0a 17bb
00000260: b8d2 d93b 375e 38bc 1733 09bb 1291 e5ba
00000270: f090 25bc 21bb 42bb 7b84 873b 2571 1e3c
00000280: 2fcc 4bbc c8b5 d53a 87a6 5a3b 61c3 03bc
00000290: 2f29 5d3c 35b5 c43b 6f25 933b c973 0c3a
000002a0: af19 1dba 28de c8bb 320a 35bc 4041 f4b9
000002b0: d8fa a6bc 05c9 6ebc 975a db3b 9361 8cb9
000002c0: b5c5 673b 9b66 ca39 d367 abba 8e56 ab3b
000002d0: 5bfe 023a 172b 25bc 1277 5d3b 5202 5b3b
000002e0: 9b74 66bc 7305 313b 0df0 4cba 8f97 533b
000002f0: c230 723b 079b 92bb 02e8 bebb b814 e33b
00000300: 7b6a 52bc bef2 a1ba 9275 e6ba 4f12 d5bb
00000310: c104 133c 39a8 0a3b a701 153c 0811 f23b
00000320: c172 9a3b 52b6 683b 92fa 943b 0816 023c
00000330: eb00 043a 93ed 8139 4b34 7ebb 0b91 43ba
00000340: 7ebd 3bbc 3307 3fbc 9509 0fba 9f06 2cbc
00000350: 800f d9bb 2bc4 bebb d549 993c 5c7d 2dbc
00000360: 40e2 0f38 df09 a63c 5e7d 35bb 0328 c73b
00000370: 7683 873b 39e7 18bc d65d 843c 17f6 7639
00000380: ccbc 953b 4306 89bb 7220 32bc 95c2 b03c
00000390: a300 793c 117f 2abc b8f0 08bc f6bc 0bbc
000003a0: f786 643b fe1f c83a 5ad4 b93a a71b 8dbb
000003b0: d901 3a3b ca33 71bc e4ad babb 9314 ceba
000003c0: 82f8 dcbb a57a dcbc 5ab8 ea3b 523b 8f3b
000003d0: 1539 583c 0319 683c 11b8 023c c310 44bb
000003e0: de65 963b 4abe f13b 5ad6 20bc 38d5 cbba
000003f0: 4085 153b c1fb a3bb de7f a03b 5b90 263c

action_model._discrete_distribution.branches.0.bias f4 [3]
0.0 0.0 0.0
00000000: 0000 0000 0000 0000 0000 0000

network_body._body_endoder.seq_layers.0.weight f4 [128, 4]
-0.1622068 0.3893768 1.0954742 0.24543089 0.26291588 0.30850872 -0.4298881 0.019121785
-0.58337456 0.279395 0.37088075 0.24037485 -0.16589695 -0.04045583 -0.41347235 0.37047255
-0.39095747 -0.9946643 0.3330992 -0.7798928 0.319992 0.69022495 -0.53165036 -0.030326992
0.27878356 0.26338303 -0.82353413 0.44650146 0.54071754 -0.9435919 0.36379632 0.7412415
-0.0073029767 0.088490285 -0.21188784 -0.034867477 -0.30547947 -1.1146779 0.16440685 0.18088628
0.22176287 0.003750835 -0.62548023 0.8431892 0.380106 0.3469113 0.7297358 -0.28299353
0.22485046 0.25525713 0.56254053 -0.039988637 0.33010453 -0.67227393 -0.03087872 0.15210219
-0.12505685 0.79226744 -0.16348602 0.5954572 -0.44373187 -0.34778497 -0.47608283 0.96684796
-0.9955584 -0.4639287 0.18026692 0.76047826 1.0161718 0.80822396 0.17112209 -0.4713739
-0.28061223 -0.013364224 0.058100037 -0.69834495 -0.24774288 1.2227116 -0.16015197 -0.38717043
-0.37929404 0.14620116 -0.044901773 -0.056126356 0.23651482 0.06324598 0.42949876 0.26224598
-0.367989 -0.5594157 0.42279768 0.5081231 0.41832936 -0.20594613 -0.0122321015 -0.120578334
-0.008300556 -0.07999151 0.46052387 -0.74628997 -0.5511542 -0.6165341 0.6801362 0.026231611
0.96926403 -0.11848564 0.43984812 -0.67445767 -0.730189 -0.4022658 -0.38087115 0.52019435
-0.5322929 -0.51709265 0.0692907 -0.548196 0.49194437 0.24495153 -0.120371036 -1.2641652
-0.0027797492 0.80607146 0.0077080997 -0.1854661 -0.30837837 -0.47851172 0.45733514 0.33145317
-0.17438929 0.41687128 0.41934526 0.53820044 -0.752458 -0.09226853 0.29224348 0.54868793
0.06374298 1.256764 -0.20083599 -0.7855364 -0.9604939 -0.39891052 -0.23809633 0.12396274
0.6230729 0.089820914 0.114851415 0.503716 0.8690078 0.19482365 -0.4982688 0.4894393
0.2273392 -0.04103484 0.27504036 -0.26479623 -0.3765606 -0.0041400827 -0.44841912 -0.39450857
-0.29223377 -1.0812124 0.25102726 -0.18972902 0.28983545 -0.48806182 0.49225697 0.1558318
-0.08979752 -0.5249158 -0.26806474 0.4223967 -1.22355 -0.6878668 0.301078 -0.00327878
0.51617515 0.14144424 0.07962366 -0.9232445 0.37434918 -0.3232415 0.44445997 -0.7034846
-0.4624427 -0.124050036 -0.57442725 0.3679029 -0.088067725 0.44291434 -0.5323415 0.017014641
-0.41258764 0.7278063 0.34691033 -0.8894312 0.50426114 -0.08284777 -0.6332539 0.37404594
0.25270668 0.4127063 1.3149233 0.052528203 0.27734527 0.6357521 -0.18577482 -0.15300927
-0.42055088 -0.02502321 0.93818367 -0.4447414 0.07125823 0.0624529 0.1634729 -0.07858682
0.11055526 -0.71336657 -0.4293708 -0.105412096 -0.9515116 0.051444914 -1.0470079 0.56298286
0.35522965 0.16473761 -0.5192551 -0.022554476 -0.29476824 -0.02140393 0.21350914 -0.04849524
-0.06872456 0.27352205 0.20057675 -0.35585028 -0.80420667 0.5962224 0.687065 -0.39463145
0.38664147 0.12148539 -0.90876764 -0.13622548 -0.7900597 -0.52794963 -0.40614203 -0.66139954
0.05061711 0.46372697 0.16483441 0.032430265 0.3168904 0.25370857 -0.39671522 -0.22153717
00000000: 8a19 26be 655c c73e 8038 8c3f 3c52 7b3e
00000010: e99c 863e dbf4 9d3e 4b1a dcbe 4aa5 9c3c
00000020: 0958 15bf dd0c 8f3e 15e4 bd3e d324 763e
00000030: e4e0 29be 03b5 25bd a6b2 d3be 94ae bd3e
00000040: 942b c8be 52a2 7ebf fa8b aa3e 0ea7 47bf
00000050: fed5 a33e 95b2 303f 3d1a 08bf 5070 f8bc
00000060: b8bc 8e3e 24da 863e 22d3 52bf d79b e43e
00000070: 776c 0a3f 3d8f 71bf 8343 ba3e 01c2 3d3f
00000080: cf4d efbb 653a b53d 20f9 58be 33d1 0ebd
00000090: ce67 9cbe c4ad 8ebf 455a 283e 413a 393e
000000a0: ce15 633e 92d0 753b 791f 20bf 3fdb 573f
000000b0: 419d c23e 5c9e b13e f7cf 3a3f 87e4 90be
000000c0: 333f 663e 10b1 823e a802 103f 20cb 23bd
000000d0: 7603 a93e 251a 2cbf 5ff5 fcbc adc0 1b3e
000000e0: e70e 00be 0ad2 4a3f e168 27be e26f 183f
000000f0: d330 e3be df10 b2be 21c1 f3be 5983 773f
00000100: eadc 7ebf 1088 edbe e497 383e b4ae 423f
00000110: eb11 823f c4e7 4e3f a13a 2f3e eb57 f1be
00000120: 68ac 8fbe 9ef5 5abc 4efa 6d3d bcc6 32bf
00000130: 4fb0 7dbe d081 9c3f e1fe 23be 343b c6be
00000140: d432 c2be c2b5 153e ecea 37bd c0e4 65bd
00000150: f130 723e 1c87 813d 43e7 db3e 1b45 863e
00000160: 0e69 bcbe de35 0fbf f078 d83e 5b14 023f
00000170: 442f d63e 8be3 52be 2769 48bc c6f1 f6bd
00000180: 0eff 07bc 97d2 a3bd c9c9 eb3e dc0c 3fbf
00000190: 7118 0dbf 2ed5 1dbf 681d 2e3f ade3 d63c
000001a0: b021 783f 99a8 f2bd c633 e13e 42a9 2cbf
000001b0: abed 3abf c8f5 cdbe 8b01 c3be 752b 053f
000001c0: 5944 08bf 2f60 04bf 48e8 8d3d 9356 0cbf
000001d0: 22e0 fb3e 93d4 7a3e 1785 f6bd 2ad0 a1bf
000001e0: 742c 36bb b35a 4e3f 3a94 fc3b d3ea 3dbe
000001f0: c5e3 9dbe 7dff f4be d527 ea3e 3bb4 a93e
00000200: 1b93 32be 2770 d53e 6cb4 d63e 81c7 093f
00000210: 16a1 40bf 48f7 bcbd f0a0 953e d076 0c3f
00000220: ae8b 823d a5dd a03f f3a7 4dbe ea18 49bf
00000230: eee2 75bf 003e ccbe 86cf 73be 2de0 fd3d
00000240: b581 1f3f 07f4 b73d 3837 eb3d 88f3 003f
00000250: 4c77 5e3f da7f 473e 171d ffbe ca97 fa3e
00000260: 9bcb 683e 2614 28bd 17d2 8c3e 5f93 87be
00000270: 8dcc c0be 88a9 87bb 3197 e5be 07fd c9be
00000280: aa9f 95be 2b65 8abf a586 803e 5348 42be
00000290: 5065 943e 3de3 f9be 1b09 fc3e 5f92 1f3e
000002a0: c3e7 b7bd e260 06bf c83f 89be 6144 d83e
000002b0: 499d 9cbf 0a18 30bf e526 9a3e cde0 56bb
000002c0: 0e24 043f c2d6 103e bb11 a33d c059 6cbf
000002d0: b2aa bf3e e97f a5be 4290 e33e 9117 34bf
000002e0: 4ac5 ecbe f20d febd aa0d 13bf c55d bc3e
000002f0: da5c b4bd abc5 e23e 8847 08bf 4a62 8b3c
00000300: b03e d3be 8451 3a3f 3b9e b13e c3b1 63bf
00000310: 4217 013f 17ac a9bd ed1c 22bf f382 bf3e
00000320: c562 813e 3d4e d33e 684f a83f d027 573d
00000330: 3300 8e3e a6c0 223f c13b 3ebe 76ae 1cbe
00000340: 7252 d7be 7afd ccbc ce2c 703f 25b5 e3be
00000350: d6ef 913d 9dce 7f3d 7165 273e 20f2 a0bd
00000360: cc6a e23d 319f 36bf 7dd6 dbbe 4ce2 d7bd
00000370: 4496 73bf e7b7 523d 5b04 86bf a51f 103f
00000380: a9e0 b53e fab0 283e e7ed 04bf 2ac4 b8bc
00000390: ddeb 96be 4b57 afbc 24a2 5a3e f2a2 46bd
000003a0: 76bf 8cbd 150b 8c3e fe63 4d3e 0232 b6be
000003b0: 7de0 4dbf 08a2 183f 7ee3 2f3f 220d cabe
000003c0: dff5 c53e 55cd f83d ffa4 68bf b17e 0bbe
000003d0: 5a41 4abf b527 07bf d9f1 cfbe 7b51 29bf
000003e0: e353 4f3d 9f6d ed3e 5aca 283e 99d5 043d
000003f0: 753f a23e 17e6 813e 421e cbbe a4da 62be

network_body._body_endoder.seq_layers.0.bias f4 [128]
0.0 0.0 0.0 0.0 0.0 0.0 0.0 0.0
0.0 0.0 0.0 0.0 0.0 0.0 0.0 0.0
0.0 0.0 0.0 0.0 0.0 0.0 0.0 0.0
0.0 0.0 0.0 0.0 0.0 0.0 0.0 0.0
0.0 0.0 0.0 0.0 0.0 0.0 0.0 0.0
0.0 0.0 0.0 0.0 0.0 0.0 0.0 0.0
0.0 0.0 0.0 0.0 0.0 0.0 0.0 0.0
0.0 0.0 0.0 0.0 0.0 0.0 0.0 0.0
0.0 0.0 0.0 0.0 0.0 0.0 0.0 0.0
0.0 0.0 0.0 0.0 0.0 0.0 0.0 0.0
0.0 0.0 0.0 0.0 0.0 0.0 0.0 0.0
0.0 0.0 0.0 0.0 0.0 0.0 0.0 0.0
0.0 0.0 0.0 0.0 0.0 0.0 0.0 0.0
0.0 0.0 0.0 0.0 0.0 0.0 0.0 0.0
0.0 0.0 0.0 0.0 0.0 0.0 0.0 0.0
0.0 0.0 0.0 0.0 0.0 0.0 0.0 0.0
00000000: 0000 0000 0000 0000 0000 0000 0000 0000
00000010: 0000 0000 0000 0000 0000 0000 0000 0000
00000020: 0000 0000 0000 0000 0000 0000 0000 0000
00000030: 0000 0000 0000 0000 0000 0000 0000 0000
00000040: 0000 0000 0000 0000 0000 0000 0000 0000
00000050: 0000 0000 0000 0000 0000 0000 0000 0000
00000060: 0000 0000 0000 0000 0000 0000 0000 0000
00000070: 0000 0000 0000 0000 0000 0000 0000 0000
00000080: 0000 0000 0000 0000 0000 0000 0000 0000
00000090: 0000 0000 0000 0000 0000 0000 0000 0000
000000a0: 0000 0000 0000 0000 0000 0000 0000 0000
000000b0: 0000 0000 0000 0000 0000 0000 0000 0000
000000c0: 0000 0000 0000 0000 0000 0000 0000 0000
000000d0: 0000 0000 0000 0000 0000 0000 0000 0000
000000e0: 0000 0000 0000 0000 0000 0000 0000 0000
000000f0: 0000 0000 0000 0000 0000 0000 0000 0000
00000100: 0000 0000 0000 0000 0000 0000 0000 0000
00000110: 0000 0000 0000 0000 0000 0000 0000 0000
00000120: 0000 0000 0000 0000 0000 0000 0000 0000
00000130: 0000 0000 0000 0000 0000 0000 0000 0000
00000140: 0000 0000 0000 0000 0000 0000 0000 0000
00000150: 0000 0000 0000 0000 0000 0000 0000 0000
00000160: 0000 0000 0000 0000 0000 0000 0000 0000
00000170: 0000 0000 0000 0000 0000 0000 0000 0000
00000180: 0000 0000 0000 0000 0000 0000 0000 0000
00000190: 0000 0000 0000 0000 0000 0000 0000 0000
000001a0: 0000 0000 0000 0000 0000 0000 0000 0000
000001b0: 0000 0000 0000 0000 0000 0000 0000 0000
000001c0: 0000 0000 0000 0000 0000 0000 0000 0000
000001d0: 0000 0000 0000 0000 0000 0000 0000 0000
000001e0: 0000 0000 0000 0000 0000 0000 0000 0000
000001f0: 0000 0000 0000 0000 0000 0000 0000 0000

network_body._body_endoder.seq_layers.2.weight f4 [128, 128]
0.032365534 0.23960087 0.0803866 -0.012771419 -0.058642734 -0.11713508 0.04288982 -0.09424502
-0.057077806 -0.017117454 0.0075447923 -0.044926774 0.1844363 -0.047168653 0.05089481 0.047464564
-0.008329259 -0.050248887 0.08883429 -0.08589294 0.062900625 0.23784572 0.02807444 0.010618764
-0.08124924 -0.026952796 0.06874134 0.06949509 -0.122205414 -0.0069896136 0.05383579 -0.09636887
0.08006822 -0.027827539 -0.06543271 -0.01345573 0.020184185 0.10560948 -0.092159666 0.042542696
0.08364775 -0.008393494 -0.024378495 0.01986714 0.11694256 0.038805168 -0.22003388 0.07608316
0.10478351 -0.027712956 0.12027151 -0.019978672 -0.19788314 0.0018954499 0.046749488 -0.06466903
-0.049842793 0.120027065 0.13052255 0.03281495 0.07904602 -0.16022481 0.17032053 0.026235646
-0.1427548 0.03629084 0.045328688 0.13414913 -0.06068237 0.005239847 0.2537406 -0.03382066
-0.14172308 0.15305449 -0.19495726 0.057709098 -0.098513946 0.081766345 0.1295724 0.0507362
0.010576356 -0.10468377 -0.03979698 0.022425627 -0.025784746 0.044767253 0.1926483 0.011786865
0.04497013 -0.03626795 0.08337389 -0.11095986 -0.030291801 -0.08022463 -0.0064763697 -0.17440897
-0.06578583 0.057683982 0.10719173 -0.1362376 0.0065735853 0.19008176 -0.18258868 0.07390675
0.09800399 -0.018841298 0.24282293 0.10731825 0.058910694 0.010789984 -0.011461129 -0.041848417
-0.074209206 0.02806403 0.12869513 0.15757455 -0.077014826 -0.08771381 -0.04664324 0.15172638
-0.10914095 -0.009411002 -0.04951505 -0.036917675 0.10175842 0.017469624 0.12926152 -0.09839026
0.08874122 0.015360011 0.035853796 -0.07396739 0.058804356 -0.19638653 -0.013609321 -0.1928417
-0.15310034 -0.038177364 -0.14093027 -0.0144090075 0.21270172 -0.0508204 0.07299312 0.04385763
0.07316836 -0.046044815 -0.155879 0.019937102 -0.058402743 0.0023665857 0.031082317 -0.019422036
-0.0020014276 -0.049787983 0.070280954 0.027908668 0.013473249 -0.057532646 -0.15684476 -0.13416643
0.005082727 0.106902294 0.19991787 0.0735546 -0.20747437 0.051468536 0.046337865 -0.11753656
-0.048086546 -0.16831294 -0.1419346 0.06314409 0.013759756 -0.010809302 -0.0015235252 -0.08978049
0.18814884 0.063421376 -0.03918893 0.06449546 0.09873088 -0.07330459 0.029825918 -0.0644098
0.06412899 0.10142585 -0.05092884 0.060250636 0.0069784927 0.16421397 -0.20145722 -0.14408709
0.019615242 -0.09729227 0.08412675 -0.0057102432 -0.024391118 0.018877905 0.05523299 -0.008373732
-0.061425265 0.033124786 -0.16653578 0.13047153 0.06725411 -0.022684123 -0.027085932 -0.013083039
0.0014920577 0.0126490155 -0.115655184 0.012483838 0.14837244 -0.03211856 0.0043613487 -0.04390174
-0.036289375 0.13148828 -0.027871445 -0.048617467 0.036011793 -0.15431036 0.14996615 0.14923924
0.039437626 -0.11459093 -0.0056735333 -0.08007196 -0.035072964 0.03082149 -0.0007423259 -0.073228754
0.10479407 -0.028468965 -0.029901005 -0.078229606 -0.10399456 0.08259574 -0.08257641 0.09143998
-0.026926773 0.06984751 0.01565204 0.0826066 0.17953649 -0.05514345 0.14590564 0.02660275
0.055759836 -0.01486253 -0.009352469 -0.0098355645 -0.08607275 -0.054862153 0.10317582 -0.11100633
00000000: b991 043d ee59 753e bba1 a43d 373f 51bc
00000010: 5d33 70bd 84e4 efbd 3cad 2f3d 8803 c1bd
00000020: 6bca 69bd e739 8cbc 4e3a f73b 2305 38bd
00000030: dfdc 3c3e eb33 41bd 1477 503d 346a 423d
00000040: 7277 08bc c7d1 4dbd c1ee b53d a3e8 afbd
00000050: 0bd2 803d d48d 733e 5efc e53c 53fa 2d3c
00000060: 0066 a6bd 1ccc dcbc 42c8 8c3d 7153 8e3d
00000070: d546 fabd 2109 e5bb eb82 5c3d 0b5d c5bd
00000080: cffa a33d 94f6 e3bc 9601 86bd 6c75 5cbc
00000090: 4e59 a53c c849 d83d 35be bcbd 4041 2e3d
000000a0: 834f ab3d de84 09bc 69b5 c7bc 6ac0 a23c
000000b0: 957f ef3d 2bf2 1e3d 9050 61be 7dd1 9b3d
000000c0: bd98 d63d 4806 e3bc e950 f63d 50aa a3bc
000000d0: e1a1 4abe bf70 f83a 647c 3f3d 3271 84bd
000000e0: f527 4cbd c0d0 f53d b4a7 053e f868 063d
000000f0: e1e2 a13d f911 24be 8168 2e3e 23ec d63c
00000100: 502e 12be b4a5 143d 93aa 393d 645e 093e
00000110: 148e 78bd 06b3 ab3b 4aea 813e 8887 0abd
00000120: db1f 11be 51ba 1c3e e0a2 47be 6060 6c3d
00000130: aec1 c9bd 1d75 a73d a1ae 043e c3d0 4f3d
00000140: 7448 2d3c 7264 d6bd 2802 23bd f3b5 b73c
00000150: 883a d3bc de5d 373d 9945 453e b21d 413c
00000160: 9932 383d b48d 14bd eebf aa3d ec3e e3bd
00000170: 8326 f8bc d04c a4bd ba37 d4bb 4498 32be
00000180: b9ba 86bd 0a46 6c3d 5687 db3d df81 0bbe
00000190: 3b67 d73b cba4 423e 87f8 3abe 6c5c 973d
000001a0: 51b6 c83d 1159 9abc 93a6 783e acc9 db3d
000001b0: 574c 713d 79c8 303c 76c7 3bbc 3f69 2bbd
000001c0: fffa 97bd 89e6 e53c a8c8 033e 395b 213e
000001d0: f3b9 9dbd 4ca3 b3bd fb0c 3fbd 295e 1b3e
000001e0: 4a85 dfbd 9a30 1abc 4bd0 4abd fd36 17bd
000001f0: b866 d03d 751c 8f3c 225d 043e d580 c9bd
00000200: f5bd b53d 8ea8 7b3c 6edb 123d 377c 97bd
00000210: d6dc 703d 8d19 49be a1f9 5ebc 4b78 45be
00000220: 56c6 1cbe de5f 1cbd 0650 10be c213 6cbc
00000230: 7bce 593e 0d29 50bd 6b7d 953d 0fa4 333d
00000240: 4bd9 953d 7d99 3cbd bf9e 1fbe 2253 a33c
00000250: b737 6fbd b818 1b3b 58a0 fe3c f61a 9fbc
00000260: 622a 03bb 7cee 4bbd 76ef 8f3d b8a0 e43c
00000270: e7be 5c3c 5aa7 6bbd ea9b 20be ed62 09be
00000280: 018d a63b 97ef da3d 45b7 4c3e cba3 963d
00000290: 2974 54be acd0 523d c6cc 3d3d 02b7 f0bd
000002a0: 66f6 44bd 3a5a 2cbe 4e57 11be b051 813d
000002b0: 9a70 613c 8019 31bc 06b1 c7ba d5de b7bd
000002c0: 17aa 403e 11e3 813d 9284 20bd 3216 843d
000002d0: 6a33 ca3d b820 96bd 7c55 f43c 49e9 83bd
000002e0: 0f56 833d 5bb8 cf3d c29a 50bd 5fc9 763d
000002f0: d7ab e43b b527 283e cd4a 4ebe 918b 13be
00000300: 25b0 a03c 2b41 c7bd a54a ac3d fe1c bbbb
00000310: e2cf c7bc d6a5 9a3c fd3b 623d fa31 09bc
00000320: 0f99 7bbd dbad 073d 5b88 2abe 549a 053e
00000330: 86bc 893d 0ed4 b9bc 51e3 ddbc 3e5a 56bc
00000340: 2691 c33a d13d 4f3c a0dc ecbd 0389 4c3c
00000350: f2ee 173e c08e 03bd a5e9 8e3b 50d2 33bd
00000360: 2ba4 14bd dda4 063e a852 e4bc 1c23 47bd
00000370: 1a81 133d 8903 1ebe ba90 193e 2cd2 183e
00000380: 5989 213d a6ae eabd 0ce9 b9bb c5fc a3bd
00000390: aba8 0fbd 597d fc3c a698 42ba f5f8 95bd
000003a0: 469e d63d bf37 e9bc f4f2 f4bc d836 a0bd
000003b0: 1afb d4bd f527 a93d d21d a9bd e244 bb3d
000003c0: 8995 dcbc 360c 8f3d b538 803c a62d a93d
000003d0: 6ad8 373e 19de 61bd 4a68 153e 03ee d93c
000003e0: 6d64 643d f881 73bc 193b 19bc 5925 21bc
000003f0: e946 b0bd 23b7 60bd d84d d33d 4957 e3bd

network_body._body_endoder.seq_layers.2.bias f4 [128]
0.0 0.0 0.0 0.0 0.0 0.0 0.0 0.0
0.0 0.0 0.0 0.0 0.0 0.0 0.0 0.0
0.0 0.0 0.0 0.0 0.0 0.0 0.0 0.0
0.0 0.0 0.0 0.0 0.0 0.0 0.0 0.0
0.0 0.0 0.0 0.0 0.0 0.0 0.0 0.0
0.0 0.0 0.0 0.0 0.0 0.0 0.0 0.0
0.0 0.0 0.0 0.0 0.0 0.0 0.0 0.0
0.0 0.0 0.0 0.0 0.0 0.0 0.0 0.0
0.0 0.0 0.0 0.0 0.0 0.0 0.0 0.0
0.0 0.0 0.0 0.0 0.0 0.0 0.0 0.0
0.0 0.0 0.0 0.0 0.0 0.0 0.0 0.0
0.0 0.0 0.0 0.0 0.0 0.0 0.0 0.0
0.0 0.0 0.0 0.0 0.0 0.0 0.0 0.0
0.0 0.0 0.0 0.0 0.0 0.0 0.0 0.0
0.0 0.0 0.0 0.0 0.0 0.0 0.0 0.0
0.0 0.0 0.0 0.0 0.0 0.0 0.0 0.0
00000000: 0000 0000 0000 0000 0000 0000 0000 0000
00000010: 0000 0000 0000 0000 0000 0000 0000 0000
00000020: 0000 0000 0000 0000 0000 0000 0000 0000
00000030: 0000 0000 0000 0000 0000 0000 0000 0000
00000040: 0000 0000 0000 0000 0000 0000 0000 0000
00000050: 0000 0000 0000 0000 0000 0000 0000 0000
00000060: 0000 0000 0000 0000 0000 0000 0000 0000
00000070: 0000 0000 0000 0000 0000 0000 0000 0000
00000080: 0000 0000 0000 0000 0000 0000 0000 0000
00000090: 0000 0000 0000 0000 0000 0000 0000 0000
000000a0: 0000 0000 0000 0000 0000 0000 0000 0000
000000b0: 0000 0000 0000 0000 0000 0000 0000 0000
000000c0: 0000 0000 0000 0000 0000 0000 0000 0000
000000d0: 0000 0000 0000 0000 0000 0000 0000 0000
000000e0: 0000 0000 0000 0000 0000 0000 0000 0000
000000f0: 0000 0000 0000 0000 0000 0000 0000 0000
00000100: 0000 0000 0000 0000 0000 0000 0000 0000
00000110: 0000 0000 0000 0000 0000 0000 0000 0000
00000120: 0000 0000 0000 0000 0000 0000 0000 0000
00000130: 0000 0000 0000 0000 0000 0000 0000 0000
00000140: 0000 0000 0000 0000 0000 0000 0000 0000
00000150: 0000 0000 0000 0000 0000 0000 0000 0000
00000160: 0000 0000 0000 0000 0000 0000 0000 0000
00000170: 0000 0000 0000 0000 0000 0000 0000 0000
00000180: 0000 0000 0000 0000 0000 0000 0000 0000
00000190: 0000 0000 0000 0000 0000 0000 0000 0000
000001a0: 0000 0000 0000 0000 0000 0000 0000 0000
000001b0: 0000 0000 0000 0000 0000 0000 0000 0000
000001c0: 0000 0000 0000 0000 0000 0000 0000 0000
000001d0: 0000 0000 0000 0000 0000 0000 0000 0000
000001e0: 0000 0000 0000 0000 0000 0000 0000 0000
000001f0: 0000 0000 0000 0000 0000 0000 0000 0000

value_heads.value_heads.extrinsic.weight f4 [1, 128]
0.18050843 0.19629633 -0.14778024 -0.15517664 0.09599298 -0.08832212 0.12661809 0.021337464
-0.15934408 0.0017413944 -0.08132233 -0.08159667 -0.14851908 -0.07382634 0.03887388 0.11930427
0.13528469 -0.21089894 0.10842246 0.00013196468 0.21165946 0.1708242 -0.031641454 -0.058210284
-0.17189 -0.0368668 -0.1791211 -0.0118416995 0.14245278 -0.008843526 -0.19929272 -0.14644372
0.19589713 0.19682494 0.051346898 -0.06314345 -0.098802395 -0.14285839 0.19182941 -0.040112227
0.11843127 0.0094319135 -0.16695157 0.12646452 -0.06181203 -0.030571386 -0.15235904 -0.19001856
-0.20638281 -0.21252209 0.03674507 0.12615067 -0.07214047 0.03805983 0.01066415 -0.17682102
0.14324456 0.13400066 -0.17403221 0.089955 0.075701326 -0.19140679 0.13027534 0.052800357
0.110260636 0.20489171 0.20064044 -0.12346783 0.08090502 0.054217577 0.18575895 0.0059468746
0.07608783 0.19300821 0.037587523 -0.070286706 -0.08685231 0.19474256 -0.041549906 0.10418835
0.13836524 0.047728926 0.0048715025 -0.07380448 0.14786947 0.07475686 0.11008772 0.20052707
-0.051896915 0.18042552 -0.14174251 0.10613069 -0.028469548 -0.055248976 -0.17866115 -0.14346306
0.01836893 0.07977131 -0.15097353 0.029707685 -0.13180634 0.1014806 -0.055323362 0.14282283
0.19483203 -0.15365839 0.09503955 0.011346638 0.17641813 0.19757119 -0.1778642 -0.13720971
-0.197732 -0.16508707 0.07097614 0.070840746 -0.1090187 -0.02187787 -0.21443981 -0.12246928
0.1662347 0.13530004 -0.10081893 0.10939035 0.12560824 -0.15182865 -0.061067417 -0.06449115
00000000: 34d7 383e e801 493e b453 17be a0e6 1ebe
00000010: f897 c43d 3ae2 b4bd 2ca8 013e e8cb ae3c
00000020: 182b 23be 803f e43a 528c a6bd 281c a7bd
00000030: 6315 18be 4432 97bd 383a 1f3d cc55 f43d
00000040: 1288 0a3e e4f5 57be 980c de3d 0060 0a39
00000050: 42bd 583e 8aec 2e3e 789a 01bd e86d 6ebd
00000060: ef03 30be a401 17bd 866b 37be b003 42bc
00000070: 24df 113e 70e4 10bc 6413 4cbe 58f5 15be
00000080: 4299 483e 7a8c 493e 2051 523d 5a51 81bd
00000090: e958 cabd 7849 12be ee6e 443e b84c 24bd
000000a0: 188c f23d 5088 1a3c 5af5 2abe ea7f 013e
000000b0: 9c2e 7dbd d870 fabc 0204 1cbe 3a94 42be
000000c0: 0456 53be 649f 59be 0082 163d a42d 013e
000000d0: 62be 93bd a0e4 1b3d b0b8 2e3c 9210 35be
000000e0: b4ae 123e 7837 093e 8035 32be 543a b83d
000000f0: 4c09 9b3d 2400 44be e666 053e 3045 583d
00000100: 54d0 e13d 22cf 513e b074 4d3e b4dc fcbd
00000110: 88b1 a53d 4013 5e3d 9837 3e3e 00de c23b
00000120: f0d3 9b3d f2a3 453e 60f5 193d 7af2 8fbd
00000130: a0df b1bd 986a 473e 3c30 2abd b460 d53d
00000140: 9eaf 0d3e 687f 433d 20a1 9f3b ce26 97bd
00000150: 186b 173e 201a 993d ac75 e13d f856 4d3e
00000160: dc91 54bd 78c1 383e f324 11be 0c5b d93d
00000170: f838 e9bc c04c 62bd f3f2 36be fbe7 12be
00000180: 707a 963c 245f a33d ce98 1abe 885d f33c
00000190: 3ef8 06be 10d5 cf3d c09a 62bd 2640 123e
000001a0: 0c82 473e a058 1dbe 18a4 c23d 40e7 393c
000001b0: f4a6 343e 1a50 4a3e 0822 36be b480 0cbe
000001c0: 427a 4abe 960c 29be f05b 913d f414 913d
000001d0: 3245 dfbd 3839 b3bc 1c96 5bbe 2dd1 fabd
000001e0: 6e39 2a3e 188c 0a3e 287a cebd 0c08 e03d
000001f0: 729f 003e f878 1bbe d421 7abd f013 84bd
