results/ppo/BalanceBall1/BalanceBall1-3200.pt (torch, 144771 bytes, 11 tensors)

network_body._body_endoder.seq_layers.0.weight f4 [128, 1]
0	0x3df3d36a	0.119055584
1	0xbfc559a8	-1.5417986
2	0xbf88100a	-1.0629895
3	0x3fb44fc7	1.4086846
4	0x3f35cfb1	0.71020037
5	0x3f807e91	1.0038625
6	0xbf9a3b07	-1.2049264
7	0xc019fa56	-2.4059043
8	0xbe93771b	-0.28801808
9	0xbed4cbfa	-0.41561872
10	0x3ed7ecef	0.42172953
11	0x3f923955	1.1423746
12	0x3edad2da	0.42738992
13	0x3eccb92d	0.39985028
14	0xbddadcce	-0.106866464
15	0x3ec21cee	0.37912697
16	0xbff133ce	-1.8843935
17	0x3fdbc5bb	1.7169718
18	0xbea62a02	-0.32453924
19	0x3f20bdd8	0.6278968
20	0x3e8bdce1	0.27316955
21	0xbd9ee5b8	-0.07758659
22	0x3f85ded2	1.0458624
23	0x3efa721a	0.48915178
24	0x3f1be6bf	0.60898966
25	0xbeff1fe0	-0.49829006
26	0x3fa3ffe4	1.2812467
27	0xbf1d47c6	-0.6143764
28	0xbedce434	-0.43142855
29	0x3e1270be	0.1430082
30	0x3e5c9612	0.21541622
31	0x3f2ba483	0.670479
32	0x3f08ecd2	0.5348636
33	0xc008f1a2	-2.139748
34	0x3fa6663d	1.2999951
35	0xbfdafad0	-1.7107792
36	0x3f6a6dde	0.91573894
37	0x3ecb2be8	0.39681935
38	0xbfccf6df	-1.6012839
39	0xbf7f8089	-0.99805504
40	0xbf679bd3	-0.90472144
41	0x3f3cc938	0.73744535
42	0x3e57d247	0.21076308
43	0xbf183b49	-0.5946546
44	0x3f3b1091	0.73072153
45	0x3cf87ce9	0.030333
46	0xbd010616	-0.031499945
47	0x3f6f6aa9	0.93522125
48	0xbf29d09c	-0.6633394
49	0xbf0f56ee	-0.5599202
50	0xbf55015c	-0.832052
51	0xbc893392	-0.016748223
52	0x3e27ed02	0.16399005
53	0x3ed831a7	0.42225382
54	0xbebb1dd3	-0.36546192
55	0x3ecfb420	0.40567112
56	0xbe8eb586	-0.27872866
57	0xbe316f5a	-0.17327634
58	0xbf3bf3c3	-0.73418826
59	0xbf81bfb9	-1.0136634
60	0xbfe220ea	-1.7666295
61	0x3f3e154b	0.7425124
62	0x3fc07e3b	1.5038522
63	0x3f2e154b	0.6800124
64	0xbe5a2e13	-0.21306638
65	0xbf3ac6f1	-0.7295981
66	0xbe0f6db3	-0.1400669
67	0xbf3d6cc9	-0.7399412
68	0xbe4caa78	-0.19986904
69	0xbe2bb1c2	-0.16767028
70	0x3f272509	0.65290886
71	0x3f878ca0	1.058979
72	0xbebe4b04	-0.37166607
73	0xbf85ba04	-1.0447392
74	0x3fb33b5d	1.4002491
75	0x3fa45857	1.2839459
76	0x3d9dd93e	0.07707451
77	0xbfd863cb	-1.6905454
78	0x3e89dfc5	0.26928535
79	0xbfabb370	-1.3414135
80	0x3fc14ba1	1.5101205
81	0xbe6e0bd7	-0.23246704
82	0x3fa4b18f	1.2866687
83	0x3f0dd6a7	0.5540566
84	0xbe9ea7f8	-0.30987525
85	0xc03c8591	-2.9456522
86	0xbf8b18d4	-1.0866952
87	0x3ea014f2	0.3126598
88	0xbf2fa5a4	-0.6861212
89	0x3f43c8f0	0.7647848
90	0xbf845c6f	-1.0340708
91	0xbfcb743e	-1.5894849
92	0xbda3e889	-0.08003337
93	0x3fb25218	1.3931303
94	0x3f6d9756	0.92809045
95	0xbf9db437	-1.2320622
96	0x3fa80d82	1.3129122
97	0x3f571cdd	0.84028417
98	0x3f4c1644	0.79721475
99	0x3f62f2a2	0.8865148
100	0x3f1d9703	0.6155855
101	0x3d00b6cc	0.03142433
102	0xbf3b665a	-0.7320305
103	0x3c62ad5a	0.013835276
104	0x3dfe9d89	0.12432391
105	0xbe730a8d	-0.23734494
106	0x3fa2859a	1.2697022
107	0xbfa333a5	-1.2750136
108	0x3e971562	0.295085
109	0xbee9d241	-0.45668224
110	0xbf8a2b0d	-1.0794388
111	0xbea9fb6d	-0.33199635
112	0x3f7166b9	0.9429737
113	0xbf84bb54	-1.0369668
114	0xbecd15c8	-0.4005568
115	0xbf1aa3b3	-0.60406035
116	0xbf50044d	-0.8125656
117	0xbd2f2b37	-0.042765822
118	0x3f9c458b	1.2208723
119	0xbfc9ca31	-1.5764829
120	0xbdc646b9	-0.09681458
121	0x3dde1b08	0.108449996
122	0x3f67cc26	0.9054588
123	0xbf007cc4	-0.5019038
124	0xbe18305d	-0.14862199
125	0xbd3a9020	-0.045547605
126	0x3f3ace9e	0.7297152
127	0xbe17bf27	-0.14819013

network_body._body_endoder.seq_layers.0.bias f4 [128]
0	0x00000000	0.0
1	0x00000000	0.0
2	0x00000000	0.0
3	0x00000000	0.0
4	0x00000000	0.0
5	0x00000000	0.0
6	0x00000000	0.0
7	0x00000000	0.0
8	0x00000000	0.0
9	0x00000000	0.0
10	0x00000000	0.0
11	0x00000000	0.0
12	0x00000000	0.0
13	0x00000000	0.0
14	0x00000000	0.0
15	0x00000000	0.0
16	0x00000000	0.0
17	0x00000000	0.0
18	0x00000000	0.0
19	0x00000000	0.0
20	0x00000000	0.0
21	0x00000000	0.0
22	0x00000000	0.0
23	0x00000000	0.0
24	0x00000000	0.0
25	0x00000000	0.0
26	0x00000000	0.0
27	0x00000000	0.0
28	0x00000000	0.0
29	0x00000000	0.0
30	0x00000000	0.0
31	0x00000000	0.0
32	0x00000000	0.0
33	0x00000000	0.0
34	0x00000000	0.0
35	0x00000000	0.0
36	0x00000000	0.0
37	0x00000000	0.0
38	0x00000000	0.0
39	0x00000000	0.0
40	0x00000000	0.0
41	0x00000000	0.0
42	0x00000000	0.0
43	0x00000000	0.0
44	0x00000000	0.0
45	0x00000000	0.0
46	0x00000000	0.0
47	0x00000000	0.0
48	0x00000000	0.0
49	0x00000000	0.0
50	0x00000000	0.0
51	0x00000000	0.0
52	0x00000000	0.0
53	0x00000000	0.0
54	0x00000000	0.0
55	0x00000000	0.0
56	0x00000000	0.0
57	0x00000000	0.0
58	0x00000000	0.0
59	0x00000000	0.0
60	0x00000000	0.0
61	0x00000000	0.0
62	0x00000000	0.0
63	0x00000000	0.0
64	0x00000000	0.0
65	0x00000000	0.0
66	0x00000000	0.0
67	0x00000000	0.0
68	0x00000000	0.0
69	0x00000000	0.0
70	0x00000000	0.0
71	0x00000000	0.0
72	0x00000000	0.0
73	0x00000000	0.0
74	0x00000000	0.0
75	0x00000000	0.0
76	0x00000000	0.0
77	0x00000000	0.0
78	0x00000000	0.0
79	0x00000000	0.0
80	0x00000000	0.0
81	0x00000000	0.0
82	0x00000000	0.0
83	0x00000000	0.0
84	0x00000000	0.0
85	0x00000000	0.0
86	0x00000000	0.0
87	0x00000000	0.0
88	0x00000000	0.0
89	0x00000000	0.0
90	0x00000000	0.0
91	0x00000000	0.0
92	0x00000000	0.0
93	0x00000000	0.0
94	0x00000000	0.0
95	0x00000000	0.0
96	0x00000000	0.0
97	0x00000000	0.0
98	0x00000000	0.0
99	0x00000000	0.0
100	0x00000000	0.0
101	0x00000000	0.0
102	0x00000000	0.0
103	0x00000000	0.0
104	0x00000000	0.0
105	0x00000000	0.0
106	0x00000000	0.0
107	0x00000000	0.0
108	0x00000000	0.0
109	0x00000000	0.0
110	0x00000000	0.0
111	0x00000000	0.0
112	0x00000000	0.0
113	0x00000000	0.0
114	0x00000000	0.0
115	0x00000000	0.0
116	0x00000000	0.0
117	0x00000000	0.0
118	0x00000000	0.0
119	0x00000000	0.0
120	0x00000000	0.0
121	0x00000000	0.0
122	0x00000000	0.0
123	0x00000000	0.0
124	0x00000000	0.0
125	0x00000000	0.0
126	0x00000000	0.0
127	0x00000000	0.0

network_body._body_endoder.seq_layers.2.weight f4 [128, 128]
0	0xbcc823c9	-0.024431126
1	0xbc49a66a	-0.012307743
2	0x3c711381	0.014714123
3	0xbb09cbfd	-0.0021026128
4	0x3ca19c7b	0.019727936
5	0x3dcca56e	0.09992491
6	0x3c912c22	0.01772124
7	0xbe0ac1a8	-0.13550436
8	0xbe064094	-0.13110572
9	0x3c9c59e5	0.019085834
10	0x3e6a277b	0.22866623
11	0xbd9d03fa	-0.07666774
12	0xbd90a896	-0.07063405
13	0xbdd4aeb2	-0.10384883
14	0xbd87a307	-0.06622892
15	0xbc57e978	-0.013178222
16	0xbcc5a668	-0.0241272
17	0xbdbc2746	-0.09187178
18	0xbd6d956a	-0.05800382
19	0xbe288e36	-0.16460499
20	0xbc4af9bc	-0.012388643
21	0xbcc13349	-0.023584025
22	0x3db3ac2b	0.08773073
23	0x3d923a09	0.071399756
24	0x3c0ed170	0.008716926
25	0xbd9c0f3b	-0.076200925
26	0xbd5274a4	-0.05138077
27	0x3a260ad6	0.0006334012
28	0xbda4d6ad	-0.08048759
29	0x3dbe0129	0.09277565
30	0x3d5e7fa5	0.05432095
31	0xbd55acb9	-0.052166674
32	0xbda320ba	-0.079652265
33	0xbe13d6bc	-0.14437383
34	0x3c9fab40	0.019490838
35	0x3d1c75ab	0.038198154
36	0x3d8c2bdc	0.06844303
37	0xbd5d6e07	-0.05406001
38	0x3df49d89	0.1194411
39	0x3d1e9893	0.038719725
40	0x3daf5c0a	0.08562477
41	0xbd0fc13b	-0.03509639
42	0x3e5e21c1	0.21692564
43	0x3c37820f	0.011200442
44	0xbc722b63	-0.014780852
45	0xbcd84ba3	-0.026403254
46	0x3e1e40c3	0.15454392
47	0x3d6c12a2	0.057634957
48	0xbda0f81c	-0.07859823
49	0xbc22ba2a	-0.00993208
50	0x3d843104	0.064546615
51	0xbd58bd49	-0.05291489
52	0xbdd8eae9	-0.105916806
53	0x3c7d5585	0.015462284
54	0xbe2c89e8	-0.16849482
55	0xbc500f64	-0.012698982
56	0xbc980026	-0.018554758
57	0xbe03ffb5	-0.12890513
58	0xbe7051dc	-0.23468727
59	0x3e0628cf	0.13101505
60	0x3e0cecac	0.13762158
61	0xbd7781bc	-0.06042646
62	0x3e090abe	0.13383004
63	0xbc3b1b64	-0.011420105
64	0x3d7e730f	0.062121447
65	0x3cc1c31f	0.023652611
66	0x3ce8de26	0.028426241
67	0x3d51c7f2	0.051216073
68	0xbcc4fd6d	-0.024046624
69	0x3e127442	0.14302161
70	0xbe1ed9fe	-0.15512845
71	0xbdc4a7b4	-0.09602299
72	0x39748977	0.00023320863
73	0x3df41278	0.11917585
74	0xbd2bc478	-0.041935414
75	0x3c9a7ba1	0.018857779
76	0x3daaa520	0.08332276
77	0xbd6c060c	-0.057622954
78	0xbdac7515	-0.08420769
79	0xbdb186c8	-0.086682856
80	0x3c92c9b1	0.01791844
81	0x3dc0cb43	0.09413769
82	0xbd3f1b88	-0.046657115
83	0x3c096ce6	0.00838778
84	0x3db046e3	0.086072706
85	0xbd446611	-0.0479489
86	0xbd69ec6d	-0.05711024
87	0x3da27088	0.0793162
88	0xbd77e9b0	-0.060525596
89	0x3e0768bd	0.13223548
90	0x3db79054	0.08963075
91	0x3d4cc555	0.049992878
92	0xbd80003b	-0.06250044
93	0x3cd6c114	0.026215114
94	0xbe059f8f	-0.13049148
95	0xbc9a08ee	-0.018803086
96	0x3d950760	0.07276797
97	0xbe34642c	-0.17616338
98	0x3d353e5a	0.044248916
99	0x3e0c8aef	0.13724874
100	0x3ded4385	0.11585144
101	0xbc84bc94	-0.016203202
102	0xbc8b8fd8	-0.017036363
103	0xbdfa5c58	-0.122246444
104	0xbc31abe4	-0.010844205
105	0xbe037697	-0.12838207
106	0x3e1f2df5	0.15544875
107	0x3d94aed0	0.07259905
108	0x3cdad2db	0.026711872
109	0xbcc9bec1	-0.024627091
110	0x3cc52eec	0.024070226
111	0xbdee17ee	-0.11625658
112	0x3df579b3	0.11986103
113	0xbdaa97dd	-0.08329747
114	0xbe01a792	-0.12661579
115	0x3df2d429	0.118568726
116	0x3d50741e	0.050891988
117	0x3da8ba19	0.0823862
118	0x3d148a2c	0.036264583
119	0x3d809f96	0.062804386
120	0x3dec18b0	0.11528146
121	0x3d05da96	0.032679163
122	0x3ddcc2e4	0.1077936
123	0xbceb8d4e	-0.028753903
124	0x3e19b121	0.15008976
125	0x3d18b801	0.037284855
126	0xbc858ecb	-0.01630344
127	0x3ca3063a	0.01990043
128	0xbdf550f1	-0.11978329
129	0x3d4741ca	0.048646726
130	0xbe552ef4	-0.20818692
131	0x3d5d5a5b	0.054041248
132	0xbced4992	-0.028965745
133	0x3d768e1e	0.060194127
134	0x3b9d3eb1	0.004798733
135	0x3d5f2657	0.054479923
136	0x3de599b4	0.11210957
137	0x3ca51e9c	0.020156197
138	0xbd6d9b78	-0.058009595
139	0xbc88be0d	-0.016692186
140	0xbd6406a4	-0.055670395
141	0x3d8c2735	0.06843416
142	0xbcd3f454	-0.02587334
143	0xbdd4072e	-0.10352932
144	0x3e3e49ef	0.18582891
145	0x3c38de1c	0.011283424
146	0x3d101461	0.035175685
147	0x3c98dbc6	0.018659484
148	0xbdc0267d	-0.09382341
149	0xbaa048c2	-0.0012228715
150	0xbd5ff1e1	-0.054674033
151	0x3d9c974d	0.07646046
152	0x3ded1ba1	0.115775354
153	0x3d9303cf	0.07178461
154	0x3db3a395	0.08771435
155	0xbdbb1ab6	-0.09135954
156	0x3dc2efdd	0.095184065
157	0xbe4045e1	-0.18776657
158	0x3d05d7d6	0.03267654
159	0xbe181f86	-0.14855775
160	0xbcdc895c	-0.026920967
161	0xbd14a0fc	-0.03628634
162	0x3c819bdb	0.015821388
163	0xbdf36dc6	-0.11886172
164	0xbbce76dc	-0.0063007902
165	0x3d8ff9a9	0.07030041
166	0xbd1223f6	-0.035678826
167	0xbd59d175	-0.05317827
168	0x3ccbdde0	0.024886072
169	0x3e1343c0	0.14381313
170	0xbe6aeb1c	-0.2294125
171	0xbd00ff94	-0.03149374
172	0xbd4021c3	-0.046907198
173	0x3dd5ef57	0.10446041
174	0xbe1b4909	-0.1516458
175	0x3de651e8	0.11246091
176	0x3d892d47	0.06698089
177	0x3cb15890	0.021648675
178	0xbd8395ca	-0.06425054
179	0x3dd0e2c3	0.10199501
180	0x3cb3bccf	0.021940617
181	0xbc33ce6c	-0.010974508
182	0xbe0d08a7	-0.13772832
183	0x3e3a0f88	0.18169987
184	0xbba00e96	-0.0048845513
185	0x3de21dd8	0.110408485
186	0x3dd9ddad	0.106379844
187	0xbd9be739	-0.076124616
188	0xbe093c55	-0.13401921
189	0xbde1c61a	-0.11024113
190	0xbdabd988	-0.083911
191	0xbd30dd6a	-0.043179907
192	0xbe118284	-0.14209944
193	0x3d87f94b	0.06639346
194	0xbb0e5f4c	-0.0021724282
195	0x3d151ccb	0.036404412
196	0x3e3b21b4	0.18274575
197	0x3c0e4606	0.008683687
198	0x3dd4d7bf	0.10392713
199	0xbd0b8d78	-0.034070462
200	0xbe0dd491	-0.13850619
201	0x3e005c7a	0.12535277
202	0x3e28fab3	0.16501884
203	0xbd1ef0a8	-0.038803726
204	0xbd62c727	-0.055365708
205	0xbc9abb2a	-0.018888075
206	0x3ce65f10	0.028121501
207	0xbbe643ca	-0.007027124
208	0xbe380d6e	-0.17973873
209	0xbd8d038e	-0.06885444
210	0x3d2539a4	0.040338174
211	0x3dbef32d	0.09323726
212	0xbb83ccca	-0.0040222155
213	0x3d2c26c8	0.042029172
214	0x3d6dd5bd	0.058065165
215	0x3dae35e3	0.08506372
216	0x3e0c5d46	0.13707456
217	0xbd5af19c	-0.053453073
218	0xbdb87c73	-0.09008112
219	0xbb1bdf7c	-0.002378433
220	0x3d01be30	0.031675518
221	0xbe10f6c8	-0.1415664
222	0xbdee6edd	-0.11642239
223	0xbda61778	-0.08109945
224	0xbd5ac49b	-0.053410154
225	0xbd9397f5	-0.07206718
226	0x3d239978	0.03994128
227	0x3d8f7e05	0.07006458
228	0xbd7a3c82	-0.06109286
229	0x3c803a0e	0.015652683
230	0xbcf97efb	-0.030456057
231	0xbe16064e	-0.14650843
232	0x3dd233d6	0.10263793
233	0x3d8eb6f8	0.06968492
234	0x3d2b7054	0.04185517
235	0xbd2685e5	-0.040655036
236	0xbda2adb7	-0.0794329
237	0xbcdd1bdd	-0.026990825
238	0x3ca14a44	0.019688733
239	0xbdc6b847	-0.09703117
240	0xbc9481b6	-0.018128257
241	0xbcc0b758	-0.023524925
242	0x3de111dc	0.109897345
243	0xbdbb1504	-0.09134868
244	0xbe4e0808	-0.20120251
245	0xbd7af995	-0.061273176
246	0xbc3b94ff	-0.011449098
247	0x3d50a629	0.050939713
248	0xbe47acfe	-0.19499585
249	0x3e3ab510	0.18233132
250	0xbddf914f	-0.10916387
251	0xbcb44f29	-0.022010403
252	0x3d8aab77	0.067709856
253	0x3c6798be	0.014135538
254	0xbd4c044b	-0.04980878
255	0x3b7425ba	0.0037253932

network_body._body_endoder.seq_layers.2.bias f4 [128]
0	0x00000000	0.0
1	0x00000000	0.0
2	0x00000000	0.0
3	0x00000000	0.0
4	0x00000000	0.0
5	0x00000000	0.0
6	0x00000000	0.0
7	0x00000000	0.0
8	0x00000000	0.0
9	0x00000000	0.0
10	0x00000000	0.0
11	0x00000000	0.0
12	0x00000000	0.0
13	0x00000000	0.0
14	0x00000000	0.0
15	0x00000000	0.0
16	0x00000000	0.0
17	0x00000000	0.0
18	0x00000000	0.0
19	0x00000000	0.0
20	0x00000000	0.0
21	0x00000000	0.0
22	0x00000000	0.0
23	0x00000000	0.0
24	0x00000000	0.0
25	0x00000000	0.0
26	0x00000000	0.0
27	0x00000000	0.0
28	0x00000000	0.0
29	0x00000000	0.0
30	0x00000000	0.0
31	0x00000000	0.0
32	0x00000000	0.0
33	0x00000000	0.0
34	0x00000000	0.0
35	0x00000000	0.0
36	0x00000000	0.0
37	0x00000000	0.0
38	0x00000000	0.0
39	0x00000000	0.0
40	0x00000000	0.0
41	0x00000000	0.0
42	0x00000000	0.0
43	0x00000000	0.0
44	0x00000000	0.0
45	0x00000000	0.0
46	0x00000000	0.0
47	0x00000000	0.0
48	0x00000000	0.0
49	0x00000000	0.0
50	0x00000000	0.0
51	0x00000000	0.0
52	0x00000000	0.0
53	0x00000000	0.0
54	0x00000000	0.0
55	0x00000000	0.0
56	0x00000000	0.0
57	0x00000000	0.0
58	0x00000000	0.0
59	0x00000000	0.0
60	0x00000000	0.0
61	0x00000000	0.0
62	0x00000000	0.0
63	0x00000000	0.0
64	0x00000000	0.0
65	0x00000000	0.0
66	0x00000000	0.0
67	0x00000000	0.0
68	0x00000000	0.0
69	0x00000000	0.0
70	0x00000000	0.0
71	0x00000000	0.0
72	0x00000000	0.0
73	0x00000000	0.0
74	0x00000000	0.0
75	0x00000000	0.0
76	0x00000000	0.0
77	0x00000000	0.0
78	0x00000000	0.0
79	0x00000000	0.0
80	0x00000000	0.0
81	0x00000000	0.0
82	0x00000000	0.0
83	0x00000000	0.0
84	0x00000000	0.0
85	0x00000000	0.0
86	0x00000000	0.0
87	0x00000000	0.0
88	0x00000000	0.0
89	0x00000000	0.0
90	0x00000000	0.0
91	0x00000000	0.0
92	0x00000000	0.0
93	0x00000000	0.0
94	0x00000000	0.0
95	0x00000000	0.0
96	0x00000000	0.0
97	0x00000000	0.0
98	0x00000000	0.0
99	0x00000000	0.0
100	0x00000000	0.0
101	0x00000000	0.0
102	0x00000000	0.0
103	0x00000000	0.0
104	0x00000000	0.0
105	0x00000000	0.0
106	0x00000000	0.0
107	0x00000000	0.0
108	0x00000000	0.0
109	0x00000000	0.0
110	0x00000000	0.0
111	0x00000000	0.0
112	0x00000000	0.0
113	0x00000000	0.0
114	0x00000000	0.0
115	0x00000000	0.0
116	0x00000000	0.0
117	0x00000000	0.0
118	0x00000000	0.0
119	0x00000000	0.0
120	0x00000000	0.0
121	0x00000000	0.0
122	0x00000000	0.0
123	0x00000000	0.0
124	0x00000000	0.0
125	0x00000000	0.0
126	0x00000000	0.0
127	0x00000000	0.0

action_model._discrete_distribution.branches.0.weight f4 [3, 128]
0	0x3b266547	0.0025389956
1	0x3b82891d	0.0039836303
2	0xbc54b1a0	-0.012981802
3	0xbbea29cd	-0.0071460963
4	0xbca444ca	-0.020052332
5	0xbbb6c754	-0.005577961
6	0xbc80554b	-0.01566567
7	0x3bb4143f	0.0054955776
8	0xba351d41	-0.0006908961
9	0x3bf97690	0.0076130107
10	0x3bc7c4e4	0.0060964692
11	0x3b8c2bc3	0.0042776777
12	0xbbf65b58	-0.0075182132
13	0xb8534d0b	-5.0378072e-05
14	0x3bbc46bb	0.0057457364
15	0xbb7faefd	-0.0039014213
16	0x3c690d80	0.01422441
17	0x3c64bcd8	0.0139610395
18	0xbc1e7d5b	-0.009673442
19	0x3b46a0ad	0.0030308173
20	0x3bcd275d	0.006260796
21	0x3abec743	0.0014555234
22	0x3c859d4b	0.016310355
23	0xbb73befa	-0.0037192688
24	0xbb2d3bf5	-0.0026433442
25	0x3bbfc229	0.005852003
26	0xbbef03c2	-0.007294149
27	0x3b501620	0.0031751469
28	0x3c1cd892	0.009573119
29	0xbbab4bbf	-0.0052275355
30	0x3bf8e2ea	0.0075954096
31	0x3c2df1d9	0.010616743
32	0x3c07192b	0.008245747
33	0x3b83decf	0.0040243636
34	0xbc221d95	-0.009894748
35	0xbb01efa9	-0.0019826686
36	0x3bf29c72	0.0074039036
37	0x3bdc0d75	0.0067154714
38	0xbac9c191	-0.001539277
39	0xbc3d2479	-0.01154434
40	0xbc392904	-0.011301283
41	0xbc0ffd24	-0.008788381
42	0xbba5a736	-0.0050553335
43	0x3c99c890	0.018772393
44	0xbba13e91	-0.0049207886
45	0x3b98cdba	0.0046631964
46	0x3c63a608	0.013894565
47	0xbc83ae02	-0.016074184
48	0xba8b777e	-0.001064047
49	0x3c3753ab	0.011189382
50	0x3bd72ebf	0.006566852
51	0x3b9b4a71	0.0047390987
52	0x3b8fb867	0.004385996
53	0x3c0f1161	0.008732171
54	0x3ca82c00	0.020528793
55	0xbc16e1c7	-0.009209103
56	0x3bb8550e	0.0056253737
57	0x3c4743cd	0.012162161
58	0x3c29dfff	0.010368346
59	0x3be128a3	0.0068712994
60	0xbbe9332f	-0.0071166973
61	0x3c1b0a8e	0.009462966
62	0xbbd8884f	-0.006608046
63	0xbb1b2caa	-0.0023677745
64	0x3bcee8ff	0.0063143964
65	0xbc164880	-0.009172559
66	0x3c584e2d	0.013202232
67	0x3c41392c	0.011793416
68	0xbc1caaca	-0.009562204
69	0xbcae24b0	-0.021257728
70	0x3c003fd8	0.007827722
71	0x3b01ecc0	0.0019824952
72	0xbb2957d9	-0.0025839715
73	0xbc1275b3	-0.0089391945
74	0xba5979fd	-0.0008296071
75	0xbb87a2c9	-0.0041392785
76	0xbc036511	-0.008019702
77	0x3b2ff201	0.0026847126
78	0xba6747e2	-0.0008822662
79	0xbc5b4383	-0.013382795
80	0xbb8c2023	-0.004276292
81	0xbc214df7	-0.009845248
82	0xbc3e4621	-0.0116134
83	0xbc5ced5d	-0.013484326
84	0xba3ab5bf	-0.0007122419
85	0x3bc18030	0.0059051737
86	0xbc513b4a	-0.012770483
87	0xbca765ff	-0.020434378
88	0x3bdba5fb	0.006703136
89	0xbaa2f503	-0.0012432638
90	0x3c15d132	0.009144114
91	0xbbc0e612	-0.0058868015
92	0x3bd80ad8	0.0065930896
93	0x3c71a567	0.014748908
94	0xbbafef28	-0.005369086
95	0xbbaca3c3	-0.0052685454
96	0xbb8ec994	-0.004357526
97	0xbb0f465f	-0.0021862013
98	0x3c3447e1	0.011003465
99	0x3b4c0e58	0.003113648
100	0xbc4ff6a7	-0.012693084
101	0x3bbf5f1a	0.0058401944
102	0x3caa4dd1	0.020789059
103	0x3bb2b23d	0.0054533766
104	0x3b89b957	0.0042030024
105	0xbb631ad7	-0.003465345
106	0xbc3b086b	-0.011415581
107	0xbbbbb7ae	-0.0057286834
108	0x3c804e6f	0.0156624
109	0x3bd1e0ba	0.0064049633
110	0xbb360d60	-0.0027778968
111	0x3b65225d	0.003496311
112	0xbbb2c837	-0.0054559964
113	0xbb8b434e	-0.0042499667
114	0x3afdd365	0.0019365369
115	0x3bc1ea84	0.005917849
116	0xb9271a46	-0.00015936149
117	0xb9d732db	-0.00041045886
118	0x3b355d17	0.0027673894
119	0x3b8792f3	0.0041373908
120	0xba989b93	-0.0011643044
121	0xbbf4c483	-0.007469715
122	0xbc061901	-0.008184672
123	0x3bfd2163	0.0077249273
124	0x3a3571a5	0.00069215364
125	0x3b3494c3	0.002755449
126	0xbc3548ba	-0.011064703
127	0xbb630f5b	-0.0034646604
128	0x3bb63d1f	0.0055614854
129	0xba6f1d0a	-0.00091214536
130	0x3bb675be	0.005568235
131	0x3c85dd7e	0.016340967
132	0xbc1e81ad	-0.009674472
133	0x3b937aee	0.0045007383
134	0x3c6bc345	0.014389818
135	0x3bb7ef17	0.0056132185
136	0xbc02ffff	-0.007995605
137	0xbbc286c5	-0.005936476
138	0xbc1e383a	-0.00965696
139	0xbc87ac73	-0.016561722
140	0x3c14d1ce	0.009083224
141	0xbb9b7eb7	-0.00474533
142	0x3c8848eb	0.016636332
143	0xbc17e15e	-0.00927004
144	0xbc83fe2f	-0.016112415
145	0xbca5cb64	-0.020238586
146	0xbbb851fd	-0.005625008
147	0xba3d7525	-0.0007227234
148	0x3a84701f	0.0010104215
149	0xbc0887c4	-0.00833315
150	0xbc4fb4b0	-0.012677357
151	0x3a5bfdeb	0.0008392024
152	0x3b6dcd38	0.003628565
153	0xbb77e3b0	-0.0037824921
154	0x3b7bd3bd	0.0038425766
155	0xbc799e1b	-0.015235449
156	0x3c14515b	0.0090526
157	0x3c28eaaf	0.010309859
158	0x3c03f997	0.008055112
159	0xba8d3d6d	-0.0010775753
160	0x3ba1d5aa	0.004938801
161	0xbc763c1b	-0.015028979
162	0xbc9fec0a	-0.019521732
163	0xbb68b64b	-0.0035509046
164	0xbaf9bfdb	-0.001905437
165	0x3b4c0b9b	0.0031134847
166	0xbb0eba5b	-0.0021778557
167	0xbb1d4ede	-0.0024003307
168	0x3baf2821	0.00534536
169	0xbc01ac73	-0.00791465
170	0xbbd8f12a	-0.006620546
171	0xbba9e01f	-0.005184188
172	0x3c0624d5	0.008187492
173	0xbb927298	-0.004469227
174	0xba076df7	-0.00051662273
175	0xbbfaff13	-0.0076598017
176	0x3c092da7	0.008372701
177	0xbc2b9f73	-0.010475027
178	0xb7b32c93	-2.135922e-05
179	0xbc0177cc	-0.007902097
180	0x3c2d5757	0.0105799055
181	0xbb32c499	-0.0027277826
182	0x3bbcb08a	0.00575835
183	0x3bb9cc0d	0.0056700767
184	0x3bf2b448	0.007406745
185	0xbc100ddb	-0.008792366
186	0xbbf76537	-0.0075499075
187	0x3c14633a	0.009056861
188	0xbbb9874a	-0.0056618797
189	0x3b84f641	0.004057676
190	0x3bce5c07	0.0062975916
191	0xbc935dff	-0.017989157
192	0xbbe9758b	-0.007124608
193	0x3c24481a	0.010026956
194	0xbb596d25	-0.0033176627
195	0x3acc86cb	0.0015604136
196	0xbc297e22	-0.010345014
197	0x3b9ad8e4	0.0047255624
198	0xbbdc66d8	-0.006726127
199	0xbc003ef7	-0.007827512
200	0xbad3af25	-0.001615022
201	0xbc133f3d	-0.008987245
202	0xbc40c580	-0.011765838
203	0x3c693d32	0.0142357815
204	0x3b98645b	0.004650635
205	0xbbf0d5e3	-0.007349716
206	0xbbb5077b	-0.0055245734
207	0x3b80d044	0.003931077
208	0xbbcba97d	-0.006215273
209	0xbc65ab57	-0.014017901
210	0x3b969810	0.004595764
211	0xbc38ba77	-0.011274925
212	0x3aaec10f	0.0013332682
213	0x3b276731	0.0025543685
214	0x3c80b391	0.015710624
215	0x3ad69763	0.0016372021
216	0x3baa5990	0.005198665
217	0x3b5f82d8	0.0034105089
218	0x3ae1fad0	0.0017240886
219	0x3a07ba68	0.0005177618
220	0xbbd758cd	-0.006571865
221	0x3c513232	0.012768315
222	0x3c7b06ea	0.015321473
223	0x3ab3f3d6	0.0013729285
224	0xbba8415b	-0.005134744
225	0x3aea3e9d	0.0017871443
226	0x3989d1a7	0.0002628688
227	0xbc1bd74e	-0.009511782
228	0xbbe9136d	-0.0071129114
229	0x3b23e453	0.0025007918
230	0xbc11ca53	-0.0088983355
231	0xbc22e183	-0.0099414615
232	0x3b5a9d4d	0.0033357919
233	0x3bc8b12a	0.006124635
234	0xbb699605	-0.0035642397
235	0xba9cde13	-0.0011968039
236	0x3bd13d55	0.006385485
237	0xbbcee9c8	-0.00631449
238	0x3bf43ce7	0.007453549
239	0xbb8698e5	-0.004107582
240	0xbb66310b	-0.0035124447
241	0x3c287b8a	0.01028336
242	0xbbeb23da	-0.0071759047
243	0x3baca94a	0.0052692043
244	0xbb43e8a2	-0.0029893299
245	0x3b129d0f	0.0022371446
246	0xbb0c97b6	-0.0021452731
247	0x3baa9e7d	0.0052068816
248	0x3a892d4a	0.0010465768
249	0x3bda0888	0.006653849
250	0x3bf04c72	0.0073333317
251	0xbb1d495e	-0.002400003
252	0xbb79ae03	-0.0038098104
253	0x3b53eff0	0.0032339059
254	0x3c0f8309	0.008759269
255	0x3bff2ead	0.0077875466

action_model._discrete_distribution.branches.0.bias f4 [3]
0	0x00000000	0.0
1	0x00000000	0.0
2	0x00000000	0.0

network_body._body_endoder.seq_layers.0.weight f4 [128, 1]
0	0xbf63dc1e	-0.8900775
1	0x3f52d087	0.8234944
2	0xbd9453c5	-0.0724254
3	0x3f8d6af9	1.104827
4	0xbf73c27d	-0.9521864
5	0x3fb9f7ea	1.4528782
6	0x3f33c690	0.7022486
7	0x3fafad8d	1.3724838
8	0x3f41d3a6	0.75713575
9	0xbf8a1ec0	-1.0790634
10	0xbf1f23d9	-0.62164074
11	0xbfba9f47	-1.4579858
12	0x3eda5df2	0.426498
13	0xbf80ec39	-1.007209
14	0x3eeb6444	0.45974934
15	0xbf9f3a8c	-1.2439742
16	0xbcdc667f	-0.026904343
17	0x3f6a0237	0.9140963
18	0xbe928055	-0.28613535
19	0x3f85f52f	1.0465449
20	0x3deb8194	0.114993244
21	0x3f4d46ca	0.8018614
22	0x3df15cac	0.11785254
23	0xbf0c9571	-0.5491553
24	0xbfcbc0a5	-1.5918165
25	0xbfbd5b19	-1.4793426
26	0x40081e73	2.1268585
27	0xbf36c87a	-0.7139965
28	0xbf0199f6	-0.5062555
29	0xbe442b50	-0.19157147
30	0x3e91b8e6	0.2846138
31	0xbfe59da4	-1.7938733
32	0x3c9be454	0.019029774
33	0xbf8270c9	-1.0190669
34	0x3ecd58b4	0.40106738
35	0xbe879910	-0.26483965
36	0xbf9d90aa	-1.2309773
37	0x3ef19c36	0.47189492
38	0xc012b7a7	-2.2924592
39	0xbf499f5e	-0.787588
40	0x3ec1f15a	0.3787945
41	0xbfdea88b	-1.7395185
42	0x3faafc3c	1.3358226
43	0xbef554fc	-0.479164
44	0x3f37d328	0.71806574
45	0x400878a8	2.1323643
46	0xbf1288dc	-0.5724008
47	0x3f903b70	1.1268139
48	0x3c5c60fa	0.013450855
49	0xbf4b78f4	-0.79481435
50	0xbf1ee006	-0.6206058
51	0x3f39204f	0.72314924
52	0xbf6a60c4	-0.915539
53	0xbeddca18	-0.43318248
54	0xbf9167b4	-1.1359773
55	0x3f7d2d03	0.9889681
56	0xbf0c8c29	-0.5490137
57	0x3f194d04	0.5988314
58	0xbf709fbb	-0.9399373
59	0x3f9f8171	1.2461377
60	0x3ce91091	0.028450282
61	0xbd43d4e9	-0.04781047
62	0xbe5cf1d7	-0.2157663
63	0x3f89a272	1.0752699
64	0x3f6826ee	0.906844
65	0xbe1927d5	-0.14956601
66	0xbea17f40	-0.31542397
67	0xbde2464e	-0.11048566
68	0x3e0e600c	0.13903826
69	0x3f895281	1.0728303
70	0xbf26b4ba	-0.65119517
71	0x3fc807a9	1.5627338
72	0xbf03ec03	-0.51532
73	0x3faef13d	1.366737
74	0xbe8fe4c0	-0.2810421
75	0xbfbe0c7e	-1.4847562
76	0x3ebafa77	0.36519215
77	0xbe9f8ec1	-0.311636
78	0x3d1f243a	0.038852908
79	0x3e063f46	0.13110074
80	0xbf8f0e08	-1.1176157
81	0x3f5f2441	0.87164694
82	0xbe41fa3a	-0.1894311
83	0x3dd36c7b	0.103234254
84	0x3ca04b50	0.019567162
85	0x3eaf4644	0.34233296
86	0x4041ad2c	3.0261946
87	0xbf4c135c	-0.7971704
88	0x3f2db6bf	0.67856973
89	0xbe40dfbe	-0.18835351
90	0xbfcf2108	-1.6181955
91	0x3fb6140d	1.4224869
92	0x3f49c07b	0.78809327
93	0xbd8e3699	-0.069440074
94	0xbf8aaa10	-1.0833149
95	0xbf17e77a	-0.5933758
96	0x3fb334e0	1.4000511
97	0x3d920cb2	0.07131328
98	0x3e491a5b	0.1963896
99	0x3e271e31	0.16320111
100	0x3f12e8eb	0.57386655
101	0x3f01d005	0.5070804
102	0xbdc6fb6a	-0.09715922
103	0x3fd1dbe2	1.6395228
104	0xbef2b422	-0.47403055
105	0xbf209a6b	-0.62735623
106	0x3ef8aa20	0.48567295
107	0x3fcffc4a	1.6248868
108	0x3f8c2584	1.0948949
109	0xbef56438	-0.47928023
110	0xbf722410	-0.94586277
111	0xbf87aa53	-1.0598854
112	0x3f1b779f	0.607294
113	0x3ef00c4e	0.46884388
114	0xbece77cd	-0.40325776
115	0xbf55e550	-0.8355303
116	0x3f90db9b	1.1317018
117	0xbf68668f	-0.9078149
118	0xbe88b845	-0.26703086
119	0x3dd301a4	0.10303047
120	0xbf85464f	-1.0412081
121	0xbd00efef	-0.03147882
122	0xbf22579f	-0.6341495
123	0xbe72a649	-0.23696245
124	0x3f15fdf8	0.5859065
125	0xbf4333e3	-0.7625105
126	0xbfbc40e6	-1.4707305
127	0xbf5fdcae	-0.87446105

network_body._body_endoder.seq_layers.0.bias f4 [128]
0	0x00000000	0.0
1	0x00000000	0.0
2	0x00000000	0.0
3	0x00000000	0.0
4	0x00000000	0.0
5	0x00000000	0.0
6	0x00000000	0.0
7	0x00000000	0.0
8	0x00000000	0.0
9	0x00000000	0.0
10	0x00000000	0.0
11	0x00000000	0.0
12	0x00000000	0.0
13	0x00000000	0.0
14	0x00000000	0.0
15	0x00000000	0.0
16	0x00000000	0.0
17	0x00000000	0.0
18	0x00000000	0.0
19	0x00000000	0.0
20	0x00000000	0.0
21	0x00000000	0.0
22	0x00000000	0.0
23	0x00000000	0.0
24	0x00000000	0.0
25	0x00000000	0.0
26	0x00000000	0.0
27	0x00000000	0.0
28	0x00000000	0.0
29	0x00000000	0.0
30	0x00000000	0.0
31	0x00000000	0.0
32	0x00000000	0.0
33	0x00000000	0.0
34	0x00000000	0.0
35	0x00000000	0.0
36	0x00000000	0.0
37	0x00000000	0.0
38	0x00000000	0.0
39	0x00000000	0.0
40	0x00000000	0.0
41	0x00000000	0.0
42	0x00000000	0.0
43	0x00000000	0.0
44	0x00000000	0.0
45	0x00000000	0.0
46	0x00000000	0.0
47	0x00000000	0.0
48	0x00000000	0.0
49	0x00000000	0.0
50	0x00000000	0.0
51	0x00000000	0.0
52	0x00000000	0.0
53	0x00000000	0.0
54	0x00000000	0.0
55	0x00000000	0.0
56	0x00000000	0.0
57	0x00000000	0.0
58	0x00000000	0.0
59	0x00000000	0.0
60	0x00000000	0.0
61	0x00000000	0.0
62	0x00000000	0.0
63	0x00000000	0.0
64	0x00000000	0.0
65	0x00000000	0.0
66	0x00000000	0.0
67	0x00000000	0.0
68	0x00000000	0.0
69	0x00000000	0.0
70	0x00000000	0.0
71	0x00000000	0.0
72	0x00000000	0.0
73	0x00000000	0.0
74	0x00000000	0.0
75	0x00000000	0.0
76	0x00000000	0.0
77	0x00000000	0.0
78	0x00000000	0.0
79	0x00000000	0.0
80	0x00000000	0.0
81	0x00000000	0.0
82	0x00000000	0.0
83	0x00000000	0.0
84	0x00000000	0.0
85	0x00000000	0.0
86	0x00000000	0.0
87	0x00000000	0.0
88	0x00000000	0.0
89	0x00000000	0.0
90	0x00000000	0.0
91	0x00000000	0.0
92	0x00000000	0.0
93	0x00000000	0.0
94	0x00000000	0.0
95	0x00000000	0.0
96	0x00000000	0.0
97	0x00000000	0.0
98	0x00000000	0.0
99	0x00000000	0.0
100	0x00000000	0.0
101	0x00000000	0.0
102	0x00000000	0.0
103	0x00000000	0.0
104	0x00000000	0.0
105	0x00000000	0.0
106	0x00000000	0.0
107	0x00000000	0.0
108	0x00000000	0.0
109	0x00000000	0.0
110	0x00000000	0.0
111	0x00000000	0.0
112	0x00000000	0.0
113	0x00000000	0.0
114	0x00000000	0.0
115	0x00000000	0.0
116	0x00000000	0.0
117	0x00000000	0.0
118	0x00000000	0.0
119	0x00000000	0.0
120	0x00000000	0.0
121	0x00000000	0.0
122	0x00000000	0.0
123	0x00000000	0.0
124	0x00000000	0.0
125	0x00000000	0.0
126	0x00000000	0.0
127	0x00000000	0.0

network_body._body_endoder.seq_layers.2.weight f4 [128, 128]
0	0xbdd463f0	-0.10370624
1	0x3d10d2af	0.035357174
2	0xbd0b6f00	-0.034041405
3	0x3d79aacd	0.060953904
4	0x3de42cb6	0.111413404
5	0x3d00613c	0.03134273
6	0x3c5288be	0.012849985
7	0x3cb65f4a	0.022262234
8	0xbdd68f9d	-0.10476611
9	0x3bfd98b9	0.007739153
10	0xbbba5828	-0.0056867786
11	0x3e60c78b	0.2195112
12	0x3db86e92	0.090054646
13	0x3c90455e	0.017611202
14	0x3dd551ce	0.10415994
15	0xbd95af97	-0.07308882
16	0x3bbb40b2	0.0057144994
17	0xbd363d3c	-0.04449199
18	0xbd9b8b8d	-0.075949766
19	0xbd3fff40	-0.046874285
20	0x3dd84e88	0.10561854
21	0x3dbd2c6b	0.09236988
22	0x3e152cc1	0.14567854
23	0xbe24c8bc	-0.16092199
24	0xbd5906f1	-0.052985135
25	0xbcd5b088	-0.026085153
26	0xbdad69d1	-0.084674485
27	0x3ca97ff2	0.020690892
28	0x3d430a2f	0.047617134
29	0xbcbf453b	-0.023348441
30	0x3ccc0e11	0.024909051
31	0x3dc80d4c	0.09768161
32	0xbcb658be	-0.022259112
33	0xbe100892	-0.1406577
34	0x3b0e6a92	0.0021731001
35	0x3d8a6e6b	0.06759342
36	0x3b0b628b	0.0021268453
37	0x3cce82f4	0.025208928
38	0xbde196b9	-0.11015076
39	0xbd5d3574	-0.054006055
40	0xbd4897fc	-0.04897307
41	0xbda835aa	-0.082133606
42	0x3d3ef1df	0.046617385
43	0x3bccac7d	0.006246148
44	0xbda2a9b2	-0.07942523
45	0xbe0c6a36	-0.13712391
46	0xbc621e12	-0.013801115
47	0x3de7188f	0.11283981
48	0xbe067569	-0.13130726
49	0xbe02337a	-0.12714949
50	0x3e04f33e	0.12983415
51	0xbd5e668c	-0.054297015
52	0xbb82f3e3	-0.0039963587
53	0xbb93a6fc	-0.00450599
54	0x3df69f28	0.120420754
55	0x3dd65648	0.104656756
56	0x3c49070b	0.012269746
57	0x3d4f369d	0.050589193
58	0x3db74a8a	0.08949764
59	0xbb3b88ea	-0.0028615543
60	0xbdac4424	-0.08411434
61	0xbcca08a8	-0.02466233
62	0x3daa7ce5	0.08324603
63	0x3e2a7858	0.1664747
64	0xbc9358a1	-0.017986597
65	0x3dd76d5d	0.10518906
66	0xbde050c1	-0.109529026
67	0x3d5fd04e	0.054642014
68	0x3bb2380e	0.005438811
69	0xbe3a2427	-0.18177854
70	0x3c6e6d1a	0.014552379
71	0xbe004e4d	-0.1252987
72	0xbe0ba1e5	-0.13635977
73	0xbd871fb6	-0.06597845
74	0x3d1dacb5	0.038494784
75	0xbd9c7e8a	-0.07641323
76	0xbe7466b2	-0.238673
77	0x3ca24aa1	0.019810976
78	0x3e00229b	0.12513201
79	0xbd0c0891	-0.034187857
80	0x3d3dfe4a	0.046385087
81	0x3d6c1fc7	0.057647493
82	0x3c7ed2d5	0.015553196
83	0x3d7ba355	0.061435062
84	0x3c46ec55	0.012141307
85	0x3d71610a	0.058930434
86	0x3d902ff6	0.07040398
87	0xbe834054	-0.25635016
88	0x3d67ffdf	0.056640502
89	0x3d848542	0.064707294
90	0xbdee7e3f	-0.11645173
91	0xbe128a53	-0.14310579
92	0x3dac566d	0.08414922
93	0xbdb805da	-0.08985491
94	0xbb868ac2	-0.0041058967
95	0xbe038da2	-0.12846997
96	0x3d4139dd	0.047174323
97	0x3cee160f	0.029063253
98	0xbd7443af	-0.05963486
99	0x3c432425	0.011910473
100	0x3e3320f4	0.1749304
101	0x3d5192ed	0.05116551
102	0x3c230e93	0.009952205
103	0xbaf9c73c	-0.0019056569
104	0x3dd3ac2f	0.10335576
105	0x3d43ceab	0.047804516
106	0xbd224397	-0.03961524
107	0xbd301095	-0.042984564
108	0x3d7ab348	0.061206132
109	0xbc96bfcd	-0.018402005
110	0xbde622d1	-0.112371095
111	0xbca6945e	-0.020334419
112	0x3cc1c2b2	0.023652408
113	0x3e031c7e	0.12803838
114	0xbddc6cfe	-0.10762976
115	0xbd86cce4	-0.065820485
116	0x3dc46572	0.09589662
117	0xbe330cd2	-0.1748536
118	0xbe19b8d8	-0.15011919
119	0xbd81cff7	-0.06338494
120	0x3d303f6b	0.04302923
121	0x3d1a95dd	0.037740577
122	0x3df818c0	0.12114096
123	0x3cf0db09	0.02940132
124	0xbca386fb	-0.019961825
125	0xbcb1c6c9	-0.021701233
126	0x3c6dac62	0.014506431
127	0x3d07afee	0.033126764
128	0x3da0eb01	0.078573234
129	0x3e54abbe	0.2076864
130	0x3da8bbdb	0.082389556
131	0x3d9de997	0.07710569
132	0xbda4ea23	-0.080524705
133	0x3d902305	0.070379294
134	0x3d9eabf5	0.07747642
135	0x3dce5b94	0.10076061
136	0xbdcfbd27	-0.101435
137	0x3c7a0b2c	0.015261453
138	0x3cb2c8fc	0.021824352
139	0x3c4f7f34	0.012664605
140	0x3c4f441f	0.012650519
141	0x3b1a8d46	0.002358274
142	0x3d897a9a	0.067128375
143	0xbcc56c61	-0.02409953
144	0xbc506376	-0.012719026
145	0xbcc754b0	-0.024332374
146	0xbde79b32	-0.11308898
147	0x3d7339f7	0.05938145
148	0x3c55f8b5	0.013059785
149	0x3da7bd0c	0.08190355
150	0x3cddc085	0.02706934
151	0xba68d11d	-0.0008881258
152	0x3d278646	0.040899538
153	0x3c588c3a	0.013217026
154	0xbe1c01a1	-0.15234996
155	0xbde16e40	-0.11007357
156	0xbe2f3190	-0.1710875
157	0x3ca18963	0.019718831
158	0xbddf1cfa	-0.10894199
159	0x3d41184e	0.04714232
160	0x3dcc3ded	0.09972749
161	0xbe86c41c	-0.26321495
162	0x3de82a9c	0.11336252
163	0x3e3e8393	0.18604879
164	0x3d75bdda	0.05999551
165	0xbd3c9a6a	-0.0460457
166	0xbe09762e	-0.13423988
167	0xbdce146b	-0.10062488
168	0x3dec087c	0.11525056
169	0x3d45bfdb	0.04827867
170	0x3dd087cd	0.10182152
171	0x3d9fbed4	0.078000695
172	0xbdb1dfbd	-0.08685253
173	0x3d2a1d96	0.04153212
174	0xbd692ae3	-0.056925666
175	0x3da68653	0.08131089
176	0x3b9a9f1f	0.0047186757
177	0xbdcf4f31	-0.101225264
178	0xbe047eac	-0.12938946
179	0x3d3e4103	0.04644872
180	0x3dc32bbc	0.09529826
181	0x3d372af9	0.044718716
182	0xbea647e5	-0.32476726
183	0x3d1190e7	0.03553858
184	0x3a64285d	0.00087035244
185	0xbdae34d2	-0.085061684
186	0x3dad8449	0.08472497
187	0xbdac1335	-0.08402101
188	0x3d80b68c	0.06284818
189	0x3d679a32	0.056543536
190	0x3c715325	0.014729296
191	0x3d36b231	0.04460353
192	0xbdd3d61a	-0.10343571
193	0x3dd0013f	0.10156488
194	0x3bb6bc38	0.0055766366
195	0xbdad2418	-0.0845415
196	0x3d9a463a	0.07532926
197	0xbdcc0f6d	-0.0996388
198	0xbd2c04fb	-0.041996937
199	0x3d5699e9	0.052392874
200	0x3e354402	0.17701724
201	0x3d49d103	0.049271595
202	0x3d808cb3	0.06276836
203	0xbbdde44c	-0.0067716
204	0xbda6ec66	-0.08150558
205	0x3d997bbe	0.07494305
206	0xbe3aaa75	-0.18229087
207	0xbda75015	-0.08169571
208	0xbdba301e	-0.09091209
209	0x3da855f1	0.08219517
210	0xbd5c0f9f	-0.053725835
211	0x3d8e5655	0.0695006
212	0xbc1476d8	-0.009061538
213	0xbd4046b7	-0.04694244
214	0xbe536731	-0.20644833
215	0xbc961e75	-0.01832507
216	0x3d516bae	0.051128082
217	0xbb54d4ae	-0.00324754
218	0xbd0d50dc	-0.03450094
219	0xbda13b22	-0.07872607
220	0x3c14e6ef	0.009088262
221	0x3d9f8347	0.07788711
222	0x3de624e9	0.11237509
223	0xbd74314b	-0.059617322
224	0xbca2fd10	-0.01989606
225	0xbd644556	-0.055730186
226	0x3e1734df	0.14766262
227	0x3c5f658c	0.0136350505
228	0x3e10a883	0.14126782
229	0x3dee5b7a	0.116385415
230	0xbe147347	-0.144971
231	0xbe6e1da9	-0.23253502
232	0x3cba5afc	0.022748463
233	0xbc5e3c71	-0.013564215
234	0x3e34bfb9	0.17651261
235	0x3e0db73f	0.13839434
236	0xbd45cc13	-0.048290323
237	0xbc8c565b	-0.017131021
238	0xbd3cfc65	-0.04613914
239	0xbe51fdbe	-0.20506951
240	0xbdac500d	-0.08413706
241	0xbc96fa0d	-0.01842978
242	0xbdf44dc0	-0.11928892
243	0xbd38acb5	-0.04508658
244	0xbc5c26cc	-0.013436984
245	0x3d531afd	0.05153941
246	0x3d34f416	0.04417809
247	0xbc45e699	-0.012078905
248	0x3dd80a2a	0.10548814
249	0xbdce9abe	-0.100881085
250	0xbd555e93	-0.052092146
251	0xbd348c32	-0.044079013
252	0x3d732874	0.05936475
253	0xbcd3421b	-0.025788357
254	0x3de5058e	0.111827
255	0x3d895e50	0.06707442

network_body._body_endoder.seq_layers.2.bias f4 [128]
0	0x00000000	0.0
1	0x00000000	0.0
2	0x00000000	0.0
3	0x00000000	0.0
4	0x00000000	0.0
5	0x00000000	0.0
6	0x00000000	0.0
7	0x00000000	0.0
8	0x00000000	0.0
9	0x00000000	0.0
10	0x00000000	0.0
11	0x00000000	0.0
12	0x00000000	0.0
13	0x00000000	0.0
14	0x00000000	0.0
15	0x00000000	0.0
16	0x00000000	0.0
17	0x00000000	0.0
18	0x00000000	0.0
19	0x00000000	0.0
20	0x00000000	0.0
21	0x00000000	0.0
22	0x00000000	0.0
23	0x00000000	0.0
24	0x00000000	0.0
25	0x00000000	0.0
26	0x00000000	0.0
27	0x00000000	0.0
28	0x00000000	0.0
29	0x00000000	0.0
30	0x00000000	0.0
31	0x00000000	0.0
32	0x00000000	0.0
33	0x00000000	0.0
34	0x00000000	0.0
35	0x00000000	0.0
36	0x00000000	0.0
37	0x00000000	0.0
38	0x00000000	0.0
39	0x00000000	0.0
40	0x00000000	0.0
41	0x00000000	0.0
42	0x00000000	0.0
43	0x00000000	0.0
44	0x00000000	0.0
45	0x00000000	0.0
46	0x00000000	0.0
47	0x00000000	0.0
48	0x00000000	0.0
49	0x00000000	0.0
50	0x00000000	0.0
51	0x00000000	0.0
52	0x00000000	0.0
53	0x00000000	0.0
54	0x00000000	0.0
55	0x00000000	0.0
56	0x00000000	0.0
57	0x00000000	0.0
58	0x00000000	0.0
59	0x00000000	0.0
60	0x00000000	0.0
61	0x00000000	0.0
62	0x00000000	0.0
63	0x00000000	0.0
64	0x00000000	0.0
65	0x00000000	0.0
66	0x00000000	0.0
67	0x00000000	0.0
68	0x00000000	0.0
69	0x00000000	0.0
70	0x00000000	0.0
71	0x00000000	0.0
72	0x00000000	0.0
73	0x00000000	0.0
74	0x00000000	0.0
75	0x00000000	0.0
76	0x00000000	0.0
77	0x00000000	0.0
78	0x00000000	0.0
79	0x00000000	0.0
80	0x00000000	0.0
81	0x00000000	0.0
82	0x00000000	0.0
83	0x00000000	0.0
84	0x00000000	0.0
85	0x00000000	0.0
86	0x00000000	0.0
87	0x00000000	0.0
88	0x00000000	0.0
89	0x00000000	0.0
90	0x00000000	0.0
91	0x00000000	0.0
92	0x00000000	0.0
93	0x00000000	0.0
94	0x00000000	0.0
95	0x00000000	0.0
96	0x00000000	0.0
97	0x00000000	0.0
98	0x00000000	0.0
99	0x00000000	0.0
100	0x00000000	0.0
101	0x00000000	0.0
102	0x00000000	0.0
103	0x00000000	0.0
104	0x00000000	0.0
105	0x00000000	0.0
106	0x00000000	0.0
107	0x00000000	0.0
108	0x00000000	0.0
109	0x00000000	0.0
110	0x00000000	0.0
111	0x00000000	0.0
112	0x00000000	0.0
113	0x00000000	0.0
114	0x00000000	0.0
115	0x00000000	0.0
116	0x00000000	0.0
117	0x00000000	0.0
118	0x00000000	0.0
119	0x00000000	0.0
120	0x00000000	0.0
121	0x00000000	0.0
122	0x00000000	0.0
123	0x00000000	0.0
124	0x00000000	0.0
125	0x00000000	0.0
126	0x00000000	0.0
127	0x00000000	0.0

value_heads.value_heads.extrinsic.weight f4 [1, 128]
0	0xbdffad18	-0.12484187
1	0xbe11a204	-0.1422196
2	0xbe46e6f6	-0.19424042
3	0x3d8754c8	0.066079676
4	0x3cc17f28	0.023620203
5	0x3db6183c	0.08891341
6	0x3dc69ddc	0.09698078
7	0x3cc57718	0.02410464
8	0x3c1b76a0	0.009488732
9	0x3dea36a0	0.114362
10	0xbdd3bd80	-0.10338879
11	0x3e3a7ab8	0.18210876
12	0xbd489c24	-0.048977032
13	0x3c6d2d00	0.014476061
14	0x3dfc2820	0.12312341
15	0x3e14b488	0.14521992
16	0x3d83f284	0.064427406
17	0x3d52f9b0	0.05150765
18	0x3e0575c0	0.130332
19	0x3d8d4340	0.068975925
20	0x3d900474	0.07032099
21	0x3d8d0454	0.06885591
22	0x3dc4246c	0.095772594
23	0x3e357950	0.17722058
24	0xbdf633e5	-0.12021617
25	0xbe5533e7	-0.2082058
26	0x3dc956f4	0.09831038
27	0xbe0baa5b	-0.13639204
28	0xbe484bc0	-0.19560146
29	0x3d0e1fe0	0.034698367
30	0xbe37b4b4	-0.17940027
31	0xbd9771ca	-0.073947504
32	0xbc056a70	-0.008143052
33	0xbd96c944	-0.07362607
34	0xbe463e46	-0.19359693
35	0x3dd56024	0.10418728
36	0xbdf598ae	-0.11992012
37	0x3dc99630	0.09843099
38	0x3e1697b2	0.14706305
39	0x3da05710	0.07829106
40	0x3e31755e	0.17329928
41	0xbd9e3dc2	-0.07726623
42	0xbd91175a	-0.07084532
43	0x3d59f238	0.053209513
44	0xbe19b446	-0.15010175
45	0x3d279588	0.04091409
46	0x3e401ca4	0.18760926
47	0x3d92d9d4	0.07170454
48	0xbe1e10bf	-0.15436076
49	0x3d7a05a8	0.06104055
50	0x3e20d074	0.15704519
51	0x3d11b528	0.035573155
52	0xbe1e5200	-0.15460968
53	0xbd309350	-0.04310924
54	0xbe2c1ab1	-0.16807057
55	0x3bce07a0	0.00628753
56	0xbe2af834	-0.16696244
57	0x3d527090	0.05137688
58	0x3e283772	0.164274
59	0xbdda5d52	-0.10662331
60	0xbe11ed16	-0.14250597
61	0xbe2153be	-0.15754601
62	0xbac3bc80	-0.0014933497
63	0xbe1cb8d8	-0.15304887
64	0x3e49c53e	0.19704148
65	0x3df31d50	0.11870825
66	0xbda0a654	-0.078442246
67	0x3e56a6e8	0.20962107
68	0x3db4b17c	0.08822915
69	0xbdb3a478	-0.08771604
70	0x3d5a8568	0.053349882
71	0x3daa72c0	0.08322668
72	0xbe352352	-0.17689255
73	0xbe2f87f4	-0.17141706
74	0x3e1b6582	0.15175441
75	0xbe583264	-0.21112972
76	0x3ba86fc0	0.0051402748
77	0xbe052bf4	-0.13005048
78	0xbd525bd4	-0.051357105
79	0x3e46787c	0.19381899
80	0x3e0108cc	0.12601012
81	0x3e4e9746	0.20174894
82	0x3dcda240	0.10040712
83	0x3e2c9050	0.16851926
84	0xbd659ef0	-0.056059778
85	0x3dfb2280	0.1226244
86	0xbe55392b	-0.20822589
87	0xbb6f0940	-0.003647402
88	0xbe28ed70	-0.16496825
89	0x3d8665ac	0.06562361
90	0xbe1001de	-0.14063212
91	0x3b80cca0	0.003930643
92	0x3df6ed84	0.12057021
93	0xbdf39d2e	-0.11895214
94	0x3b52fd80	0.0032194555
95	0xbca079b0	-0.019589275
96	0x3d2a49b8	0.04157421
97	0x3e16d418	0.14729345
98	0xbe44430b	-0.191662
99	0x3da79238	0.08182186
100	0xbe03f3fe	-0.12886044
101	0xbd193b38	-0.03740999
102	0xbdac5790	-0.08415139
103	0x3e2c60f6	0.16833863
104	0xbdc05e15	-0.09392945
105	0x3e109fd6	0.14123473
106	0xbe1335c8	-0.14375985
107	0x3e4cf818	0.20016515
108	0xbe3251bd	-0.17413993
109	0x3c0ed360	0.008717388
110	0x3e11fc4a	0.14256397
111	0x3c316d00	0.01082921
112	0xbdb2e0e2	-0.08734299
113	0x3e51b40e	0.20478842
114	0x3e0388f0	0.12845206
115	0x3bc71bc0	0.006076306
116	0x3d96b67c	0.07359025
117	0x3e2a8912	0.1665385
118	0x3cf1a020	0.029495299
119	0xbd2984a0	-0.041386247
120	0x3ac55080	0.0015053898
121	0xbe06609a	-0.13122788
122	0xbddc4d41	-0.107569225
123	0xbd95aee4	-0.07308748
124	0xbe5ad959	-0.21371974
125	0xbdad4660	-0.084606886
126	0x3c7ba560	0.015359253
127	0x3d085edc	0.03329359
