results/ppo/BalanceBall1/BalanceBall1-1280.pt (torch, 147843 bytes, 11 tensors)

network_body._body_endoder.seq_layers.0.weight f4 [128, 4]
00000000: f0fe adbf f967 ac3e 0dce 82be 1883 8e3e
00000010: 0400 c63e 35a1 ce3d ef00 fe3d ca01 bdbe
00000020: 86ee 963f ae04 173f fe92 173f 4acb 8d3f
00000030: 7582 4ebf 3830 c4be 0627 0abf 9234 0b3f
00000040: 6aa7 403e e4ec 0ebf efef ac3e 3b46 753e
00000050: 8291 eabe aeb9 be3e b2c3 453f 689b 4cbf
00000060: f1fd aa3d 6de9 59bf 5d68 82bf 3a75 6ebe
00000070: fe3c 3e3e 3235 55be d159 043e 8992 88bf
00000080: 921a 0f3f c9d9 373f f171 68bf 1f39 01bf
00000090: 8a31 a03d 06e2 513e c946 5d3e d4a6 f93c
000000a0: d46d 813e 8e3c 8c3f 5d91 40be fda5 ed3e
000000b0: de97 bc3e 4de8 93bd ac64 97be 0036 c4be
000000c0: 08de bd3e 4de7 893e 7633 973f 5d01 31bf
000000d0: 3dda eb3e 266f 6e3f 8d22 f83c c1e5 d83d
000000e0: 9231 46bd c927 a0bd d6e6 0cbf ce5d 423f
000000f0: ad9f 0a3e 768e c73e 0897 98be 12a2 663f
00000100: 4bc2 523e aec1 25bf 0ccd a23e 3dbe 133f
00000110: 248c 9bbe 0bb2 1c3f 3a33 0f3f cffd 29be
00000120: 2580 16be bcb3 3dbf ac8c aabe 4344 e3be
00000130: d36a f83e 9301 5d3f 5027 93be 548e 8ebf
00000140: 9049 62be b2bb a13e 9737 233f 8010 203f
00000150: 6623 9cbe ce1c e7be df8b 20bf e232 3e3f
00000160: 4b04 0fbf f08a cfbe a41c 19bf 26b8 39bf
00000170: a039 833d 66ee 483f ac94 f8be eaa9 583e
00000180: 09bb 6abe 211f 43be bf22 0cbf 63e6 d9be
00000190: fb22 a43e 44d6 94be 6916 523f 6f2e b33d
000001a0: e41c 493f 384e 95bc 2bfa 313e 5597 643f
000001b0: f121 e03e 858d 7a3f 968f 1ebe 9b8e 51bf
000001c0: df60 583f b33f ff3e 1ca7 9abf 437e 8a3e
000001d0: d42c 73be f45f cebe eeb9 963e 7248 03bf
000001e0: 0044 903e e368 7fbf 609d 043b 1ec5 03be
000001f0: 28b2 9fbe b88a c13e ddbf 55bf ab6c 7b3d
00000200: e851 46bc 9235 2ebe 1861 383f cd1e 723e
00000210: ec74 fabe 29f8 e2be 5461 cf3e 46f1 6ebc
00000220: e91b bfbe 0861 e13e 9ec9 823f 1dfc 72be
00000230: 66a6 9dbe 3e06 ac3e b749 153d d1ed 6a3e
00000240: 4331 21bd d8a6 88be fe7f 45be e1e0 03bd
00000250: b2b4 49bf b17c 1a3f 1e6c c83d a4a2 703e
00000260: 38fd d93e e650 c83e 2c49 75bd 1f6d 363f
00000270: a51c 9a3e f73d 65be c9b1 8b3f 6223 3fbe
00000280: b353 48ba 4a57 ddbe e389 893e d903 09be
00000290: 79e6 133e 2c10 583f 9239 233f b382 3f3e
000002a0: 1f49 4e3f f882 68bf 4bc2 fe3e d131 b53d
000002b0: da35 1dbf 1e12 01bf 0a07 d13e 5544 b43e
000002c0: ea4e 8a3f c3a1 26bf a8fe 16bf a811 283f
000002d0: 248e 34bf be14 3abf cc94 27be 1c74 ad3e
000002e0: 3787 053f 26da febe de1a f9bd 1ad4 efbe
000002f0: af9f aebe ef0d 433f 5807 17be 2889 e1be
00000300: 807e 0b3f a0a8 ac3d 86f9 8abf 465e c83e
00000310: 3675 f53e 8681 8d3e 15db 633d dd9a 35bd
00000320: 878f 20be 590f 9b3d 24a9 60bf a603 aa3b
00000330: 3882 483e 3340 dc3e 24f3 b93c 16a3 a8bf
00000340: e60d b4be ac6a 803f 98f7 cbbd 8a91 943d
00000350: 6fd6 613f cb6e 14bf 9288 34bf 6e56 67be
00000360: a16d 29bf bcb2 8fbc a804 f9be 32dd b2be
00000370: 6ba1 c83e 923e 4d3f 0918 ecbe 1403 3abd
00000380: d57c 103f a110 1bbf 6956 933e ac3c 403f
00000390: 2c68 0b3f 38ee f73c 92a7 a5be 9aa4 033e
000003a0: ec7c 98be 8d99 673e 944e 9ebe ee18 8a3e
000003b0: 8759 0dbe e088 d9bd 5463 ee3e ee1d 9e3f
000003c0: 7e9b ecbe a68e 84be 8ec9 b53e deff 57be
000003d0: 5589 8bbe 1b94 dbbd 64f2 ab3e 8052 35bf
000003e0: 3219 363e 4f71 3e3f f208 2a3f 492e 9f3c
000003f0: ceec c4be 62ec 463e 0365 1bbe e1ea 04be
-1.3593426 0.33673075 -0.2554783 0.27834392 0.38671887 0.100893416 0.12402522 -0.36915427
1.1791542 0.58991516 0.5920867 1.1077664 -0.8066781 -0.38318038 -0.53965795 0.5437709
0.18813863 -0.55830216 0.33776805 0.23952572 -0.4581414 0.37251037 0.7725173 -0.7992463
0.08349217 -0.85121804 -1.0188099 -0.23286906 0.18577954 -0.20821074 0.12924887 -1.0669719
0.5589992 0.7181669 -0.9079886 -0.50477785 0.07821949 0.20496377 0.21609034 0.030475058
0.25279105 1.095598 -0.18805452 0.46415702 0.36834615 -0.07222042 -0.29568994 -0.3832245
0.3708346 0.2693428 1.181258 -0.69142705 0.4606494 0.9313835 0.030289913 0.10590697
-0.048387118 -0.078200884 -0.5503973 0.75924385 0.13537474 0.38975877 -0.29802728 0.9009105
0.2058193 -0.64748657 0.31797063 0.57712156 -0.30380356 0.6120917 0.5593754 -0.16600727
-0.14697321 -0.7410238 -0.3331045 -0.44388017 0.48519 0.8633053 -0.2874093 -1.1137185
-0.22098374 0.31588513 0.637567 0.62525177 -0.30495757 -0.45139164 -0.62713426 0.7429639
-0.55865926 -0.40535688 -0.5980933 -0.72546613 0.064074755 0.7848877 -0.48550928 0.21158567
-0.22922911 -0.19054843 -0.5474052 -0.42558584 0.32057938 -0.29069722 0.82065445 0.08749091
0.7855971 -0.018225774 0.17380588 0.89293414 0.43775895 0.9787219 -0.15484461 -0.81858224
0.84522814 0.49853286 -1.2082248 0.27049455 -0.2374757 -0.4030758 0.29438728 -0.5128242
0.2817688 -0.9976942 0.0020235404 -0.12868163 -0.3119061 0.37801147 -0.83495885 0.06138293
-0.012104489 -0.17012623 0.72023153 0.23644562 -0.4891733 -0.44329956 0.40503943 -0.014583891
-0.3732598 0.4401934 1.0217779 -0.23728986 -0.30791014 0.33598512 0.036447253 0.22942282
-0.03935362 -0.26689792 -0.19287106 -0.032196883 -0.78791344 0.60346514 0.09786247 0.23499542
0.42576003 0.3912422 -0.059884235 0.71260256 0.3009998 -0.22386919 1.0913631 -0.18665841
-0.00076418667 -0.4323066 0.26863012 -0.13380374 0.14443387 0.84399676 0.6375972 0.18702202
0.80580324 -0.9082484 0.4975761 0.08847392 -0.61410296 -0.5041827 0.40825683 0.35208383
1.0805333 -0.6509058 -0.58982325 0.6565194 -0.7052939 -0.726879 -0.16365355 0.33877647
0.52159446 -0.4977581 -0.12163328 -0.46841508 -0.34106204 0.76193136 -0.14748895 -0.44049954
0.544899 0.084306 -1.0857399 0.39134425 0.47940987 0.2763788 0.055628855 -0.044337142
-0.15679751 0.07571287 -0.8775809 0.005188423 0.19580925 0.4301773 0.022698946 -1.317477
-0.35166854 1.0032554 -0.09959334 0.07254322 0.88217825 -0.57981557 -0.7052089 -0.22591564
-0.66182905 -0.017541282 -0.48636365 -0.34934384 0.39185652 0.801736 -0.46112087 -0.04541309
0.5644048 -0.6057225 0.28776863 0.7509258 0.5445583 0.030264959 -0.32354409 0.1285576
-0.29782808 0.22617169 -0.30919325 0.26972145 -0.13803683 -0.1062181 0.46560156 1.2352884
-0.4621238 -0.25890082 0.35505337 -0.210937 -0.27253214 -0.10721608 0.33583367 -0.7082901
0.17783049 0.74391645 0.664199 0.01943125 -0.38461918 0.1942611 -0.15175252 -0.12980224

network_body._body_endoder.seq_layers.0.bias f4 [128]
00000000: 0000 0000 0000 0000 0000 0000 0000 0000
00000010: 0000 0000 0000 0000 0000 0000 0000 0000
00000020: 0000 0000 0000 0000 0000 0000 0000 0000
00000030: 0000 0000 0000 0000 0000 0000 0000 0000
00000040: 0000 0000 0000 0000 0000 0000 0000 0000
00000050: 0000 0000 0000 0000 0000 0000 0000 0000
00000060: 0000 0000 0000 0000 0000 0000 0000 0000
00000070: 0000 0000 0000 0000 0000 0000 0000 0000
00000080: 0000 0000 0000 0000 0000 0000 0000 0000
00000090: 0000 0000 0000 0000 0000 0000 0000 0000
000000a0: 0000 0000 0000 0000 0000 0000 0000 0000
000000b0: 0000 0000 0000 0000 0000 0000 0000 0000
000000c0: 0000 0000 0000 0000 0000 0000 0000 0000
000000d0: 0000 0000 0000 0000 0000 0000 0000 0000
000000e0: 0000 0000 0000 0000 0000 0000 0000 0000
000000f0: 0000 0000 0000 0000 0000 0000 0000 0000
00000100: 0000 0000 0000 0000 0000 0000 0000 0000
00000110: 0000 0000 0000 0000 0000 0000 0000 0000
00000120: 0000 0000 0000 0000 0000 0000 0000 0000
00000130: 0000 0000 0000 0000 0000 0000 0000 0000
00000140: 0000 0000 0000 0000 0000 0000 0000 0000
00000150: 0000 0000 0000 0000 0000 0000 0000 0000
00000160: 0000 0000 0000 0000 0000 0000 0000 0000
00000170: 0000 0000 0000 0000 0000 0000 0000 0000
00000180: 0000 0000 0000 0000 0000 0000 0000 0000
00000190: 0000 0000 0000 0000 0000 0000 0000 0000
000001a0: 0000 0000 0000 0000 0000 0000 0000 0000
000001b0: 0000 0000 0000 0000 0000 0000 0000 0000
000001c0: 0000 0000 0000 0000 0000 0000 0000 0000
000001d0: 0000 0000 0000 0000 0000 0000 0000 0000
000001e0: 0000 0000 0000 0000 0000 0000 0000 0000
000001f0: 0000 0000 0000 0000 0000 0000 0000 0000
0.0 0.0 0.0 0.0 0.0 0.0 0.0 0.0
0.0 0.0 0.0 0.0 0.0 0.0 0.0 0.0
0.0 0.0 0.0 0.0 0.0 0.0 0.0 0.0
0.0 0.0 0.0 0.0 0.0 0.0 0.0 0.0
0.0 0.0 0.0 0.0 0.0 0.0 0.0 0.0
0.0 0.0 0.0 0.0 0.0 0.0 0.0 0.0
0.0 0.0 0.0 0.0 0.0 0.0 0.0 0.0
0.0 0.0 0.0 0.0 0.0 0.0 0.0 0.0
0.0 0.0 0.0 0.0 0.0 0.0 0.0 0.0
0.0 0.0 0.0 0.0 0.0 0.0 0.0 0.0
0.0 0.0 0.0 0.0 0.0 0.0 0.0 0.0
0.0 0.0 0.0 0.0 0.0 0.0 0.0 0.0
0.0 0.0 0.0 0.0 0.0 0.0 0.0 0.0
0.0 0.0 0.0 0.0 0.0 0.0 0.0 0.0
0.0 0.0 0.0 0.0 0.0 0.0 0.0 0.0
0.0 0.0 0.0 0.0 0.0 0.0 0.0 0.0

network_body._body_endoder.seq_layers.2.weight f4 [128, 128]
00000000: 3504 923d 2b6e 503d 65a8 733d 6e26 1abd
00000010: d1af ac3d a9c6 903d 72ed a1bd 3664 843b
00000020: 3a26 413c 4cda aebd b54a ce3d a557 533d
00000030: 1b6e 913d 147a 7ebd ee25 a13d 4279 29be
00000040: f87d e0bd f032 2c3d f0bd a6bd 6a51 80bd
00000050: 3d4c 0ebd 6532 6cbe f385 0bbd 95a0 9d3d
00000060: c820 4e3c ca32 a53d bf17 6d3b be2e 4c3d
00000070: 36d6 b1bd da85 233d fa2b ffbd 0c3f 033e
00000080: 15fd 9fbd 232b 93bd 5892 51ba 3173 aabd
00000090: 9ec3 d83d 7b84 28bd 95b5 b0bd 440a 403d
000000a0: 8f92 783c 6f0d 84bd e433 533d f9e9 f9bb
000000b0: b6b9 afbc cdc3 61bd 2de8 9abd 326d e43d
000000c0: fb26 e5bd 4277 93bd dcba 36be 3c3e 903d
000000d0: 0f4b e3bc c975 88bd bebc 943c a40b e53d
000000e0: fd18 15bd 726a 003e 82e0 6a3d eaba e4bc
000000f0: a907 35bc c432 bebd b507 9d3d bc74 30bd
00000100: e4dc 5bbd 32c0 2c3e 9562 ca3d e96b a43d
00000110: 27d0 483d 5c93 b93d 562b 93be 2c37 6a3d
00000120: 254f c23a 3c7b e1bc df9e dfbd a9e7 b93c
00000130: 526c 813b 4116 3cbd 5329 13bc ae59 15be
00000140: 32ae 24bd f699 af3d bebb 9ebd cd93 47bd
00000150: fbc1 393c 47d3 0f3e 9cb1 023e 9279 153e
00000160: 1cdd 5a3d 3d3e 58bd adc1 b23c 969a 5ebc
00000170: 202a 113e ca2b 003e 8be5 233e 41c4 b43d
00000180: bd46 793d feec 8bbb 681f 043d eede c03c
00000190: bef6 e4bd 7b46 293e 8c34 edbd b35f 9c3b
000001a0: a2a2 023e 664f 973d 09f3 863e 932e 19be
000001b0: 8b45 69bd 5dbc 783d 77f5 6bbe 2588 393e
000001c0: 3995 083e fc64 73be a5b6 813d 0677 4839
000001d0: c3b2 fcbd c140 5b3d 9a90 dfbd 3ec0 69be
000001e0: c6b6 e6bd 7c8c 0cbd 438a f4bc ad0f 83bd
000001f0: fc34 08be 004c 9fbd 3ad1 9c3d ddf2 63bd
00000200: b90c b73a 49b7 c83d a36e 38bd 2c0d a73d
00000210: 5700 9e3c 0a35 b9bc a851 6c3d 35d6 8cbd
00000220: c435 0c3d 07f2 b1bb eab1 1dbd 88fe 2a3e
00000230: 8214 69bc fabe 523e b8b3 57be fc1c 3f3c
00000240: 04b8 21be 704d 23bc a426 18be 2a86 fa3b
00000250: 312a e73c 81f6 643d bc94 c83c d026 a2bd
00000260: a76e 343d b3b3 c6bd 1cdf 8b3b 55a8 613c
00000270: 8882 803d 0c32 e93d 3d21 363e 973d 143e
00000280: e8f5 08be 3d22 6c3d 6f6d 26bc b21a 983a
00000290: f139 413c 1301 c1bb 3941 2b3e dea0 193c
000002a0: 7a20 a7bd 5926 a2bd 0eb2 e93c 463b 2ebe
000002b0: a433 c43d 4fee c4bc 5394 28be 3d85 823d
000002c0: fc9f 613e 1c09 12be 7473 08be 7c6b 8d3c
000002d0: b4d3 d8bd 2c6f 763e b68c aabd ae71 e3bd
000002e0: 0092 0fbe 08f2 69bc 3fd7 04be ed5a 9abd
000002f0: dfc8 1c3d 96b9 c13d b807 d1bd ce96 2fbe
00000300: 74e9 66bd eb98 8e3d d5f1 8d3d 8fce 9ebb
00000310: 8988 7cbd 4a74 2cbe 4769 7a3c f8b8 c83d
00000320: 2174 093e f1dd 24bd 5498 01bd a2b7 9bbd
00000330: 70ee 733d a021 c6bd 0291 67bd 8f6a 97bc
00000340: a5d6 813d 32a0 6d3d 14b6 a4bd f682 42bd
00000350: 8b62 5d3c 5960 75be 5a8d c1bc 9b17 d23c
00000360: ea62 a63d ef2e b9bd b7b3 a53d f193 973c
00000370: e664 253e 632f 43bd d002 87bd 6698 033d
00000380: 927a 1e3e 1516 d73d 29db c2bd 77df 13bc
00000390: 61fd 013c aee7 41bd cae6 3abe cc7b 82bd
000003a0: 867b 823d 6a49 7ebd 56f6 ac3d 06be c73c
000003b0: 6123 f63b 6d17 8c3d 8206 a03d cdf1 333d
000003c0: 4992 6f3d 47b0 59bc a209 b63d 9ee4 e3bc
000003d0: c55e 653d 6de7 3bbc eae1 1abd 350d 05be
000003e0: 52a1 b0bc 1173 b83d 0dda bc3c a483 c0bc
000003f0: 577a 633d 17c9 bf3c 80f4 0dbe d60c 703d
0.07129709 0.050886314 0.059486765 -0.037634306 0.08431972 0.070691414 -0.07906617 0.0040402664
0.011788899 -0.085377306 0.10072843 0.051597256 0.07101079 -0.06212814 0.07868563 -0.16550162
-0.10961527 0.042040765 -0.081416965 -0.062655285 -0.034740675 -0.23066099 -0.03406329 0.07696644
0.012581058 0.08066328 0.0036177484 0.049849264 -0.086834356 0.039922573 -0.1245956 0.12817019
-0.078119434 -0.07185962 -0.0007994524 -0.08322752 0.10584186 -0.04114197 -0.08628384 0.04688479
0.015171661 -0.06447875 0.05156316 -0.0076267687 -0.021450859 -0.05511837 -0.07563815 0.1115364
-0.111890756 -0.07200481 -0.17844719 0.0704312 -0.027745752 -0.06663091 0.018156406 0.11183861
-0.036400784 0.12540606 0.057343014 -0.027921159 -0.01104919 -0.092870265 0.076674856 -0.043080077
-0.053677455 0.16870192 0.09882084 0.08028395 0.049026635 0.0906131 -0.28744 0.057181522
0.0014824612 -0.027524583 -0.10918974 0.022693472 0.0039496804 -0.04591966 -0.00898202 -0.14584991
-0.040205188 0.085742876 -0.07750653 -0.04872494 0.011337752 0.1404544 0.12763065 0.14597157
0.053433523 -0.05279373 0.021820867 -0.013586661 0.14176226 0.12516704 0.16005532 0.08826495
0.060858477 -0.004270195 0.032256514 0.023543801 -0.11179875 0.16530792 -0.11582288 0.0047721504
0.12757352 0.07388191 0.26357296 -0.14959173 -0.056951087 0.060726512 -0.23042856 0.18118341
0.13338174 -0.23768991 0.06333665 0.00019117826 -0.123387836 0.05352855 -0.109162524 -0.22827241
-0.1126533 -0.034313664 -0.029851085 -0.06399474 -0.13301462 -0.07778168 0.07657094 -0.055651534
0.0013965584 0.09800584 -0.045027386 0.08156809 0.019287271 -0.022608299 0.05769506 -0.06876794
0.034230962 -0.0054304632 -0.03849975 0.16698658 -0.014226081 0.20580664 -0.21064651 0.011664625
-0.15792853 -0.009967193 -0.1485849 0.007645388 0.02821836 0.055899147 0.024484985 -0.07917559
0.04405084 -0.09702244 0.00426854 0.013773044 0.06274897 0.11386499 0.17786117 0.1447662
-0.13375056 0.05764984 -0.010157927 0.0011604636 0.011793599 -0.0058900206 0.16724099 0.009376733
-0.08160491 -0.079174705 0.028527286 -0.17014799 0.09580162 -0.024039416 -0.16462831 0.063730694
0.22033685 -0.14261287 -0.13325292 0.017263167 -0.10587254 0.24065846 -0.0832762 -0.11105667
-0.14020538 -0.014278896 -0.12972735 -0.07536874 0.038277503 0.09459226 -0.1020655 -0.17147371
-0.056374982 0.069627605 0.069308914 -0.004846401 -0.061653648 -0.16841236 0.015283889 0.09800905
0.13423206 -0.040250722 -0.031639412 -0.076033846 0.059553564 -0.09674382 -0.056534775 -0.018483428
0.06339768 0.058014102 -0.08042541 -0.047488175 0.013512264 -0.23962535 -0.023626972 0.025646022
0.08124335 -0.09042155 0.080909185 0.018503161 0.16151771 -0.047652613 -0.06592333 0.03212776
0.15476444 0.10502259 -0.09514458 -0.009025446 0.007933945 -0.047340088 -0.18252102 -0.06371269
0.063712165 -0.06208173 0.08445422 0.024382602 0.0075115417 0.068404056 0.07813741 0.04393177
0.058489118 -0.013286657 0.08888556 -0.027818974 0.055998582 -0.01146875 -0.037813105 -0.1299332
-0.021561299 0.09006322 0.023053193 -0.023500271 0.055536594 0.023411317 -0.138628 0.05860599

network_body._body_endoder.seq_layers.2.bias f4 [128]
00000000: 0000 0000 0000 0000 0000 0000 0000 0000
00000010: 0000 0000 0000 0000 0000 0000 0000 0000
00000020: 0000 0000 0000 0000 0000 0000 0000 0000
00000030: 0000 0000 0000 0000 0000 0000 0000 0000
00000040: 0000 0000 0000 0000 0000 0000 0000 0000
00000050: 0000 0000 0000 0000 0000 0000 0000 0000
00000060: 0000 0000 0000 0000 0000 0000 0000 0000
00000070: 0000 0000 0000 0000 0000 0000 0000 0000
00000080: 0000 0000 0000 0000 0000 0000 0000 0000
00000090: 0000 0000 0000 0000 0000 0000 0000 0000
000000a0: 0000 0000 0000 0000 0000 0000 0000 0000
000000b0: 0000 0000 0000 0000 0000 0000 0000 0000
000000c0: 0000 0000 0000 0000 0000 0000 0000 0000
000000d0: 0000 0000 0000 0000 0000 0000 0000 0000
000000e0: 0000 0000 0000 0000 0000 0000 0000 0000
000000f0: 0000 0000 0000 0000 0000 0000 0000 0000
00000100: 0000 0000 0000 0000 0000 0000 0000 0000
00000110: 0000 0000 0000 0000 0000 0000 0000 0000
00000120: 0000 0000 0000 0000 0000 0000 0000 0000
00000130: 0000 0000 0000 0000 0000 0000 0000 0000
00000140: 0000 0000 0000 0000 0000 0000 0000 0000
00000150: 0000 0000 0000 0000 0000 0000 0000 0000
00000160: 0000 0000 0000 0000 0000 0000 0000 0000
00000170: 0000 0000 0000 0000 0000 0000 0000 0000
00000180: 0000 0000 0000 0000 0000 0000 0000 0000
00000190: 0000 0000 0000 0000 0000 0000 0000 0000
000001a0: 0000 0000 0000 0000 0000 0000 0000 0000
000001b0: 0000 0000 0000 0000 0000 0000 0000 0000
000001c0: 0000 0000 0000 0000 0000 0000 0000 0000
000001d0: 0000 0000 0000 0000 0000 0000 0000 0000
000001e0: 0000 0000 0000 0000 0000 0000 0000 0000
000001f0: 0000 0000 0000 0000 0000 0000 0000 0000
0.0 0.0 0.0 0.0 0.0 0.0 0.0 0.0
0.0 0.0 0.0 0.0 0.0 0.0 0.0 0.0
0.0 0.0 0.0 0.0 0.0 0.0 0.0 0.0
0.0 0.0 0.0 0.0 0.0 0.0 0.0 0.0
0.0 0.0 0.0 0.0 0.0 0.0 0.0 0.0
0.0 0.0 0.0 0.0 0.0 0.0 0.0 0.0
0.0 0.0 0.0 0.0 0.0 0.0 0.0 0.0
0.0 0.0 0.0 0.0 0.0 0.0 0.0 0.0
0.0 0.0 0.0 0.0 0.0 0.0 0.0 0.0
0.0 0.0 0.0 0.0 0.0 0.0 0.0 0.0
0.0 0.0 0.0 0.0 0.0 0.0 0.0 0.0
0.0 0.0 0.0 0.0 0.0 0.0 0.0 0.0
0.0 0.0 0.0 0.0 0.0 0.0 0.0 0.0
0.0 0.0 0.0 0.0 0.0 0.0 0.0 0.0
0.0 0.0 0.0 0.0 0.0 0.0 0.0 0.0
0.0 0.0 0.0 0.0 0.0 0.0 0.0 0.0

action_model._discrete_distribution.branches.0.weight f4 [3, 128]
00000000: 15cd 98bc e2c0 083c 4851 0cbc 6184 26bc
00000010: 2792 8939 d7c0 9b3c 83f4 0dba 0ec8 08bb
00000020: 8d37 d63b d0ca 343c f73b 1a3c 6ea2 323c
00000030: 275a 173c 97ec eaba cea5 a5bc a360 0cbc
00000040: 72ec 5c3b e8e7 b23b 28b8 4dbc ae47 bfbb
00000050: 7fd5 6c3c aa03 59bc 0acd 713b 1dd4 84ba
00000060: 0805 523c 19eb 97bc b5f4 373a eac5 033c
00000070: 9279 c53b b330 3a3a b809 8b3b 110b 3fbb
00000080: 2038 8cbb 87ef 6bbc 95cc 2bb9 6f48 5e3c
00000090: c002 e23b 8dd8 983b df61 203c 5710 36bb
000000a0: 7f84 2cbb fb71 b93b b205 afbb 33df 383c
000000b0: 05a8 d73b 896c 2d3c dc1b 4cbb 4a1b f0bb
000000c0: 2273 d93b b2c5 613c bb45 c3ba 0ee8 31bc
000000d0: c842 45bc 1784 943c fa4a 2a3c 37b9 8d3c
000000e0: 5fac 69bb bb23 f7bb 7f1a 183c eaaa 383c
000000f0: 7b8d 65bc fa85 133c 7be6 20bc 23a8 2f3c
00000100: 759d e53a 2512 70bc b7d7 db3b 50c2 3b3b
00000110: 74d0 b33b 2df0 ddba adbb 5a3b 37b5 5ebc
00000120: 4451 103b a328 193c adb6 e2bb c8cf e5bb
00000130: 5f55 89bb 23e4 dfbb 9b85 213a 4f49 de3a
00000140: f72f a8bc a522 0ebc adba 513c 32cb 473c
00000150: c2c0 533c f295 86bc 6371 833c abc9 4f3c
00000160: 179c 1a3c 9bcd 12b9 c0b4 9bbc a3a0 1d3c
00000170: 305c 063a 8395 80bb 8fd3 c6bb 27ff 4d3b
00000180: 5e04 833b 3fe2 21bb b021 aa3c 7344 da3b
00000190: 91ea a23a ab0c 79bb 8ac7 703c 2acb cebb
000001a0: 7368 273c 7edd a63b c94a 3b3c 37db 773c
000001b0: 989b d13a 4349 5cbb 5a96 d6bb d4a4 bebb
000001c0: e59a 84bc cb0d 43bb 6f1a 143c 3b9d 483c
000001d0: d8be 4b3b 5551 42b8 fb26 52bc e834 0439
000001e0: 38a4 b3bb 8a1b 95bb bb0d 41bc 1304 fcbb
000001f0: 3bcd acbb 4bbf 973b 4714 d13b cb9f e13b
00000200: ce33 203b ad82 603b 44b4 99b7 4304 e5ba
00000210: 332a b8bb fa32 39bc c5b8 52b7 01b0 2e3b
00000220: 3fad 84bb 5460 113c b781 76bc d116 16ba
00000230: 15e2 d1bb 7b5f 393c 6e97 92bc 3c51 953a
00000240: ffb7 a3bb bf43 463c 46cb 12bc 88d7 673a
00000250: c046 053c d18e c73b 3157 303c 2671 173b
00000260: 1759 07ba 9a97 673c 9b5a f93b 51c0 ba3b
00000270: e48b a53b cc5c 9b3b 6ceb 3cbc 9107 96bb
00000280: 89bc 0ebc fa47 7c3c cab9 edbb 00c3 173b
00000290: af89 053c facd f3ba 00b5 ee3b 9719 afbb
000002a0: c808 3e3b 61f4 80bc 52a8 08bc 7bb8 94ba
000002b0: b8f0 633c d361 9dbc 4343 efbb 02d9 e4ba
000002c0: f883 d5bb 7313 363c 101e b73b 3064 d33b
000002d0: cbf9 cfb9 0002 8e3b b605 9b3c ebb6 4f3b
000002e0: 2361 84bb d76f af3c 8353 ffbb 8d49 58bc
000002f0: a3a0 0c3c 9bea d83c 6b9c 6a3c 1ddf 643c
00000300: 77ed 41ba 1889 4d3a 95fe f73a eda4 de3b
00000310: f5a4 f03a 9015 49ba 2a3f 28bc 1a59 51bc
00000320: 278f e63a cf66 063c 2712 15bc 2e83 173c
00000330: d52e 88bb 6b1f 303c dbca 203c 27b6 163c
00000340: 2a01 f1ba 88a6 86bc f2f1 dfbb 79b4 3dbc
00000350: 53df 583c 8f76 0cbb 2d61 4fbc 3faa 913a
00000360: a7ae 723b 9a17 fdbb 05df 60bc 737d 073c
00000370: 1570 f03a 9319 0c3a 83ce 3c3c f5b6 023c
00000380: f7ed 20bc b284 14bb 3bed 51bc 77ed 06bb
00000390: 4a6f 413b b14c 35bb e3d9 12bc 52e7 76bb
000003a0: 2f4d 53bc f6cc 903c db46 e73b 0106 28bc
000003b0: 9300 923c f38b 80bc 4248 553c caec 143c
000003c0: 7446 1a3a f546 4ebc fb5d 4f3b 706b 41bc
000003d0: 0fa0 cc3a 600a 7b3c 8bcd c83b 5210 83bb
000003e0: 9f30 16bb 61de 00bc dfbe d13b 6ff8 12bc
000003f0: 6d8f e939 3ff6 723a 92e7 a439 6418 10bc
-0.018652478 0.008346768 -0.008564301 -0.0101633975 0.00026239568 0.019012852 -0.0005415158 -0.0020871195
0.006537384 0.011034682 0.009413711 0.010902984 0.009237803 -0.0017923292 -0.020220663 -0.008567962
0.0033710268 0.0054597743 -0.012556113 -0.0058374023 0.014455198 -0.0132455025 0.0036895894 -0.0010134015
0.012818582 -0.01854472 0.000701736 0.008042792 0.006026455 0.00071025937 0.004243102 -0.0029150883
-0.0042791516 -0.0144003695 -0.00016384044 0.013567074 0.0068973005 0.0046644867 0.009788959 -0.0027780735
-0.002632409 0.0056593395 -0.005341255 0.011283684 0.006581309 0.010584959 -0.0031144535 -0.007327472
0.0066360394 0.013780044 -0.0014898101 -0.010858549 -0.012039848 0.018129392 0.010393852 0.017300231
-0.003565572 -0.007542101 0.009283661 0.011271218 -0.014010782 0.0090041105 -0.009820576 0.010721239
0.0017518239 -0.0146527635 0.006709065 0.0028649755 0.005487496 -0.001693254 0.0033376024 -0.01359301
0.0022021094 0.009348067 -0.0069187493 -0.007013295 -0.004191085 -0.006832616 0.00061615714 0.0016959104
-0.020530684 -0.008675252 0.012800855 0.012194442 0.012924375 -0.016428921 0.016045278 0.012682359
0.009436629 -0.00014000239 -0.019007087 0.009620818 0.00051254313 -0.003924073 -0.0060677 0.00314326
0.0039983233 -0.0024701504 0.020768017 0.006660992 0.0012429525 -0.0038001935 0.014696011 -0.00631084
0.010217774 0.005092322 0.011431404 0.0151279485 0.0015991805 -0.0033613003 -0.006548685 -0.005817989
-0.01618714 -0.002976286 0.009039505 0.012244518 0.0031089094 -4.632895e-05 -0.0128266765 0.0001260821
-0.005482223 -0.004550402 -0.011783059 -0.0076909154 -0.005273489 0.004630958 0.006380591 0.006885504
0.002444494 0.0034257576 -1.8322964e-05 -0.0017472584 -0.005620265 -0.011303658 -1.2559995e-05 0.00266552
-0.004048973 0.008873064 -0.015045575 -0.0005725446 -0.006405125 0.011314268 -0.017894473 0.0011392008
-0.0049962993 0.012101113 -0.008959597 0.00088440673 0.008134544 0.006090023 0.010762976 0.0023108213
-0.0005163117 0.014135266 0.007609678 0.0056991954 0.0050520767 0.004741287 -0.011530738 -0.0045785387
-0.0087119425 0.01539802 -0.007254814 0.0023157 0.008150502 -0.0018600815 0.0072847605 -0.0053436267
0.0028996933 -0.015741529 -0.008340912 -0.0011346483 0.013912372 -0.019211685 -0.0073017194 -0.0017459693
-0.006515976 0.0111130355 0.0055883005 0.0064511523 -0.00039668227 0.0043337345 0.018923622 0.003169472
-0.0040399 0.021415634 -0.007791938 -0.01320113 0.008583221 0.026479056 0.0143195195 0.01396921
-0.0007397751 0.0007840558 0.0018920476 0.006794563 0.0018359708 -0.00076707546 -0.010268966 -0.012777591
0.001759027 0.008203222 -0.009098566 0.009247584 -0.0041559734 0.010749678 0.0098139895 0.009198702
-0.0018387188 -0.01643683 -0.006834262 -0.011578673 0.013236838 -0.002143297 -0.012657446 0.0011113359
0.003703037 -0.007723761 -0.013725047 0.0082696555 0.001834395 0.0005344387 0.011523846 0.007978191
-0.00982236 -0.00226621 -0.012812908 -0.0020588317 0.0029515796 -0.002766412 -0.008963081 -0.0037674499
-0.01289682 0.017675858 0.007058007 -0.010255338 0.01782254 -0.015691733 0.013017716 0.009089658
0.0005885132 -0.01259016 0.003164171 -0.0118054 0.0015611666 0.015322298 0.0061280183 -0.0039997483
-0.0022917164 -0.007865519 0.0064009274 -0.008970364 0.00044548084 0.0009268261 0.0003145305 -0.008794878

action_model._discrete_distribution.branches.0.bias f4 [3]
00000000: 0000 0000 0000 0000 0000 0000
0.0 0.0 0.0

network_body._body_endoder.seq_layers.0.weight f4 [128, 4]
00000000: 0d08 303f 1853 76bf 0c33 5e3f aca6 90be
00000010: 6d96 863e be3a 143e 8e68 00bf 84c4 023c
00000020: 7551 95bf 3ffd 0f3e 8e55 313f dc6a 11bf
00000030: 46f9 0d3e 52e8 da3e dc68 b0bc 0735 c63e
00000040: 409b dcbd 351c 803d 8c49 adbe 842e e13e
00000050: a78e 8ebf da83 19be 5e81 8c3e 2f68 fe3c
00000060: 2595 51bd 50e8 0e3f cca9 71be 66d7 bb3e
00000070: 99c1 473f 1ee0 9dbe eaf9 ebbd 7273 fa3e
00000080: 6929 36bf b029 d53d 3013 d3bc a566 41bf
00000090: ad2f a5be 63b9 94be 5daa 37be 30b0 9e3e
000000a0: 869f 523f 6ebe 043f bf76 0dbf 4575 0cbd
000000b0: b569 05be 5b33 1fbf c2ab 203f e92a 23be
000000c0: d28e 8cbe 01da 373d a13d 4abe 2532 fe3e
000000d0: e29f ad3c 6101 b9be 4298 01bf 3bd7 bfbe
000000e0: 84e0 ba3d 8042 9c3f 3ec5 103f e25e 063f
000000f0: 7bd0 08bf c632 003d 27cd 993e 139c 0bbf
00000100: 4a1d 0fbd c5cd 9cbe 8a91 0e3f 42ed 9a3e
00000110: 5be8 cdbe 0672 69bf 2f6c d8be 4247 633c
00000120: db24 3d3f 7c62 bfbe f885 bebd e73a 18bf
00000130: 760a 243f d81a 99be 6151 d03d 225d fcbe
00000140: e7d2 80be 3bbc a33c 10f0 873d 2a99 1bbf
00000150: 4161 c2bd 3391 b8be 0e36 ec3d b9fd 503d
00000160: 143e f6be b2f3 ed3e f829 73bd bcad 093f
00000170: 945c 95be cc62 dfbe cd7f 52be 8293 7cbd
00000180: ca93 a3be 6aa6 95bd fa7b 44bf 8315 7ebf
00000190: 4fb6 08bf ba88 8cbd 81a5 b93f e8eb 2d3e
000001a0: 8a61 4ebc c1d5 f83e ed29 8bbf c678 e43c
000001b0: 5308 01bf bed1 a1be 6c2a e5be 4973 f23e
000001c0: 499b c4bf 780b 02bd bd46 bf3d 1af0 44be
000001d0: eef1 01bf e9e1 6fbc 20a1 15bf 425b 5d3f
000001e0: 570c bd3e c3c4 a7be 01b5 b43e 932b b0be
000001f0: 4be5 4fbf a882 22be 9900 f23e 6aac ce3c
00000200: 0b7b 01be c316 0e3f 9811 553f a79c fd3d
00000210: afd8 c9be 026f 9e3e 9b43 413e bba1 e0be
00000220: aa2c 56bf e8a3 14be 5a66 6cbe 4208 0c3f
00000230: 964e 69bf e26a 553f fd0b 8c3e ce8d 0dbf
00000240: f028 1ebe df9b 003d bb35 4c3e a16b dd3e
00000250: 56cb 223f 77eb 0a3f 1df7 12bf 8a40 183d
00000260: a905 95be b652 aabe d8da c5be 63ac d43e
00000270: f6c3 e13e 46e6 a5be d058 e33e 04c3 423f
00000280: 7683 80bd 53e1 063e 99ab fdbe 5629 b5bd
00000290: 630f 733f cd34 703f 3b49 18be 69d1 2cbf
000002a0: adac 313e a7c3 e6bd eb17 ac3e 16b2 c2be
000002b0: 0b0f 323f c4ea f8be a80c 453f 28ba f83d
000002c0: e5f2 d23d 742b 493f 7b54 b13e d163 bc3e
000002d0: c3c6 4f3e fb80 83bf b15c 90bd f56d 2cbf
000002e0: a27f 51bc 0c2a 43bd 845a 65bf 481f 7b3e
000002f0: 409d 37be 64e9 51bf 4bb5 10bf 8a9f b53e
00000300: d638 773e ac35 b73e ab9e f2be 74dd 32bf
00000310: ba2f 993f 285b e5be 0b75 02bf 031e c5be
00000320: 2425 c33e 5ed8 0a3e 3348 593e 711c 89be
00000330: 20ae 743e af85 56bf 99b9 703e 2e92 ff3e
00000340: f16f b73e ddaf 193f bcae 303f c469 9a3e
00000350: 4afb da3e 93c7 0abf b589 bf3e 5a83 0c3f
00000360: 297a 37bf 94ce 3fbe a598 abbd 6855 80bf
00000370: 0064 19bf 3e85 30be 5a48 3e3f 81fa 843f
00000380: d800 4e3e 139e b73e 97db dd3e 2f16 9c3e
00000390: 2e9b 5a3e 8404 313e 868d 67bf 68d5 3dbe
000003a0: f5db 3e3f 1d6e 21be e6dc ae3d fe5f 733f
000003b0: a94b 8b3e f8f0 ee3d d4a7 bd3e 3f08 043e
000003c0: 8cba d03e ed68 50be f75e 38be 8892 f9bd
000003d0: d552 b7be 20f7 1bbe dd79 3fbe 6cd3 b13d
000003e0: d128 1a3f 4c38 a3be b9d9 b43d 71e2 2b3a
000003f0: 9d6c bc3e b47f 293e a0cf 9abe 98a8 fd3e
0.68762285 -0.9622054 0.8679664 -0.2825216 0.2628664 0.14475533 -0.5015954 0.007981423
-1.1665484 0.1406145 0.6927117 -0.5680368 0.13864622 0.4275537 -0.021534376 0.38712332
-0.10771799 0.0625538 -0.33845174 0.439808 -1.1137284 -0.14991704 0.2744245 0.031055538
-0.051167626 0.5582323 -0.23599929 0.36687773 0.7802978 -0.3083505 -0.11522277 0.48916203
-0.71156937 0.10408342 -0.025765985 -0.7554725 -0.32262936 -0.2904769 -0.17936082 0.30993795
0.82274663 0.5185307 -0.5525932 -0.034291524 -0.13028605 -0.6218774 0.6276208 -0.15934338
-0.27452713 0.04488564 -0.19750072 0.49647632 0.021194402 -0.36133865 -0.5062295 -0.37468895
0.09124854 1.2207794 0.5655097 0.5248853 -0.53443116 0.03129842 0.3003933 -0.54535025
-0.03494004 -0.3062574 0.55690825 0.30259138 -0.40216336 -0.9118961 -0.42270038 0.01387197
0.7388436 -0.37379825 -0.09302896 -0.5946488 0.6407846 -0.29903293 0.10171772 -0.49289805
-0.25160906 0.019987216 0.06637585 -0.60780585 -0.09491206 -0.36048278 0.115337476 0.05102322
-0.48094237 0.46474987 -0.059366196 0.5378072 -0.29172194 -0.43630064 -0.20556565 -0.061664112
-0.31948692 -0.073071316 -0.76751673 -0.99251574 -0.5340318 -0.06862016 1.4503633 0.16984522
-0.012596497 0.4860058 -1.087217 0.02788962 -0.50403327 -0.31605333 -0.44758928 0.4735358
-1.5359889 -0.03174922 0.09339664 -0.19232216 -0.5075978 -0.0146412635 -0.5844898 0.86467373
0.36923477 -0.32767305 0.35294345 -0.34408244 -0.8120925 -0.15870154 0.4726608 0.025228698
-0.12644593 0.5550348 0.8322997 0.12383395 -0.3942313 0.30944067 0.18873446 -0.4387339
-0.836619 -0.1451565 -0.23085919 0.547001 -0.9113554 0.83366215 0.27352896 -0.552945
-0.15445304 0.03139865 0.19942372 0.43246177 0.63591516 0.5426554 -0.57408315 0.037170924
-0.2910588 -0.33266228 -0.38643527 0.4153777 0.4409482 -0.32402247 0.44403696 0.7607882
-0.06275074 0.13171892 -0.4954498 -0.08845775 0.94945353 0.9383057 -0.14871685 -0.67507035
0.17351027 -0.112677865 0.33611998 -0.38026494 0.69554204 -0.48616612 0.76972437 0.121448815
0.10300235 0.7858193 0.34634766 0.36794904 0.20290665 -1.0273737 -0.070489295 -0.6735528
-0.012786778 -0.04764752 -0.8959124 0.24523652 -0.1793108 -0.8199675 -0.5652663 0.3547328
0.24142775 0.35783136 -0.4738668 -0.6986916 1.196769 -0.4479611 -0.50959843 -0.3849946
0.38114274 0.135591 0.21218948 -0.26779512 0.23894548 -0.83797735 0.235083 0.49916214
0.35827592 0.6003397 0.69016623 0.30158818 0.42769843 -0.54210776 0.3740975 0.54887927
-0.71670777 -0.18731147 -0.08378724 -1.0026064 -0.5991821 -0.17238328 0.7432915 1.0388948
0.2011751 0.3586279 0.43331596 0.30485675 0.21348259 0.17286879 -0.9045032 -0.1853844
0.7455438 -0.15764661 0.08538227 0.9506835 0.27206162 0.11667055 0.37042105 0.1289377
0.40767324 -0.20352526 -0.18004976 -0.12186152 -0.35805383 -0.1523099 -0.18698831 0.08682904
0.6021853 -0.3187889 0.0883059 0.0006556875 0.36801615 0.16552621 -0.3023653 0.4954269

network_body._body_endoder.seq_layers.0.bias f4 [128]
00000000: 0000 0000 0000 0000 0000 0000 0000 0000
00000010: 0000 0000 0000 0000 0000 0000 0000 0000
00000020: 0000 0000 0000 0000 0000 0000 0000 0000
00000030: 0000 0000 0000 0000 0000 0000 0000 0000
00000040: 0000 0000 0000 0000 0000 0000 0000 0000
00000050: 0000 0000 0000 0000 0000 0000 0000 0000
00000060: 0000 0000 0000 0000 0000 0000 0000 0000
00000070: 0000 0000 0000 0000 0000 0000 0000 0000
00000080: 0000 0000 0000 0000 0000 0000 0000 0000
00000090: 0000 0000 0000 0000 0000 0000 0000 0000
000000a0: 0000 0000 0000 0000 0000 0000 0000 0000
000000b0: 0000 0000 0000 0000 0000 0000 0000 0000
000000c0: 0000 0000 0000 0000 0000 0000 0000 0000
000000d0: 0000 0000 0000 0000 0000 0000 0000 0000
000000e0: 0000 0000 0000 0000 0000 0000 0000 0000
000000f0: 0000 0000 0000 0000 0000 0000 0000 0000
00000100: 0000 0000 0000 0000 0000 0000 0000 0000
00000110: 0000 0000 0000 0000 0000 0000 0000 0000
00000120: 0000 0000 0000 0000 0000 0000 0000 0000
00000130: 0000 0000 0000 0000 0000 0000 0000 0000
00000140: 0000 0000 0000 0000 0000 0000 0000 0000
00000150: 0000 0000 0000 0000 0000 0000 0000 0000
00000160: 0000 0000 0000 0000 0000 0000 0000 0000
00000170: 0000 0000 0000 0000 0000 0000 0000 0000
00000180: 0000 0000 0000 0000 0000 0000 0000 0000
00000190: 0000 0000 0000 0000 0000 0000 0000 0000
000001a0: 0000 0000 0000 0000 0000 0000 0000 0000
000001b0: 0000 0000 0000 0000 0000 0000 0000 0000
000001c0: 0000 0000 0000 0000 0000 0000 0000 0000
000001d0: 0000 0000 0000 0000 0000 0000 0000 0000
000001e0: 0000 0000 0000 0000 0000 0000 0000 0000
000001f0: 0000 0000 0000 0000 0000 0000 0000 0000
0.0 0.0 0.0 0.0 0.0 0.0 0.0 0.0
0.0 0.0 0.0 0.0 0.0 0.0 0.0 0.0
0.0 0.0 0.0 0.0 0.0 0.0 0.0 0.0
0.0 0.0 0.0 0.0 0.0 0.0 0.0 0.0
0.0 0.0 0.0 0.0 0.0 0.0 0.0 0.0
0.0 0.0 0.0 0.0 0.0 0.0 0.0 0.0
0.0 0.0 0.0 0.0 0.0 0.0 0.0 0.0
0.0 0.0 0.0 0.0 0.0 0.0 0.0 0.0
0.0 0.0 0.0 0.0 0.0 0.0 0.0 0.0
0.0 0.0 0.0 0.0 0.0 0.0 0.0 0.0
0.0 0.0 0.0 0.0 0.0 0.0 0.0 0.0
0.0 0.0 0.0 0.0 0.0 0.0 0.0 0.0
0.0 0.0 0.0 0.0 0.0 0.0 0.0 0.0
0.0 0.0 0.0 0.0 0.0 0.0 0.0 0.0
0.0 0.0 0.0 0.0 0.0 0.0 0.0 0.0
0.0 0.0 0.0 0.0 0.0 0.0 0.0 0.0

network_body._body_endoder.seq_layers.2.weight f4 [128, 128]
00000000: 3403 ef3d 80ad 2a3e ba99 343d b61b c2bd
00000010: 9164 b23d 21f2 fbbd d198 22bd 24f4 21bd
00000020: 8c5e 96bd fbdb 56bd e209 11be 04e1 7a3d
00000030: 97bb 3cbd 432a 043d 30a1 93bc d4d7 923d
00000040: 035b 103e 28b7 07be 4e23 0cbe f35e e9ba
00000050: bdd8 763d f54a 583d e48c c73d bd30 2e3e
00000060: 38c8 15be e29d 57bb 967a 4dbe aed0 50bd
00000070: d04b c33c b0c4 d03b 5d39 af3d 246a 80bd
00000080: 5c5f b8bd ab54 9dbd 2136 93bd 929e b73d
00000090: 7bef dabd 775a 753d 8779 723d 45d5 b9bd
000000a0: ecd9 b93c d7a6 22be a3b8 5f3c 03d1 06bd
000000b0: 9a30 3abe 3ffa 913c c3a9 adbd 6b68 93bd
000000c0: f9d7 fdbd 25af 92bc a3c7 383d f6e1 d43d
000000d0: 2177 53bd 8ea5 843d df9b cb3d 89da 783d
000000e0: 604e b13b 8e63 323e 9a0b 0dbd aa55 99bd
000000f0: 6fb6 c5bc 80a7 903d ff57 a7bd e9e9 fcbd
00000100: 83d6 b5bc 4ca8 753d ae1c 593d 4fe5 babc
00000110: f777 c53c 7b68 1ebe 0e08 48be d342 54bc
00000120: 9951 943b df55 e83c 8d3f 46bd c9c1 c73c
00000130: a2f9 b43c 3e63 0dbe a97b a4bd 4b1b 093e
00000140: 17d7 3bbd 004f 893d f236 14be 9d4c 22bd
00000150: d575 ba3c a317 38bd 611a d23d ffe9 f4bc
00000160: 3b36 01be f049 dd3d 85b1 94bd d9f3 743c
00000170: 2ff9 e7bc 06d2 d53d 0ea1 793c ce92 c1bd
00000180: 2ea8 933d 5422 643d 9818 e43c 4329 e43d
00000190: d572 2f3d 33cd 193e e9f3 9abc f2f3 b63c
000001a0: 0ae1 073e 9658 91bd caf3 fdbd fb20 003e
000001b0: 854c eabd f7bb 27bd 7897 613d c3c4 7e3d
000001c0: 6c4a 07be c777 b13d 4784 1ebc 33db 8cba
000001d0: b72c 1ebe f2b9 ca3d 9b02 f03b f0ee 813d
000001e0: 6257 353e 9acc 26be 179d b03d 750a 46be
000001f0: 4460 893d f1cd da3d 2ea3 a3bd f335 ce3d
00000200: 93a4 04be 94b3 bcbd 9979 46bd c74c ca3d
00000210: a051 e7bb d0c5 4abc 7154 52bd 0769 e53c
00000220: 50d9 373d fec0 b9bb 16b7 8b3c ec5a 0e3e
00000230: 9589 d9bc e33e 223b 473d adba 430d 543b
00000240: 6183 f0bb f9bb 883e e803 b73d 771b d4ba
00000250: b34f bdbb c768 02be 53d6 b23d 01c8 243d
00000260: 4de3 263c 43a4 58bd b092 e5bd c22a 003e
00000270: 9dff 773d 6255 e5bd 2b60 083b 0312 1ebc
00000280: c9c7 0f3c e622 afbd f3ec 02bd 6f5a e33d
00000290: a3c3 003d 522c 363c ff7d 853d 210d 6ebd
000002a0: 9010 02be 179b 8e3d f8de ac3c c200 afba
000002b0: f6ce c8bd 3b7a aabd 4900 6d3d 05f3 c23d
000002c0: 2775 b5bd 689d 45bd d60b d43c 9a67 893a
000002d0: b7b3 393c 60fa ad3d ed66 e7bd 2580 87bd
000002e0: 97b5 df3d 4b5e 47bb 957b 94bd 9465 f3bd
000002f0: b93a 9bbd e9b1 23bd dd0f 34be 75b1 79bd
00000300: 6614 593d d2fa afbd 3c02 833d 8453 88bd
00000310: 4d1b acbd f8c3 bbbd e8a4 07be 88e1 a03d
00000320: 639d 9b3d ab08 db3d 93b8 b1bc c067 c8bc
00000330: 62fd f2bb 5d11 383d ba24 a53d 962e a73b
00000340: d5f7 6c3e a865 853d 54dd 5abd 58bb d7bc
00000350: f509 3dbd 04c2 003e a1b5 4e3d abb7 333d
00000360: 40e9 94bb 6692 4439 e422 3a3e 716c 083d
00000370: c754 e0bd 47ac 523d 3a29 ee3d 42db b7bd
00000380: add9 8b3d 22d7 4c3d 2ad8 a2bd 8943 52bd
00000390: cf7c 5b3c bcdd 80bd 9603 3ebd 767b eabc
000003a0: de90 813d 8686 3ebd 4c37 713c 9878 aebc
000003b0: 583d 653c c6d0 81ba 8366 51bd a20c 013d
000003c0: 2f45 a33d 6aa3 21bc c44d 3c3d ce21 2f3e
000003d0: 42f6 44bd 6a20 a33b a567 00be 27e0 3c3d
000003e0: 3a2f c3bd 87cb 3bbd 760a e7bd c3a0 f73c
000003f0: b755 67bc c88f f53d 1f88 71bd 4b53 433d
0.11670533 0.16667747 0.044091918 -0.09477942 0.08710588 -0.12302042 -0.03969652 -0.03953947
-0.07342252 -0.052455883 -0.14163926 0.061249748 -0.046077337 0.032266866 -0.018021196 0.07170072
0.14097218 -0.13253462 -0.13685343 -0.0017804786 0.06026529 0.05280586 0.0974367 0.1701078
-0.14627159 -0.0032900502 -0.20066294 -0.050980262 0.023839861 0.006371103 0.08555863 -0.06270245
-0.09002563 -0.07682165 -0.07188059 0.08965792 -0.106902085 0.059900727 0.05919793 -0.09073881
0.022686921 -0.15883957 0.013654861 -0.032914173 -0.18182603 0.017819522 -0.08479645 -0.071976505
-0.12394709 -0.017905781 0.045112263 0.10394661 -0.051627282 0.064768896 0.099418394 0.060755286
0.0054109544 0.1742079 -0.034434892 -0.07487042 -0.024134843 0.07063198 -0.08171081 -0.12349302
-0.022197014 0.059974954 0.053005867 -0.022814421 0.024105055 -0.15469544 -0.19534323 -0.012955385
0.0045263288 0.028361259 -0.04840045 0.024384396 0.02209169 -0.13807389 -0.08031399 0.13389318
-0.045859423 0.06704521 -0.14474085 -0.039623845 0.022761265 -0.044944417 0.102589376 -0.029896734
-0.12618344 0.10805118 -0.07260422 0.014950716 -0.028317062 0.104404494 0.015236152 -0.09451829
0.07209812 0.0556968 0.027843758 0.111406825 0.04283412 0.15019684 -0.018915134 0.022333119
0.1326944 -0.070969746 -0.12400015 0.12512581 -0.11440376 -0.04095074 0.055076092 0.062199365
-0.13211983 0.08665424 -0.009675092 -0.0010746479 -0.15446745 0.098987475 0.0073245293 0.06344402
0.17709115 -0.16288987 0.086237125 -0.19339927 0.06707814 0.106838115 -0.079901084 0.10068884
-0.12953405 -0.09213939 -0.04845581 0.09877925 -0.007059291 -0.012376264 -0.05135006 0.028004183
0.04488498 -0.0056687584 0.017055076 0.13901871 -0.026554862 0.0024756722 -0.0013217115 0.0032356537
-0.0073398803 0.26705912 0.08936292 -0.0016182502 -0.005777323 -0.12735282 0.08732285 0.0402298
0.010186029 -0.052891027 -0.11209619 0.12516311 0.060546506 -0.11197926 0.0020809274 -0.009647849
0.00877566 -0.08551578 -0.031964254 0.11101233 0.031436574 0.011118965 0.065181725 -0.05811799
-0.1270163 0.06963175 0.021102414 -0.0013351666 -0.098051 -0.08324095 0.0578616 0.095190085
-0.08860236 -0.048245817 0.02588455 0.0010483146 0.011334351 0.08495021 -0.112989284 -0.066162385
0.109233074 -0.0030421193 -0.07250134 -0.11884609 -0.0757956 -0.03996459 -0.17584176 -0.06096025
0.05299797 -0.08592762 0.063969105 -0.06656554 -0.08403645 -0.091682374 -0.132465 0.07855517
0.075983785 0.10695013 -0.021694457 -0.024463534 -0.0074154595 0.044938434 0.08063646 0.005101989
0.23141415 0.0651353 -0.05343373 -0.02633445 -0.046152074 0.12574011 0.050466184 0.04387633
-0.004544407 0.00018746554 0.18177372 0.033306543 -0.1095367 0.051433828 0.11628957 -0.08977367
0.06828628 0.050009854 -0.07951386 -0.051333938 0.013396456 -0.062922925 -0.04639014 -0.028623324
0.06326459 -0.04651501 0.014722656 -0.021297738 0.013991676 -0.0009904138 -0.051123153 0.03150619
0.0797218 -0.009865621 0.0459726 0.17102739 -0.048086412 0.0049782293 -0.12539537 0.046112206
-0.09530492 -0.045848396 -0.11281292 0.030228024 -0.014119557 0.11990315 -0.058967706 0.047686856

network_body._body_endoder.seq_layers.2.bias f4 [128]
00000000: 0000 0000 0000 0000 0000 0000 0000 0000
00000010: 0000 0000 0000 0000 0000 0000 0000 0000
00000020: 0000 0000 0000 0000 0000 0000 0000 0000
00000030: 0000 0000 0000 0000 0000 0000 0000 0000
00000040: 0000 0000 0000 0000 0000 0000 0000 0000
00000050: 0000 0000 0000 0000 0000 0000 0000 0000
00000060: 0000 0000 0000 0000 0000 0000 0000 0000
00000070: 0000 0000 0000 0000 0000 0000 0000 0000
00000080: 0000 0000 0000 0000 0000 0000 0000 0000
00000090: 0000 0000 0000 0000 0000 0000 0000 0000
000000a0: 0000 0000 0000 0000 0000 0000 0000 0000
000000b0: 0000 0000 0000 0000 0000 0000 0000 0000
000000c0: 0000 0000 0000 0000 0000 0000 0000 0000
000000d0: 0000 0000 0000 0000 0000 0000 0000 0000
000000e0: 0000 0000 0000 0000 0000 0000 0000 0000
000000f0: 0000 0000 0000 0000 0000 0000 0000 0000
00000100: 0000 0000 0000 0000 0000 0000 0000 0000
00000110: 0000 0000 0000 0000 0000 0000 0000 0000
00000120: 0000 0000 0000 0000 0000 0000 0000 0000
00000130: 0000 0000 0000 0000 0000 0000 0000 0000
00000140: 0000 0000 0000 0000 0000 0000 0000 0000
00000150: 0000 0000 0000 0000 0000 0000 0000 0000
00000160: 0000 0000 0000 0000 0000 0000 0000 0000
00000170: 0000 0000 0000 0000 0000 0000 0000 0000
00000180: 0000 0000 0000 0000 0000 0000 0000 0000
00000190: 0000 0000 0000 0000 0000 0000 0000 0000
000001a0: 0000 0000 0000 0000 0000 0000 0000 0000
000001b0: 0000 0000 0000 0000 0000 0000 0000 0000
000001c0: 0000 0000 0000 0000 0000 0000 0000 0000
000001d0: 0000 0000 0000 0000 0000 0000 0000 0000
000001e0: 0000 0000 0000 0000 0000 0000 0000 0000
000001f0: 0000 0000 0000 0000 0000 0000 0000 0000
0.0 0.0 0.0 0.0 0.0 0.0 0.0 0.0
0.0 0.0 0.0 0.0 0.0 0.0 0.0 0.0
0.0 0.0 0.0 0.0 0.0 0.0 0.0 0.0
0.0 0.0 0.0 0.0 0.0 0.0 0.0 0.0
0.0 0.0 0.0 0.0 0.0 0.0 0.0 0.0
0.0 0.0 0.0 0.0 0.0 0.0 0.0 0.0
0.0 0.0 0.0 0.0 0.0 0.0 0.0 0.0
0.0 0.0 0.0 0.0 0.0 0.0 0.0 0.0
0.0 0.0 0.0 0.0 0.0 0.0 0.0 0.0
0.0 0.0 0.0 0.0 0.0 0.0 0.0 0.0
0.0 0.0 0.0 0.0 0.0 0.0 0.0 0.0
0.0 0.0 0.0 0.0 0.0 0.0 0.0 0.0
0.0 0.0 0.0 0.0 0.0 0.0 0.0 0.0
0.0 0.0 0.0 0.0 0.0 0.0 0.0 0.0
0.0 0.0 0.0 0.0 0.0 0.0 0.0 0.0
0.0 0.0 0.0 0.0 0.0 0.0 0.0 0.0

value_heads.value_heads.extrinsic.weight f4 [1, 128]
00000000: bf26 fabd 04e7 033e 305a 613d c03d a9bb
00000010: f1bc c7bd f17e 3ebe d0a0 173d 1088 3f3e
00000020: dad6 c6bd e29f 45be c6b5 42be 942e 913d
00000030: 9c76 103e 3036 753d c74c f0bd d41c 14bd
00000040: 2d0e 51be 42d7 5abe 42fa 3dbe ce34 1b3e
00000050: c28e 42be b4e3 92bd 7090 1a3e 3cfd 043d
00000060: 8206 493e a0c0 19be 5ace 01be 76d6 523e
00000070: 480a 583e c64d 083e 40ae 0f3d 187d 603d
00000080: 7451 76bd e296 1a3e d695 443e d829 063d
00000090: d8a1 2d3e 1eef 01be c025 27bd e8d7 5fbd
000000a0: 54ff d93d ca3a 3ebe 0954 fabd e02e f13b
000000b0: 92c0 00be 4080 c93d 3802 d83d 8c17 9b3d
000000c0: e425 573e 6048 4c3d 989c 243e d53e 3dbe
000000d0: 9207 3a3e b08b 623d e035 b2bb 48d8 d5bc
000000e0: e8f1 66bd 27e0 17be d613 32be 606a 4cbc
000000f0: e2b9 40be 40a6 433c 988c d9bc 9465 26bd
00000100: fdc0 bebd 5c46 fb3d a012 f43b 9088 263d
00000110: 587a 263e de07 27be 387a 193e b779 0abe
00000120: a04f 5bbe e603 42be 12de 253e 546b 95bd
00000130: 195b f2bd b487 163e aacb a8bd 8e3b 593e
00000140: ee7a 283e 28f9 8b3d 18f7 c93d 0c55 973d
00000150: 58b2 e83d 826a 363e 5886 093d 5c2d d93d
00000160: 623f 29be 44df 043e bba4 4ebe e2b3 5b3e
00000170: 2048 4bbd ca3a 00be a2ac dfbd a098 203c
00000180: 261a 3b3e f049 49bd 832d ffbd e852 ea3d
00000190: 5021 54bc f09c 7e3d 00ec 8139 344b 8b3d
000001a0: 5878 06be 04fe e93d 3804 5c3d e4c9 153e
000001b0: 0eb3 a5bd ee38 1f3e 88d1 5e3d 70df 4b3d
000001c0: 9e49 0fbe 246a b1bd 2a8c 5c3e 6452 22bd
000001d0: e457 15be 4cbd 0b3e ac95 c0bd a04f f43b
000001e0: 985c 1f3d d0c6 8a3c 9062 1d3d 6adc 01be
000001f0: da4c 54be d9e8 24be ea33 55be ac33 32be
-0.122144215 0.12881094 0.05501765 -0.005164832 -0.097528346 -0.18603112 0.037018597 0.18704247
-0.097089484 -0.19299272 -0.19014654 0.07088962 0.14107746 0.05986613 -0.11733394 -0.036160305
-0.20415564 -0.21371177 -0.18552497 0.15156862 -0.1899977 -0.07172337 0.15094161 0.032468066
0.19631389 -0.15014887 -0.12676373 0.20589623 0.21097672 0.13310918 0.035078287 0.0548068
-0.060136274 0.1509662 0.19197783 0.03275475 0.1695627 -0.12688872 -0.040807486 -0.054649264
0.10644403 -0.18577114 -0.1222306 0.0073603243 -0.1257346 0.09838915 0.10547298 0.075728506
0.21010548 0.04987371 0.16075361 -0.18481 0.1816695 0.055308998 -0.0054385513 -0.026104107
-0.056383044 -0.14831601 -0.1739038 -0.012476534 -0.18820909 0.011941493 -0.026556298 -0.040624216
-0.09314153 0.12269279 0.0074485093 0.04065758 0.16257608 -0.16311595 0.14988029 -0.13522993
-0.21417093 -0.189468 0.16197994 -0.07295862 -0.11833782 0.14700204 -0.08241971 0.21214125
0.16453144 0.06834632 0.098615825 0.07389268 0.11362141 0.17814067 0.033575386 0.10604355
-0.16528085 0.12975794 -0.20180027 0.21455339 -0.04962933 -0.12522426 -0.10921599 0.009802014
0.18271694 -0.049142778 -0.124598525 0.11441594 -0.012947395 0.062161386 0.0002478063 0.06801453
-0.13131845 0.11425403 0.05371496 0.14627796 -0.080907926 0.1554906 0.054399043 0.049773633
-0.13992926 -0.08662823 0.21537843 -0.039629355 -0.14584309 0.1364643 -0.09403548 0.007455781
0.038906664 0.016940504 0.038424075 -0.12681738 -0.20732442 -0.1610445 -0.20820585 -0.17402524
