results/ppo/BalanceBall1/BalanceBall1-896.pt (torch, 147820 bytes, 11 tensors)

network_body._body_endoder.seq_layers.0.weight f4 [128, 4]
00000000: 323a 32bd 2b3a 4abe 5fd4 23bf c463 0d3f
00000010: e7a7 0dbd ce90 3dbc d1da a23e 853f f23e
00000020: f79a 10bf 4244 f73e 4e0e 0b3f a81e 50be
00000030: 44be 48bf e118 8abe 818e 9dbe 224e fb3d
00000040: 2e6e be3e a089 2e3e f8d4 e73e 45c0 393b
00000050: ded0 b7be 6786 86bd 5ea4 88bf 8723 d83e
00000060: 4f4f bfbd 6f35 8ebd 4c3b e1bd ae29 c0be
00000070: 57ca 2e3f e268 90be 2d64 80bc 370c 563f
00000080: 3aed 3f3f c6bb 3e3f 22a6 47bf ccaf 44be
00000090: 039b b5be fcee 96be 28da 05bf ef07 a2bd
000000a0: 56f0 a4be 07a6 3bbf 9480 dcbe 851e 3ebe
000000b0: 814e 39bf 2947 3b3e eff3 743f ad8b 2e3e
000000c0: c1b5 0ebd 3282 d4be 3176 b53e 5077 833e
000000d0: 3bdb 973e 9330 7b3f b6f0 033e 1bd2 b63e
000000e0: 9304 c23e 72d8 2b3f 5e33 543f d23d 7f3f
000000f0: 03df 4abe eb0b acbd 8118 afbe 480f 2ebf
00000100: f41c 413f 7735 3d3e 1a9c 17bf a215 fc3e
00000110: 073f a2bf 44c4 10bf 2547 013f bb37 0c3f
00000120: 3bce 053f 9dd9 3a3f 2a49 2e3f d5f7 053f
00000130: 176f 4fbf b384 d4be c9f2 d63d a93a e1be
00000140: f51e eabd 1a52 66be 1d56 dcbe aed1 b3be
00000150: f236 1ebf 79cd adbe 5936 723e 7d11 403f
00000160: 47d2 933e e252 eabe 6fad 3a3f 1358 abbe
00000170: 03a0 55bf c271 283f 6d6c 00bf fb98 1bbe
00000180: 41f8 d9be f72e ec3e 6a31 563f 1773 b63d
00000190: f210 41be 92fc 633f 074c ce3c 363f 153c
000001a0: 3b24 0d3f 7494 d93d 499a fcbe 49ce 07bf
000001b0: 7618 5e3e 1ab8 3c3f 0848 073f b570 873e
000001c0: dfd4 cd3d b527 11bf 1fa2 acbe 7ebc b13e
000001d0: b27c a43e 8721 1a3f 4f5f b8bc eb74 edbc
000001e0: bfaa 4bbf 8938 4dbe 6e37 b53d 123b 033f
000001f0: 145f 36bd 811a ba3d 5d82 383f a059 743f
00000200: cc4e d2bd 8977 f73e db3e a93e af6e 81be
00000210: 5a12 cb3e be1c e4be 7970 a13e eca7 6d3e
00000220: df7d 33bf 11de 8ebe 14b1 963d a23f 46be
00000230: ada7 863e 5d0f 80bd 0cb6 123e c8cd ee3d
00000240: 382c c3be 5933 303f d3ca b8bd 1c37 dabe
00000250: 16b0 003d da80 ef3e f5d8 8bbe 3603 123f
00000260: 0eac 06bf de20 573f 37c4 6f3e 4c77 2abd
00000270: cb68 533f 8d2c 113f 3d6d 673e ca9c b7bd
00000280: 5ca3 d4be 74cc b9be 7f13 bdbd eb20 793e
00000290: 7b38 983e 98fc 553e fd10 d1bc 2738 2d3d
000002a0: 565f 073f d8ed e8be 54ee 2a3e 6bc7 d3be
000002b0: b913 163f d7c0 c9bd 8e9e 24bf 4168 6ebe
000002c0: 0a9e d73e 6f96 e9be f682 a3be 692f abbc
000002d0: 7b10 6a3f 6648 b2bf 3516 5cbd b778 79be
000002e0: d07b ec3e 9e5a 333f ba7b 98be f0f4 403f
000002f0: 3fbb 05bf 3326 93be 043d 42bf ffe1 c33e
00000300: 25ed eabd 4d1c 053e 7a5c 723f 5a34 473f
00000310: 9421 8b3e f8be 1abe 88bd fdbe 8555 04bf
00000320: a273 f33e c748 273f 02d9 313f 46fe 7ebe
00000330: 3eaf e6be fef8 33be 0808 ac3d 0b48 8cbe
00000340: 444f 1b3f da7e 10bf 0392 75bf 92cf e6bd
00000350: 1aca 1dbf f383 a63e 69f0 8ebe 06c6 093f
00000360: 4497 1a3e c6cc c7be 2a7d 20bf d4f0 893c
00000370: 4e60 6ebd 724a 85be 9bc8 cd3e 58a0 e8be
00000380: 4117 2cbe 6ee6 9e3d e16a 18bf 0b91 11bf
00000390: e5bd 55be afd2 04bf 93c7 fe3e 94f2 ef3e
000003a0: da74 3bbe daec 52bf 2419 16be ddf8 023f
000003b0: 6962 193f c292 e3bd a752 ba3d 3b1f d9be
000003c0: 5082 aa3e b798 973f 1719 133f 534f 573e
000003d0: 33c6 d73d eb69 223f ceb5 d2bd e514 e23d
000003e0: a0c9 713e fdb1 d53d 04a8 80be 25bc 38bf
000003f0: 9a50 153f 5156 a43e 5a36 debe ea6f 363f
-0.04351253 -0.19748752 -0.6399593 0.55230355 -0.034583952 -0.011570169 0.3180757 0.47314087
-0.5648646 0.48294264 0.543187 -0.20324194 -0.7841532 -0.26972106 -0.30772784 0.12270762
0.37193435 0.17044687 0.4527967 0.0028343361 -0.3590154 -0.06568604 -1.0675161 0.42214605
-0.09341299 -0.069437854 -0.10997638 -0.375318 0.68277496 -0.2820502 -0.015672768 0.8361239
0.74971354 0.7450527 -0.77987874 -0.19207686 -0.35469827 -0.29479206 -0.52286005 -0.079116695
-0.32214612 -0.7330021 -0.43066847 -0.1856633 -0.7238541 0.18288864 0.95684713 0.1704547
-0.034841303 -0.4150558 0.35441735 0.25676966 0.29659447 0.98120993 0.12884793 0.35707173
0.37894115 0.67127144 0.8289088 0.99703705 -0.19811635 -0.08400711 -0.34198382 -0.6799207
0.75434804 0.18477426 -0.5922257 0.49235255 -1.2675484 -0.5654948 0.5049918 0.5477254
0.5226781 0.729883 0.6808039 0.52331287 -0.81028885 -0.4150749 0.10495526 -0.43990067
-0.11431686 -0.22492257 -0.4303445 -0.3512091 -0.6180259 -0.33945826 0.23653544 0.75026685
0.28871366 -0.4576636 0.7292089 -0.33465633 -0.83447284 0.6579858 -0.50165445 -0.15195076
-0.42572215 0.4612958 0.8366915 0.089086704 -0.1885412 0.89057267 0.025182737 0.009109309
0.5513341 0.10624018 -0.4933646 -0.5304914 0.21689019 0.73718417 0.52844286 0.26453176
0.100503676 -0.56701213 -0.3371744 0.3471412 0.32126385 0.6020741 -0.022506384 -0.028986415
-0.7955741 -0.20041098 0.08848463 0.5126201 -0.044524267 0.090870865 0.7207392 0.95449257
-0.102689356 0.48333386 0.33055767 -0.25279757 0.3966244 -0.4455318 0.31531122 0.23208588
-0.7011394 -0.27903798 0.07357994 -0.19360211 0.262998 -0.0625293 0.14327258 0.116603434
-0.38119674 0.6882835 -0.09023061 -0.4262017 0.03141793 0.46777993 -0.27313963 0.5703615
-0.52606285 0.84034526 0.23414694 -0.041617677 0.82581776 0.56708604 0.22600265 -0.08965452
-0.41530883 -0.36288798 -0.09232234 0.24328963 0.2973059 0.20897138 -0.025520796 0.04228988
0.52879846 -0.4549396 0.16692477 -0.4136308 0.58623844 -0.098512344 -0.64304435 -0.23281957
0.42112762 -0.45622584 -0.31935853 -0.02089663 0.914314 -1.3928344 -0.053732116 -0.24362455
0.4618821 0.70060146 -0.29781896 0.75373745 -0.5223884 -0.2874008 -0.7587435 0.3825836
-0.11471013 0.12999077 0.9467236 0.7781426 0.27174056 -0.15111911 -0.49558663 -0.5169299
0.47549158 0.65345424 0.6947175 -0.24901685 -0.45055574 -0.17575452 0.08399969 -0.27398714
0.60667825 -0.5644356 -0.9592592 -0.1127006 -0.6163651 0.32522544 -0.27917793 0.53817785
0.15096766 -0.39023417 -0.62690985 0.016838469 -0.058197312 -0.2603336 0.40192112 -0.45434833
-0.16805746 0.07758795 -0.59538084 -0.56861943 -0.2087322 -0.5188398 0.49761638 0.4686476
-0.18306294 -0.82392657 -0.14658028 0.51160985 0.59915787 -0.11111976 0.09097796 -0.4240664
0.33302546 1.184348 0.5746016 0.21026354 0.105358504 0.6344287 -0.10288583 0.110391416
0.2361207 0.10434339 -0.25128186 -0.72162086 0.58326113 0.32097104 -0.43400842 0.7126452

network_body._body_endoder.seq_layers.0.bias f4 [128]
00000000: 0000 0000 0000 0000 0000 0000 0000 0000
00000010: 0000 0000 0000 0000 0000 0000 0000 0000
00000020: 0000 0000 0000 0000 0000 0000 0000 0000
00000030: 0000 0000 0000 0000 0000 0000 0000 0000
00000040: 0000 0000 0000 0000 0000 0000 0000 0000
00000050: 0000 0000 0000 0000 0000 0000 0000 0000
00000060: 0000 0000 0000 0000 0000 0000 0000 0000
00000070: 0000 0000 0000 0000 0000 0000 0000 0000
00000080: 0000 0000 0000 0000 0000 0000 0000 0000
00000090: 0000 0000 0000 0000 0000 0000 0000 0000
000000a0: 0000 0000 0000 0000 0000 0000 0000 0000
000000b0: 0000 0000 0000 0000 0000 0000 0000 0000
000000c0: 0000 0000 0000 0000 0000 0000 0000 0000
000000d0: 0000 0000 0000 0000 0000 0000 0000 0000
000000e0: 0000 0000 0000 0000 0000 0000 0000 0000
000000f0: 0000 0000 0000 0000 0000 0000 0000 0000
00000100: 0000 0000 0000 0000 0000 0000 0000 0000
00000110: 0000 0000 0000 0000 0000 0000 0000 0000
00000120: 0000 0000 0000 0000 0000 0000 0000 0000
00000130: 0000 0000 0000 0000 0000 0000 0000 0000
00000140: 0000 0000 0000 0000 0000 0000 0000 0000
00000150: 0000 0000 0000 0000 0000 0000 0000 0000
00000160: 0000 0000 0000 0000 0000 0000 0000 0000
00000170: 0000 0000 0000 0000 0000 0000 0000 0000
00000180: 0000 0000 0000 0000 0000 0000 0000 0000
00000190: 0000 0000 0000 0000 0000 0000 0000 0000
000001a0: 0000 0000 0000 0000 0000 0000 0000 0000
000001b0: 0000 0000 0000 0000 0000 0000 0000 0000
000001c0: 0000 0000 0000 0000 0000 0000 0000 0000
000001d0: 0000 0000 0000 0000 0000 0000 0000 0000
000001e0: 0000 0000 0000 0000 0000 0000 0000 0000
000001f0: 0000 0000 0000 0000 0000 0000 0000 0000
0.0 0.0 0.0 0.0 0.0 0.0 0.0 0.0
0.0 0.0 0.0 0.0 0.0 0.0 0.0 0.0
0.0 0.0 0.0 0.0 0.0 0.0 0.0 0.0
0.0 0.0 0.0 0.0 0.0 0.0 0.0 0.0
0.0 0.0 0.0 0.0 0.0 0.0 0.0 0.0
0.0 0.0 0.0 0.0 0.0 0.0 0.0 0.0
0.0 0.0 0.0 0.0 0.0 0.0 0.0 0.0
0.0 0.0 0.0 0.0 0.0 0.0 0.0 0.0
0.0 0.0 0.0 0.0 0.0 0.0 0.0 0.0
0.0 0.0 0.0 0.0 0.0 0.0 0.0 0.0
0.0 0.0 0.0 0.0 0.0 0.0 0.0 0.0
0.0 0.0 0.0 0.0 0.0 0.0 0.0 0.0
0.0 0.0 0.0 0.0 0.0 0.0 0.0 0.0
0.0 0.0 0.0 0.0 0.0 0.0 0.0 0.0
0.0 0.0 0.0 0.0 0.0 0.0 0.0 0.0
0.0 0.0 0.0 0.0 0.0 0.0 0.0 0.0

network_body._body_endoder.seq_layers.2.weight f4 [128, 128]
00000000: eab7 973d c559 903d 1ee7 0c3d 4372 203e
00000010: be2d 163e 6127 7d3d d49e 4c3d 18ff 613d
00000020: 3843 ec3d 4528 423e 5291 38bd b6f3 6c3c
00000030: bf7c 193d 9ec4 eabd 671b 98bc e16c c13a
00000040: c526 a8bd 33e4 eabb d0be b03d f0f0 193d
00000050: a62a 6a3d 50b5 bc3d dccf 1bbe 910d 5cbe
00000060: 8c77 9b3d e342 dc3d 600b 0c3e 0063 88bd
00000070: 1650 0dbd 678d 7e3d 6c11 a8bd 8e97 313e
00000080: 15f3 6b3d e516 95bc 6892 0c3e 25dd 78bd
00000090: 5bf0 ce3d 650f 053d 60b1 74be da09 20be
000000a0: a535 91bd eab2 79bd 28fa e8bd b3d8 943d
000000b0: b22c 1cbe 37ab 63be e66c c23d d48b c2bd
000000c0: 4fd5 dbbc 33c8 c63c 168d fe3d a7a6 343d
000000d0: c79b 75bd 98e5 b33d 3580 b9bc fb2d bbbc
000000e0: d270 1f3d aef2 2e3c d911 133d 4bed 953d
000000f0: 8fc7 ef3d 658c 363e 22af 19bb 25b0 7e3d
00000100: 27f8 08be 6b76 4ebe 5424 a2bd 4ce9 aebd
00000110: f9f0 c23d 60b9 d3bc 60ce 30bd 0e3a 603e
00000120: 69c6 813d 6c2c 9ebc 2a37 43be db82 513c
00000130: b8b5 12be 236d 183d 6860 2f3c 5a06 93bc
00000140: e383 a0bd a897 94bd 4eb5 d83d 3bbb b7bd
00000150: 48f1 0ebe b0db 2e3e f869 7cbd 13a3 2f3d
00000160: 7aef cc3d 0a9b 0a3e 5409 49bd fafa d6bb
00000170: 08bf ebbc ae6b 4dbd a39e fbbc 1277 0c3e
00000180: 8bb7 a53d a3e5 42bd 5cd8 9e3b 6453 8d3d
00000190: 455f 823d 606b 1ebe ac9a 29be e7d0 bb3c
000001a0: b23b 5b3d 1fac 7ebc ae7e 57bd 409b 8cbe
000001b0: 66ed 83bc 297d f83b 6316 c4bc f29c 0b3e
000001c0: c47c 473d b7fb bbbd c305 ccbc e03d 55bd
000001d0: 46b0 93bd f3f9 a9bd cdb0 a53c 22b9 9bbd
000001e0: 7084 583e bac3 873c 79c1 913d fd04 b6bd
000001f0: 1ac7 1abe 0ac5 04be 9519 b13d 5a97 e43b
00000200: d134 0ebe ee8e 46bc 9fca b03d e377 423d
00000210: 23b3 69bd c66e 1f3d 7e75 c0bd 4dcb 5a3b
00000220: 42fe 00be b77a 30bc c86b 833d ceb7 c9bd
00000230: 78a0 c43c 204b f2bc 5e20 5e3d fa93 363d
00000240: aa7b 9fbd 5735 5bbd 4d34 fd3d 2eb3 633d
00000250: 602e 2e3d a0b0 f93d a86d 4c3e 1b31 963d
00000260: 5533 d13d 5305 f53d e121 13bd 95da 953c
00000270: 18dd 33bc d843 35be 92fe e9bc 144d c3bd
00000280: 568c 893c a78a 86bc 7586 873d 4479 03be
00000290: 1589 3b3d 4363 78be 5719 39bc bf5d 8ebd
000002a0: 27a9 41bd ccbe c43b 29c6 32bc 0990 e13d
000002b0: ad2f b53c 2fa6 ef3c 94c7 41bb e9f1 62bb
000002c0: 43c7 c93d b98b 19be fd51 e9bc d85b 803d
000002d0: c177 c6bd aba8 0fbe ab4a 9abd 6aaf 41bd
000002e0: 8165 4cbe ca59 503d 8072 88bb 22cf 02be
000002f0: 85af a8bc 1b15 973d b81c 82bd 18a2 0dbd
00000300: 5d8f eb3d ce94 863c e0af 253d 7a11 68bd
00000310: 40c7 39bd 484f 3fbd 6388 47bc ddaf 2a3d
00000320: 9bed 363d 1398 253d 127c 3f3d 1dbf 61bd
00000330: 7bdf 23bd 6388 453c dc64 46bd 6ec6 b5bb
00000340: f7fd d9bd 7756 c7bd e626 423c a1b8 fe3d
00000350: 6ebe d13c 48c7 803d bf60 623d efd4 0b3e
00000360: 106b 073b 2217 79bc f8bb 1abd 5235 aebc
00000370: fd28 15bd 0b92 b1bd 05a6 0d3e 86d5 0b3c
00000380: 76c5 38bd f401 7e3b 371f c33c b2e2 4ebd
00000390: 4676 59bd d2fb 163e 05af dc3d 870b d7bb
000003a0: 3866 db3b 0bd6 283e 4620 5bbc 9b1a 783d
000003b0: a7c8 c93b fa3f f9bd b72b b63c 89cc 983e
000003c0: e485 98bd 1911 22bc 05de 23be 5fc8 38bd
000003d0: f810 97bd d342 81bb 04bf 2d3d be03 403c
000003e0: 67c2 d1bd ff02 663c 9565 e33c b059 0cbd
000003f0: 2a5b 93bd 4426 c8bc 7c34 983d ccef 39bd
0.07408126 0.07048372 0.034400098 0.15668587 0.14665887 0.061805133 0.049956158 0.055174917
0.115362585 0.18960674 -0.045060463 0.014462402 0.037472483 -0.11463283 -0.018567754 0.001475718
-0.0821052 -0.0071683167 0.086301446 0.03758329 0.05716958 0.0921427 -0.15216011 -0.2148955
0.07591161 0.10754945 0.13676214 -0.06659508 -0.034500204 0.06214657 -0.08206448 0.1734297
0.057604868 -0.018199394 0.13727725 -0.060757775 0.10104438 0.032485384 -0.23895788 -0.15628758
-0.0709031 -0.06096164 -0.113758385 0.072678946 -0.15251425 -0.22233282 0.09493427 -0.09499326
-0.026835112 0.024265384 0.12429254 0.044104245 -0.059963014 0.08784026 -0.022644142 -0.022849074
0.038925953 0.0106779765 0.035905693 0.07320651 0.11707985 0.17826994 -0.0023450335 0.062179703
-0.13375913 -0.2016236 -0.07917085 -0.085405916 0.09518618 -0.02584523 -0.043165565 0.21897146
0.06336672 -0.019308291 -0.19064012 0.012787546 -0.14327133 0.037213456 0.010704137 -0.017947365
-0.078376554 -0.07255489 0.10581456 -0.08971258 -0.13959229 0.17075992 -0.061624497 0.04288013
0.10006614 0.13535705 -0.04908116 -0.0065606805 -0.028777614 -0.05015152 -0.030715292 0.13717297
0.08091649 -0.04758228 0.0048475694 0.06900671 0.063658275 -0.15470648 -0.16562909 0.02292676
0.053523727 -0.015543967 -0.052611046 -0.27462196 -0.016104411 0.0075832796 -0.023936456 0.13634089
0.04870297 -0.0917887 -0.024905091 -0.05206096 -0.07211356 -0.08299627 0.020225907 -0.07603671
0.21144271 0.016572822 0.0711698 -0.0888767 -0.15115014 -0.1296579 0.086474575 0.0069760503
-0.13887335 -0.012119038 0.08632397 0.047477614 -0.057055604 0.038924 -0.0939741 0.0033385337
-0.12596992 -0.010771445 0.06417042 -0.09849511 0.024002299 -0.029576838 0.054230087 0.044574715
-0.07787259 -0.053517666 0.12363491 0.0555908 0.042524695 0.12191892 0.19963706 0.07333585
0.10214869 0.11963906 -0.03592098 0.018292705 -0.010978006 -0.17701662 -0.028563771 -0.09536186
0.01679055 -0.016423536 0.066174425 -0.12839228 0.04578503 -0.24256615 -0.011297545 -0.069514744
-0.047280457 0.00600419 -0.010911503 0.11013801 0.02211746 0.029254047 -0.002956842 -0.0034629053
0.09852459 -0.14994706 -0.028481478 0.06267518 -0.0969081 -0.14029185 -0.07533773 -0.04728643
-0.19960596 0.05086688 -0.00416404 -0.12774327 -0.020591507 0.073770724 -0.06353134 -0.034578413
0.11501954 0.016428377 0.04045093 -0.056657292 -0.045356035 -0.046706468 -0.012178513 0.041671623
0.044660192 0.040428232 0.046749182 -0.0551139 -0.04000805 0.012056443 -0.04843603 -0.0055473363
-0.10644143 -0.09733289 0.011850094 0.12437559 0.0256035 0.0628801 0.055268046 0.13655446
0.002066318 -0.015203269 -0.037776917 -0.02126566 -0.036416043 -0.086704336 0.13832863 0.008534795
-0.04511019 0.0038758488 0.023818595 -0.050509162 -0.05309131 0.147445 0.1077557 -0.0065626535
0.006695535 0.16487901 -0.013374394 0.060572248 0.006157953 -0.12170406 0.022237642 0.29843548
-0.074474126 -0.009891772 -0.16002662 -0.045112964 -0.073762834 -0.0039447336 0.042418495 0.011719642
-0.102421574 0.0140388 0.027758399 -0.03426522 -0.071951225 -0.024432309 0.074318856 -0.045394704

network_body._body_endoder.seq_layers.2.bias f4 [128]
00000000: 0000 0000 0000 0000 0000 0000 0000 0000
00000010: 0000 0000 0000 0000 0000 0000 0000 0000
00000020: 0000 0000 0000 0000 0000 0000 0000 0000
00000030: 0000 0000 0000 0000 0000 0000 0000 0000
00000040: 0000 0000 0000 0000 0000 0000 0000 0000
00000050: 0000 0000 0000 0000 0000 0000 0000 0000
00000060: 0000 0000 0000 0000 0000 0000 0000 0000
00000070: 0000 0000 0000 0000 0000 0000 0000 0000
00000080: 0000 0000 0000 0000 0000 0000 0000 0000
00000090: 0000 0000 0000 0000 0000 0000 0000 0000
000000a0: 0000 0000 0000 0000 0000 0000 0000 0000
000000b0: 0000 0000 0000 0000 0000 0000 0000 0000
000000c0: 0000 0000 0000 0000 0000 0000 0000 0000
000000d0: 0000 0000 0000 0000 0000 0000 0000 0000
000000e0: 0000 0000 0000 0000 0000 0000 0000 0000
000000f0: 0000 0000 0000 0000 0000 0000 0000 0000
00000100: 0000 0000 0000 0000 0000 0000 0000 0000
00000110: 0000 0000 0000 0000 0000 0000 0000 0000
00000120: 0000 0000 0000 0000 0000 0000 0000 0000
00000130: 0000 0000 0000 0000 0000 0000 0000 0000
00000140: 0000 0000 0000 0000 0000 0000 0000 0000
00000150: 0000 0000 0000 0000 0000 0000 0000 0000
00000160: 0000 0000 0000 0000 0000 0000 0000 0000
00000170: 0000 0000 0000 0000 0000 0000 0000 0000
00000180: 0000 0000 0000 0000 0000 0000 0000 0000
00000190: 0000 0000 0000 0000 0000 0000 0000 0000
000001a0: 0000 0000 0000 0000 0000 0000 0000 0000
000001b0: 0000 0000 0000 0000 0000 0000 0000 0000
000001c0: 0000 0000 0000 0000 0000 0000 0000 0000
000001d0: 0000 0000 0000 0000 0000 0000 0000 0000
000001e0: 0000 0000 0000 0000 0000 0000 0000 0000
000001f0: 0000 0000 0000 0000 0000 0000 0000 0000
0.0 0.0 0.0 0.0 0.0 0.0 0.0 0.0
0.0 0.0 0.0 0.0 0.0 0.0 0.0 0.0
0.0 0.0 0.0 0.0 0.0 0.0 0.0 0.0
0.0 0.0 0.0 0.0 0.0 0.0 0.0 0.0
0.0 0.0 0.0 0.0 0.0 0.0 0.0 0.0
0.0 0.0 0.0 0.0 0.0 0.0 0.0 0.0
0.0 0.0 0.0 0.0 0.0 0.0 0.0 0.0
0.0 0.0 0.0 0.0 0.0 0.0 0.0 0.0
0.0 0.0 0.0 0.0 0.0 0.0 0.0 0.0
0.0 0.0 0.0 0.0 0.0 0.0 0.0 0.0
0.0 0.0 0.0 0.0 0.0 0.0 0.0 0.0
0.0 0.0 0.0 0.0 0.0 0.0 0.0 0.0
0.0 0.0 0.0 0.0 0.0 0.0 0.0 0.0
0.0 0.0 0.0 0.0 0.0 0.0 0.0 0.0
0.0 0.0 0.0 0.0 0.0 0.0 0.0 0.0
0.0 0.0 0.0 0.0 0.0 0.0 0.0 0.0

action_model._discrete_distribution.branches.0.weight f4 [3, 128]
00000000: 4392 8539 376b cf3a bdd7 63bc 225c 46bc
00000010: cf84 47bc fce5 a0bb fd49 213c 4710 533c
00000020: 7f0d a43a 159b 51ba f8d2 55bb 1f7b e43b
00000030: 02db 5abc 0c50 80ba a385 033b 3d28 acbb
00000040: 8ba3 953a 3f46 1f3b 5773 9d3b 3d9d e83b
00000050: 17d1 9abc 0b5f c93b 4724 fbbb 1fd2 ea3b
00000060: 5fac f339 8d2b 373c baea bfbb f371 f13b
00000070: 912b 0c3c 6c09 88bb e3d9 363c 4de7 573b
00000080: 4f25 6bbb f8aa 5b3b 86cd 2dbc a0aa 89bc
00000090: c329 bdbb a89c e83b 137b 8d3a 2fc4 ea3b
000000a0: 2480 993b f779 213b 737c 383c 3f85 1aba
000000b0: 8806 7c3b 13c3 e8bb 2bea 5cbc abaa 9c3c
000000c0: 5208 223c 2f5e 823b 41af 223a 83b2 c43b
000000d0: 2757 823b e3b1 2d3c 8b2d 42bb e045 143b
000000e0: e8ff cb3a 0003 47bc 2533 be3c 97a1 08bb
000000f0: 8b7e 823b 9fd9 333c 5811 fe39 0b66 2e3c
00000100: 4547 d13a b7ab c93b c980 b0bb 9f56 273b
00000110: aedc 87ba a943 4b3c c7ca 763b e5c0 9e3b
00000120: ee74 023c 9a1a fc3b f038 9639 e140 1cbc
00000130: 7428 093c af30 99bc a0db ac3b efdb 49bc
00000140: 4aa9 3c3c 3fc3 683b 1ed5 8dba 1a17 76bc
00000150: 77c7 b5bb 03f6 0c3c cffb 39bc dcb5 c33a
00000160: 4d97 51bc 6ea9 32bc 9b89 953c cff2 2cbc
00000170: ef45 c03a 2db5 bc39 f36d a13b 4a0b abbc
00000180: 18f2 5a3c 8a56 663c c70f c7ba a00e 02bb
00000190: 2b6e b5bb f674 c6bb 6b1a 85bc a786 813b
000001a0: d2b9 133c 6fe2 5f3c fc30 24bc 0a26 e83b
000001b0: 3f33 09bc 5390 c3bb 8537 65bb e2a4 dd3c
000001c0: d5e9 623b e297 15bc fb43 91bb 8984 ba3b
000001d0: cb6e d13b 8ddf 033c 25d3 79bc 1db0 71bc
000001e0: 1a53 fbbb 37b0 a33b b392 463c ab0f 0abc
000001f0: b0a3 2f3b c55c d0bc ac46 33bc 448a 8f3c
00000200: f892 633c f08c c0bb 9fde 633a 09e5 2d3c
00000210: 299f 27bb f237 8bba 4320 e13b 0b28 603c
00000220: 26c8 9b3b 2a51 993b ac19 19bb 6d35 3cbb
00000230: 50ac 573b 9dab 963a 9db3 253b b095 503c
00000240: 8b3e 23bc 27fc 763b 47ce 853c a3af 553b
00000250: eb6f b93a 9ffd 993b afff 19bc ef3c cabb
00000260: 2353 573b 3a0a 823b eb48 7dba 5ae4 a23b
00000270: a21f 503a 7638 84bb 6bc0 5c3b a0c4 e43a
00000280: f525 5e3b 8037 273b 01ce 49bc f53f f0bb
00000290: d35b 39bc 5b2e 03bc 7833 963c cbbd 74bb
000002a0: 520f ba3b c9e6 42bb 6bda 45bc 3bec 4d3c
000002b0: d53d f1bb f174 07bc 8fe6 06bb 9743 833b
000002c0: 9c81 28bc 013e 0a3c 32e1 c6bb 5981 a53b
000002d0: 9246 5ebc 1f9a 573b c686 a4bb 77a9 66bc
000002e0: 4b6d 58ba 8ace 5cbb e074 ecba 43c7 38bc
000002f0: 61ce 93bc c25d de3b a86c 1d3b 737e b43a
00000300: 40b4 71bb bf38 063b 4fe6 5a3b 38ee 773c
00000310: 7bf2 323c d303 cd3b 893e 3cbb 93ac 713c
00000320: 0795 c9b9 4b6d ccbb e9a4 91bb a770 833c
00000330: 8a77 a8bc b5e5 673c b22f 36bc 2d09 bebb
00000340: 2268 98bb 6865 623b 9d0c 1b3c afab 9c3c
00000350: 8f21 683c db6a 88bb eeba 4bbc 2d33 78bc
00000360: 4dea f2bb 2911 95bc 507f 9bbc e86f 4bbb
00000370: 9d59 4d3c 393e 48bb d39b a43c 0b82 30bc
00000380: 457b 8e3a 7be7 153c f338 d53b 6340 c2bb
00000390: 551b b43c 5af2 8cbb fa53 9dbc 7b7b 913b
000003a0: 56aa 483c 4f10 a63b 1db5 a33c 32f5 65bc
000003b0: 824f 6cbc 6388 18bc 9fc7 f43b d00b ceb8
000003c0: c56f d23c f4fe 27bc 50e5 ec3b df3c 19bc
000003d0: f039 cd3a b442 17bb 973e 663c 4436 9abb
000003e0: 5029 003c e200 2e39 1435 c73b 92d9 f5bb
000003f0: 053c 9c3a 9385 b73b 739c 883c a77a 2cb7
0.0002547671 0.0015824799 -0.0139064165 -0.012106927 -0.01217766 -0.004910229 0.0098443 0.012882299
0.0012516229 -0.00079958263 -0.0032626968 0.006972685 -0.01335788 -0.0009789481 0.0020068667 -0.00525382
0.0011416537 0.0024303345 0.0048050093 0.0070988224 -0.01889853 0.006145363 -0.0076642367 0.0071661617
0.00046476998 0.011179817 -0.005856839 0.00736832 0.008555309 -0.004151514 0.011160347 0.0032944262
-0.0035880392 0.0033518653 -0.010608083 -0.016804993 -0.0057728007 0.007098753 0.0010794125 0.0071645
0.004684465 0.0024639347 0.01126014 -0.0005894489 0.0038456041 -0.007103333 -0.013483564 0.01912435
0.009889679 0.0039785127 0.00062059244 0.0060027256 0.0039776745 0.0106014935 -0.0029629197 0.0022624657
0.0015563937 -0.012146711 0.023217747 -0.0020848268 0.0039823703 0.010977178 0.00048459577 0.010644446
0.0015966675 0.006154503 -0.005386446 0.0025533808 -0.001036545 0.012406268 0.0037657486 0.004844772
0.0079624485 0.007693601 0.0002865265 -0.009536953 0.008371461 -0.018699972 0.005275205 -0.012320503
0.011514971 0.0035516766 -0.001082096 -0.015020156 -0.0055474597 0.008603576 -0.01135154 0.0014931518
-0.012792421 -0.010904653 0.018254092 -0.010555937 0.0014669279 0.0003599314 0.004926437 -0.020879406
0.013363384 0.014058718 -0.0015187197 -0.0019845143 -0.0055368147 -0.0060564233 -0.016247949 0.0039528194
0.009016471 0.013664826 -0.010021444 0.0070846127 -0.008374034 -0.0059681325 -0.003497572 0.027056161
0.0034624238 -0.00913045 -0.0044331527 0.005692069 0.0063913814 0.008048904 -0.015248095 -0.014751461
-0.0076698186 0.0049953717 0.012119937 -0.008426587 0.0026800446 -0.025434861 -0.010942142 0.017521985
0.013890021 -0.005876176 0.0008692536 0.010613688 -0.0025577045 -0.0010621531 0.006870301 0.013681422
0.004754084 0.004678865 -0.002336125 -0.0028718368 0.0032909103 0.0011495237 0.002528406 0.012731001
-0.009963642 0.0037686916 0.016333712 0.0032605908 0.0014147734 0.0046994234 -0.009399339 -0.0061718146
0.003285595 0.0039685043 -0.00096620497 0.0049710693 0.0007939284 -0.004035051 0.0033684026 0.0017453618
0.0033897136 0.0025515258 -0.012317182 -0.007331843 -0.0113133965 -0.0080066575 0.01833509 -0.003734457
0.005678096 -0.002973961 -0.012076001 0.012568529 -0.0073621073 -0.008267627 -0.00205842 0.00400586
-0.0102848075 0.008437634 -0.006069326 0.00505082 -0.01356663 0.003289826 -0.005020949 -0.0140784895
-0.0008256032 -0.0033692443 -0.0018040203 -0.011277976 -0.018042745 0.006786079 0.0024021063 0.0013770595
-0.003688112 0.00204806 0.0033401435 0.015132479 0.01092207 0.0062565594 -0.0028723797 0.014750618
-0.00038448742 -0.0062386147 -0.0044447077 0.016044928 -0.020564813 0.0141538875 -0.01111977 -0.0057994337
-0.0046510855 0.0034545306 0.009463456 0.019124834 0.014168157 -0.004163129 -0.012434704 -0.01514892
-0.0074131847 -0.01819666 -0.018981606 -0.0031042043 0.0125335725 -0.0030554666 0.020093834 -0.010773192
0.0010870477 0.0091494275 0.006507033 -0.0059280857 0.02198569 -0.0043013515 -0.019205082 0.004439769
0.0122476425 0.005067862 0.019983822 -0.01403551 -0.014423253 -0.009309861 0.0074700858 -9.825046e-05
0.025688061 -0.010253657 0.0072294846 -0.009352892 0.0015657526 -0.002308053 0.0140530085 -0.004706176
0.00782235 0.00016594262 0.0060793255 -0.007502743 0.0011919743 0.00560064 0.016676163 -1.0280556e-05

action_model._discrete_distribution.branches.0.bias f4 [3]
00000000: 0000 0000 0000 0000 0000 0000
0.0 0.0 0.0

network_body._body_endoder.seq_layers.0.weight f4 [128, 4]
00000000: 38ae 34bf 1771 b13d a56b 13be 3c9c 99bc
00000010: c39c 70bf edb6 173d c42d b9bd 5a52 3ebf
00000020: 16dc 8ebf 6652 8fbe 1e1e 1fbf 51b5 28bf
00000030: c2b9 afbe 2523 083f 43b6 63be 63b0 1fbf
00000040: d4e6 223f c864 5f3b 2cd0 853e 3133 423e
00000050: 7dfa de3e f204 0c3f b1cc 01bd 40bf d8be
00000060: 29b7 74be 45d7 a5be 75e9 fbbd 44ed c3be
00000070: 8593 b7be 135a 5ebf 870e 91bd 528f d3bd
00000080: 731f 34be 8485 08bf 1093 fc3e e426 3c3e
00000090: 643d 3dbe 81b9 e9be 2120 6e3e 8855 5e3f
000000a0: 1ae3 01bf b7c3 bebe 6f7b 5bbf 1155 15bf
000000b0: bc2a a6be 050d 7cbd ee6d 7ebf 2340 44bf
000000c0: e7a7 46be 1a27 c9bd 371c 4cbe 239b 723e
000000d0: 7020 7abe 0037 6b3f acd3 04bf 106d 87be
000000e0: 6405 87bf 40e5 ec3e 0282 f43e 401a e73b
000000f0: 0931 85be 573a 72bf e05d 873a 9e3d 08be
00000100: 9fab edbe 303d 143d cfc7 59be b9d7 fabe
00000110: 3450 423f 79a9 09bf 97eb a43f 6300 b9bd
00000120: a4f3 0b3f 3332 793e ab94 0f3e 454c 0b3e
00000130: d5ca acbe 9ea7 4b3e 59eb 6a3e fa1c 183f
00000140: fa4a bd3d 7c90 89be 555f ef3e dca6 293f
00000150: e56f 1f3f 96c2 25bf 261d 88be 8382 75be
00000160: e73c 9bbe 2bd8 81be f948 0ebf 86f4 8a3b
00000170: 7a4b e63e 491e b8be 7bcc 2fbf 5ba4 583f
00000180: 1ac3 d6be 6962 8abf 5433 adbd 5b8a a7bc
00000190: dbc2 8dbe 8083 a7be 8df3 c83e 9daa c0be
000001a0: edbf 56bf 9df0 09be 4122 6ebf fe3a a93e
000001b0: 39af ad3d d623 dabe 12ac c1bb 3a1b 88bd
000001c0: 3180 a8bf de97 adbe 2748 00bf 7afc a43f
000001d0: 6e76 113f c864 4ebe c1b2 17bd 2047 34bd
000001e0: dac6 f9be c1d7 0ebd 6111 d73e 161f 873f
000001f0: 1c00 3c3f 6c42 7a3f 7516 62bf 514e 19be
00000200: 7b4b 1c3f 99e1 b53e ecbe b4be c820 09be
00000210: cc2a 17bf bd18 17bf 8fe4 183f 8310 0a3f
00000220: 5368 0cbf efc7 14be 1017 71be 9b8b ccbe
00000230: 80d1 8bbf b556 3cbe cdd8 b8be 905a 333f
00000240: c5d2 42bf 7103 1abe f0be 933c ff13 2dbe
00000250: 79a1 d6be e572 84bf faaa 3c3f 139e 073f
00000260: 04f6 623f 2335 d0be 1361 fabe 8bdd dbbe
00000270: 7e0f dfbe f40b f6bd 3722 dbbe 790d 293f
00000280: 04f5 8c3e eb27 1ebf 4680 86be ccf3 83be
00000290: fe01 7f3c 2fea 49be 5d90 263e 3ba8 d9be
000002a0: a139 583f cd23 40bf 80c5 40bc 6954 0bbe
000002b0: a8f5 fd3e bc05 36bf 587a 483c 4b1f 843f
000002c0: ab17 8dbf 5243 8fbe 62e3 123c 46b6 12be
000002d0: 54a4 263e fbe4 b7be 8167 933e b498 85bf
000002e0: 1b74 c93e f5e9 203e 4fdb 373f 1f98 443e
000002f0: 7155 0e3f e625 013f 261b 0f3f bebc 163d
00000300: dabe 11bc e131 8c3e 11f5 c2be 6a46 db3e
00000310: a74a 0abe 9514 9dbf 07e4 9dbe 7743 033f
00000320: 55f4 343e 9716 393e c636 c93d e2e9 e13e
00000330: 439e d23e bc92 02be 4d08 a1bb 17a6 a33e
00000340: ff6f 31bf d352 aa3f fb18 9bbf 0ea5 a83e
00000350: 64e2 c1be ad7d 433e 9c5c 9d3e 219f a1bd
00000360: 32f5 cdbe 739a 7bbd f5cd 17bf a8f0 773e
00000370: 1d9f 24bd 35c2 41bd ab4d 5bbf 24c5 abbe
00000380: 8952 393e c514 2d3f 988a 793f 7928 91be
00000390: 2fc1 cd3b dfc4 f33d 1f4a a6be a4bb 32be
000003a0: 23fd 9dbe dca1 0bbf d2e9 3a3f 2b54 083f
000003b0: 1992 b3be 3cb0 a4be 58d8 4bbe a162 913e
000003c0: d655 bcbe 983a e8be e2c5 63be fc05 9f3e
000003d0: 61da d73e 5c64 0abf 2b58 c9be c6b3 aa3e
000003e0: ac1c 54bd d431 873e 7eb0 44be ba66 22bf
000003f0: a2f5 8dbe 2c0d 30bf abe2 163f f93c 69bf
-0.70578337 0.08664148 -0.14396532 -0.018751256 -0.939892 0.037039686 -0.09041932 -0.7434441
-1.1160915 -0.27992553 -0.6215533 -0.65901667 -0.3432141 0.53178626 -0.22237496 -0.6237852
0.63633466 0.003408717 0.26135385 0.1896484 0.43550482 0.54695046 -0.03168935 -0.42333412
-0.23897995 -0.323908 -0.12300388 -0.38266957 -0.35854736 -0.8685619 -0.07082849 -0.103300706
-0.17590122 -0.5332873 0.4933095 0.1837421 -0.1848045 -0.4564934 0.23254444 0.8684926
-0.50737154 -0.37258694 -0.8573522 -0.58332926 -0.3245448 -0.061535854 -0.9938649 -0.76660365
-0.19399987 -0.09821911 -0.19932638 0.23691992 -0.24426436 0.918808 -0.51885486 -0.26450396
-1.054852 0.46268654 0.47755438 0.00705269 -0.26013973 -0.9462027 0.001032766 -0.13304755
-0.4642 0.036191165 -0.21267627 -0.48992708 0.7590363 -0.5377422 1.2884396 -0.09033277
0.5466864 0.24335556 0.14021556 0.13603313 -0.337485 0.1988816 0.2294134 0.59419215
0.09242816 -0.26868045 0.4675242 0.6627023 0.6228011 -0.6475004 -0.26584738 -0.23975568
-0.30319902 -0.25360236 -0.555801 0.0042405752 0.4497946 -0.35960606 -0.6867139 0.84625787
-0.41945726 -1.0811282 -0.08457056 -0.020451715 -0.27687725 -0.32717514 0.39248314 -0.37630168
-0.83886606 -0.13470693 -0.9302102 0.3305282 0.08480687 -0.42605466 -0.005910405 -0.06645818
-1.3164121 -0.33904928 -0.50110096 1.288955 0.56821334 -0.20155632 -0.037035707 -0.044013143
-0.48784524 -0.034873728 0.42005447 1.0556362 0.73437667 0.977576 -0.88315517 -0.14971282
0.61052674 0.3552368 -0.35301912 -0.13391411 -0.5904968 -0.5902212 0.5972375 0.53931445
-0.54846686 -0.14529394 -0.23543954 -0.3995026 -1.0923309 -0.18392451 -0.36102906 0.7006006
-0.7610286 -0.15040375 0.018035382 -0.16902159 -0.4192007 -1.0347563 0.7369839 0.5297558
0.8865664 -0.4066554 -0.48902187 -0.4294246 -0.43566507 -0.12013999 -0.4279954 0.6603618
0.27530682 -0.6177966 -0.2626974 -0.2577194 0.01556444 -0.1971824 0.16266008 -0.42511162
0.84462935 -0.7505463 -0.011765838 -0.13606419 0.49601483 -0.711025 0.0122362 1.032205
-1.1022848 -0.2798105 0.008965345 -0.14327344 0.16273624 -0.35916886 0.28789905 -1.0437226
0.39346394 0.15714248 0.71819013 0.19198655 0.55599123 0.50448453 0.559008 0.036801092
-0.0088956 0.27381805 -0.38077596 0.4282716 -0.1350504 -1.2271906 -0.30838034 0.5127482
0.1767133 0.18075024 0.098249 0.4412375 0.4113637 -0.12751287 -0.0049143196 0.31962654
-0.6931152 1.3306526 -1.2116998 0.32938427 -0.37868035 0.1909091 0.30734718 -0.078916796
-0.40226132 -0.06142659 -0.5929864 0.24212897 -0.040190805 -0.04730435 -0.85665387 -0.33548844
0.18097891 0.67609817 0.974771 -0.2835119 0.006279133 0.119027846 -0.32478425 -0.17454392
-0.3085719 -0.5454385 0.7301303 0.5325343 -0.350724 -0.32165706 -0.19906747 0.2839556
-0.36784238 -0.45357203 -0.22243455 0.31059253 0.42158797 -0.54059386 -0.3932508 0.3334028
-0.051785156 0.26405203 -0.19207951 -0.63438 -0.27726465 -0.687701 0.5893962 -0.9110866

network_body._body_endoder.seq_layers.0.bias f4 [128]
00000000: 0000 0000 0000 0000 0000 0000 0000 0000
00000010: 0000 0000 0000 0000 0000 0000 0000 0000
00000020: 0000 0000 0000 0000 0000 0000 0000 0000
00000030: 0000 0000 0000 0000 0000 0000 0000 0000
00000040: 0000 0000 0000 0000 0000 0000 0000 0000
00000050: 0000 0000 0000 0000 0000 0000 0000 0000
00000060: 0000 0000 0000 0000 0000 0000 0000 0000
00000070: 0000 0000 0000 0000 0000 0000 0000 0000
00000080: 0000 0000 0000 0000 0000 0000 0000 0000
00000090: 0000 0000 0000 0000 0000 0000 0000 0000
000000a0: 0000 0000 0000 0000 0000 0000 0000 0000
000000b0: 0000 0000 0000 0000 0000 0000 0000 0000
000000c0: 0000 0000 0000 0000 0000 0000 0000 0000
000000d0: 0000 0000 0000 0000 0000 0000 0000 0000
000000e0: 0000 0000 0000 0000 0000 0000 0000 0000
000000f0: 0000 0000 0000 0000 0000 0000 0000 0000
00000100: 0000 0000 0000 0000 0000 0000 0000 0000
00000110: 0000 0000 0000 0000 0000 0000 0000 0000
00000120: 0000 0000 0000 0000 0000 0000 0000 0000
00000130: 0000 0000 0000 0000 0000 0000 0000 0000
00000140: 0000 0000 0000 0000 0000 0000 0000 0000
00000150: 0000 0000 0000 0000 0000 0000 0000 0000
00000160: 0000 0000 0000 0000 0000 0000 0000 0000
00000170: 0000 0000 0000 0000 0000 0000 0000 0000
00000180: 0000 0000 0000 0000 0000 0000 0000 0000
00000190: 0000 0000 0000 0000 0000 0000 0000 0000
000001a0: 0000 0000 0000 0000 0000 0000 0000 0000
000001b0: 0000 0000 0000 0000 0000 0000 0000 0000
000001c0: 0000 0000 0000 0000 0000 0000 0000 0000
000001d0: 0000 0000 0000 0000 0000 0000 0000 0000
000001e0: 0000 0000 0000 0000 0000 0000 0000 0000
000001f0: 0000 0000 0000 0000 0000 0000 0000 0000
0.0 0.0 0.0 0.0 0.0 0.0 0.0 0.0
0.0 0.0 0.0 0.0 0.0 0.0 0.0 0.0
0.0 0.0 0.0 0.0 0.0 0.0 0.0 0.0
0.0 0.0 0.0 0.0 0.0 0.0 0.0 0.0
0.0 0.0 0.0 0.0 0.0 0.0 0.0 0.0
0.0 0.0 0.0 0.0 0.0 0.0 0.0 0.0
0.0 0.0 0.0 0.0 0.0 0.0 0.0 0.0
0.0 0.0 0.0 0.0 0.0 0.0 0.0 0.0
0.0 0.0 0.0 0.0 0.0 0.0 0.0 0.0
0.0 0.0 0.0 0.0 0.0 0.0 0.0 0.0
0.0 0.0 0.0 0.0 0.0 0.0 0.0 0.0
0.0 0.0 0.0 0.0 0.0 0.0 0.0 0.0
0.0 0.0 0.0 0.0 0.0 0.0 0.0 0.0
0.0 0.0 0.0 0.0 0.0 0.0 0.0 0.0
0.0 0.0 0.0 0.0 0.0 0.0 0.0 0.0
0.0 0.0 0.0 0.0 0.0 0.0 0.0 0.0

network_body._body_endoder.seq_layers.2.weight f4 [128, 128]
00000000: 456c 93bd 8bf1 9fbc 438d 533d 6b7e 133e
00000010: e83f 8f3d aeec 703d 29c4 cb3d 5198 29be
00000020: bfee 9cbd 50b2 29be 45c4 42bd ef03 c83c
00000030: 9f10 f13c 55f7 1a3d 096c 13be 3d60 02be
00000040: 8adc 6d3d 72dc 493d d60e 8c3d a22f eabd
00000050: 0af9 57bc 0869 dbbd 7d34 c33c 08fd e63c
00000060: bd89 62bd 500e d7bb eee2 8b3d 29a7 a4bd
00000070: 4bfe 71bd 22ce 343e 6281 1bbd 8f1d 8cbc
00000080: 011f 263d 1e77 3cbc b029 febc de19 24bc
00000090: 2d54 9c3d 72ec f93d 04dc 95ba 63b6 943d
000000a0: 60c7 853c f665 2f3e 205c 223d 1744 d0bb
000000b0: d3e8 c6bc 1ee9 573d dc61 3bbe 34ec c33c
000000c0: 3ba0 393d 3162 813d 2f7f a23d 2618 cbbb
000000d0: 5fd6 6b3d 75af 1ebe 140d c13d acb7 393d
000000e0: d585 8e3d cebf 823d 2cba b7bd 563b 47be
000000f0: d810 e7bc be48 8cbb cde5 c0bd cb5b 523d
00000100: ed16 d03d 055e a43c 46a8 ecbc 447d 85bd
00000110: 63f2 a83c b757 b8bd 5601 4b3d 35c2 f7bc
00000120: 3fb6 0cbd 6150 72bc dd34 0e3c 947c 5b3b
00000130: 916d 8c3c bb40 b3bc a6a8 c1bd a5de 763d
00000140: cd75 773e 9b07 dc3c 97f7 573c 7240 253e
00000150: 449a a73c 2004 683d 2dde 773d d0ad 85bd
00000160: 67e1 b23c 7340 83bd a16c 9dbb 26ec 55bd
00000170: 9cdd a8bd eecc e1bc 3c59 0d3d bc21 0bbe
00000180: c5aa 9dbb 3618 433e 78c6 98bd 11b2 2f3b
00000190: dc54 c0bb 56ae 49be 61e4 893d bc1c e33c
000001a0: 173b 10bd a2d9 303c 88d8 583c ce5c 073c
000001b0: 8434 6abe 4b3d 0b3e 97bb 3e3e 7738 38be
000001c0: ac67 d63d 5f23 2b3d 8a91 0f3d fdf6 d9bd
000001d0: 7bcf ccbd c0cf e2bd c620 953d e865 613d
000001e0: ab1d d3bd 0006 d0ba 95f3 f1bc 432f d53c
000001f0: b04a 49be f39e 143e 57fb ce3d 0797 34bd
00000200: 83f6 23be de1e e83b c6e7 193a 6c48 6f3c
00000210: 408f b3bd 458e 793c 7e68 8b3d 8fc7 bdbd
00000220: 5a5a 323c 8185 56bd ca65 45bd 6050 d13c
00000230: fff9 61bc 4aef 703c 3dbf b53d 79bf 96bd
00000240: a7b8 1b3d b069 d8bd 17b0 1fbe 066c 653d
00000250: e444 58bd 857a 9dbd 2e6c 16be 6846 1dbc
00000260: 05c4 4dbb e276 e6bd 30b5 c63d 6146 96bd
00000270: fb13 c2bc fedd 883d 5a67 0f3d d041 01be
00000280: a801 57be 7e89 33bb 7e42 393d 449b c9bc
00000290: 66cb 5d3d b8ef 0ebe 324b b1bd cf39 803b
000002a0: 2bc8 d73d 3b86 d63d e012 42be 4fe5 c1bc
000002b0: 774c 54be 89e4 113d 0007 36bd 8baf 5dbd
000002c0: 61b1 4d3d 2fbf 863e d188 553d 5c93 b1bd
000002d0: a091 363d f980 ad39 9e9d 493c 2700 6b3d
000002e0: 3ee7 a53d 0f92 9cbc 7e33 a43d b53d 0e3e
000002f0: 468a eabd 359b d83b 84d7 17bd 9836 47bd
00000300: d1f2 073c fe9c a83d 9fa0 583d e273 e2bb
00000310: 5986 283d 7404 8f3b 36f7 a7bc 2a4a 1d3b
00000320: 8d42 db3c cb45 193e 8c8b 8e3d 6832 dabd
00000330: 8b18 b936 68cf 133e 0ae2 6c3d f592 8cbd
00000340: ee46 ddbd 6153 103e 7973 1b3e a082 1cbb
00000350: 421b 5d3d a74a bcbd ff6b e93d eb3b d3bd
00000360: 7764 0b3e e0fe 0e3d 5a84 8d3b e5b4 9b3d
00000370: 8633 69bc b66f 833e 5202 9dbd 9c3f 0b3d
00000380: cb50 2c3e a3b5 0f3e 89af af3d 29bf adbd
00000390: 6700 0e3e 73d7 7d3d 914a 36be 79c7 573d
000003a0: ca89 4fbd 7350 443c 72e1 1ebd 2766 d53d
000003b0: 1391 043d d65f 2e3d acc5 e3bc e0a1 8d3c
000003c0: 242a fcbd 202e 22be c9fd 2d3d 761b bbbc
000003d0: bcef 1e3d 81a5 24bd 4876 bfbd 44ea 69bc
000003e0: e78a db3d 4d53 db3d 440e 033e 35ec 523d
000003f0: 7f4a d5bd 78db 77bd d79d 793e 6049 d0bd
-0.07198385 -0.019524356 0.05164839 0.14403693 0.06994611 0.058819465 0.09949524 -0.1656201
-0.07662725 -0.16571927 -0.04755046 0.024415938 0.02942687 0.03783353 -0.14396681 -0.12732024
0.05807165 0.0492825 0.06838767 -0.114348665 -0.013181934 -0.107133925 0.02382874 0.028196827
-0.05530714 -0.0065629855 0.06830393 -0.08039696 -0.059080403 0.17656758 -0.037965186 -0.017103938
0.04055691 -0.011503009 -0.031025738 -0.010015933 0.07633243 0.122033015 -0.0011433368 0.0726135
0.016330421 0.17128739 0.03963864 -0.006355773 -0.024280941 0.052712552 -0.18299049 0.023916341
0.045318823 0.06317557 0.079344146 -0.006197947 0.057577487 -0.15496619 0.094263226 0.04534118
0.0695912 0.0638424 -0.08971056 -0.19456229 -0.028206274 -0.0042811325 -0.09418831 0.05135707
0.10160623 0.020064363 -0.028888833 -0.06518033 0.020623391 -0.09001105 0.04956182 -0.030243972
-0.03435349 -0.014789672 0.008679596 0.0033491002 0.01714209 -0.021881452 -0.09455995 0.060270924
0.24166031 0.026859095 0.013181589 0.16137865 0.020459302 0.05664456 0.060514618 -0.06527293
0.021835996 -0.06408777 -0.0048042093 -0.05222716 -0.08245394 -0.027563538 0.03450893 -0.13587087
-0.004811617 0.19052204 -0.0745973 0.0026809017 -0.005869491 -0.1969541 0.06733013 0.027723663
-0.035212602 0.010794075 0.013235219 0.008261872 -0.22871596 0.135976 0.18626247 -0.1799029
0.104689926 0.04178178 0.035050906 -0.106428124 -0.10000511 -0.110747814 0.07281642 0.055028826
-0.10308393 -0.0015870929 -0.029535094 0.026023513 -0.19657397 0.1451376 0.10106533 -0.044089343
-0.16012006 0.007083758 0.0005871024 0.014604669 -0.08767557 0.015231674 0.0680704 -0.092665784
0.010885799 -0.052373413 -0.048192777 0.025551021 -0.013792514 0.014705488 0.088743664 -0.07360739
0.038017895 -0.10567033 -0.15594517 0.056011222 -0.052800074 -0.07689384 -0.14689705 -0.009599306
-0.0031397354 -0.11253144 0.097025275 -0.073376425 -0.023691168 0.06682967 0.035010673 -0.12622762
-0.20996726 -0.0027395184 0.045229428 -0.02461017 0.054149054 -0.13958633 -0.086569205 0.0039131413
0.10536226 0.10474821 -0.18952513 -0.023668913 -0.20732294 0.03561834 -0.04444027 -0.05412249
0.05021799 0.26317737 0.05213243 -0.08670685 0.044572473 0.00033093223 0.012305645 0.057373192
0.081007466 -0.019112615 0.08017634 0.13890727 -0.11452155 0.006610299 -0.037070766 -0.04863605
0.008297638 0.08233069 0.052887555 -0.006910787 0.04114375 0.0043645445 -0.020503622 0.0024000504
0.026765132 0.1496803 0.0696021 -0.106541455 5.516287e-06 0.14434588 0.057832755 -0.06863967
-0.108045444 0.14094307 0.15180768 -0.002388157 0.053981073 -0.09193926 0.11397552 -0.10314163
0.13612543 0.034911036 0.004318756 0.07602862 -0.014233476 0.25671166 -0.07666458 0.03399621
0.16827695 0.14034133 0.085784025 -0.084837265 0.13867341 0.061973047 -0.17801882 0.052680466
-0.050668515 0.011982071 -0.03878922 0.10419875 0.032364916 0.042571865 -0.027804218 0.017289102
-0.12312725 -0.15837908 0.042478357 -0.022840243 0.038802847 -0.0401969 -0.09348732 -0.014277045
0.10719853 0.10709248 0.1279841 0.051494796 -0.104145996 -0.060512036 0.24376617 -0.10170245

network_body._body_endoder.seq_layers.2.bias f4 [128]
00000000: 0000 0000 0000 0000 0000 0000 0000 0000
00000010: 0000 0000 0000 0000 0000 0000 0000 0000
00000020: 0000 0000 0000 0000 0000 0000 0000 0000
00000030: 0000 0000 0000 0000 0000 0000 0000 0000
00000040: 0000 0000 0000 0000 0000 0000 0000 0000
00000050: 0000 0000 0000 0000 0000 0000 0000 0000
00000060: 0000 0000 0000 0000 0000 0000 0000 0000
00000070: 0000 0000 0000 0000 0000 0000 0000 0000
00000080: 0000 0000 0000 0000 0000 0000 0000 0000
00000090: 0000 0000 0000 0000 0000 0000 0000 0000
000000a0: 0000 0000 0000 0000 0000 0000 0000 0000
000000b0: 0000 0000 0000 0000 0000 0000 0000 0000
000000c0: 0000 0000 0000 0000 0000 0000 0000 0000
000000d0: 0000 0000 0000 0000 0000 0000 0000 0000
000000e0: 0000 0000 0000 0000 0000 0000 0000 0000
000000f0: 0000 0000 0000 0000 0000 0000 0000 0000
00000100: 0000 0000 0000 0000 0000 0000 0000 0000
00000110: 0000 0000 0000 0000 0000 0000 0000 0000
00000120: 0000 0000 0000 0000 0000 0000 0000 0000
00000130: 0000 0000 0000 0000 0000 0000 0000 0000
00000140: 0000 0000 0000 0000 0000 0000 0000 0000
00000150: 0000 0000 0000 0000 0000 0000 0000 0000
00000160: 0000 0000 0000 0000 0000 0000 0000 0000
00000170: 0000 0000 0000 0000 0000 0000 0000 0000
00000180: 0000 0000 0000 0000 0000 0000 0000 0000
00000190: 0000 0000 0000 0000 0000 0000 0000 0000
000001a0: 0000 0000 0000 0000 0000 0000 0000 0000
000001b0: 0000 0000 0000 0000 0000 0000 0000 0000
000001c0: 0000 0000 0000 0000 0000 0000 0000 0000
000001d0: 0000 0000 0000 0000 0000 0000 0000 0000
000001e0: 0000 0000 0000 0000 0000 0000 0000 0000
000001f0: 0000 0000 0000 0000 0000 0000 0000 0000
0.0 0.0 0.0 0.0 0.0 0.0 0.0 0.0
0.0 0.0 0.0 0.0 0.0 0.0 0.0 0.0
0.0 0.0 0.0 0.0 0.0 0.0 0.0 0.0
0.0 0.0 0.0 0.0 0.0 0.0 0.0 0.0
0.0 0.0 0.0 0.0 0.0 0.0 0.0 0.0
0.0 0.0 0.0 0.0 0.0 0.0 0.0 0.0
0.0 0.0 0.0 0.0 0.0 0.0 0.0 0.0
0.0 0.0 0.0 0.0 0.0 0.0 0.0 0.0
0.0 0.0 0.0 0.0 0.0 0.0 0.0 0.0
0.0 0.0 0.0 0.0 0.0 0.0 0.0 0.0
0.0 0.0 0.0 0.0 0.0 0.0 0.0 0.0
0.0 0.0 0.0 0.0 0.0 0.0 0.0 0.0
0.0 0.0 0.0 0.0 0.0 0.0 0.0 0.0
0.0 0.0 0.0 0.0 0.0 0.0 0.0 0.0
0.0 0.0 0.0 0.0 0.0 0.0 0.0 0.0
0.0 0.0 0.0 0.0 0.0 0.0 0.0 0.0

value_heads.value_heads.extrinsic.weight f4 [1, 128]
00000000: c8c3 ba3d 00c2 a03a 34fb bebd 0048 46bb
00000010: e071 cb3d e869 11be a022 8c3b dad5 493e
00000020: 1857 043e 2883 cb3d f681 2e3e e6bb 21be
00000030: fdc6 eebd 048f 5abe 56e9 1b3e 8f73 edbd
00000040: 5ea1 8dbd 18b9 e3bc 5c33 183e 1497 4d3e
00000050: f06a 203e 40e2 423d f066 40be 601d 13bd
00000060: b400 d93d 417d 40be 9c9e 063e 72f2 8fbd
00000070: 6e70 143e 90fa b83c 78d9 9e3c 98d0 e33d
00000080: 4057 f3bc 90f4 b3bd e0de f03d 7f96 f5bd
00000090: 5491 903d a0d2 e33d 18e4 333d 70e6 ee3c
000000a0: 3e52 0bbe c83b e53d 6605 003e 80fd cd3b
000000b0: 240e 3c3e 74a7 38be 7c16 113e fc21 e93d
000000c0: 98a3 e3bc 5c47 6ebd 58dc 4d3e 8c88 313e
000000d0: 001e 4f3d e4a5 acbd a223 043e 74cb dd3d
000000e0: 387a 293e 48a9 ec3d 8ed7 343e 7805 c53d
000000f0: 7446 b63d d484 e13d f84f 29be 88ad d93d
00000100: 2090 f53c ac2d d33d 3f8f d2bd d84e 57be
00000110: d47f 863d 7f34 4ebe 0000 2a3c b014 793d
00000120: 8c8c e5bd 3440 353e 98ea 1cbe 8d4d 38be
00000130: 8902 00be e96d 2bbe 56be e9bd 4a67 22be
00000140: f623 9abd c097 5dbb b85e d8bd 5473 4ebe
00000150: e8d4 2c3e 804d 2f3b 0c89 033e c857 2cbd
00000160: d4bb 873d acdb 1c3e 80ac 2ebc 71e1 01be
00000170: 9816 583e b00f 78bc 10b7 c23d 261e 03be
00000180: 80b8 d53a 0020 553a e436 5cbd cc10 8c3d
00000190: fc09 18be d040 1f3e 3277 2a3e f002 3c3e
000001a0: 6077 a0bb b6b5 1f3e 481a a53d e598 4dbe
000001b0: 551b 3fbe a226 5a3e 00e3 e1bc 0031 93ba
000001c0: f0bf 6fbc 7cec 18be e742 bcbd 662f 593e
000001d0: be47 83bd b83b 263d a8f7 533d 025b 9dbd
000001e0: bc22 c0bd 0051 50be aaaf 4e3e d0e4 c5bc
000001f0: d0c1 323d 847a ab3d 1ba9 d6bd 5e05 08be
0.091193736 0.0012264848 -0.09325257 -0.0030255318 0.09933829 -0.14200556 0.0042765886 0.19710484
0.12923849 0.099371254 0.17041764 -0.15794334 -0.11659048 -0.21343619 0.1522573 -0.11594307
-0.06915544 -0.02779822 0.14863342 0.20077163 0.15665793 0.04757905 -0.18789268 -0.035916686
0.10595837 -0.1879778 0.13146442 -0.07028665 0.14496014 0.022580415 0.019390807 0.111237705
-0.02970469 -0.08786881 0.1176126 -0.119915955 0.07058969 0.11124158 0.0439187 0.029162616
-0.13605592 0.11193043 0.1250206 0.006286323 0.18364769 -0.18032628 0.14168733 0.11383435
-0.027787969 -0.058173522 0.20103586 0.17337245 0.05056572 -0.084300786 0.12904218 0.10829821
0.16550529 0.11555725 0.17660353 0.09620184 0.089001566 0.11011663 -0.16534412 0.106288016
0.02997595 0.103114456 -0.10281228 -0.2102617 0.0656735 -0.20137213 0.010375977 0.060810745
-0.11208448 0.17700273 -0.15323865 -0.17998333 -0.12500967 -0.16741146 -0.11413257 -0.15859714
-0.0752639 -0.0033812374 -0.10564941 -0.20161182 0.16878092 0.0026749074 0.12845248 -0.042075902
0.06627622 0.15318173 -0.010661244 -0.12683655 0.21102369 -0.015140459 0.09507573 -0.1280447
0.0016305596 0.00081300735 -0.053763285 0.06839141 -0.14847559 0.15552068 0.16647032 0.18360496
-0.004897043 0.15596661 0.080616534 -0.20077856 -0.1866277 0.213038 -0.027574062 -0.0011229813
-0.014633164 -0.14933962 -0.09192448 0.21209487 -0.06410168 0.040584296 0.051749855 -0.07683374
-0.09381625 -0.20343399 0.20184198 -0.024156958 0.043641865 0.083729774 -0.10481473 -0.13283297
