results/ppo/BalanceBall1/BalanceBall1-13248.pt (torch, 473146 bytes, 33 tensors)

network_body._body_endoder.seq_layers.0.weight f4 [128, 16]
-0.21898924 0.104257226 -0.29006284 0.47992793 0.3500736 0.15778467 -0.19567747 0.23460849
-0.00306146 -0.2678398 -0.54852706 0.548491 0.19304341 -0.102322936 -0.1941744 0.042337067
-0.23613186 0.5502922 0.3304985 -0.22906788 0.1576106 -0.20252433 0.16611704 0.24859256
0.18949477 0.10126385 -0.09995561 0.27122822 0.270689 -0.047409415 -0.2584051 -0.14512318
-0.12435666 -0.1666383 0.1467044 0.5349879 -0.4996915 -0.13406545 0.2511369 -0.10615001
-0.18226485 0.19510998 0.3597025 -0.17847063 -0.17144531 -0.46369484 0.3619385 -0.17530106
-0.0355811 0.06457615 -0.014899966 -0.38226506 0.20928732 -0.4788003 0.22905138 -0.28633034
-0.22493589 0.023418255 0.40913856 -0.34899974 0.08967429 0.42152405 0.13962352 0.10871048
-0.0084204385 0.23374169 0.15797123 0.31961903 -0.008544804 0.023496358 0.016019192 0.07387711
0.44104728 0.5768963 -0.059699647 -0.33576116 0.17355025 0.009588223 0.07709461 -0.23748945
-0.28810963 0.2075208 -0.22281626 0.08152935 0.17004313 -0.10230872 -0.19226535 -0.3260286
0.4518862 0.24715136 0.09641546 -0.27033672 -0.08366102 -0.083794855 0.08778328 0.26456767
0.049878526 -0.22169986 0.107804246 0.11886272 -0.23035641 0.015820377 0.048588026 -0.009641934
0.49229088 -0.4055899 0.034848314 0.12534341 0.23467343 0.28195366 0.0024346642 -0.3493764
0.092189096 -0.23694266 0.5181175 0.19419393 0.12863494 0.008938553 -0.04598098 0.12467962
-0.18883088 0.47804648 0.10569027 0.1942459 0.38342458 -0.4420907 -0.07441823 -0.42624414
0.27288106 -0.32622048 0.3309 -0.04157766 0.035819385 0.37416863 0.5845165 -0.34169698
-0.0043431288 0.27970293 -0.07709715 -0.3657483 0.123860136 0.25848588 0.20688288 0.1470884
0.052003067 -0.3405352 -0.27290335 0.29013076 -0.5612707 -0.22869681 -0.43594337 -0.006977852
0.618725 0.11775436 -0.1028259 0.46708807 0.22055946 0.19892742 0.3664085 0.10889191
0.30798045 -0.26084462 0.28579542 0.013665107 -0.0044734967 0.3880025 -0.21022467 0.048120525
-0.21216209 0.05932106 -0.24702772 -0.44330207 -0.24107762 -0.1314332 0.295548 -0.2692521
0.38767853 0.012181975 -0.24073066 -0.14063077 -0.11320642 -0.019055942 0.15759338 -0.06705336
-0.22768746 0.12362442 -0.461348 0.6691948 -0.029771712 -0.3504904 -0.19149253 -0.2963887
-0.12809795 -0.020671086 0.04317251 -0.2690289 0.3774843 0.11826034 0.12939121 -0.06540408
0.25834945 0.3250943 -0.022630593 -0.32603344 -0.29028088 -0.0062386836 -0.35922128 0.085875615
-0.24054943 0.08724214 0.094150946 -0.04751579 0.091948085 -0.2372972 -0.41226956 -0.1169189
0.11307402 0.13156912 0.31858903 -0.05440939 0.024775643 0.3154002 0.17886603 -0.4236452
-0.00024512995 0.053179786 -0.03863963 0.056371305 0.0057605417 -0.20698938 0.16563159 -0.0976941
0.1688436 -0.23510231 -0.18908368 -0.13090187 0.16096777 0.30151346 -0.28350133 -0.23254447
-0.16625333 0.07305182 0.28597495 0.43502027 0.17692034 0.22216442 0.49305 -0.042802367
0.038876683 -0.11544785 -0.27382585 -0.5434759 0.04430925 -0.22665238 -0.025792642 0.05048028
00000000: b73e 60be d084 d53d 1e83 94be 1db9 f53e
00000010: d93c b33e 4e92 213e ad5f 48be 353d 703e
00000020: c7a2 48bb 4c22 89be 456c 0cbf e869 0c3f
00000030: 2cad 453e b08e d1bd a7d5 46be a269 2d3d
00000040: 8dcc 71be f3df 0c3f 1937 a93e c590 6abe
00000050: ac64 213e 8a62 4fbe 961a 2a3e 0c8f 7e3e
00000060: eb0a 423e 6c63 cf3d 87b5 ccbd 6dde 8a3e
00000070: c097 8a3e 6030 42bd ac4d 84be 2c9b 14be
00000080: b4ae febd 3ba3 2abe ae39 163e f8f4 083f
00000090: 90d7 ffbe 7448 09be 0495 803e 2d65 d9bd
000000a0: a3a3 3abe e9ca 473e ed2a b83e 01c1 36be
000000b0: 5c8f 2fbe 6969 edbe 0150 b93e 1f82 33be
000000c0: 7dbd 11bd 8040 843d fd1e 74bc 3fb8 c3be
000000d0: 6a4f 563e 5025 f5be 728c 6a3e e499 92be
000000e0: 9855 66be a4d7 bf3c 9c7a d13e 18b0 b2be
000000f0: 27a7 b73d 00d2 d73e 78f9 0e3e 9aa3 de3d
00000100: e1f5 09bc fb59 6f3e 36c3 213e 1ba5 a33e
00000110: 81ff 0bbc 6f7b c03c ae3a 833c e24c 973d
00000120: f3d0 e13e 7aaf 133f 9e87 74bd e3e8 abbe
00000130: 28b7 313e ec17 1d3c c7e3 9d3d 6f30 73be
00000140: 1b83 93be 5580 543e f229 64be dcf8 a63d
00000150: c91f 2e3e 3c87 d1bd 35e1 44be 38ed a6be
00000160: a15d e73e 3f15 7d3e 7875 c53d 9369 8abe
00000170: 7856 abbd a39c abbd b8c7 b33d 6a75 873e
00000180: 6d4d 4c3d 4a05 63be 79c8 dc3d 4c6e f33d
00000190: 8de2 6bbe bc99 813c 3d04 473d 34f9 1dbc
000001a0: 8d0d fc3e 7ba9 cfbe 1bbd 0e3d 065a 003e
000001b0: 3b4e 703e 3b5c 903e e38e 1f3b 77e1 b2be
000001c0: a3cd bc3d 19a1 72be 59a3 043f c6da 463e
000001d0: e1b8 033e 0273 123c 8d56 3cbd 0758 ff3d
000001e0: e25c 41be 82c2 f43e 2474 d83d 66e8 463e
000001f0: 3a50 c43e b659 e2be 9668 98bd ac3c dabe
00000200: 11b7 8b3e 5f06 a7be ba6b a93e 564d 2abd
00000210: 59b7 123d 0893 bf3e e0a2 153f e8f2 aebe
00000220: ce50 8ebb 3935 8f3e 1ce5 9dbd 5c43 bbbe
00000230: 62aa fd3d 4358 843e 1bd9 533e 579e 163e
00000240: 2b01 553d a15a aebe fdb9 8bbe 058c 943e
00000250: 70af 0fbf 7f2f 6abe f833 dfbe 77a6 e4bb
00000260: c364 1e3f 3329 f13d 6396 d2bd 2b26 ef3e
00000270: 57da 613e a1b3 4b3e e599 bb3e b902 df3d
00000280: 9daf 9d3e 6d8d 85be c753 923e 9de3 5f3c
00000290: 6996 92bb 44a8 c63e 2345 57be 071a 453d
000002a0: 0541 59be a4fa 723d d6f4 7cbe 7df8 e2be
000002b0: 0ddd 76be 6d96 06be 1152 973e 69db 89be
000002c0: cd7d c63e e896 473c 1982 76be 8301 10be
000002d0: c4d8 e7bd 351b 9cbc 2960 213e 4653 89bd
000002e0: e726 69be cd2e fd3d ce35 ecbe 5a50 2b3f
000002f0: cee3 f3bc 7a73 b3be 9e16 44be 42c0 97be
00000300: 1c2c 03be 6956 a9bc a8d5 303d 28be 89be
00000310: 9f45 c13e 7a32 f23d 217f 043e 93f2 85bd
00000320: 6146 843e c372 a63e cb63 b9bc dbed a6be
00000330: b29f 94be df6d ccbb daeb b7be 8edf af3d
00000340: 9752 76be 02ac b23d 36d2 c03d eb9f 42bd
00000350: 474f bc3d 0afe 72be ff14 d3be 2d73 efbd
00000360: 5a93 e73d 0eba 063e 1a1e a33e 61dc 5ebd
00000370: 4af6 ca3c 237c a13e a828 373e 06e8 d8be
00000380: c984 80b9 0cd3 593d 9744 1ebd 99e5 663d
00000390: edc2 bc3b 06f5 53be 549b 293e d813 c8bd
000003a0: 56e5 2c3e a9be 70be 279f 41be 240b 06be
000003b0: bcd4 243e f95f 9a3e 1627 91be 2320 6ebe
000003c0: 503e 2abe 319c 953d 4f6b 923e faba de3e
000003d0: 9b2a 353e 127f 633e 0d71 fc3e 8951 2fbd
000003e0: 283d 1f3d ec6f ecbd e732 8cbe 3d21 0bbf
000003f0: 9e7d 353d 9017 68be 174b d3bc 69c4 4e3d

network_body._body_endoder.seq_layers.0.bias f4 [128]
-6.108847e-05 0.0004591183 0.00021281443 -0.003229044 -0.0015446099 -0.001544499 0.0019718427 0.001180905
0.0028405308 0.00034361973 0.0011825362 0.0005166528 -0.0009484241 0.00012819213 -3.177473e-05 -0.0022512022
0.002433143 0.0036439837 0.0027124074 0.00072183023 -0.000436728 -0.00033401127 -0.00021571165 -0.0018824352
0.0010509992 0.0035508685 -0.0013715997 0.00093184115 0.0013171049 -0.0042971475 1.69138e-05 -0.00047286233
-0.00029694533 0.0025030212 -0.00069483125 6.4651074e-05 0.00084019464 -0.0001629358 -0.0017708779 -0.00019392325
-0.0012010683 -7.5623204e-05 -0.0029350913 0.0012855096 -0.00080727023 0.00013130491 0.0021080219 0.0027156663
-0.0009648322 0.0014834051 -0.0024607591 0.0047549154 -0.00051446806 -0.0016457608 -0.0027267225 0.001036698
-0.00023425417 -0.003178449 -0.0011538073 -0.0033455095 -0.0003185543 -0.0022827731 -0.0018487681 0.0010265855
0.00046863768 0.00073447725 0.0013041525 0.0012493125 -0.00066702795 0.00055974384 -0.0030323819 0.00065530173
0.0017833485 0.00041051462 -0.0015909951 -0.0009683496 0.00034672488 4.7246154e-05 -0.000867789 0.0012817617
0.0010830319 0.00048568187 0.00026864267 -0.0012393207 0.00032979515 -0.0044979122 -0.0016773659 0.001036089
0.00025807746 0.00063779956 0.0003076514 0.003158727 -0.0028131127 0.0018537565 0.00025791666 0.0008827327
-0.00046870802 0.00012157517 -0.0041031456 0.0009972265 -0.003000918 0.0010853931 0.0007881615 -0.001969125
0.0006823598 -0.0064533087 4.583023e-05 -0.0020107718 -0.0013282434 0.0014284754 0.0007499199 0.00035611005
0.0055077486 0.00036924152 0.0015455917 0.00081765844 -1.8209139e-06 0.0031434752 -0.0005952132 0.00025886457
0.0006019755 -0.00030257308 -0.0023766533 -0.0028350856 -0.0016284032 -0.0018286332 -0.0015540262 -0.001483436
00000000: 9f1c 80b8 d1b5 f039 f026 5f39 5e9e 53bb
00000010: 8274 caba c970 caba 083a 013b 99c8 9a3a
00000020: 3328 3a3b dc27 b439 55ff 9a3a fc6f 073a
00000030: aa9f 78ba 506b 0639 db45 05b8 e888 13bb
00000040: 5e75 1f3b e7cf 6e3b a5c2 313b 3539 3d3a
00000050: a4f8 e4b9 3c1e afb9 a830 62b9 0bbc f6ba
00000060: aec1 893a b0b5 683b 40c7 b3ba cd46 743a
00000070: b5a2 ac3a 16cf 8cbb 1ce2 8d37 82ea f7b9
00000080: 54af 9bb9 ba09 243b 5625 36ba 4895 8738
00000090: 8240 5c3a bfd9 2ab9 cd1c e8ba e057 4bb9
000000a0: 2a6d 9dba e697 9eb8 a95a 40bb 8b7e a83a
000000b0: fd9e 53ba e5ae 0939 bd26 0a3b 52f9 313b
000000c0: cbec 7cba d16e c23a b044 21bb 1fcf 9b3b
000000d0: 5edd 06ba 92b6 d7ba d0b2 32bb d0e1 873a
000000e0: 20a2 75b9 874d 50bb 593b 97ba 5640 5bbb
000000f0: a203 a7b9 949a 15bb 5d52 f2ba 7e8e 863a
00000100: 7cb3 f539 ef89 403a 19f0 aa3a f9bf a33a
00000110: 7ddb 2eba c6bb 123a edba 46bb 8ec8 2b3a
00000120: 3fbf e93a 573a d739 f088 d0ba d7d8 7dba
00000130: a0c8 b539 2c2a 4638 557c 63ba c900 a83a
00000140: 85f4 8d3a 1ea3 fe39 9cd8 8c39 b470 a2ba
00000150: 5be8 ac39 3963 93bb 0fdb dbba 61cd 873a
00000160: 924e 8739 0132 273a 464c a139 a502 4f3b
00000170: 335c 38bb bff9 f23a fd38 8739 3067 673a
00000180: edbc f5b9 2cf6 fe38 ae73 86bb 5eb5 823a
00000190: 0dab 44bb c043 8e3a 9f9c 4e3a 6f0c 01bb
000001a0: 64e0 323a 4776 d3bb d639 4038 27c7 03bb
000001b0: 7418 aeba ae3b bb3a 4696 443a 48b4 ba39
000001c0: 587a b43b c296 c139 7495 ca3a 2158 563a
000001d0: 2066 f4b5 c302 4e3b 1508 1cba 37b8 8739
000001e0: e4cd 1d3a aca2 9eb9 a0c1 1bbb d8cc 39bb
000001f0: 2570 d5ba c0ae efba 77b0 cbba da6f c2ba

network_body._body_endoder.seq_layers.2.weight f4 [128, 128]
0.00985229 0.07170801 -0.107392274 -0.040679395 -0.16013965 0.007378254 -0.02955937 -0.06575379
-0.15152487 0.025968993 -0.0025091013 -0.0006482771 -0.15208687 -0.03407953 0.002942242 -0.04313559
-0.0025210152 -0.002729826 0.07413862 -0.23336795 0.15347087 0.05391755 -0.08232581 -0.01144549
-0.0027632196 -0.022636823 -0.10896377 -0.14762703 0.06740908 -0.053697985 -0.00029585394 0.021394948
0.048559777 0.15464613 0.039360307 -0.06455735 0.104427435 -0.037598565 0.057736047 0.065375395
0.0069014453 0.18393199 0.04710452 -0.061375458 0.19245777 -0.015256988 0.10473228 0.0008309008
0.08758794 0.14175294 0.048661917 0.041566163 0.065419935 -0.06532715 -0.19427976 -0.1487961
0.06687231 0.04451358 0.14792427 0.0034483399 -0.1595219 0.023361 0.1496458 -0.10460949
0.110618755 -0.14096086 0.22479676 -0.08409895 -0.13979608 0.044735134 0.16130689 -0.043984227
-0.007077929 0.10797141 0.09950191 0.23650691 0.121163875 0.16934365 0.08457853 -0.09635488
-0.09166495 -0.015152586 -0.044339634 -0.08908282 -0.022111956 0.0143282525 -0.054404985 -0.09386235
-0.076728724 0.1429679 0.07032427 0.0875315 -0.017683929 -0.14585347 -0.02098819 0.02426592
-0.0648242 0.07543068 -0.1408946 -0.10161992 -0.03456384 -0.1371531 0.054727033 -0.04731468
-0.028032502 0.114003584 0.17006795 0.06542144 -0.018214688 -0.039506212 0.010047819 -0.08070879
0.035120465 -0.047936104 0.0478487 -0.113054164 -0.18698658 -0.0023676215 -0.10226996 -0.15647984
0.027220696 -0.014554496 -0.048370816 0.03900967 -0.016646622 0.0077347206 -0.11963749 0.07591968
0.01966093 0.033897392 -0.0378989 -0.052356392 -0.18880458 -0.13860084 -0.107383415 0.0078164
0.04714074 0.07347215 0.046589315 0.093978435 -0.123851754 -0.14279862 -0.06326318 0.0978959
-0.037811764 -0.01949742 -0.04282466 0.1882486 -0.1848674 -0.007659544 0.032938037 0.021279205
-0.013334242 0.03046692 -0.12043692 -0.03790517 -0.0023118842 0.039149705 -0.021278827 0.1711952
-0.021951992 0.11339756 0.0790916 -0.079689376 -0.0047023953 -0.0505157 0.08728124 0.023914374
0.083674945 0.017288316 -0.02235797 -0.07929482 -0.048192516 0.029381132 -0.11478266 -0.043201827
0.18205784 -0.008259132 0.05964504 0.08366152 0.08755762 -0.050889697 0.11408948 -0.027099246
-0.018586148 -0.028832346 0.16616586 0.058576755 -0.06797993 0.101642 0.09628231 -0.12397892
0.006616314 -0.016067589 0.25383338 -0.0062942435 0.11135012 -0.01886394 0.060227156 0.033004355
0.01848292 0.11091518 0.06490892 -0.087562434 0.16870514 -0.17327039 -0.037977006 -0.01737192
0.090263724 0.035467356 0.190686 0.055794712 0.023484873 0.021880582 0.026786216 0.062492076
0.05226584 0.07219407 0.12651707 0.08486488 -0.073511 0.15730812 -0.17660579 -0.103604816
0.012642107 0.14991122 0.08253048 -0.17732891 0.07325886 0.095772564 0.00013751912 -0.07929647
0.026114441 0.09016623 -0.10613497 0.022744134 -0.089453414 -0.064324 0.045798518 0.09112038
-0.17138398 -0.047063105 0.035361063 0.056607205 0.0009019546 -0.011000782 0.04681824 0.013292338
0.1467305 -0.030841604 0.12273801 0.01125718 0.10284578 0.09413985 -0.02380785 0.09566649
00000000: 806b 213c a6db 923d 7bf0 dbbd 709f 26bd
00000010: a6fb 23be 48c5 f13b 7e26 f2bc eca9 86bd
00000020: 5629 1bbe edbc d43c bc6f 24bb 24f1 29ba
00000030: a9bc 1bbe fa96 0bbd a1d2 403b f2ae 30bd
00000040: 9e37 25bb e1e6 32bb fdd5 973d 02f8 6ebe
00000050: 7827 1d3e a6d8 5c3d 6f9a a8bd dd85 3bbc
00000060: 2217 35bb dc70 b9bc 6628 dfbd 8a2b 17be
00000070: c60d 8a3d 6bf2 5bbd d81c 9bb9 7544 af3c
00000080: 9ee6 463d 8e5b 1e3e 4638 213d a536 84bd
00000090: 0dde d53d f400 1abd a27c 6c3d 89e3 853d
000000a0: 8525 e23b ab58 3c3e abf0 403d d564 7bbd
000000b0: a613 453e 72f8 79bc e17d d63d cfd0 593a
000000c0: 4e61 b33d af27 113e b851 473d 4841 2a3d
000000d0: e3fa 853d 3eca 85bd 46f1 46be 015e 18be
000000e0: 5af4 883d df53 363d 7679 173e 8bfd 613b
000000f0: b559 23be 915f bf3c c03c 193e 803d d6bd
00000100: 168c e23d 0b58 10be 1f31 663e 123c acbd
00000110: b426 0fbe 303c 373d a22d 253e ce28 34bd
00000120: f9ed e7bb 1d20 dd3d a8c7 cb3d de2e 723e
00000130: c424 f83d 6c68 2d3e 8237 ad3d b555 c5bd
00000140: d5ba bbbd 8d42 78bc 7a9d 35bd 0e71 b6bd
00000150: 2224 b5bc 0cc1 6a3c c3d7 5ebd e73a c0bd
00000160: f323 9dbd 2d66 123e 2c06 903d b743 b33d
00000170: e3dd 90bc 9d5a 15be 6def abbc 53c9 c63c
00000180: 8dc2 84bd 667b 9a3d ad46 10be 1b1e d0bd
00000190: d092 0dbd dd71 0cbe 7429 603d 0acd 41bd
000001a0: 6ba4 e5bc b67a e93d 4b26 2e3e adfb 853d
000001b0: f836 95bc 44d1 21bd 9c9f 243c a64a a5bd
000001c0: 7ada 0f3d a658 44bd 00fd 433d f188 e7bd
000001d0: 6979 3fbe 192a 1bbb ea72 d1bd 403c 20be
000001e0: f0fd de3c fb75 6ebc 7a20 46bd 9bc8 1f3d
000001f0: 7f5e 88bc 8a73 fd3b 8004 f5bd c77b 9b3d
00000200: f50f a13c fed7 0a3d e13b 1bbd a873 56bd
00000210: fd55 41be 61ed 0dbe d6eb dbbd 5c10 003c
00000220: a616 413d 9178 963d 70d4 3e3d c477 c03d
00000230: fda5 fdbd cd39 12be 2090 81bd a57d c83d
00000240: 82e0 1abd 0eb9 9fbc e968 2fbd 3ec4 403e
00000250: e14d 3dbe e9fc fabb 09ea 063d ba51 ae3c
00000260: dd77 5abc c395 f93c a2a7 f6bd 7442 1bbd
00000270: fb82 17bb 715b 203d ef50 aebc cb4d 2f3e
00000280: aad4 b3bc fb3c e83d c7fa a13d 2f34 a3bd
00000290: 8d16 9abb 8de9 4ebd 82c0 b23d 14e8 c33c
000002a0: c55d ab3d 3aa0 8d3c 1028 b7bc 5365 a2bd
000002b0: 8465 45bd b3b0 f03c 2c13 ebbd 66f4 30bd
000002c0: 5f6d 3a3e 4f51 07bc 5c4e 743d bb56 ab3d
000002d0: 6951 b33d b771 50bd bfa7 e93d 3dff ddbc
000002e0: fa41 98bc d031 ecbc 6227 2a3e 2eee 6f3d
000002f0: 1039 8bbd ae29 d03d a92f c53d a9e8 fdbd
00000300: aacd d83b 2da0 83bc 73f6 813e f13f cebb
00000310: 880b e43d 8d88 9abc c0b0 763d 932f 073d
00000320: 7e69 973c 7f27 e33d f8ee 843d ef53 b3bd
00000330: 0ac1 2c3e cb6d 31be c78d 1bbd 8f4f 8ebc
00000340: 30dc b83d 3846 113d 3143 433e ff88 643d
00000350: 5963 c03c e83e b33c c46e db3c b1f7 7f3d
00000360: b514 563d 7cda 933d b18d 013e a3cd ad3d
00000370: ef8c 96bd 6115 213e 26d8 34be c32e d4bd
00000380: d720 4f3c 5482 193e be05 a93d b695 35be
00000390: be08 963d 6824 c43d 0233 1039 3066 a2bd
000003a0: f4ed d53c 13a9 b83d 4b5d d9bd e851 ba3c
000003b0: 5a33 b7bd 4dbc 83bd 3a97 3b3d 529d ba3d
000003c0: 487f 2fbe 3ec5 40bd c3d6 103d f5dc 673d
000003d0: 2671 6c3a a03c 34bc 7cc4 3f3d 1bc8 593c
000003e0: 8540 163e 88a7 fcbc 115e fb3d 0970 383c
000003f0: cfa0 d23d 65cc c03d ae08 c3bc cbec c33d

network_body._body_endoder.seq_layers.2.bias f4 [128]
0.0009971011 8.743225e-05 -0.0006508727 -0.0007665039 -0.0036393374 0.00077217736 -0.00093600294 0.0005145896
-0.0024391438 -0.0005132663 0.004191374 0.0020508275 -0.0022656058 -0.0010501655 0.0002711315 -0.00026839678
-0.003025548 -0.00034855772 0.0014792172 0.00093790906 0.0010651319 0.00015065423 0.0028799702 -0.0011714337
0.0004453491 0.0023372958 0.00090204005 -0.0010558469 -6.32912e-05 -0.00035943172 -0.0013346915 2.0478226e-05
-0.0011164265 0.0025661862 -0.0018052035 2.515989e-05 -0.0027610504 0.00013021863 -0.0022390867 -0.00022360565
-0.0013553689 -0.0028967524 -0.001807853 -0.00061319023 -0.00057707494 0.000582213 0.0012897585 -0.0010785669
0.00049577904 -0.0017508079 -0.0017483042 0.0005814762 -0.0010799908 -0.0014657996 -0.0013344517 -0.00023241027
0.0007554536 -7.444158e-05 -0.0037708823 9.962756e-05 0.00050727057 -0.00013745607 -0.00081945 -0.0010954667
-5.4786855e-05 -4.9658076e-05 -0.0005664594 -0.0007568654 -0.00012465123 0.0002455658 0.00037623278 0.002107888
-0.00072949135 -0.00038799655 0.0003496837 0.00052870624 -0.00076621317 0.00015883628 -0.0023575546 0.0011220805
0.0014542756 -0.0013972532 -8.748813e-05 -0.0009787228 -0.0010531693 0.00044439296 0.0008073298 -0.0017231527
-0.0010283449 -0.0017000537 -0.00021944338 -0.0019334736 -0.00036270672 9.509354e-05 2.9767439e-06 -0.00082483114
-0.0039679944 -0.0004344226 -0.00023521081 0.0012749623 -0.0013844048 0.0005748066 -0.00092234445 0.0002941306
-0.003593893 5.17249e-06 -0.00025710952 -0.0006905964 0.00048161825 -0.0008671827 -0.00043061696 0.0012194533
0.0005796295 0.0014431064 0.0010425434 -0.0058515263 -0.001452961 0.0010779179 -0.00028791686 0.00027852948
-0.0021212974 -0.001189796 -0.0026064399 -0.00064413156 0.0014058611 -0.0008017634 0.0006470556 -8.138094e-05
00000000: 29b1 823a d55b b738 549f 2aba 35ef 48ba
00000010: f381 6ebb f26b 4a3a 185e 75ba 86e5 063a
00000020: 0bda 1fbb b88c 06ba cb57 893b 2d67 063b
00000030: 8f7a 14bb b5a5 89ba a726 8e39 9bb7 8cb9
00000040: 4648 46bb a0be b6b9 4be2 c13a 03de 753a
00000050: e59b 8b3a f0f8 1d39 e2bd 3c3b cb8a 99ba
00000060: bf7d e939 512d 193b e276 6c3a 5864 8aba
00000070: 34bb 84b8 1c72 bcb9 d1f0 aeba a8c8 ab37
00000080: 0f55 92ba 762d 283b 949c ecba 740e d337
00000090: bdf2 34bb 4c8b 0839 a4bd 12bb af77 6ab9
000000a0: a2a6 b1ba 71d7 3dbb 7bf5 ecba 80be 20ba
000000b0: d846 17ba a79f 183a 1d0d a93a b35e 8dba
000000c0: 2bf7 013a 5d7b e5ba 5b27 e5ba 356e 183a
000000d0: 7a8e 8dba 1320 c0ba c5e8 aeba 28b3 73b9
000000e0: a209 463a 851d 9cb8 e820 77bb 24ef d038
000000f0: 5afa 043a 1522 10b9 5cd0 56ba c395 8fba
00000100: f0ca 65b8 f447 50b8 727e 14ba 6168 46ba
00000110: cfb4 02b9 49bf 8039 1c41 c539 7e24 0a3b
00000120: 563b 3fba 046c cbb9 c055 b739 e098 0a3a
00000130: b2db 48ba 4a8d 2639 3481 1abb c612 933a
00000140: 649d be3a 0a24 b7ba d579 b7b8 7d48 80ba
00000150: 7f0a 8aba 6afd e839 fca2 533a 69db e1ba
00000160: 87c9 86ba 56d4 deba 621a 66b9 9c6c fdba
00000170: ac29 beb9 f56c c738 12c4 4736 7b39 58ba
00000180: f305 82bb 37c3 e3b9 eca2 76b9 a31c a73a
00000190: eb74 b5ba 9eae 163a 7dc9 71ba 8a35 9a39
000001a0: 8587 6bbb 5a8f ad36 a8cc 86b9 2409 35ba
000001b0: b581 fc39 a553 63ba 6ec4 e1b9 10d6 9f3a
000001c0: 47f2 173a 9e26 bd3a f4a5 883a 29be bfbb
000001d0: 4871 beba ec48 8d3a 8cf3 96b9 9807 9239
000001e0: 7705 0bbb eef2 9bba ced0 2abb f0da 28ba
000001f0: df44 b83a 6e2d 52ba 2b9f 293a 0fab aab8

action_model._discrete_distribution.branches.0.weight f4 [3, 128]
-0.0016257754 0.013320901 -0.008948303 -0.0019490964 0.0013433123 0.0080303475 -0.00021128502 -0.0063243126
-0.007886579 0.001097065 0.026768235 -0.00040261348 -0.0065074656 0.0027706458 -0.0024435269 0.0024185337
-0.011595875 0.009452354 0.0069696684 0.007074397 0.008037731 0.0043884837 0.0019755901 -0.009414248
-0.004287233 0.0063557136 0.009461446 -0.0062885256 -0.005186187 -0.019452773 -0.018371655 -0.0033835247
-0.0009586267 0.017052494 0.0045204554 0.0040195365 0.011243675 0.019526893 0.0050926204 0.0037809236
-0.011224169 0.004667036 -0.000425771 0.013400627 0.00378396 -0.011874245 -0.0020996311 -0.0016168504
0.004444043 0.005245935 -0.011665619 -0.011919401 0.002394807 -0.0032336663 0.022538152 -0.003320758
0.0075781546 -0.009578797 -0.009898509 0.014191876 -0.006193671 0.003101441 0.0049680197 -0.01159774
0.0041700876 -0.010204185 0.010987034 0.0008425927 0.0058396547 -0.0076381285 0.006348502 -0.0012167492
0.009179799 -0.001851149 0.0043438617 0.005255807 -0.0050267433 -0.0032350714 -0.016744455 0.00044275622
0.0020571002 -0.0027850522 -0.001551773 8.6018656e-05 0.0020980828 -0.0022832775 0.024037773 0.0091851335
0.00246271 -0.003463987 -0.0115316985 0.0065950714 -0.008081965 -0.022300221 -0.003096634 -0.0018765923
0.0022259185 -0.005775127 -0.0041875616 -0.012487739 0.005451765 -0.010799364 -0.0066176294 -0.00021990368
0.005990958 -0.005116601 0.00660309 0.014003342 0.0031285386 0.010981362 -0.0064085443 0.0020658432
-0.013454577 0.009666433 0.012742109 0.0016376761 0.0015715098 0.00985029 0.0013152034 -0.0023856375
-0.015186823 -0.015299727 0.0043761986 -0.013575614 -0.013175338 0.013130926 0.01640356 -0.0027360942
0.016559388 0.008388142 -0.0031473509 -0.0016480788 0.0061684973 -0.00169081 0.0060744225 -0.012313027
-0.004587212 0.013026532 -0.0038893018 -0.022089224 0.010460689 0.007924663 -0.008807799 -0.00019489568
-0.0021494087 -0.003869623 -0.015304602 -0.014172439 -0.011878679 -0.0022378853 0.0014078398 0.006084819
-0.0047560995 -0.010065779 0.0083946325 0.005505909 -0.0067863883 0.008806659 0.013902137 0.002893492
0.008962141 0.008742732 0.015727257 -0.001594574 0.018761203 -0.0022190616 -0.0082266275 0.0071811765
0.007852546 0.015875863 0.010800688 0.009657785 0.008937904 -0.010710953 0.0034669784 0.0013766971
-0.00082439417 0.019618317 0.007705525 0.0011424321 0.004943963 -0.0004712736 0.011056134 -0.019853309
0.0018004358 0.0037900792 -0.008723682 0.007981359 -0.0074302047 -0.0014112082 0.009541275 -0.0046209586
0.0014048468 -0.016271675 0.0072566317 0.0013887662 0.010590386 -0.0063994713 -0.0053866394 -0.007980497
-0.007589758 -0.002979499 -0.011624455 0.00015633184 0.013756901 -0.013741478 0.0015712811 -0.02222851
-0.005228717 -0.0015135581 -0.0035127683 0.009905775 -0.002547643 -0.01248894 -0.011008699 -0.005528173
-0.0025560544 -0.009603035 0.0031506976 -0.0024528417 -0.00024362937 -0.008822677 -0.0055611683 -0.0055209044
0.0011656204 0.008241625 -0.0027724504 -0.00018900775 0.0142342495 -0.0028595817 0.013093051 0.009873505
0.0050093755 -0.01412589 -0.007951086 -0.002300328 -0.0055027925 0.009155463 0.015692035 0.006448666
0.0058266213 -0.0001687069 -0.0043995953 -9.3885195e-05 0.0012844143 -0.0012019337 -0.00080609834 -0.009579315
0.0052772877 0.0014086551 0.009753579 -0.0045968555 -0.012250379 0.011433398 0.014469703 -0.015472086
00000000: f817 d5ba e93f 5a3c e79b 12bc d378 ffba
00000010: 1512 b03a b891 033c 648c 5db9 2e3c cfbb
00000020: b636 01bc 65cb 8f3a 0f49 db3c de15 d3b9
00000030: 943c d5bb b993 353b 9423 20bb 4380 1e3b
00000040: a0fc 3dbc 0cde 1a3c d161 e43b 58d0 e73b
00000050: b0b0 033c 45cd 8f3b e778 013b 383e 1abc
00000060: eb7b 8cbb 9743 d03b 2e04 1b3c fa0f cebb
00000070: e4f0 a9bb 6c5b 9fbc 2780 96bc 20be 5dbb
00000080: 594c 7bba acb1 8b3c 5420 943b 51b6 833b
00000090: 6437 383c ddf6 9f3c ffdf a63b 5fc9 773b
000000a0: 94e5 37bc efed 983b 043a dfb9 4e8e 5b3c
000000b0: 50fc 773b 318c 42bc f799 09bb 7fec d3ba
000000c0: 569f 913b 18e6 ab3b 2721 3fbc 9749 43bc
000000d0: 32f2 1c3b ebeb 53bb eea1 b83c 13a1 59bb
000000e0: 2b52 f83b 63f0 1cbc 5b2d 22bc 0b85 683c
000000f0: 47f4 cabb 8c41 4b3b c5ca a23b 7304 3ebc
00000100: 3ba5 883b 742f 27bc f602 343c 70e1 5c3a
00000110: 935a bf3b 4449 fabb 1807 d03b 547b 9fba
00000120: de66 163c 41a2 f2ba f456 8e3b e838 ac3b
00000130: 61b7 a4bb 7e03 54bb ab2b 89bc bc21 e839
00000140: 6ad0 063b 6c85 36bb dd64 cbba ea64 b438
00000150: fd7f 093b 0aa3 15bb ddea c43c 3e7d 163c
00000160: 6b65 213b 0f04 63bb 73ef 3cbc 781b d83b
00000170: 386a 04bc f4ae b6bc e6f0 4abb fdf7 f5ba
00000180: b7e0 113b 473d bdbb d037 89bb 6099 4cbc
00000190: b8a4 b23b d1ef 30bc b3d8 d8bb f295 66b9
000001a0: cc4f c43b 29a9 a7bb bc5e d83b 466e 653c
000001b0: 2b08 4d3b 2ceb 333c c4fe d1bb 1963 073b
000001c0: 9670 5cbc f55f 1e3c 47c4 503c 4ba7 d63a
000001d0: 1efb cd3a 1c63 213c e762 ac3a 5b58 1cbb
000001e0: 27d2 78bc b5ab 7abc 3766 8f3b 416c 5ebc
000001f0: 5fdd 57bc 1823 573c c260 863c 0b50 33bb
00000200: 8ea7 873c 6b6e 093c c943 4ebb 5904 d8ba
00000210: 1b21 ca3b 2b9e ddba f30b c73b 94bc 49bc
00000220: 5350 96bb 3c6d 553c a8e3 7ebb 76f4 b4bc
00000230: 4f63 2b3c 72d6 013c 964e 10bc e95c 4cb9
00000240: 18dd 0cbb 8099 7dbb 27c0 7abc 8533 68bc
00000250: ca9e 42bc 7ca9 12bb 4487 b83a 2963 c73b
00000260: 0ed9 9bbb f0ea 24bc a489 093c ea6a b43b
00000270: 5a60 debb ce49 103c cac5 633c bea0 3d3b
00000280: f2d5 123c ad3d 0f3c 73d6 803c 0601 d1ba
00000290: 18b1 993c ad6d 11bb fac8 06bc 1350 eb3b
000002a0: f7a7 003c 190e 823c 5ef5 303c b03b 1e3c
000002b0: 4970 123c fe7c 2fbc 3f36 633b 4a72 b43a
000002c0: 281c 58ba 98b6 a03c a17e fc3b a9bd 953a
000002d0: f800 a23b 4615 f7b9 c924 353c 68a3 a2bc
000002e0: 9afc eb3a fa62 783b c6ed 0ebc 3fc4 023c
000002f0: 1379 f3bb 4af8 b8ba 0253 1c3c 696b 97bb
00000300: d622 b83a 2d4c 85bc 0ac9 ed3b 4307 b63a
00000310: 4c83 2d3c a8b2 d1bb 6882 b0bb a1c0 02bc
00000320: 81b3 f8bb b343 43bb 8074 3ebc 02ed 2339
00000330: a064 613c f023 61bc 72f3 cd3a 9018 b6bc
00000340: a855 abbb 9562 c6ba 7936 66bb d54b 223c
00000350: 5bf6 26bb 699e 4cbc d55d 34bc ad25 b5bb
00000360: 7a83 27bb 0c56 1dbc ef7b 4e3b dbbf 20bb
00000370: c376 7fb9 fd8c 10bc 763a b6bb b4e8 b4bb
00000380: bbc7 983a e107 073c 00b2 35bb 6230 46b9
00000390: c536 693c d267 3bbb 3c84 563c 7bc4 213c
000003a0: b025 a43b 4770 67bc 4645 02bc 1ac1 16bb
000003b0: c550 b4bb cc00 163c 958c 803c 554f d33b
000003c0: 3eed be3b eae6 30b9 7b2a 90bb 3be4 c4b8
000003d0: cb59 a83a 348a 9dba 5850 53ba 8ff2 1cbc
000003e0: 19ed ac3b 9fa2 b83a 7acd 1f3c 38a1 96bb
000003f0: d0b5 48bc 2653 3b3c 5512 6d3c a27e 7dbc

action_model._discrete_distribution.branches.0.bias f4 [3]
0.0010021168 -0.0009029563 0.00024396711
00000000: 7659 833a 5fb4 6cba 6cd1 7f39

exp_avg f4 [128, 16]
-0.00017290095 -5.6062785e-05 -8.144612e-05 7.067111e-06 -0.00016247573 -5.9753183e-05 -7.276767e-05 7.668321e-06
-0.00013897193 -6.8391215e-05 -5.454889e-05 6.9504226e-06 -0.00012913434 -8.808147e-05 -4.4870834e-05 7.959151e-06
-5.3042855e-05 3.6290592e-05 -0.0001070226 -3.7498397e-05 -3.52612e-05 -5.889626e-05 -0.00010811324 -3.607389e-05
1.2774032e-05 -0.00014787684 -0.00010642262 -3.6505055e-05 4.6500634e-05 -0.00024803716 -0.00011125776 -3.5515128e-05
0.00038889126 0.00043088073 4.722529e-05 -4.9310827e-05 0.00033826104 0.00041557194 6.995385e-05 -4.9310795e-05
0.0003249036 0.0004021926 8.379975e-05 -4.9310886e-05 0.00032435075 0.00039377724 9.1463124e-05 -4.9313465e-05
-2.3353969e-05 -2.6112531e-05 -4.103469e-05 -1.4700259e-05 -1.5756306e-05 -7.7714085e-06 -5.2799383e-05 -1.4700126e-05
1.6091029e-06 6.8414734e-06 -6.39584e-05 -1.470291e-05 -3.7999625e-06 1.40429e-05 -8.126373e-05 -1.4701386e-05
-8.038338e-05 -0.00022647505 -5.6789595e-05 6.7811525e-05 -0.00013040574 -7.213316e-05 -1.5143984e-05 6.7891015e-05
-0.00022755434 6.8575595e-05 4.7174108e-05 6.790951e-05 -0.0003130925 0.00020728234 9.1501126e-05 6.791541e-05
0.00020684619 0.00034401615 -0.00016200401 1.4862991e-05 0.00019219176 0.00028973393 -0.00020896818 1.482748e-05
0.00019174907 0.00024395302 -0.00025988676 1.4782551e-05 0.000202453 0.00021234831 -0.00029920682 1.4719094e-05
-0.00049117993 -0.00081519916 0.00010618973 -6.346654e-05 -0.0004799381 -0.0007513444 0.00013117498 -6.347824e-05
-0.00050668657 -0.0006969224 0.00016660272 -6.349063e-05 -0.00053490204 -0.0006541055 0.00018579562 -6.353493e-05
3.8531907e-05 0.00025230087 3.8779035e-05 -1.4392899e-05 3.103306e-05 0.000255067 6.0109214e-05 -1.4438403e-05
9.989426e-06 0.0002528126 7.729928e-05 -1.4462197e-05 -3.4640558e-05 0.0002570947 0.00010727317 -1.4541378e-05
-0.00018987647 -0.00011439691 -6.426173e-05 -1.546296e-05 -0.00017510493 -0.000110674846 -7.42984e-05 -1.5462832e-05
-0.00016235684 -0.0001076134 -9.707807e-05 -1.5522408e-05 -0.00016964415 -0.0001091938 -0.00011828153 -1.550585e-05
0.00021715874 0.00035906996 -0.00027887116 5.277387e-05 0.00019539135 0.00036843822 -0.0002608675 5.2492236e-05
0.00018068148 0.00037015037 -0.00023071314 5.2455438e-05 0.00015817162 0.0003563921 -0.00020980918 5.245533e-05
-0.00016395382 -0.00011741542 0.00011254944 2.9862571e-05 -0.00014699473 -0.00011312296 0.00013386218 3.0674582e-05
-0.00016689775 -0.00011951459 0.00015798176 3.066872e-05 -0.00017774192 -0.00013907398 0.00018006023 3.063811e-05
0.00021235856 0.0001467936 4.3954573e-05 3.0012638e-06 0.00022512136 0.00024751291 9.613845e-05 3.0586073e-06
0.00020265668 0.00033264363 0.00014627932 2.4109684e-06 0.00016800694 0.00039713318 0.00017394213 3.071891e-06
-7.875476e-05 -0.00015274297 0.00013115327 2.454937e-06 -0.00010564417 -0.00010724008 0.00017771217 2.3372684e-06
-0.0001489662 -7.3007526e-05 0.00023201974 1.8893156e-06 -0.00017131398 -3.937924e-05 0.0002849143 1.9133106e-06
-0.00021529471 -9.655726e-05 -5.0717234e-05 -1.7662745e-05 -0.00022275759 -8.750968e-05 -5.2824627e-05 -1.762188e-05
-0.00020873558 -7.494109e-05 -4.1301497e-05 -1.7623786e-05 -0.0001833819 -4.636963e-05 -3.235193e-05 -1.7568986e-05
8.8389366e-05 0.0002165711 -6.861891e-05 -3.6615934e-06 0.00010527982 0.00025448127 -2.6931633e-05 -4.4361527e-06
8.622442e-05 0.00028251347 9.224443e-06 -4.4164153e-06 7.197201e-05 0.00030289308 4.7627927e-05 -4.734954e-06
-3.830725e-05 -5.4516195e-06 9.854834e-05 3.581461e-05 -2.2682825e-05 1.499737e-05 9.451879e-05 3.578908e-05
-1.9648993e-05 3.344941e-05 8.3537714e-05 3.559489e-05 -4.1820473e-05 4.7949532e-05 6.9508955e-05 3.576374e-05
00000000: bf4c 35b9 f524 6bb8 0dce aab8 0522 ed36
00000010: 3f5e 2ab9 7e9f 7ab8 d89a 98b8 30a7 0037
00000020: feb8 11b9 416d 8fb8 6dcb 64b8 ad37 e936
00000030: 3c68 07b9 61b8 b8b8 b133 3cb8 4b88 0537
00000040: 557a 5eb8 ba36 1838 5271 e0b8 9947 1db8
00000050: 6de5 13b8 6107 77b8 dbba e2b8 0b4e 17b8
00000060: 0d50 5637 630f 1bb9 362f dfb8 011d 19b8
00000070: ad09 4338 fc0a 82b9 0e53 e9b8 14f6 14b8
00000080: 1ae4 cb39 d5e7 e139 c513 4638 19d3 4eb8
00000090: a158 b139 1fe1 d939 30b4 9238 10d3 4eb8
000000a0: d357 aa39 61dd d239 a6bd af38 29d3 4eb8
000000b0: 9f0d aa39 e373 ce39 e4cf bf38 eed5 4eb8
000000c0: 44e8 c3b7 3c0c dbb7 aa1c 2cb8 22a1 76b7
000000d0: 692c 84b7 f261 02b7 e874 5db8 8fa0 76b7
000000e0: 5bf8 d735 cf8f e536 6821 86b8 85ac 76b7
000000f0: dc02 7fb6 cc99 6b37 226c aab8 f9a5 76b7
00000100: 8093 a8b8 ef79 6db9 5d31 6eb8 0936 8e38
00000110: 86bd 08b9 3246 97b8 ea12 7eb7 b660 8e38
00000120: a79b 6eb9 3ed0 8f38 d0dc 4538 a46a 8e38
00000130: 9026 a4b9 ee59 5939 4be4 bf38 cf6d 8e38
00000140: dae4 5839 115d b439 9fdf 29b9 0f5c 7937
00000150: 1587 4939 6ee7 9739 781e 5bb9 8bc3 7837
00000160: 4010 4939 a4cd 7f39 6941 88b9 9302 7837
00000170: 9049 5439 d1a9 5e39 dcde 9cb9 07f2 7637
00000180: 87c2 00ba 17b3 55ba 2db2 de38 5719 85b8
00000190: 34a0 fbb9 dff5 44ba 048c 0939 9f1f 85b8
000001a0: 29d3 04ba acb1 36ba 14b2 2e39 4626 85b8
000001b0: ab38 0cba 4778 2bba 22d2 4239 0e3e 85b8
000001c0: 529d 2138 4047 8439 aca6 2238 0879 71b7
000001d0: 7f29 0238 83ba 8539 c71d 7c38 783c 72b7
000001e0: 4298 2737 ef8b 8439 bc1b a238 aaa2 72b7
000001f0: 044b 11b8 abca 8639 d8f7 e038 bef6 73b7
00000200: 9419 47b9 60e8 efb8 41c4 86b8 74b6 81b7
00000210: 5f9c 37b9 1b1a e8b8 a6d0 9bb8 2eb6 81b7
00000220: 553e 2ab9 81ae e1b8 6496 cbb8 1e36 82b7
00000230: 81e2 31b9 fafe e4b8 ea0d f8b8 8f12 82b7
00000240: 1bb5 6339 8e41 bc39 7435 92b9 8359 5d38
00000250: f7e1 4c39 f12a c139 0bc5 88b9 1c2b 5c38
00000260: 5175 3d39 be10 c239 96eb 71b9 9903 5c38
00000270: dfda 2539 23da ba39 3900 5cb9 7b03 5c38
00000280: 05eb 2bb9 ec3c f6b8 8508 ec38 6281 fa37
00000290: 9922 1ab9 6d3c edb8 5b5d 0c39 95a8 0038
000002a0: 4601 2fb9 e8a3 fab8 e8a7 2539 4aa2 0038
000002b0: 3c60 3ab9 63d4 11b9 8dce 3c39 6c81 0038
000002c0: 91ac 5e39 9bec 1939 dd5b 3838 5269 4936
000002d0: 8e0e 6c39 9fc4 8139 f09d c938 7942 4d36
000002e0: 3d80 5439 ac66 ae39 8e62 1939 1fcc 2136
000002f0: 052b 3039 5036 d039 3c64 3639 af26 4e36
00000300: 2429 a5b8 a129 20b9 3086 0939 7fbf 2436
00000310: 488d ddb8 14e6 e0b8 3f58 3a39 f7d9 1c36
00000320: cf33 1cb9 9e1b 99b8 534a 7339 6494 fd35
00000330: bfa2 33b9 232b 25b8 8d60 9539 6d66 0036
00000340: bcc0 61b9 c97e cab8 37b9 54b8 752a 94b7
00000350: 0994 69b9 6785 b7b8 0390 5db8 b3d2 93b7
00000360: 08e0 5ab9 b129 9db8 253b 2db8 cbd6 93b7
00000370: 344a 40b9 037d 42b8 9fb1 07b8 1c61 93b7
00000380: ae5d b938 5d17 6339 7fe7 8fb8 b2b9 75b6
00000390: acc9 dc38 e66b 8539 3eeb e1b7 43da 94b6
000003a0: 62d3 b438 511e 9439 aec2 1a37 b830 94b6
000003b0: aeef 9638 9fcd 9e39 19c4 4738 f2e0 9eb6
000003c0: 19ac 20b8 0eed b6b6 bdab ce38 a537 1638
000003d0: ff46 beb7 379d 7b37 6438 c638 3b1c 1638
000003e0: e4d3 a4b7 084c 0c38 f830 af38 b94b 1538
000003f0: 6468 2fb8 6b1d 4938 56c5 9138 0601 1638

exp_avg_sq f4 [128, 16]
6.5841064e-08 1.0904532e-07 1.1740417e-08 8.0525125e-10 6.472182e-08 1.0986096e-07 1.0295839e-08 8.0575446e-10
6.3415804e-08 1.0947835e-07 8.7677945e-09 8.006559e-10 6.2062426e-08 1.0889526e-07 7.453812e-09 8.0147805e-10
4.0624832e-07 4.836868e-07 6.892622e-08 3.945227e-09 4.1276544e-07 4.84004e-07 6.798202e-08 3.941791e-09
4.1477233e-07 4.827093e-07 6.7737204e-08 3.9378794e-09 4.1384624e-07 4.7935885e-07 6.7725075e-08 3.9227466e-09
4.4438234e-08 7.835695e-08 1.1187925e-08 9.92652e-10 4.5785036e-08 7.923584e-08 1.2211762e-08 9.926516e-10
4.6267576e-08 7.841465e-08 1.3049594e-08 9.926512e-10 4.6492293e-08 7.633024e-08 1.3517383e-08 9.926745e-10
8.833186e-09 1.9402595e-08 1.8987554e-09 1.5261634e-10 8.8509635e-09 1.951139e-08 2.1834772e-09 1.5261659e-10
8.885619e-09 1.9551283e-08 2.4974756e-09 1.5261678e-10 8.978345e-09 1.9560197e-08 2.8336076e-09 1.526171e-10
7.810291e-07 7.9859865e-07 1.3535278e-07 6.7382984e-09 7.8701567e-07 7.9747474e-07 1.3336305e-07 6.739154e-09
7.94898e-07 7.9771473e-07 1.3189974e-07 6.7390076e-09 7.9158985e-07 7.959316e-07 1.3049724e-07 6.7390715e-09
1.17705206e-07 1.0330529e-07 2.4559967e-08 1.646125e-09 1.17152894e-07 1.0211585e-07 2.4234911e-08 1.6456204e-09
1.1796739e-07 1.01348924e-07 2.3891872e-08 1.6452552e-09 1.1980674e-07 1.0108881e-07 2.3201446e-08 1.644969e-09
3.871522e-07 3.0698322e-07 5.117784e-08 3.8595753e-09 3.8978717e-07 2.9883464e-07 4.849991e-08 3.859705e-09
3.9615168e-07 2.924998e-07 4.6725475e-08 3.859734e-09 3.9647887e-07 2.886512e-07 4.4994984e-08 3.8595043e-09
2.8749585e-07 2.7411204e-07 3.1685268e-08 2.07242e-09 2.892024e-07 2.7285932e-07 3.110692e-08 2.0725779e-09
2.8841006e-07 2.726311e-07 3.0409254e-08 2.0728539e-09 2.8725333e-07 2.7225693e-07 2.974683e-08 2.073827e-09
7.066001e-08 8.389361e-08 1.8569715e-08 8.830505e-10 7.086162e-08 8.437499e-08 1.8786768e-08 8.8305013e-10
7.152043e-08 8.442446e-08 1.8963984e-08 8.8290036e-10 7.159399e-08 8.391755e-08 1.9103295e-08 8.828269e-10
1.1426952e-07 1.6035321e-07 2.3975335e-08 1.10877e-09 1.1355242e-07 1.6231131e-07 2.1746532e-08 1.1075002e-09
1.1355943e-07 1.6198324e-07 1.9481945e-08 1.1072385e-09 1.136452e-07 1.6066028e-07 1.759926e-08 1.1072484e-09
1.9536108e-08 1.91392e-08 1.28882975e-08 3.9972395e-10 2.1005967e-08 1.9450004e-08 1.2139334e-08 4.0026293e-10
2.2638634e-08 1.9951816e-08 1.1208052e-08 4.0025344e-10 2.4352445e-08 2.0390695e-08 1.0256479e-08 3.9996692e-10
5.045458e-08 6.22317e-08 2.1977092e-08 1.5119788e-09 5.0436658e-08 6.251044e-08 1.9941403e-08 1.5113607e-09
5.0529998e-08 6.260097e-08 1.8380929e-08 1.5168765e-09 4.9545267e-08 6.245625e-08 1.6732903e-08 1.5114012e-09
1.5602518e-07 1.5556449e-07 2.1516176e-08 1.2602919e-09 1.5544897e-07 1.5329458e-07 2.0951255e-08 1.2601502e-09
1.5738162e-07 1.5122582e-07 2.1127502e-08 1.2605068e-09 1.5741324e-07 1.4967046e-07 2.2019352e-08 1.2605084e-09
1.0220978e-07 1.226336e-07 1.5006254e-08 1.136069e-09 1.0295581e-07 1.2360229e-07 1.5509604e-08 1.1361708e-09
1.03397994e-07 1.2413125e-07 1.6547329e-08 1.136184e-09 1.0306127e-07 1.2423774e-07 1.8195562e-08 1.1363362e-09
6.918601e-08 7.3514e-08 3.278294e-08 1.6278997e-09 6.954948e-08 7.049545e-08 3.4782456e-08 1.6316929e-09
7.046294e-08 6.789015e-08 3.541029e-08 1.6313955e-09 7.2186864e-08 6.633215e-08 3.449572e-08 1.6360981e-09
7.0592265e-09 9.855264e-09 2.754715e-09 1.879033e-10 6.665631e-09 9.2560315e-09 3.1121157e-09 1.8788789e-10
6.3692576e-09 8.698658e-09 3.399816e-09 1.8791517e-10 6.1574186e-09 8.295619e-09 3.6721208e-09 1.8737631e-10
00000000: 8264 8d33 4c2c ea33 e6b2 4932 8558 5d30
00000010: 32fd 8a33 b4ec eb33 94e1 3032 ee7b 5d30
00000020: 352f 8833 5c1a eb33 2ba1 1632 2615 5c30
00000030: 2e47 8533 cdd9 e933 360e 0032 014f 5c30
00000040: 581a da34 b4d6 0135 9704 9433 958e 8731
00000050: 0d9a dd34 80ec 0135 83fd 9133 5c70 8731
00000060: e0ad de34 8893 0135 ec76 9133 f44d 8731
00000070: 982e de34 4aad 0035 4170 9133 d8c8 8631
00000080: 5bdc 3e33 3045 a833 0435 4032 d66d 8830
00000090: 2ea5 4433 5d28 aa33 e6cb 5132 d36d 8830
000000a0: bdb7 4633 e964 a833 b930 6032 cf6d 8830
000000b0: d1ae 4733 feea a333 143a 6832 a16e 8830
000000c0: c3c0 1732 c2aa a632 427b 0231 aecd 272f
000000d0: f30e 1832 009a a732 230c 1631 c0cd 272f
000000e0: 5ea7 1832 baf1 a732 0ea0 2b31 cecd 272f
000000f0: 2e3f 1a32 5405 a832 5ab9 4231 e5cd 272f
00000100: e9a7 5135 485f 5635 7d55 1134 b386 e731
00000110: 4e43 5335 0c12 5635 8e32 0f34 3a8e e731
00000120: fa60 5535 8a22 5635 53a0 0d34 f08c e731
00000130: a47d 5435 01a8 5535 cf1e 0c34 808d e731
00000140: 1fc5 fc33 afd8 dd33 f0f7 d232 e03d e230
00000150: 7c95 fb33 c84a db33 222d d032 1f2c e230
00000160: 4255 fd33 29a5 d933 c83a cd32 451f e230
00000170: 3aa4 0034 2916 d933 854c c732 3415 e230
00000180: cbd9 cf34 74cf a434 a1ce 5b33 2f9d 8431
00000190: f143 d134 856f a034 374e 5033 539e 8431
000001a0: acae d434 de08 9d34 34af 4833 949e 8431
000001b0: a4db d434 ebf7 9a34 8240 4133 8f9c 8431
000001c0: 2159 9a34 ac29 9334 5216 0833 666a 0e31
000001d0: ad43 9b34 807d 9234 6c9a 0533 2d6d 0e31
000001e0: c7d6 9a34 225e 9234 549b 0233 0872 0e31
000001f0: cc37 9a34 b52a 9234 f985 ff32 2783 0e31
00000200: c0bd 9733 0029 b433 3c83 9f32 28bb 7230
00000210: 962c 9833 a431 b533 8a60 a132 21bb 7230
00000220: c696 9933 d64c b533 3ee6 a232 97b0 7230
00000230: 36bf 9933 2936 b433 9718 a432 6cab 7230
00000240: 5564 f533 8e2d 2c34 52f2 cd32 6063 9830
00000250: 1ada f333 cb47 2e34 21cd ba32 b336 9830
00000260: f5dd f333 9ded 2d34 4059 a732 7e2d 9830
00000270: 1c0d f433 f681 2c34 2f2d 9732 d72d 9830
00000280: 5bd0 a732 8c67 a432 556b 5d32 25c0 db2f
00000290: 9c70 b432 0313 a732 5b8d 5032 000c dc2f
000002a0: e276 c232 8262 ab32 898d 4032 aa0a dc2f
000002b0: 982f d132 9d27 af32 7934 3032 57e2 db2f
000002c0: 66b3 5833 3da4 8533 23c8 bc32 06ce cf30
000002d0: b19f 5833 7a3d 8633 9c4b ab32 47b8 cf30
000002e0: 5206 5933 3f6f 8633 17e4 9d32 597a d030
000002f0: 99cb 5433 b01f 8633 0bbc 8f32 b4b9 cf30
00000300: e087 2734 3e09 2734 92d2 b832 9436 ad30
00000310: 7de9 2634 4b99 2434 4cf8 b332 9831 ad30
00000320: bbfc 2834 a360 2234 de7b b532 243e ad30
00000330: 6c05 2934 1ab5 2034 1125 bd32 323e ad30
00000340: 6c7e db33 44ad 0334 1ae7 8032 e023 9c30
00000350: 8e18 dd33 8ab7 0434 fb39 8532 7527 9c30
00000360: a60b de33 f048 0534 f623 8e32 ec27 9c30
00000370: 8852 dd33 3666 0534 774c 9c32 472d 9c30
00000380: 6993 9433 c0de 9d33 39cd 0c33 a1bc df30
00000390: 3b5b 9533 4963 9733 b763 1533 1742 e030
000003a0: 6951 9733 01cb 9133 0716 1833 a037 e030
000003b0: 2605 9b33 7c72 8e33 7228 1433 16dd e030
000003c0: 9d8d f231 e94f 2932 754d 3d31 149a 4e2f
000003d0: 8307 e531 7504 1f32 ebdc 5531 bd95 4e2f
000003e0: 95d8 da31 1a71 1532 32a2 6931 6b9d 4e2f
000003f0: 3a91 d331 8584 0e32 a258 7c31 be05 4e2f

exp_avg f4 [128]
3.9795727e-06 -1.775757e-05 -2.4656734e-05 -7.350698e-06 3.3957724e-05 7.359553e-06 -3.1767468e-05 -7.2706925e-06
-7.752919e-06 2.6227663e-05 1.5319058e-05 1.535947e-06 9.566578e-07 -8.784487e-06 -2.367478e-06 1.788187e-05
-2.3822784e-06 -2.9942794e-05 -5.363328e-05 2.3059945e-05 -1.4816964e-05 2.1900554e-05 -4.274707e-06 2.2671007e-05
-1.2572934e-05 -1.4453775e-05 1.7391469e-06 -5.239467e-07 -1.9920884e-05 1.709957e-05 9.815495e-06 -2.563309e-06
1.2705722e-05 -1.2442745e-05 2.687439e-06 6.6316234e-06 2.4990411e-05 -1.3440035e-05 1.1214359e-05 1.575036e-05
2.2599588e-05 -5.093098e-07 2.7220744e-05 1.0587433e-05 1.0506939e-05 2.370076e-05 9.3063845e-06 -0.00010007381
3.8983875e-05 -6.428857e-05 1.4537501e-05 -3.5857936e-06 -1.602883e-05 -9.457265e-07 -1.2963465e-06 -1.2784637e-06
1.2824842e-05 2.015743e-05 -5.723177e-06 2.592219e-05 9.97562e-06 1.3875699e-05 5.3660838e-06 6.3594975e-06
-2.7811288e-06 8.224231e-05 -3.654909e-05 -1.2224789e-05 -1.909673e-07 -3.445024e-05 6.6523958e-06 1.2449459e-05
-1.8774352e-05 1.3624499e-05 -4.1733556e-06 -7.5470566e-06 1.680956e-05 -1.7238355e-05 1.1294572e-05 1.1762765e-05
8.83953e-06 -1.2526122e-05 -9.8067985e-06 4.2368614e-05 1.3345817e-05 3.3404605e-05 3.6225665e-05 3.4467107e-06
-4.4284434e-06 -2.5599858e-05 -6.6287394e-06 -2.624297e-05 3.6146328e-05 1.3088921e-05 5.2901473e-06 -7.654486e-07
-7.872485e-06 -2.1286845e-05 4.042572e-05 -1.3447063e-06 3.266592e-05 2.6443466e-05 -2.9084384e-05 1.2790823e-05
-1.8181897e-06 1.0299795e-05 2.0873991e-05 2.5650223e-05 2.2517597e-05 -3.53985e-05 1.5942398e-05 -2.3789999e-06
-2.9504723e-05 1.639459e-05 5.742842e-06 -7.252193e-06 3.155623e-05 -4.427164e-05 1.2887668e-05 -1.5627265e-05
-6.440033e-06 1.5905258e-06 -7.77761e-06 2.2510158e-05 -2.7899796e-05 1.7171576e-05 4.114472e-06 2.6297787e-06
00000000: 4588 8536 17f6 94b7 efd5 ceb7 04a6 f6b6
00000010: d46d 0e38 14f2 f636 0f3e 05b8 c6f6 f3b6
00000020: 8912 02b7 7a03 dc37 6d81 8037 bd26 ce35
00000030: 8366 8035 1661 13b7 f6e0 1eb6 0601 9637
00000040: 3bdf 1fb6 a92d fbb7 4cf4 60b8 db70 c137
00000050: 6096 78b7 15b7 b737 746f 8fb6 9e2d be37
00000060: 57f0 52b7 7e7e 72b7 a26c e935 58a5 0cb5
00000070: c61b a7b7 0c71 8f37 3bad 2437 5005 2cb6
00000080: a92a 5537 2fc1 50b7 da59 3436 3685 de36
00000090: 80a2 d137 837c 61b7 4e25 3c37 a41f 8437
000000a0: 3f94 bd37 81b7 08b5 1a58 e437 aea0 3137
000000b0: f646 3037 ffd0 c637 9e22 1c37 b8de d1b8
000000c0: 9e82 2338 aad2 86b8 17e6 7337 77a3 70b6
000000d0: a675 86b7 d5dd 7db5 20fe adb5 ae97 abb5
000000e0: 472a 5737 c017 a937 b709 c0b6 7b73 d937
000000f0: f65c 2737 accb 6837 4f0e b436 ab63 d536
00000100: 6ea3 3ab6 8179 ac38 494c 19b8 1219 4db7
00000110: b10c 4db4 aa7e 10b8 a537 df36 05de 5037
00000120: 9d7d 9db7 c794 6437 da08 8cb6 b93c fdb6
00000130: 4102 8d37 169b 90b7 d17d 3d37 b158 4537
00000140: 7e4d 1437 4927 52b7 e187 24b7 f4b4 3138
00000150: d9e7 5f37 ec1b 0c38 03f1 1738 0a4e 6736
00000160: 0a98 94b6 47bf d6b7 706c deb6 5924 dcb7
00000170: d39b 1738 7d98 5b37 0582 b136 3a79 4db5
00000180: 1114 04b7 2791 b2b7 c98e 2938 c27b b4b5
00000190: c402 0938 e9d2 dd37 3dfa f3b7 2b98 5637
000001a0: 8608 f4b5 48cd 2c37 8e1a af37 6f2b d737
000001b0: 2ce4 bc37 da78 14b8 0abc 8537 e8a6 1fb6
000001c0: e980 f7b7 1d87 8937 a3b2 c036 dd57 f3b6
000001d0: 3e5b 0438 50b0 39b8 1d38 5837 4c17 83b7
000001e0: 7617 d8b6 0d7a d535 957c 02b7 32d4 bc37
000001f0: 5b0a eab7 ae0b 9037 0c0f 8a36 417b 3036

exp_avg_sq f4 [128]
2.0036951e-10 9.806866e-10 2.4816862e-10 3.815428e-11 1.6847679e-09 4.112423e-10 9.648761e-10 5.184568e-10
2.2070674e-10 2.768121e-10 9.999174e-11 3.778503e-10 3.1512706e-10 2.8408406e-10 4.0902456e-10 4.6844074e-11
4.510895e-10 3.9030146e-10 4.1643203e-10 8.4739166e-10 5.56039e-10 1.0196549e-09 2.9745453e-10 1.9466323e-10
8.7182606e-10 1.4847218e-10 1.1978075e-10 2.4748223e-10 1.5225236e-10 3.1145208e-11 2.8977046e-11 2.944946e-10
9.531813e-10 8.034453e-11 1.8755124e-11 6.9144507e-10 3.9212666e-10 2.6216926e-10 1.5561544e-10 1.6548442e-10
2.3155797e-10 9.1496005e-10 3.817464e-10 3.799266e-09 8.2670143e-10 6.350534e-10 4.2656306e-10 1.3782984e-09
3.8489356e-10 9.0733154e-10 2.617456e-10 2.741701e-10 3.9278678e-10 1.1142269e-09 6.665344e-11 4.4245096e-10
3.666187e-10 2.2927368e-10 2.2135195e-10 5.663106e-10 1.0293565e-10 7.518256e-10 2.1097063e-10 3.742525e-10
1.8780989e-10 2.3583562e-09 5.195241e-10 9.586398e-11 5.89328e-11 4.755148e-10 1.277167e-09 5.7939914e-10
3.6154787e-10 1.8293349e-10 1.3755488e-10 3.4883668e-10 8.701619e-10 4.000519e-09 1.0526839e-09 9.187392e-10
3.1256286e-10 1.0475433e-09 1.8407835e-10 3.967682e-10 9.71142e-10 1.6988702e-10 4.2368295e-10 3.9662074e-10
1.649212e-09 2.9418012e-09 8.9293045e-10 1.09305884e-10 4.339977e-10 1.6180648e-09 2.9858968e-10 3.2057143e-10
3.6202413e-10 1.374931e-10 3.1366357e-10 2.5238725e-10 2.1130095e-09 8.0873663e-10 6.1613253e-10 8.603775e-11
1.3880385e-09 4.53075e-11 2.3624138e-09 4.6299664e-10 2.9764433e-10 6.5977357e-10 1.3739904e-10 1.1470673e-10
4.8039805e-11 9.0406094e-10 8.0893965e-11 4.9951515e-10 2.3610378e-09 5.035855e-10 2.877084e-09 4.512895e-09
9.744121e-11 2.544063e-09 1.7483254e-10 8.95802e-11 6.8532785e-10 3.082526e-10 1.9414498e-10 1.3258166e-09
00000000: 014f 5c2f d8c8 8630 a16e 882f e6cd 272e
00000010: 808d e730 3515 e22f 8f9c 8430 2783 0e30
00000020: 6dab 722f d72d 982f 58e2 db2e b4b9 cf2f
00000030: 313e ad2f 472d 9c2f 17dd e02f bd05 4e2e
00000040: 34fd f72f 0c92 d62f 99ef e42f e3ed 6830
00000050: c4d7 1830 eb23 8c30 0187 a32f d408 562f
00000060: 4ea5 6f30 343f 232f 49b3 032f 070e 882f
00000070: 3b67 272f 63fa 082e 82e2 fe2d 6ee6 a12f
00000080: 1601 8330 f3ad b02e c9f8 a42d 1f10 3e30
00000090: ec92 d72f 0b21 902f da19 2b2f b9f3 352f
000000a0: c699 7e2f 9780 7b30 08de d12f b28a 8231
000000b0: f13d 6330 e98f 2e30 6a81 ea2f 906e bd30
000000c0: f498 d32f c867 7930 6be5 8f2f 03ba 962f
000000d0: d3ef d72f 6023 9930 8d92 922e 703d f32f
000000e0: ff8c c92f ce16 7c2f 0961 732f 91aa 1b30
000000f0: 9f5b e22e 06a9 4e30 f4f6 672f 5bbf cd2f
00000100: c97f 4e2f a410 2231 42ce 0e30 a0ce d22e
00000110: 3898 812e 61b5 0230 5288 af30 9743 1f30
00000120: 57c3 c62f 3323 492f 423e 172f 66c6 bf2f
00000130: 3330 6f30 f074 8931 06ae 9030 868a 7c30
00000140: 50d5 ab2f 27f9 8f30 7365 4a2f 2920 da2f
00000150: 0579 8530 f2ca 3a2f 13ec e82f 680b da2f
00000160: 7daa e230 b728 4a31 6572 7530 be5d f02e
00000170: bf97 ee2f 9862 de30 c326 a42f 6b3c b02f
00000180: 5e06 c72f de2c 172f 3970 ac2f 59c0 8a2f
00000190: 7534 1131 c84d 5e30 795c 2930 f332 bd2e
000001a0: 43c5 be30 b643 472e 0658 2231 fc88 fe2f
000001b0: b7a1 a32f 705b 3530 6412 172f 263e fc2e
000001c0: 0348 532e a281 7830 41e3 b12e 414e 0930
000001d0: d13f 2231 ae6c 0a30 32b6 4531 d80f 9b31
000001e0: 8646 d62e a1d3 2e31 fc3a 402f 2bfd c42e
000001f0: a961 3c30 b276 a92f f476 552f 0638 b630
