results/ppo/BalanceBall1/BalanceBall1-12224.pt (torch, 460858 bytes, 33 tensors)

network_body._body_endoder.seq_layers.0.weight f4 [128, 12]
00000000: 3ae4 29bd c22f f5bb 4a08 9f3d 949a a23c
00000010: 16d1 a93e bbb1 51bd 7b69 a6be d718 893d
00000020: 5ecf fc3d 85b7 40be bd7d 733e 224f 2c3f
00000030: 94fa 1a3e ec6d 8abe 1e1f 063d a6e3 9d3d
00000040: 34ea d23e b6ea d43e 9537 b0be a391 af3e
00000050: 7e81 c6be 568c 34be 1043 c53e 2ea6 6abe
00000060: f00b c63e 3a13 56be 7161 2cbf 05c0 82bd
00000070: e1fc 8e3e aa8c dfbe e555 24be edbb 51bb
00000080: b905 103d 3e64 bb3e 73c0 4ebe f0d8 65be
00000090: 6dcd 9cbe 4559 24be 5712 343f 9145 5abd
000000a0: 17b2 65bd c7e1 f4be c8c3 91ba eacf 1cbd
000000b0: e4e3 423e 7e44 36bf 0586 41be 35a3 21be
000000c0: 7c3a 7dbe 3246 d2bd f723 483e bfa7 a63e
000000d0: 01f4 c33e 36a6 17be 4024 eabe 23c0 b63e
000000e0: 1749 d03e 9854 f0be 38fd 06bf 2b5e f93d
000000f0: 640e 583e a4bc 6b3d e812 a6be aced d13d
00000100: 383e 28bc 53c2 6f3e 5b7c 843e 205f acbd
00000110: f49c 723e 8a13 05bd 88f7 7dbe 4e32 3b3e
00000120: 4c23 f93e 418d 09be 7dd6 96be 42a8 22bd
00000130: 177d 8dbe 1437 453e 5c29 debe fb8a 1ebe
00000140: 1aae 683e ec8a 20be c2b7 bebb 31c1 5b3e
00000150: 36ac 093d 4edc abbd b703 37bb fc18 e43e
00000160: 2d88 b13e cc52 c2be 2c5f 86be d8e4 07bf
00000170: 6241 02bd 82a5 97be 30ec edbe 87a2 90be
00000180: be1b 43bd 9af7 423d ac7a 8cbe a6c5 ef3e
00000190: 150e c8be 8946 1a3d 6ccd 16be 041b 213e
000001a0: 173a 303e 950f 5f3e 02f9 7d3e 499e 3b3c
000001b0: 4a47 9abd 5934 bfbe c828 923d 1d66 8ebd
000001c0: c6bc 79bd 2d10 4b3e 9de4 853c d51b d23c
000001d0: b5bb 8cbd 1522 943d d10d 22be 6914 e73e
000001e0: 3916 453e e796 373e bc67 193e e40b 41be
000001f0: 2396 d13e 7bd7 92b9 ce20 073e 99bd 08be
00000200: 4173 20bd 6162 1abd 9e78 82be 1fc8 a9bd
00000210: dbd9 c03e 5bbd bd3d 5375 703d c01f 893e
00000220: f866 6bbd 47e5 8dbe ebff 72bc d09d 123e
00000230: ab6e dabe 32c0 d33e 1508 cdbe 48f2 a4be
00000240: e810 043e 3ec6 0cbe c684 9abc df8a 83be
00000250: 66a0 bb3d 1cf5 27bf 525d a43e 3463 adbd
00000260: 4018 8bbd 6f17 293e 2ee2 7d3e 4a44 9fbe
00000270: 733c 723e 5529 b9bd 771c 55be 256c ad3e
00000280: ddd4 1f3d fb1a c0be f9ba 4d3e 9e21 adbe
00000290: 4854 963e 8a2a 23be 48c4 2cbe 77c2 44be
000002a0: 34a7 363d eee3 ff3e e368 8ebe da15 82be
000002b0: 87be bb3e 1443 683d be40 20be f839 31be
000002c0: 5192 b5bd 242c 223e 700d 16bc 8ba2 b2bd
000002d0: 0e75 54bd 415f 55be d652 dfbd 7d49 7f3e
000002e0: 99b0 ddbc 01ad 873e 117e bdbd 8ed7 15bf
000002f0: 5dc9 a0be 3324 6f3d 7e58 04be 7fbf fbbc
00000300: 3528 2cbf 4895 4abe c0f7 72be 9388 79bd
00000310: dbde 2ebc 614a e7bd faad 87be b719 f43d
00000320: 1b9e 1f3d a1e2 b2bd c9c4 a3bc 09fc cebb
00000330: 578f 843e d7b6 3e3e e3b6 bebd 0a41 183c
00000340: e294 bfbe 92c6 0fbf 10dd 253f ecc8 f33d
00000350: a9fd 3a3e 97e0 cfbd c178 06be 8621 9f3e
00000360: 26bf 1f3e 1cc1 d63e b3d3 453e 519b 7bbe
00000370: c727 f8bd db38 853d d30b 80bc 506e e4bd
00000380: 7788 ecbe e3de babe f0f0 1ebe 1ced a33e
00000390: 0f91 0ebe cda2 a6be 66b6 2e3e 60a4 f53e
000003a0: ce41 493e 7f5e 153e b4eb 163f 53b4 4dbe
000003b0: 9365 123d 163f 29be 4bfb 003e 5277 82be
000003c0: 4a46 13bd 58ef 0fbf 374f b2be 7b90 a33e
000003d0: 3917 5abb 2f86 86be fdd1 e53e 88fb 3dbe
000003e0: 3fc1 6e3e 859c 24be 8f3c 10bf 268e ebbd
000003f0: 24f9 05be 632b a6be 2640 eabd da49 b3bd
-0.04147742 -0.0074825 0.07765253 0.0198491 0.33167332 -0.051194888 -0.3250235 0.06694191
0.1234424 -0.18820007 0.23778434 0.6730825 0.1513465 -0.2703699 0.03274452 0.07709436
0.41194308 0.4158532 -0.34417406 0.342908 -0.3877067 -0.17631659 0.38527727 -0.22914955
0.38680983 -0.20905772 -0.67336184 -0.06384281 0.27927306 -0.43662006 -0.16048391 -0.0032002882
0.035161708 0.36599916 -0.20190601 -0.22446036 -0.30625477 -0.16049679 0.70340484 -0.053289
-0.056078043 -0.47828504 -0.001112097 -0.03828422 0.19032246 -0.7119826 -0.1889878 -0.15784915
-0.24729341 -0.10267295 0.1954497 0.32549855 0.38272098 -0.14809498 -0.45730782 0.35693464
0.40680763 -0.4693954 -0.5273013 0.12176164 0.2109924 0.05755295 -0.324363 0.102504104
-0.01026874 0.23413973 0.25876126 -0.08416581 0.23692685 -0.032489337 -0.24801457 0.18280908
0.48659742 -0.1343279 -0.29460517 -0.039711244 -0.27634498 0.19259292 -0.4339093 -0.15482704
0.22722664 -0.15677994 -0.0058202455 0.21460415 0.0336115 -0.08391629 -0.0027925798 0.44550312
0.34674206 -0.37953794 -0.26244485 -0.5308356 -0.031800635 -0.2961846 -0.4646926 -0.28249
-0.04763388 0.047599413 -0.2743734 0.4683048 -0.39073244 0.037664924 -0.147268 0.15732962
0.1720966 0.21783288 0.2480202 0.011451312 -0.075331286 -0.37344626 0.07136685 -0.0695307
-0.060971044 0.1983039 0.016344363 0.025648037 -0.0687174 0.07233063 -0.15825583 0.4513276
0.19246759 0.17928658 0.14980978 -0.18852192 0.40934858 -0.00028007835 0.13196108 -0.13353576
-0.039172415 -0.037691478 -0.2548265 -0.08290123 0.3766621 0.09264632 0.05870564 0.26782036
-0.057471246 -0.27713987 -0.014831523 0.14318013 -0.42662558 0.4135757 -0.4004523 -0.32216096
0.12897074 -0.13747498 -0.01886214 -0.25691888 0.09161453 -0.6560838 0.32102448 -0.08466187
-0.06791735 0.16512845 0.24793312 -0.31106788 0.23655872 -0.090410866 -0.2081164 0.3387157
0.03902136 -0.37520584 0.20090856 -0.3381471 0.29361176 -0.15934196 -0.1687175 -0.19214807
0.04459305 0.49978584 -0.27814397 -0.25407296 0.36668798 0.056704596 -0.15649697 -0.1730727
-0.08865798 0.15837151 -0.009158477 -0.08722409 -0.051869445 -0.20837118 -0.109044716 0.24930377
-0.027061747 0.2649918 -0.09252561 -0.58532035 -0.31403628 0.05838413 -0.12924382 -0.03073096
-0.6724885 -0.19783509 -0.23727322 -0.060921263 -0.01067325 -0.112934835 -0.2649992 0.11918967
0.03896914 -0.08734632 -0.019991295 -0.006316666 0.2589061 0.18624435 -0.093122266 0.00929285
-0.37418276 -0.5616237 0.6479044 0.11903557 0.18260826 -0.10150259 -0.13132001 0.31080264
0.15600261 0.41944206 0.19319038 -0.24570967 -0.12116962 0.06504985 -0.015630638 -0.11153853
-0.46197864 -0.36498174 -0.15521598 0.32016838 -0.13922523 -0.32546082 0.17061767 0.4797697
0.19654009 0.14586829 0.58953404 -0.2008832 0.0357414 -0.16527972 0.1259586 -0.2548166
-0.035955705 -0.56224585 -0.3482606 0.31946167 -0.0033278002 -0.2627425 0.4488677 -0.18552983
0.23315905 -0.16075332 -0.56342405 -0.11501722 -0.13083321 -0.32454976 -0.114380166 -0.087543204

network_body._body_endoder.seq_layers.0.bias f4 [128]
00000000: 8ab8 53bb 44a3 d4ba 0150 033a 848f abba
00000010: 0d14 6d3b 7992 adba dafd 75ba be71 7cba
00000020: fc5d 24ba 5b97 1cba 98ab 3dba 04d0 86b9
00000030: a841 9dba 10eb 61ba d6ba f13a b666 9839
00000040: ee9e 12bb a082 7bba 5d41 1839 a025 84ba
00000050: 6477 433a 37f6 c0b9 0649 0f3a de6e 99b8
00000060: 44d8 0f3b d8db 1bba 06ac a4ba 3414 bcb9
00000070: 3ad9 1bb9 0fca 32ba a073 8eb9 ea2b 44b9
00000080: f135 97b9 b3b6 86bb d455 77ba 3c53 ac39
00000090: 13f8 3f3a 3b1a 08bb 5df9 a2ba aedb b4b9
000000a0: eafd 05bb 3215 a83a 32cf 3eba 5076 bf3a
000000b0: ea70 09b9 f8e4 9338 02f1 73ba 2ecd 4abb
000000c0: 2d93 42ba 6bcb 3ab9 4c74 99ba e45d 2c3b
000000d0: eb35 7bbb ddf5 03bb 15c6 cbba 779c bab8
000000e0: 5547 6fba 6e0c 95b8 4dfe e239 0687 343b
000000f0: 56ca fa39 ea71 7cba 2de2 1d39 e7a6 83ba
00000100: e03f 3fba 47f9 a139 9236 aeba a1b8 80ba
00000110: 35e5 a2b9 76e5 c4ba e613 5638 7b27 8fba
00000120: 9ecd 99b9 900e 5636 9a60 3eba 972f 7a3a
00000130: 78c9 d3ba c1b1 80b8 734e 7a39 7182 57ba
00000140: 9540 3039 5f22 993a 47dd a5ba c424 ee3a
00000150: 97d2 81ba 2417 b738 2a0e afba 7d56 b8ba
00000160: b782 23ba 622f 113a 1e3b 37ba faf6 30b9
00000170: a283 ddba 8f00 1b3a 3ee1 b1ba 6ca1 a2ba
00000180: 8acb 9ab9 6645 0aba d9cb 46b9 04de 05bb
00000190: ec12 d6ba 809f 3cba 001c 94b9 87f6 0f3a
000001a0: 1b5e 0dbb aea9 87b8 6002 6e39 cc94 dbba
000001b0: 867d 563a 7e96 a3b9 d36b a2ba 8784 dcba
000001c0: 36a4 653a 1fea abb9 e488 f239 f138 41bb
000001d0: ca29 96b9 7660 8138 f661 4c3a 2e6b 6bb9
000001e0: fd18 45ba 81fc 28ba 901f 9fba f2c7 92ba
000001f0: 35d7 ecba f0f6 ad3a 8f95 64ba cc6b e6b9
-0.0032306039 -0.0016222973 0.0005009175 -0.0013089036 0.0036175281 -0.0013242505 -0.0009383835 -0.0009629986
-0.0006270108 -0.00059734815 -0.00072353473 -0.00025713455 -0.0011997717 -0.0008618096 0.0018442522 0.00029068225
-0.0022372562 -0.0009594355 0.000145202 -0.0010082014 0.000745645 -0.00036804538 0.00054658984 -7.316259e-05
0.0021948973 -0.000594554 -0.0012563474 -0.00035873207 -0.00014862875 -0.000682027 -0.00027170498 -0.00018708376
-0.00028841154 -0.004111135 -0.00094350916 0.0003286841 0.0007323038 -0.0020767588 -0.0012433935 -0.0003449595
-0.0020445534 0.00128237 -0.00072787993 0.0014607403 -0.00013107402 7.052155e-05 -0.00093056273 -0.003094505
-0.00074224436 -0.00017814121 -0.0011707633 0.002630108 -0.0038331698 -0.002013556 -0.0015546704 -8.898315e-05
-0.0009127756 -7.107189e-05 0.00043295548 0.00275463 0.00047834468 -0.00096300116 0.00015056944 -0.0010044248
-0.000729559 0.0003089404 -0.001329141 -0.0009820649 -0.0003106982 -0.0015021998 5.1040108e-05 -0.00109218
-0.0002933563 3.1896961e-06 -0.00072623196 0.00095438346 -0.0016158065 -6.136625e-05 0.00023871083 -0.00082210364
0.00016808727 0.0011683217 -0.0012654447 0.0018168916 -0.000990468 8.73043e-05 -0.0013355662 -0.0014063861
-0.00062374346 0.00055383716 -0.0006989705 -0.00016876674 -0.0016900192 0.0005912864 -0.0013571156 -0.0012407727
-0.00029524817 -0.00052746234 -0.0001895869 -0.002042652 -0.0016332543 -0.0007195398 -0.0002824962 0.00054917525
-0.0021570984 -6.468907e-05 0.00022698333 -0.0016752719 0.00081821566 -0.00031201908 -0.0012391753 -0.0016824164
0.0008760126 -0.00032790095 0.00046259828 -0.0029483403 -0.00028641365 6.1691666e-05 0.000779658 -0.00022451274
-0.0007518677 -0.00064463174 -0.0012140144 -0.0011198504 -0.0018069508 0.0013272446 -0.0008719796 -0.00043949333

network_body._body_endoder.seq_layers.2.weight f4 [128, 128]
00000000: 2283 cabc e96f e7bc 3bb0 573d c042 9d3d
00000010: fa41 2c3e d760 b03d 56af 293e e601 88bd
00000020: 12b2 1f3c a277 193e a533 373c 1915 8fbd
00000030: 0a8a 5e3d f7c2 dcbc 3586 ab3d 9285 253d
00000040: 586d 3cbd 0d34 d73b f479 d43d ba97 033c
00000050: a64c b0bd 1e1f d53d a453 733c fd61 2c3e
00000060: 45b8 78bc 2251 a83d 60da 0abd 065b 09be
00000070: 6521 033e 74e6 85bd f325 303d f94c bebc
00000080: e745 a93d 93a4 41bc 0b97 cfbd a4b6 4dbd
00000090: 1b55 a23d 34cb 8d3d cab2 243d 2877 be3d
000000a0: 5838 dabd b4ce 4e3d 68e2 813d 13bf 973d
000000b0: 6783 d7bc c7c8 c53d ae17 653d e964 7c3d
000000c0: 755a dc3d cca1 b33d f710 a93d 9a38 e63d
000000d0: e2a4 a83b 9d23 4f3d 5a31 92bd 69fb 9bba
000000e0: fec9 41be 3c4c e43b 0e6c 1dbc f7fb a33d
000000f0: 6c55 1cbd b17a cfbc 86ee db3d 5529 2ebd
00000100: cf92 803c a35b 853c 6f26 df3c 457e 6c3d
00000110: a8e5 f83a 05ee dd3d c058 2b3c 944a 993c
00000120: 98f6 743d be30 c63d 55ed f9bd 7d5e a5bd
00000130: 93a1 09bd ebb4 05be 9b99 f0bc ac36 0b3e
00000140: e46c cabc 9931 9cbd c091 87bd f1ba 6a3c
00000150: 25b5 983d 180d 56be fb27 94bc 95f6 273d
00000160: 638d 06be d426 5c3d e941 59bd 7460 58bb
00000170: 1175 953b d7b8 973d b7ec f4bc 5d03 adbd
00000180: 3ee6 dc3b af36 773c db64 cb3d 9b5c 0abe
00000190: ac14 18bd 5175 7cbd ed58 8e3d 2e02 b7bb
000001a0: 537e 963d 3c71 1c3d da0d 17be c426 4e3e
000001b0: 2b65 55bd 08bb b0bd 86d4 533c ffb8 e2bc
000001c0: 6230 b73d 090b d3bc 95f4 f53c 41ac 953d
000001d0: 59fc 96bb 539f 05be 5958 ed3c abb6 9a3d
000001e0: a8f3 adbc 02b5 b9bc 8c97 49be 88d1 b5bd
000001f0: 5131 333e 670c 343d a5a9 0a3e f473 893c
00000200: 7a06 9ebd af7e 1bbe a921 2dbe 1929 32be
00000210: 51f6 7fb9 e6b1 203e 9225 62be f4e9 d83d
00000220: cfb0 033e 97b3 643d bc9f be3d b4de 2d3d
00000230: e314 ab3d 2b18 8e3c b2f6 573d 6ca6 29be
00000240: 4283 4e3c df75 c73d 312a 48be aafe e33d
00000250: fe7b 50bd 92bb 9e3d 9c90 f9bc f5b9 063e
00000260: cea5 e23c 864e f5bc bef6 ca3d 31d8 8d3c
00000270: b0bc 023b adc3 c0bd 983f bbbc 452c 693c
00000280: 6632 f9bc ee1d 13bd 54f4 113e 1ea8 cfbd
00000290: 512b f8bd b0d0 b33d 95aa 2cbd bc95 c6bd
000002a0: 4ce0 393d 409c 00bd 0a07 7f3d f19c 273e
000002b0: c9de cb3c fcf0 1bbd 7c3c 67bb c8bc 483e
000002c0: 3225 3f3d f1f0 e5bb a2d2 efbc 10fc 7bbd
000002d0: fc43 a6bd 2e2c 97bd e05a 96bc 5048 d9bd
000002e0: 6456 083d f2a0 24b8 6bfb 18bb 7795 5fbc
000002f0: 15eb 8fbd ddc6 6abd b8f0 ffbd 90c2 233d
00000300: 2f11 02be 5c8b 0b3d c3a2 143e 92b4 a7bd
00000310: b3c1 223c fc06 4b3d a70b a83b 9e7a 85bd
00000320: e42a 8e3c a46f 2e3d 01d6 bbbd 9633 03be
00000330: d290 653d bec9 e8bb 2244 17bd 92fe d83b
00000340: 661d 333e cbf4 463d ee72 563d ce8a d23d
00000350: 80c9 3ebd 6671 c8bd 8813 863e 5632 f5bd
00000360: 6868 9b3d bc7c 8dbd f934 16be e190 373d
00000370: 7e36 f73b bbc4 b3bd c39b d53d bc98 18be
00000380: 9b7d cf3d 0da9 433d 1ace 27bd db17 cf3d
00000390: a2ba fbbd 1943 333e 08d5 21bd d21d 35bc
000003a0: bba2 0cbd 7129 eb3c 4dcf b1bc 7664 033e
000003b0: bb52 babd e86b c73c 5ffb a33d ef6c 9fbd
000003c0: e4b3 11be 1642 7dbb 570f 83bd 8946 d7bd
000003d0: 2fa4 cc3b 507a c73c 2c08 153d c6bb 6c3d
000003e0: 074a 9bbd 9e23 113d f2ec 28bd c354 99bd
000003f0: 4770 073e 6bc5 383e 7041 d83c 2635 c9bd
-0.024720732 -0.028251605 0.0526583 0.07678747 0.16822043 0.08612221 0.16570792 -0.06640987
0.009747045 0.14987043 0.011181747 -0.06986446 0.054330863 -0.026948435 0.08375207 0.040410586
-0.046002716 0.0065674842 0.10374823 0.00803178 -0.086083695 0.10406326 0.014851484 0.16834255
-0.015180652 0.082186 -0.033899665 -0.13413629 0.12805708 -0.06538096 0.04300494 -0.023230063
0.08265286 -0.011819023 -0.10136231 -0.050223008 0.07926389 0.069235235 0.04020957 0.09300071
-0.10655278 0.050490096 0.06342012 0.074094914 -0.026307775 0.09657436 0.055930786 0.061619673
0.10759441 0.08771095 0.08255189 0.11241265 0.0051466087 0.050571073 -0.07138319 -0.0011900488
-0.1892471 0.0069670957 -0.009608282 0.08007043 -0.038167402 -0.025327059 0.10738854 -0.042519886
0.015695004 0.016279047 0.027240006 0.057737608 0.0018989341 0.10836414 0.010458171 0.01871232
0.059805483 0.096772656 -0.122034706 -0.08074663 -0.033601355 -0.13057296 -0.02937012 0.13595074
-0.024710126 -0.076266475 -0.066195965 0.014326797 0.074564256 -0.20903432 -0.01808547 0.041006643
-0.13139872 0.053747967 -0.053041372 -0.0033016475 0.0045610745 0.07408302 -0.02989803 -0.08447907
0.006741314 0.015088721 0.09931346 -0.13511889 -0.03712909 -0.06163532 0.06950555 -0.0055849766
0.07348313 0.038193926 -0.14751378 0.20131975 -0.052098434 -0.086294234 0.0129290875 -0.027676104
0.08944775 -0.025762098 0.030023852 0.073082455 -0.004607719 -0.13049059 0.028972792 0.075543724
-0.021234348 -0.022669319 -0.19686717 -0.088778555 0.17499281 0.04395714 0.13541277 0.016778924
-0.07716079 -0.15185045 -0.16907372 -0.1739849 -0.00024410455 0.15692863 -0.22084644 0.10591498
0.12860416 0.055835333 0.09307811 0.042448714 0.08353593 0.017345509 0.0527255 -0.16567391
0.0126045365 0.09739279 -0.19547345 0.11132558 -0.0508995 0.0775062 -0.030464463 0.13156874
0.027666952 -0.02994467 0.099103436 0.017315002 0.0019948892 -0.09412322 -0.022857472 0.014231746
-0.03041954 -0.035917215 0.1425336 -0.10139488 -0.12117637 0.08780038 -0.042154867 -0.09696528
0.04537992 -0.03139901 0.062262572 0.16368462 0.024886506 -0.038071617 -0.0035283854 0.19603264
0.04666633 -0.007017248 -0.029275242 -0.061519682 -0.08118436 -0.073814735 -0.01835388 -0.10609496
0.033285514 -3.925054e-05 -0.0023343216 -0.013646475 -0.0702726 -0.057318557 -0.12497085 0.03998047
-0.12701868 0.03406845 0.14515214 -0.08188738 0.009933877 0.049567208 0.005128342 -0.06517528
0.017354436 0.042586938 -0.091716774 -0.12812647 0.056046315 -0.0071041277 -0.03693021 0.006622144
0.17491683 0.048573297 0.0523557 0.10280381 -0.046578884 -0.09787254 0.26186776 -0.119724914
0.07588273 -0.06908557 -0.14668645 0.0448159 0.007544338 -0.08777758 0.104301 -0.14902014
0.10131379 0.04776864 -0.04096804 0.10111972 -0.12291457 0.17506064 -0.039509803 -0.011054473
-0.03433488 0.028706284 -0.021705294 0.12831292 -0.09097811 0.024343446 0.080069296 -0.07784449
-0.14228779 -0.0038644127 -0.0639941 -0.105115004 0.006245158 0.024350315 0.036384746 0.057796262
-0.07582479 0.035434358 -0.041241594 -0.0748687 0.13226424 0.18044059 0.02639839 -0.098245904

network_body._body_endoder.seq_layers.2.bias f4 [128]
00000000: b9a8 93ba f21d 09bb 8bb5 453b fd9b baba
00000010: 2c6d b63a 7faa d3b8 09c8 a9b9 0892 2439
00000020: 55c8 7638 a814 aaba 9465 013a b659 453a
00000030: e4c1 c4ba a582 12ba 59cc cfba c672 7cba
00000040: 1a3e 18ba 27a4 7bba 0162 cfb8 3e49 b0ba
00000050: 00c6 de38 ede7 91b9 9ba9 91bb 5119 d6ba
00000060: bf79 a03b 95f4 34b8 be6e 0cba ebfa e1b8
00000070: 86e6 93ba 3b2d bab9 45fb 353b 45ac 9a39
00000080: 09b4 3b39 8f82 a7b9 6478 2b37 d88f f638
00000090: 9707 0c3b 23f4 feb9 19d3 6bb9 2eb7 26ba
000000a0: 49ba cab9 f87b b5b9 fe23 953a c63e bd3a
000000b0: 0609 96b9 7768 023b 3ce8 e538 9b20 8eba
000000c0: 5295 923a b120 98b9 3b31 443a e8dd 95ba
000000d0: 6df4 4bba cf0a 42b8 5c95 9339 a51e 6cba
000000e0: a109 6238 13d4 a7b9 b7c4 a3b9 ec13 06bb
000000f0: 3bc3 56bb 8d40 58ba f245 6e38 97e8 4bba
00000100: 71c5 523a 0e37 07ba 9ab5 3f3a 024b 8138
00000110: 4808 28ba c956 0239 a240 ab37 8645 88ba
00000120: aa49 2db9 ce86 76ba 4dea 9539 5e39 8639
00000130: a692 11ba a9a3 5aba 55e3 f5b9 43a3 af38
00000140: 666c bfba 3f24 feba 3587 653a e4fc 193a
00000150: eced 64ba 17ce cf39 6a67 8eb9 29ed 073a
00000160: 32b9 d6ba ec08 a8b9 5537 9eba 236a 16b9
00000170: a969 2dba 075e ba39 6795 3aba 4ddc cdb8
00000180: e71f deba cde9 c8b9 e081 3aba 4ec1 f33a
00000190: 39b4 59ba 15f5 1fb8 2780 fab9 1838 deb8
000001a0: 6b79 c2ba 7a36 f5b9 7266 48ba 66ff 5837
000001b0: d262 143b ae34 9f38 f630 32ba c4dc d738
000001c0: 0c8f 99ba d486 0d39 88d4 dcb9 651a 563a
000001d0: 9c94 4cb9 7c83 e139 4e5b 8cb6 efe9 72ba
000001e0: ea9c 78b9 6266 c139 7645 07bb 2a3e 97b8
000001f0: 2a7f 3739 c43a dbb9 39de 56ba 60a9 1135
-0.0011265493 -0.002092239 0.0030168022 -0.0014237162 0.0013918034 -0.000100930214 -0.0003238323 0.0001569466
5.8837544e-05 -0.0012976127 0.0004936096 0.00075283216 -0.0015011397 -0.00055889256 -0.0015853747 -0.00096301397
-0.00058075937 -0.0009599351 -9.888784e-05 -0.0013449562 0.00010622665 -0.00027829353 -0.0044452674 -0.0016334449
0.0048973258 -4.314313e-05 -0.0005357078 -0.00010775573 -0.0011283911 -0.00035510384 0.0027768177 0.0002950152
0.00017900778 -0.00031949996 1.0220425e-05 0.00011756987 0.0021366829 -0.0004862855 -0.00022489986 -0.00063596934
-0.00038667236 -0.00034615374 0.0011378524 0.0014438264 -0.00028616952 0.0019898692 0.00010962828 -0.0010843457
0.0011183417 -0.00029016056 0.00074841426 -0.0011433931 -0.0007780258 -4.626327e-05 0.00028149306 -0.0009007252
5.3891566e-05 -0.0003201073 -0.00031236347 -0.0020458652 -0.0032770175 -0.0008249365 5.6808763e-05 -0.0007778494
0.00080402853 -0.0005158045 0.00073131325 6.1651706e-05 -0.00064099254 0.00012430096 2.0414886e-05 -0.0010396696
-0.00016526008 -0.0009404243 0.00028594062 0.00025601214 -0.00055531634 -0.00083404273 -0.00046899417 8.37506e-05
-0.0014604449 -0.0019389464 0.0008755804 0.00058741705 -0.0008732963 0.00039635666 -0.000271614 0.0005185181
-0.0016382097 -0.00032050104 -0.0012070934 -0.00014344654 -0.0006615171 0.0003554674 -0.00071175996 -9.816196e-05
-0.0016946763 -0.00038321168 -0.000711469 0.0018597038 -0.00083047483 -3.8136805e-05 -0.00047779197 -0.00010596233
-0.0014837211 -0.0004677063 -0.000764466 1.2934068e-05 0.002264191 7.591523e-05 -0.0006797457 0.0001029312
-0.0011715605 0.00013497035 -0.00042120018 0.0008167385 -0.00019510317 0.00043013308 -4.1829544e-06 -0.0009266426
-0.00023709578 0.0003688811 -0.0020640767 -7.21182e-05 0.00017499612 -0.0004181472 -0.0008196566 5.426318e-07

action_model._discrete_distribution.branches.0.weight f4 [3, 128]
00000000: 527b 2c3a 6f70 d63b 882d f1bb 72f5 63bb
00000010: 7955 4c3c c845 b23a ef69 2fbc a648 9c3b
00000020: 7808 493b b518 a0bc 6fa8 b13b 8ed5 c63b
00000030: 50cf ff3b 998e b83c cbf0 dbba c5e2 d53b
00000040: df42 b5ba 9015 d9ba 322b 9ebb 4a3b 95ba
00000050: 9aae 8d3b 13c5 a03b 7c7e 54bb 7c0a 413b
00000060: 0b91 5ebb 0565 b6bc b61e b43b fc0c 3bbc
00000070: 1e61 063a a524 6fbb 1f63 163b 43db 84bb
00000080: e676 edbb d475 9abb c2da 0a3c c38e 8cbc
00000090: ca3b 723c 8724 283b 723a 2ebb 5be4 10bc
000000a0: 5435 21bb 5920 fa3a 81bf 73bc 0a4f 5c3a
000000b0: a712 9a3c e0af 19bc bb8f f53a 8a7e e2bb
000000c0: 3c12 063c 55e1 d9ba fcd7 1dbc 1cc7 5a3c
000000d0: c961 b4bc 0f05 1f3b 3ec3 66bb b6e1 a738
000000e0: d4d5 62bc 5f6c 09bc 7234 bcbc 9132 04bc
000000f0: eaa2 4dbb 368d 343b 6853 35bb 4a8f b73b
00000100: ce2b 2cbb 5e03 9fba e7b0 eebb 7e6d 0cbb
00000110: 92c0 743b 6c18 c43b 2028 7039 894a 9b3a
00000120: 9c96 babc 8fdf 1bbc 1d29 50bb 0baa 5d3b
00000130: 0409 e5ba fd29 ae3b d51e 033c a040 ccba
00000140: f8ab a63b 9457 1a3c 86cb f3bb f300 223a
00000150: 2e4c 5cbb e7a5 233b c8f8 7f3b 770d 0f39
00000160: b817 10bc 9e25 843b e945 5e3c f97a d9bb
00000170: ce8c 1dbb 1c0b 50bc 8de4 2c3b f545 03bb
00000180: 65cd fa3b a6b8 2b3c d3d7 333c 7c1b 84bc
00000190: c1b3 3b3c 01e0 063b 5d1e 93bb 115e 0d3c
000001a0: 73d9 a4bb 2c64 38bc 230e 183b 4f5e c6bb
000001b0: 0c6a 3c3b 5125 3f3b 5b46 323b 53bd e0bb
000001c0: 7cee 82bc a4d8 75ba 21f3 16bb cf70 26bc
000001d0: 2288 c23b 6a86 343b 6fbf 22bc ca2a 83bb
000001e0: 4e99 fabb 1dfa 273b b981 efba b2f6 173c
000001f0: 2b9a 1d3b 75f4 963b 81c1 633b 1aa8 e73b
00000200: 27a1 2b3c beb2 a4bb 95eb 47bc 65aa c73b
00000210: b870 0e3c 9054 8dbc 457d 593c 1e75 abbc
00000220: 0f50 f439 8bfe dcb8 145c 4a3a 3e3c 723a
00000230: 7051 d2bb dbaf 53bb de91 6ebb 78c3 e63b
00000240: a40a 793c 170f 973a ef1d 5fba 6828 253c
00000250: f3f7 a9bb ee81 4abc c415 9fba 1c5c 073a
00000260: dcd5 a4ba 2686 c23b 8a42 223c 8ee8 993b
00000270: a03d 4d3b ca9e 3a3c 58c2 293c df2e ecbb
00000280: 9909 20bc 7754 b1bb d145 84bb 037b c13c
00000290: 0c28 ac3a 3170 7fbc 238b 8abb 6e35 df3b
000002a0: c978 4d3c 1528 913c 2e68 59bb 27b0 31bc
000002b0: 5290 44bc d8c4 53bc a2a0 8ebc 48da 81bb
000002c0: 7e89 58bc f238 0ebc 8c68 2ebc 0d89 103c
000002d0: ad44 e8bb 1d8c 143b 49c6 88bc 579e 193c
000002e0: 3c75 803b 4a26 033c fbb3 7b3c f331 b4bb
000002f0: fb90 79ba 8d3c af3b 8075 3dbb 4744 c73b
00000300: 3fd5 f6ba f4f2 49bc 9bfb c33b 154b 813c
00000310: 18b6 4b3c 878d c63b 82f6 71bc 6451 08ba
00000320: e453 e2bb dbaf 983b a915 813b 11df 58bc
00000330: 1d5a 1f3c 1abd 283a d649 b33b 39f1 36bc
00000340: 2e17 843b c4fc bfbb faf1 c0ba 859f 4f3c
00000350: c74e 613b 81f3 f7ba 9977 13bc af64 efba
00000360: 5a51 aa3b 9d51 6abb d8e1 343c 5add 4d3c
00000370: 4f4d f13b 1a89 c6bb 9e94 1bbb 07d3 c7bb
00000380: 2b30 0abc 0b7d eebb a9aa 693c 69bd 17bb
00000390: 2707 2b3c 8149 90bb 4af3 133c 928d 56bb
000003a0: e8cf b83c 63c2 17bc e05b 183c 9dfa 053b
000003b0: 9199 303c dcb6 c1bb 87ab cebb 5017 d13b
000003c0: 3d1a 82bc b286 30bb abc3 5cbb f0b7 753c
000003d0: 7a15 c7bb e3b0 e5bb 5c96 a9b9 801e ca3b
000003e0: a441 a23c 46ad f5bb 3800 4c3b 5da9 66bb
000003f0: fdff b0bb c580 863c 10cd cf3b 5421 8d3a
0.00065796555 0.006544165 -0.007360164 -0.0034783748 0.01247155 0.0013601119 -0.010706409 0.0047694026
0.0030675214 -0.019543031 0.00542169 0.006067938 0.007806696 0.022528933 -0.0016780136 0.006527277
-0.0013829133 -0.0016562212 -0.0048269266 -0.0011385467 0.0043237926 0.0049063056 -0.0032424023 0.0029455712
-0.0033960964 -0.022264967 0.005496825 -0.01141667 0.0005126166 -0.0036490348 0.0022947264 -0.0040544583
-0.00724684 -0.0047137532 0.0084750075 -0.017157918 0.014784763 0.0025656538 -0.002658513 -0.008843507
-0.0024598436 0.0019083127 -0.014877201 0.0008404112 0.018807722 -0.009380311 0.0018734852 -0.0069120573
0.008183058 -0.001662294 -0.009634014 0.013353135 -0.022019284 0.002426449 -0.0035211588 8.0052225e-05
-0.013844926 -0.008387654 -0.022974227 -0.008068697 -0.0031377622 0.0027549989 -0.0027668122 0.005601798
-0.0026271227 -0.0012131741 -0.007284272 -0.0021427567 0.0037346226 0.0059843566 0.00022903131 0.0011847775
-0.022776894 -0.00951375 -0.0031762787 0.0033823277 -0.0017474 0.005315064 0.008002956 -0.0015583225
0.0050864182 0.009420294 -0.0074400334 0.0006179951 -0.0033614743 0.0024970712 0.0039058197 0.00013642559
-0.0087947175 0.0040328046 0.013566473 -0.006636974 -0.0024040225 -0.012697961 0.0026381344 -0.0020030711
0.0076538795 0.010481035 0.0109767495 -0.016126387 0.011456431 0.0020580294 -0.0044897036 0.008628384
-0.005030805 -0.011254352 0.0023201786 -0.006053723 0.0028749732 0.002916653 0.002720258 -0.0068585067
-0.015982859 -0.000937829 -0.00230331 -0.010158732 0.0059366385 0.0027545937 -0.009933337 -0.0040029036
-0.00764767 0.0025631257 -0.0018272913 0.009275125 0.002404819 0.0046067783 0.0034752788 0.0070696
0.010475433 -0.0050261905 -0.012202163 0.0060933107 0.008693866 -0.017252237 0.0132744955 -0.02092987
0.00046598955 -0.0001053783 0.0007719409 0.0009240544 -0.0064183995 -0.0032300863 -0.0036402862 0.0070423447
0.015200291 0.0011524883 -0.00085112354 0.010080434 -0.0051870286 -0.012360079 -0.0012137224 0.00051635667
-0.0012575942 0.005936402 0.009903559 0.004696912 0.003131725 0.011390397 0.010361277 -0.007207736
-0.009767913 -0.0054116803 -0.004036643 0.023618227 0.0013134493 -0.015590713 -0.004228012 0.0068117892
0.012541004 0.017719308 -0.0033173668 -0.010845221 -0.011997299 -0.012925349 -0.01741058 -0.0039627887
-0.013216374 -0.008680569 -0.010645043 0.008821738 -0.007088265 0.0022666522 -0.016696112 0.00937613
0.0039202254 0.008004734 0.015362735 -0.0054991185 -0.00095202 0.0053477944 -0.0028909147 0.0060811373
-0.0018831863 -0.012325991 0.0059809214 0.015782872 0.012433551 0.006059352 -0.014768245 -0.00052001164
-0.006906973 0.0046596355 0.0039393497 -0.013236777 0.0097260745 0.000643687 0.0054714484 -0.01116591
0.0040310835 -0.0058589894 -0.0014720552 0.01267231 0.003437923 -0.0018917174 -0.009000682 -0.0018264259
0.005197686 -0.0035754212 0.0110401735 0.012564981 0.007363952 -0.0060588242 -0.0023739706 -0.0060981545
-0.008434336 -0.00727809 0.01426188 -0.0023153669 0.010438717 -0.0044032936 0.009030173 -0.003273819
0.022560075 -0.009262654 0.009299248 0.0020443567 0.010778801 -0.005911691 -0.0063070687 0.006380953
-0.015881652 -0.0026935753 -0.0033685963 0.014997467 -0.0060755583 -0.007009612 -0.00032346218 0.0061681867
0.01980669 -0.0074974624 0.003112806 -0.0035196163 -0.00540161 0.016418824 0.006341584 0.0010767379

action_model._discrete_distribution.branches.0.bias f4 [3]
00000000: 3d5f 97b8 94e5 8cb9 9045 293a
-7.2179806e-05 -0.0002687393 0.0006457204

exp_avg f4 [128, 12]
00000000: 558e e9b7 ef22 0537 e1e8 6733 187b 17b8
00000010: eda8 6637 1135 1e36 abd7 13b8 b9df 9037
00000020: d8f3 5936 5e46 39b8 fb1f fb37 8ed6 ec35
00000030: c127 04b8 2feb 3e36 1ae5 d4b4 9e13 f7b7
00000040: cd37 de36 9fd4 c735 40d7 0db8 535e 5037
00000050: 8ac0 7736 1583 43b8 0b7a ca37 ea8d e035
00000060: 97ef 3f38 9bb8 08b6 a7cd 9236 81d2 e838
00000070: 10fb c336 b5a1 af36 76c1 4339 e98f 9c37
00000080: 3118 2b37 a57b 2339 367d 8137 c40b 0237
00000090: de02 2bb7 77cc 0bb6 bbda 39b6 c8bf fab6
000000a0: 643c 4635 d4e5 c5b5 6fc9 fdb7 d4c7 1b37
000000b0: 4428 e7b4 4f55 81b8 80fa b537 8b84 99b5
000000c0: 4fe5 fd36 a20c c7b4 2f83 9335 82ff 4e37
000000d0: b815 87b5 c0a6 9635 3b70 8b37 7b5e b1b6
000000e0: c036 3634 af22 7038 5fa0 8db7 d902 d435
000000f0: 3bf5 7238 b7d0 5f37 3bed 9ab7 910a 8f3a
00000100: 3bc6 dd38 2e01 2cb8 be9a 933a cfd5 0039
00000110: 7e0f 84b8 1867 9d3a ff26 fe38 5d25 87b8
00000120: 6405 37b6 1c79 1836 b5f1 1334 021f b136
00000130: f55e a9b3 570e 0236 c41c 0637 00de 8933
00000140: 673d f435 e609 eb36 d5a5 bc36 b7c1 9835
00000150: d8bd 90b6 25d6 6235 3bd0 49b4 a08d c137
00000160: bb5d e1b6 0e29 0836 d112 f135 a53d c6b4
00000170: 5f98 5936 be1f 54b8 c6d3 9237 1119 0236
00000180: 964f 8d39 6d76 8e37 0b05 3835 2852 fa39
00000190: c1a6 0438 854d cf35 c31e d439 8c05 6538
000001a0: b534 0737 6c4a 013a dcbb 7938 d3cd e736
000001b0: ef55 c0b7 faee 08b6 6802 98b5 733c 0139
000001c0: f25c 1537 b1b0 87b4 372e 7239 7f2a bb37
000001d0: ba08 9a37 77b6 c639 b0cc 1438 31d6 ae37
000001e0: ed9e 1eb9 6a23 77b6 3689 de36 e56d e4b8
000001f0: f3bd e5b6 6487 df36 dccb 03b9 facc 17b7
00000200: 3a02 88b5 c245 fbb8 9aa0 2db7 1bf0 eab5
00000210: 62bb 78b8 2fdc ec35 e00c aeb5 11f7 5f38
00000220: c20f 7837 d214 ceb6 11c2 4db8 62c9 9236
00000230: d366 44b6 6246 01b9 ad3c 6135 8472 ccb6
00000240: 60a1 2839 7aae b537 be8f 77b7 3d2d 693a
00000250: cd93 b238 a3ed 11b8 5fe2 8d3a 56f3 ee38
00000260: a411 1db8 0034 713a 9576 ec38 a134 5fb8
00000270: 7c38 d437 16c5 1337 77da adb7 51ee 643a
00000280: 1994 b238 0460 2db8 6ad8 5c3a 2a90 ab38
00000290: 64a0 46b8 2e1e 5e3a b82e b138 406b 46b8
000002a0: 5712 dcb5 51c4 f9b2 d109 7035 6948 9635
000002b0: e59d eeb5 28e0 ab35 82d5 8cb8 79b9 a4b6
000002c0: 9a2e e336 421a a3b9 1070 96b7 79a1 0436
000002d0: 5fb2 82b9 6dbb 04b7 be72 9bb7 f135 d0b8
000002e0: 0047 e936 d80d e6b7 4298 d2b8 7d47 f836
000002f0: 2a12 d4b7 c09c 3db9 86e5 b936 bbf0 05b8
00000300: 79ae bab7 9dd3 df36 cf95 2735 cadd adb7
00000310: cd42 0737 8e8f 0836 901a 33b8 93f6 b137
00000320: 5833 4c36 95d5 05b8 e468 da37 25f4 8d36
00000330: a4bb 6239 a10f fa36 5da2 f8b4 4c31 703a
00000340: 0009 8838 7ecf 54b7 70ac 843a 2f62 ce38
00000350: 8afc ac34 a41a 8d3a 6aa1 d138 5576 7435
00000360: 5ca4 d5b6 9cf1 d036 d4d9 f7b3 56da 6ab7
00000370: 27a0 c236 ef5b 0135 e432 83b7 a57c c936
00000380: f08a ba34 3ad2 d7b6 5224 3e36 a2a5 0535
00000390: db7e 0139 3c46 3537 0ace 05b7 b6df 093a
000003a0: 4547 3738 45d0 59b7 57f1 1e3a 811d 9438
000003b0: 9284 2cb7 3ac1 2f3a 66f2 8938 808d 38b7
000003c0: 8f10 ed38 c442 13b7 a23e 0338 2fdf ceb9
000003d0: 5b9b 83b8 21d6 7638 4683 f6b9 0cbc 9bb8
000003e0: 3be6 be38 a7f9 09ba 9fbe 8ab8 75d8 c038
000003f0: bc44 1b36 8a12 9336 bcd4 2436 8d67 a538
-2.7842043e-05 7.935551e-06 5.399568e-08 -3.6115845e-05 1.3748399e-05 2.3574723e-06 -3.5248388e-05 1.7270317e-05
3.2477456e-06 -4.417297e-05 2.9936424e-05 1.7645814e-06 -3.1508276e-05 2.8449101e-06 -3.965477e-07 -2.945383e-05
6.6226116e-06 1.4888536e-06 -3.3817487e-05 1.2419728e-05 3.691794e-06 -4.6613703e-05 2.4137107e-05 1.6730603e-06
4.5761084e-05 -2.0373034e-06 4.37508e-06 0.000111018315 5.8406804e-06 5.2342316e-06 0.00018668719 1.8663663e-05
1.0198027e-05 0.00015590953 1.5436304e-05 7.751343e-06 -1.0193062e-05 -2.0831628e-06 -2.7694466e-06 -7.472907e-06
7.384863e-07 -1.4744533e-06 -3.025375e-05 9.285246e-06 -4.30564e-07 -6.167089e-05 2.169353e-05 -1.1437963e-06
7.5666826e-06 -3.707583e-07 1.0990533e-06 1.2338047e-05 -1.0064605e-06 1.1224402e-06 1.6622353e-05 -5.28601e-06
1.6969989e-07 5.725276e-05 -1.6883188e-05 1.579606e-06 5.7925685e-05 1.3340431e-05 -1.84687e-05 0.0010913183
0.000105750245 -4.1009094e-05 0.0011261327 0.00012286681 -6.297136e-05 0.0012008874 0.000121189274 -6.444261e-05
-2.7272263e-06 2.272026e-06 1.3778374e-07 5.278621e-06 -7.886948e-08 1.9379856e-06 7.99372e-06 6.419941e-08
1.8197287e-06 7.004698e-06 5.622142e-06 1.1381261e-06 -4.313635e-06 8.450318e-07 -1.8795338e-07 2.3073342e-05
-6.716434e-06 2.0289476e-06 1.7961376e-06 -3.6925226e-07 3.2424211e-06 -5.05743e-05 1.7503171e-05 1.93861e-06
0.00026952912 1.6982865e-05 6.855268e-07 0.00047744927 3.1626554e-05 1.5445263e-06 0.0004045871 5.460302e-05
8.058899e-06 0.0004932049 5.9541184e-05 6.9082976e-06 -2.29282e-05 -2.0404682e-06 -1.1325583e-06 0.00012324918
8.902733e-06 -2.527427e-07 0.00023096135 2.2311926e-05 1.8362294e-05 0.0003790145 3.547658e-05 2.0842157e-05
-0.00015127259 -3.6826482e-06 6.632089e-06 -0.00010892357 -6.846845e-06 6.6616794e-06 -0.00012569077 -9.048026e-06
-1.0133438e-06 -0.00011981606 -1.03489965e-05 -1.7504238e-06 -5.930232e-05 1.7647452e-06 -1.2967757e-06 5.339744e-05
1.4785621e-05 -6.141702e-06 -4.9056547e-05 4.374583e-06 -2.9266128e-06 -0.00012328618 8.3907327e-07 -6.093005e-06
0.00016081845 2.1658128e-05 -1.4755815e-05 0.00088949857 8.5152315e-05 -3.479201e-05 0.001082491 0.00011394049
-3.7448146e-05 0.0009201169 0.000112754446 -5.3216358e-05 2.5298672e-05 8.80777e-06 -2.0724938e-05 0.00087330217
8.515287e-05 -4.1335836e-05 0.0008424582 8.180768e-05 -4.7356254e-05 0.0008473125 8.44872e-05 -4.7306763e-05
-1.6396615e-06 -2.907669e-08 8.942125e-07 1.1196945e-06 -1.7778335e-06 1.2805731e-06 -6.715489e-05 -4.9091727e-06
6.7705523e-06 -0.00031109346 -1.7933577e-05 1.9763522e-06 -0.0002492843 -7.911452e-06 -1.853087e-05 -9.92826e-05
6.9522066e-06 -2.7424583e-05 -0.000100419405 7.3992983e-06 -2.5280828e-05 -0.00018082839 5.5401497e-06 -3.193387e-05
-2.2254173e-05 6.670553e-06 6.243035e-07 -2.0726486e-05 8.06218e-06 2.034914e-06 -4.2701664e-05 2.1214864e-05
3.0428255e-06 -3.1908585e-05 2.6036469e-05 4.2305496e-06 0.00021622941 7.4524e-06 -4.6311735e-07 0.0009162619
6.486662e-05 -1.2684495e-05 0.0010122191 9.8411336e-05 3.2221243e-07 0.0010765386 9.995962e-05 9.106928e-07
-6.3670286e-06 6.22701e-06 -1.15414565e-07 -1.3998322e-05 5.8002947e-06 4.8190026e-07 -1.5640115e-05 6.0047773e-06
3.474629e-07 -6.431973e-06 2.8333347e-06 4.978739e-07 0.00012349656 1.0804793e-05 -7.97539e-06 0.0005259471
4.3696975e-05 -1.2982699e-05 0.0006063184 7.0626855e-05 -1.0282865e-05 0.0006704513 6.577819e-05 -1.10002e-05
0.00011304125 -8.777428e-06 3.1291165e-05 -0.00039457667 -6.275504e-05 5.8850394e-05 -0.00047018583 -7.4260024e-05
9.10279e-05 -0.00052633364 -6.615859e-05 9.195592e-05 2.3136809e-06 4.3830996e-06 2.4561732e-06 7.887101e-05

exp_avg_sq f4 [128, 12]
00000000: ae9a 8e2f 3b51 2a2d c2a7 d02a cc65 2d30
00000010: 6814 002e 1cb7 a62b 9029 9130 5455 2d2e
00000020: 8316 762c 782d 0b31 3f9f a82e 7456 d62c
00000030: b172 ad2f 5aca ab2d 7d1e 292b 4b0f 9f30
00000040: 166b 7c2e fa9d 0f2c e751 2231 8ef5 d32e
00000050: a236 ec2c 467f 7231 c3b5 1f2f 5263 2d2d
00000060: ffd3 1232 2a02 6a2e 2f13 f22b 48b1 1234
00000070: 2226 4a30 6835 152d 418f 5834 76cc 9930
00000080: 46b3 7e2d ba93 4534 1921 9630 5538 992d
00000090: 2681 9930 9b54 aa2d 4d78 b62b 7c58 a030
000000a0: 26c1 e62d b465 da2b 67d3 8930 8284 f32d
000000b0: 80ee 062c c4c9 b630 fcc2 6a2e ecca 892c
000000c0: ed01 a22f 8e60 c02c 874d 182a ad33 b92f
000000d0: c307 3b2d c5e7 f02a e0cf c12f 53b4 942d
000000e0: 6e2e 412b a627 4e30 6306 322e fb21 182c
000000f0: 48d8 3133 f709 912f 8a05 7d2d 2253 4a35
00000100: 7768 9231 8815 c22e d6d4 5235 cded 9431
00000110: ef14 752f b3cb 5035 d80a 9531 b3bd 812f
00000120: 9e11 d72e 9b2c 432c 6023 5c29 2974 312f
00000130: e441 e22c 0d5a a92a d120 2e2f f13e fd2c
00000140: d028 d42a c4ee 0c30 f841 882d 204e 372b
00000150: 5f24 602f bd27 1f2c 2bd8 3229 8c28 4630
00000160: 1017 862d 11ef 2e2b b1cf ca30 d8a2 052e
00000170: a319 262c 6ee0 2631 e802 bc2e 8734 c82c
00000180: b61b 3c33 592f 8c2f b75f 8d2c dd3d 6a34
00000190: 43a4 a630 4660 282d 667d 0135 8654 3c31
000001a0: 2b4f 1d2e 9e58 3335 1e43 8331 723b 5f2e
000001b0: a220 8e30 5cba f32c d809 272a 883d a933
000001c0: d5f1 dc2f d2c6 cd2c cd1e 9034 785a c930
000001d0: 59cf fd2d e389 f934 95e0 2d31 a99b 4e2e
000001e0: 9d9f 0934 fa5b 5630 c656 462d 906f e233
000001f0: d463 2c30 aea8 4d2d 366c 2234 20ba 6130
00000200: 28c3 5a2d 552c 1834 abbf 5830 87b3 772d
00000210: 65dc a032 e235 f42e b937 0f2c f0cf 0c34
00000220: 8f99 4730 f808 132d a6c8 0634 ce3e 4030
00000230: 3271 322d 3e50 3a34 8e6d 8330 1c07 6a2d
00000240: 476e b433 609e 0730 52d3 4e2d 0374 3235
00000250: 15d8 8331 a8c1 9e2e b2ed 3c35 dd93 8b31
00000260: 6cac d62e 88f3 3735 2f05 9031 bd7f 362f
00000270: 0ed2 a833 9fec 0730 a4c5 b02d cc5d 3035
00000280: 4531 8131 9a5e c72e 1a20 1f35 7b40 6d31
00000290: 5d40 ff2e d441 1b35 75a2 6f31 47c1 072f
000002a0: 698c 982f 0627 d82c 9f04 af2a c3e4 8f2f
000002b0: e140 042d 3f76 d12a 5488 9b32 6ddd f42e
000002c0: 1964 662c ba76 ad33 d46f 0130 976d d62c
000002d0: 633f 8b33 5690 b52f 0a76 9a2d 4927 5434
000002e0: 52d1 8e30 df2e 362e 4082 5834 25ee 9630
000002f0: a418 352e 0dbe 7534 e720 b630 b143 6d2e
00000300: d697 9a2f 6ecd 482d 540c 3a2b 628b fd2f
00000310: 03b5 072e a0e9 a12b b070 8430 43e4 802e
00000320: d987 792c 32fc 4131 cb62 012f d0ff 032d
00000330: 06d6 7533 0e20 c72f 3e5b b92c c908 1135
00000340: e127 5131 0236 ee2d a8d9 b235 ede7 ff31
00000350: 86a0 c92e a211 ad35 710e fb31 1a7c e02e
00000360: 9d4d 472d e7b2 2e2c f7d6 da28 a85d 192f
00000370: 2ae8 ea2c e81f 652a 8033 7c2f 7c99 0e2d
00000380: f097 032b 4e97 642f d807 382d 6cbf 5b2b
00000390: 051d 9232 a05c dc2e a1e7 2c2c ff93 3834
000003a0: e7e4 8030 63b4 1a2d cca4 0435 cb3f 3e31
000003b0: b939 312e e3a9 0235 6fe9 3a31 227a 452e
000003c0: 9088 ef33 5a96 3230 4cc1 352e a20f 5035
000003d0: deb4 9631 e22a 362f d0fb 2235 2090 7031
000003e0: 69a4 cb2f a1d2 2135 5070 6e31 8e19 d12f
000003f0: 6a9d 9b30 dad1 b72d cb84 632b 83ca 5231
2.5939556e-10 9.681418e-12 3.7064628e-13 6.3081695e-10 2.9121955e-11 1.1845832e-12 1.0561951e-09 3.9411432e-11
3.49712e-12 2.0253008e-09 7.668043e-11 6.091844e-12 3.155001e-10 1.9530311e-11 6.008317e-13 1.1573119e-09
5.7393278e-11 2.0409217e-12 2.3620659e-09 9.6387884e-11 6.713589e-12 3.5287981e-09 1.452554e-10 9.855965e-12
8.546521e-09 5.3207362e-11 1.7200459e-12 1.3661804e-07 7.354136e-10 8.481528e-12 2.0168683e-07 1.1190326e-09
1.4478035e-11 1.8400797e-07 1.0923343e-09 1.7419103e-11 1.1168921e-09 1.9364335e-11 1.2965268e-12 1.1666681e-09
2.6233748e-11 1.551806e-12 1.0028146e-09 2.7684747e-11 1.917494e-12 1.3299588e-09 5.337862e-11 3.916303e-12
2.9468997e-10 5.467688e-12 1.352721e-13 3.3688022e-10 1.0631443e-11 4.2793387e-13 3.52542e-10 1.6905732e-11
6.863181e-13 7.499871e-10 4.0478187e-11 2.1619362e-12 4.140773e-08 2.6382427e-10 1.4382615e-11 7.537184e-07
4.2610355e-09 8.825923e-11 7.8540813e-07 4.3344017e-09 2.2290057e-10 7.778246e-07 4.3377035e-09 2.3599753e-10
9.7801975e-11 2.7735928e-12 4.8880496e-14 1.6139325e-10 6.4306217e-12 3.0082916e-13 1.5836867e-10 7.1976804e-12
3.7687084e-13 5.127101e-10 1.5490706e-11 6.512308e-13 2.0385603e-10 2.2617318e-12 3.9711436e-14 7.20896e-10
1.5244278e-11 6.214899e-13 1.4756464e-09 3.0385333e-11 2.360425e-12 2.4283753e-09 8.5497665e-11 5.6901736e-12
4.3797364e-08 2.5499494e-10 4.0180875e-12 2.1815454e-07 1.2124776e-09 9.571071e-12 4.8238724e-07 2.7405647e-09
3.5767982e-11 6.681165e-07 3.820232e-09 5.0757128e-11 1.0341135e-09 6.9271654e-12 1.4835995e-13 7.880868e-08
4.01896e-10 5.848524e-12 2.68445e-07 1.4650388e-09 2.885485e-11 4.648019e-07 2.5302473e-09 4.697723e-11
1.2817186e-07 7.7983453e-10 1.12742645e-11 1.0544238e-07 6.27151e-10 1.1690355e-11 1.5126793e-07 8.211902e-10
1.2435199e-11 1.4172231e-07 7.885272e-10 1.40801875e-11 1.8726675e-08 1.1105407e-10 2.0352455e-12 1.3114163e-07
7.2614e-10 8.357974e-12 1.2552718e-07 6.9938444e-10 1.0143263e-11 1.7351792e-07 9.562642e-10 1.3302939e-11
8.4019625e-08 4.933778e-10 1.1756667e-11 6.6478987e-07 3.8371675e-09 7.2194084e-11 7.038135e-07 4.0622425e-09
9.7622216e-11 6.8527197e-07 4.191541e-09 1.6598185e-10 7.861318e-08 4.944897e-10 2.0096654e-11 6.57016e-07
3.7599954e-09 9.066277e-11 5.927883e-07 3.4524692e-09 1.1607491e-10 5.783779e-07 3.4871424e-09 1.2346844e-10
2.7748406e-10 6.1434217e-12 3.108945e-13 2.6174093e-10 7.517737e-12 3.7207908e-13 1.810637e-08 1.11351685e-10
3.2740531e-12 8.0775365e-08 4.7088844e-10 6.0944127e-12 6.484222e-08 3.3026265e-10 1.7560193e-11 1.975833e-07
1.0391352e-09 4.142364e-11 2.0163952e-07 1.0981621e-09 4.117652e-11 2.2886543e-07 1.3251594e-09 5.3947683e-11
2.8120323e-10 1.1414298e-11 6.6097583e-13 4.611947e-10 3.0856217e-11 1.1504582e-12 9.636292e-10 5.8613135e-11
3.5460439e-12 2.8228553e-09 1.176758e-10 7.50329e-12 5.723816e-08 3.6220665e-10 5.268146e-12 5.4029493e-07
3.0436171e-09 2.7081452e-11 1.332538e-06 7.4478437e-09 9.1689364e-11 1.2894636e-06 7.3067032e-09 1.02083855e-10
1.1329074e-11 2.4826198e-12 2.4296088e-14 1.3948542e-10 6.6764554e-12 2.0350356e-13 2.2937563e-10 8.105846e-12
4.6751405e-13 2.0790233e-10 1.0460931e-11 7.807008e-13 1.7009834e-08 1.0020895e-10 2.457125e-12 1.7190176e-07
9.378284e-10 8.79394e-12 4.9413643e-07 2.76849e-09 4.029641e-11 4.867599e-07 2.7199254e-09 4.490109e-11
1.1154145e-07 6.4969685e-10 4.1326317e-11 7.7508787e-07 4.386137e-09 1.6568039e-10 6.071614e-07 3.5006522e-09
3.7042305e-10 6.028368e-07 3.46974e-09 3.8035036e-10 1.1322474e-09 2.0897884e-11 8.083089e-13 3.0674137e-09

exp_avg f4 [128]
00000000: f81f 7b37 0a7a 4a37 347d 0137 7ffa 3537
00000010: 5fa0 0db7 0027 7e38 d2a5 3c36 c5d3 1237
00000020: debb f937 b3cc 9437 a9a0 adb6 a23b e134
00000030: 9876 6c38 b62e 3138 0d70 16b7 96e5 3936
00000040: e268 5a37 6aa1 5138 5824 be35 65f2 0938
00000050: 9ebe 0ab8 42f7 8336 91bd 8fb5 376f a3b7
00000060: c945 03b7 2ff2 9db5 cec0 4c38 53d8 e137
00000070: 7437 a5b4 0967 3c37 a094 1638 5649 78b7
00000080: 072b 11b7 13f7 fe37 6b39 9a38 59f7 2db8
00000090: 73bd ba36 9010 0738 7b9f 9d36 3bcd e936
000000a0: 75bd 9636 3b2b fcb6 520a 7637 133f 5db6
000000b0: c227 d6b6 a19f 8eb8 a863 b836 2482 b037
000000c0: 1f86 9237 9008 7536 138f ca36 480b dfb6
000000d0: 43e5 9e37 ae85 9536 7284 ac37 e541 eab6
000000e0: cb7c 4bb6 fa76 2338 b103 b437 26aa ebb7
000000f0: b7f3 04b8 fcf4 cf37 2935 17b8 b5e0 5335
00000100: a21c b835 f0c1 33b8 6b1e f538 fdb0 df35
00000110: 6bb6 6638 7121 9537 5e1f 97b7 244d aa37
00000120: 93dc f337 c967 27b7 696d 0137 83a8 3db8
00000130: a5aa 9837 cf0f cf37 e702 eab6 8482 3738
00000140: 5a6b 66b7 8b69 19b6 9c48 a036 07e8 22b7
00000150: a35f 2d37 6816 72b8 3cfe fd37 80d7 3237
00000160: 36b4 ff37 57e8 f134 417b 8937 629b 0038
00000170: d305 0837 1130 8236 0993 c935 1a19 e936
00000180: 5c20 8837 1722 f335 5ea5 7bb8 a5d9 4e38
00000190: c0bc 0635 2620 ecb4 a2b0 a036 c10f 9cb7
000001a0: fee9 8736 b147 4db8 2542 9e35 7ff6 0d37
000001b0: 8e09 8336 82e1 27b8 ef53 9a38 5ed3 9637
000001c0: 486a 60b6 bfef b436 d88b f8b7 269f 2537
000001d0: afa5 4bb6 4f80 56b7 e2ed 91b8 801b 1f37
000001e0: 89b0 f037 bf04 6d35 3027 6d37 f690 7237
000001f0: d274 8637 92df eeb6 5dd6 9236 b0c8 6d36
1.4968209e-05 1.2068553e-05 7.71815e-06 1.0846764e-05 -8.441594e-06 6.059464e-05 2.8110703e-06 8.751585e-06
2.9770596e-05 1.7738295e-05 -5.174505e-06 4.1952904e-07 5.6377234e-05 4.224359e-05 -8.966786e-06 2.7700785e-06
1.30182325e-05 4.997981e-05 1.416668e-06 3.2889093e-05 -3.307929e-05 3.932889e-06 -1.0709501e-06 -1.9482903e-05
-7.824457e-06 -1.1767896e-06 4.8816953e-05 2.6922824e-05 -3.0773992e-07 1.1229663e-05 3.5901205e-05 -1.4799027e-05
-8.652692e-06 3.0394212e-05 7.353987e-05 -4.1476775e-05 5.5652868e-06 3.2201933e-05 4.6975306e-06 6.967833e-06
4.492404e-06 -7.515218e-06 1.46651455e-05 -3.296828e-06 -6.3823254e-06 -6.800821e-05 5.495229e-06 2.1041436e-05
1.7467011e-05 3.651283e-06 6.036725e-06 -6.647231e-06 1.8941826e-05 4.4561084e-06 2.0565672e-05 -6.9814146e-06
-3.0321996e-06 3.8973034e-05 2.1459391e-05 -2.8093415e-05 -3.169823e-05 2.4790403e-05 -3.6050715e-05 7.8930617e-07
1.3717402e-06 -4.2857544e-05 0.00011688176 1.6666305e-06 5.5006163e-05 1.7777757e-05 -1.801521e-05 2.03015e-05
2.907057e-05 -9.97814e-06 7.714473e-06 -4.521805e-05 1.8199275e-05 2.4683684e-05 -6.9740813e-06 4.3752152e-05
-1.3734063e-05 -2.286021e-06 4.7768244e-06 -9.7099755e-06 1.0333871e-05 -5.7718164e-05 3.0278337e-05 1.0659802e-05
3.0482286e-05 4.5058798e-07 1.6389067e-05 3.066229e-05 8.107588e-06 3.8798976e-06 1.501846e-06 6.9468633e-06
1.6227532e-05 1.8114832e-06 -5.9997074e-05 4.9316925e-05 5.019356e-07 -4.3981817e-07 4.7889343e-06 -1.8603985e-05
4.050554e-06 -4.8942577e-05 1.1791168e-06 8.461647e-06 3.9052165e-06 -4.0025923e-05 7.358926e-05 1.7979819e-05
-3.3440465e-06 5.392328e-06 -2.9629024e-05 9.871821e-06 -3.0345798e-06 -1.2785268e-05 -6.958448e-05 9.483541e-06
2.8692435e-05 8.8296287e-07 1.4135425e-05 1.4458075e-05 1.6028443e-05 -7.1189797e-06 4.3760942e-06 3.5432568e-06

exp_avg_sq f4 [128]
00000000: 3e9f a82d c2b5 1f2e 1921 962f fac2 6a2d
00000010: 6206 322d da0a 9530 f841 882c e902 bc2d
00000020: 1d43 8330 96e0 2d30 abbf 582f 8e6d 832f
00000030: 2e05 9030 74a2 6f30 d36f 012f e920 b62f
00000040: cb62 012e 710e fb30 db07 382c 71e9 3a30
00000050: 5170 6e30 24aa 6a2e 76dd 302e 2d3d 0a31
00000060: 6fda 0b2e 6813 6e2d 5270 5030 5d67 e62f
00000070: ce6d 562c 5e98 722f e1b2 9630 d66d 1030
00000080: f97f 5e30 e52b b02f 98d4 0031 556a 0d31
00000090: 59de 3e2f b152 6e2f 0c2e 2f2d accc d630
000000a0: 3cfa d02c 8868 702d 1356 a330 c1d3 132e
000000b0: 332b d02d 2c01 cf31 42d1 cf2d cb4a 682e
000000c0: fbb4 1130 7cc3 9d2e b7c5 a22e 505b 662d
000000d0: fcd1 b82e ed7a be2c 3f93 a32e b286 692f
000000e0: 1edd 9b2d 82b9 8531 b76f 2931 defe 962f
000000f0: bf48 f32f 6b2b a42f 5092 8430 9458 3030
00000100: dbae 702e 646e e430 8248 8831 daba 442f
00000110: 7121 4531 7f94 8f30 3712 a12f 0065 f62f
00000120: 5d29 a130 bb21 4c30 7af4 262e 6c98 6c30
00000130: 39a5 002f 6812 0d31 3706 8f2f b3e9 bf30
00000140: b812 1b2f 22ff 0e2e 00fa d92e be88 e12e
00000150: d572 9e2e 2088 7131 3f6f fc2f 5b10 3a2d
00000160: d071 9230 7998 082f 2b52 d130 16f1 5730
00000170: 4531 4d2e fc36 e62d d18b 942d 9077 4c2f
00000180: 5025 c42f 2ccf 2b2f 220f 2e32 5c24 2430
00000190: d3f4 d22e ac9d cf2d e429 492f 3151 b92f
000001a0: f48e 892d 047d 4b31 cad2 fc2e 88b1 302e
000001b0: 198c f12d d01b 9231 ebce f430 bc50 b02f
000001c0: cadd 322e 003a 192f c1e5 6930 37bc a62d
000001d0: 80eb a12f fe93 ce30 0a49 0331 9b6a cd30
000001e0: 89d5 9930 abda 392d 95d5 b82f 936f 4b30
000001f0: 7267 1e2f 3a1e a42e 4ea3 322d 7818 462f
1.9170106e-11 3.6313848e-11 2.7308358e-10 1.33446535e-11 1.0119546e-11 1.0844261e-09 3.8726765e-12 2.1374418e-11
9.550579e-10 6.325619e-10 1.971318e-10 2.3906604e-10 1.0478851e-09 8.7178553e-10 1.177221e-10 3.312899e-10
2.941895e-11 1.8266758e-09 2.6152333e-12 6.7998146e-10 8.6743507e-10 5.3356555e-11 4.0214464e-11 2.0116417e-09
3.179895e-11 1.3533043e-11 7.5829576e-10 4.19102e-10 3.0472183e-12 2.2063903e-10 1.0964777e-09 5.254298e-10
8.094499e-10 3.2045402e-10 1.8747297e-09 2.0578643e-09 1.7359393e-10 2.1675352e-10 9.957823e-12 1.562872e-09
5.939497e-12 1.3665631e-11 1.1884275e-09 3.3612006e-11 2.3666047e-11 6.024626e-09 2.3626105e-11 5.2817122e-11
5.300788e-10 7.1742584e-11 7.402028e-11 1.3094262e-11 8.404652e-11 5.4137723e-12 7.438538e-11 2.123908e-10
1.7719656e-11 3.8918992e-09 2.465624e-09 2.7465935e-10 4.4253132e-10 2.9862277e-10 9.645849e-10 6.4154304e-10
5.4724985e-11 1.6620558e-09 3.966364e-09 1.7892479e-10 2.8686282e-09 1.0446825e-09 2.9298672e-10 4.4818904e-10
1.1726048e-09 7.42627e-10 3.796117e-11 8.6072904e-10 1.1700231e-10 2.0528663e-09 2.6015964e-10 1.39635e-09
1.4103818e-10 3.2513665e-11 9.9124264e-11 1.0256106e-10 7.2054064e-11 3.5147494e-09 4.5917578e-10 1.05765076e-11
1.0655246e-09 1.2423297e-10 1.5230105e-09 7.855915e-10 4.6655364e-11 2.617239e-11 1.6887743e-11 1.8596169e-10
3.5678704e-10 1.5625962e-10 1.0131574e-08 5.971452e-10 9.593184e-11 2.3603196e-11 1.8295726e-10 3.3708994e-10
1.563858e-11 2.961145e-09 1.1497077e-10 4.0175446e-11 2.7460744e-11 4.252321e-09 1.7812146e-09 3.207158e-10
4.0669502e-11 1.3935875e-10 8.5091406e-10 1.89556e-11 2.9453062e-10 1.5030535e-09 1.9104527e-09 1.4946012e-09
1.1192905e-09 1.05645865e-11 3.3621164e-10 7.4009526e-10 1.4406767e-10 7.463226e-11 1.01543895e-11 1.8016688e-10
