results/ppo/BalanceBall1/BalanceBall1-2048.pt (torch, 147843 bytes, 11 tensors)

network_body._body_endoder.seq_layers.0.weight f4 [128, 4]
-0.43002352 -0.30149952 0.008287222 -0.6365772 0.25562656 0.6944134 -0.41779044 -1.7173002
-0.09963863 0.200449 -0.0761991 0.72732604 -0.51990396 -0.13091621 -0.1700141 0.26782534
0.08395726 0.000982075 -0.5937522 -1.107864 -0.22035477 0.47032157 -0.052818064 -0.91386217
-0.21986175 0.6722548 0.4728493 0.6554077 0.06728354 -0.19987258 0.80645144 -0.7791175
-0.48842004 -0.3093768 0.19554473 0.27017087 0.22025824 0.23252699 0.8081685 -0.08950792
0.11787896 -0.17252669 -0.4294886 -0.47865754 0.23722807 0.20113038 -0.12741861 0.22172092
0.0009236052 0.42225438 0.24112941 -0.0011032235 0.2847055 -0.55277324 -0.87193346 0.4037275
-0.45553306 0.3353257 -0.10246246 0.4870692 -0.23537575 0.15417537 0.05880892 -0.12179076
-0.5420983 -0.17326653 -0.04690844 0.6187134 0.0054507786 0.12713347 0.26287118 -0.1698232
1.0159292 -0.55241543 0.68010116 0.24090253 0.85293484 0.9892243 -0.19618855 -0.06994054
-0.18748926 0.947778 0.52821875 -0.2301796 -0.027401729 0.23890907 -0.042780824 0.044092778
-0.9660864 -0.17630798 0.4612906 0.102327116 -0.25898063 0.80560356 0.06562761 -0.21066926
0.17411812 0.24892434 0.117551796 0.8995301 0.3993271 -0.39140445 0.41835028 0.40137017
0.4321679 -0.40918314 0.36325765 -0.021561103 0.1788148 -0.10303356 0.7286672 0.32576385
0.6624066 -0.28787118 -0.19839269 -0.088793725 -0.029648988 0.5206377 -0.60825396 -0.5215773
1.1371695 0.124935225 0.28556296 -0.67433256 -0.062600404 -0.0062647886 -0.8797442 -0.35894272
-0.2293334 -0.13931023 0.5762475 0.37662786 -0.6346927 -0.29777503 0.2400602 -1.125785
-0.7435189 -0.29336756 0.041793417 0.811315 -0.49250874 -0.21699339 0.2498613 0.036158573
0.18520045 0.14993493 -0.33728954 0.49792027 -0.3155269 -0.12688303 0.0153116435 -0.5266506
-0.16537428 0.31727886 0.1277497 0.27116886 0.5600313 0.59871846 -0.59348005 0.4827742
-0.33137146 -0.71244013 0.2810514 -0.19856296 -0.7844923 0.010824692 -0.4721879 -0.81984395
0.71717817 -0.15799037 0.63210154 0.59294957 1.1142992 0.15972674 -0.35168618 0.2199758
-0.29636848 0.49257824 -0.9785504 -0.1170018 -0.94696283 1.072257 0.038236167 0.207477
-0.06713556 0.4807109 -0.13845594 -0.6411475 0.09849316 -0.5149307 -0.19939572 0.14905843
-0.036551278 0.14540237 -0.24749054 0.39923894 -0.16612425 -0.20013753 0.8022525 0.34685534
0.044357 -0.9338995 1.03924 -1.2350154 0.23315528 -0.07618424 -0.2806567 1.0889697
-0.47924933 0.039727625 -0.75425816 0.36108524 0.82699406 0.1378843 0.295206 -0.5945311
0.42284724 -0.27126366 0.56586176 0.19102827 -0.41277522 -0.24075526 -0.08390928 -0.008991624
-0.22883892 0.4101492 0.6528051 -0.15444441 0.83053255 -0.47355455 -0.3505446 -0.44939208
0.04606454 0.7703005 0.50604004 0.66185737 -0.49672434 0.3509545 -0.16996308 -0.40478367
-0.26788154 0.20337732 -0.5335943 0.1871722 -0.6865383 -0.37185505 -0.5820985 -0.58395875
-0.2917958 -0.79958296 0.90025705 -0.36800557 -0.4815715 -0.5216031 0.19275041 -1.0538627
00000000: 0b2c dcbe 255e 9abe 21c7 073c b9f6 22bf
00000010: 7ce1 823e 14c5 313f a1e8 d5be 7ed0 dbbf
00000020: 570f ccbd 8142 4d3e 460e 9cbd 0a32 3a3f
00000030: 6d18 05bf e60e 06be 2d18 2ebe 6720 893e
00000040: c9f1 ab3d f8b8 803a 2500 18bf 7dce 8dbf
00000050: aea4 61be fdcd f03e c157 58bd dff2 69bf
00000060: 7023 61be e418 2c3f 4e19 f23e cdc8 273f
00000070: f4cb 893d 66ab 4cbe 9a73 4e3f 3f74 47bf
00000080: 3112 fabe a366 9ebe e13c 483e d653 8a3e
00000090: 608b 613e 8e1b 6e3e 21e4 4e3f ee4f b7bd
000000a0: 866a f13d d6aa 30be eee5 dbbe 9a12 f5be
000000b0: eaeb 723e 1ff5 4d3e 067a 02be cf0a 633e
000000c0: 191e 723a ba31 d83e a1ea 763e 0a9a 90ba
000000d0: ebc4 913e 8c82 0dbf 0837 5fbf 5fb5 ce3e
000000e0: a13b e9be cfaf ab3e d7d7 d1bd 2261 f93e
000000f0: 5706 71be 26e0 1d3e 9fe1 703d 6f6d f9bd
00000100: f4c6 0abf c86c 31be 1023 40bd 0064 1e3f
00000110: 729c b23b 472f 023e 0d97 863e 22e6 2dbe
00000120: f809 823f 196b 0dbf 1c1b 2e3f 27af 763e
00000130: f059 5a3f ce3d 7d3f a7e5 48be fc3c 8fbd
00000140: 2ffd 3fbe 94a1 723f 5839 073f 33b4 6bbe
00000150: 9779 e0bc 94a4 743e f23a 2fbd a19a 343d
00000160: 7051 77bf 148a 34be 482e ec3e e190 d13d
00000170: 1c99 84be 093c 4e3f c567 863d afb9 57be
00000180: 054c 323e 06e6 7e3e ffbe f03d 9b47 663f
00000190: 9a74 cc3e 2a66 c8be 0232 d63e 6480 cd3e
000001a0: 1c45 dd3e 7480 d1be e8fc b93e e9a0 b0bc
000001b0: 3a1b 373e 4203 d3bd ef89 3a3f 85ca a63e
000001c0: 7b93 293f da63 93be 7427 4bbe 7cd9 b5bd
000001d0: 6fe2 f2bc 8348 053f 88b6 1bbf 1786 05bf
000001e0: c58e 913f 0ade ff3d 4f35 923e 0fa1 2cbf
000001f0: a434 80bd db48 cdbb ea36 61bf 57c7 b7be
00000200: 60d6 6abe 57a7 0ebe f584 133f 5ed5 c03e
00000210: 397b 22bf f875 98be 57d2 753e b919 90bf
00000220: 4157 3ebf 4634 96be 932f 2b3d 57b2 4f3f
00000230: 1b2a fcbe 8433 5ebe a4db 7f3e 031b 143d
00000240: 30a5 3d3e 8b88 193e 37b1 acbe 68ef fe3e
00000250: be8c a1be a0ed 01be b0dd 7a3c 93d2 06bf
00000260: e057 29be 6072 a23e d1d0 023e a5d6 8a3e
00000270: 365e 0f3f 9d45 193f 4fee 17bf 2e2e f73e
00000280: 85a9 a9be 7a62 36bf f8e5 8f3e 1754 4bbe
00000290: 7dd4 48bf 0d5a 313c 9dc2 f1be 4be1 51bf
000002a0: fd98 373f 3ac8 21be 68d1 213f 8bcb 173f
000002b0: 5ba1 8e3f 688f 233e 3610 b4be 5641 613e
000002c0: 9cbd 97be 3733 fc3e 4782 7abf a49e efbd
000002d0: 286c 72bf b83f 893f 879d 1c3d da74 543e
000002e0: 5e7e 89bd bd1f f63e 65c7 0dbe 3e22 24bf
000002f0: c8b6 c93d 80d2 03bf 642e 4cbe c6a2 183e
00000300: cbb6 15bd 5ce4 143e 296e 7dbe 0c69 cc3e
00000310: 7a1c 2abe daf0 4cbe 6b60 4d3f 0697 b13e
00000320: b0af 353d 0a14 6fbf d105 853f fc14 9ebf
00000330: 42c0 6e3e 7c06 9cbd 3cb2 8fbe 5c63 8b3f
00000340: 2b60 f5be 6fb9 223d 1017 41bf 2ae0 b83e
00000350: e2b5 533f 8b31 0d3e 3e25 973e 3133 18bf
00000360: 6f7f d83e 12e3 8abe 51dc 103f ea9c 433e
00000370: 4657 d3be 8c88 76be a1d8 abbd 9b51 13bc
00000380: c054 6abe 13ff d13e 3c1e 273f ad26 1ebe
00000390: c89d 543f be75 f2be 957a b3be b816 e6be
000003a0: 2cae 3c3d 6a32 453f d78b 013f 7c6f 293f
000003b0: a752 febe 4fb0 b33e cd0a 2ebe ce3f cfbe
000003c0: c527 89be 2542 503e a399 08bf 12aa 3f3e
000003d0: f9c0 2fbf c963 bebe 6804 15bf 527e 15bf
000003e0: 4266 95be 78b1 4cbf 3f77 663f 3a6b bcbe
000003f0: 8a90 f6be c887 05bf 5d60 453e f9e4 86bf

network_body._body_endoder.seq_layers.0.bias f4 [128]
0.0 0.0 0.0 0.0 0.0 0.0 0.0 0.0
0.0 0.0 0.0 0.0 0.0 0.0 0.0 0.0
0.0 0.0 0.0 0.0 0.0 0.0 0.0 0.0
0.0 0.0 0.0 0.0 0.0 0.0 0.0 0.0
0.0 0.0 0.0 0.0 0.0 0.0 0.0 0.0
0.0 0.0 0.0 0.0 0.0 0.0 0.0 0.0
0.0 0.0 0.0 0.0 0.0 0.0 0.0 0.0
0.0 0.0 0.0 0.0 0.0 0.0 0.0 0.0
0.0 0.0 0.0 0.0 0.0 0.0 0.0 0.0
0.0 0.0 0.0 0.0 0.0 0.0 0.0 0.0
0.0 0.0 0.0 0.0 0.0 0.0 0.0 0.0
0.0 0.0 0.0 0.0 0.0 0.0 0.0 0.0
0.0 0.0 0.0 0.0 0.0 0.0 0.0 0.0
0.0 0.0 0.0 0.0 0.0 0.0 0.0 0.0
0.0 0.0 0.0 0.0 0.0 0.0 0.0 0.0
0.0 0.0 0.0 0.0 0.0 0.0 0.0 0.0
00000000: 0000 0000 0000 0000 0000 0000 0000 0000
00000010: 0000 0000 0000 0000 0000 0000 0000 0000
00000020: 0000 0000 0000 0000 0000 0000 0000 0000
00000030: 0000 0000 0000 0000 0000 0000 0000 0000
00000040: 0000 0000 0000 0000 0000 0000 0000 0000
00000050: 0000 0000 0000 0000 0000 0000 0000 0000
00000060: 0000 0000 0000 0000 0000 0000 0000 0000
00000070: 0000 0000 0000 0000 0000 0000 0000 0000
00000080: 0000 0000 0000 0000 0000 0000 0000 0000
00000090: 0000 0000 0000 0000 0000 0000 0000 0000
000000a0: 0000 0000 0000 0000 0000 0000 0000 0000
000000b0: 0000 0000 0000 0000 0000 0000 0000 0000
000000c0: 0000 0000 0000 0000 0000 0000 0000 0000
000000d0: 0000 0000 0000 0000 0000 0000 0000 0000
000000e0: 0000 0000 0000 0000 0000 0000 0000 0000
000000f0: 0000 0000 0000 0000 0000 0000 0000 0000
00000100: 0000 0000 0000 0000 0000 0000 0000 0000
00000110: 0000 0000 0000 0000 0000 0000 0000 0000
00000120: 0000 0000 0000 0000 0000 0000 0000 0000
00000130: 0000 0000 0000 0000 0000 0000 0000 0000
00000140: 0000 0000 0000 0000 0000 0000 0000 0000
00000150: 0000 0000 0000 0000 0000 0000 0000 0000
00000160: 0000 0000 0000 0000 0000 0000 0000 0000
00000170: 0000 0000 0000 0000 0000 0000 0000 0000
00000180: 0000 0000 0000 0000 0000 0000 0000 0000
00000190: 0000 0000 0000 0000 0000 0000 0000 0000
000001a0: 0000 0000 0000 0000 0000 0000 0000 0000
000001b0: 0000 0000 0000 0000 0000 0000 0000 0000
000001c0: 0000 0000 0000 0000 0000 0000 0000 0000
000001d0: 0000 0000 0000 0000 0000 0000 0000 0000
000001e0: 0000 0000 0000 0000 0000 0000 0000 0000
000001f0: 0000 0000 0000 0000 0000 0000 0000 0000

network_body._body_endoder.seq_layers.2.weight f4 [128, 128]
0.014813473 -0.12206153 -0.01997507 0.08993341 -0.003436656 0.05242707 0.13639334 0.040412057
0.10305804 0.02412233 0.066757664 -0.14851813 -0.024706192 -0.0056914045 0.0061836154 0.19868495
0.05467535 0.13099411 0.013651063 -0.02463347 -0.11678221 0.10690626 0.050376706 -0.06563135
0.036366597 0.07488776 -0.058670804 -0.014055745 0.18189292 0.036846064 0.08879367 -0.08058604
0.015510443 -0.04058117 -0.10592071 0.062031563 -0.038794614 -0.03324597 0.026729649 0.06826899
-0.040273514 0.058810037 -0.032951985 0.09704892 0.005109219 0.0005565418 -0.09613656 0.05785887
-0.07749948 0.04771738 0.012136356 -0.11856353 0.10632751 0.053889256 -0.06534628 -0.078673795
0.026953865 -0.018830452 -0.07038037 0.09518655 -0.073204555 0.018600058 -0.018141842 -0.2612333
0.06162499 -0.0036056754 -0.113996804 0.02970802 0.13849418 -0.080870345 -0.12064326 0.124117285
-0.11893127 -0.08505488 -0.07219937 -0.029682908 -0.12880297 0.05910835 0.005352692 -0.033832848
0.033819795 0.10929873 0.024615161 -0.070237204 -0.031503875 0.09633702 0.06548438 0.010735183
-0.030826049 -0.075060815 -0.026220787 -0.07534744 0.07584376 -0.100935884 0.0018465358 0.08161109
0.02701295 0.008399011 0.12709287 -0.032213807 0.027927045 0.09540152 -0.056329295 -0.014676748
0.09816954 0.008978192 0.110935666 -0.05574359 0.17094667 -0.017031305 0.015761327 0.08949469
-0.09473418 0.07619881 -0.008802504 0.12567328 -0.029197821 0.001848757 0.1585074 0.08484849
-0.054700334 0.06713099 -0.11160758 -0.012524499 0.0737594 -0.028458634 0.15938257 -0.02168941
0.077393584 -0.009329709 -0.04857547 0.19111693 -0.026270296 0.061641134 -0.13277842 -0.008736571
-0.033671644 0.04402004 0.016565477 0.055409927 0.012516953 -0.11099003 0.033579275 -0.10288172
0.008267248 0.026571333 0.0057527353 0.05087757 0.07421217 0.039227355 0.25815657 0.052561734
-0.04976163 -0.28097218 -0.052988164 0.045065828 0.027289264 0.03966693 0.018097779 0.14813508
-0.05608971 -0.054332793 -0.07335288 -0.024926238 -0.0059298673 0.046282887 0.086317 0.03487317
0.10933242 0.079062074 -0.12995325 0.0758549 0.05187215 -0.20566279 0.037699938 0.019290702
0.06510641 -0.055142533 -0.011634928 0.04553737 0.051305927 -0.010654452 -0.039529298 0.0631771
0.027873958 -0.0883202 -0.0021840234 -0.077090375 -0.08131533 0.039385084 0.043447122 0.084779195
0.048680216 0.035725564 0.10198441 -0.107818045 0.096318915 -0.07897742 -0.11897284 -0.066052444
-0.0034494197 -0.011973286 0.049736217 0.05529829 -0.0023824556 0.00090331124 -0.09244989 -0.031501357
0.2009099 -0.05745149 0.06372575 0.09681603 0.09674397 0.07217479 0.008025562 -0.13107015
-0.12275946 -0.12324105 -0.09556649 -0.09720435 0.119907826 0.07809299 -0.008620006 0.078579634
-0.05619083 -0.07313112 0.035215784 -0.008943013 0.034692273 0.11701656 0.034403786 -0.012225307
-0.079313025 0.04320931 0.11082129 0.122494705 0.09973819 -0.026116513 0.054889232 -0.050084442
0.01865822 0.16054735 0.056388628 0.012884194 -0.12431372 0.008367216 -0.1517529 0.06442763
-0.1150569 0.075754456 -0.10796327 0.053202655 0.16078806 -0.18590692 -0.17005508 0.17813075
00000000: 36b4 723c 65fb f9bd c2a2 a3bc 022f b83d
00000010: 8539 61bb c4bd 563d b2aa 0b3e 1d87 253d
00000020: 1810 d33d 319c c53c 3eb8 883d 2315 18be
00000030: a464 cabc f67e babb ed9f ca3b 1174 4b3e
00000040: 43f3 5f3d 5223 063e b5a8 5f3c 22cc c9bc
00000050: 832b efbd abf1 da3d ce57 4e3d bb69 86bd
00000060: 24f5 143d c15e 993d cc50 70bd 114a 66bc
00000070: 2342 3a3e e6eb 163d 75d9 b53d 4b0a a5bd
00000080: 831f 7e3c 7138 26bd f5ec d8bd cf14 7e3d
00000090: 1ae7 1ebd ed2c 08bd 23f8 da3c 9dd0 8b3d
000000a0: d7f5 24bd cbe2 703d a9f8 06bd 96c1 c63d
000000b0: 3c6b a73b e3e4 113a 3fe3 c4bd 6cfd 6c3d
000000c0: 0cb8 9ebd 4d73 433d 91d7 463c 70d1 f2bd
000000d0: 3dc2 d93d fbba 5c3d 45d4 85bd ba1f a1bd
000000e0: 5ace dc3c 5242 9abc 9523 90bd 2af1 c23d
000000f0: 45ec 95bd 265f 983c 339e 94bc 5fc0 85be
00000100: 7c6a 7c3d 324d 6cbb 2877 e9bd 3c5e f33c
00000110: 6bd1 0d3e 5a9f a5bd d013 f7bd 3431 fe3d
00000120: 3d92 f3bd 4131 aebd 43dd 93bd 9229 f3bc
00000130: ede4 03be 991b 723d a365 af3b 5094 0abd
00000140: a086 0a3d 03d8 df3d bca5 c93c 86d8 8fbd
00000150: 350a 01bd 584c c53d ad1c 863d 9fe2 2f3c
00000160: e986 fcbc 7cb9 99bd facc d6bc c24f 9abd
00000170: f953 9b3d 79b7 cebd 7607 f23a b723 a73d
00000180: 434a dd3c 019c 093c a224 023e a0f2 03bd
00000190: 42c7 e43c df61 c33d 8cb9 66bd be76 70bc
000001a0: 1d0d c93d 4419 133c 3d32 e33d 6453 64bd
000001b0: a50c 2f3e 3c85 8bbc e61d 813c fe48 b73d
000001c0: fe03 c2bd 1f0e 9c3d 6138 10bc 7fb0 003e
000001d0: 4530 efbc fe51 f23a c44f 223e 0cc5 ad3d
000001e0: 750d 60bd f97b 893d 8492 e4bd 8e33 4dbc
000001f0: 2b0f 973d 1522 e9bc 2f35 233e fdad b1bc
00000200: 8780 9e3d a3db 18bc 12f7 46bd 28b4 433e
00000210: ce34 d7bc 6a7b 7c3d 11f7 07be d623 0fbc
00000220: 47eb 09bd 5c4e 343d 53b4 873c 85f5 623d
00000230: e813 4d3c be4e e3bd 6c8a 093d a7b3 d2bd
00000240: 5a73 073c 20ac d93c 7181 bc3b 0065 503d
00000250: 8dfc 973d ddac 203d 192d 843e f94a 573d
00000260: dad2 4bbd 96db 8fbe 1e0a 59bd f296 383d
00000270: bc8d df3c ca79 223d cb41 943c b9b0 173e
00000280: 53be 65bd 108c 5ebd 093a 96bd 1c32 ccbc
00000290: 554f c2bb 2093 3d3d f8c6 b03d 2bd7 0e3d
000002a0: ade9 df3d 4ceb a13d 7712 05be d059 9b3d
000002b0: e477 543d 4499 52be 406b 1a3d 8907 9e3c
000002c0: 8256 853d 23dd 61bd 6da0 3ebc 6585 3a3d
000002d0: 2a26 523d 0390 2ebc 79e9 21bd ff62 813d
000002e0: ed57 e43c 39e1 b4bd d521 0fbb 8fe1 9dbd
000002f0: a788 a6bd 4152 213d 9cf5 313d b7a0 ad3d
00000300: e864 473d f854 123d 34dd d03d b5cf dcbd
00000310: da42 c53d eabe a1bd 08a8 f3bd 8146 87bd
00000320: a90f 62bb 9a2b 44bc 34b8 4b3d 7680 623d
00000330: f922 1cbb 31cc 6c3a 5e56 bdbd 9107 01bd
00000340: 53bb 4d3e 4152 6bbd a582 823d 7c47 c63d
00000350: b421 c63d 60d0 933d a67d 033c 4137 06be
00000360: 5069 fbbd ce65 fcbd 5db8 c3bd 1313 c7bd
00000370: 3c92 f53d 38ef 9f3d ed3a 0dbc 5cee a03d
00000380: 5b28 66bd c5c5 95bd 6d3e 103d b785 12bc
00000390: 7c19 0e3d 61a6 ef3d fcea 0c3d a74c 48bc
000003a0: de6e a2bd 3ffc 303d 46f6 e23d 81de fa3d
000003b0: 8943 cc3d 4cf2 d5bc 88d3 603d 5825 4dbd
000003c0: 20d9 983c 8666 243e c3f7 663d 3a18 533c
000003d0: 3198 febd a616 093c 1d65 1bbe a2f2 833d
000003e0: f4a2 ebbd 2725 9b3d d91b ddbd 07eb 593d
000003f0: a0a5 243e 625e 3ebe eb22 2ebe e867 363e

network_body._body_endoder.seq_layers.2.bias f4 [128]
0.0 0.0 0.0 0.0 0.0 0.0 0.0 0.0
0.0 0.0 0.0 0.0 0.0 0.0 0.0 0.0
0.0 0.0 0.0 0.0 0.0 0.0 0.0 0.0
0.0 0.0 0.0 0.0 0.0 0.0 0.0 0.0
0.0 0.0 0.0 0.0 0.0 0.0 0.0 0.0
0.0 0.0 0.0 0.0 0.0 0.0 0.0 0.0
0.0 0.0 0.0 0.0 0.0 0.0 0.0 0.0
0.0 0.0 0.0 0.0 0.0 0.0 0.0 0.0
0.0 0.0 0.0 0.0 0.0 0.0 0.0 0.0
0.0 0.0 0.0 0.0 0.0 0.0 0.0 0.0
0.0 0.0 0.0 0.0 0.0 0.0 0.0 0.0
0.0 0.0 0.0 0.0 0.0 0.0 0.0 0.0
0.0 0.0 0.0 0.0 0.0 0.0 0.0 0.0
0.0 0.0 0.0 0.0 0.0 0.0 0.0 0.0
0.0 0.0 0.0 0.0 0.0 0.0 0.0 0.0
0.0 0.0 0.0 0.0 0.0 0.0 0.0 0.0
00000000: 0000 0000 0000 0000 0000 0000 0000 0000
00000010: 0000 0000 0000 0000 0000 0000 0000 0000
00000020: 0000 0000 0000 0000 0000 0000 0000 0000
00000030: 0000 0000 0000 0000 0000 0000 0000 0000
00000040: 0000 0000 0000 0000 0000 0000 0000 0000
00000050: 0000 0000 0000 0000 0000 0000 0000 0000
00000060: 0000 0000 0000 0000 0000 0000 0000 0000
00000070: 0000 0000 0000 0000 0000 0000 0000 0000
00000080: 0000 0000 0000 0000 0000 0000 0000 0000
00000090: 0000 0000 0000 0000 0000 0000 0000 0000
000000a0: 0000 0000 0000 0000 0000 0000 0000 0000
000000b0: 0000 0000 0000 0000 0000 0000 0000 0000
000000c0: 0000 0000 0000 0000 0000 0000 0000 0000
000000d0: 0000 0000 0000 0000 0000 0000 0000 0000
000000e0: 0000 0000 0000 0000 0000 0000 0000 0000
000000f0: 0000 0000 0000 0000 0000 0000 0000 0000
00000100: 0000 0000 0000 0000 0000 0000 0000 0000
00000110: 0000 0000 0000 0000 0000 0000 0000 0000
00000120: 0000 0000 0000 0000 0000 0000 0000 0000
00000130: 0000 0000 0000 0000 0000 0000 0000 0000
00000140: 0000 0000 0000 0000 0000 0000 0000 0000
00000150: 0000 0000 0000 0000 0000 0000 0000 0000
00000160: 0000 0000 0000 0000 0000 0000 0000 0000
00000170: 0000 0000 0000 0000 0000 0000 0000 0000
00000180: 0000 0000 0000 0000 0000 0000 0000 0000
00000190: 0000 0000 0000 0000 0000 0000 0000 0000
000001a0: 0000 0000 0000 0000 0000 0000 0000 0000
000001b0: 0000 0000 0000 0000 0000 0000 0000 0000
000001c0: 0000 0000 0000 0000 0000 0000 0000 0000
000001d0: 0000 0000 0000 0000 0000 0000 0000 0000
000001e0: 0000 0000 0000 0000 0000 0000 0000 0000
000001f0: 0000 0000 0000 0000 0000 0000 0000 0000

action_model._discrete_distribution.branches.0.weight f4 [3, 128]
-0.00090476446 -0.00089386496 -0.0070010456 0.0020015258 -0.0014810739 0.011327048 -0.0028102675 0.010304548
0.009636084 -0.0070001157 0.009042229 0.002872179 0.0040067933 -0.0009770495 0.0030999726 -0.0017066736
-0.0057673934 -0.011548645 -0.011496673 0.005077698 0.0101885125 0.006923351 0.003867975 -0.011608116
-0.0058762785 -0.0073575363 0.007352896 0.0045530186 0.004687374 0.012654389 0.0012884302 -0.0005216357
-0.0022579327 -0.016546017 -0.004445169 0.003666342 -0.0031512005 0.004445423 -0.008621612 -0.011167779
0.0046157907 0.0074664033 0.0016360097 -0.0036247582 0.011868786 -0.009124695 -0.0076095643 0.0009351795
-0.01519488 0.012760529 -0.0041137696 -0.0064341137 -0.0026299541 -0.0039815214 -0.015460349 0.012304923
0.026893912 0.013940443 -0.023662485 0.0030300352 0.0014318748 -0.0013875967 0.004184729 -0.016613396
-0.0012143336 0.003759301 0.00032994288 -0.010600625 -0.008970792 0.0041285376 -0.0018825404 0.012152723
0.013778902 -0.004042183 0.007172476 0.006106116 0.0011941318 -0.018945085 0.004175534 -0.007449375
0.0017837655 0.005243634 -0.008118385 0.014879959 -0.007317087 0.0016949287 0.002902908 -0.0036111814
0.008616249 0.019401357 0.01047773 0.008720527 -0.017021922 0.008328208 0.0070891166 0.0012008235
0.014189768 -0.0016761856 0.0040415507 0.0018146805 0.010084683 0.0025787605 0.0044634887 0.014941709
0.005434155 -0.0054760887 -0.008998601 -0.00082963624 -0.0053554783 -0.0021077336 -0.014800827 -0.0062642503
0.011375093 -0.0048888074 -0.00055153633 -4.15737e-05 -0.012858813 0.017517308 -0.00021834954 0.007867293
0.0013618077 -0.0050801253 -0.013379644 -0.00034294356 -0.0035705909 0.0031878545 -0.006284108 0.0039985515
0.0035574753 -0.0043015876 -0.001275807 0.010675894 -0.016246218 0.0067798905 -0.011850822 0.00079278334
-0.0038055275 -0.004496421 0.0006862197 -0.0022304412 -0.006174327 0.0066217156 0.011768593 0.004684962
0.009691378 -0.004799939 0.007878411 0.0028297384 -0.008084252 0.0035340642 -0.0075827013 0.0052724103
0.013854757 0.008783026 0.0015353241 0.0052929386 0.002535828 -0.0104698725 0.0031053654 0.0011820721
0.0005572675 0.007360309 0.0030170388 -0.00046010068 -0.006558329 0.021639273 -0.009763375 0.009033864
-0.005950171 0.0028865365 0.018516285 0.004880349 -0.009516471 -0.0020299687 0.0019858985 0.008612778
-0.009094621 -0.0004214254 -0.0071245045 0.008607349 -0.0078184 0.0033755344 0.0029477149 -0.007831434
0.00074073946 -0.0027111464 0.0070176185 -0.0071363 0.0017220099 -0.010481718 -0.01260452 0.0014660127
0.0042159967 0.009106364 0.0033557285 0.0018840315 -0.025120094 -0.00066107133 -0.006122164 -0.0011927825
-0.0049906415 0.02179619 0.0059071616 0.0074369996 0.010286464 -0.0017036783 0.001986232 0.0056644487
-0.016888773 -0.0030831874 -0.022887971 -0.0035614704 -0.0104010645 -0.01222116 -0.0008270658 -0.005253501
-0.0052652895 -0.020585285 0.0045411 -0.006998238 0.009339075 -0.0114384955 0.004891613 -0.0030636485
0.010535247 -0.006072583 -0.02332409 0.006284121 0.016643664 0.0050553493 0.00032610397 0.005312608
0.0029788336 0.011160038 0.011522062 -0.0034544168 -0.005298632 -0.00895478 0.0051581855 0.007907963
0.004729941 0.010483459 7.848578e-05 0.006646032 -0.0003207186 -0.0045599095 0.016781349 -0.003842159
0.0146094635 0.008678667 -0.002313951 0.010237849 1.8838931e-05 -0.0042808386 0.00071849435 -0.005616362
00000000: b72d 6dba 4352 6aba 0769 e5bb 082c 033b
00000010: 9820 c2ba 1595 393c 772c 38bb 68d4 283c
00000020: aae0 1d3c 3a61 e5bb db25 143c 2b3b 3c3b
00000030: 6b4b 833b 5710 80ba e928 4b3b 77b2 dfba
00000040: 67fc bcbb 8736 3dbc 8b5c 3cbc d162 a63b
00000050: b8ed 263c 47dd e23b da7d 7d3b f82f 3ebc
00000060: cc8d c0bb 7d17 f1bb 90f0 f03b 7d31 953b
00000070: 8b98 993b 5b54 4f3c 8be0 a83a 61be 08ba
00000080: d3f9 13bb 838b 87bc c8a8 91bb 0347 703b
00000090: 5f84 4ebb e9aa 913b a941 0dbc 0ff9 36bc
000000a0: 0f40 973b bba8 f43b 606f d63a 5a8d 6dbb
000000b0: 4c75 423c bf7f 15bc a759 f9bb d526 753a
000000c0: f2f3 78bc 8a11 513c cdcc 86bb 42d5 d2bb
000000d0: 4f5b 2cbb 6c77 82bb 674d 7dbc 969a 493c
000000e0: 9f50 dc3c 7566 643c d4d7 c1bc 8e93 463b
000000f0: bfad bb3a 05e0 b5ba 0d20 893b d118 88bc
00000100: 462a 9fba 9b5e 763b 2ffc ac39 3eae 2dbc
00000110: 3bfa 12bc af48 873b 93bf f6ba 371c 473c
00000120: e7c0 613c 4a74 84bb 1707 eb3b d015 c83b
00000130: 6a84 9c3a b932 9bbc ebd2 883b e319 f4bb
00000140: 3dcd e93a cad2 ab3b fa02 05bc 12cb 733c
00000150: 2dc4 efbb 5f28 de3a b73e 3e3b 92a9 6cbb
00000160: 2b2b 0d3c 98ef 9e3c c9aa 2b3c 8be0 0e3c
00000170: 8f71 8bbc 0973 083c d24b e83b f364 9d3a
00000180: 337c 683c 75b3 dbba fc6e 843b 93da ed3a
00000190: 3a3a 253c 6c00 293b 7542 923b 12ce 743c
000001a0: ff10 b23b c370 b3bb de6e 13bc f27b 59ba
000001b0: 027d afbb e721 0abb 2b7f 72bc 5744 cdbb
000001c0: 995e 3a3c 4a32 a0bb fa94 10ba 6c5f 2eb8
000001d0: c5ad 52bc 7580 8f3c c2f4 64b9 d2e5 003c
000001e0: af7e b23a 2e77 a6bb 4b36 5bbc 1bcd b3b9
000001f0: 9300 6abb 53eb 503b ebea cdbb 4806 833b
00000200: 8824 693b 55f4 8cbb fb38 a7ba f2e9 2e3c
00000210: ca16 85bc d829 de3b f329 42bc cad2 4f3a
00000220: 2866 79bb b756 93bb 6de3 333a 982c 12bb
00000230: 0252 cabb fafa d83b 0fd1 403c 4f84 993b
00000240: 96c8 1e3c cf48 9dbb 7314 013c 2273 393b
00000250: cf73 04bc c29b 673b 4f78 f8bb 2fc4 ac3b
00000260: 10ff 623c aee6 0f3c ee3c c93a 6370 ad3b
00000270: 2230 263b d489 2bbc 6383 4b3b c2ef 9a3a
00000280: 9715 123a bf2e f13b 83b9 453b ab39 f1b9
00000290: 40e7 d6bb d844 b13c 90f6 1fbc c602 143c
000002a0: a7f9 c2bb 0c2c 3d3b 77af 973c 56eb 9f3b
000002b0: f9ea 1bbc 3909 05bb d925 023b 9c1c 0d3c
000002c0: 9b01 15bc c2f2 dcb9 ad74 e9bb d705 0d3c
000002d0: bf18 00bc 1238 5d3b 732e 413b 6a4f 00bc
000002e0: 2f2e 423a 7dad 31bb 0df4 e53b a0d7 e9bb
000002f0: 10b5 e13a 83bb 2bbc 3083 4ebc 3927 c03a
00000300: 5826 8a3b dc32 153c c8eb 5b3b 9bf1 f63a
00000310: a8c8 cdbc bf4b 2dba 6f9c c8bb 2457 9cba
00000320: 8988 a3bb ec8d b23c dd90 c13b 13b2 f33b
00000330: 8f88 283c f54d dfba 712b 023b d79c b93b
00000340: 535a 8abc 4d0f 4abb 8e7f bbbc 8f67 69bb
00000350: 3a69 2abc 433b 48bc 72cf 58ba 8f25 acbb
00000360: 7388 acbb 79a2 a8bc 82cd 943b 7a51 e5bb
00000370: eb02 193c 8768 3bbc d349 a03b 7ec7 48bb
00000380: 079c 2c3c 85fc c6bb 2912 bfbc 07eb cd3b
00000390: 4b58 883c 58a7 a53b eff8 aa39 6315 ae3b
000003a0: 8938 433b 98d8 363c 08c7 3c3c 7f63 62bb
000003b0: 26a0 adbb 12b7 12bc ff05 a93b 6790 013c
000003c0: 9ffd 9a3b d0c2 2b3c bb98 a438 f5c6 d93b
000003d0: 1f26 a8b9 4b6b 95bb 0a79 893c bbcc 7bbb
000003e0: 885c 6f3c f830 0e3c a8a5 17bb a7bc 273c
000003f0: 4c08 9e37 4746 8cbb 5759 3c3a 7609 b8bb

action_model._discrete_distribution.branches.0.bias f4 [3]
0.0 0.0 0.0
00000000: 0000 0000 0000 0000 0000 0000

network_body._body_endoder.seq_layers.0.weight f4 [128, 4]
-1.1211265 -0.2827793 0.90157694 0.16101696 0.1479623 -0.8266371 -0.29009765 -0.2849218
0.4788095 0.46923378 -0.3827271 -0.613707 0.030671543 0.06334223 0.67310894 -0.12827146
0.17655359 -0.95118886 0.029241445 -0.28107768 -0.003882913 -0.734211 0.5228332 -0.0120176105
0.4723938 -0.0072322716 0.11018954 0.28848967 0.53627944 -0.46985796 -0.5625945 0.16879754
-0.34506783 0.7595685 -0.25806943 0.7042295 -0.15898181 0.34585232 0.96904695 -0.22466493
0.12663028 -0.627668 0.76844984 -0.24638547 -0.049586106 0.021831334 0.8220642 -0.115442544
0.01077961 -1.2877127 -0.21655267 1.2337748 0.79403913 -0.050546337 0.47323978 0.104028545
0.19170837 -0.5209599 0.2981993 0.14245327 0.8887945 -0.35001427 -0.0093707 -0.2231603
-0.06676637 0.32741094 -1.0657436 0.9925689 0.55905986 0.26227218 0.17722133 0.31541365
-0.51312304 -0.4238805 0.106027246 0.560392 -0.12007315 -0.14990804 -0.26368615 0.099800676
0.072029196 -0.21782267 -0.8673448 0.3331447 -0.30097246 0.1487326 -0.38828695 -0.35939685
-0.41715112 0.24756218 -0.08234053 0.3636229 -0.7314278 0.109637685 0.09402349 -0.33659914
-0.14368556 0.18236709 0.13835816 0.036290355 0.3010129 -0.83089954 -0.5806712 -0.046510976
-0.4333732 -0.22862013 0.22728467 -0.5750549 0.25387308 -0.083336815 -0.21062253 0.20075846
0.49844497 0.15016963 -0.4612156 -0.6448482 0.30899522 -0.50520116 -0.6561673 0.06570444
0.91882807 -0.08360204 -0.15724725 -0.37498075 -0.7948097 -0.10343947 -0.32926708 0.589368
0.73885196 -0.9728195 -0.9614244 -0.024298543 -0.02615391 -0.57786846 -0.33717692 -0.6014729
-1.1858773 0.98546255 -0.1519992 -0.95165205 0.8329853 -0.5893784 -0.11784085 0.24028918
0.8537346 0.12874478 0.775597 0.48786694 -0.12778988 -0.8532424 -0.050929677 0.2322655
1.1873267 0.8181697 0.06318002 -0.2593798 0.051705778 -0.5620054 0.18118681 0.26004288
-0.21990755 -0.9570071 -0.48050424 0.622697 1.0469365 0.09093367 -0.36611736 0.23963264
-0.8036686 0.28805 0.14930813 0.24188447 0.014411998 0.13063687 0.22410008 -1.227111
-0.54128575 -0.4006359 -0.4576563 0.5576796 -0.4305233 -0.3066333 0.21478538 0.67272747
-0.616601 -0.412351 -0.025220875 -0.31354988 -0.37599075 -1.208213 0.71011794 0.4791372
-0.55478936 0.74501103 0.083734706 0.27553496 0.5211469 0.7961348 0.83068734 0.017228117
0.14346877 0.62030804 -0.42253655 -0.4873046 0.064228594 -0.85804325 -0.4970832 -0.0017587652
0.65497255 -0.4144584 0.4126294 -0.6664929 0.33231917 0.22782865 0.6658996 0.024303423
-0.1882611 -0.521751 0.42274702 0.7228064 0.2548068 -0.51147723 -0.45332983 0.9348415
0.20085827 -0.15819684 0.24048866 -0.64527696 -0.52098787 -0.52816266 0.2523682 0.09007103
1.3237748 -0.44495052 -0.40880987 0.59515315 -1.0874608 -0.5114358 1.0623525 -0.62068844
-0.12661485 0.045844257 0.14348239 0.4905178 0.5535864 -0.5112018 0.79726124 -0.74503237
-0.008883675 -0.50204986 0.060140762 0.7297128 0.47023553 -0.9681134 -0.17426538 0.05463498
00000000: 1381 8fbf 73c8 90be bfcd 663f a1e1 243e
00000010: 6e83 173e 7d9e 53bf ae87 94be 45e1 91be
00000020: 8526 f53e 693f f03e cef4 c3be e71b 1dbf
00000030: e342 fb3c 92b9 813d de50 2c3f 9859 03be
00000040: 77ca 343e 1d81 73bf c18b ef3c 6ae9 8fbe
00000050: 7878 7ebb 41f5 3bbf 66d8 053f 83e5 44bc
00000060: 9add f13e b1fc ecbb 0eab e13d ebb4 933e
00000070: 9c49 093f 3991 f0be 3106 10bf 43d9 2c3e
00000080: bbac b0be 1573 423f ad21 84be 6248 343f
00000090: 21cc 22be 8e13 b13e 7613 783f 900e 66be
000000a0: 5eab 013e daae 20bf 21b9 443f 794c 7cbe
000000b0: cd1a 4bbd a0d7 b23c cd72 523f 246d ecbd
000000c0: f69c 303c c5d3 a4bf fcbf 5dbe 55ec 9d3f
000000d0: 2646 4b3f ad09 4fbd 7c4c f23e eb0c d53d
000000e0: 334f 443e a15d 05bf 94ad 983e 45df 113e
000000f0: 0988 633f 1235 b3be 9187 19bc 2284 64be
00000100: cebc 88bd 68a2 a73e 496a 88bf ff18 7e3f
00000110: 8c1e 0f3f 8a48 863e 8279 353e e67d a13e
00000120: 085c 03bf dd06 d9be d024 d93d da75 0f3f
00000130: e9e8 f5bd 7e81 19be df01 87be 4c64 cc3d
00000140: 0b84 933d e80c 5fbe 4f0a 5ebf f191 aa3e
00000150: 1019 9abe 5c4d 183e 8ccd c6be dd02 b8be
00000160: d594 d5be f180 7d3e 27a2 a8bd c82c ba3e
00000170: da3e 3bbf b989 e03d 638f c03d b956 acbe
00000180: 4f22 13be 70be 3a3e c3ad 0d3e 32a5 143d
00000190: 5d1e 9a3e d5b5 54bf dea6 14bf 4b82 3ebd
000001a0: 18e3 ddbe 651b 6abe 50bd 683e cc36 13bf
000001b0: a7fb 813e 7eac aabd 6fad 57be a093 4d3e
000001c0: 2e34 ff3e 11c6 193e 7324 ecbe c614 25bf
000001d0: 9f34 9e3e dd54 01bf 95fa 27bf 0d90 863d
000001e0: 5138 6b3f 8c37 abbd 6c05 21be 7afd bfbe
000001f0: a678 4bbf 13d8 d3bd b295 a8be d2e0 163f
00000200: 6725 3d3f b30a 79bf e91f 76bf bd0d c7bc
00000210: ba40 d6bc 30ef 13bf 74a2 acbe 21fa 19bf
00000220: d4ca 97bf 4647 7c3f aea5 1bbe 789f 73bf
00000230: 863e 553f 81e1 16bf 8b56 f1bd 5e0e 763e
00000240: 5a8e 5a3f acd5 033e 868d 463f b2c9 f93e
00000250: 5adb 02be 186e 5abf a39b 50bd 02d7 6d3e
00000260: 52fa 973f 9273 513f 8764 813d 6ecd 84be
00000270: 70c9 533d 96df 0fbf 0989 393e 5724 853e
00000280: 722f 61be 6bfe 74bf a704 f6be 1269 1f3f
00000290: 0402 863f 6f3b ba3d bc73 bbbe 4262 753e
000002a0: 3abd 4dbf 4a7b 933e 3be4 183e 90b0 773e
000002b0: 4d20 6c3c acc5 053e 7e7a 653e f911 9dbf
000002c0: b491 0abf 2620 cdbe ed51 eabe 17c4 0e3f
000002d0: 8d6d dcbe 0aff 9cbe b3f0 5b3e de37 2c3f
000002e0: 90d9 1dbf ac1f d3be 029c cebc 9c89 a0be
000002f0: dc81 c0be b9a6 9abf 4aca 353f 7951 f53e
00000300: ad06 0ebf 0bb9 3e3f 1a7d ab3d eb12 8d3e
00000310: e269 053f 7ecf 4b3f eda7 543f fb21 8d3c
00000320: 7ae9 123e 82cc 1e3f b656 d8be fd7f f9be
00000330: 488a 833d b9a8 5bbf b081 febe 5e86 e6ba
00000340: 48ac 273f e433 d4be 2944 d33e 479f 2abf
00000350: bd25 aa3e ea4b 693e 6578 2a3f f917 c73c
00000360: 85c7 40be 7991 05bf 4c72 d83e d709 393f
00000370: 0976 823e 2cf0 02bf d91a e8be c651 6f3f
00000380: caad 4d3e 5afe 21be a942 763e df30 25bf
00000390: 765f 05bf ab35 07bf 6836 813e 2977 b83d
000003a0: 7471 a93f 8ed0 e3be 874f d1be f55b 183f
000003b0: ea31 8bbf 75ed 02bf 2bfb 873f 70e5 1ebf
000003c0: 53a7 01be 30c7 3b3d 0ced 123e 2625 fb3e
000003d0: d7b7 0d3f 1fde 02bf 5019 4c3f 71ba 3ebf
000003e0: d58c 11bc 5786 00bf 2956 763d 75ce 3a3f
000003f0: b6c2 f03e 48d6 77bf a072 32be eec8 5f3d

network_body._body_endoder.seq_layers.0.bias f4 [128]
0.0 0.0 0.0 0.0 0.0 0.0 0.0 0.0
0.0 0.0 0.0 0.0 0.0 0.0 0.0 0.0
0.0 0.0 0.0 0.0 0.0 0.0 0.0 0.0
0.0 0.0 0.0 0.0 0.0 0.0 0.0 0.0
0.0 0.0 0.0 0.0 0.0 0.0 0.0 0.0
0.0 0.0 0.0 0.0 0.0 0.0 0.0 0.0
0.0 0.0 0.0 0.0 0.0 0.0 0.0 0.0
0.0 0.0 0.0 0.0 0.0 0.0 0.0 0.0
0.0 0.0 0.0 0.0 0.0 0.0 0.0 0.0
0.0 0.0 0.0 0.0 0.0 0.0 0.0 0.0
0.0 0.0 0.0 0.0 0.0 0.0 0.0 0.0
0.0 0.0 0.0 0.0 0.0 0.0 0.0 0.0
0.0 0.0 0.0 0.0 0.0 0.0 0.0 0.0
0.0 0.0 0.0 0.0 0.0 0.0 0.0 0.0
0.0 0.0 0.0 0.0 0.0 0.0 0.0 0.0
0.0 0.0 0.0 0.0 0.0 0.0 0.0 0.0
00000000: 0000 0000 0000 0000 0000 0000 0000 0000
00000010: 0000 0000 0000 0000 0000 0000 0000 0000
00000020: 0000 0000 0000 0000 0000 0000 0000 0000
00000030: 0000 0000 0000 0000 0000 0000 0000 0000
00000040: 0000 0000 0000 0000 0000 0000 0000 0000
00000050: 0000 0000 0000 0000 0000 0000 0000 0000
00000060: 0000 0000 0000 0000 0000 0000 0000 0000
00000070: 0000 0000 0000 0000 0000 0000 0000 0000
00000080: 0000 0000 0000 0000 0000 0000 0000 0000
00000090: 0000 0000 0000 0000 0000 0000 0000 0000
000000a0: 0000 0000 0000 0000 0000 0000 0000 0000
000000b0: 0000 0000 0000 0000 0000 0000 0000 0000
000000c0: 0000 0000 0000 0000 0000 0000 0000 0000
000000d0: 0000 0000 0000 0000 0000 0000 0000 0000
000000e0: 0000 0000 0000 0000 0000 0000 0000 0000
000000f0: 0000 0000 0000 0000 0000 0000 0000 0000
00000100: 0000 0000 0000 0000 0000 0000 0000 0000
00000110: 0000 0000 0000 0000 0000 0000 0000 0000
00000120: 0000 0000 0000 0000 0000 0000 0000 0000
00000130: 0000 0000 0000 0000 0000 0000 0000 0000
00000140: 0000 0000 0000 0000 0000 0000 0000 0000
00000150: 0000 0000 0000 0000 0000 0000 0000 0000
00000160: 0000 0000 0000 0000 0000 0000 0000 0000
00000170: 0000 0000 0000 0000 0000 0000 0000 0000
00000180: 0000 0000 0000 0000 0000 0000 0000 0000
00000190: 0000 0000 0000 0000 0000 0000 0000 0000
000001a0: 0000 0000 0000 0000 0000 0000 0000 0000
000001b0: 0000 0000 0000 0000 0000 0000 0000 0000
000001c0: 0000 0000 0000 0000 0000 0000 0000 0000
000001d0: 0000 0000 0000 0000 0000 0000 0000 0000
000001e0: 0000 0000 0000 0000 0000 0000 0000 0000
000001f0: 0000 0000 0000 0000 0000 0000 0000 0000

network_body._body_endoder.seq_layers.2.weight f4 [128, 128]
-0.17275274 0.030109877 -0.0011740726 0.09001061 -0.060031522 0.052719515 -0.023022966 0.10454664
-0.22033839 -0.035353266 -0.2153205 -0.010361743 -0.07195237 -0.06704417 -0.1080408 -0.018399626
-0.11301576 -0.11073303 0.02132868 0.082044944 0.08516595 0.13808648 -0.012591446 0.07027206
-0.07247772 0.045621123 -0.13132983 -0.106629536 0.08117197 -0.081213295 0.006963588 0.12626547
-0.104904294 -0.072408475 0.04075776 0.08516284 -0.002451728 0.09829975 0.04226801 -0.065016076
-0.10894533 -0.0025539773 0.14813372 -0.07114907 0.15963572 0.11203742 -0.06078853 0.062081907
-0.042894352 0.039628167 0.018720185 -0.035766203 -0.022969274 0.06592039 0.04928503 0.09078468
-0.10389248 0.025770899 -0.051567223 0.076128595 0.017058158 0.01160217 0.06459013 0.041848365
0.09970959 -0.06823031 -0.16452362 -0.050660837 -0.08014554 0.13477351 0.0067117955 -0.06445617
0.033257615 -0.16685136 0.04596765 -0.1072589 -0.05812741 0.039712932 0.084987424 -0.01675182
0.022144184 0.07485438 0.06335838 -0.052884284 0.04904982 -0.22593936 -0.11498563 -0.03050316
0.0596907 -0.13586691 -0.09575611 0.021997936 -0.07767878 0.04772369 0.050155904 0.008239169
0.18101017 0.052356258 -0.06941635 0.03978962 -0.077288516 -0.044566445 -0.07161626 0.19483106
-0.14267106 0.039102957 0.020418119 -0.021852817 0.005075011 0.022586325 -0.05429084 0.049364284
0.046281844 0.07948464 0.032402188 0.041131288 0.12534389 0.09337572 0.002458534 0.14846322
0.013906205 -0.030194456 0.04345688 -0.042766903 -0.010759117 0.035995454 -0.012133272 0.038266152
-0.066998996 0.07027635 -0.12784886 -0.113202535 -0.06933606 -0.14252755 0.021738913 -0.0010853179
0.13127935 -0.01037645 0.004115046 -0.019161323 -0.003334794 -0.17502145 0.057964716 -0.04704722
0.14058807 -0.0014617564 -0.07346009 0.0012865755 -0.069769494 0.006309674 -0.021864684 -0.14128064
-0.033061106 0.036908705 0.06729183 -0.01986009 0.11985729 0.019534087 -0.08393559 0.14852865
-0.06658049 0.10312876 -5.5586534e-05 0.028734863 -0.1254095 -0.015181085 -0.017364502 0.024452683
-0.0033561366 0.12742461 -0.013830006 -0.072363645 0.13323197 0.015594018 -0.02925042 0.056876127
0.010132699 -0.08266599 0.039502326 -0.064248376 -0.07275808 0.08224845 -0.037354823 -0.070781834
0.05668706 -0.11249969 -0.011483899 -0.11344312 0.017870909 -0.047287684 -0.008820787 0.1170994
0.02307436 -0.00463231 -0.18589689 -0.0022685402 -0.118223 0.14768913 0.09921407 -0.16040887
-0.03440382 0.054805607 0.00025013316 -0.039142378 0.018491346 -0.09785853 0.00076071726 -0.041038983
0.011807925 0.041235115 0.10314572 0.020653112 -0.07189624 0.047574393 0.08762884 0.13267796
-0.061205458 0.11066053 -0.02886202 0.081476465 0.10408377 0.10522173 0.14719006 -0.02154091
0.1577701 0.16312285 0.121978596 -0.13985883 0.05100842 0.033597033 -0.042568117 0.030787854
0.093975626 -0.13823566 -0.05357659 -0.04068286 -0.06850848 0.15631764 0.13012145 0.038387865
0.006668979 -0.14377153 0.07838532 0.10840454 -0.0582917 -0.06433078 -0.04465479 -0.042945974
0.15634635 -0.003383239 0.19228199 0.07609828 0.042483933 0.112404525 0.063209616 -0.04996726
00000000: 18e6 30be fda8 f63c 57e3 99ba 7c57 b83d
00000010: 9de3 75bd 6bf0 573d a99a bcbc 8c1c d63d
00000020: 63a0 61be 96ce 10bd fa7c 5cbe 4dc4 29bc
00000030: c45b 93bd 744e 89bd 7f44 ddbd d0ba 96bc
00000040: cf74 e7bd 00c8 e2bd 7cb9 ae3c 2e07 a83d
00000050: 7c6b ae3d 8b66 0d3e 5a4c 4ebc ccea 8f3d
00000060: 336f 94bd 37dd 3a3d 547b 06be 9660 dabd
00000070: 7d3d a63d 2853 a6bd cf2e e43b bc4b 013e
00000080: 10d8 d6bd e54a 94bd 9cf1 263d db69 ae3d
00000090: 2cad 20bb 6151 c93d 3921 2d3d 2627 85bd
000000a0: bb1e dfbd a160 27bb 5eb0 173e 9bb6 91bd
000000b0: 8c77 233e e073 e53d 65fd 78bd 9949 7e3d
000000c0: fdb1 2fbd 2551 223d 135b 993c 957f 12bd
000000d0: 0f2a bcbc 4501 873d 1adf 493d 51ed b93d
000000e0: 95c5 d4bd 7e1d d33c 2738 53bd 4fe9 9b3d
000000f0: 8dbd 8b3c 0717 3e3c d447 843d 3169 2b3d
00000100: 8b34 cc3d 55bc 8bbd e178 28be bd81 4fbd
00000110: 5823 a4bd 1102 0a3e 9fee db3b 9901 84bd
00000120: 2339 083d 15db 2abe 9348 3c3d 8eaa dbbd
00000130: 0217 6ebd 07aa 223d e30d ae3d 1d3b 89bc
00000140: b867 b53c 414d 993d 0ac2 813d 319d 58bd
00000150: 77e8 483d a65c 67be 967d ebbd c3e1 f9bc
00000160: 3c7e 743d b220 0bbe c81b c4bd 0435 b43c
00000170: 0d16 9fbd ea79 433d 4770 4d3d 94fd 063c
00000180: bb5a 393e 8473 563d 292a 8ebd 71fa 223d
00000190: 7149 9ebd 4e8b 36bd 8cab 92bd cb81 473e
000001a0: 5d18 12be 6c2a 203d e643 a73c ae04 b3bc
000001b0: 474c a63b f506 b93c 1260 5ebd 3432 4a3d
000001c0: 0892 3d3d d8c8 a23d 28b8 043d 4879 283d
000001d0: 265a 003e c53b bf3d 5b1f 213b be06 183e
000001e0: dad6 633c 5d5a f7bc d7ff 313d 592c 2fbd
000001f0: 0247 30bc f86f 133d a2ca 46bc f8bc 1c3d
00000200: c536 89bd 0ced 8f3d d0ea 02be bbd6 e7bd
00000210: 1000 8ebd bef2 11be ce15 b23c 3a41 8eba
00000220: 186e 063e fc01 2abc 82d7 863b 35f8 9cbc
00000230: 8f8c 5abb d338 33be 696c 6d3d 96b4 40bd
00000240: 52f6 0f3e 6898 bfba 3e72 96bd 4fa2 a83a
00000250: 4fe3 8ebd 62c1 ce3b 911d b3bc dfab 10be
00000260: 156b 07bd 952d 173d 4dd0 893d a1b1 a2bc
00000270: bd77 f53d f305 a03c 6ce6 abbd e517 183e
00000280: 5a5b 88bd 2c35 d33d 9625 69b8 6065 eb3c
00000290: 596b 00be 16ba 78bc 0040 8ebc fe50 c83c
000002a0: a1f2 5bbb 997b 023e 4097 62bc 6433 94bd
000002b0: f66d 083e 0d7e 7f3c 949e efbc f1f6 683d
000002c0: 9f03 263c c94c a9bd 31cd 213d a794 83bd
000002d0: 3002 95bd e071 a83d 5f01 19bd 11f6 90bd
000002e0: b130 683d 3d66 e6bd f726 3cbc de54 e8bd
000002f0: 0366 923c bbb0 41bd 1085 10bc cfd1 ef3d
00000300: 7106 bd3c a2ca 97bb c15b 3ebe caab 14bb
00000310: e61e f2bd d23b 173e bf30 cb3d 3942 24be
00000320: 05eb 0cbd d87b 603d 4e24 8339 c253 20bd
00000330: 2a7b 973c 0e6a c8bd df6a 473a 7e18 28bd
00000340: 0776 413c 27e6 283d 103e d33d b730 a93c
00000350: 563e 93bd 5edd 423d c076 b33d bbdc 073e
00000360: 93b2 7abd fda1 e23d 0b70 ecbc 22dd a63d
00000370: df29 d53d 7e7e d73d feb8 163e 9076 b0bc
00000380: 7c8e 213e ad09 273e eacf f93d 2737 0fbe
00000390: 34ee 503d 0b9d 093d e85b 2ebd cf36 fc3c
000003a0: 4b76 c03d a68d 0dbe 2073 5bbd 12a3 26bd
000003b0: 2d4e 8cbd bb11 203e 8f3e 053e 983c 1d3d
000003c0: 7387 da3b d838 13be 7c88 a03d 3303 de3d
000003d0: 47c3 6ebd dbbf 83bd f1e7 36bd 1ee8 2fbd
000003e0: 4219 203e 55b9 5dbb 92e5 443e 6ad9 9b3d
000003f0: a203 2e3d 5834 e63d 0b74 813d 78aa 4cbd

network_body._body_endoder.seq_layers.2.bias f4 [128]
0.0 0.0 0.0 0.0 0.0 0.0 0.0 0.0
0.0 0.0 0.0 0.0 0.0 0.0 0.0 0.0
0.0 0.0 0.0 0.0 0.0 0.0 0.0 0.0
0.0 0.0 0.0 0.0 0.0 0.0 0.0 0.0
0.0 0.0 0.0 0.0 0.0 0.0 0.0 0.0
0.0 0.0 0.0 0.0 0.0 0.0 0.0 0.0
0.0 0.0 0.0 0.0 0.0 0.0 0.0 0.0
0.0 0.0 0.0 0.0 0.0 0.0 0.0 0.0
0.0 0.0 0.0 0.0 0.0 0.0 0.0 0.0
0.0 0.0 0.0 0.0 0.0 0.0 0.0 0.0
0.0 0.0 0.0 0.0 0.0 0.0 0.0 0.0
0.0 0.0 0.0 0.0 0.0 0.0 0.0 0.0
0.0 0.0 0.0 0.0 0.0 0.0 0.0 0.0
0.0 0.0 0.0 0.0 0.0 0.0 0.0 0.0
0.0 0.0 0.0 0.0 0.0 0.0 0.0 0.0
0.0 0.0 0.0 0.0 0.0 0.0 0.0 0.0
00000000: 0000 0000 0000 0000 0000 0000 0000 0000
00000010: 0000 0000 0000 0000 0000 0000 0000 0000
00000020: 0000 0000 0000 0000 0000 0000 0000 0000
00000030: 0000 0000 0000 0000 0000 0000 0000 0000
00000040: 0000 0000 0000 0000 0000 0000 0000 0000
00000050: 0000 0000 0000 0000 0000 0000 0000 0000
00000060: 0000 0000 0000 0000 0000 0000 0000 0000
00000070: 0000 0000 0000 0000 0000 0000 0000 0000
00000080: 0000 0000 0000 0000 0000 0000 0000 0000
00000090: 0000 0000 0000 0000 0000 0000 0000 0000
000000a0: 0000 0000 0000 0000 0000 0000 0000 0000
000000b0: 0000 0000 0000 0000 0000 0000 0000 0000
000000c0: 0000 0000 0000 0000 0000 0000 0000 0000
000000d0: 0000 0000 0000 0000 0000 0000 0000 0000
000000e0: 0000 0000 0000 0000 0000 0000 0000 0000
000000f0: 0000 0000 0000 0000 0000 0000 0000 0000
00000100: 0000 0000 0000 0000 0000 0000 0000 0000
00000110: 0000 0000 0000 0000 0000 0000 0000 0000
00000120: 0000 0000 0000 0000 0000 0000 0000 0000
00000130: 0000 0000 0000 0000 0000 0000 0000 0000
00000140: 0000 0000 0000 0000 0000 0000 0000 0000
00000150: 0000 0000 0000 0000 0000 0000 0000 0000
00000160: 0000 0000 0000 0000 0000 0000 0000 0000
00000170: 0000 0000 0000 0000 0000 0000 0000 0000
00000180: 0000 0000 0000 0000 0000 0000 0000 0000
00000190: 0000 0000 0000 0000 0000 0000 0000 0000
000001a0: 0000 0000 0000 0000 0000 0000 0000 0000
000001b0: 0000 0000 0000 0000 0000 0000 0000 0000
000001c0: 0000 0000 0000 0000 0000 0000 0000 0000
000001d0: 0000 0000 0000 0000 0000 0000 0000 0000
000001e0: 0000 0000 0000 0000 0000 0000 0000 0000
000001f0: 0000 0000 0000 0000 0000 0000 0000 0000

value_heads.value_heads.extrinsic.weight f4 [1, 128]
-0.06720477 -0.1823459 -0.082258314 0.04784581 -0.19351192 -0.002011031 -0.04151824 -0.18834247
-0.18906464 0.19336861 0.034222618 -0.063081145 -0.100746095 -0.07446149 -0.11700286 0.054068238
0.048763692 0.09446967 0.10425094 -0.20491123 0.065051556 0.026436701 0.07062319 -0.0036797076
-0.022639334 0.056222796 -0.059393138 -0.13299745 0.1683934 0.20864496 -0.0019949228 0.091311306
0.06618002 0.05518034 0.19722965 0.17520753 -0.19999118 0.17390662 0.041967034 0.09853715
0.03935474 -0.0793529 -0.13910618 0.14474857 -0.018437192 0.13679099 -0.068622455 -0.06030442
-0.03671126 0.18372115 -0.13011515 0.0055920333 0.011303574 0.14007294 -0.021252528 -0.09082648
-0.00032779574 -0.09329021 0.006551668 0.0043816864 0.010540113 0.19556758 -0.11727723 0.010369137
-0.042154774 -0.13150957 0.088546604 0.015441179 -0.07876934 -0.19180042 -0.13868287 0.1201812
-0.05187057 -0.048719272 0.17199984 -0.124192476 0.061692357 -0.015355542 -0.12412545 -0.021820858
-0.18309525 0.2091668 -0.020462647 0.056705683 -0.14649402 -0.019972637 0.1229299 -0.07319181
0.13794246 0.019396648 -0.065017626 -0.07256101 0.001786977 -0.035114378 0.11793235 -0.023455277
0.21081764 -0.06363405 0.0015431046 -0.09737828 0.14590114 0.11345327 0.13988036 0.12812766
-0.18127407 -0.051849127 0.059924066 -0.17194226 0.11206421 -0.17192428 0.11849439 0.027236298
0.10879779 -0.1423567 -0.07622178 -0.09187008 0.18787554 -0.013959765 -0.050466835 0.021790639
0.08065188 -0.11228026 -0.0754378 0.048116058 -0.07923743 0.13856623 -0.17729513 0.030991212
00000000: a8a2 89bd e2b8 3abe 0c77 a8bd f8f9 433d
00000010: fd27 46be 80cb 03bb 080f 2abd d9dc 40be
00000020: 299a 41be 6c02 463e 042d 0c3d b030 81bd
00000030: f853 cebd 447f 98bd 329f efbd a876 5d3d
00000040: 70bc 473d 5079 c13d 8481 d53d 40d4 51be
00000050: c039 853d c891 d83c e4a2 903d 4027 71bb
00000060: 2076 b9bc e049 663d 3846 73bd 7c30 08be
00000070: 526f 2c3e 06a7 553e 40bd 02bb 6c01 bb3d
00000080: 6489 873d c804 623d 92f6 493e 9a69 333e
00000090: 7dca 4cbe 9414 323e a0e5 2b3d d8cd c93d
000000a0: 7032 213d c683 a2bd da71 0ebe f838 143e
000000b0: 9809 97bc f012 0c3e ee89 8cbd c401 77bd
000000c0: 8c5e 16bd 6621 3c3e e83c 05be 603d b73b
000000d0: a032 393c 486f 0f3e c819 aebc 3c03 babd
000000e0: 00dc abb9 f00e bfbd 60af d63b 4094 8f3b
000000f0: 70b0 2c3c de42 483e 0b2f f0bd 50e3 293c
00000100: 7caa 2cbd 72aa 06be ec57 b53d 00fd 7c3c
00000110: d251 a1bd 5467 44be e202 0ebe 9021 f63d
00000120: 3c76 54bd dc8d 47bd ba20 303e a058 febd
00000130: 20b1 7c3d d095 7bbc 7c35 febd a8c1 b2bc
00000140: 527d 3bbe d22f 563e 48a1 a7bc 3844 683d
00000150: 8702 16be a89d a3bc acc2 fb3d 96e5 95bd
00000160: ca40 0d3e b8e5 9e3c f627 85bd de9a 94bd
00000170: 0039 ea3a 18d4 0fbd 8486 f13d 4825 c0bc
00000180: 94e0 573e 9252 82bd 0042 ca3a 436e c7bd
00000190: 1c67 153e 305a e83d cc3c 0f3e e633 033e
000001a0: e99f 39be c05f 54bd f072 753d a211 30be
000001b0: ec81 e53d eb0c 30be 30ad f23d a81e df3c
000001c0: 60d1 de3d f4c5 11be 2a1a 9cbd 6126 bcbd
000001d0: 7262 403e 80b7 64bc 50b6 4ebd 4882 b23c
000001e0: d02c a53d 31f3 e5bd 227f 9abd 5815 453d
000001f0: 3c47 a2bd 4ee4 0d3e db8c 35be 48e1 fd3c
