results/ppo/BalanceBall1/BalanceBall1-192.pt (torch, 147820 bytes, 11 tensors)

network_body._body_endoder.seq_layers.0.weight f4 [128, 4]
000000 82 ae c8 be bd cd 90 be d2 99 c3 be 2a 1c 22 3e
       -0.3919564 -0.28281966 -0.38203293 0.15831056
000010 23 83 11 bf 97 41 f5 bc 7f ae 0d bf 52 09 77 be
       -0.56840724 -0.029938502 -0.55344385 -0.24124649
000020 10 aa 4e 3e c8 13 b8 bd 74 a6 d3 be 58 ba 90 be
       0.20182061 -0.08988148 -0.4133793 -0.2826717
000030 b1 3a 41 bc 18 60 8c bd 9d 8f 90 bd 7b 9d 78 3d
       -0.011793778 -0.06854266 -0.07058642 0.06069706
000040 3a 8e b9 bd ca 2a 6d bf d9 a0 39 bf 15 8d 0a bf
       -0.09060331 -0.92643416 -0.7251106 -0.54121524
000050 02 02 c3 be 00 1e d1 be e5 ae e6 3e 93 e3 3f bf
       -0.3808747 -0.408432 0.4505531 -0.74956626
000060 de 14 ce 3e 59 ce 64 bf a6 55 fc 3b f0 80 ea be
       0.40250295 -0.8937736 0.00770064 -0.45801497
000070 e9 22 55 3d 18 8c 33 3e e7 aa 67 3e 7f 3d 34 be
       0.052035246 0.1753391 0.22623788 -0.17601584
000080 4a ad 2b bf 30 73 8a be 75 35 83 bd 5e e7 1b 3e
       -0.67061293 -0.27041006 -0.064066805 0.15224978
000090 af d1 75 3e 9a cd da 3d e0 b0 c1 3e b7 34 d7 3e
       0.24005769 0.10683747 0.37830257 0.42032406
0000a0 bf eb 01 bf 96 07 d9 bd e2 40 eb be 4c 3f 44 3f
       -0.50750345 -0.1059715 -0.4594794 0.76659083
0000b0 50 63 d6 3d 72 55 74 3f 59 c9 2e 3f 87 b7 16 3c
       0.10468161 0.9544288 0.6827598 0.00919903
0000c0 70 47 6d 3f 86 1b dd be 3e a3 6a bf b7 b5 8f bf
       0.9268713 -0.4318506 -0.9165534 -1.122733
0000d0 28 0c 96 3e 46 1c d2 3e f0 54 1e 3f 11 ec 35 3f
       0.2930615 0.41037196 0.61848354 0.71063334
0000e0 e3 d0 ae 3f c6 4f c5 bd 4d e1 a4 be 52 09 ea be
       1.3657497 -0.09634356 -0.3220314 -0.45710236
0000f0 7c 2c 4c 3f 7a e1 69 3e b5 ae 42 3e c2 1a 91 3d
       0.7975538 0.22839919 0.19011958 0.07085182
000100 9b 10 68 3e a9 16 2e bf 7a f1 77 3f f3 d9 04 3f
       0.22662584 -0.68003327 0.9685284 0.51895064
000110 1f bb b8 3e d6 89 1c bf 1e 98 bb 3e d7 a5 cc 3d
       0.36080262 -0.6114782 0.36639494 0.09992569
000120 4d 21 13 be d6 63 37 be ed fc 98 be 73 c2 19 be
       -0.14368172 -0.17909178 -0.29880467 -0.15015583
000130 a9 7b 86 be 85 7b 1e be f6 cb 6d 3e dd f7 1d 3e
       -0.2626622 -0.15476806 0.23222336 0.15426584
000140 d7 2d 99 be 69 d1 6d 3e 48 81 2d be 3d 1e 11 3f
       -0.29917786 0.23224415 -0.16943848 0.56686765
000150 c4 6d f0 be 0f cb 0f 3e d9 44 39 3f 69 9d 80 be
       -0.46958745 0.14042304 0.7237068 -0.25120094
000160 e3 c7 48 3f 74 ad b5 bc 67 bf 3e 3f d0 1c 16 3f
       0.7843 -0.022177435 0.74510807 0.58637714
000170 77 ba 0f 3f 8a 7a 86 3f 8f dd 86 be b8 ab b9 3e
       0.561439 1.0506146 -0.2634091 0.36263824
000180 0e f9 2a 3e 3d 2d d5 bd 80 ae f0 be 7c de e2 be
       0.1669657 -0.10409019 -0.47008133 -0.44310367
000190 54 67 77 3e b3 76 44 bf 4f af 56 bf bb 9c 07 3e
       0.2416051 -0.7674362 -0.8386125 0.13243382
0001a0 dc af 47 3d 0c 8a bd be 80 65 83 bf 18 d9 98 3e
       0.048751697 -0.37019384 -1.026535 0.2985313
0001b0 f5 fc 27 be f4 8d 2d bf 63 26 42 be 45 1a b6 3e
       -0.16405089 -0.6779473 -0.18959956 0.35566917
0001c0 ec 15 57 3e 9c dc 8a be cf 58 47 3f 39 47 ef 3e
       0.21004456 -0.27121437 0.77869886 0.46734026
0001d0 68 4b 01 be 80 b6 39 3c 56 49 94 3e d2 4e 64 3b
       -0.12626421 0.011335015 0.289622 0.003483702
0001e0 8e e8 a2 3a 14 6a 18 3e b5 60 77 bf 60 33 b7 be
       0.0012428926 0.14884216 -0.9663194 -0.35781384
0001f0 f9 d0 81 3d 51 b0 0b bf ff 14 0f be ba 76 ca 3e
       0.063386865 -0.5456591 -0.13972853 0.39543706
000200 1f f7 1b bf 93 40 d3 be 7f 3a dc be 1a 7a 63 bf
       -0.6092395 -0.41260204 -0.4301338 -0.8885819
000210 f4 50 8f 3e c3 1e ba 3d 67 81 1b 3f 37 5b 53 3e
       0.2799145 0.090878986 0.6074433 0.20640264
000220 91 f7 18 bf 7f 88 32 bf 2b cd 80 be 27 ba 7e be
       -0.59752756 -0.69739527 -0.2515653 -0.24875699
000230 c9 1c 9e be cd 68 1b 3f b6 b0 8a 3f 15 d9 9c 3e
       -0.30881336 0.6070679 1.0835178 0.3063437
000240 44 33 1b bf 84 e5 35 3f c6 11 69 3d 17 92 3e bc
       -0.606251 0.7105334 0.056901716 -0.01163151
000250 74 fc 8d bd 49 2c e1 3e 82 99 64 be 63 8a 22 bf
       -0.06932917 0.439791 -0.22324184 -0.6349241
000260 97 a1 de be dd 7a e5 be 88 ca d5 3e 7e 6e 10 3e
       -0.43482658 -0.448203 0.41756082 0.1410465
000270 96 45 01 3f 91 96 28 3e be ec 35 be a4 6e c0 3e
       0.50496805 0.16463687 -0.17766091 0.37584412
000280 0a 62 a8 3d 88 43 f0 3d e0 09 77 be 32 d8 22 3f
       0.082218245 0.117316306 -0.24124861 0.6361114
000290 e5 0d 52 be af 56 0d bf 96 79 da 3e e9 aa c3 be
       -0.20513113 -0.55210394 0.42670888 -0.38216332
0002a0 53 1a 56 bf 14 5a 1d bf 28 a0 04 bc 1b ec 38 be
       -0.8363392 -0.61465573 -0.008094825 -0.18058817
0002b0 85 89 58 3e 5e aa 20 bf f8 02 a5 be 40 6f 1f bf
       0.2114621 -0.6275996 -0.32228827 -0.6227913
0002c0 23 65 83 3e 9b df 99 be 8c a5 42 3f 93 fb f2 3d
       0.256631 -0.3005341 0.76033854 0.1186439
0002d0 a9 92 ca bd 35 06 63 3e 7d 8d 86 3e 67 e5 86 3f
       -0.098912545 0.22170337 0.26279822 1.0538758
0002e0 02 5a b3 3e 31 b9 d7 3e 20 26 08 3d a0 0a a8 3e
       0.35029608 0.42133477 0.033239484 0.32820606
0002f0 7b f3 c5 bd 5f 6f 49 3e 3f 9f 04 be 71 20 6f 3e
       -0.09665581 0.19671391 -0.12951373 0.23352219
000300 27 25 42 bf 08 e8 29 bf d8 b9 36 be 6e 8d 9d 3d
       -0.7583794 -0.66369677 -0.17844331 0.07692991
000310 bc e1 a9 be 1d 23 2d 3d cb e1 3c 3f 32 2d f5 be
       -0.33180034 0.042269815 0.7378203 -0.47886044
000320 9f d5 84 3e 54 cf 23 3e 1c b7 7d bf 1c d0 0e be
       0.2594423 0.15997058 -0.9910753 -0.13946575
000330 7a 22 fe be d7 db 79 be ea a0 b0 3e 23 57 80 be
       -0.4963568 -0.24400268 0.34497768 -0.2506648
000340 e0 2f 91 3e 92 cb 0e bd 92 34 c6 be 53 e0 57 be
       0.28356838 -0.03486211 -0.38711983 -0.21081667
000350 ba 9e c9 be f2 f9 b4 3e f9 7b 4b be b7 5d 90 3d
       -0.3937891 0.35346943 -0.1987151 0.07049125
000360 d5 ad 8c 3f 4b 36 df be 63 81 55 3f c8 9c 48 bc
       1.0990549 -0.4359611 0.83400553 -0.012244411
000370 27 ab 28 3f aa ec e9 3e 96 7c a4 3e a3 4b 34 bf
       0.6588616 0.45688373 0.32126302 -0.7042791
000380 b4 d9 08 3f ae b5 c1 be a9 f9 94 3e cb b8 88 3e
       0.5345719 -0.37833923 0.29096726 0.26703486
000390 37 5f f0 b9 c8 20 b7 bc a9 ff 30 be 88 87 8b bf
       -0.00045847308 -0.022354499 -0.17285027 -1.0900736
0003a0 df a7 6c 3e 9e 9a be be 9b 5e 31 bf 37 37 72 bf
       0.23110913 -0.3722734 -0.6928498 -0.946155
0003b0 67 8c 38 be f3 ad 1a be 85 4c 67 3e a7 79 17 bf
       -0.18022309 -0.15105419 0.22587784 -0.5917
0003c0 9c 7e 24 3f be 85 48 bf 6d 96 b9 bd 42 a2 59 be
       0.6425569 -0.78329074 -0.090618946 -0.21253303
0003d0 bb 79 ba 3e 61 b4 8e be f8 e5 6c be 5f 11 5b bf
       0.36420998 -0.27871993 -0.23134601 -0.8557338
0003e0 9a b7 0b 3f 55 7d 16 be 58 4d 57 3d ed 52 0a 3d
       0.5457703 -0.14696248 0.052563995 0.03377049
0003f0 35 21 b8 3e 31 36 a7 3e 3c 5c 45 bf 82 32 2b 3f
       0.35962835 0.32658532 -0.77093863 0.66873944

network_body._body_endoder.seq_layers.0.bias f4 [128]
000000 00 00 00 00 00 00 00 00 00 00 00 00 00 00 00 00
       0.0 0.0 0.0 0.0
000010 00 00 00 00 00 00 00 00 00 00 00 00 00 00 00 00
       0.0 0.0 0.0 0.0
000020 00 00 00 00 00 00 00 00 00 00 00 00 00 00 00 00
       0.0 0.0 0.0 0.0
000030 00 00 00 00 00 00 00 00 00 00 00 00 00 00 00 00
       0.0 0.0 0.0 0.0
000040 00 00 00 00 00 00 00 00 00 00 00 00 00 00 00 00
       0.0 0.0 0.0 0.0
000050 00 00 00 00 00 00 00 00 00 00 00 00 00 00 00 00
       0.0 0.0 0.0 0.0
000060 00 00 00 00 00 00 00 00 00 00 00 00 00 00 00 00
       0.0 0.0 0.0 0.0
000070 00 00 00 00 00 00 00 00 00 00 00 00 00 00 00 00
       0.0 0.0 0.0 0.0
000080 00 00 00 00 00 00 00 00 00 00 00 00 00 00 00 00
       0.0 0.0 0.0 0.0
000090 00 00 00 00 00 00 00 00 00 00 00 00 00 00 00 00
       0.0 0.0 0.0 0.0
0000a0 00 00 00 00 00 00 00 00 00 00 00 00 00 00 00 00
       0.0 0.0 0.0 0.0
0000b0 00 00 00 00 00 00 00 00 00 00 00 00 00 00 00 00
       0.0 0.0 0.0 0.0
0000c0 00 00 00 00 00 00 00 00 00 00 00 00 00 00 00 00
       0.0 0.0 0.0 0.0
0000d0 00 00 00 00 00 00 00 00 00 00 00 00 00 00 00 00
       0.0 0.0 0.0 0.0
0000e0 00 00 00 00 00 00 00 00 00 00 00 00 00 00 00 00
       0.0 0.0 0.0 0.0
0000f0 00 00 00 00 00 00 00 00 00 00 00 00 00 00 00 00
       0.0 0.0 0.0 0.0
000100 00 00 00 00 00 00 00 00 00 00 00 00 00 00 00 00
       0.0 0.0 0.0 0.0
000110 00 00 00 00 00 00 00 00 00 00 00 00 00 00 00 00
       0.0 0.0 0.0 0.0
000120 00 00 00 00 00 00 00 00 00 00 00 00 00 00 00 00
       0.0 0.0 0.0 0.0
000130 00 00 00 00 00 00 00 00 00 00 00 00 00 00 00 00
       0.0 0.0 0.0 0.0
000140 00 00 00 00 00 00 00 00 00 00 00 00 00 00 00 00
       0.0 0.0 0.0 0.0
000150 00 00 00 00 00 00 00 00 00 00 00 00 00 00 00 00
       0.0 0.0 0.0 0.0
000160 00 00 00 00 00 00 00 00 00 00 00 00 00 00 00 00
       0.0 0.0 0.0 0.0
000170 00 00 00 00 00 00 00 00 00 00 00 00 00 00 00 00
       0.0 0.0 0.0 0.0
000180 00 00 00 00 00 00 00 00 00 00 00 00 00 00 00 00
       0.0 0.0 0.0 0.0
000190 00 00 00 00 00 00 00 00 00 00 00 00 00 00 00 00
       0.0 0.0 0.0 0.0
0001a0 00 00 00 00 00 00 00 00 00 00 00 00 00 00 00 00
       0.0 0.0 0.0 0.0
0001b0 00 00 00 00 00 00 00 00 00 00 00 00 00 00 00 00
       0.0 0.0 0.0 0.0
0001c0 00 00 00 00 00 00 00 00 00 00 00 00 00 00 00 00
       0.0 0.0 0.0 0.0
0001d0 00 00 00 00 00 00 00 00 00 00 00 00 00 00 00 00
       0.0 0.0 0.0 0.0
0001e0 00 00 00 00 00 00 00 00 00 00 00 00 00 00 00 00
       0.0 0.0 0.0 0.0
0001f0 00 00 00 00 00 00 00 00 00 00 00 00 00 00 00 00
       0.0 0.0 0.0 0.0

network_body._body_endoder.seq_layers.2.weight f4 [128, 128]
000000 b4 cd 3e bd 85 fe 44 be ca 0e e0 3c 66 06 05 3e
       -0.046582893 -0.19237716 0.027350802 0.12990722
000010 63 1e aa 3c 24 50 f2 3d 29 dd 03 3d 40 14 c8 bd
       0.020766443 0.11831692 0.032193337 -0.097694874
000020 98 42 06 3d 23 6b e2 3d f7 6a b3 bb b9 d0 04 3e
       0.032778352 0.11055591 -0.0054753977 0.12970246
000030 93 ef 7b 3b 3d c1 cd bc 5e 62 31 3d 6c ea 95 3d
       0.0038442358 -0.025116557 0.0433067 0.07320103
000040 49 bd a4 3c 09 f8 f7 bd 35 ed b2 bd dd 69 39 bd
       0.02010979 -0.12107856 -0.0873665 -0.045266975
000050 79 58 f4 3d a7 f2 83 bd dd fe ac 3c 3e 9e 1b bc
       0.11930937 -0.06442767 0.021117622 -0.009498177
000060 ab d2 91 3d 0e 23 e6 3c 02 08 fc 3b 62 26 61 3b
       0.0712026 0.028092887 0.0076913843 0.0034355153
000070 12 cc f0 bd be 7a 07 3e d9 e4 06 3c de 13 83 bd
       -0.11757673 0.13230416 0.0082332725 -0.06400274
000080 09 30 38 3d 0e e9 7f bc 15 72 0c 3e 67 0b 52 bd
       0.044967685 -0.015619529 0.13715394 -0.051280405
000090 35 05 6e 3c ab bc 6b bd 39 03 0f be 40 5b 1c 3c
       0.014527609 -0.057552975 -0.13966073 0.00954324
0000a0 8e 08 ea bc e7 af af bd d7 7a 59 bd c7 be 9f bd
       -0.028568532 -0.085784726 -0.053095665 -0.0780006
0000b0 b4 97 0d bd 91 bf 24 be 5a 16 db bd 9b 55 d7 3c
       -0.034568503 -0.16088702 -0.106976226 0.026285937
0000c0 b3 1b ca bd 77 fb 6d 3d 53 71 22 bd ad 1b ef 3d
       -0.098685645 0.058101144 -0.039658856 0.116752006
0000d0 1d 28 8f bd 19 1c 52 3d a6 cf 6e 3c 81 65 d0 bc
       -0.06990073 0.051296327 0.014575874 -0.025439026
0000e0 a5 74 24 3c 73 d8 85 3c a7 3f 5f bd 86 12 b6 bd
       0.010037576 0.016338563 -0.054504063 -0.08890252
0000f0 c4 f8 12 3d 87 83 b1 bb 76 f5 72 3d cf c4 96 bd
       0.035881773 -0.0054172906 0.05931612 -0.07361757
000100 07 cb 1b 3e 9a 44 4d be 69 4c 8e 3d ac ba f8 bb
       0.15214168 -0.200457 0.06948168 -0.0075906124
000110 ac d9 38 3e dd 4a d4 3d 75 97 2a bd 87 25 16 bd
       0.18051785 0.103658415 -0.041648347 -0.036656883
000120 fd 98 c2 bc 1d fe 2a bd 2b e8 71 3d 28 82 2c bc
       -0.023754591 -0.041746248 0.059059303 -0.010529079
000130 32 28 02 be ac 07 82 3e fd c0 3d 3e 79 45 09 3e
       -0.12710646 0.25396478 0.1853065 0.13405408
000140 19 26 e2 3a 52 bc 71 bd 7c a4 38 be 10 be 27 3e
       0.0017253786 -0.059017487 -0.18031496 0.16381097
000150 83 0c 36 3d 06 67 b6 bd 89 21 a9 3c 66 31 b2 3d
       0.044445526 -0.08906369 0.020645874 0.08700828
000160 84 3e 23 bd e3 20 1a 3d 56 57 43 be 65 59 3e 3e
       -0.03985454 0.03762902 -0.19076285 0.18588789
000170 e5 07 3f ba dd 0d a9 3c 9b be d6 3d 4a 5a 51 3c
       -0.0007287248 0.020636493 0.10485574 0.012777874
000180 af d9 88 3d 9c 75 a9 3d 20 d4 82 3c 75 a8 83 be
       0.06682145 0.08274385 0.01597029 -0.2571446
000190 7e 43 e1 bd 36 4d df bd d2 91 19 3c a0 43 28 3c
       -0.10999201 -0.10903399 0.009373145 0.010270029
0001a0 41 f0 e7 3d 1e 1a a1 bd f1 4e 8e bd 7a af 9f bc
       0.11325122 -0.078663096 -0.06948651 -0.019492853
0001b0 b3 36 4a 3d 2d db 28 3d aa 31 7d bd 42 b2 92 bd
       0.04936857 0.041224647 -0.06181494 -0.07162906
0001c0 c7 ef 0f bc 2d cd b6 3d ce f9 1b 3e af a4 0f bd
       -0.008785195 0.08925853 0.15232012 -0.035069164
0001d0 33 9f f9 3c 5a 9d c9 bd ef fd 90 bc b8 1b 30 bd
       0.03047142 -0.098444656 -0.01769921 -0.042995185
0001e0 d1 f7 c2 bc 49 49 98 bc a2 93 3d 3d 01 74 91 bc
       -0.023799809 -0.018589633 0.04628337 -0.01775551
0001f0 5f 91 19 3d 4a c8 49 bd 37 18 1a 3e b8 30 3c 3a
       0.037492152 -0.049263276 0.150483 0.00071788905
000200 c0 77 70 3d e5 57 af bd 0c 10 07 3e 7b 12 13 bd
       0.058707952 -0.085616864 0.13189715 -0.035906296
000210 e4 a2 3b 3d 41 1b 91 3d 73 fe 06 bc 88 66 c0 3d
       0.04580964 0.070852764 -0.008239376 0.09394556
000220 3c bd bc 3d 2b c3 2e 3e 4e a2 ea bd d4 d3 b3 3d
       0.09215781 0.17066638 -0.114567384 0.087806374
000230 c7 9f 83 bc 32 8a a8 bc 07 8b c7 3c 01 db 18 bd
       -0.016067399 -0.02057371 0.024358286 -0.037318233
000240 ac c3 07 3d b8 5d 04 3d 0f 20 99 bd 43 50 9c bd
       0.03314559 0.03231594 -0.07476818 -0.07632496
000250 4d 51 5f 3e 84 f6 cf bd 2b a1 9a bd bb 8f 61 bc
       0.21808358 -0.10154441 -0.075502716 -0.013767178
000260 a2 fb 8a 3b 94 20 e9 3c 58 39 37 3d 4c 78 1b 3d
       0.0042414228 0.028457917 0.04473242 0.03795652
000270 a8 12 0b be 89 7f 33 3e 14 a5 42 bd d3 0e 06 3c
       -0.13581336 0.1752912 -0.047520712 0.008182245
000280 5c a9 7d 3d 02 01 ae 3d dc fe 1d 3e de a3 12 3e
       0.06192909 0.08496286 0.15429252 0.14320323
000290 6b 50 3f 3d 13 67 24 3e 53 f9 6b 3d bd bf d1 bd
       0.046707552 0.16054945 0.05761082 -0.10241649
0002a0 e8 80 c7 bc ac 94 9f 3c 2a 1b b9 bd 25 13 11 bb
       -0.02435346 0.019480072 -0.09038384 -0.0022136655
0002b0 25 91 0b 3d 5b 0e 7f 3c ac b2 01 3e aa 9b cc 3d
       0.034073967 0.015567387 0.12665814 0.09990628
0002c0 03 48 31 3e e2 92 df 3c 1d 90 7e bd a2 00 45 3d
       0.17312627 0.027291719 -0.062149156 0.048096307
0002d0 cb 6c 6d bd 7a 49 8d bd 4b 4b d2 bd d2 dd 99 bd
       -0.05796508 -0.0689878 -0.10268267 -0.07513012
0002e0 0b 06 75 3d 5f 32 55 bd 65 70 a9 bc c0 f9 8a bd
       0.059820216 -0.05204999 -0.020683477 -0.06785917
0002f0 03 6d fa 3b 3a 00 1c 3e 90 08 74 3d 61 d1 16 bd
       0.0076423897 0.15234461 0.05957848 -0.036820773
000300 40 29 27 3e a9 d0 8c bc 59 91 a3 3d 8e dd e9 bc
       0.1632433 -0.01718934 0.07986707 -0.028548028
000310 db df 72 3c 56 e4 07 3e 27 c9 68 3e a8 82 c2 bc
       0.014823879 0.13270697 0.22732984 -0.023743942
000320 5f cd a2 3d 93 c2 23 be a1 61 53 3e 1b 5b db 3d
       0.07949328 -0.15992193 0.20642711 0.10710736
000330 90 b9 11 bd fc 02 c2 3c ba d3 d4 3b 94 82 26 3e
       -0.035577357 0.023683064 0.0064949663 0.16260749
000340 89 0f 2f 3e 64 7d 98 3b a8 08 48 bd ec 7a 20 3d
       0.1709577 0.0046536196 -0.04883638 0.039179727
000350 9b 00 bf bc 44 b4 aa bd c5 bd ed bd c0 4d c0 bb
       -0.023315718 -0.08335164 -0.11608461 -0.0058686435
000360 3a c5 03 3d 15 71 34 3d a3 c7 94 bd 1e 60 bd bb
       0.03217051 0.044053156 -0.0726464 -0.0057792803
000370 87 c6 86 bd b1 ac a8 3d 40 83 d7 bd 8e 6b 32 3d
       -0.06580835 0.08236063 -0.10523081 0.043559603
000380 ed ab f2 3c 26 27 c9 3d 82 74 ea 3a 8a 78 ca 3c
       0.029622996 0.0982192 0.0017887505 0.02471568
000390 84 0c 32 bd ca ba 3a be 96 21 84 3c 35 96 76 3d
       -0.043468967 -0.18235317 0.016129296 0.060201842
0003a0 45 8d c0 bd 16 56 09 3e bf 54 44 3d be 19 ed bb
       -0.09401945 0.13411745 0.047932383 -0.0072357347
0003b0 3e f4 ef bd ad 7e 9c 3c 06 29 ba bc 85 89 2c 3e
       -0.117165074 0.019103372 -0.02272464 0.16849335
0003c0 36 f1 7f bc cd 47 2f 3e c4 20 19 3d 11 42 19 bd
       -0.015621474 0.17117234 0.037384763 -0.03741652
0003d0 b4 d4 51 3e 88 d8 66 3d 48 af df 3d 48 4c ad bc
       0.20491296 0.056358844 0.10922104 -0.021154538
0003e0 07 c6 c4 3b 37 19 15 be c8 b4 44 3c 09 19 db 3d
       0.006005052 -0.145604 0.012005992 0.106981345
0003f0 02 9b cd 3c 29 bb 54 bd 27 df de bc 14 45 c5 3c
       0.025098328 -0.051936302 -0.027206017 0.02408079

network_body._body_endoder.seq_layers.2.bias f4 [128]
000000 00 00 00 00 00 00 00 00 00 00 00 00 00 00 00 00
       0.0 0.0 0.0 0.0
000010 00 00 00 00 00 00 00 00 00 00 00 00 00 00 00 00
       0.0 0.0 0.0 0.0
000020 00 00 00 00 00 00 00 00 00 00 00 00 00 00 00 00
       0.0 0.0 0.0 0.0
000030 00 00 00 00 00 00 00 00 00 00 00 00 00 00 00 00
       0.0 0.0 0.0 0.0
000040 00 00 00 00 00 00 00 00 00 00 00 00 00 00 00 00
       0.0 0.0 0.0 0.0
000050 00 00 00 00 00 00 00 00 00 00 00 00 00 00 00 00
       0.0 0.0 0.0 0.0
000060 00 00 00 00 00 00 00 00 00 00 00 00 00 00 00 00
       0.0 0.0 0.0 0.0
000070 00 00 00 00 00 00 00 00 00 00 00 00 00 00 00 00
       0.0 0.0 0.0 0.0
000080 00 00 00 00 00 00 00 00 00 00 00 00 00 00 00 00
       0.0 0.0 0.0 0.0
000090 00 00 00 00 00 00 00 00 00 00 00 00 00 00 00 00
       0.0 0.0 0.0 0.0
0000a0 00 00 00 00 00 00 00 00 00 00 00 00 00 00 00 00
       0.0 0.0 0.0 0.0
0000b0 00 00 00 00 00 00 00 00 00 00 00 00 00 00 00 00
       0.0 0.0 0.0 0.0
0000c0 00 00 00 00 00 00 00 00 00 00 00 00 00 00 00 00
       0.0 0.0 0.0 0.0
0000d0 00 00 00 00 00 00 00 00 00 00 00 00 00 00 00 00
       0.0 0.0 0.0 0.0
0000e0 00 00 00 00 00 00 00 00 00 00 00 00 00 00 00 00
       0.0 0.0 0.0 0.0
0000f0 00 00 00 00 00 00 00 00 00 00 00 00 00 00 00 00
       0.0 0.0 0.0 0.0
000100 00 00 00 00 00 00 00 00 00 00 00 00 00 00 00 00
       0.0 0.0 0.0 0.0
000110 00 00 00 00 00 00 00 00 00 00 00 00 00 00 00 00
       0.0 0.0 0.0 0.0
000120 00 00 00 00 00 00 00 00 00 00 00 00 00 00 00 00
       0.0 0.0 0.0 0.0
000130 00 00 00 00 00 00 00 00 00 00 00 00 00 00 00 00
       0.0 0.0 0.0 0.0
000140 00 00 00 00 00 00 00 00 00 00 00 00 00 00 00 00
       0.0 0.0 0.0 0.0
000150 00 00 00 00 00 00 00 00 00 00 00 00 00 00 00 00
       0.0 0.0 0.0 0.0
000160 00 00 00 00 00 00 00 00 00 00 00 00 00 00 00 00
       0.0 0.0 0.0 0.0
000170 00 00 00 00 00 00 00 00 00 00 00 00 00 00 00 00
       0.0 0.0 0.0 0.0
000180 00 00 00 00 00 00 00 00 00 00 00 00 00 00 00 00
       0.0 0.0 0.0 0.0
000190 00 00 00 00 00 00 00 00 00 00 00 00 00 00 00 00
       0.0 0.0 0.0 0.0
0001a0 00 00 00 00 00 00 00 00 00 00 00 00 00 00 00 00
       0.0 0.0 0.0 0.0
0001b0 00 00 00 00 00 00 00 00 00 00 00 00 00 00 00 00
       0.0 0.0 0.0 0.0
0001c0 00 00 00 00 00 00 00 00 00 00 00 00 00 00 00 00
       0.0 0.0 0.0 0.0
0001d0 00 00 00 00 00 00 00 00 00 00 00 00 00 00 00 00
       0.0 0.0 0.0 0.0
0001e0 00 00 00 00 00 00 00 00 00 00 00 00 00 00 00 00
       0.0 0.0 0.0 0.0
0001f0 00 00 00 00 00 00 00 00 00 00 00 00 00 00 00 00
       0.0 0.0 0.0 0.0

action_model._discrete_distribution.branches.0.weight f4 [3, 128]
000000 96 5d 42 3b 8d 00 86 bc e5 2e 41 bc 6d 04 ea 3b
       0.0029657832 -0.016357685 -0.011790966 0.007141641
000010 37 cf be bb c3 b7 88 bc ff 2e b1 bb 08 2e d3 39
       -0.005823042 -0.016689187 -0.0054072137 0.00040279352
000020 b3 9b 73 ba ff c8 f1 ba 98 01 21 3c 7d c9 4e bb
       -0.00092929153 -0.0018446742 0.00982704 -0.0031553202
000030 b8 a4 85 3b 71 49 8a 3b 9c 27 02 bb 19 57 20 bc
       0.004078474 0.0042201807 -0.0019860035 -0.009786391
000040 37 c7 96 bb 5c 82 8f 3b cf c1 63 bb f4 9c 0a bc
       -0.004601385 0.0043795537 -0.003475297 -0.008460272
000050 85 ad 31 bc 07 48 a4 3b 0c ac 08 bc 57 67 1b bc
       -0.010844593 0.005013469 -0.0083418 -0.009485087
000060 0a 09 f8 ba c2 97 03 bc ac f4 2b 3c a5 eb a0 3c
       -0.0018923592 -0.008031787 0.010495346 0.019643614
000070 10 cc ab ba 07 32 56 bc 4b e7 32 bb 12 e6 9d 3b
       -0.001310708 -0.013073451 -0.0027298506 0.0048186863
000080 78 80 ca bb 6b 4a 38 bb 4f 6f 84 bc 43 0d 6b 3c
       -0.0061798654 -0.0028120528 -0.016166357 0.014346424
000090 3b 15 1d bb d2 af a5 3b 68 d9 86 b8 c5 3c cd bb
       -0.0023968953 0.00505636 -6.430113e-05 -0.006263348
0000a0 29 19 15 3c c2 56 f7 3b 9b 1e 1a 3c ab 32 52 3c
       0.009100237 0.007548184 0.009406711 0.012829463
0000b0 14 fe 9e 3b 86 49 8b 3b 8b 75 71 3b fb 6b 1a 3c
       0.004852066 0.004250708 0.0036843743 0.009425159
0000c0 3a 50 77 3c ea 7e 94 3c 04 04 a2 bb 33 2d d3 ba
       0.015094811 0.018126924 -0.0049443264 -0.0016111493
0000d0 4b 54 9e bb a9 df 44 bc d3 c4 b9 3b e5 b6 6a 3c
       -0.004831826 -0.012016215 0.005669215 0.014325832
0000e0 ab 0e 24 3c 17 af 0e 3b 8c 2f 8e bb 4f 99 3d bc
       0.010013263 0.0021771842 -0.004339164 -0.011572196
0000f0 28 6e 68 3c c0 64 af ba 76 6a 2b 3a 58 77 f4 bb
       0.01418642 -0.0013381466 0.0006538996 -0.007460516
000100 c0 3a 41 3c 5b cc 1a bc 19 39 45 3b 87 f4 6d bc
       0.011793792 -0.009448136 0.0030093847 -0.014523632
000110 43 4c 4f 3c 2a cb bc ba 03 eb 49 3a e8 05 0f 3c
       0.01265246 -0.0014403809 0.0007702561 0.0087294355
000120 67 f4 39 bc 25 84 65 3c 3d 78 d8 bb 7a c3 d7 bb
       -0.011349774 0.0140085565 -0.0066061304 -0.006584582
000130 77 83 62 3b 5c f1 9d 37 77 7e 80 3c 47 cf a1 bb
       0.0034563222 1.882825e-05 0.015685303 -0.0049380395
000140 20 c7 8e 3c 50 18 6f bb 7f b4 8b bb 7a 07 46 3c
       0.017428935 -0.0036482997 -0.00426346 0.0120867435
000150 31 1c 84 bc af ae 78 b9 b8 c1 f2 ba c7 1a c6 bb
       -0.016126724 -0.00023716198 -0.0018520867 -0.0060456726
000160 7a 4c ae bb c0 13 5c bc 9d 3c 36 3b 6f 12 3e bc
       -0.0053191753 -0.013432443 0.0027807124 -0.011601075
000170 39 af a8 b9 8d d2 2f 3c 7a 4b 5d 39 f9 ba 33 3c
       -0.00032174008 0.010731352 0.0002110432 0.010969871
000180 0f 8f 41 3c 62 c4 e2 3b c3 7b b2 3b b0 42 d0 3b
       0.011813893 0.0069203833 0.0054468825 0.006355606
000190 c3 dc cb 3a 68 a1 82 3c ed 3b 19 bb 4f ad e2 39
       0.0015553463 0.015946105 -0.0023381666 0.00043235204
0001a0 e0 cc 71 3c b8 1a 4c bb 55 ef 32 bc 89 3e 8d bb
       0.014758319 -0.0031143855 -0.010921319 -0.0043104333
0001b0 f5 a1 0d bc 36 52 b5 3a 0f 84 50 3b ea 3b cd bc
       -0.008644571 0.0013833705 0.0031816994 -0.025052983
0001c0 c0 37 59 3a 6c 20 82 3b f7 28 1d ba 97 7e 60 bc
       0.00082862005 0.00397115 -0.0005995179 -0.013702056
0001d0 39 2f ba 3b a1 8a 09 bc a9 34 18 ba 7e b9 42 3a
       0.005681899 -0.008394868 -0.0005806187 0.0007428153
0001e0 e9 85 97 3c 1b 6d b4 3b e5 f4 9f bc 1b c9 5c bb
       0.01849647 0.0055061704 -0.019525954 -0.0033689204
0001f0 05 17 d5 ba a0 0e e0 bb 00 a7 85 bb 73 5f 3b 3b
       -0.0016257471 -0.006837681 -0.004078746 0.0028590828
000200 0e ec b1 bb c7 b6 fe 3a 47 87 af bb 40 d7 b7 bb
       -0.0054297512 0.0019433134 -0.0053567025 -0.0056103766
000210 3b 84 96 bc a1 67 8e bb c3 49 8d 3b 4e 7a ad 3b
       -0.0183736 -0.0043458496 0.0043117716 0.005294121
000220 87 27 cd 3b 11 fc a6 3b 65 d3 33 3c 83 c0 0c bc
       0.0062608155 0.0050959666 0.010975693 -0.00859082
000230 f9 f2 44 3c 88 6a 7a bc ed eb 3a 3b 6b 97 42 3b
       0.01202082 -0.015284188 0.002852197 0.0029692303
000240 3a 97 6a 3c a1 d9 b1 bb 3a 1a 35 3b ff 8d 12 bc
       0.014318282 -0.0054275547 0.002763404 -0.008944987
000250 a8 c6 58 bc ba 8e 72 bc 97 a4 14 3b 50 7b 87 bc
       -0.013230957 -0.0148045365 0.002268111 -0.016538292
000260 af 10 b5 3c ba a3 ed ba 02 40 d6 bb f3 5c 2f bc
       0.022102682 -0.0018130459 -0.006538392 -0.010703313
000270 62 69 77 bc 97 09 21 3b 48 52 f1 3a 67 4c ab 3a
       -0.015100809 0.0024572366 0.0018411363 0.0013069034
000280 28 8b b9 bb 4b f1 b8 bb 46 ad 0b 3b 73 cf 5f bc
       -0.0056623407 -0.0056439987 0.0021312996 -0.0136603
000290 d7 75 8a ba 2b 25 4f ba 40 16 21 ba e3 65 07 bc
       -0.0010563683 -0.0007901962 -0.0006144978 -0.008264038
0002a0 87 8b 46 3a 63 51 ed 3c 88 74 90 3b e0 f2 99 b8
       0.0007573892 0.028969472 0.004408423 -7.3408475e-05
0002b0 c8 00 b6 bb e6 ad b2 bb 8f 4c 11 3c b8 a1 7f ba
       -0.0055542924 -0.005452859 0.008868351 -0.0009751576
0002c0 85 bb fe 3b 96 e2 2d bb 47 e5 a6 3b 07 1c a6 bb
       0.007773819 -0.002653276 0.00509325 -0.005069259
0002d0 80 28 34 3c 57 83 99 3c 63 42 92 3a a9 0f 99 3b
       0.010995984 0.018739386 0.0011158701 0.0046710563
0002e0 2f 6a a0 bc 1f 75 52 bc 47 6f dd ba 1c 4f 97 3b
       -0.019581882 -0.012845307 -0.0016894125 0.004617585
0002f0 73 88 bd ba 6d 73 0f 3c 28 1e 17 3c 47 5a 18 39
       -0.0014460221 0.008755547 0.009223498 0.0001452948
000300 5c 3e 37 3c b2 b3 de 3b 83 e8 ff 3b e7 9d 90 3b
       0.011184301 0.0067963237 0.0078097 0.0044133547
000310 12 a1 7f bb 5b 5c cd 3c 36 48 aa bc 47 62 09 bc
       -0.0039005917 0.025068453 -0.020786386 -0.008385248
000320 9c 88 92 bb a2 a3 59 3b b8 13 25 3c b8 da 6f bb
       -0.0044718515 0.0033209105 0.010075502 -0.0036598872
000330 3d 35 3e bb 83 2e 96 3a 90 a7 ba 3a df 4f 13 3b
       -0.0029023432 0.0011457953 0.0014240611 0.0022478027
000340 ad 85 f5 bb 8f b9 cb ba bb c0 cf bb f2 2f 54 bb
       -0.007492742 -0.0015542972 -0.006340114 -0.003237721
000350 71 f2 33 3c 77 73 78 bb 77 54 b1 bb d2 24 34 3b
       0.0109830955 -0.003791062 -0.0054116803 0.0027487767
000360 20 1e 81 bb 6e 39 17 bc 29 ba 1f bb ec 62 b7 bb
       -0.0039403588 -0.009230001 -0.0024372435 -0.005596509
000370 9c 2e 28 3c fb 6a 03 bc 34 92 a3 3b 8d ff 55 3c
       0.010265019 -0.008021112 0.004991794 0.013061416
000380 6e d7 8a 3a 95 7c bd 3b dd ad 27 bc 07 90 d7 39
       0.0010592768 0.0057826736 -0.010234323 0.00041115304
000390 6f 53 38 3c 1f 38 d5 bb 13 d0 62 bb 3d 6d 6a bb
       0.011250361 -0.0065069343 -0.0034608885 -0.0035770677
0003a0 11 0a 1c 3c a0 f1 1e 3c 85 a5 12 bc 3b 8c 28 3b
       0.009523884 0.009701163 -0.008950596 0.002571835
0003b0 62 ce 4c bb cd e0 b7 bb 8b 17 c7 bb e1 23 83 3b
       -0.0031250943 -0.005611515 -0.0060758046 0.00400208
0003c0 45 62 04 3b 66 fc 36 ba 49 7e cc 3b 43 a7 03 3c
       0.0020200175 -0.00069803593 0.0062406403 0.008035484
0003d0 07 41 b6 3b a7 a0 b3 bb e0 cd 5c 3c 27 6d cc bb
       0.005561951 -0.0054817977 0.013476819 -0.006238598
0003e0 ca bd 86 ba 6a 03 5c 3a 2f ca 83 3b 6f 36 61 bc
       -0.001027995 0.0008392843 0.004021905 -0.013745888
0003f0 98 82 f3 3b d0 c5 8f 3a d8 08 29 bc e4 4a 0c 3a
       0.0074313395 0.0010968987 -0.01031705 0.0005351736

action_model._discrete_distribution.branches.0.bias f4 [3]
000000 00 00 00 00 00 00 00 00 00 00 00 00
       0.0 0.0 0.0

network_body._body_endoder.seq_layers.0.weight f4 [128, 4]
000000 b9 2d dc be 8c 5b 98 be cf 67 21 bf 8b ea 4a 3c
       -0.43003634 -0.29757345 -0.63049024 0.012385021
000010 8e c1 15 be 13 1d 5c 3c 2e 8f 81 3e 7d c1 d9 3d
       -0.14624617 0.013434666 0.2530455 0.10632608
000020 01 10 60 3f 09 a0 24 bf 05 08 4a be e7 22 f3 bd
       0.8752442 -0.64306694 -0.19729622 -0.118718915
000030 bd 90 c0 be fa 64 8f 3d c3 f6 dc be a0 2a 41 3f
       -0.37610427 0.070016816 -0.43157014 0.75455666
000040 53 e1 4c 3f 2e a0 25 3d 2f de 1e 3e ff 7f 00 3f
       0.8003132 0.040435962 0.15514444 0.50195307
000050 25 65 a2 3e e7 3d 41 3f 96 cd 9a 3d 71 71 1a 3f
       0.31717792 0.7548508 0.07558744 0.6032935
000060 04 c7 28 bf 47 8e 9d be f8 f0 47 3e 4b 43 62 3f
       -0.65928674 -0.30772611 0.19525516 0.8838393
000070 88 4f 35 3b a6 0a c4 3e bf 74 bc 3e 4d a9 bc 3d
       0.0027665813 0.38289374 0.3680782 0.09211979
000080 5f 5d 99 3f 29 60 1a 3d e7 60 22 bc 89 aa 1f bf
       1.198162 0.03768936 -0.009910799 -0.6236959
000090 d9 2f 83 3e ae 41 33 be ba be 9a be aa 90 35 bf
       0.25622442 -0.17505524 -0.30223638 -0.70923865
0000a0 64 30 e3 3e 0f 91 22 bf 5e 49 6a 3f e7 ba bd 3e
       0.44372857 -0.6350259 0.915182 0.37056658
0000b0 da b0 ea 3c c8 0b e7 be 6b d4 18 3e 6b ff 92 be
       0.028648783 -0.45126176 0.14924781 -0.28710493
0000c0 5c b9 2e bd 43 49 17 3f ea b3 00 bf 3a c1 2e 3f
       -0.04265724 0.59096164 -0.5027453 0.6826359
0000d0 f6 08 1c bf 9e 25 89 bc f6 0d f1 3d 0c b1 c5 3d
       -0.60951173 -0.01674157 0.11770241 0.0965291
0000e0 54 6c 77 be 58 c3 f8 3d d5 0d 4d be f1 98 94 3e
       -0.24162418 0.12146634 -0.20024808 0.29022935
0000f0 f1 78 bc be df 2d 2e bf e0 80 44 3e e6 55 5a 3b
       -0.3681102 -0.68038744 0.19189787 0.003331536
000100 4d 91 d6 be ea 9f 6f 3e 16 c7 15 3c e9 24 de 3e
       -0.4190773 0.23400846 0.009141704 0.43387535
000110 ab 58 0a 3f f0 ee 40 bf 1e 43 f3 bd d3 96 4e bf
       0.54041547 -0.7536459 -0.11878036 -0.8069889
000120 eb 3e f7 be 4b 4c 95 be 31 2e 0c 3f 68 55 0a 3f
       -0.4829019 -0.2915977 0.5475798 0.5403657
000130 83 2e 92 bd 28 67 2a 3e 4b bf ca bd 2c 5e 65 3f
       -0.07137778 0.16640913 -0.098997675 0.8959682
000140 ff ff c6 be 13 23 81 be cc 50 a5 be 12 11 13 bf
       -0.38867185 -0.25222072 -0.32288206 -0.5744792
000150 a4 21 8e bd 0d ec 2a 3f 20 fd 34 3f b2 18 cc bd
       -0.0694001 0.66766435 0.7069874 -0.09965648
000160 f5 53 bb 3e 43 2c 14 3d 7a 88 cb 3d 47 19 e8 3e
       0.36587492 0.036175024 0.0993814 0.45331785
000170 4a 1b dc 3e 2d 79 b2 3e 0d 03 b7 be 68 72 3a be
       0.4298957 0.34858075 -0.35744515 -0.18207705
000180 10 f3 70 3e 7e 0d 39 be 7b 4d e5 bd 09 ed a7 bd
       0.23530221 -0.18071553 -0.11196419 -0.08199508
000190 ee 0d 0d bf fa 20 8c 3b 8f 47 f0 bd f3 9a 14 3f
       -0.5509938 0.004276392 -0.11732399 0.58048934
0001a0 be 02 15 3e f3 57 db bd 42 bd 18 bf 14 8c 48 bf
       0.14551827 -0.10710134 -0.59663785 -0.7833874
0001b0 0a 4c 80 be fd ad ec bb 97 4b 95 3f dc 3f 00 bf
       -0.25058013 -0.0072228895 1.1663693 -0.5009744
0001c0 cf a0 05 be fe 5f 6f be 27 a0 8c 3f 1f c6 cc be
       -0.13049625 -0.23376462 1.0986375 -0.39994904
0001d0 c4 0a 48 3f a4 15 0d bf 43 b3 c3 3d f6 a7 44 3e
       0.7814143 -0.55111146 0.09555676 0.19204697
0001e0 1c f6 94 be 4e 61 c1 3f ef 2b 71 3a 93 f9 36 be
       -0.29094017 1.510782 0.0009199967 -0.17868643
0001f0 33 49 27 be c7 87 04 3f 95 44 a1 bd 5f 37 9f 3e
       -0.16336517 0.5176968 -0.07874409 0.31096932
000200 f2 f5 4f bf 1d 5d 1f be fb 9e 81 bf 38 45 b2 3e
       -0.8123466 -0.15562864 -1.0126642 0.34818435
000210 ac 14 80 bd ec 33 05 bf 75 16 5f 3e cc 25 5f 3f
       -0.06253943 -0.5203235 0.2178591 0.8716705
000220 af 6d cf 3e cd 84 c0 be 8b 9c cc 3e 7f 6e 11 3f
       0.4051337 -0.3760132 0.39963183 0.5680923
000230 b6 a3 aa be 09 d7 b1 be 69 a4 5c bf 78 fe b7 be
       -0.33328027 -0.3473437 -0.8618837 -0.35936332
000240 85 62 80 be 44 c3 a3 3e e9 17 aa 3e 86 6d 4a bf
       -0.25075164 0.31984913 0.33221367 -0.7907337
000250 d0 c5 0f 3d 29 a3 47 3e 53 b1 dd bd 0a 71 25 3e
       0.035100758 0.19495834 -0.108248375 0.16156402
000260 91 4a ae 3d 53 84 87 be cf 1f 51 3e 01 e8 8c bd
       0.08510316 -0.26468143 0.2042229 -0.06880189
000270 5e f6 b1 be 45 6f 9f be 09 47 10 bd 81 03 06 3f
       -0.34758276 -0.3113958 -0.035223994 0.52349097
000280 fd 84 67 3e 81 26 40 3e 93 7b 6e be 0d aa 35 3f
       0.22609325 0.18764688 -0.23289327 0.709626
000290 6a 25 a1 bf 9a 8c 06 3f 81 91 aa be c8 ab e9 be
       -1.2589543 0.5255829 -0.33314136 -0.4563887
0002a0 f5 62 03 bf 61 1c df 3c 79 3e 70 be b7 60 a7 bf
       -0.5132287 0.027235212 -0.23461331 -1.307639
0002b0 99 c0 f4 3e 17 cc 35 bf a1 cf 77 bf c8 92 10 bf
       0.4780319 -0.7101454 -0.9680119 -0.5647397
0002c0 f6 04 59 bf 7a 9a 2a 3f 93 e4 13 3f 6b a6 f9 bd
       -0.84773195 0.6664196 0.5777065 -0.12189945
0002d0 2f a0 7c be 28 74 65 be 06 25 59 3f 98 cf a7 3e
       -0.2467048 -0.22407591 0.8482212 0.3277557
0002e0 b0 19 99 3e 18 e6 53 bf 67 cc 6f bf 4f d9 c7 3e
       0.2990241 -0.8277297 -0.9367127 0.3903298
0002f0 6d c1 cf 3e 36 a5 76 3f 84 70 8d 3f 96 ed bc bf
       0.4057726 0.9634584 1.1049962 -1.4760005
000300 b9 6b ea bd 2d 8d 1b 3e 7d 5d 28 bf 22 91 f9 3d
       -0.11446328 0.15190573 -0.6576765 0.12185885
000310 08 87 f5 be 1f 9d 1a 3f 86 59 bd 3d 18 f9 9d 3e
       -0.47954583 0.60396 0.09245591 0.30854106
000320 88 d4 1f be 01 19 aa be 27 3a 42 3e 53 08 b6 3c
       -0.15608418 -0.332222 0.18967496 0.022220766
000330 58 0d cf 3e 16 87 05 bf 42 bb 0c 3f 3d 17 ac be
       0.40439868 -0.5215925 0.5497323 -0.3361148
000340 77 54 13 bb 2f 8a 04 be c4 76 03 3f 62 55 27 3f
       -0.0022480765 -0.12943338 0.51353097 0.6536466
000350 d0 d1 1a be 1d 70 7e be 4a ae 6b bf 40 94 29 be
       -0.151191 -0.24847455 -0.9206282 -0.16560459
000360 5c ac 58 3d 0d 04 5f bf ca 44 0a bf 0e a7 27 bd
       0.05289875 -0.87115556 -0.54011214 -0.0409308
000370 e3 ca c3 bd d1 1f 91 be 4b 61 d7 3e 6d b9 37 3e
       -0.09560182 -0.28344586 0.42066416 0.17941828
000380 ae 46 5d 3e 3a b8 b6 3e 23 2f 15 3f c3 9e f6 3d
       0.21608993 0.3568743 0.5827505 0.12042
000390 e6 fc 9d be 4a 6c 24 bf 0e 38 d3 bd fa 0c 9f bc
       -0.3085701 -0.64227736 -0.10313426 -0.019415367
0003a0 47 e8 81 3f c6 9c b7 bc 32 18 a4 bd e3 d2 9e 3e
       1.014901 -0.022413623 -0.080124274 0.3102027
0003b0 3f fa 0d 3f 05 5e a6 3e f0 f5 57 3e 92 e3 b7 3e
       0.5545997 0.32493606 0.21089911 0.3591581
0003c0 b6 ea 29 3f aa c2 f0 3e b1 19 9b 3d 6d 8e b9 bc
       0.66373765 0.47023517 0.075732596 -0.022650922
0003d0 92 e5 61 bf 8b af a3 be 76 66 76 3e 16 08 55 3f
       -0.8824092 -0.31969866 0.24062523 0.83215463
0003e0 ab eb 56 be 4a 51 35 3e 64 e6 05 3f d6 7b 6b 3f
       -0.20988338 0.1770679 0.52304673 0.91985834
0003f0 df 76 0c be 77 ce d2 be 08 3a 22 3f ff 9a 08 bf
       -0.1371722 -0.41173145 0.633698 -0.53361505

network_body._body_endoder.seq_layers.0.bias f4 [128]
000000 00 00 00 00 00 00 00 00 00 00 00 00 00 00 00 00
       0.0 0.0 0.0 0.0
000010 00 00 00 00 00 00 00 00 00 00 00 00 00 00 00 00
       0.0 0.0 0.0 0.0
000020 00 00 00 00 00 00 00 00 00 00 00 00 00 00 00 00
       0.0 0.0 0.0 0.0
000030 00 00 00 00 00 00 00 00 00 00 00 00 00 00 00 00
       0.0 0.0 0.0 0.0
000040 00 00 00 00 00 00 00 00 00 00 00 00 00 00 00 00
       0.0 0.0 0.0 0.0
000050 00 00 00 00 00 00 00 00 00 00 00 00 00 00 00 00
       0.0 0.0 0.0 0.0
000060 00 00 00 00 00 00 00 00 00 00 00 00 00 00 00 00
       0.0 0.0 0.0 0.0
000070 00 00 00 00 00 00 00 00 00 00 00 00 00 00 00 00
       0.0 0.0 0.0 0.0
000080 00 00 00 00 00 00 00 00 00 00 00 00 00 00 00 00
       0.0 0.0 0.0 0.0
000090 00 00 00 00 00 00 00 00 00 00 00 00 00 00 00 00
       0.0 0.0 0.0 0.0
0000a0 00 00 00 00 00 00 00 00 00 00 00 00 00 00 00 00
       0.0 0.0 0.0 0.0
0000b0 00 00 00 00 00 00 00 00 00 00 00 00 00 00 00 00
       0.0 0.0 0.0 0.0
0000c0 00 00 00 00 00 00 00 00 00 00 00 00 00 00 00 00
       0.0 0.0 0.0 0.0
0000d0 00 00 00 00 00 00 00 00 00 00 00 00 00 00 00 00
       0.0 0.0 0.0 0.0
0000e0 00 00 00 00 00 00 00 00 00 00 00 00 00 00 00 00
       0.0 0.0 0.0 0.0
0000f0 00 00 00 00 00 00 00 00 00 00 00 00 00 00 00 00
       0.0 0.0 0.0 0.0
000100 00 00 00 00 00 00 00 00 00 00 00 00 00 00 00 00
       0.0 0.0 0.0 0.0
000110 00 00 00 00 00 00 00 00 00 00 00 00 00 00 00 00
       0.0 0.0 0.0 0.0
000120 00 00 00 00 00 00 00 00 00 00 00 00 00 00 00 00
       0.0 0.0 0.0 0.0
000130 00 00 00 00 00 00 00 00 00 00 00 00 00 00 00 00
       0.0 0.0 0.0 0.0
000140 00 00 00 00 00 00 00 00 00 00 00 00 00 00 00 00
       0.0 0.0 0.0 0.0
000150 00 00 00 00 00 00 00 00 00 00 00 00 00 00 00 00
       0.0 0.0 0.0 0.0
000160 00 00 00 00 00 00 00 00 00 00 00 00 00 00 00 00
       0.0 0.0 0.0 0.0
000170 00 00 00 00 00 00 00 00 00 00 00 00 00 00 00 00
       0.0 0.0 0.0 0.0
000180 00 00 00 00 00 00 00 00 00 00 00 00 00 00 00 00
       0.0 0.0 0.0 0.0
000190 00 00 00 00 00 00 00 00 00 00 00 00 00 00 00 00
       0.0 0.0 0.0 0.0
0001a0 00 00 00 00 00 00 00 00 00 00 00 00 00 00 00 00
       0.0 0.0 0.0 0.0
0001b0 00 00 00 00 00 00 00 00 00 00 00 00 00 00 00 00
       0.0 0.0 0.0 0.0
0001c0 00 00 00 00 00 00 00 00 00 00 00 00 00 00 00 00
       0.0 0.0 0.0 0.0
0001d0 00 00 00 00 00 00 00 00 00 00 00 00 00 00 00 00
       0.0 0.0 0.0 0.0
0001e0 00 00 00 00 00 00 00 00 00 00 00 00 00 00 00 00
       0.0 0.0 0.0 0.0
0001f0 00 00 00 00 00 00 00 00 00 00 00 00 00 00 00 00
       0.0 0.0 0.0 0.0

network_body._body_endoder.seq_layers.2.weight f4 [128, 128]
000000 29 f1 1f bd a7 5e 0b 3d 60 d9 0f be fd 6a 00 3e
       -0.039048348 0.034025814 -0.14047766 0.12540813
000010 88 06 f6 3d f7 06 16 3e 36 51 06 3c 78 e6 c3 3d
       0.120129645 0.14651094 0.008198073 0.09565443
000020 fc 2e 51 3d c8 db d6 3d cc 16 04 3e 03 b0 50 bc
       0.0510702 0.10491139 0.12899321 -0.012737277
000030 68 33 b2 bc bf b4 2c be 4a 04 b2 bc 4f 64 05 3d
       -0.021753028 -0.16865824 -0.02173056 0.032566365
000040 8d 02 93 bd b5 13 d6 3c 6e ff df bd fc ae 8c 3d
       -0.07178221 0.026132444 -0.10937391 0.06869313
000050 12 45 52 bc 4b ff 91 3d 97 17 1c 3e a8 1a 02 3e
       -0.01283385 0.071287714 0.15243374 0.12705481
000060 a9 ac de 3d b9 14 2e bd 32 5c a2 3d f7 ec e5 3c
       0.10872776 -0.04250023 0.07927741 0.028067095
000070 6e 9d 90 bb 4d 6d 6a bc ea fe b0 ba b9 be 1a 3e
       -0.0044132983 -0.014308286 -0.0013503705 0.15111817
000080 d3 45 b3 bd 7d d3 79 bd 77 0c 1d be 7b 5b ae bd
       -0.08753552 -0.060992707 -0.15336786 -0.08513542
000090 38 85 3f be 50 0d 89 3e ad 15 e0 3d 01 a4 75 3c
       -0.18703163 0.2676797 0.10941634 0.014992715
0000a0 c7 49 4b 3e fc c8 e0 bd 8b 07 db bd f4 7a 60 3b
       0.19852363 -0.10975835 -0.10694798 0.0034252973
0000b0 d5 39 12 bc b8 c4 15 3e c2 22 af bc 7c 7b 4c bd
       -0.008924921 0.14625823 -0.021378879 -0.04992245
0000c0 ca e8 00 3e 84 77 7a be eb a6 66 3c 52 f6 1a bc
       0.12588802 -0.24459654 0.014077882 -0.009458141
0000d0 74 f6 aa 3d 54 6f 7e 3e ae 5f 8b bd 8c 44 df bc
       0.083477885 0.24847156 -0.06805359 -0.027254365
0000e0 cf de 06 bd e9 ae 76 3c 9e f1 02 bc 06 e9 c9 3d
       -0.03292733 0.01505635 -0.007992176 0.09858899
0000f0 36 68 09 3c c0 5e 81 3d bf 93 26 3d 4d de cc 3a
       0.008386662 0.063169 0.040668245 0.0015630216
000100 db 83 33 bd 22 aa 07 be fb 3b 41 3d 56 a2 83 3d
       -0.04382692 -0.13248494 0.047176342 0.064274475
000110 fc d3 61 3d 97 82 d6 bd e9 39 c5 3c 9d fd 9b bd
       0.055133805 -0.10474127 0.024075465 -0.07616732
000120 ed d6 df 3c 64 dd bd 3d 28 23 15 be e1 c0 dc bd
       0.027324164 0.092707425 -0.14564192 -0.10778976
000130 7d 34 1c 3c bc a5 c0 bc 84 81 f3 3d 08 71 10 be
       0.009533999 -0.023516528 0.118899375 -0.14105618
000140 f4 0d d7 3a 87 89 83 bd 0d db 1d bd 26 00 4b 3d
       0.0016407357 -0.06422716 -0.03853898 0.04956069
000150 4e 15 9c bd 6c 45 69 bc c8 15 94 bd e5 17 13 3d
       -0.07621251 -0.014237743 -0.07230717 0.03591146
000160 58 9b e7 bd 4a 16 d6 bd f3 4c 4e 3d bd 34 2c 3d
       -0.11308926 -0.1045347 0.050366353 0.042042483
000170 3e 41 7d 3d 23 b2 a3 bc 4a 1e 74 bd 57 ae f6 bd
       0.061829798 -0.019982403 -0.0595992 -0.120449714
000180 e1 3a c2 bd 36 e9 6b bd 86 73 0a 3d 18 0d 64 bc
       -0.094838865 -0.057595454 0.033801578 -0.013919137
000190 f9 d5 d5 3c a9 b9 96 3d 4d 16 02 3e 3d de f8 3d
       0.026103007 0.073596306 0.1270382 0.121517636
0001a0 4c ca 03 3e 71 1f 69 be c5 8b cb 3d 53 35 c9 3d
       0.12870139 -0.227659 0.09938768 0.09824624
0001b0 aa 19 7d 3c 9e f3 f8 3c 21 10 e8 3d 2d 89 88 3c
       0.015448013 0.030389603 0.11331201 0.016666973
0001c0 01 a8 15 3d af 40 5c 3d b2 dd 72 3c d0 7a 5a 3d
       0.036537174 0.053772625 0.014823364 0.05333978
0001d0 6b 59 cf 3d d0 1a 5d 3e 05 d0 c5 3d be 0a a8 bc
       0.10124477 0.2159226 0.09658817 -0.020512935
0001e0 d5 30 e6 bd b5 08 0e bd 51 c4 33 3d 61 3c cd bd
       -0.11239783 -0.034676272 0.043888394 -0.10021282
0001f0 cd e0 14 3a e8 d4 61 3d 79 28 96 3c e6 aa 01 3c
       0.000567925 0.055134684 0.018329846 0.0079142805
000200 33 32 a9 3d 8c 14 2f bc 8f b2 42 3e 79 a3 ab 3c
       0.08261528 -0.010686051 0.19013427 0.020951973
000210 1a 80 cb bd 30 5c ed 3c 78 86 63 3d c1 36 08 3e
       -0.09936543 0.028974622 0.05554816 0.13302137
000220 23 a8 26 be d3 04 3d bd 10 f0 04 3b 50 1c 1b be
       -0.16275077 -0.04614718 0.002028469 -0.15147519
000230 1c 8d f1 3d ad 13 c9 3d 30 4a 92 3d 3b f5 d9 bc
       0.117944926 0.09818206 0.071430564 -0.026606193
000240 44 24 ab bc d2 f4 3c 3d b8 13 ef 3d fc 7e d3 3c
       -0.020891316 0.046131916 0.11673683 0.025817387
000250 01 01 24 bd 24 f5 dd 3d 3a 47 e1 3d 96 69 2f bd
       -0.04004002 0.108377725 0.109999135 -0.042825304
000260 7b 8f de bd 6d 84 28 3d 77 e5 b5 bd b5 37 35 bb
       -0.108672105 0.041141916 -0.088816576 -0.0027651612
000270 1e f4 30 be 6c ca bf bc e6 cb 7d bd d1 1b a4 3a
       -0.17280623 -0.023411952 -0.06196203 0.0012520497
000280 4a f5 90 bc 82 bd c3 bd 49 b0 ba 3c d6 ac 53 3e
       -0.017695088 -0.0955763 0.022789137 0.206714
000290 ff d9 cf 3d 48 7d 3b 3c 79 fd 3b bd 7c 61 85 3d
       0.10149001 0.011443444 -0.045896027 0.06512734
0002a0 8d ec fe 3d 36 2c 04 3e d9 3f 73 3d 9c 75 fa bd
       0.12447462 0.1290749 0.05938706 -0.122294635
0002b0 42 ca dc bd a4 80 00 bd ed 3f 8d bd 1c 69 c8 3d
       -0.10780765 -0.03137268 -0.068969585 0.09785673
0002c0 ae 27 71 3c 2d 2b 74 bd 92 83 8c 3d 6e a6 9a bd
       0.014718933 -0.059611488 0.068610325 -0.07551275
0002d0 0b 05 30 bd 5e 28 8f bc 24 61 07 3e 46 23 cc 3c
       -0.04297356 -0.017475303 0.1322065 0.024919163
0002e0 d5 1b ba bd 1a c1 10 bd 6b 72 1c 3e 61 41 58 3d
       -0.0908734 -0.035340406 0.15278022 0.052796725
0002f0 87 6a d2 bc d8 a0 02 3d 9e 39 a5 bd 57 a6 90 3c
       -0.025685562 0.031891674 -0.0806763 0.017657442
000300 01 3e 9a 3d ad 2c 8c 3b c8 3d 57 bb dd 46 85 bd
       0.075313576 0.0042777867 -0.003284322 -0.06507657
000310 29 34 ae bd 05 f0 24 bd 36 75 44 3e e0 c6 77 3d
       -0.085060425 -0.040267963 0.19185337 0.060492396
000320 d0 41 22 bb 8b a5 83 3d fd 66 9b bc b0 89 2c bd
       -0.0024758466 0.06428059 -0.018970007 -0.042123497
000330 dd 87 04 be 9f ec 94 bd b8 8e f6 bd 6b fc 88 bd
       -0.12942453 -0.072716944 -0.1203894 -0.0668877
000340 ba 16 c5 bd 47 2f 2e bb aa 7d 1f be 3c eb f4 bd
       -0.096234754 -0.0026578472 -0.15575281 -0.1195893
000350 db ab 0f 3c 1d 7b f8 3b 70 e2 70 3d c3 54 e9 3d
       0.008769001 0.0075830356 0.058809698 0.1139312
000360 3d e4 3f 3d 93 00 8a 3d 7a a5 42 bc 98 9a 43 3c
       0.046848524 0.06738391 -0.011880273 0.0119387135
000370 51 64 e3 3d f4 bc 1c be 0f eb 86 3c 2f ba 04 be
       0.11103118 -0.15306455 0.016469507 -0.12961648
000380 64 8a a5 bc 5b 17 c5 bc 87 1a 03 3e 8a 13 bc bd
       -0.020207591 -0.024058988 0.12803088 -0.09183414
000390 4c 0b 10 3d 3d fe ba bd 4c ae 0e bd d1 52 d7 bb
       0.035167024 -0.09130523 -0.03483419 -0.006571152
0003a0 99 a9 2a bd 8a 2e d6 3b b4 75 85 3b c8 c8 bc bb
       -0.041665647 0.0065363096 0.004072869 -0.0057612397
0003b0 b8 0b e5 bc 45 53 aa bc c0 4c 3b 3d 50 f4 2e bc
       -0.02795969 -0.02079166 0.04572749 -0.010678366
0003c0 34 6b a2 3d 1a a1 1b bd ce 9d 0e 3e 5e 59 5d bd
       0.079306036 -0.037995435 0.13927385 -0.054040305
0003d0 b1 4f 89 bc 20 08 44 3b d1 e7 2f 3d 0e a5 09 3e
       -0.016761633 0.002991207 0.042945687 0.1344187
0003e0 bb 77 9c 3c 68 52 8b bd 16 00 a8 3d c8 e7 43 bd
       0.01910006 -0.06802827 0.082031414 -0.047828466
0003f0 f8 83 2b be df 61 88 3d ec 91 ed bc 1b 59 a5 bc
       -0.16749561 0.066592924 -0.029000245 -0.02018409

network_body._body_endoder.seq_layers.2.bias f4 [128]
000000 00 00 00 00 00 00 00 00 00 00 00 00 00 00 00 00
       0.0 0.0 0.0 0.0
000010 00 00 00 00 00 00 00 00 00 00 00 00 00 00 00 00
       0.0 0.0 0.0 0.0
000020 00 00 00 00 00 00 00 00 00 00 00 00 00 00 00 00
       0.0 0.0 0.0 0.0
000030 00 00 00 00 00 00 00 00 00 00 00 00 00 00 00 00
       0.0 0.0 0.0 0.0
000040 00 00 00 00 00 00 00 00 00 00 00 00 00 00 00 00
       0.0 0.0 0.0 0.0
000050 00 00 00 00 00 00 00 00 00 00 00 00 00 00 00 00
       0.0 0.0 0.0 0.0
000060 00 00 00 00 00 00 00 00 00 00 00 00 00 00 00 00
       0.0 0.0 0.0 0.0
000070 00 00 00 00 00 00 00 00 00 00 00 00 00 00 00 00
       0.0 0.0 0.0 0.0
000080 00 00 00 00 00 00 00 00 00 00 00 00 00 00 00 00
       0.0 0.0 0.0 0.0
000090 00 00 00 00 00 00 00 00 00 00 00 00 00 00 00 00
       0.0 0.0 0.0 0.0
0000a0 00 00 00 00 00 00 00 00 00 00 00 00 00 00 00 00
       0.0 0.0 0.0 0.0
0000b0 00 00 00 00 00 00 00 00 00 00 00 00 00 00 00 00
       0.0 0.0 0.0 0.0
0000c0 00 00 00 00 00 00 00 00 00 00 00 00 00 00 00 00
       0.0 0.0 0.0 0.0
0000d0 00 00 00 00 00 00 00 00 00 00 00 00 00 00 00 00
       0.0 0.0 0.0 0.0
0000e0 00 00 00 00 00 00 00 00 00 00 00 00 00 00 00 00
       0.0 0.0 0.0 0.0
0000f0 00 00 00 00 00 00 00 00 00 00 00 00 00 00 00 00
       0.0 0.0 0.0 0.0
000100 00 00 00 00 00 00 00 00 00 00 00 00 00 00 00 00
       0.0 0.0 0.0 0.0
000110 00 00 00 00 00 00 00 00 00 00 00 00 00 00 00 00
       0.0 0.0 0.0 0.0
000120 00 00 00 00 00 00 00 00 00 00 00 00 00 00 00 00
       0.0 0.0 0.0 0.0
000130 00 00 00 00 00 00 00 00 00 00 00 00 00 00 00 00
       0.0 0.0 0.0 0.0
000140 00 00 00 00 00 00 00 00 00 00 00 00 00 00 00 00
       0.0 0.0 0.0 0.0
000150 00 00 00 00 00 00 00 00 00 00 00 00 00 00 00 00
       0.0 0.0 0.0 0.0
000160 00 00 00 00 00 00 00 00 00 00 00 00 00 00 00 00
       0.0 0.0 0.0 0.0
000170 00 00 00 00 00 00 00 00 00 00 00 00 00 00 00 00
       0.0 0.0 0.0 0.0
000180 00 00 00 00 00 00 00 00 00 00 00 00 00 00 00 00
       0.0 0.0 0.0 0.0
000190 00 00 00 00 00 00 00 00 00 00 00 00 00 00 00 00
       0.0 0.0 0.0 0.0
0001a0 00 00 00 00 00 00 00 00 00 00 00 00 00 00 00 00
       0.0 0.0 0.0 0.0
0001b0 00 00 00 00 00 00 00 00 00 00 00 00 00 00 00 00
       0.0 0.0 0.0 0.0
0001c0 00 00 00 00 00 00 00 00 00 00 00 00 00 00 00 00
       0.0 0.0 0.0 0.0
0001d0 00 00 00 00 00 00 00 00 00 00 00 00 00 00 00 00
       0.0 0.0 0.0 0.0
0001e0 00 00 00 00 00 00 00 00 00 00 00 00 00 00 00 00
       0.0 0.0 0.0 0.0
0001f0 00 00 00 00 00 00 00 00 00 00 00 00 00 00 00 00
       0.0 0.0 0.0 0.0

value_heads.value_heads.extrinsic.weight f4 [1, 128]
000000 d6 38 1b be aa a7 34 3e e0 3a 2f bc bc a2 b5 3d
       -0.151584 0.17642084 -0.010695189 0.0886893
000010 a2 9e 1a 3e 02 cb b8 bd a4 1c c8 3d dc d2 cc bd
       0.15099576 -0.09023096 0.09771088 -0.10001156
000020 80 90 f9 bb c8 c1 10 3e e8 fb 70 3d 18 2b 2a 3d
       -0.0076161027 0.14136422 0.058833987 0.041545004
000030 9c 87 06 be 5a 15 bd bd 6a 46 43 3e 36 95 00 3e
       -0.13137668 -0.09232588 0.1906983 0.1255692
000040 4c 7b e8 3d 08 e9 98 3c a0 0a fa bb ec 69 a9 bd
       0.11351642 0.018665805 -0.007630661 -0.08272156
000050 c0 16 7f 3b be 3f 4b 3e 74 5d 37 be 20 28 4b 3d
       0.0038923472 0.19848534 -0.17906743 0.049598813
000060 da a4 20 3e c4 b7 0a 3e 26 dd 0a 3e 08 69 72 bd
       0.15687886 0.13546664 0.13560924 -0.059182197
000070 84 ab 3f 3e ac de 16 be ba 10 3a be d4 8c 98 bd
       0.18717772 -0.1473338 -0.18170443 -0.07448736
000080 e0 a8 fa bb 86 9a 2a 3e 4c b4 40 3e 34 07 59 3e
       -0.007649526 0.16660509 0.18818778 0.21194154
000090 71 14 f7 bd 24 15 34 3e 4e 62 45 3e 7e 55 2e 3e
       -0.12064446 0.1758619 0.19275782 0.170248
0000a0 46 b1 bb bd b0 26 b0 3c 4c da b4 3d 2b 78 3a be
       -0.091646716 0.021502823 0.08830699 -0.18209903
0000b0 b8 05 77 bd 04 c6 e7 3d 30 49 1c 3e 0c 04 bf bd
       -0.06030819 0.11317065 0.15262294 -0.09326944
0000c0 0c 65 15 3e c4 c9 08 3e d0 d2 b8 3d d4 0b f7 3d
       0.14589328 0.13358217 0.09024584 0.12062803
0000d0 ce c0 17 be 92 4c ec bd b1 b6 20 be 7c 4d 08 be
       -0.14819643 -0.11538042 -0.15694691 -0.13310808
0000e0 32 13 54 3e f2 e2 27 3e c0 83 e8 3d 80 96 95 ba
       0.20710447 0.16395167 0.11353254 -0.001141265
0000f0 78 89 c8 3d 22 a8 b1 bd 4c f5 8a 3d 92 04 46 be
       0.09791845 -0.08674647 0.06785068 -0.19337681
000100 c8 c4 c9 3d fe 18 1f be 7c 55 f3 3d 88 18 57 bd
       0.09851986 -0.15536878 0.11881539 -0.05251363
000110 88 8a 22 3e b2 50 92 bd 98 e4 1d 3d 34 36 fc 3d
       0.15873158 -0.07144298 0.038548082 0.12315026
000120 9c 24 4c be 00 8d 85 ba 04 97 b0 bd 38 72 bf bc
       -0.1993584 -0.0010189116 -0.08622554 -0.023369893
000130 ea c6 4e be e0 ce 9f 3d ca 4b 4d be 2c 22 d5 3d
       -0.20193067 0.0780313 -0.20048442 0.104069084
000140 a0 da ec 3b c8 5c 54 3d 78 87 4b 3e 7a a4 2a be
       0.0072282106 0.051846296 0.19875896 -0.16664305
000150 f6 c3 2f be 14 a1 02 be 28 d6 42 be 2f e0 0a be
       -0.17164597 -0.12756759 -0.19027007 -0.13562082
000160 68 f9 23 bd 60 17 cc bb 16 01 47 3e da 72 f4 bd
       -0.040032774 -0.0062283725 0.19434008 -0.11935969
000170 78 d8 1e be 60 c8 fc bc d0 e7 01 be e0 35 6f bd
       -0.15512264 -0.030857265 -0.12686086 -0.05840099
000180 c2 17 2b 3e 48 ec a4 3d f6 47 3b 3e e8 00 56 bd
       0.16708282 0.080528796 0.1828917 -0.052246958
000190 88 a6 dd 3d 1c 7c 65 bd 94 36 3f be c8 a3 ae bc
       0.10822779 -0.056026563 -0.18673164 -0.021318331
0001a0 d0 dd fc 3d 8e f7 39 3e ea d8 37 3e 6e 3c 24 be
       0.12346995 0.18160841 0.1795384 -0.16038677
0001b0 c0 03 1b 3b 14 96 1c bd 0e 22 14 3e 28 7d 89 3c
       0.0023653358 -0.038229063 0.14466116 0.016783312
0001c0 04 fc 0c be dc 64 48 3e 38 91 fc bc 40 92 1e 3b
       -0.13768011 0.19569725 -0.030830964 0.0024196059
0001d0 40 12 f2 bb 5c 58 f8 3d ba ec 49 3e c4 aa 4a bd
       -0.0073874295 0.12126228 0.1971921 -0.04947926
0001e0 fa a6 4e 3e 00 d5 71 bb 0d 8e 33 be c7 26 c0 bd
       0.20180884 -0.003690064 -0.17534657 -0.09382396
0001f0 18 09 c3 3d ac 09 01 be 20 0c 8f bc 98 bb df 3d
       0.09523219 -0.12601346 -0.017461836 0.109244525
