results/ppo/BalanceBall1/BalanceBall1-832.pt (torch, 144748 bytes, 11 tensors)

network_body._body_endoder.seq_layers.0.weight f4 [128, 1]
0	0x3fa76c90	1.3080006
1	0xbc1410af	-0.009037181
2	0x3eaa7305	0.33290878
3	0x3f36a8f1	0.71351534
4	0x3f16f9ae	0.5897473
5	0x3f9f0827	1.2424363
6	0xbd15afb3	-0.036544513
7	0x3d081f53	0.033232998
8	0xbf9a4c31	-1.2054502
9	0x3ff85ddd	1.9403645
10	0xbf626a53	-0.8844349
11	0xbff0b17a	-1.8804162
12	0xbe02749f	-0.127398
13	0xbf72f2fa	-0.94902
14	0xbf596384	-0.84917474
15	0x3e2b7707	0.16744624
16	0x3e14b96e	0.14523861
17	0x3ec5356e	0.38517326
18	0x3eca81ef	0.39552256
19	0x3f4f1dd8	0.8090491
20	0xc027f74f	-2.6244695
21	0xbf60c16c	-0.8779514
22	0x3f39071d	0.7227648
23	0x3e801b03	0.25020608
24	0xbfb1f001	-1.3901368
25	0xbd558bb6	-0.05213519
26	0xbeb094ed	-0.3448862
27	0xbcb90f5d	-0.022590334
28	0xbf2ab8f0	-0.6668844
29	0xbf9647ec	-1.1740699
30	0xbf8d102d	-1.1020561
31	0xbd6eb88c	-0.058281466
32	0xbf78c143	-0.97169894
33	0x3fea07e1	1.8283654
34	0xbfd635da	-1.6735184
35	0x3eb8bcf8	0.36081672
36	0x3ff168b7	1.8860081
37	0x3eacd5dc	0.33756912
38	0x3f0a193a	0.5394474
39	0xbf9e3856	-1.2360942
40	0xbf25cbf3	-0.64764327
41	0x3f0d8677	0.552833
42	0x3ee7dada	0.45284158
43	0xbfd24e82	-1.6430209
44	0xbf3371f3	-0.7009575
45	0xbebdc80d	-0.3706669
46	0x40124197	2.2852533
47	0xbd8ed8a0	-0.06974912
48	0x3fe97e40	1.8241653
49	0x3e8d0a2c	0.27546823
50	0xbe24a567	-0.16078721
51	0x3e1ca935	0.15298922
52	0xbdc3349c	-0.09531519
53	0x3eb0b7eb	0.34515318
54	0xbf95f547	-1.1715478
55	0xbed629e4	-0.41828835
56	0xbf35ccea	-0.710158
57	0xbf2a88ce	-0.66615
58	0xbdb6b537	-0.08921283
59	0x3f05b2cc	0.5222595
60	0x3f105af9	0.56388813
61	0xbf8bcb63	-1.0921444
62	0x3e11fa22	0.14255574
63	0xbcd90387	-0.02649094
64	0x3fd48096	1.6601741
65	0x3e9a9c25	0.30197254
66	0x3f6f39f0	0.9344778
67	0x3e56e252	0.20984772
68	0x3f00efd5	0.50365955
69	0xbf851f45	-1.0400168
70	0xbe9d836e	-0.30764335
71	0x3c70919b	0.014683153
72	0xbf41c112	-0.75685227
73	0x3f0c732c	0.5486324
74	0xbc7b9595	-0.015355487
75	0x3dce4a8b	0.10072812
76	0x3eb76a08	0.35823083
77	0xbf5a729a	-0.8533112
78	0x3f3eaf93	0.74486655
79	0x3df45b94	0.1193153
80	0xbfd436ef	-1.6579264
81	0x3f6f30de	0.9343394
82	0x3ed7e133	0.42164
83	0x3dec3377	0.11533254
84	0xbf07f0d2	-0.5310184
85	0x3ed29f6c	0.41137254
86	0xbe635d80	-0.22203636
87	0xbebc872d	-0.3682188
88	0xbf955da5	-1.1669203
89	0xbeb2d85c	-0.34930694
90	0xbf354f3d	-0.70824033
91	0x3f528272	0.82230294
92	0x3fc137ac	1.5095115
93	0x3fbff758	1.4997358
94	0x3e9ed30b	0.31020388
95	0xbf51be6c	-0.81931186
96	0x3f836d73	1.0267776
97	0x3e9bb32b	0.30410132
98	0x3f70e305	0.94096404
99	0xbe5d2e2d	-0.21599646
100	0x3e813a4c	0.2523979
101	0x3ffcd70a	1.9753125
102	0xbee3800b	-0.44433627
103	0x3ff6bcd4	1.9276376
104	0xbf97a0a7	-1.1845902
105	0x3dd04c07	0.10170751
106	0x3ffe5988	1.9871073
107	0x3fb7d8ab	1.4362997
108	0xbf7b610b	-0.9819495
109	0xbe27a420	-0.16371202
110	0x3ea762c1	0.3269253
111	0xbf0d3572	-0.55159676
112	0x3f328089	0.6972738
113	0xbde2a7a9	-0.11067135
114	0x3e948abe	0.29012102
115	0x3f2be912	0.6715251
116	0xbdd8f0e4	-0.10592821
117	0x3e864583	0.26224908
118	0xbf821e1b	-1.0165437
119	0xbf3b8237	-0.7324557
120	0xbeac45bd	-0.33646956
121	0xbf0c619a	-0.5483643
122	0x3fa43fd3	1.2831978
123	0x3f42ee18	0.7614455
124	0xbfbe5b00	-1.4871521
125	0xc00038f4	-2.0034761
126	0xbff338e8	-1.9001741
127	0xbebfa509	-0.374306

network_body._body_endoder.seq_layers.0.bias f4 [128]
0	0x00000000	0.0
1	0x00000000	0.0
2	0x00000000	0.0
3	0x00000000	0.0
4	0x00000000	0.0
5	0x00000000	0.0
6	0x00000000	0.0
7	0x00000000	0.0
8	0x00000000	0.0
9	0x00000000	0.0
10	0x00000000	0.0
11	0x00000000	0.0
12	0x00000000	0.0
13	0x00000000	0.0
14	0x00000000	0.0
15	0x00000000	0.0
16	0x00000000	0.0
17	0x00000000	0.0
18	0x00000000	0.0
19	0x00000000	0.0
20	0x00000000	0.0
21	0x00000000	0.0
22	0x00000000	0.0
23	0x00000000	0.0
24	0x00000000	0.0
25	0x00000000	0.0
26	0x00000000	0.0
27	0x00000000	0.0
28	0x00000000	0.0
29	0x00000000	0.0
30	0x00000000	0.0
31	0x00000000	0.0
32	0x00000000	0.0
33	0x00000000	0.0
34	0x00000000	0.0
35	0x00000000	0.0
36	0x00000000	0.0
37	0x00000000	0.0
38	0x00000000	0.0
39	0x00000000	0.0
40	0x00000000	0.0
41	0x00000000	0.0
42	0x00000000	0.0
43	0x00000000	0.0
44	0x00000000	0.0
45	0x00000000	0.0
46	0x00000000	0.0
47	0x00000000	0.0
48	0x00000000	0.0
49	0x00000000	0.0
50	0x00000000	0.0
51	0x00000000	0.0
52	0x00000000	0.0
53	0x00000000	0.0
54	0x00000000	0.0
55	0x00000000	0.0
56	0x00000000	0.0
57	0x00000000	0.0
58	0x00000000	0.0
59	0x00000000	0.0
60	0x00000000	0.0
61	0x00000000	0.0
62	0x00000000	0.0
63	0x00000000	0.0
64	0x00000000	0.0
65	0x00000000	0.0
66	0x00000000	0.0
67	0x00000000	0.0
68	0x00000000	0.0
69	0x00000000	0.0
70	0x00000000	0.0
71	0x00000000	0.0
72	0x00000000	0.0
73	0x00000000	0.0
74	0x00000000	0.0
75	0x00000000	0.0
76	0x00000000	0.0
77	0x00000000	0.0
78	0x00000000	0.0
79	0x00000000	0.0
80	0x00000000	0.0
81	0x00000000	0.0
82	0x00000000	0.0
83	0x00000000	0.0
84	0x00000000	0.0
85	0x00000000	0.0
86	0x00000000	0.0
87	0x00000000	0.0
88	0x00000000	0.0
89	0x00000000	0.0
90	0x00000000	0.0
91	0x00000000	0.0
92	0x00000000	0.0
93	0x00000000	0.0
94	0x00000000	0.0
95	0x00000000	0.0
96	0x00000000	0.0
97	0x00000000	0.0
98	0x00000000	0.0
99	0x00000000	0.0
100	0x00000000	0.0
101	0x00000000	0.0
102	0x00000000	0.0
103	0x00000000	0.0
104	0x00000000	0.0
105	0x00000000	0.0
106	0x00000000	0.0
107	0x00000000	0.0
108	0x00000000	0.0
109	0x00000000	0.0
110	0x00000000	0.0
111	0x00000000	0.0
112	0x00000000	0.0
113	0x00000000	0.0
114	0x00000000	0.0
115	0x00000000	0.0
116	0x00000000	0.0
117	0x00000000	0.0
118	0x00000000	0.0
119	0x00000000	0.0
120	0x00000000	0.0
121	0x00000000	0.0
122	0x00000000	0.0
123	0x00000000	0.0
124	0x00000000	0.0
125	0x00000000	0.0
126	0x00000000	0.0
127	0x00000000	0.0

network_body._body_endoder.seq_layers.2.weight f4 [128, 128]
0	0xbe2196f0	-0.15780234
1	0x3c6ab808	0.014326103
2	0xbcd2edcb	-0.025748154
3	0x3d7afa72	0.061274
4	0x3db1988f	0.08671676
5	0xbcb19dbb	-0.021681657
6	0x3e2a049e	0.16603324
7	0x3e036677	0.12832056
8	0xbdfca3da	-0.1233594
9	0x3c048ce1	0.008090229
10	0xbe01fc1e	-0.12693831
11	0xbce1d5d0	-0.027567774
12	0x3cf0cc34	0.029394247
13	0xbdd96263	-0.10614469
14	0x3e01eee5	0.12688787
15	0xbc1b739e	-0.0094880145
16	0x3d1eda75	0.038782556
17	0xbe10d947	-0.14145385
18	0xbc328506	-0.010895973
19	0xbd3cad63	-0.046063792
20	0xbcf0a064	-0.029373355
21	0x3be46b95	0.0069708326
22	0xbd5984c3	-0.053105127
23	0x3e478f2a	0.19488207
24	0x3d2b8880	0.041878223
25	0x3e25315d	0.16132112
26	0x3da99c07	0.08281713
27	0x3dda1f22	0.10650469
28	0xbcb2ce07	-0.021826757
29	0xbd6d3917	-0.057915773
30	0xbdfedbea	-0.12444289
31	0xbd359b2a	-0.04433743
32	0x3d4b3159	0.04960761
33	0x3e0e95c5	0.1392432
34	0xbdfb7eed	-0.122800685
35	0x3cce3710	0.02517274
36	0x3dc776ba	0.09739442
37	0xbd68a781	-0.05680037
38	0x3d6e8de8	0.0582408
39	0x3d875c71	0.06609429
40	0x3dadd93d	0.084887005
41	0x3e08e71c	0.13369411
42	0xbd22ceb0	-0.039747894
43	0x3d2da50c	0.04239373
44	0xbb8d2fe2	-0.0043086866
45	0xbc36eb3d	-0.011164484
46	0xbe23bb36	-0.15989384
47	0x3e08bb3b	0.13352673
48	0xbd7ce170	-0.06173843
49	0x3d53bcd4	0.051693752
50	0xbde2fa95	-0.11082951
51	0xbe012c86	-0.1261464
52	0x3e80a692	0.25127083
53	0xbc92dc6a	-0.017927367
54	0x3d0bc7df	0.03412616
55	0x3c36ce47	0.011157579
56	0xbe436e09	-0.19084944
57	0x3b63c97d	0.0034757548
58	0xbcb00850	-0.021488339
59	0x3d4720d6	0.0486153
60	0xbd0df3ef	-0.03465646
61	0xbe2682e2	-0.16260865
62	0x3de246d2	0.11048664
63	0xbccb1239	-0.024788963
64	0xbdd257d5	-0.10270659
65	0xbd807e2f	-0.062740676
66	0xbd9da04d	-0.076965906
67	0x3cdc5a4b	0.026898524
68	0xbd140c64	-0.03614463
69	0xbd1a97d1	-0.03774244
70	0x3d0bf430	0.034168422
71	0xbdf516d1	-0.119672425
72	0xbd95fa7a	-0.07323165
73	0x3d1a5fdd	0.03768908
74	0xbd7b2226	-0.061311863
75	0xbb8124ef	-0.0039411704
76	0x3dddd780	0.10832119
77	0xbe049114	-0.12945968
78	0x3db0e4ad	0.086373664
79	0xbe0bc3ca	-0.13648906
80	0xbdbc4730	-0.091932654
81	0xbd28034f	-0.04101878
82	0x3dc0dccf	0.09417116
83	0xbe0b1fb7	-0.13586317
84	0xbd8e7400	-0.06955719
85	0xbdd8f2b6	-0.105931684
86	0xbd52bf6a	-0.051452078
87	0xbe300aa1	-0.17191555
88	0x3c87acdf	0.016561924
89	0x3c6fa524	0.014626775
90	0x3dce4f17	0.10073679
91	0xbd7543db	-0.059879165
92	0x3d399ce2	0.04531563
93	0x3da903b5	0.0825266
94	0x3d499caf	0.04922169
95	0xbdd5f965	-0.10447959
96	0x3dc69aab	0.09697469
97	0x3da6fc88	0.08153635
98	0xbdac24ed	-0.084054805
99	0xbe512b3f	-0.20426653
100	0x3c757612	0.014981763
101	0x3d07a3f4	0.033115342
102	0x3ce1dec0	0.027572036
103	0x3bd5d1a7	0.0065252366
104	0xbdd9fee9	-0.106443234
105	0xbd07f7ba	-0.033195235
106	0xbd2a4b48	-0.0415757
107	0xbe03ebbb	-0.12882893
108	0x3b872618	0.004124414
109	0xbe0b9fb8	-0.13635147
110	0x3c75dc20	0.015006095
111	0xbd6005c3	-0.054692995
112	0xbdacf359	-0.084448524
113	0xbd4bc195	-0.04974516
114	0x3d98e87b	0.07466217
115	0x3d2218e4	0.03957452
116	0xbd6db3f2	-0.058032937
117	0x3dbe6b93	0.09297862
118	0xbce44e11	-0.027869256
119	0xbccbed3b	-0.024893394
120	0xbe147e03	-0.14501195
121	0xbe491126	-0.19635448
122	0xbd14bcef	-0.036312994
123	0x3d59d301	0.053179745
124	0xbbb3f4bd	-0.0054918216
125	0xbda56018	-0.08074969
126	0x3d8c4706	0.06849484
127	0x3c2c1eb7	0.01050537
128	0xbdd74ed4	-0.10513082
129	0xbd6796ce	-0.056540303
130	0x3c861104	0.016365536
131	0x3df497f5	0.11943046
132	0x3e2bdad6	0.16782698
133	0x3e138524	0.14406258
134	0xbc0c028d	-0.00854553
135	0xbcd6eb7c	-0.026235335
136	0x3d7df0f4	0.06199737
137	0x398c4f6e	0.0002676206
138	0xbdf2d24b	-0.118565165
139	0x3d15e3f5	0.03659435
140	0x3cc2672d	0.023730839
141	0x3e04b404	0.12959296
142	0xbcbba97c	-0.022907965
143	0xbdae848d	-0.08521376
144	0x3bf819ec	0.0075714495
145	0x3e07c913	0.13260297
146	0xbd7e0838	-0.062019557
147	0xbb1802d8	-0.0023195054
148	0xbdb08b07	-0.08620267
149	0x3cd73561	0.02627057
150	0xbbb1bfa9	-0.005424459
151	0xbdf03c19	-0.11730213
152	0xbd537a56	-0.05163034
153	0xbca6c703	-0.020358568
154	0xbe153848	-0.14572251
155	0xbe31aed4	-0.17351848
156	0x3d396c15	0.04526909
157	0xbddcb888	-0.10777384
158	0xbc7c316b	-0.015392642
159	0x3da46f17	0.08029001
160	0x3de92415	0.11383835
161	0x399b6111	0.00029636224
162	0xbd2deb6b	-0.04246084
163	0x3d27d218	0.040971845
164	0xbd9fddcd	-0.07805977
165	0x3c9d570b	0.019206544
166	0xbd883168	-0.066500485
167	0xbdc5d0b7	-0.0965895
168	0xbd841683	-0.06449606
169	0xbd223cfe	-0.039608948
170	0x3da8eb37	0.08247989
171	0xbc047d4f	-0.0080865165
172	0xbce365c3	-0.027758485
173	0xbdc285ec	-0.094982
174	0x3dc3fa35	0.095692076
175	0xbcac69c6	-0.02104653
176	0xbc4a000b	-0.012329112
177	0xbb3d71a0	-0.0028906837
178	0x3e29b61c	0.16573375
179	0x3dc07069	0.093964405
180	0xbc57e46d	-0.01317702
181	0x3c9fe5de	0.019518789
182	0xbd283371	-0.041064683
183	0x3dac7971	0.084216006
184	0xbc72a6bc	-0.01481026
185	0xbbd1a97a	-0.006398377
186	0x3ca30f9c	0.019904904
187	0x3ce403a4	0.027833767
188	0x3e252c0d	0.16130085
189	0xbc13d2ef	-0.009022458
190	0xbca07184	-0.019585378
191	0xbbf0f2c8	-0.0073531605
192	0x3da5b354	0.08090845
193	0xbc507a5d	-0.012724486
194	0x3dc4405a	0.095825866
195	0x3d162121	0.036652688
196	0xbc91682b	-0.017749866
197	0xbe1406ce	-0.14455721
198	0x3d7c985a	0.06166873
199	0x3d800ae9	0.06252081
200	0xbddaf1b9	-0.10690636
201	0x3d32a40a	0.04361347
202	0x3e078940	0.1323595
203	0xbc9f209c	-0.019424729
204	0x3e0344ad	0.12819166
205	0x3dcc8b7a	0.099875405
206	0x3d96a8d9	0.07356424
207	0xbdc57123	-0.0964072
208	0xbc7c46c5	-0.015397732
209	0x3d87e535	0.06635515
210	0x3c47cfe5	0.012195562
211	0xbd3f288d	-0.04666953
212	0x3d0fd2eb	0.035113256
213	0x3b972165	0.0046121352
214	0xbcdf8b52	-0.027288113
215	0x3d3f9191	0.046769682
216	0xbd9574f4	-0.07297698
217	0xbe3fc2a6	-0.18726596
218	0xbb4611f8	-0.0030223113
219	0xbcc241de	-0.023713049
220	0x3d1caa17	0.038248148
221	0x3dbd40af	0.09240853
222	0x3df005df	0.1171987
223	0xbdef4b66	-0.11684303
224	0x3d49dd0b	0.04928307
225	0x3d8ca50e	0.06867419
226	0x3c9b4faa	0.018958885
227	0x3e267444	0.1625529
228	0xbddc3c10	-0.107536435
229	0x3e14dc34	0.14537126
230	0xbd87ed3e	-0.06637047
231	0x3d4b0811	0.04956824
232	0x3d24b6c6	0.04021337
233	0x3c3735ec	0.01118229
234	0xbc9a7b73	-0.018857693
235	0x3d7f9cc0	0.062405348
236	0xbc9f84be	-0.019472476
237	0x3bb0e23d	0.0053980635
238	0x3d5596e3	0.05214585
239	0xbdcfa8c6	-0.10139613
240	0x3dc7728d	0.09738646
241	0x3cdbd48a	0.026834745
242	0xbdab7fac	-0.08373961
243	0x3d47e7e1	0.04880512
244	0x3dbb1b94	0.091361195
245	0x3d289583	0.04115821
246	0x3d0dcb7f	0.034617897
247	0x3d53bbe1	0.051692847
248	0xbdef4092	-0.11682238
249	0x3e13edec	0.14446229
250	0x3d10e9ae	0.035379104
251	0x3cdce766	0.026965808
252	0xbde00623	-0.109386705
253	0x3cd0602c	0.025436483
254	0xbe83642f	-0.25662372
255	0xbdcef412	-0.101051465

network_body._body_endoder.seq_layers.2.bias f4 [128]
0	0x00000000	0.0
1	0x00000000	0.0
2	0x00000000	0.0
3	0x00000000	0.0
4	0x00000000	0.0
5	0x00000000	0.0
6	0x00000000	0.0
7	0x00000000	0.0
8	0x00000000	0.0
9	0x00000000	0.0
10	0x00000000	0.0
11	0x00000000	0.0
12	0x00000000	0.0
13	0x00000000	0.0
14	0x00000000	0.0
15	0x00000000	0.0
16	0x00000000	0.0
17	0x00000000	0.0
18	0x00000000	0.0
19	0x00000000	0.0
20	0x00000000	0.0
21	0x00000000	0.0
22	0x00000000	0.0
23	0x00000000	0.0
24	0x00000000	0.0
25	0x00000000	0.0
26	0x00000000	0.0
27	0x00000000	0.0
28	0x00000000	0.0
29	0x00000000	0.0
30	0x00000000	0.0
31	0x00000000	0.0
32	0x00000000	0.0
33	0x00000000	0.0
34	0x00000000	0.0
35	0x00000000	0.0
36	0x00000000	0.0
37	0x00000000	0.0
38	0x00000000	0.0
39	0x00000000	0.0
40	0x00000000	0.0
41	0x00000000	0.0
42	0x00000000	0.0
43	0x00000000	0.0
44	0x00000000	0.0
45	0x00000000	0.0
46	0x00000000	0.0
47	0x00000000	0.0
48	0x00000000	0.0
49	0x00000000	0.0
50	0x00000000	0.0
51	0x00000000	0.0
52	0x00000000	0.0
53	0x00000000	0.0
54	0x00000000	0.0
55	0x00000000	0.0
56	0x00000000	0.0
57	0x00000000	0.0
58	0x00000000	0.0
59	0x00000000	0.0
60	0x00000000	0.0
61	0x00000000	0.0
62	0x00000000	0.0
63	0x00000000	0.0
64	0x00000000	0.0
65	0x00000000	0.0
66	0x00000000	0.0
67	0x00000000	0.0
68	0x00000000	0.0
69	0x00000000	0.0
70	0x00000000	0.0
71	0x00000000	0.0
72	0x00000000	0.0
73	0x00000000	0.0
74	0x00000000	0.0
75	0x00000000	0.0
76	0x00000000	0.0
77	0x00000000	0.0
78	0x00000000	0.0
79	0x00000000	0.0
80	0x00000000	0.0
81	0x00000000	0.0
82	0x00000000	0.0
83	0x00000000	0.0
84	0x00000000	0.0
85	0x00000000	0.0
86	0x00000000	0.0
87	0x00000000	0.0
88	0x00000000	0.0
89	0x00000000	0.0
90	0x00000000	0.0
91	0x00000000	0.0
92	0x00000000	0.0
93	0x00000000	0.0
94	0x00000000	0.0
95	0x00000000	0.0
96	0x00000000	0.0
97	0x00000000	0.0
98	0x00000000	0.0
99	0x00000000	0.0
100	0x00000000	0.0
101	0x00000000	0.0
102	0x00000000	0.0
103	0x00000000	0.0
104	0x00000000	0.0
105	0x00000000	0.0
106	0x00000000	0.0
107	0x00000000	0.0
108	0x00000000	0.0
109	0x00000000	0.0
110	0x00000000	0.0
111	0x00000000	0.0
112	0x00000000	0.0
113	0x00000000	0.0
114	0x00000000	0.0
115	0x00000000	0.0
116	0x00000000	0.0
117	0x00000000	0.0
118	0x00000000	0.0
119	0x00000000	0.0
120	0x00000000	0.0
121	0x00000000	0.0
122	0x00000000	0.0
123	0x00000000	0.0
124	0x00000000	0.0
125	0x00000000	0.0
126	0x00000000	0.0
127	0x00000000	0.0

action_model._discrete_distribution.branches.0.weight f4 [3, 128]
0	0xbc017016	-0.0079002585
1	0xbbecf603	-0.0072314753
2	0x3b3973a5	0.002829769
3	0x3c89ba33	0.01681242
4	0xbc20d047	-0.009815282
5	0x3c93649f	0.017992316
6	0xbb0f5a93	-0.0021874055
7	0xbc273eed	-0.010207874
8	0xbc198bf3	-0.009371745
9	0x3bd0d7c3	0.006373377
10	0xbbe6cddd	-0.007043584
11	0x3ba4e3a2	0.0050320188
12	0xbba4f1f4	-0.005033726
13	0xba72d94d	-0.0009263948
14	0xbbbdd733	-0.005793476
15	0xbb076a0e	-0.0020662579
16	0x3c6dc7e2	0.014512988
17	0xbc17a784	-0.009256247
18	0x3c07678b	0.008264433
19	0xbaee798b	-0.0018194182
20	0xbc1c4089	-0.009536871
21	0xbc0b6d56	-0.008509954
22	0xbc5c7a07	-0.013456828
23	0x3c0fae89	0.00876964
24	0x3c69aa42	0.014261784
25	0xbb187d23	-0.0023267947
26	0x3c563673	0.013074505
27	0xbba5317a	-0.0050412985
28	0x3b0d68df	0.00215774
29	0x3af22b85	0.0018476105
30	0xbaa919b6	-0.0012901339
31	0xb8f398b7	-0.00011615588
32	0xbc3a5d10	-0.011374727
33	0x3b78810d	0.0037918717
34	0x3c22fcea	0.009947995
35	0x3b9073bf	0.0044083293
36	0xbab52eb7	-0.0013823126
37	0xb982a5ab	-0.00024918964
38	0xbb113c5f	-0.0022161228
39	0x3b9ec37e	0.004845082
40	0xbbe3b8f8	-0.00694954
41	0xbc3e0293	-0.011597293
42	0x3bc4fa36	0.006011273
43	0x3c015274	0.0078931935
44	0x3b812e40	0.003942281
45	0xbc3a5db7	-0.011374882
46	0x3b840d0b	0.004029875
47	0x3c740e70	0.01489602
48	0xbc4e0262	-0.01257381
49	0x3b8a2713	0.004216084
50	0xbc3d159e	-0.0115407985
51	0xbaa371e3	-0.0012469854
52	0x3afdec5b	0.0019372808
53	0xbb1adeed	-0.002363141
54	0xbbb8ee5e	-0.00564365
55	0x3c035c2b	0.00801758
56	0x3c50d6c7	0.012746519
57	0x3c8dda44	0.017315991
58	0x3b05e4e4	0.002043062
59	0x3b71d2a8	0.0036899243
60	0xbc1432f7	-0.009045354
61	0x39318255	0.00016928588
62	0x3a9bfd93	0.0011901133
63	0xbc71d3c7	-0.014759964
64	0xbc2c9003	-0.010532382
65	0xbc3c7419	-0.011502289
66	0xbc381a38	-0.01123672
67	0x3bb135bb	0.0054080165
68	0x3c18e347	0.009331531
69	0xbb2c6f02	-0.0026311283
70	0xbafcf34a	-0.001929858
71	0x3b812495	0.0039411285
72	0xbabccc84	-0.0014404212
73	0xbc387a46	-0.011259621
74	0x3bb923b1	0.0056500067
75	0x3be0b337	0.0068573016
76	0xbc0ffe90	-0.00878872
77	0xbc1d4e06	-0.009601122
78	0xbc8a7523	-0.016901558
79	0xbc1a7d91	-0.009429351
80	0x3b94b8a2	0.0045386115
81	0xbc3035b7	-0.010754994
82	0xbb499379	-0.0030758067
83	0x3b14d30b	0.00227088
84	0xbbd0ed05	-0.006375911
85	0xbca9d323	-0.02073056
86	0xb836cfd8	-4.358575e-05
87	0xbc35f63d	-0.011106071
88	0xbc7950e2	-0.015217038
89	0xbb065f68	-0.0020503644
90	0x3b9a9756	0.0047177477
91	0xbaaf9e97	-0.0013398704
92	0xbb603a2f	-0.0034214368
93	0xbb22562b	-0.0024770598
94	0xbc20f63d	-0.009824333
95	0xba1ad861	-0.0005906877
96	0x3ba5f88f	0.005065031
97	0xbb2f8c2a	-0.0026786425
98	0xbbacd40a	-0.0052743005
99	0xbb1de5a7	-0.0024093182
100	0xbb9c65db	-0.0047728843
101	0x3b0166d3	0.0019745126
102	0x3be5a693	0.0070083826
103	0x3b1fe355	0.0024396975
104	0x39800f82	0.00024425617
105	0x3c6e02dd	0.01452705
106	0x3c2aca2b	0.010424177
107	0x3be07010	0.0068492964
108	0x3b86e25b	0.004116339
109	0x3c0661a8	0.008201994
110	0x3af102e3	0.0018387701
111	0xbb8b6c9f	-0.004254892
112	0x3b68d40d	0.0035526783
113	0x3c24ef7d	0.010066864
114	0x3a23548e	0.0006230556
115	0xba0701ea	-0.00051501265
116	0x3c2ae017	0.010429404
117	0xbc085414	-0.008320827
118	0x3bb6c6e4	0.005577909
119	0xbc63b735	-0.01389866
120	0x3c0fa2ef	0.008766874
121	0xba5ea40d	-0.00084930734
122	0xbc659f63	-0.014015052
123	0x3c254ca3	0.010089072
124	0x3b1558ac	0.0022788448
125	0x3b6a8235	0.0035783176
126	0xbc3f3437	-0.011670164
127	0x3a3fac78	0.00073117716
128	0x3b848ec0	0.0040453374
129	0xb8e0733a	-0.00010702615
130	0x3c93d729	0.018046932
131	0xbbcf5b72	-0.00632804
132	0x3c0ca663	0.008584592
133	0xbc1a330b	-0.009411584
134	0x3bfadeb2	0.007655942
135	0xbc0c103d	-0.008548793
136	0xbc3af5f2	-0.011411177
137	0xbbbf1c7a	-0.005832252
138	0x3becf8d7	0.0072318125
139	0x3b912a49	0.0044300896
140	0xbad15b57	-0.0015972656
141	0xbb9694fd	-0.0045953975
142	0x3c7d1d50	0.015448883
143	0xbbdec17f	-0.006797969
144	0x3b9b5c15	0.0047412016
145	0x3baf75f7	0.0053546387
146	0xbc1d4de4	-0.00960109
147	0xbc0ca883	-0.008585098
148	0xba3f238d	-0.0007291369
149	0xba630990	-0.0008660788
150	0x3cb9eb61	0.022695245
151	0x3ba8e097	0.0051537263
152	0x3c30443c	0.010758456
153	0xbc3a7396	-0.011380097
154	0x3c37061f	0.011170893
155	0x3c365f5b	0.011131133
156	0xbc0c40ba	-0.008560354
157	0xbc5385f3	-0.012910354
158	0xbb935279	-0.0044959155
159	0x3c53a473	0.012917626
160	0xba972b4a	-0.0011533287
161	0x3b2b0de5	0.002610081
162	0xbb36e6f5	-0.0027908657
163	0xbc2a4d86	-0.01039446
164	0xbbd4a462	-0.0064893225
165	0x3bbb1a1f	0.005709901
166	0xbb69810d	-0.0035629899
167	0xbb443bee	-0.0029942947
168	0xbc9d1667	-0.019175721
169	0xbbe55cdd	-0.0069995956
170	0xbc0e0c62	-0.0086699445
171	0x3908feae	0.00013064846
172	0xba68479d	-0.0008860769
173	0xbac9097f	-0.0015337913
174	0x3b855f29	0.004070182
175	0x3bacfa9f	0.0052789
176	0x3b4f851f	0.003166504
177	0x3c9752a6	0.018472027
178	0x3c22dabe	0.0099398475
179	0xb99e0909	-0.0003014284
180	0x3bb0bd03	0.0053936257
181	0x3b82878b	0.003983443
182	0x3b6e3680	0.0036348403
183	0xbbf7945b	-0.007555527
184	0x3c1377ff	0.009000777
185	0x38ca09ed	9.6339594e-05
186	0xbbecf91d	-0.007231845
187	0x3be5065a	0.0069892826
188	0xbc541ad3	-0.0129458485
189	0x3ca8e9b9	0.02061926
190	0x3be304cf	0.0069280635
191	0x3c5e4cbd	0.0135681005
192	0xbc2aec13	-0.010432261
193	0x3bf343ed	0.007423869
194	0xbbd808ad	-0.006592831
195	0xbbde5eba	-0.0067861946
196	0x3bc189ad	0.005906305
197	0x3c493b4a	0.012282202
198	0x3b9d43cb	0.0047993413
199	0x3af8c98f	0.0018980968
200	0x3c25904b	0.010105203
201	0xbacd2c93	-0.0015653543
202	0x3bf86fd7	0.0075816917
203	0x3ac33570	0.0014893245
204	0x3bcac221	0.0061876928
205	0x3b73a553	0.0037177398
206	0x3c33b52f	0.0109684905
207	0xb8746217	-5.8265487e-05
208	0x3c4915be	0.01227325
209	0x3c3f2783	0.011667135
210	0x3b95c8bc	0.0045710485
211	0xbc126e98	-0.0089375
212	0x3b33f968	0.002746189
213	0x3a587c6d	0.0008258287
214	0x3984ded5	0.00025343025
215	0xbc3c7d98	-0.011504553
216	0x3b91e0e7	0.0044518593
217	0x3b04b792	0.0020251018
218	0xbbb36c57	-0.0054755616
219	0xbc52cde3	-0.01286647
220	0x3bfbb865	0.0076818937
221	0x3bd1070a	0.006379013
222	0x3c743287	0.014904625
223	0x3a3d0df2	0.0007211856
224	0xbb9f84ad	-0.004868111
225	0x3c1fe85e	0.0097599905
226	0x3c1052e7	0.008808828
227	0xbba45602	-0.0050151357
228	0xbb8aa65b	-0.004231257
229	0x3bd5adcf	0.0065209637
230	0x3b151cb1	0.0022752697
231	0x3b9f0308	0.0048526563
232	0xbc0d036a	-0.008606771
233	0xbb76dd22	-0.0037668427
234	0x3c2d9b32	0.0105960835
235	0xbc2c4664	-0.010514829
236	0xba98420b	-0.0011616362
237	0xbbc4b8d7	-0.00600348
238	0x3b5ff06d	0.0034170405
239	0x3bc3ee78	0.0059793554
240	0x3ab39982	0.0013702365
241	0xbb5777f8	-0.0032877903
242	0x3b9bd823	0.00475599
243	0xbc11002f	-0.008850141
244	0x3b517d3d	0.0031965517
245	0xbbd25062	-0.006418274
246	0xbb090f93	-0.0020913824
247	0x3ad2f332	0.0016094206
248	0xbb7e930d	-0.0038844973
249	0xbc48ff72	-0.012267934
250	0xbbd2d4ad	-0.0064340443
251	0x3c38ca08	0.011278637
252	0x3b413a13	0.0029484078
253	0xbbff102b	-0.00778391
254	0xbbd9b473	-0.0066438257
255	0x3bca7402	0.00617838

action_model._discrete_distribution.branches.0.bias f4 [3]
0	0x00000000	0.0
1	0x00000000	0.0
2	0x00000000	0.0

network_body._body_endoder.seq_layers.0.weight f4 [128, 1]
0	0xc001043c	-2.0158834
1	0xbfc8e72a	-1.5695546
2	0xbf6c2ee4	-0.9225905
3	0xbf21a94e	-0.63148963
4	0x3f81e9a1	1.0149423
5	0x3f34c801	0.7061768
6	0x3f078816	0.52942026
7	0x3ea55a73	0.3229557
8	0x3f113264	0.56717515
9	0xbf2a9d48	-0.6664624
10	0xbf7bb5a4	-0.98324037
11	0xbe9576df	-0.29192254
12	0xbfff8bbd	-1.996452
13	0x3ea70d8b	0.3262752
14	0xbfadbe43	-1.3573688
15	0xbf81c795	-1.0139033
16	0xbfbc0efc	-1.4692073
17	0xbf5c6f8f	-0.86107725
18	0x3f077357	0.5291037
19	0x3fa874c0	1.3160629
20	0x3fb577e0	1.4177208
21	0xbea284d5	-0.31741968
22	0xbe293572	-0.16524294
23	0x3f418a90	0.75602055
24	0x3f402690	0.7505884
25	0x3f26d2a1	0.65165144
26	0xbd35f09c	-0.044418916
27	0xc0071943	-2.1109169
28	0xbf9780f8	-1.1836233
29	0xbf53133d	-0.8245123
30	0xbeaa2de7	-0.33238146
31	0xbe2da562	-0.1695762
32	0x402b992a	2.6812234
33	0xbf67e33e	-0.9058112
34	0xbf5b665e	-0.85703075
35	0x3f27a543	0.65486544
36	0x3fda9eb9	1.7079688
37	0x3d16a4a0	0.036778092
38	0xbfa4223f	-1.2822951
39	0x3f3405c7	0.70321316
40	0x3dd048e5	0.101701535
41	0xbe3fceb1	-0.1873119
42	0xbfdf808f	-1.7461108
43	0xbf921e4f	-1.14155
44	0xbfba470d	-1.4552933
45	0x3eb80ae0	0.35945797
46	0xbfbd39a2	-1.4783213
47	0xbec38e30	-0.38194418
48	0xbfa4759f	-1.2848395
49	0xbfa5d5aa	-1.295583
50	0xbf3aa24a	-0.72903883
51	0xbfd4dc49	-1.6629726
52	0xbf570bd9	-0.84002453
53	0xbe3104ad	-0.1728694
54	0x3f5f9a18	0.87344503
55	0x3e8035b6	0.25040978
56	0x3f22dd97	0.6361937
57	0x3e74249e	0.23842093
58	0x3dc42209	0.09576804
59	0xbf8d9c3b	-1.1063303
60	0x3ee78f2b	0.45226416
61	0x3fb72093	1.4306816
62	0xbf58aae8	-0.8463578
63	0xbf34215a	-0.7036339
64	0x3ef27d08	0.47361016
65	0xbf9e0756	-1.2345989
66	0x3f21f05f	0.632574
67	0x3f491974	0.78554463
68	0xbecf1c5c	-0.40451324
69	0x3dac4160	0.08410907
70	0x3f14c271	0.58109194
71	0x3f34d7ba	0.7064167
72	0x3f67b72b	0.9051387
73	0xbf73ee73	-0.9528572
74	0xbfbd61d8	-1.4795485
75	0x3e2362a1	0.15955593
76	0xbff57063	-1.9174923
77	0xbf813f18	-1.009738
78	0xbe75bd67	-0.23998033
79	0xbfe3b099	-1.7788268
80	0x3f621525	0.88313514
81	0xbfaeca19	-1.3655425
82	0x3e79210c	0.24329013
83	0xbf7e61d9	-0.99368054
84	0xbf904e88	-1.1273966
85	0x3f8b1151	1.086466
86	0xbda40b82	-0.080100074
87	0xbfc3284f	-1.5246676
88	0x3f940ef7	1.1567067
89	0xbf102603	-0.56308
90	0x3f95023a	1.1641304
91	0xbfd20652	-1.6408179
92	0x3f5063a3	0.81402034
93	0xbe86aef6	-0.2630536
94	0x3e4aaa79	0.19791593
95	0x3f1cbf92	0.61229813
96	0xbe3e3498	-0.1857475
97	0xbfe21b62	-1.7664607
98	0xbf72b8ad	-0.9481304
99	0x3f11513a	0.56764567
100	0xbdf6d70e	-0.12052737
101	0xbf34e0b5	-0.70655376
102	0xbf69b8e4	-0.91297746
103	0xbddd135b	-0.107947074
104	0x3f366e7b	0.7126233
105	0x3e95a364	0.2922622
106	0xbf321daa	-0.69576514
107	0xc00fde62	-2.2479482
108	0xbe1ed575	-0.15511115
109	0xbed0f1b3	-0.40809402
110	0x3f34eb01	0.7067109
111	0x3ed270dd	0.41101733
112	0xbfbbb9da	-1.4666092
113	0x3ec4bcda	0.38425332
114	0xbf128889	-0.57239586
115	0xbfb19953	-1.3874916
116	0xbf520a49	-0.82046944
117	0xbf538fb7	-0.82641166
118	0x3f43ef15	0.76536685
119	0xbf8470e7	-1.0346955
120	0xbf5aa260	-0.85404015
121	0x3f220d3b	0.6330144
122	0xbee8a9e6	-0.45442122
123	0x3d05f2ca	0.032702245
124	0xbdc896af	-0.097943656
125	0xbf59ddcb	-0.85104054
126	0xbe3b9142	-0.1831713
127	0x3e65055c	0.22365326

network_body._body_endoder.seq_layers.0.bias f4 [128]
0	0x00000000	0.0
1	0x00000000	0.0
2	0x00000000	0.0
3	0x00000000	0.0
4	0x00000000	0.0
5	0x00000000	0.0
6	0x00000000	0.0
7	0x00000000	0.0
8	0x00000000	0.0
9	0x00000000	0.0
10	0x00000000	0.0
11	0x00000000	0.0
12	0x00000000	0.0
13	0x00000000	0.0
14	0x00000000	0.0
15	0x00000000	0.0
16	0x00000000	0.0
17	0x00000000	0.0
18	0x00000000	0.0
19	0x00000000	0.0
20	0x00000000	0.0
21	0x00000000	0.0
22	0x00000000	0.0
23	0x00000000	0.0
24	0x00000000	0.0
25	0x00000000	0.0
26	0x00000000	0.0
27	0x00000000	0.0
28	0x00000000	0.0
29	0x00000000	0.0
30	0x00000000	0.0
31	0x00000000	0.0
32	0x00000000	0.0
33	0x00000000	0.0
34	0x00000000	0.0
35	0x00000000	0.0
36	0x00000000	0.0
37	0x00000000	0.0
38	0x00000000	0.0
39	0x00000000	0.0
40	0x00000000	0.0
41	0x00000000	0.0
42	0x00000000	0.0
43	0x00000000	0.0
44	0x00000000	0.0
45	0x00000000	0.0
46	0x00000000	0.0
47	0x00000000	0.0
48	0x00000000	0.0
49	0x00000000	0.0
50	0x00000000	0.0
51	0x00000000	0.0
52	0x00000000	0.0
53	0x00000000	0.0
54	0x00000000	0.0
55	0x00000000	0.0
56	0x00000000	0.0
57	0x00000000	0.0
58	0x00000000	0.0
59	0x00000000	0.0
60	0x00000000	0.0
61	0x00000000	0.0
62	0x00000000	0.0
63	0x00000000	0.0
64	0x00000000	0.0
65	0x00000000	0.0
66	0x00000000	0.0
67	0x00000000	0.0
68	0x00000000	0.0
69	0x00000000	0.0
70	0x00000000	0.0
71	0x00000000	0.0
72	0x00000000	0.0
73	0x00000000	0.0
74	0x00000000	0.0
75	0x00000000	0.0
76	0x00000000	0.0
77	0x00000000	0.0
78	0x00000000	0.0
79	0x00000000	0.0
80	0x00000000	0.0
81	0x00000000	0.0
82	0x00000000	0.0
83	0x00000000	0.0
84	0x00000000	0.0
85	0x00000000	0.0
86	0x00000000	0.0
87	0x00000000	0.0
88	0x00000000	0.0
89	0x00000000	0.0
90	0x00000000	0.0
91	0x00000000	0.0
92	0x00000000	0.0
93	0x00000000	0.0
94	0x00000000	0.0
95	0x00000000	0.0
96	0x00000000	0.0
97	0x00000000	0.0
98	0x00000000	0.0
99	0x00000000	0.0
100	0x00000000	0.0
101	0x00000000	0.0
102	0x00000000	0.0
103	0x00000000	0.0
104	0x00000000	0.0
105	0x00000000	0.0
106	0x00000000	0.0
107	0x00000000	0.0
108	0x00000000	0.0
109	0x00000000	0.0
110	0x00000000	0.0
111	0x00000000	0.0
112	0x00000000	0.0
113	0x00000000	0.0
114	0x00000000	0.0
115	0x00000000	0.0
116	0x00000000	0.0
117	0x00000000	0.0
118	0x00000000	0.0
119	0x00000000	0.0
120	0x00000000	0.0
121	0x00000000	0.0
122	0x00000000	0.0
123	0x00000000	0.0
124	0x00000000	0.0
125	0x00000000	0.0
126	0x00000000	0.0
127	0x00000000	0.0

network_body._body_endoder.seq_layers.2.weight f4 [128, 128]
0	0x3df5e689	0.12006862
1	0x3c62925b	0.013828839
2	0xb9f7747e	-0.00047198305
3	0xbdbe12c5	-0.09280924
4	0xbd829956	-0.06376903
5	0x3e02916c	0.12750787
6	0xbde9c59f	-0.11414646
7	0xbda15aca	-0.07878645
8	0xbbfbe0fc	-0.0076867323
9	0xbd8a6dd1	-0.06759227
10	0xbe382fbb	-0.17986958
11	0xbd3993c9	-0.045306955
12	0x3da0b1d8	0.07846421
13	0xbd591674	-0.05299993
14	0xbd1bd58f	-0.038045462
15	0xbdecd0ac	-0.115632385
16	0x3d6d8c92	0.057995386
17	0xbd8037f6	-0.06260674
18	0x3c64898d	0.01394881
19	0xbd8286c9	-0.063733645
20	0xbd38ad08	-0.04508689
21	0x3d786a4b	0.060648244
22	0xbbf83d99	-0.0075757024
23	0x3d0c1a24	0.034204617
24	0x3d6e2fdc	0.05815111
25	0x3e618525	0.22023447
26	0xbdad65bd	-0.08466671
27	0xbdc6bf62	-0.09704472
28	0xbda30667	-0.079602055
29	0x3e095c83	0.13414197
30	0xbd76fcff	-0.06029987
31	0xbe28deac	-0.16491193
32	0x3e15c22b	0.1462485
33	0xbb5f63ca	-0.0034086579
34	0x3e05cb4e	0.13065836
35	0xbda1a435	-0.07892648
36	0xbc0bcd81	-0.008532883
37	0x3cf08ae1	0.029363098
38	0xbc5de57c	-0.013543483
39	0xbc173c2b	-0.009230654
40	0xbaeec97f	-0.001821801
41	0x3e089e97	0.13341747
42	0xbd25aaac	-0.04044597
43	0xbce3dc52	-0.027815018
44	0x3d00db23	0.031458985
45	0xbe515ed3	-0.20446329
46	0x3e40561f	0.18782853
47	0x3b3bbed1	0.002864767
48	0x3d9d2592	0.076731816
49	0x3c570b21	0.013125212
50	0x3d845b0e	0.0646268
51	0xbabe49f0	-0.0014517885
52	0x3d55fda1	0.052243832
53	0x3cd94972	0.02652428
54	0x3dbef0a1	0.0932324
55	0x3cb60f57	0.022224111
56	0xbe16644e	-0.146867
57	0xbda70922	-0.08156039
58	0x3d683284	0.0566888
59	0x3db7b331	0.08969725
60	0x3e56eaa7	0.2098795
61	0x3d5b117a	0.053483464
62	0x3d3fef93	0.046859335
63	0xbd6d527d	-0.057939995
64	0x3db9bd2c	0.09069285
65	0x3cfcfd56	0.030882519
66	0xbda2a876	-0.079422876
67	0x3e1327b3	0.14370613
68	0xbe3332fa	-0.17499915
69	0xbdd05945	-0.10173277
70	0x3bbfa376	0.0058483435
71	0xbd860286	-0.0654345
72	0xbc9ce420	-0.019151747
73	0x3d897086	0.06710915
74	0xbde5cb0d	-0.112203695
75	0x3dc9416b	0.098269306
76	0x3df75e1d	0.120784976
77	0xbe04915b	-0.12946074
78	0x3dd46e81	0.103726394
79	0x3d45a401	0.04825211
80	0x3d6b7a37	0.0574896
81	0x3d005b84	0.031337276
82	0x3c27cc80	0.010241628
83	0x3e549e73	0.20763569
84	0x3c8061d0	0.01567164
85	0x3e41e97c	0.18936723
86	0xbd5dfb5f	-0.054194804
87	0xbae01a0f	-0.001709761
88	0xbd5ec8d8	-0.05439076
89	0xbdc4f164	-0.09616354
90	0xbdaec6ac	-0.085339874
91	0xbd98fdd4	-0.07470289
92	0x3d9d70bb	0.07687517
93	0x3dc5fe6e	0.09667669
94	0x3dd97e52	0.10619797
95	0x3d00f366	0.031482123
96	0x3cfebf16	0.031096976
97	0xbd87bae2	-0.06627442
98	0x3e374a45	0.17899425
99	0xbd661553	-0.05617268
100	0x3d4bd0aa	0.049759544
101	0x3e2d9eba	0.1695508
102	0x3e3b77e6	0.18307456
103	0xbd3df6b4	-0.046377853
104	0xbcae2419	-0.021257447
105	0x3db1c88c	0.086808294
106	0xbe0461af	-0.12927888
107	0x3d6cdfd3	0.057830643
108	0xbc1f37e8	-0.009717919
109	0x3caebb9c	0.021329693
110	0x3dfb1aab	0.12260946
111	0xbcee5781	-0.02909446
112	0xbe1bfb57	-0.15232597
113	0xbda7787a	-0.08177276
114	0x3d0ac55f	0.033879634
115	0x3c0805e0	0.008302182
116	0x3ca7b46a	0.02047177
117	0x3c14360f	0.009046092
118	0xbd861f94	-0.06548992
119	0xbb7d6483	-0.0038664646
120	0x3db95f58	0.090513885
121	0x3e107c28	0.14109862
122	0x3b4a22b0	0.003084343
123	0xbd6d7f76	-0.057982884
124	0xbd195ab1	-0.037440006
125	0xbc899045	-0.016792426
126	0x3d5df776	0.054191075
127	0xbd2d6ffe	-0.042343132
128	0xbd38e634	-0.045141414
129	0xbcce3bdf	-0.025175033
130	0x3e23bf08	0.15990841
131	0xbe1417dc	-0.14462227
132	0x3dd672fe	0.10471152
133	0xbbeaaa77	-0.0071614343
134	0x3d829490	0.06375992
135	0xbe110d84	-0.14165312
136	0x3d09fce3	0.033688437
137	0x3d1282fa	0.03576944
138	0x3d30316d	0.043015886
139	0x3d59c9e9	0.053171072
140	0x3ce1708d	0.027519489
141	0x3e047d83	0.12938504
142	0xbdf35995	-0.11882321
143	0xbde2508b	-0.110505186
144	0xbcb69525	-0.022287915
145	0x3c58dbfb	0.013236041
146	0xbd01b97e	-0.03167104
147	0x3da68a1c	0.08131811
148	0xbc92f761	-0.017940225
149	0xbcfb467b	-0.030673256
150	0x3e1cf2cd	0.15326996
151	0xbd89d1fa	-0.06729503
152	0x3d9be1dc	0.07611439
153	0x3df0e976	0.11763279
154	0x3d3d7200	0.046251297
155	0x3cd10b3a	0.025518049
156	0xbc2a4073	-0.010391342
157	0xbdd5bc94	-0.10436359
158	0xbda5577a	-0.080733255
159	0xbbf2ed83	-0.0074135675
160	0xbe17b758	-0.14816034
161	0x3e06883a	0.13137904
162	0x3dbbc3dc	0.091682166
163	0xbce2da19	-0.027691888
164	0x3d8651c7	0.065585665
165	0xbd0b7e83	-0.034056198
166	0xbc8a7ddc	-0.016905718
167	0xbd975c3b	-0.073906384
168	0x3ddd4e5b	0.10805961
169	0xbc40bbf0	-0.011763558
170	0x3d252369	0.040316973
171	0xba511d6a	-0.00079771003
172	0x3d86fad2	0.06590809
173	0x3d8496b7	0.06474059
174	0x3dd3d915	0.103441395
175	0x3daadd18	0.083429515
176	0xbd24d09f	-0.04023802
177	0xbc004bed	-0.007830602
178	0xbdbbc1c5	-0.09167818
179	0x3e529b69	0.20567097
180	0xbd439b9e	-0.04775583
181	0x3dbe8a1a	0.093036845
182	0xbceab86a	-0.028652389
183	0x3c39cb5b	0.011339988
184	0x3c56af5c	0.013103332
185	0xbd9119cf	-0.07085001
186	0xbd68cd5a	-0.056836464
187	0x3c563f32	0.01307659
188	0x3ca70673	0.020388817
189	0x3db51316	0.08841531
190	0x3bd9f8aa	0.0066519575
191	0x3d73ecd6	0.059552036
192	0xbe657ec6	-0.22411641
193	0xbd84d2ca	-0.06485517
194	0xbd0d6167	-0.03451672
195	0x3dc437d2	0.095809594
196	0xbbb31f0b	-0.005466347
197	0x3e1ff022	0.15618947
198	0xbd42d681	-0.047567848
199	0x3c86fc58	0.016477749
200	0x3dea66b4	0.1144537
201	0xbc7f7b48	-0.015593357
202	0x3ca3bbba	0.019986976
203	0x3b38efe7	0.0028219165
204	0xbcf18e25	-0.029486725
205	0xbd05ed03	-0.032696735
206	0x3e266f4f	0.16253398
207	0x3d6900d3	0.05688555
208	0xbe09f987	-0.13474093
209	0xbdf3dee0	-0.119077444
210	0xbdee5d66	-0.11638908
211	0xbcac3924	-0.02102334
212	0xbd11e98d	-0.035623122
213	0x3b8e64f2	0.0043455297
214	0x3c5118a9	0.012762227
215	0x3cd33253	0.025780832
216	0x3d7d4ae4	0.061839
217	0x3d784863	0.06061591
218	0xbde2c1ae	-0.11072098
219	0xbd4fea60	-0.050760627
220	0x3d45e0c8	0.04831007
221	0xbdbfd49c	-0.09366724
222	0xbcb48c6d	-0.022039616
223	0xbcadecec	-0.021231137
224	0x3d034c31	0.032055084
225	0xbc4b8486	-0.012421733
226	0x3deeb976	0.116564676
227	0x3cc87046	0.024467599
228	0x3ac2aec6	0.0014853112
229	0x3d84727b	0.06467148
230	0x3d2b2479	0.04178283
231	0x3d1b0993	0.037850928
232	0x3c84a71c	0.016192965
233	0x3abd799d	0.0014455799
234	0x3db50c34	0.08840218
235	0xbd57cf21	-0.052687768
236	0x3c590e0a	0.013247976
237	0xbe13fae1	-0.14451171
238	0x3bd73f77	0.006568845
239	0xbc6267ec	-0.013818722
240	0xbdc94a97	-0.0982868
241	0x3d87b09d	0.06625483
242	0xbd90ff19	-0.07079906
243	0xbd61d94c	-0.05513887
244	0x3d4b21a2	0.04959262
245	0xbbc20413	-0.005920896
246	0xbd82531d	-0.06363509
247	0xbde7590c	-0.11296281
248	0x3a88eae4	0.001044598
249	0xbcc2e41b	-0.02379041
250	0x3c65b3e9	0.014019945
251	0xbe32029e	-0.17383811
252	0x3d1581f5	0.03650089
253	0x3e0f9c73	0.14024524
254	0xbdc9451c	-0.09827635
255	0x3b1e8405	0.0024187576

network_body._body_endoder.seq_layers.2.bias f4 [128]
0	0x00000000	0.0
1	0x00000000	0.0
2	0x00000000	0.0
3	0x00000000	0.0
4	0x00000000	0.0
5	0x00000000	0.0
6	0x00000000	0.0
7	0x00000000	0.0
8	0x00000000	0.0
9	0x00000000	0.0
10	0x00000000	0.0
11	0x00000000	0.0
12	0x00000000	0.0
13	0x00000000	0.0
14	0x00000000	0.0
15	0x00000000	0.0
16	0x00000000	0.0
17	0x00000000	0.0
18	0x00000000	0.0
19	0x00000000	0.0
20	0x00000000	0.0
21	0x00000000	0.0
22	0x00000000	0.0
23	0x00000000	0.0
24	0x00000000	0.0
25	0x00000000	0.0
26	0x00000000	0.0
27	0x00000000	0.0
28	0x00000000	0.0
29	0x00000000	0.0
30	0x00000000	0.0
31	0x00000000	0.0
32	0x00000000	0.0
33	0x00000000	0.0
34	0x00000000	0.0
35	0x00000000	0.0
36	0x00000000	0.0
37	0x00000000	0.0
38	0x00000000	0.0
39	0x00000000	0.0
40	0x00000000	0.0
41	0x00000000	0.0
42	0x00000000	0.0
43	0x00000000	0.0
44	0x00000000	0.0
45	0x00000000	0.0
46	0x00000000	0.0
47	0x00000000	0.0
48	0x00000000	0.0
49	0x00000000	0.0
50	0x00000000	0.0
51	0x00000000	0.0
52	0x00000000	0.0
53	0x00000000	0.0
54	0x00000000	0.0
55	0x00000000	0.0
56	0x00000000	0.0
57	0x00000000	0.0
58	0x00000000	0.0
59	0x00000000	0.0
60	0x00000000	0.0
61	0x00000000	0.0
62	0x00000000	0.0
63	0x00000000	0.0
64	0x00000000	0.0
65	0x00000000	0.0
66	0x00000000	0.0
67	0x00000000	0.0
68	0x00000000	0.0
69	0x00000000	0.0
70	0x00000000	0.0
71	0x00000000	0.0
72	0x00000000	0.0
73	0x00000000	0.0
74	0x00000000	0.0
75	0x00000000	0.0
76	0x00000000	0.0
77	0x00000000	0.0
78	0x00000000	0.0
79	0x00000000	0.0
80	0x00000000	0.0
81	0x00000000	0.0
82	0x00000000	0.0
83	0x00000000	0.0
84	0x00000000	0.0
85	0x00000000	0.0
86	0x00000000	0.0
87	0x00000000	0.0
88	0x00000000	0.0
89	0x00000000	0.0
90	0x00000000	0.0
91	0x00000000	0.0
92	0x00000000	0.0
93	0x00000000	0.0
94	0x00000000	0.0
95	0x00000000	0.0
96	0x00000000	0.0
97	0x00000000	0.0
98	0x00000000	0.0
99	0x00000000	0.0
100	0x00000000	0.0
101	0x00000000	0.0
102	0x00000000	0.0
103	0x00000000	0.0
104	0x00000000	0.0
105	0x00000000	0.0
106	0x00000000	0.0
107	0x00000000	0.0
108	0x00000000	0.0
109	0x00000000	0.0
110	0x00000000	0.0
111	0x00000000	0.0
112	0x00000000	0.0
113	0x00000000	0.0
114	0x00000000	0.0
115	0x00000000	0.0
116	0x00000000	0.0
117	0x00000000	0.0
118	0x00000000	0.0
119	0x00000000	0.0
120	0x00000000	0.0
121	0x00000000	0.0
122	0x00000000	0.0
123	0x00000000	0.0
124	0x00000000	0.0
125	0x00000000	0.0
126	0x00000000	0.0
127	0x00000000	0.0

value_heads.value_heads.extrinsic.weight f4 [1, 128]
0	0x3c7a4bf0	0.015276894
1	0xbd07e000	-0.033172607
2	0x3df70630	0.12061727
3	0x3e5b331a	0.21406212
4	0xbce69120	-0.028145373
5	0x3d3efed8	0.046629757
6	0xbcbadb50	-0.022809654
7	0x3e070462	0.13185266
8	0x3e0643de	0.13111827
9	0xbe406718	-0.18789327
10	0x3d07bbcc	0.03313808
11	0xbc580fc0	-0.013187349
12	0xbdec72f2	-0.115453616
13	0x3e436d70	0.19084716
14	0xbc882918	-0.016621158
15	0x3e38f4c2	0.18062118
16	0x3d62a428	0.055332333
17	0xbdc01f1f	-0.09380936
18	0x3d8e3b88	0.069449484
19	0x3e08c318	0.13355672
20	0xbd3f0adc	-0.046641216
21	0xbe4c134d	-0.19929238
22	0x3c5c48e0	0.013445109
23	0x3e218124	0.1577192
24	0x3d91324c	0.070896715
25	0xbd6fc7b8	-0.058540076
26	0x3dbe6a1c	0.092975825
27	0x3d88a544	0.06672147
28	0x3e43dd46	0.19127378
29	0x3e432c70	0.1905992
30	0xbdbefbf9	-0.09325404
31	0xbe22a491	-0.1588309
32	0x3e4b7322	0.19868138
33	0xbe1ed6ae	-0.15511581
34	0x3c49d1f0	0.012318119
35	0x3e01af4e	0.1266453
36	0x3cadcae0	0.021214902
37	0xbe29e1ff	-0.16590117
38	0xbe341b59	-0.17588557
39	0xbdab20bc	-0.08355853
40	0xbe426cd5	-0.18986829
41	0xbdef14ea	-0.11673911
42	0x3bfa9c00	0.007647991
43	0xbe5986cd	-0.21242829
44	0xbdbe19b3	-0.092822455
45	0x3de5d428	0.11222106
46	0xbe53f3d0	-0.20698476
47	0x3e3d13a0	0.18464518
48	0x3dc8e6d8	0.09809655
49	0xbdd54327	-0.10413199
50	0xbe3e2746	-0.18569669
51	0x3dba74bc	0.091042966
52	0x3ce8ec08	0.028432861
53	0x3cde4d68	0.02713652
54	0x3ddd9d50	0.108210206
55	0x3c1effc0	0.00970453
56	0x3e08c890	0.13357759
57	0x3cee4b50	0.029088646
58	0xbe192e68	-0.14959109
59	0xbdc1fc41	-0.09471942
60	0x3d573b10	0.05254656
61	0xbe359d97	-0.17735897
62	0xbc2d05a0	-0.010560423
63	0x3ca989c8	0.020695582
64	0xbe0babfc	-0.13639826
65	0x3d068e28	0.032850415
66	0x3c851df8	0.016249642
67	0x3e4d1afc	0.20029825
68	0x3d8c65b8	0.06855339
69	0x3e138808	0.1440736
70	0xbe27235c	-0.16322082
71	0xbe2e5eb4	-0.17028314
72	0x3c830b00	0.015996456
73	0xbe436203	-0.19080357
74	0xbe504166	-0.20337448
75	0xbe2da98a	-0.16959205
76	0xbe2eb2ba	-0.17060366
77	0xbd1acc4c	-0.03779249
78	0x3ddc2000	0.10748291
79	0xbddf5493	-0.10904803
80	0xbd10dc0c	-0.035366103
81	0x3d742028	0.05960098
82	0xbe2127b8	-0.15737808
83	0xbdb57f2a	-0.08862145
84	0x3e39304a	0.18084827
85	0xbc962cc0	-0.018331885
86	0xbdf13f0d	-0.11779604
87	0xbe36aa83	-0.17838483
88	0xbe489f48	-0.19592011
89	0xbe35539c	-0.17707676
90	0xbe2d7fc8	-0.16943276
91	0xbd966f66	-0.07345466
92	0x3e10caac	0.14139813
93	0xbe205488	-0.15657246
94	0x3e35cfd8	0.17755067
95	0xbd475a60	-0.048670173
96	0xbe3f4e8c	-0.18682307
97	0xbe3e84de	-0.18605372
98	0xbe0db342	-0.13837913
99	0x3e0e2dec	0.13884705
100	0xbe48de8a	-0.19616142
101	0x3e3254ae	0.17415115
102	0x3e268716	0.16262469
103	0xbdced3af	-0.10098969
104	0xbdffb871	-0.12486351
105	0xbd40e2a0	-0.047091126
106	0x3d7e5990	0.062097132
107	0xbd93cc94	-0.072167546
108	0xbdb5d03c	-0.08877608
109	0x3e0061ce	0.1253731
110	0xbe0d6500	-0.1380806
111	0x3da46c18	0.0802843
112	0x3e52b2b8	0.20575988
113	0x3d7b2728	0.06131664
114	0xbe0ef090	-0.13958955
115	0xbddd2b53	-0.10799279
116	0x3d03337c	0.03203152
117	0xbe21b98d	-0.15793438
118	0xbdb3e016	-0.087829754
119	0x3de11dc8	0.109920084
120	0xbe5aac68	-0.2135483
121	0xbde483e6	-0.1115797
122	0x3e173e3a	0.14769831
123	0x3dd2da9c	0.10295603
124	0xbe0cd63c	-0.13753599
125	0x3cfcf290	0.030877382
126	0x3e13a8ca	0.14419857
127	0x3e512464	0.20424038
