results/ppo/BalanceBall1/BalanceBall1-0.pt (torch, 160062 bytes, 11 tensors)

network_body._body_endoder.seq_layers.0.weight f4 [128, 16]
000000 80 93 eb be f9 4a 26 3d b7 1c b2 3e 60 f5 bc 3d
       -0.4601097 0.040598843 0.34787533 0.09226489
000010 ad 44 3b 3e 27 ad 5f bd 48 dc 81 be 07 5f 33 3e
       0.18287916 -0.05460849 -0.25363374 0.17516719
000020 66 41 3c be 48 58 1d be a2 d2 83 3e 4d 34 d9 3e
       -0.18384323 -0.15365708 0.25746638 0.42422715
000030 8a ff 8f 3e 5e f8 83 bd 34 3a 8c be 7e 85 c6 bd
       0.28124648 -0.06443857 -0.27388155 -0.0969343
000040 a6 49 36 be fc 0c 1b bf ce 65 95 3c a4 6f fb 3c
       -0.17801532 -0.6056669 0.01823702 0.030692883
000050 6a 7e 50 be 6e ce 2e be 50 4f 98 be 0c 1f fa 3e
       -0.20360723 -0.17070934 -0.2974801 0.48851812
000060 04 75 31 3f 59 e8 2c 3e 8d ed 7d 3d ac 89 cd 3d
       0.69319177 0.16885509 0.061994124 0.100360245
000070 9e 97 c1 bc 9f 32 6a bc 55 19 22 bd d9 ca 01 bf
       -0.023631867 -0.014294296 -0.03957494 -0.50700146
000080 3a 62 92 3e 78 47 8e bd 02 1b 28 be 89 08 ec be
       0.28590566 -0.06947225 -0.16416553 -0.46100262
000090 0f 00 f4 3d 6f d9 d2 3c 4a 05 b7 3d 27 94 22 3e
       0.11914074 0.025738446 0.08936556 0.15876828
0000a0 e5 89 bd bd f4 49 a6 bc 1e df 83 be e1 78 13 be
       -0.09254817 -0.020298935 -0.25756162 -0.1440158
0000b0 5f 5d cb bc 36 8f 29 3d 27 d3 db bd 48 a3 1d bf
       -0.024824796 0.041396342 -0.107336335 -0.6157727
0000c0 2c 0c 1a 3e ba 41 bb bc f2 37 0c be 4e 26 0c 3f
       0.15043706 -0.02285849 -0.13693216 0.5474595
0000d0 13 6c 82 bc 58 05 4a 3e ef 6b 61 bd 22 62 80 3c
       -0.015920674 0.19728601 -0.055034574 0.015671793
0000e0 98 1e e7 3d 84 68 1d 3e b5 85 1c 3d ad cf 2d 3e
       0.11285132 0.15371901 0.03821345 0.16973753
0000f0 9b 2c 9b 3e 07 b3 0b bf 1f 9e a3 3e 0b 1e 94 bd
       0.3030747 -0.5457005 0.31956574 -0.07232293
000100 63 d3 a3 3e 5d 4a 70 3e 0d 59 cb 3d f9 67 32 be
       0.31997213 0.23465867 0.099290945 -0.17422475
000110 11 48 f4 3d 16 8a af be 06 04 b6 be ba e6 28 bd
       0.11927808 -0.3428504 -0.35549945 -0.041235663
000120 34 c9 24 3e 42 54 6c be 2c 0b c8 be 9b ab 93 bd
       0.16092378 -0.23079017 -0.39071023 -0.072104655
000130 58 75 ec be 6c 33 2e 3e 2f 86 8e 3e e8 a6 82 3e
       -0.46183276 0.17011803 0.2783675 0.25517964
000140 5d 18 7f be f4 1f 6b 3e fb 60 a8 3c 50 60 49 be
       -0.24911638 0.22961408 0.020554056 -0.19665647
000150 67 d2 8b 3e f1 80 f5 be 6b 5e a6 3c 2c 15 49 3e
       0.27308962 -0.47949937 0.020308694 0.19636983
000160 52 42 3d bd c2 ab 31 3c 71 15 12 bc d4 87 73 bd
       -0.046205826 0.010844173 -0.008916245 -0.059455708
000170 ef b5 db be f0 6a b7 3d 76 2c 86 bc 24 e6 73 be
       -0.42912242 0.089559436 -0.016378623 -0.2381826
000180 aa 18 a6 3b 9b 5a 50 3e 6e 9a e5 be c3 00 a7 be
       0.005068858 0.20347063 -0.44844383 -0.3261777
000190 57 7b d5 3d 52 26 a7 be ef 88 f2 be 9f 8e 09 3d
       0.10423916 -0.32646424 -0.47370097 0.03358328
0001a0 74 28 e9 bd 71 ac 11 3e 64 78 ee bd 54 7a 30 bd
       -0.11384669 0.14225937 -0.116440564 -0.04308541
0001b0 dd b3 9d 3d 43 21 bf 39 e1 70 0a 3d ac c2 48 3e
       0.07700322 0.0003645514 0.033799056 0.19605511
0001c0 04 99 96 3c d7 0b 78 be 20 f3 53 bd 4c 19 fe 3e
       0.01838351 -0.24223267 -0.051745534 0.49628675
0001d0 c8 04 00 be fd d2 51 3e bd bb 28 3c 6c 8d 59 3d
       -0.12501824 0.20490642 0.010298667 0.053113386
0001e0 08 23 5b 3e 54 36 21 3e 8d 64 d4 3d 14 ea fa be
       0.21400082 0.15743381 0.10370741 -0.49006712
0001f0 f1 6a c8 bb bd d1 b6 bd ec 24 ae 3c eb c5 4c bb
       -0.006116264 -0.08926723 0.02125784 -0.0031245898
000200 91 da 5f 3e 45 d9 b7 3e a2 da 5b be 3a e0 c4 be
       0.2186072 0.3590795 -0.2147012 -0.3845232
000210 ed bc ff 3d 3b 71 37 be 86 04 61 bc 65 6f 40 3d
       0.124872066 -0.17914288 -0.013733989 0.046981234
000220 85 7f 0b 3e 2a 58 85 3d 33 1c 01 bf 27 91 f6 3c
       0.13622864 0.065109566 -0.50433654 0.03009851
000230 09 99 97 bd 52 ad c7 3e dc e7 c0 3e 3f 38 62 be
       -0.07402236 0.3899942 0.37676895 -0.22091769
000240 65 90 8b 3d 1d 81 28 be df a3 f3 3c ab 19 c4 bd
       0.068146504 -0.16455503 0.029741226 -0.09575208
000250 9f 77 e3 bd 5b a9 05 3e 39 e2 e0 3c e5 14 19 be
       -0.111068 0.13052885 0.027451621 -0.14949377
000260 d8 7e 48 3d e7 6f 6b be 97 7a 09 3f c3 31 1b bd
       0.048949093 -0.22991906 0.5370268 -0.037889253
000270 16 ec 12 be d2 b7 b6 3b 8a c3 c3 be 48 ef 9a bc
       -0.14347872 0.0055761123 -0.38235122 -0.018912926
000280 a5 4b e4 bc 6a 1a 17 3d 9d 27 bd 3d e9 2a 84 be
       -0.027868101 0.036890425 0.09236071 -0.25813988
000290 9b 52 1b 3e 73 28 81 3e 94 f1 bf 3e 2d b9 1c 3d
       0.1516823 0.25226173 0.37488997 0.038262535
0002a0 f4 94 71 bd 9b e2 33 be 9b 09 f0 3e 4a 2c 42 3e
       -0.058979943 -0.17566912 0.46882328 0.18962207
0002b0 85 3f 7b be 2c 2c d3 be 2c c2 7d 3d 78 cf 13 be
       -0.2453595 -0.41244638 0.061952755 -0.14434612
0002c0 73 a7 0b 3f 6f 99 69 be 2a 70 00 be de ce 03 bd
       0.5455238 -0.22812437 -0.12542787 -0.032179706
0002d0 16 71 12 3e 7a e2 d9 bc bc b8 6f be 44 47 0e bf
       0.14300951 -0.02659725 -0.23410314 -0.5557749
0002e0 38 55 42 3e df a7 ba be 73 80 86 be c8 03 c4 bd
       0.18977821 -0.364562 -0.26269874 -0.09571034
0002f0 74 1f 45 3e 07 64 c1 3e a9 16 a5 be d8 27 71 3d
       0.1925028 0.37771627 -0.3224385 0.05887589
000300 a8 2b 8d bd 79 47 d7 3e c1 6f a9 3e 8d 18 cd bd
       -0.068930924 0.42046717 0.33093074 -0.10014448
000310 2f 4c 1d 3e 20 71 b4 3d 4c 7a fb 3d 54 9e b9 be
       0.15361093 0.088106394 0.12279186 -0.36253607
000320 54 e3 06 3e 7c 44 8c 3d d8 b4 80 3e cd df 49 be
       0.13172656 0.06849 0.25137973 -0.1971428
000330 6e 34 30 3e f0 b7 de 3d 49 7b 9d 3e 69 d1 7c 3e
       0.172075 0.10874927 0.30758122 0.24689259
000340 ae 4f 90 be 7a a0 8c 3c b9 a8 f1 be ee 79 42 3e
       -0.2818579 0.017166365 -0.47199038 0.18991825
000350 26 d9 1b be 00 3e 74 3c 30 23 6e be 65 5c 31 3e
       -0.15219554 0.01490736 -0.2325561 0.17320402
000360 fb 52 3d 3f c7 ff b0 be 04 54 84 bc e4 6c 15 3f
       0.73954743 -0.34570143 -0.016153343 0.5836928
000370 5e af 35 3c b2 fc 96 bd f8 52 b7 be 99 ae 30 3f
       0.011089174 -0.073724166 -0.35805488 0.69016415
000380 cc 56 15 bf 51 b8 ed be c2 91 5b 3e 28 3a a2 be
       -0.58335567 -0.46429685 0.21442321 -0.31684995
000390 82 17 90 be 3c 97 43 be 5a 1a ee bd 5f 3c f4 bd
       -0.28142935 -0.1910066 -0.1162612 -0.11925577
0003a0 00 e0 7d be 7d a4 03 bf ab d0 93 3e 5c 8f 9e be
       -0.2479248 -0.51422864 0.2887014 -0.3096875
0003b0 57 8f 3d 3c b2 32 4a 3d ae 87 82 bd ff 33 80 be
       0.011569819 0.049364753 -0.06373535 -0.2503967
0003c0 21 a0 41 be 1f e1 a8 bd 74 9f 59 3e 4e 03 c8 3e
       -0.1890874 -0.082460634 0.21252233 0.3906502
0003d0 dc a8 10 3d 78 1e 73 be 49 6e a1 3e 18 f5 7a 3e
       0.035317287 -0.23742092 0.31529453 0.24507558
0003e0 b7 10 ea 3d 25 88 09 bd d6 cc a3 be d0 5d a2 bd
       0.11428969 -0.033577103 -0.31992215 -0.079280496
0003f0 1b d5 e8 bc 48 95 72 bd 60 fb 5a bd 6c d9 a0 3e
       -0.02842193 -0.059224397 -0.053462386 0.3141588

network_body._body_endoder.seq_layers.0.bias f4 [128]
000000 00 00 00 00 00 00 00 00 00 00 00 00 00 00 00 00
       0.0 0.0 0.0 0.0
000010 00 00 00 00 00 00 00 00 00 00 00 00 00 00 00 00
       0.0 0.0 0.0 0.0
000020 00 00 00 00 00 00 00 00 00 00 00 00 00 00 00 00
       0.0 0.0 0.0 0.0
000030 00 00 00 00 00 00 00 00 00 00 00 00 00 00 00 00
       0.0 0.0 0.0 0.0
000040 00 00 00 00 00 00 00 00 00 00 00 00 00 00 00 00
       0.0 0.0 0.0 0.0
000050 00 00 00 00 00 00 00 00 00 00 00 00 00 00 00 00
       0.0 0.0 0.0 0.0
000060 00 00 00 00 00 00 00 00 00 00 00 00 00 00 00 00
       0.0 0.0 0.0 0.0
000070 00 00 00 00 00 00 00 00 00 00 00 00 00 00 00 00
       0.0 0.0 0.0 0.0
000080 00 00 00 00 00 00 00 00 00 00 00 00 00 00 00 00
       0.0 0.0 0.0 0.0
000090 00 00 00 00 00 00 00 00 00 00 00 00 00 00 00 00
       0.0 0.0 0.0 0.0
0000a0 00 00 00 00 00 00 00 00 00 00 00 00 00 00 00 00
       0.0 0.0 0.0 0.0
0000b0 00 00 00 00 00 00 00 00 00 00 00 00 00 00 00 00
       0.0 0.0 0.0 0.0
0000c0 00 00 00 00 00 00 00 00 00 00 00 00 00 00 00 00
       0.0 0.0 0.0 0.0
0000d0 00 00 00 00 00 00 00 00 00 00 00 00 00 00 00 00
       0.0 0.0 0.0 0.0
0000e0 00 00 00 00 00 00 00 00 00 00 00 00 00 00 00 00
       0.0 0.0 0.0 0.0
0000f0 00 00 00 00 00 00 00 00 00 00 00 00 00 00 00 00
       0.0 0.0 0.0 0.0
000100 00 00 00 00 00 00 00 00 00 00 00 00 00 00 00 00
       0.0 0.0 0.0 0.0
000110 00 00 00 00 00 00 00 00 00 00 00 00 00 00 00 00
       0.0 0.0 0.0 0.0
000120 00 00 00 00 00 00 00 00 00 00 00 00 00 00 00 00
       0.0 0.0 0.0 0.0
000130 00 00 00 00 00 00 00 00 00 00 00 00 00 00 00 00
       0.0 0.0 0.0 0.0
000140 00 00 00 00 00 00 00 00 00 00 00 00 00 00 00 00
       0.0 0.0 0.0 0.0
000150 00 00 00 00 00 00 00 00 00 00 00 00 00 00 00 00
       0.0 0.0 0.0 0.0
000160 00 00 00 00 00 00 00 00 00 00 00 00 00 00 00 00
       0.0 0.0 0.0 0.0
000170 00 00 00 00 00 00 00 00 00 00 00 00 00 00 00 00
       0.0 0.0 0.0 0.0
000180 00 00 00 00 00 00 00 00 00 00 00 00 00 00 00 00
       0.0 0.0 0.0 0.0
000190 00 00 00 00 00 00 00 00 00 00 00 00 00 00 00 00
       0.0 0.0 0.0 0.0
0001a0 00 00 00 00 00 00 00 00 00 00 00 00 00 00 00 00
       0.0 0.0 0.0 0.0
0001b0 00 00 00 00 00 00 00 00 00 00 00 00 00 00 00 00
       0.0 0.0 0.0 0.0
0001c0 00 00 00 00 00 00 00 00 00 00 00 00 00 00 00 00
       0.0 0.0 0.0 0.0
0001d0 00 00 00 00 00 00 00 00 00 00 00 00 00 00 00 00
       0.0 0.0 0.0 0.0
0001e0 00 00 00 00 00 00 00 00 00 00 00 00 00 00 00 00
       0.0 0.0 0.0 0.0
0001f0 00 00 00 00 00 00 00 00 00 00 00 00 00 00 00 00
       0.0 0.0 0.0 0.0

network_body._body_endoder.seq_layers.2.weight f4 [128, 128]
000000 75 9b 47 bd 7d d4 25 be ba 71 9e 3d b5 a9 61 be
       -0.04873224 -0.16194339 0.07736535 -0.22037394
000010 80 bf 65 3e 0e 46 4b bd ab 05 5a bd a6 6b 41 bd
       0.22436333 -0.049627356 -0.05322806 -0.047221802
000020 df 6f 19 3e 7a f8 0f 3e 45 38 05 be 19 54 62 bd
       0.14984082 0.1405963 -0.13009746 -0.055255983
000030 79 56 3e bd 76 df 57 bb 6a 4b 29 bd 04 7f 56 be
       -0.046469186 -0.003293959 -0.041331686 -0.2094689
000040 29 48 53 bd 46 25 aa bd 42 26 a5 3d 56 d2 a7 bd
       -0.05158249 -0.083078906 0.08063938 -0.08194415
000050 1c 65 0a 3c a5 1f a1 3b a6 9a 55 bd cd d4 4f be
       0.008446958 0.0049171024 -0.052149437 -0.20296021
000060 93 86 c5 3d 86 5c 81 3c fb 20 62 bd 8b 61 d2 bd
       0.096448086 0.015791189 -0.055207234 -0.10272511
000070 0e cf 37 bd f8 88 1c bd 58 a1 27 bd b5 2a ed bd
       -0.044875197 -0.03821656 -0.040925354 -0.11580411
000080 89 1b 87 3c f1 9d 8e 3c 81 0c 41 bb c1 11 76 3d
       0.016492622 0.017409297 -0.0029456916 0.060075525
000090 ec ab fb bd 10 c0 1c be 18 a5 48 bc 76 a1 51 bd
       -0.12288651 -0.15307641 -0.012246393 -0.05117937
0000a0 a3 59 d2 bd f6 da 98 bd c2 0b 09 be c5 dd 2a be
       -0.10271003 -0.074636385 -0.13383391 -0.16686161
0000b0 4a 40 64 bd 3a b3 aa 3d d9 a2 53 3c 20 85 83 bd
       -0.055725373 0.08334966 0.012917244 -0.06421876
0000c0 20 5d c5 3d 0d 79 d4 3d 63 26 04 bd 4e 38 d7 3d
       0.09636903 0.10374651 -0.03226317 0.10508786
0000d0 f9 69 d1 bb 6c 37 25 be a3 87 a7 3d 21 db 1a bd
       -0.0063908068 -0.16134423 0.081801675 -0.037806634
0000e0 eb 88 2a be 60 3a 9f bd 07 ff 60 3d 11 d8 20 3e
       -0.16653793 -0.07774806 0.054930713 0.15707423
0000f0 27 b0 83 bd 17 21 b5 3d 89 a3 79 3b 4a d6 c7 3d
       -0.06430083 0.08844202 0.003809186 0.09757669
000100 6d cd a0 bd 9d 12 98 3d 51 e6 0d be 91 65 14 3d
       -0.07851682 0.07425425 -0.1385739 0.036229674
000110 c6 5e 27 3d 21 26 18 bd 9e 66 2c 3d 1f 4a b4 bb
       0.040861867 -0.037145738 0.04209005 -0.005502
000120 fa 77 f2 bc 92 43 0b be f2 6b 22 bd d3 54 21 be
       -0.029598225 -0.13599995 -0.039653726 -0.15755014
000130 a1 aa 0c bd 98 af ed bd 66 39 30 be 03 ee a4 3d
       -0.034342412 -0.116057575 -0.17209396 0.0805321
000140 60 16 79 bd e4 5d 3d bd 2b 09 8b 3d 17 06 99 bd
       -0.060812354 -0.04623212 0.06788858 -0.07471865
000150 24 88 6f bc ea 94 18 bd 49 6f 0b be 84 a1 c0 bb
       -0.014619861 -0.03725139 -0.1361667 -0.005878629
000160 f7 fb 1e 3e 6e 1f 13 3d 36 bf 4a bd 09 34 a5 3d
       0.15525804 0.035918646 -0.04949876 0.080665655
000170 69 1f 84 bd 0a d9 74 bd 21 bf 24 3e 5f 7d ed 3c
       -0.064513035 -0.059777297 0.16088535 0.028990446
000180 e3 a3 6a bd 3e eb 1d bd 93 c8 ca bd 99 6a 63 3d
       -0.0572852 -0.038554423 -0.09901538 0.05552158
000190 2d 99 03 be 37 a8 4f 3d 21 61 f7 bb db 34 4d 3e
       -0.128514 0.05069753 -0.0075494205 0.20039694
0001a0 d0 41 ae bc 3e e9 15 3e f5 c8 05 be 2c aa 58 3d
       -0.021271616 0.14639756 -0.1306494 0.052896664
0001b0 94 6f 32 be 8b e2 18 3d 3a ce fb 3d 59 61 04 be
       -0.17425376 0.037325423 0.12295194 -0.1292776
0001c0 97 0a b4 bc d0 39 1b 3d 51 91 b9 3d f7 b4 8e bc
       -0.021977706 0.03789693 0.0906092 -0.017420275
0001d0 8e 6c 5a bc ea 22 f0 3b 5f 3d 83 bd 23 59 13 be
       -0.0133315455 0.007328381 -0.0640819 -0.14389472
0001e0 83 ca e5 3d 19 9c 7c bd 61 e9 2a bd a3 7c c0 3d
       0.11220267 -0.061672304 -0.041726474 0.093987726
0001f0 34 d5 ee bd d9 59 f7 3d a3 37 83 3d 2a 1e 56 3d
       -0.11661759 0.12077684 0.06407096 0.05227486
000200 a8 17 c0 bd bc 36 92 3c 8c b9 7c bd 5c 20 fb ba
       -0.09379512 0.017848365 -0.06170039 -0.0019159424
000210 10 a0 25 bd d9 99 83 3d d3 82 e7 3c 06 62 66 bd
       -0.04043585 0.064258285 0.028260624 -0.056245826
000220 ca 4a f4 3c 97 3b 30 3e e0 a5 8a bd 90 cc 4d 3d
       0.029820818 0.17210232 -0.067699194 0.050243914
000230 61 75 26 bd 7d 6d 29 3d e8 9e 9e bd f9 90 26 bd
       -0.040639285 0.04136418 -0.07745153 -0.0406656
000240 8a 62 1f be 26 14 cd bc c1 55 02 3e 16 4a c6 3b
       -0.15564933 -0.025034022 0.12728025 0.006051312
000250 55 92 32 3d 82 53 7d 3d 54 e7 83 3d 00 0f 05 3e
       0.043596584 0.061847217 0.06440607 0.12994003
000260 01 63 2b 3d b8 41 c3 3c 82 56 9e bd ba 17 5a 3e
       0.041842464 0.023835048 -0.07731344 0.21298113
000270 be eb f5 3c 13 c4 cd bc a0 1f 32 be a6 12 c2 bc
       0.030019637 -0.02511791 -0.17394876 -0.023690533
000280 64 51 fd 3d 13 0f 1e be de b3 e7 3c f5 dc 47 bd
       0.1236904 -0.15435438 0.02828401 -0.048794705
000290 3d ae 5c bc 24 16 5b 3d 81 db bd bc 99 da 1a bd
       -0.013469276 0.05348791 -0.023175957 -0.037806127
0002a0 ed fe 79 bc 60 f9 72 3c 93 ac b0 bd 32 a0 80 bd
       -0.015258533 0.014829963 -0.08626666 -0.06280555
0002b0 e2 07 63 bd 3e de 98 bd f1 86 32 bd 1c fa 35 bd
       -0.05542744 -0.07464264 -0.04358572 -0.044427976
0002c0 84 f4 4e 3d 7a f7 8c 3d b8 1e 27 be 40 05 42 bd
       0.050526157 0.0688314 -0.16320312 -0.047368288
0002d0 a2 c8 1e bd 36 cc 35 3d cd dd 2e bd c5 eb 84 3d
       -0.038765557 0.044384204 -0.042691994 0.06490282
0002e0 f2 27 4b bd 6e b6 ba bd 5d 9f 39 3c 15 39 b5 3d
       -0.04959864 -0.09116827 0.011329499 0.08848778
0002f0 62 11 ec bd c0 d8 03 3e 20 03 8e be 44 c6 09 bd
       -0.11526753 0.12875652 -0.2773676 -0.033636346
000300 f8 4f 5e 3d 0c ee df 3c b4 b0 35 3d 7d 1f 44 3b
       0.054275483 0.02733519 0.04435797 0.0029925995
000310 0e cc 9b 3b d5 05 b7 3b 68 03 8c bd 89 7d d8 bd
       0.00475455 0.005585412 -0.06836587 -0.10570819
000320 d9 10 df 3d 71 e2 13 be be ea ad 3d fb 54 f3 3d
       0.10891885 -0.1444185 0.08492039 0.11881443
000330 16 59 58 3d a3 91 a7 3c 45 bc 8f bc 84 36 27 3c
       0.052819334 0.020455187 -0.017545829 0.010205869
000340 e3 f1 96 3d 42 a9 13 3e 7c 37 98 bd 88 a5 90 bd
       0.07370355 0.14420035 -0.07432458 -0.070628226
000350 27 84 8e ba 22 45 9b 3c c9 42 32 3b 5f 1b 54 3c
       -0.0010873125 0.018953864 0.0027200452 0.012945979
000360 de 51 9f 3d d6 10 ac 3d e5 f1 42 bc f3 77 21 3e
       0.07779287 0.08401649 -0.011898492 0.15768413
000370 c3 37 c8 3c 5a 4e d4 bd c2 b4 c3 bd e7 c6 f6 3c
       0.024440652 -0.10366507 -0.09555961 0.03012414
000380 9e 62 00 bd 75 95 1a be 8d db a7 3d 32 2e 3a 3d
       -0.03134405 -0.15096076 0.08196173 0.04545421
000390 af 53 c4 3d f1 40 a3 3c 13 42 18 bd e9 8c 6b bb
       0.09586274 0.019928427 -0.03717239 -0.0035942143
0003a0 18 f9 43 3d 1f 76 2a 3e 48 8f 8e bd f9 0d 08 bd
       0.047844976 0.16646622 -0.069609225 -0.03321645
0003b0 0c 4c 20 bd c8 58 cd bb 7b df e5 bc 3c 49 39 3d
       -0.039135024 -0.006266687 -0.028060665 0.045235857
0003c0 07 e8 f9 bc db 8c 0b bd ef 6e 16 be 6a b9 81 bc
       -0.030506147 -0.034069877 -0.14690755 -0.015835483
0003d0 28 03 89 3d 9e 1d 86 bc 98 8c bc 3c 11 5e ed bd
       0.06690055 -0.016371544 0.02301626 -0.11590207
0003e0 4c 4f d6 bd 59 fc 91 3d 95 2c fd 3b 97 59 13 be
       -0.104643434 0.071282096 0.007726262 -0.14389645
0003f0 64 64 d5 bc da cf 91 bd 5e 3f 1e 3d 88 0a 8b bc
       -0.026048847 -0.07119723 0.03863465 -0.016972795

network_body._body_endoder.seq_layers.2.bias f4 [128]
000000 00 00 00 00 00 00 00 00 00 00 00 00 00 00 00 00
       0.0 0.0 0.0 0.0
000010 00 00 00 00 00 00 00 00 00 00 00 00 00 00 00 00
       0.0 0.0 0.0 0.0
000020 00 00 00 00 00 00 00 00 00 00 00 00 00 00 00 00
       0.0 0.0 0.0 0.0
000030 00 00 00 00 00 00 00 00 00 00 00 00 00 00 00 00
       0.0 0.0 0.0 0.0
000040 00 00 00 00 00 00 00 00 00 00 00 00 00 00 00 00
       0.0 0.0 0.0 0.0
000050 00 00 00 00 00 00 00 00 00 00 00 00 00 00 00 00
       0.0 0.0 0.0 0.0
000060 00 00 00 00 00 00 00 00 00 00 00 00 00 00 00 00
       0.0 0.0 0.0 0.0
000070 00 00 00 00 00 00 00 00 00 00 00 00 00 00 00 00
       0.0 0.0 0.0 0.0
000080 00 00 00 00 00 00 00 00 00 00 00 00 00 00 00 00
       0.0 0.0 0.0 0.0
000090 00 00 00 00 00 00 00 00 00 00 00 00 00 00 00 00
       0.0 0.0 0.0 0.0
0000a0 00 00 00 00 00 00 00 00 00 00 00 00 00 00 00 00
       0.0 0.0 0.0 0.0
0000b0 00 00 00 00 00 00 00 00 00 00 00 00 00 00 00 00
       0.0 0.0 0.0 0.0
0000c0 00 00 00 00 00 00 00 00 00 00 00 00 00 00 00 00
       0.0 0.0 0.0 0.0
0000d0 00 00 00 00 00 00 00 00 00 00 00 00 00 00 00 00
       0.0 0.0 0.0 0.0
0000e0 00 00 00 00 00 00 00 00 00 00 00 00 00 00 00 00
       0.0 0.0 0.0 0.0
0000f0 00 00 00 00 00 00 00 00 00 00 00 00 00 00 00 00
       0.0 0.0 0.0 0.0
000100 00 00 00 00 00 00 00 00 00 00 00 00 00 00 00 00
       0.0 0.0 0.0 0.0
000110 00 00 00 00 00 00 00 00 00 00 00 00 00 00 00 00
       0.0 0.0 0.0 0.0
000120 00 00 00 00 00 00 00 00 00 00 00 00 00 00 00 00
       0.0 0.0 0.0 0.0
000130 00 00 00 00 00 00 00 00 00 00 00 00 00 00 00 00
       0.0 0.0 0.0 0.0
000140 00 00 00 00 00 00 00 00 00 00 00 00 00 00 00 00
       0.0 0.0 0.0 0.0
000150 00 00 00 00 00 00 00 00 00 00 00 00 00 00 00 00
       0.0 0.0 0.0 0.0
000160 00 00 00 00 00 00 00 00 00 00 00 00 00 00 00 00
       0.0 0.0 0.0 0.0
000170 00 00 00 00 00 00 00 00 00 00 00 00 00 00 00 00
       0.0 0.0 0.0 0.0
000180 00 00 00 00 00 00 00 00 00 00 00 00 00 00 00 00
       0.0 0.0 0.0 0.0
000190 00 00 00 00 00 00 00 00 00 00 00 00 00 00 00 00
       0.0 0.0 0.0 0.0
0001a0 00 00 00 00 00 00 00 00 00 00 00 00 00 00 00 00
       0.0 0.0 0.0 0.0
0001b0 00 00 00 00 00 00 00 00 00 00 00 00 00 00 00 00
       0.0 0.0 0.0 0.0
0001c0 00 00 00 00 00 00 00 00 00 00 00 00 00 00 00 00
       0.0 0.0 0.0 0.0
0001d0 00 00 00 00 00 00 00 00 00 00 00 00 00 00 00 00
       0.0 0.0 0.0 0.0
0001e0 00 00 00 00 00 00 00 00 00 00 00 00 00 00 00 00
       0.0 0.0 0.0 0.0
0001f0 00 00 00 00 00 00 00 00 00 00 00 00 00 00 00 00
       0.0 0.0 0.0 0.0

action_model._discrete_distribution.branches.0.weight f4 [3, 128]
000000 b0 76 8d bb 9b cb 96 3b e4 ae 0c 3c c3 18 1a bc
       -0.004317127 0.0046019084 0.008586619 -0.009405318
000010 18 d5 20 bb 67 47 4d 3c 09 76 9d 3b 9b d8 d4 ba
       -0.0024541076 0.012529231 0.0048053307 -0.001623887
000020 bd 09 da bb a5 db 1c bb e3 a9 a8 bb cb 12 1b 3b
       -0.006653993 -0.002393463 -0.005147205 0.0023662325
000030 ff 4e a9 3b 6f 6e 27 3b 96 98 1c 3b 1d a4 5f bb
       0.005166888 0.0025548001 0.002389466 -0.0034124919
000040 4e c0 1d 3c c3 ea 36 3b 47 ea 89 3b 69 ea 11 bc
       0.009628369 0.0027910925 0.0042088362 -0.008905985
000050 07 17 61 bc 57 c3 20 bc 87 46 8a b9 d2 79 fa 3b
       -0.0137384 -0.009812198 -0.00026373958 0.0076439166
000060 7e 91 3f 3c f3 7e 4a 3c 85 ab e8 3c 1b 92 71 3a
       0.011692403 0.012359369 0.0284021 0.0009215192
000070 4b 1d 20 bc 2a 05 5d bb 1d 89 10 3c 1e 3d 1f bc
       -0.009772609 -0.0033725002 0.008821753 -0.009719161
000080 9f 2c 5a bb ea 3b 97 3c e3 ce f9 bb 30 7b 87 bb
       -0.0033290756 0.018461186 -0.00762354 -0.004134558
000090 9d 6c 0b 3b 1e e4 9d bc e3 8c 48 3b 3a ad 13 3c
       0.0021274455 -0.019273814 0.0030601553 0.009013468
0000a0 ff b1 2e bb b1 18 2a bb b1 34 b6 bb 31 16 85 3b
       -0.0026656387 -0.0025954659 -0.0055604805 0.0040614833
0000b0 73 8a 08 bc a7 f1 b5 bc 71 25 08 b9 30 06 e4 3b
       -0.00833379 -0.022209955 -0.00012983919 0.0069587454
0000c0 5d 49 68 b8 9d 1f 83 ba e3 6f 4c bc bd 9d 04 bc
       -5.5381435e-05 -0.0010003928 -0.012477848 -0.008094248
0000d0 16 a4 15 bb 03 ad 25 3b 9b d4 ac ba 4b 36 67 bb
       -0.0022833399 0.0025280125 -0.001318592 -0.0035280164
0000e0 f7 86 b7 3a 00 e6 df bb d1 cd 16 bb a3 2c 29 bc
       0.0014002015 -0.006832838 -0.002301086 -0.010325584
0000f0 b8 6b 41 bb d5 ae 51 3c dc 2f cc 3b 57 cb 35 bc
       -0.0029513668 0.012798031 0.006231291 -0.011095843
000100 d9 87 a0 3b 53 28 35 3c bb 64 0b bb e7 db 93 3b
       0.004899007 0.011056977 -0.0021269757 0.0045122984
000110 c7 31 ce 3b 05 58 7a bc 95 b0 5a 3b e2 9c 45 3c
       0.006292555 -0.015279775 0.0033369411 0.01206133
000120 e2 83 39 bc d5 99 01 3c af 9c 26 3c 67 0e 8c bb
       -0.011322947 0.007910212 0.010169192 -0.004274178
000130 6b 0c af 3c 0f 64 2c bc 70 8d ce 3b 5f ad 47 ba
       0.021368226 -0.010521903 0.0063034818 -0.0007617082
000140 3a 52 12 bc 77 2b ce 39 e5 b0 61 bb d2 fc a4 bb
       -0.008930737 0.00039323766 -0.0034437713 -0.0050350213
000150 0f 96 04 3c a7 96 47 bc 80 c3 11 3c 95 95 29 3b
       0.008092417 -0.012181914 0.0088967085 0.0025876511
000160 6b a9 33 bc ee de 17 bc 9b 48 8f 3b ca 88 40 bc
       -0.010965685 -0.009269459 0.004372669 -0.011751363
000170 76 0f aa 3c b6 53 b9 3a 8b d8 e7 39 80 be f6 bb
       0.020759325 0.0014139328 0.0004422109 -0.0075300336
000180 85 0b e0 bb 17 1c c7 bb ef 22 30 3b fd a4 da 3b
       -0.0068373107 -0.0060763466 0.002687629 0.0066725
000190 35 2e fc bb b8 4b b2 3a 4b d4 06 bc 13 5d 5e 3b
       -0.007695938 0.0013602888 -0.0082293255 0.0033929988
0001a0 5f 28 ad 3c bd 10 d4 ba 9b 26 3b 3b 75 11 94 3c
       0.021137415 -0.0016179305 0.0028556946 0.01807473
0001b0 7f 72 1b bb 0f 5a a2 3b 47 33 05 3c 1f 83 1f 3a
       -0.0023719368 0.0049545835 0.008129901 0.0006084907
0001c0 53 cc 16 bc e8 ff 20 3c fb d3 41 bc a3 0a 88 bb
       -0.009203988 0.009826638 -0.011830325 -0.0041516586
0001d0 b0 b3 8d 3a 33 7f ed 3a 27 b3 2f bc 59 37 88 bb
       0.0010810997 0.0018119573 -0.010723866 -0.0041569886
0001e0 e7 73 f7 bb fb c9 25 bc 1e 6e 2c bc ad a2 62 3c
       -0.0075516584 -0.010118957 -0.010524301 0.01383273
0001f0 c3 f0 92 bb 6d 5d f2 ba 02 94 76 bb fb 05 6e 3a
       -0.0044842674 -0.0018490978 -0.003762484 0.00090798707
000200 59 bc 81 ba 4d 09 5a bb 17 01 6f 3c 6e 1c 2d bc
       -0.0009898051 -0.0033269704 0.014587662 -0.01056586
000210 9a b3 a9 ba 0b b4 82 3b f3 08 72 b8 22 9b f9 ba
       -0.0012947202 0.003988748 -5.770563e-05 -0.0019043426
000220 ae e4 31 bc 9f b6 a6 3a e6 98 ad bb c3 5d 3d bc
       -0.010857744 0.001271922 -0.005297768 -0.011557999
000230 4f 41 a2 3c 19 c6 19 3c a1 7e 41 bc 27 e0 7e 3b
       0.019806532 0.009385609 -0.011809976 0.003889093
000240 29 19 b3 bb bd 88 b8 ba 77 a5 35 bc 2b 15 0f bc
       -0.005465646 -0.0014078837 -0.011086813 -0.008733074
000250 a7 07 51 3c a8 76 89 ba 00 5c 5e 3c 62 b4 80 ba
       0.012758172 -0.0010487633 0.013571739 -0.0009819383
000260 db 3c bd b9 29 7e cb bb 0e 2f 0e 3c a3 6f 52 bb
       -0.0003609423 -0.006210108 0.008678211 -0.0032109998
000270 12 5b 83 bc 0f a5 f8 3b 65 8c fd 3a bf c7 79 bc
       -0.016034637 0.007588036 0.0019344209 -0.015245377
000280 98 29 20 3c 98 7d b6 3c 2d 4e fc bb 27 54 80 3a
       0.009775542 0.022276685 -0.007699749 0.0009790704
000290 2f b9 37 3c 0f 66 27 3c 56 c2 0c bc 30 b4 21 bc
       0.011213585 0.010217204 -0.008591255 -0.00986962
0002a0 19 6d 92 3c ba 7f e6 3a ff 13 f7 3b f1 3d c2 ba
       0.017874287 0.0017585673 0.0075402255 -0.0014819485
0002b0 1f 97 19 bc 47 48 dc 3b 0b e3 84 3b d8 40 f9 3b
       -0.009374409 0.0067224833 0.004055386 0.007606607
0002c0 13 9a b8 bc 63 a0 6e bc 52 f7 db bb 43 fe 60 bb
       -0.022534406 -0.014564606 -0.0067128325 -0.003433124
0002d0 a7 dc d6 bb 17 6a c1 bb a5 c1 a6 3a 50 0a 9d 3a
       -0.0065570655 -0.0059025395 0.0012722505 0.0011981223
0002e0 e8 ef e4 bb f2 3b 2b bc 75 18 94 bc 42 dc e5 bb
       -0.006986607 -0.010451304 -0.018078068 -0.007014782
0002f0 08 ff 52 3b 4e df 09 3c 27 8b 4f 3c 7b ad df bb
       0.0032195468 0.008415056 0.012667454 -0.0068261004
000300 1b b0 d3 39 b5 c6 68 bb 60 bb 1d 3c 43 94 3f bb
       0.00040376265 -0.003551883 0.009627193 -0.0029232658
000310 71 3f 93 3c 9d 1f 50 bc 9f 81 e5 bb 73 23 81 3c
       0.017974587 -0.01270285 -0.0070039774 0.015763974
000320 fd 93 87 3c 9d be 63 3a ff 14 f2 ba 72 d4 11 bc
       0.016550058 0.00086877664 -0.0018469392 -0.008900749
000330 7b 17 98 3b dd d9 52 3b e5 fa 50 bc 5b ce 50 bb
       0.004641471 0.0032173314 -0.01275513 -0.0031861279
000340 92 26 f9 3b d2 22 de ba 53 bc da 3b d4 21 0c 3c
       0.007603475 -0.0016947633 0.006675282 0.008552987
000350 bc f9 c1 bb a5 c9 08 bc 77 e3 77 bb 45 67 6e bb
       -0.0059196632 -0.008348857 -0.0037824789 -0.0036377471
000360 5a 52 50 3b fb 95 20 bb f3 2f b9 bb bd 0f 99 bb
       0.0031787367 -0.0024503458 -0.005651468 -0.0046710656
000370 38 17 4b bb 8f 76 27 bb 6c 07 9f ba da 38 4d bb
       -0.0030989181 -0.0025552844 -0.0012132949 -0.0031314404
000380 a7 7c da 3b b2 13 60 3c b1 fb 03 3c 6b 8e 16 bc
       0.0066676917 0.013676571 0.008055613 -0.0091892285
000390 6b 64 aa 3b 37 40 eb bb b2 d4 1f bc 50 54 85 bc
       0.005199959 -0.007179286 -0.0097553 -0.016275555
0003a0 c2 a5 ec bb 12 7d dd 3b c7 f2 58 bc ad 21 87 bc
       -0.0072219083 0.0067592943 -0.013241476 -0.01649555
0003b0 68 45 68 ba 3b a7 a4 3b cb 66 89 3c 0e 51 22 bb
       -0.000886044 0.0050248182 0.016772648 -0.002476755
0003c0 4e f2 9c 3b ab 78 86 bb 25 ba 20 3c b0 5d 50 3c
       0.004789627 -0.00410374 0.009810005 0.012717649
0003d0 10 2a 7c 3b 48 dd 9a 3b 8a 04 ba 3b 1f b6 87 3c
       0.003847722 0.004726086 0.0056768106 0.016566334
0003e0 5e c5 3c bc 34 ff 83 3b e8 ef d8 3a 97 03 81 39
       -0.011521665 0.0040282253 0.001655099 0.00024607472
0003f0 37 ad 8f 3c 96 09 97 bb 57 7b dd bb dd 69 e6 bb
       0.01753865 -0.004609297 -0.006759088 -0.007031663

action_model._discrete_distribution.branches.0.bias f4 [3]
000000 00 00 00 00 00 00 00 00 00 00 00 00
       0.0 0.0 0.0

network_body._body_endoder.seq_layers.0.weight f4 [128, 16]
000000 71 a0 84 3d e1 06 72 be 00 9e ae bc c7 ad ad 3e
       0.06475914 -0.23635437 -0.021315575 0.33921644
000010 93 92 e9 be fe 78 ea bd fe 64 a4 be 84 ad 31 3e
       -0.4561964 -0.11448859 -0.321083 0.17351347
000020 7b 8c 97 be 78 df e5 3c 3d 15 69 bc 66 79 d2 bd
       -0.29599366 0.02806066 -0.014226255 -0.10277061
000030 fc b5 df be 30 ed 83 3d 5d 84 8b 3e 4a 53 88 be
       -0.4369353 0.06441724 0.27249423 -0.26626045
000040 48 07 82 3d b0 7a 2d 3f 65 6b 83 be 69 73 2b bc
       0.06349045 0.6776533 -0.25667873 -0.010464528
000050 e4 4d 91 3e d4 85 93 3e c7 53 33 3e 65 ae 99 be
       0.28379738 0.2881304 0.17512427 -0.30015865
000060 f4 a8 0f 3d 06 1d 10 bc 69 e2 84 be 70 aa b0 be
       0.035073236 -0.008795982 -0.25953987 -0.34505033
000070 67 12 30 bd 13 73 0b bf 7a fd 59 3e 34 3f 10 bc
       -0.0429863 -0.54472464 0.212881 -0.008804131
000080 4f 2b c1 3d 96 a2 4c be b8 15 7d 3e b5 60 81 3e
       0.094320886 -0.19983897 0.24715316 0.25269094
000090 da 22 0a be 96 82 cc be 9a 9e 28 bd 22 b1 40 3e
       -0.13489857 -0.3994338 -0.04116688 0.18817571
0000a0 c6 55 8e be 56 85 8c 3e e8 7c 83 3e fc b9 b0 3d
       -0.27799815 0.27445477 0.25681233 0.08629224
0000b0 58 b6 79 3b 3a f8 27 3e 02 22 31 3e 16 da 0f 3e
       0.003810307 0.16403285 0.17298129 0.14048037
0000c0 50 12 68 be d5 82 27 3f ee 3f 22 be c7 70 d9 bd
       -0.22663236 0.6543401 -0.158447 -0.10617214
0000d0 28 9e c8 bd 13 1b 93 bd b0 cf 72 3b 57 5e 9b be
       -0.09795791 -0.07182898 0.003705006 -0.30345413
0000e0 98 2a 41 3e 71 3c 8f 3e ae 57 eb 3c 15 6f 32 be
       0.18863904 0.279758 0.028728332 -0.17425187
0000f0 e7 f6 10 3f 36 84 56 bc e1 2d a2 3e f6 70 c3 bd
       0.56626743 -0.013093045 0.31675628 -0.0954303
000100 56 0c 0a be a5 68 ef 3d 02 fe 16 3e b6 de 50 3c
       -0.13481268 0.11689881 0.14745334 0.012748411
000110 3c ce 05 be 56 09 ac be 29 5f b2 be 71 88 20 be
       -0.13066953 -0.33600873 -0.34838226 -0.15677048
000120 d9 ad a9 3e 2e ec 56 3e 48 fc 6f be e5 97 0c be
       0.33140448 0.20988533 -0.23436081 -0.13729818
000130 73 80 39 3c 95 8b 54 3c a7 68 ed bc 65 79 e0 be
       0.011322129 0.012972732 -0.028980566 -0.43842617
000140 b8 56 ad 3e c5 11 e8 be 44 46 29 be 28 b6 d6 3e
       0.33855224 -0.45326057 -0.1653071 0.4193585
000150 56 07 e2 be 3a e6 c3 bd 82 66 79 3d 56 8d 65 3e
       -0.44146222 -0.095653966 0.060888775 0.22417197
000160 f4 1a 86 3e 4b 25 fe be 13 e5 6e 3e a6 2b eb 3e
       0.2619244 -0.49637827 0.23329572 0.4593174
000170 32 52 5b bc 45 7b bc 3d cd 29 7e 3e ee a7 26 3e
       -0.013386296 0.09203199 0.24820633 0.16274998
000180 dc 3f a8 bb 45 de 39 3e 09 26 2a be 33 9c d4 be
       -0.0051345658 0.18151195 -0.16616072 -0.4152542
000190 41 86 84 3d 35 88 d6 3d 02 69 00 be dc cd 9e 3e
       0.064709194 0.10475198 -0.12540057 0.31016433
0001a0 35 70 91 3e af ca eb 3e da b9 56 be a2 c2 84 3d
       0.2840592 0.46053073 -0.20969334 0.06482436
0001b0 ac 64 28 3d 82 3a 4b be 99 35 af bd e0 e2 39 3d
       0.041111633 -0.19846538 -0.08555145 0.04538238
0001c0 e9 ea 89 3d 05 bd 6b 3e 8d 63 de bd 87 1c 1f be
       0.06734259 0.23021324 -0.108588316 -0.15538226
0001d0 7a 06 70 be 82 3d a0 3d 87 f9 80 3e 59 2e 8d 3e
       -0.2343997 0.07824232 0.25190374 0.27574423
0001e0 a7 33 76 3e d1 b8 13 bf e0 bb 28 be f0 9f 8d be
       0.24043141 -0.5770388 -0.16477919 -0.27661085
0001f0 d3 cb a7 3e 91 42 f9 be bc d8 da 3d 9e 9e 15 be
       0.32772693 -0.486836 0.1068587 -0.14611289
000200 fd 94 8a 3e 83 ff 3b 3e e0 5a 7e be 47 26 e0 3d
       0.27066794 0.18359189 -0.24839354 0.10944801
000210 0f df 4e be 3f d2 94 3e 23 0d 84 3e 93 e7 38 3d
       -0.20202278 0.29066655 0.25791273 0.04514272
000220 89 c9 55 bf 7a db fc be dd 3d ae 3e 0c 8b 9d be
       -0.83510643 -0.49386197 0.34031573 -0.30770147
000230 32 5f a2 3d 0c 8e 90 bd 2f 88 fc bc 9a 20 69 3d
       0.07928313 -0.07058343 -0.030826656 0.056915857
000240 dc 6a 01 be ae 0d 4b be 6b f1 39 be d3 fa 1c be
       -0.1263842 -0.19829437 -0.181585 -0.15330057
000250 25 f5 7f bd ed 46 42 bf f0 d5 64 be 2f c3 cc bd
       -0.062489647 -0.75889474 -0.22347236 -0.09998166
000260 2c 6b ed 3d fb fd 2f 3f 08 67 9a 3e e7 5e a8 3e
       0.11592707 0.6874692 0.30156732 0.32884905
000270 8a 9f 4b be e2 30 9a be 4f 6a b4 3d 7d b0 89 be
       -0.19885078 -0.3011542 0.08809339 -0.26892462
000280 4d f9 06 be 61 b0 19 3e 71 10 13 bc d5 7a 42 be
       -0.13181038 0.1500869 -0.008976088 -0.18992169
000290 f7 a3 19 3e d8 75 92 be 6b dc f3 be 4b 58 7a 3e
       0.15003954 -0.28605533 -0.47629103 0.24447744
0002a0 f9 fb ae be 48 49 0b 3e 49 10 98 3e 44 41 0d be
       -0.34176615 0.13602173 0.29699925 -0.13794428
0002b0 db e6 90 be f5 60 0c 3d 89 2d 82 3e 1f 8e 5b be
       -0.2830113 0.034272153 0.25425366 -0.21440934
0002c0 6a e1 0b be 89 d7 8c 3c 25 dc ae 3e 7c b0 8e be
       -0.13660207 0.017192619 0.34152332 -0.27869022
0002d0 2b 5e 43 be c4 d2 9e be 70 40 0b bf f9 ef 20 3e
       -0.19078891 -0.31020176 -0.543952 0.15716542
0002e0 93 d7 9e 3e 83 ac 62 3e c6 16 fc bc ab 26 6d be
       0.31023845 0.2213612 -0.030772578 -0.23159282
0002f0 9d 52 0a bd 71 f8 ee be 12 59 e9 3d ee de 9e 3c
       -0.033770192 -0.4667392 0.11393942 0.01939341
000300 15 32 b8 be c4 be bd bd 50 62 06 bf 23 60 fd 3d
       -0.3597571 -0.09264901 -0.5249376 0.12371852
000310 6a ad fd 3b 7f f2 74 be 30 fb 69 be 21 4d 0b 3d
       0.00774162 -0.2392063 -0.22849727 0.034009103
000320 a0 04 85 be 7d b4 5d 3d 28 a3 04 bf 18 5d 06 be
       -0.2598009 0.054127205 -0.51811457 -0.1312145
000330 f1 f8 9d 3e 62 29 f9 3e d7 d1 6b be 35 d2 88 3d
       0.3085399 0.48664385 -0.23029266 0.06680719
000340 71 c1 f5 bd c6 a2 f0 3e 23 da c4 bd 41 cf e3 3e
       -0.11999787 0.46999186 -0.09611919 0.4449406
000350 b1 09 56 3e 17 b2 d8 bc e9 3c c9 3d 5e f7 12 3d
       0.20902134 -0.026452107 0.09826071 0.03588044
000360 a8 29 9d 3d e5 f9 03 3e 1a 9f db bd 7b a4 cd be
       0.07673961 0.12888296 -0.107237056 -0.4016455
000370 5c 82 92 3e 2b c5 bd 3d cf 8a c4 3c f2 38 b6 bd
       0.2861508 0.092661224 0.02399197 -0.0889758
000380 d2 80 23 3d 40 74 1a 3f 2c 28 a3 3d 80 40 18 3f
       0.039917774 0.60333633 0.079666466 0.5947342
000390 9c 42 9b 3e 0a 79 e6 3e 59 12 9d be 32 a1 e9 3e
       0.30324256 0.4501422 -0.3067806 0.45630795
0003a0 ea dc c9 be 7a 88 f4 3d 46 22 2a 3e f5 c2 22 bd
       -0.39426357 0.11940093 0.16614637 -0.039736707
0003b0 ce 11 33 3e 1e 8b f5 be 31 f1 7a bb 59 8a ae 3c
       0.1748726 -0.479577 -0.0038290734 0.021306204
0003c0 3f fd 80 3e 4f 98 94 3e 0c 94 a8 3e 70 aa 84 3e
       0.2519321 0.29022452 0.3292545 0.25911283
0003d0 31 60 d3 bd b7 43 a4 3e 19 0c 79 be 7a 2d 8e be
       -0.103210814 0.32082912 -0.24321021 -0.2776907
0003e0 65 87 ce bd c2 2a df 3e 92 1b 29 3e 56 0f 9a bd
       -0.10084418 0.4358731 0.16514423 -0.07522456
0003f0 a6 fe b8 3d c8 67 de 3d 28 1e e2 bc 20 b1 93 be
       0.09032945 0.108596385 -0.02760227 -0.28846073

network_body._body_endoder.seq_layers.0.bias f4 [128]
000000 00 00 00 00 00 00 00 00 00 00 00 00 00 00 00 00
       0.0 0.0 0.0 0.0
000010 00 00 00 00 00 00 00 00 00 00 00 00 00 00 00 00
       0.0 0.0 0.0 0.0
000020 00 00 00 00 00 00 00 00 00 00 00 00 00 00 00 00
       0.0 0.0 0.0 0.0
000030 00 00 00 00 00 00 00 00 00 00 00 00 00 00 00 00
       0.0 0.0 0.0 0.0
000040 00 00 00 00 00 00 00 00 00 00 00 00 00 00 00 00
       0.0 0.0 0.0 0.0
000050 00 00 00 00 00 00 00 00 00 00 00 00 00 00 00 00
       0.0 0.0 0.0 0.0
000060 00 00 00 00 00 00 00 00 00 00 00 00 00 00 00 00
       0.0 0.0 0.0 0.0
000070 00 00 00 00 00 00 00 00 00 00 00 00 00 00 00 00
       0.0 0.0 0.0 0.0
000080 00 00 00 00 00 00 00 00 00 00 00 00 00 00 00 00
       0.0 0.0 0.0 0.0
000090 00 00 00 00 00 00 00 00 00 00 00 00 00 00 00 00
       0.0 0.0 0.0 0.0
0000a0 00 00 00 00 00 00 00 00 00 00 00 00 00 00 00 00
       0.0 0.0 0.0 0.0
0000b0 00 00 00 00 00 00 00 00 00 00 00 00 00 00 00 00
       0.0 0.0 0.0 0.0
0000c0 00 00 00 00 00 00 00 00 00 00 00 00 00 00 00 00
       0.0 0.0 0.0 0.0
0000d0 00 00 00 00 00 00 00 00 00 00 00 00 00 00 00 00
       0.0 0.0 0.0 0.0
0000e0 00 00 00 00 00 00 00 00 00 00 00 00 00 00 00 00
       0.0 0.0 0.0 0.0
0000f0 00 00 00 00 00 00 00 00 00 00 00 00 00 00 00 00
       0.0 0.0 0.0 0.0
000100 00 00 00 00 00 00 00 00 00 00 00 00 00 00 00 00
       0.0 0.0 0.0 0.0
000110 00 00 00 00 00 00 00 00 00 00 00 00 00 00 00 00
       0.0 0.0 0.0 0.0
000120 00 00 00 00 00 00 00 00 00 00 00 00 00 00 00 00
       0.0 0.0 0.0 0.0
000130 00 00 00 00 00 00 00 00 00 00 00 00 00 00 00 00
       0.0 0.0 0.0 0.0
000140 00 00 00 00 00 00 00 00 00 00 00 00 00 00 00 00
       0.0 0.0 0.0 0.0
000150 00 00 00 00 00 00 00 00 00 00 00 00 00 00 00 00
       0.0 0.0 0.0 0.0
000160 00 00 00 00 00 00 00 00 00 00 00 00 00 00 00 00
       0.0 0.0 0.0 0.0
000170 00 00 00 00 00 00 00 00 00 00 00 00 00 00 00 00
       0.0 0.0 0.0 0.0
000180 00 00 00 00 00 00 00 00 00 00 00 00 00 00 00 00
       0.0 0.0 0.0 0.0
000190 00 00 00 00 00 00 00 00 00 00 00 00 00 00 00 00
       0.0 0.0 0.0 0.0
0001a0 00 00 00 00 00 00 00 00 00 00 00 00 00 00 00 00
       0.0 0.0 0.0 0.0
0001b0 00 00 00 00 00 00 00 00 00 00 00 00 00 00 00 00
       0.0 0.0 0.0 0.0
0001c0 00 00 00 00 00 00 00 00 00 00 00 00 00 00 00 00
       0.0 0.0 0.0 0.0
0001d0 00 00 00 00 00 00 00 00 00 00 00 00 00 00 00 00
       0.0 0.0 0.0 0.0
0001e0 00 00 00 00 00 00 00 00 00 00 00 00 00 00 00 00
       0.0 0.0 0.0 0.0
0001f0 00 00 00 00 00 00 00 00 00 00 00 00 00 00 00 00
       0.0 0.0 0.0 0.0

network_body._body_endoder.seq_layers.2.weight f4 [128, 128]
000000 29 4f ec bd 0c c2 b3 bd 10 75 0c 3d 93 26 d8 3c
       -0.11538536 -0.08777246 0.034291327 0.026385581
000010 f9 bd ae 3c 41 47 9e bd 1b ab bb 3c 7b fa 13 3e
       0.02133082 -0.07728434 0.022908738 0.1445102
000020 34 c2 2f bd 06 ae c0 bd 24 47 f5 3d f3 59 02 3e
       -0.042909816 -0.09408192 0.119764596 0.12729625
000030 9d 40 89 3d 2d 07 ab 3d 24 71 42 be 09 a1 a4 bd
       0.06701777 0.08350978 -0.18988472 -0.080385275
000040 62 bc b0 bd 99 a3 93 bd 3e 2d 16 3e 16 f0 fb 3c
       -0.08629681 -0.07208938 0.14665696 0.03075413
000050 84 93 d2 3c 61 19 07 bd 5b 15 da 3d 60 08 3a 3d
       0.025705107 -0.032983188 0.106486045 0.045418143
000060 c6 f6 dc 3c 04 74 aa bd 15 3a 0b 3d 0f 56 b4 bd
       0.02697314 -0.083229095 0.03399094 -0.08805477
000070 02 1f dd 3d e9 45 94 3d e5 8b 86 3d 01 dc 04 bc
       0.1079693 0.07239897 0.065696515 -0.008109094
000080 d5 f3 07 3e 82 74 52 bd 84 ab 0b be 37 53 01 be
       0.13276608 -0.05138064 -0.13639647 -0.126294
000090 fd 44 a9 bc f4 f5 3f 3c d8 83 36 bc c2 fc 2a 3d
       -0.020662779 0.011716355 -0.011139832 0.041744955
0000a0 0f 6a d7 3c 3d 00 4f bd e8 d1 c6 3c f8 17 5b 3d
       0.02629569 -0.050537337 0.024270013 0.053489655
0000b0 77 9c 14 bd 8a c3 d2 3c 95 22 de 3c a0 8e 57 3d
       -0.03628203 0.025728006 0.0271161 0.052626252
0000c0 16 d2 0d bc c9 9e cb 3c 05 ad 4a 3d 1a 2f 1b be
       -0.008656045 0.024855988 0.04948141 -0.15154687
0000d0 58 b9 0e 3c 13 5a b4 bc 43 a5 e8 3d 4e 5e a6 3c
       0.008711182 -0.022015607 0.11359646 0.02030864
0000e0 d3 9e 14 bd c2 37 28 bd 87 58 18 3d 02 b0 6d 39
       -0.03628428 -0.0410688 0.0371938 0.0002266765
0000f0 73 ba 90 bd b5 4a 24 3d ff 15 6a bd 6e 54 92 bd
       -0.07066812 0.04011031 -0.057149883 -0.0714501
000100 c5 57 1d bd 45 6b 0f bc 5b 0d d9 3b 85 90 41 bd
       -0.03841378 -0.008753602 0.0066239065 -0.047256965
000110 fb fb 20 bd 40 8f e2 bc bd 2d 6f 3d 73 fa 93 3d
       -0.039302807 -0.027656198 0.05839323 0.07225504
000120 e1 6b 03 be 61 be 98 bb 8d 01 e8 3c 84 df d8 bb
       -0.12834121 -0.004661367 0.028321052 -0.006618442
000130 04 ff 56 bd 1d 6b da 3c 23 7a 25 3d 61 1f 69 3d
       -0.052489296 0.026662404 0.04039968 0.05691469
000140 64 31 86 bd 7e 97 bb 3d 70 a6 79 3d ba 6e a5 bd
       -0.06552389 0.09159754 0.060949743 -0.0807776
000150 ea a6 14 bd 49 17 bd bc 9d e0 40 3e cc d6 54 be
       -0.036291994 -0.023082392 0.18835683 -0.20785064
000160 c5 23 a0 bc 2d 67 92 bd 90 4c 19 bd d2 40 98 bd
       -0.019548306 -0.071485855 -0.03742653 -0.074342385
000170 63 55 a0 3d 6a dd 53 bc 5e 35 22 be ea 3f 18 be
       0.07828786 -0.012931207 -0.1584067 -0.14868131
000180 e5 be 1e 3c 5a 7d a2 3a 26 87 ae 3c c1 b4 79 bd
       0.0096890675 0.0012396977 0.021304678 -0.060963396
000190 40 10 0c be 46 fe d2 bd 82 12 8b 3d e5 37 d1 3c
       -0.13678074 -0.10302405 0.067906395 0.025539348
0001a0 71 54 b1 3c 3f f4 f9 bd 51 ec 4b 3d 47 fd 26 3c
       0.02164671 -0.12204789 0.049785916 0.010192222
0001b0 88 14 b0 bd a9 ef 8c bd bc 06 f9 3b 1a 24 93 bd
       -0.08597666 -0.06881649 0.0075996798 -0.0718462
0001c0 3b d7 12 bd 90 06 b4 bd 9c 48 ca bc d9 42 22 be
       -0.03584979 -0.08790314 -0.024692826 -0.15845813
0001d0 f8 8a 3c 3c e9 20 9b 3d 16 ab 39 3d ab 80 68 3c
       0.011507742 0.075746365 0.045329176 0.014190833
0001e0 c2 99 b9 3c 48 1e c1 3b 0e c2 81 3d 50 c3 24 be
       0.022656325 0.0058935024 0.06335841 -0.16090131
0001f0 09 b4 b3 bd 10 45 16 3d 40 f7 c9 bc b9 6d 27 3e
       -0.08774573 0.036686957 -0.02465403 0.1635045
000200 19 b9 bb 3c 31 33 5c 3d ef cc a6 bd a6 b4 6e bc
       0.02291541 0.053759757 -0.08144557 -0.014569437
000210 4f 0d 92 bd ab a6 47 be 8d 9b c5 bd 13 ed b1 bd
       -0.07131445 -0.19497173 -0.096488096 -0.086877964
000220 ef cc 90 3c d8 52 24 bd af 63 8d 3c 08 d7 c1 3d
       0.017675845 -0.04011807 0.017259447 0.09464842
000230 ea cc 14 be 7e 2e 3a 3d 15 36 94 3e 79 88 c1 3d
       -0.14531294 0.045454495 0.2894751 0.09449858
000240 03 e3 93 3c 82 3f e9 3d b1 aa e5 bd 39 97 80 3d
       0.018052584 0.11389066 -0.112141974 0.062788434
000250 98 29 f9 bd e9 87 c1 3d e5 de a2 bb 4a 7f 1c 3e
       -0.121661365 0.09449751 -0.0049704188 0.15282932
000260 9f 2c 7d 3d 00 5b e0 3c 7c a9 92 bd 11 a2 0c bd
       0.061810132 0.027387142 -0.07161233 -0.034334246
000270 a7 d2 3d 3d 6e 72 80 bd fc fd 7a be 0f b7 8f 3c
       0.04634347 -0.06271826 -0.2451095 0.017543344
000280 19 16 f8 3b 96 f7 c5 bd 5f 37 ab 3d 01 76 75 bd
       0.0075709936 -0.09666364 0.083601706 -0.05992699
000290 20 aa 4f 3d d4 30 71 3b 40 74 be 3d 1f df b3 bc
       0.050699353 0.0036802785 0.09299517 -0.021956978
0002a0 36 91 ef 3c 18 43 d1 bd 41 c6 a9 bd 4f be c7 3d
       0.029244047 -0.10217875 -0.08289767 0.09753095
0002b0 33 d2 72 3c ee c4 e7 bd 0c 0d fe 3d 5d fe 01 be
       0.014820623 -0.11316858 0.12404832 -0.12694688
0002c0 28 51 a4 bc 7b 7d 05 3e 3d 05 4f bd 36 75 92 3d
       -0.02005823 0.13036148 -0.050542105 0.071512625
0002d0 a3 c3 ce bc 79 c5 a7 3d 16 20 78 bd 2a 06 df 3d
       -0.025239771 0.08191962 -0.060577475 0.108898476
0002e0 a2 42 dd bb af b3 16 3c 4c 34 7c 3d d8 92 8d bd
       -0.006752328 0.009198113 0.06157331 -0.06912774
0002f0 5a 29 d0 3d df a8 a5 bd e5 5b c3 bc c8 82 da bd
       0.10164137 -0.0808885 -0.02384753 -0.10669476
000300 e2 c8 40 3d d8 95 25 be 95 8d 1e 3e 84 b4 f2 bd
       0.047066577 -0.16170442 0.15483697 -0.11850837
000310 0c a6 d5 bd b2 45 d3 3d f5 18 fc bc a4 d0 92 bd
       -0.104320616 0.10316028 -0.03077362 -0.07168701
000320 ad 2c 3d 3d eb ba 12 3c 69 85 c7 bc 0b d3 cc 3d
       0.046185184 0.0089556975 -0.024355607 0.10001191
000330 83 ee 3d 3d a6 e5 5c 3d 3b 88 fb 3d 02 18 ed bd
       0.04637004 0.053929947 0.12281843 -0.11576845
000340 9f 94 c3 3d fd 79 7f bd 2a 0c b8 bd c1 cc 56 3c
       0.095498316 -0.062372196 -0.08986695 0.013110341
000350 98 b2 0b 3e 37 9d cd 3d e0 d7 fb bd 3b 5f 92 3a
       0.13642347 0.10039752 -0.12297034 0.0011167297
000360 5d 5a e3 bb 93 9c 06 be 3f ab 28 3e 27 a4 47 3c
       -0.0069382624 -0.13145666 0.16471575 0.012185133
000370 ab 25 c2 3d 6e 5f 6d 3d b4 7c 3e 3e 70 47 fe 3d
       0.09479841 0.057952337 0.18602258 0.12415969
000380 85 76 24 3d 2d 2e d4 bd 06 3f 6b bd e9 10 8a bd
       0.04015209 -0.1036037 -0.05743315 -0.067415066
000390 dd a8 47 be 08 09 b8 3d 34 5c 3e bc e5 12 58 be
       -0.1949801 0.089860976 -0.011618663 -0.21100958
0003a0 fe 5e 69 bd e9 eb a1 bd 3c 93 6c 3d 9c e4 61 bc
       -0.056975357 -0.079063244 0.0577576 -0.013787415
0003b0 02 c2 68 bc 49 df 04 3e 0f b5 8a bc 98 c1 15 bd
       -0.014206411 0.12975802 -0.016932039 -0.03656158
0003c0 f1 76 97 ba dd 05 38 be 1c 5b 50 bd c5 73 81 3d
       -0.0011555833 -0.17970987 -0.05086814 0.063209094
0003d0 9b 2c b4 3d ad eb 18 3d e9 43 f8 3d 7d 0f a3 bc
       0.0879757 0.037334133 0.12122328 -0.019904846
0003e0 6a de ab bd df c6 55 3c e1 35 ab bc bc da 03 be
       -0.083920315 0.013047903 -0.020899715 -0.1287641
0003f0 07 00 bb bc 65 35 3d 3e 11 c6 4c 3e d5 a3 e0 3a
       -0.022827161 0.184774 0.19997431 0.001713867

network_body._body_endoder.seq_layers.2.bias f4 [128]
000000 00 00 00 00 00 00 00 00 00 00 00 00 00 00 00 00
       0.0 0.0 0.0 0.0
000010 00 00 00 00 00 00 00 00 00 00 00 00 00 00 00 00
       0.0 0.0 0.0 0.0
000020 00 00 00 00 00 00 00 00 00 00 00 00 00 00 00 00
       0.0 0.0 0.0 0.0
000030 00 00 00 00 00 00 00 00 00 00 00 00 00 00 00 00
       0.0 0.0 0.0 0.0
000040 00 00 00 00 00 00 00 00 00 00 00 00 00 00 00 00
       0.0 0.0 0.0 0.0
000050 00 00 00 00 00 00 00 00 00 00 00 00 00 00 00 00
       0.0 0.0 0.0 0.0
000060 00 00 00 00 00 00 00 00 00 00 00 00 00 00 00 00
       0.0 0.0 0.0 0.0
000070 00 00 00 00 00 00 00 00 00 00 00 00 00 00 00 00
       0.0 0.0 0.0 0.0
000080 00 00 00 00 00 00 00 00 00 00 00 00 00 00 00 00
       0.0 0.0 0.0 0.0
000090 00 00 00 00 00 00 00 00 00 00 00 00 00 00 00 00
       0.0 0.0 0.0 0.0
0000a0 00 00 00 00 00 00 00 00 00 00 00 00 00 00 00 00
       0.0 0.0 0.0 0.0
0000b0 00 00 00 00 00 00 00 00 00 00 00 00 00 00 00 00
       0.0 0.0 0.0 0.0
0000c0 00 00 00 00 00 00 00 00 00 00 00 00 00 00 00 00
       0.0 0.0 0.0 0.0
0000d0 00 00 00 00 00 00 00 00 00 00 00 00 00 00 00 00
       0.0 0.0 0.0 0.0
0000e0 00 00 00 00 00 00 00 00 00 00 00 00 00 00 00 00
       0.0 0.0 0.0 0.0
0000f0 00 00 00 00 00 00 00 00 00 00 00 00 00 00 00 00
       0.0 0.0 0.0 0.0
000100 00 00 00 00 00 00 00 00 00 00 00 00 00 00 00 00
       0.0 0.0 0.0 0.0
000110 00 00 00 00 00 00 00 00 00 00 00 00 00 00 00 00
       0.0 0.0 0.0 0.0
000120 00 00 00 00 00 00 00 00 00 00 00 00 00 00 00 00
       0.0 0.0 0.0 0.0
000130 00 00 00 00 00 00 00 00 00 00 00 00 00 00 00 00
       0.0 0.0 0.0 0.0
000140 00 00 00 00 00 00 00 00 00 00 00 00 00 00 00 00
       0.0 0.0 0.0 0.0
000150 00 00 00 00 00 00 00 00 00 00 00 00 00 00 00 00
       0.0 0.0 0.0 0.0
000160 00 00 00 00 00 00 00 00 00 00 00 00 00 00 00 00
       0.0 0.0 0.0 0.0
000170 00 00 00 00 00 00 00 00 00 00 00 00 00 00 00 00
       0.0 0.0 0.0 0.0
000180 00 00 00 00 00 00 00 00 00 00 00 00 00 00 00 00
       0.0 0.0 0.0 0.0
000190 00 00 00 00 00 00 00 00 00 00 00 00 00 00 00 00
       0.0 0.0 0.0 0.0
0001a0 00 00 00 00 00 00 00 00 00 00 00 00 00 00 00 00
       0.0 0.0 0.0 0.0
0001b0 00 00 00 00 00 00 00 00 00 00 00 00 00 00 00 00
       0.0 0.0 0.0 0.0
0001c0 00 00 00 00 00 00 00 00 00 00 00 00 00 00 00 00
       0.0 0.0 0.0 0.0
0001d0 00 00 00 00 00 00 00 00 00 00 00 00 00 00 00 00
       0.0 0.0 0.0 0.0
0001e0 00 00 00 00 00 00 00 00 00 00 00 00 00 00 00 00
       0.0 0.0 0.0 0.0
0001f0 00 00 00 00 00 00 00 00 00 00 00 00 00 00 00 00
       0.0 0.0 0.0 0.0

value_heads.value_heads.extrinsic.weight f4 [1, 128]
000000 a6 a7 0e 3e 10 cf 01 3d 14 b5 1f 3e 8c ce 2e bd
       0.1393114 0.03169161 0.1559642 -0.042677447
000010 e0 d4 7b bd 2c 76 45 3e c0 61 26 3d ee f6 89 bd
       -0.06148231 0.1928336 0.040620565 -0.06736551
000020 3a 69 00 be 26 ed 3f be 84 89 ad bd 50 75 40 3c
       -0.12540141 -0.18742809 -0.08473495 0.0117467195
000030 8e ff 1b 3e 74 93 41 3e 72 e9 4f 3e ec 53 2f 3e
       0.15234205 0.18903905 0.20303896 0.17121857
000040 04 f6 0d 3e 44 7e 1e bd 50 d6 74 bd e4 b2 dd 3d
       0.13863379 -0.038694635 -0.059774697 0.10825136
000050 64 43 01 3d 70 4a 10 bd 7c fc 1d 3e 64 13 81 3d
       0.03155841 -0.03522724 0.15428346 0.063025266
000060 70 03 4c 3d 68 93 a0 bc c0 aa e4 bb b8 ae 2c be
       0.049807966 -0.019601539 -0.006978363 -0.16863525
000070 8c 3b c6 bd 7a a1 1a be 4c 32 22 3e 50 26 7c bd
       -0.096793264 -0.15100661 0.15839499 -0.061559975
000080 f4 2b b7 3d 72 89 14 3e 70 47 0f be 90 97 5a 3e
       0.0894393 0.14505556 -0.13992095 0.21346879
000090 73 64 52 be 38 ff 1c bd 10 8c 44 3e 6a 6d 14 be
       -0.20546131 -0.038329333 0.19194055 -0.14494863
0000a0 3c b9 d4 bd 71 2a 42 be 58 ce e6 3d 9e 47 0e 3e
       -0.10386893 -0.18961503 0.11269826 0.13894507
0000b0 3c 5a dc 3d ec 91 14 3e a6 58 9b bd 8b 68 5b be
       0.10759398 0.1450879 -0.07585268 -0.21426599
0000c0 8c 21 4e be da 66 58 be 6c 9c 04 be 64 6b 3f be
       -0.20129985 -0.21132985 -0.12950295 -0.1869331
0000d0 fe ae f2 bd 74 e2 d5 3d e4 12 2f 3e d2 f9 c3 bd
       -0.11849783 0.10443583 0.1709705 -0.09569134
0000e0 a8 0d 8b bc 40 78 0e 3d d8 72 47 3d 84 d9 13 3e
       -0.016974285 0.034782648 0.048693508 0.14438444
0000f0 58 ce 50 3d 48 b4 e6 3d 00 01 6f ba 40 22 80 bb
       0.050978035 0.11264855 -0.00091172755 -0.003910333
000100 2c 1b 59 3e 46 3b 1b 3e e2 e3 2a be 76 36 0e be
       0.21201771 0.1515933 -0.16688493 -0.13887963
000110 a4 3b 49 be 98 56 f9 3c 10 13 58 bc e0 b8 5d bd
       -0.19651657 0.030436799 -0.013188139 -0.05413139
000120 55 35 d6 bd e0 40 3e be f4 09 01 be ae d6 fe bd
       -0.10459391 -0.18579435 -0.12601453 -0.12443291
000130 78 ad 2f 3d b8 5c dd bc 84 05 2e bd a8 e0 48 be
       0.042890042 -0.02702175 -0.04248573 -0.1961695
000140 f4 d0 84 bd f0 80 3c 3e ae 8a c9 bd 40 e5 55 3e
       -0.06485167 0.18408561 -0.09840904 0.20888233
000150 12 b3 21 be be da 3f be e4 03 3d 3e be e1 f7 bd
       -0.15790966 -0.18735787 0.18458515 -0.12103604
000160 80 4a 91 bb 44 fd 3b 3e 32 0b b6 bd 44 cf 45 bd
       -0.00443393 0.18358332 -0.08888854 -0.048293367
000170 44 9a e0 3d ec f1 a7 3d dd a1 55 be b0 8c dd 3d
       0.10966924 0.0820044 -0.20862527 0.1081785
000180 24 6f 39 be 34 0b 1c be 60 aa 46 3d bc fd 2c bd
       -0.18108803 -0.15238649 0.048502326 -0.042234167
000190 b8 4e 37 3e ac 6d 4f 3e e6 43 20 be c8 53 55 bd
       0.17901123 0.2025668 -0.15650901 -0.052081853
0001a0 58 3d 81 3d d9 81 e5 bd d8 f9 4b 3d 20 81 bd bb
       0.063105285 -0.11206407 0.049798816 -0.005783215
0001b0 b8 cf 9d 3c 84 21 51 3e 08 3e 3a 3d 20 a8 02 bc
       0.019264087 0.20422941 0.045469314 -0.007974654
0001c0 55 d6 f0 bd d8 98 4c 3d 21 e4 43 be f5 6c 16 be
       -0.117596306 0.04995045 -0.19129993 -0.14690001
0001d0 a2 c2 2f 3e a2 42 2d be 20 95 a1 bb 59 e4 f6 bd
       0.1716409 -0.1691995 -0.004931107 -0.120552726
0001e0 7c 0e d0 3d 06 7e 19 3e 64 c8 85 3d a0 a4 8e bd
       0.10159013 0.1498948 0.06532362 -0.069649935
0001f0 ee 45 aa bd 00 f5 12 bd 5c b6 58 3e ca c9 d9 bd
       -0.08314119 -0.03587818 0.21163315 -0.10634191
