results/ppo/BalanceBall1/BalanceBall1-3328.pt (torch, 146819 bytes, 11 tensors)

network_body._body_endoder.seq_layers.0.weight f4 [128, 3]
000000 6b 9d 5e be e4 72 21 bf a0 52 eb 3d dc 79 01 bf
       -0.21739738 -0.63065934 0.11490369 -0.5057657
000010 5a cf e1 3e 2e e3 92 bf 55 4e 95 bf 90 27 83 be
       0.4410351 -1.147558 -1.166453 -0.2561612
000020 88 be 95 be 9d c7 f4 3d a7 a3 a3 bf 68 d2 5c 3f
       -0.29246926 0.11952136 -1.2784318 0.86258554
000030 de 12 8e 3d b0 8d 9f 3e 6f af 2a 3f 9e fc 70 3f
       0.069371924 0.31162786 0.6667394 0.94135463
000040 1e 46 40 3f 9b f2 be bf 01 44 8c 3e a3 18 a2 3e
       0.7510699 -1.4917787 0.27395633 0.3165942
000050 b0 57 8c 3b 9b ef 24 bf 6b 01 52 3f bc f9 d7 3e
       0.004282914 -0.6442811 0.82033414 0.4218272
000060 d9 49 c8 be 1c a6 d8 be 9a e1 08 be 58 f3 c6 3e
       -0.3911884 -0.4231423 -0.1336731 0.38857532
000070 1b 09 31 bf f5 0e 97 be 61 14 48 bf 89 c6 30 bf
       -0.6915452 -0.295036 -0.78156096 -0.6905294
000080 5a 55 ca 3e 24 da d5 3e 54 16 35 3f 5d 6e e7 be
       0.39518243 0.4176799 0.70737195 -0.45201388
000090 28 59 be bc 1f 11 19 bf 8e c4 68 3e 2e 17 ff be
       -0.023235872 -0.5979175 0.2273123 -0.49822372
0000a0 6b 6d 89 3f 06 1f 35 bf 1e 4c 25 be ba 52 b6 bc
       1.0736517 -0.70750463 -0.16142318 -0.022256244
0000b0 ac aa 38 bf a7 c7 e9 3e eb 36 4e be 51 6a 96 be
       -0.72135425 0.45660135 -0.20138137 -0.29377988
0000c0 a1 fb a5 3e 42 8d 81 3b 4d 50 0d 3e 9d d3 0e bf
       0.3241854 0.003953607 0.13800164 -0.55791646
0000d0 19 fa 11 bf fd a2 25 bd e3 3e aa 3e ad c4 09 bf
       -0.57022244 -0.04043864 0.33251104 -0.5381573
0000e0 2b 02 1e bf 9e 7f 9a 3e c2 0f 16 3f 74 72 3a 3e
       -0.6172206 0.3017549 0.58617795 0.18207723
0000f0 32 22 44 be a5 a9 89 be 71 eb 24 3e 36 ce 43 bf
       -0.1915367 -0.2688724 0.16105439 -0.7648653
000100 15 16 49 3f 2f 16 c3 3e 63 b2 1b 3f 1f 74 85 3a
       0.7854932 0.38102862 0.6081907 0.0010181702
000110 ab a2 d9 3d 16 ff 82 be 2a e9 6b 3f bd 46 29 be
       0.106267296 -0.2558524 0.92152655 -0.16530891
000120 f6 47 b2 3e eb a9 ca bd bc ab 64 bf d2 75 3e bf
       0.34820527 -0.098956905 -0.89324546 -0.7439853
000130 96 23 61 3e 19 d7 27 3f 22 1b 79 bf 18 b2 d0 3e
       0.21986231 0.6556259 -0.97307026 0.40760875
000140 1b ba 05 3f 38 34 a4 bf 6b 86 22 3e b1 67 9d bd
       0.522371 -1.2828436 0.15871589 -0.07685793
000150 ec e5 28 be 20 d9 40 3f 67 47 92 3f 12 47 95 3d
       -0.16493958 0.75331306 1.142804 0.07288946
000160 28 c3 23 be 56 db 18 be a7 73 3b bd 61 f1 32 3f
       -0.15992415 -0.1492742 -0.04576459 0.69899565
000170 07 e9 8e be 61 ae 53 be e8 09 bd be d8 2b af 3e
       -0.2791216 -0.20671989 -0.3692162 0.34213138
000180 ab 0f b5 bd d6 0b 80 bf 5e a4 ee 3e 10 ee a0 be
       -0.08840879 -1.0003612 0.46609777 -0.31431627
000190 f8 a9 9d 3f 48 e1 2f bf 54 a7 5d be 63 ac 81 3e
       1.2317495 -0.68703127 -0.21645862 0.25326833
0001a0 cb fe 3d 3e dc e3 9f bf a5 86 d8 3e 0c 61 59 bf
       0.18554227 -1.2491412 0.42290226 -0.84913707
0001b0 51 6e 6e bf 41 1f 89 3e 06 33 de bd d8 d6 40 3e
       -0.9313708 0.26781657 -0.10849576 0.18831956
0001c0 da 63 7e bf 21 fe b7 3d f1 9e 85 bf 54 b9 55 3f
       -0.9937111 0.08984018 -1.043913 0.83485913
0001d0 e5 59 90 be bd 0d 37 bf a8 d6 56 bf ec 2c 6b 3f
       -0.28193584 -0.7150534 -0.8392129 0.9186542
0001e0 08 ed 92 3f 7f 7f dd be 38 c8 ad bd 65 29 e5 3e
       1.1478586 -0.43261334 -0.08485454 0.44758144
0001f0 4e 99 cc be 8b 05 0b 3f 7b b1 0e 3f 15 ed 96 bf
       -0.39960712 0.5430533 0.55739564 -1.1791102
000200 6a 5c 7e 3e 9d 3e c1 be e3 b5 53 bd af eb 30 bf
       0.2483994 -0.37743083 -0.051687133 -0.69109625
000210 ca 9f bc be b2 f1 e1 3c c1 5e 80 bd 63 ae c0 be
       -0.3684066 0.02758107 -0.06268073 -0.37633047
000220 ff a0 37 3f 15 58 fd 3e 34 87 52 bf ba 24 fe bc
       0.71730036 0.49481264 -0.82237554 -0.031023372
000230 c5 4a 15 3f 56 5b b9 3d 13 43 2c 3f 68 81 03 be
       0.58317214 0.09050624 0.6728985 -0.12842333
000240 a5 8d 05 3f f9 66 d0 3d 75 18 58 3f 37 30 03 bb
       0.5216926 0.101758905 0.8441232 -0.0020017752
000250 0d a5 b6 3e 8e b7 14 bf 27 e0 0e 3e 7f 61 78 3e
       0.356728 -0.5809258 0.13952695 0.24255942
000260 bc 99 d5 3e 32 5e 77 3e 50 c5 dc bf f3 37 9a 3e
       0.41718853 0.24157026 -1.7247715 0.3012081
000270 9d db 1e 3e 0d ca 0c 3f 23 aa e9 3d f2 ba 1b bf
       0.15513463 0.54995805 0.11409404 -0.6083213
000280 2e d8 31 bf b1 fb 8b 3e b1 3b 5b bf 6e 5f 19 bf
       -0.6947049 0.27340463 -0.85637957 -0.5991124
000290 d0 9c 01 3f b5 0a 56 be 96 ad cf be 87 a7 91 3b
       0.506299 -0.20902522 -0.40562123 0.0044450196
0002a0 2c d7 f2 bd c5 b7 37 3f bb 01 60 3f 3a b1 bf bf
       -0.11857447 0.71764785 0.8750264 -1.497596
0002b0 4f ef 50 be ea 85 17 3d 36 16 3a be 8c c9 74 be
       -0.20403789 0.036992945 -0.18172535 -0.23905009
0002c0 b8 11 f0 3e 02 3c 8e bf 5d 6d 80 3e fe 6b 1a 3f
       0.46888518 -1.1112063 0.25083438 0.60321033
0002d0 65 7c 48 bf fb e9 ff bd b5 5a 17 3d b8 b7 8d 3f
       -0.7831481 -0.124958 0.03695174 1.1071692
0002e0 44 eb 0c bf 1a 5a 44 bd 8e 93 b8 bd 8e 4b cc 3e
       -0.55046487 -0.04793749 -0.09012519 0.39901394
0002f0 a2 30 49 bf e5 ea 14 3e ea ad 92 b9 6f 62 0d bf
       -0.7858983 0.1454273 -0.00027976866 -0.5522832
000300 43 81 29 bf 03 ed 11 3e cf 06 c2 be 73 28 b5 bf
       -0.6621286 0.14250569 -0.3789582 -1.4152969
000310 90 c7 4c bf 98 cf 8e be 2d c2 0a 3f b0 82 d3 bf
       -0.7999201 -0.27892756 0.5420254 -1.6524258
000320 26 a4 cf 3e d8 3d 86 3f 06 3f 97 be 24 c0 16 3e
       0.40554923 1.0487623 -0.2954027 0.14721733
000330 7c 31 ab 3d 51 d7 08 bc be 6c c7 3e 11 23 5f be
       0.08359048 -0.008352117 0.3895015 -0.2179072
000340 50 14 d7 3e d2 13 56 3e 58 b6 14 be cc 2d da bd
       0.42007685 0.20905998 -0.14522684 -0.10653266
000350 0c d7 9b 3f 05 13 c9 bd 38 54 0f 3e c9 50 0e bf
       1.2175002 -0.09818081 0.1399697 -0.5559202
000360 60 47 97 3e d8 35 2f 3e 28 91 82 3c e1 f4 1f bd
       0.29546642 0.17110384 0.015938357 -0.039051894
000370 ce 63 97 3c 80 b7 40 3e 6e 40 15 3f e0 4b 62 bf
       0.018480208 0.1882 0.58301437 -0.88397026
000380 45 85 99 be ea ec 8c be a7 83 4d 3e 95 24 28 3f
       -0.2998449 -0.275245 0.20069753 0.6568082
000390 a7 af ef 3e b0 43 42 3f d2 10 bd be 0e 4e 1b bd
       0.468137 0.7588453 -0.36926895 -0.037916236
0003a0 34 22 2a bf 6f 55 52 3e 14 32 3b 3f 55 76 17 be
       -0.6645844 0.20540403 0.7312329 -0.14791234
0003b0 2b 1e b5 bd 55 25 7c be 82 5e 17 3f e7 6a 89 be
       -0.08843645 -0.24623616 0.5912858 -0.26839373
0003c0 bb 7c 25 bd b4 54 da bd 18 82 ec be 6b a9 4f 3e
       -0.040402155 -0.10660687 -0.46193004 0.20279472
0003d0 76 e9 3e 3e 52 a2 b8 be 38 30 8a 3e a9 4b 03 be
       0.18643746 -0.3606134 0.26989913 -0.12821831
0003e0 a2 d3 43 bd 89 22 d3 3e b0 42 c0 be 53 ad 5f 3f
       -0.04780925 0.41237286 -0.3755088 0.87373847
0003f0 f2 f4 57 bf 5b e2 03 bf cb 3f 31 3f a9 1a 2c be
       -0.8435813 -0.51517266 0.69237965 -0.16807045

network_body._body_endoder.seq_layers.0.bias f4 [128]
000000 00 00 00 00 00 00 00 00 00 00 00 00 00 00 00 00
       0.0 0.0 0.0 0.0
000010 00 00 00 00 00 00 00 00 00 00 00 00 00 00 00 00
       0.0 0.0 0.0 0.0
000020 00 00 00 00 00 00 00 00 00 00 00 00 00 00 00 00
       0.0 0.0 0.0 0.0
000030 00 00 00 00 00 00 00 00 00 00 00 00 00 00 00 00
       0.0 0.0 0.0 0.0
000040 00 00 00 00 00 00 00 00 00 00 00 00 00 00 00 00
       0.0 0.0 0.0 0.0
000050 00 00 00 00 00 00 00 00 00 00 00 00 00 00 00 00
       0.0 0.0 0.0 0.0
000060 00 00 00 00 00 00 00 00 00 00 00 00 00 00 00 00
       0.0 0.0 0.0 0.0
000070 00 00 00 00 00 00 00 00 00 00 00 00 00 00 00 00
       0.0 0.0 0.0 0.0
000080 00 00 00 00 00 00 00 00 00 00 00 00 00 00 00 00
       0.0 0.0 0.0 0.0
000090 00 00 00 00 00 00 00 00 00 00 00 00 00 00 00 00
       0.0 0.0 0.0 0.0
0000a0 00 00 00 00 00 00 00 00 00 00 00 00 00 00 00 00
       0.0 0.0 0.0 0.0
0000b0 00 00 00 00 00 00 00 00 00 00 00 00 00 00 00 00
       0.0 0.0 0.0 0.0
0000c0 00 00 00 00 00 00 00 00 00 00 00 00 00 00 00 00
       0.0 0.0 0.0 0.0
0000d0 00 00 00 00 00 00 00 00 00 00 00 00 00 00 00 00
       0.0 0.0 0.0 0.0
0000e0 00 00 00 00 00 00 00 00 00 00 00 00 00 00 00 00
       0.0 0.0 0.0 0.0
0000f0 00 00 00 00 00 00 00 00 00 00 00 00 00 00 00 00
       0.0 0.0 0.0 0.0
000100 00 00 00 00 00 00 00 00 00 00 00 00 00 00 00 00
       0.0 0.0 0.0 0.0
000110 00 00 00 00 00 00 00 00 00 00 00 00 00 00 00 00
       0.0 0.0 0.0 0.0
000120 00 00 00 00 00 00 00 00 00 00 00 00 00 00 00 00
       0.0 0.0 0.0 0.0
000130 00 00 00 00 00 00 00 00 00 00 00 00 00 00 00 00
       0.0 0.0 0.0 0.0
000140 00 00 00 00 00 00 00 00 00 00 00 00 00 00 00 00
       0.0 0.0 0.0 0.0
000150 00 00 00 00 00 00 00 00 00 00 00 00 00 00 00 00
       0.0 0.0 0.0 0.0
000160 00 00 00 00 00 00 00 00 00 00 00 00 00 00 00 00
       0.0 0.0 0.0 0.0
000170 00 00 00 00 00 00 00 00 00 00 00 00 00 00 00 00
       0.0 0.0 0.0 0.0
000180 00 00 00 00 00 00 00 00 00 00 00 00 00 00 00 00
       0.0 0.0 0.0 0.0
000190 00 00 00 00 00 00 00 00 00 00 00 00 00 00 00 00
       0.0 0.0 0.0 0.0
0001a0 00 00 00 00 00 00 00 00 00 00 00 00 00 00 00 00
       0.0 0.0 0.0 0.0
0001b0 00 00 00 00 00 00 00 00 00 00 00 00 00 00 00 00
       0.0 0.0 0.0 0.0
0001c0 00 00 00 00 00 00 00 00 00 00 00 00 00 00 00 00
       0.0 0.0 0.0 0.0
0001d0 00 00 00 00 00 00 00 00 00 00 00 00 00 00 00 00
       0.0 0.0 0.0 0.0
0001e0 00 00 00 00 00 00 00 00 00 00 00 00 00 00 00 00
       0.0 0.0 0.0 0.0
0001f0 00 00 00 00 00 00 00 00 00 00 00 00 00 00 00 00
       0.0 0.0 0.0 0.0

network_body._body_endoder.seq_layers.2.weight f4 [128, 128]
000000 da aa 55 3e e8 9c 88 bb 52 85 99 3d 81 9e 0e bd
       0.20865956 -0.0041690953 0.07496132 -0.03481913
000010 91 b2 01 3e 30 ea a5 3d c7 eb d7 bd da e3 21 3d
       0.12665774 0.08101308 -0.10543018 0.039523937
000020 cc da ff 3c fe 6b f0 3c f4 cd af bd 8d a5 19 3d
       0.03123226 0.02934837 -0.08584204 0.037511397
000030 7c ab df bd 37 92 8f bd 18 be c2 bd c8 69 a5 bb
       -0.1092138 -0.0701031 -0.09508914 -0.0050480105
000040 2b 8d 36 3e 60 e1 ae bd fd c1 01 bb 50 42 2c bd
       0.17827289 -0.085390806 -0.0019799464 -0.042055428
000050 ef f0 95 bd 67 10 f2 bc 98 e8 3b bd f3 33 ca bc
       -0.07321345 -0.029548837 -0.045876116 -0.024682974
000060 89 ec 66 ba 3b f5 bd 3d c0 42 3e bd 35 3f 1b be
       -0.000880905 0.092752896 -0.046450377 -0.1516083
000070 81 9f 75 3d e0 14 5c 3d e8 b6 8c 3d 18 46 62 bc
       0.059966568 0.053730845 0.06870824 -0.013810657
000080 7c 4b bb 3b cd 4b a4 bd f3 d3 26 3d 72 1b b7 bd
       0.0057157855 -0.0802227 0.040729474 -0.08940782
000090 da 0a d7 bd a6 0e 66 bd f9 8b 8f 3c 82 bf 69 bb
       -0.10500117 -0.056166314 0.017522799 -0.0035667126
0000a0 3f b8 16 3b a9 c8 40 3e 40 cb 53 bb 46 96 2a be
       0.0022998003 0.18826546 -0.0032317191 -0.16658887
0000b0 5e eb aa bd 49 25 3a 3d 02 af c8 bd 9e 70 ca 3d
       -0.08345674 0.045445714 -0.09799005 0.09884761
0000c0 72 54 b7 bd 9e 78 b4 3d 42 74 11 be 39 1b 1a 3c
       -0.089516535 0.088120684 -0.14204505 0.009405904
0000d0 c9 43 6f bc 1d 84 c8 bc 8f c8 72 bd ab 35 a1 3c
       -0.014603564 -0.024477059 -0.0592733 0.019678911
0000e0 14 d9 16 bd 0c 8b b8 bd ab 6f 60 3d f5 67 b7 3a
       -0.036828116 -0.09010896 0.054793995 0.0013992774
0000f0 d3 5d 08 be 72 45 c7 ba 8b 72 d0 bc e3 78 f4 bc
       -0.13317041 -0.0015203191 -0.025445243 -0.0298428
000100 d4 23 3d be af 56 43 3d 84 ad f2 bd 8d cd db bd
       -0.18470699 0.04769009 -0.11849502 -0.10732565
000110 b6 f0 bc bc 84 ad eb bd ab cd 46 bd 65 ff a7 bc
       -0.023063999 -0.11507705 -0.048535984 -0.020507524
000120 75 bc 10 3d fd 19 17 be 3f d6 24 bd 1c 31 4a bd
       0.035335977 -0.14756007 -0.040243383 -0.04936324
000130 d4 d6 30 3e 41 59 05 3e 90 95 26 3c 9f ea 3c bd
       0.1726945 0.13022329 0.010167494 -0.04612219
000140 16 2e 58 bd 7f b8 1a 3d 20 65 9e 3d 8b 2a 2b 3e
       -0.052778326 0.037773605 0.07734132 0.16715448
000150 3f aa 60 be 7c 1f ba 3d ff dd e9 bd aa fb 89 bd
       -0.21939944 0.090880364 -0.114192955 -0.06737454
000160 94 82 54 3d c7 79 f1 3c 2d 05 24 bd 8d d5 3a 3d
       0.05188234 0.029477013 -0.040044 0.045613814
000170 dc 8e 7e 3d 3d 12 58 3c a9 9d 24 be e9 32 b5 3d
       0.06214796 0.013187942 -0.16075768 0.08847601
000180 d2 6a 1d 3e 51 66 2d 3d 28 87 93 3d d7 a2 e7 3d
       0.1537278 0.042333905 0.072035134 0.11310356
000190 0d 6e 06 be 5f cd 54 be 71 14 0f be 9a d3 a9 3d
       -0.13127919 -0.20781468 -0.13972642 0.08292313
0001a0 58 0e 67 bc 32 ae fd bd c9 ff 4c 3d 51 fa 33 3e
       -0.014102541 -0.12386741 0.050048623 0.17575957
0001b0 89 f4 8a bd 16 1c af 3d 5f 09 4d be aa 5e 34 3d
       -0.06784923 0.08550279 -0.20023106 0.04403559
0001c0 d7 a7 cc bd a7 db ed 3d 68 2c 90 3c ae 4f 06 bd
       -0.099929504 0.11614161 0.0175993 -0.032790832
0001d0 22 66 39 bd 72 20 cb 3c da 1a 35 bd 08 37 38 bd
       -0.045263417 0.024795745 -0.04421506 -0.044974357
0001e0 58 59 61 bd fe dc 9d 3d 28 a5 69 3d b8 d3 e0 3d
       -0.055016845 0.077081665 0.05704227 0.10977882
0001f0 85 d3 61 bd 3a 1b 6c 3d c9 62 36 bb 88 5e 01 3d
       -0.05513336 0.057643153 -0.0027829877 0.031584293
000200 0f a7 80 3d 49 c0 a6 bd 4f ed 65 bd 97 6b dc 3d
       0.06281864 -0.08142144 -0.05613452 0.10762709
000210 a6 3c 1d bc a5 48 c7 bd 89 74 d3 bd 9c d2 07 bd
       -0.009596979 -0.09730653 -0.10324962 -0.033159837
000220 b5 06 68 be da 6a 9a bd 86 00 a3 3d 79 f0 e3 3c
       -0.22658809 -0.075399116 0.07959084 0.027824627
000230 74 7f 3a 3e 08 81 17 3d 42 dd dd bc ac d8 b6 bd
       0.18212682 0.03698829 -0.027083043 -0.08928046
000240 c8 64 31 bc e3 a1 f0 bc 49 7c 51 3d ee 57 1d bd
       -0.010827251 -0.029374069 0.05114392 -0.038413934
000250 f0 3f 96 bd a8 2c 8e 3d 7e 72 e2 3d d8 35 c1 3d
       -0.07336414 0.06942111 0.11056994 0.09434098
000260 80 31 aa bd 43 8a 81 3d 76 f5 ba 3d 5f c8 4c bd
       -0.083102226 0.063251995 0.09128849 -0.049995776
000270 90 8e 21 bd 76 50 cf 3d 99 ac 54 3d 44 94 80 bd
       -0.0394426 0.101227686 0.051922414 -0.062782794
000280 15 58 93 3d a7 6d 21 bd 5e 1b aa bd cb 9e 40 be
       0.07194535 -0.039411213 -0.08306001 -0.18810575
000290 61 6d a2 3d cd c5 71 3d ad 90 97 bc cb 7d b8 bd
       0.079310186 0.05902653 -0.018501604 -0.09008368
0002a0 82 01 b7 3d 0d 3c 41 bd f4 be 84 3a f7 33 4a 3c
       0.089358345 -0.04717641 0.0010127709 0.012341491
0002b0 a8 41 46 bc e8 41 36 bd 46 a3 d9 3c 6c cf 34 bc
       -0.012100615 -0.044496447 0.026567113 -0.011035781
0002c0 7c 81 a5 bd 4c ce 2e bd e6 80 df 3c 70 69 3d 3d
       -0.08081338 -0.04267721 0.027283143 0.04624313
0002d0 75 3f 11 bd 3c 60 aa bc d7 32 f6 bd e5 a7 1d bd
       -0.035460908 -0.020797841 -0.12021416 -0.038490195
0002e0 38 a1 fc bc 32 99 83 bd d1 23 d0 3d 24 4b 5d 3c
       -0.030838594 -0.06425704 0.101630814 0.013506684
0002f0 d9 46 ef 3d 4b 60 2d bd 32 46 9f 3c 46 cf 3a 3e
       0.11683435 -0.04232816 0.019442651 0.18243131
000300 e2 68 ff bc 5d 25 29 3d 84 da be 3d c7 f2 cd 3c
       -0.031177942 0.041295398 0.09319022 0.02514018
000310 67 49 bb 3d 61 79 79 3c 20 9b 0a 3e 0b 6d 70 be
       0.0914486 0.015226693 0.13535738 -0.23479097
000320 18 dd bf bd 73 c8 fd bd 3c 71 b5 3d d6 12 db bc
       -0.09368342 -0.12391748 0.08859488 -0.02674238
000330 05 eb f3 3d 8b fe 5f bd 57 36 7e bd 43 fd 3d bd
       0.11910061 -0.05468611 -0.06206354 -0.046384107
000340 77 00 b7 bd eb c0 50 39 13 c3 f8 bd 00 19 28 bd
       -0.089356355 0.00019908293 -0.121465825 -0.041039467
000350 1e 27 bd bc 39 08 31 3d ea 0e 2d 3e 9d 73 84 bc
       -0.023089942 0.043220732 0.1690022 -0.01616841
000360 54 0a 0c 3e ab b4 52 be fb f3 78 bd 4e 41 2f 3c
       0.13675815 -0.20576732 -0.060779553 0.010696722
000370 7c 86 16 be 81 d5 59 bd 04 2f 99 3d 73 e2 89 bd
       -0.14699739 -0.05318213 0.07479671 -0.06732645
000380 58 66 01 bd 9e 28 06 3d 8f 76 98 bd af cd 12 3e
       -0.031591743 0.03275358 -0.07444488 0.14336275
000390 9b 64 2c bd 02 b6 30 3c da c9 36 3d 78 89 3e bd
       -0.042088132 0.010785582 0.044626094 -0.04651782
0003a0 a1 91 11 be 82 83 d6 3d 51 16 dd 3c fa c8 f1 3d
       -0.1421571 0.10474302 0.02698818 0.11805911
0003b0 42 a6 f2 bc 12 24 56 be 8e 96 61 3c 79 fe b4 3c
       -0.029620294 -0.20912197 0.013768805 0.022093998
0003c0 68 3a ee 3d 3e 3b e1 bc d6 b0 a3 bd b6 af 1c 3d
       0.11632234 -0.02749407 -0.07992713 0.03825351
0003d0 7a a6 9b 3d 25 e3 6c bd dc 94 12 3d 12 33 23 be
       0.07600112 -0.05783381 0.035786495 -0.1593745
0003e0 7b 32 b9 3d 6b a8 0d bd 03 57 98 bd 8f d3 81 3e
       0.090428315 -0.034584444 -0.07438471 0.2535672
0003f0 58 8a 62 3e b4 71 69 bd 82 3a 14 bd 25 8d cb bc
       0.22123086 -0.0569932 -0.03618861 -0.024847576

network_body._body_endoder.seq_layers.2.bias f4 [128]
000000 00 00 00 00 00 00 00 00 00 00 00 00 00 00 00 00
       0.0 0.0 0.0 0.0
000010 00 00 00 00 00 00 00 00 00 00 00 00 00 00 00 00
       0.0 0.0 0.0 0.0
000020 00 00 00 00 00 00 00 00 00 00 00 00 00 00 00 00
       0.0 0.0 0.0 0.0
000030 00 00 00 00 00 00 00 00 00 00 00 00 00 00 00 00
       0.0 0.0 0.0 0.0
000040 00 00 00 00 00 00 00 00 00 00 00 00 00 00 00 00
       0.0 0.0 0.0 0.0
000050 00 00 00 00 00 00 00 00 00 00 00 00 00 00 00 00
       0.0 0.0 0.0 0.0
000060 00 00 00 00 00 00 00 00 00 00 00 00 00 00 00 00
       0.0 0.0 0.0 0.0
000070 00 00 00 00 00 00 00 00 00 00 00 00 00 00 00 00
       0.0 0.0 0.0 0.0
000080 00 00 00 00 00 00 00 00 00 00 00 00 00 00 00 00
       0.0 0.0 0.0 0.0
000090 00 00 00 00 00 00 00 00 00 00 00 00 00 00 00 00
       0.0 0.0 0.0 0.0
0000a0 00 00 00 00 00 00 00 00 00 00 00 00 00 00 00 00
       0.0 0.0 0.0 0.0
0000b0 00 00 00 00 00 00 00 00 00 00 00 00 00 00 00 00
       0.0 0.0 0.0 0.0
0000c0 00 00 00 00 00 00 00 00 00 00 00 00 00 00 00 00
       0.0 0.0 0.0 0.0
0000d0 00 00 00 00 00 00 00 00 00 00 00 00 00 00 00 00
       0.0 0.0 0.0 0.0
0000e0 00 00 00 00 00 00 00 00 00 00 00 00 00 00 00 00
       0.0 0.0 0.0 0.0
0000f0 00 00 00 00 00 00 00 00 00 00 00 00 00 00 00 00
       0.0 0.0 0.0 0.0
000100 00 00 00 00 00 00 00 00 00 00 00 00 00 00 00 00
       0.0 0.0 0.0 0.0
000110 00 00 00 00 00 00 00 00 00 00 00 00 00 00 00 00
       0.0 0.0 0.0 0.0
000120 00 00 00 00 00 00 00 00 00 00 00 00 00 00 00 00
       0.0 0.0 0.0 0.0
000130 00 00 00 00 00 00 00 00 00 00 00 00 00 00 00 00
       0.0 0.0 0.0 0.0
000140 00 00 00 00 00 00 00 00 00 00 00 00 00 00 00 00
       0.0 0.0 0.0 0.0
000150 00 00 00 00 00 00 00 00 00 00 00 00 00 00 00 00
       0.0 0.0 0.0 0.0
000160 00 00 00 00 00 00 00 00 00 00 00 00 00 00 00 00
       0.0 0.0 0.0 0.0
000170 00 00 00 00 00 00 00 00 00 00 00 00 00 00 00 00
       0.0 0.0 0.0 0.0
000180 00 00 00 00 00 00 00 00 00 00 00 00 00 00 00 00
       0.0 0.0 0.0 0.0
000190 00 00 00 00 00 00 00 00 00 00 00 00 00 00 00 00
       0.0 0.0 0.0 0.0
0001a0 00 00 00 00 00 00 00 00 00 00 00 00 00 00 00 00
       0.0 0.0 0.0 0.0
0001b0 00 00 00 00 00 00 00 00 00 00 00 00 00 00 00 00
       0.0 0.0 0.0 0.0
0001c0 00 00 00 00 00 00 00 00 00 00 00 00 00 00 00 00
       0.0 0.0 0.0 0.0
0001d0 00 00 00 00 00 00 00 00 00 00 00 00 00 00 00 00
       0.0 0.0 0.0 0.0
0001e0 00 00 00 00 00 00 00 00 00 00 00 00 00 00 00 00
       0.0 0.0 0.0 0.0
0001f0 00 00 00 00 00 00 00 00 00 00 00 00 00 00 00 00
       0.0 0.0 0.0 0.0

action_model._discrete_distribution.branches.0.weight f4 [3, 128]
000000 04 24 43 bc d3 a4 92 3a 9c a9 10 bc 98 c6 6e 3c
       -0.011910442 0.0011188037 -0.0088295005 0.014573716
000010 1b a4 cd 3c 06 a6 13 bc e5 b1 1b bb 42 32 c0 b8
       0.025102666 -0.009011751 -0.0023757156 -9.164635e-05
000020 19 e3 19 bb 53 f9 a1 3b 98 01 2d 3b d2 28 cf 3a
       -0.0023481308 0.004943052 0.0026398655 0.0015805012
000030 cd bd e8 3a 3d de 0b 3a 15 64 83 3b d5 44 f8 bb
       0.001775676 0.0005335545 0.0040097334 -0.007576565
000040 ac e1 88 ba a7 f7 52 bb 4c 53 16 bc c6 9f 18 bc
       -0.0010443232 -0.003219107 -0.009175133 -0.009315437
000050 c2 a6 b8 bc 27 0d ac bc 4a b4 5f bc 41 00 2f bb
       -0.022540454 -0.021002365 -0.013653824 -0.0026703032
000060 db f6 56 3a a8 fd e2 bb da 57 3f 3c aa 4c c4 3b
       0.00082002365 -0.006927211 0.01167866 0.0059905844
000070 e0 6b 70 3b 28 6f cd 3c 60 dd 2c 3c 1d 15 51 ba
       0.0036685392 0.025077417 0.010550827 -0.00079758634
000080 c3 b9 08 3c 39 19 06 3c eb b1 c5 3b da e1 6a 39
       0.00834507 0.0081847245 0.0060331724 0.00022400115
000090 1a 10 8a bb b7 d8 23 bc 2e 7b 36 3a a8 6f 91 bb
       -0.0042133452 -0.010000399 0.0006961104 -0.0044383593
0000a0 f3 dc 7e bb f8 47 1c 3c 32 19 7e 3a 9a 81 66 3b
       -0.003888902 0.009538643 0.00096930854 0.0035172463
0000b0 68 bb 8d 3b 63 a2 13 bb 9e 63 a2 3b 24 c2 0e 3c
       0.004325319 -0.002252721 0.004955723 0.008713279
0000c0 3c 51 ca 3b ad eb 88 bb 98 57 c4 bb 5a a4 29 3b
       0.0061742347 -0.0041784854 -0.0059918873 0.0025885315
0000d0 cf a0 b1 bb 09 a9 87 3b 03 b7 27 3b 0a e7 05 bc
       -0.005420781 0.0041400236 0.0025591261 -0.00817276
0000e0 d6 a3 bc 3b e3 d7 dd bb 99 e1 06 3c 47 ef db ba
       0.0057568355 -0.0067701205 0.008232498 -0.0016779684
0000f0 d4 56 8e b8 a8 b0 b5 3a 59 08 91 3b 04 b9 c4 bb
       -6.787261e-05 0.0013861852 0.004426044 -0.006003501
000100 52 d4 6b 3c 68 5e 92 3a 38 9b e7 3b 49 51 13 bc
       0.014393883 0.0011167051 0.007068064 -0.008991548
000110 cd ef 08 3c 53 97 76 b8 a8 11 db ba 52 39 ce 3a
       0.008357954 -5.8791902e-05 -0.0016713636 0.0015733636
000120 48 8a 46 3b 68 70 b6 bb 7f fe 47 ba 88 86 4d 3b
       0.0030294824 -0.005567599 -0.00076291704 0.0031360704
000130 36 da 99 ba ca a8 89 bb 27 d0 b5 3b 10 89 d9 ba
       -0.0011738006 -0.0042010294 0.0055484953 -0.0016596634
000140 84 3d 9d 37 04 8b 82 3c c9 29 4b 3c 84 4b 25 3c
       1.8744504e-05 0.015935428 0.012400099 0.010088805
000150 d8 72 f6 b9 05 55 53 bb 69 9b 9f bb e7 14 36 3c
       -0.00047006342 -0.003224672 -0.0048708213 0.011113382
000160 40 5f 85 38 3d bf ed bb cb 95 f1 39 f5 64 0a 3c
       6.359676e-05 -0.0072554634 0.00046078707 0.008446922
000170 eb 6d 80 3c 75 b9 25 3b e0 c7 f7 3b 7f d0 4f 3b
       0.015677413 0.0025287543 0.0075616688 0.0031709967
000180 24 f7 8f bb 77 16 e4 3a 94 be 2e 39 ca 54 19 3c
       -0.004393475 0.0017401715 0.00016664929 0.009358594
000190 c3 f2 68 bb 92 f0 40 3b 9b 3e 8d 3c 0b 96 f6 ba
       -0.0035545088 0.0029440266 0.017241767 -0.0018813027
0001a0 03 14 97 3c 71 5b 3f 3b 1f 3a 42 3c 2b 53 9f ba
       0.01844216 0.002919879 0.011854677 -0.0012155523
0001b0 fb 38 0c 3c c4 17 a2 bb d7 91 34 3b c3 69 2a 3c
       0.008558507 -0.0049466807 0.0027552748 0.010401192
0001c0 2c 1e 40 3c d9 ab c8 3b 3c ec 92 bb eb cf fe 3a
       0.011725944 0.0061240015 -0.0044837277 0.0019440626
0001d0 8b e4 2a 3c 90 b4 4b bb 47 76 44 bc 72 18 24 bb
       0.010430465 -0.0031082965 -0.01199109 -0.0025038985
0001e0 4b 61 e4 3b 3d 15 0b 3b 9b e5 f7 bb 70 15 41 bc
       0.006969606 0.0021222376 -0.007565213 -0.011784896
0001f0 44 c2 88 3b cb 36 5e bb 3b cf 0c bb c8 d6 05 ba
       0.004173549 -0.003390717 -0.0021485824 -0.0005105552
000200 18 62 45 3b 13 71 05 3a 1f 8e dc bb 66 8f 2a 3c
       0.0030118283 0.0005090397 -0.0067308093 0.010410165
000210 80 55 22 3c 45 13 a5 ba 28 2d 9d bb f0 1c eb ba
       0.00990808 -0.0012594244 -0.004796643 -0.0017937701
000220 07 ef 14 3c 52 f0 bb bb 9c 5a 90 b9 ad 55 bf 3c
       0.009090192 -0.0057354355 -0.0002753333 0.023356283
000230 ee 2d 46 bc 5d b1 dd ba 6b ac 7f 3c ca 3c a0 3b
       -0.012095911 -0.001691382 0.0156050725 0.004890059
000240 10 55 64 3b 03 47 82 3b 95 dd c4 bb ef 0a 69 3c
       0.003484074 0.0039757504 -0.00600786 0.014223798
000250 11 13 a0 ba 67 23 57 3c 03 29 c3 3b b3 86 28 bb
       -0.0012212713 0.013130999 0.0059558167 -0.0025715053
000260 00 2d 84 bc bd 9a 8d bb 5f 86 a4 bc 03 c9 89 3b
       -0.016134739 -0.0043214248 -0.020083604 0.0042048707
000270 e7 9a 69 bc e0 58 d1 ba d9 e6 4b 3c a2 6e 38 bc
       -0.014258123 -0.0015971921 0.012445175 -0.011256846
000280 cb 00 58 3a 9d 30 bf b9 2f 68 17 bb f6 0c 8a bb
       0.0008239864 -0.0003646658 -0.002310287 -0.004212971
000290 cd 31 a9 b9 08 9f ac 3a 3f fe 3f bb 1a 2c 02 3a
       -0.00032271296 0.0013169954 -0.002929583 0.0004965678
0002a0 60 ec 7e bc ac 1b 9c bc a9 f1 07 3c 8e 36 40 3c
       -0.015559286 -0.019056164 0.008297362 0.011731757
0002b0 bb 9a f2 bb 43 cd 3b 3c 9f 02 b5 bb dc 2a 29 3c
       -0.007403699 0.011462512 -0.005523994 0.01032516
0002c0 83 1a f2 3a a4 29 1e bc fc dc 8d 3b e3 0c 49 bc
       0.0018471036 -0.009653483 0.004329322 -0.012271139
0002d0 bf 9b 8d 3b 7f b3 9f bb ea 34 4e bc ec e1 39 ba
       0.004321545 -0.0048736925 -0.012585858 -0.0007090855
0002e0 2d 8d d6 3c e0 5c 6b bb 17 57 37 3c 53 0f 65 3a
       0.026190365 -0.0035913512 0.011190197 0.000873794
0002f0 62 05 64 bc e7 dd 02 bc 02 93 4d 3c 60 d7 14 3c
       -0.013917299 -0.007987476 0.012547256 0.0090845525
000300 03 69 7d 3c 3d 91 f3 3b 89 1d 1e 3c 41 65 a3 b8
       0.015466931 0.0074330852 0.009650596 -7.791306e-05
000310 e3 09 99 3a 5c c4 9f bb 3f 57 51 bb 17 b6 2d ba
       0.001167592 -0.004875703 -0.0031942872 -0.000662656
000320 ba 57 e8 3b 12 59 44 b9 c7 82 1a bc 1f e6 2d bb
       0.007090536 -0.00018725198 -0.009430594 -0.0026534868
000330 33 2c 53 bb e2 21 a6 bc 32 ef d8 bb b8 a9 16 3a
       -0.003222239 -0.020279828 -0.006620311 0.0005747336
000340 40 88 91 3c 94 cf 36 3c e7 bf 8c bc 35 fd 78 3c
       0.017765164 0.011157889 -0.01718135 0.015197088
000350 47 c1 68 3b 04 7f 46 3b 3c ee bd 3b d7 6c 75 3c
       0.0035515593 0.003028811 0.005796222 0.014979563
000360 56 4b 97 bb d2 34 75 3c ed 8b 01 3b bb 99 75 3c
       -0.004617135 0.014966207 0.001976724 0.0149902655
000370 40 87 7c bb 4d c0 8a bb 2a 84 f3 3b e7 6e d1 3b
       -0.0038532764 -0.00423435 0.0074315267 0.0063913944
000380 5f 2e 85 3c 11 0d 2b bc 1a b5 d1 3b 6b 2d 66 3b
       0.016257463 -0.010440127 0.006399763 0.0035122286
000390 8d f2 67 bc 0d d7 d7 3b 06 c1 a4 bc 46 8e c1 3b
       -0.01415695 0.0065869153 -0.020111572 0.005906853
0003a0 d5 0b 39 3c 27 24 20 bb 2f 7e 30 bc 8b 7b 9e 3c
       0.011294325 -0.002443561 -0.010772272 0.01934602
0003b0 c4 80 11 3c f5 44 18 bb 36 37 ad bc 29 ab 49 bb
       0.008880798 -0.002323446 -0.02114449 -0.0030772185
0003c0 aa 81 fc bb 78 48 7b b8 ab cf 08 bc f6 1b 17 3a
       -0.007705887 -5.9910555e-05 -0.008350293 0.00057643594
0003d0 c8 9e d2 bb d3 f2 24 bc 5a 25 71 3c 51 1a 3c 3b
       -0.0064276196 -0.010067659 0.014718378 0.002870221
0003e0 9b e2 73 bb 59 4b 0e 3c 91 ce c7 bb 7e bb 0d 3b
       -0.0037213925 0.0086849565 -0.0060976227 0.0021626647
0003f0 5b e6 f0 bb 0b a2 03 39 8b 61 7b bc 7e 4a a8 bc
       -0.0073516793 0.00012553499 -0.01534308 -0.020543333

action_model._discrete_distribution.branches.0.bias f4 [3]
000000 00 00 00 00 00 00 00 00 00 00 00 00
       0.0 0.0 0.0

network_body._body_endoder.seq_layers.0.weight f4 [128, 3]
000000 55 bc bd bf c4 91 14 bf a6 20 18 bf 71 e9 17 be
       -1.4823099 -0.5803492 -0.5942482 -0.14835145
000010 9b 74 46 bf 35 03 80 be d3 17 a9 3e c0 47 1e 3f
       -0.77521676 -0.25002447 0.3302599 0.6182823
000020 bd c7 54 be 21 b9 1c be 15 44 01 3f 39 3f 91 bd
       -0.20779319 -0.15304996 0.5049451 -0.07092137
000030 64 f0 9f bf b0 22 af 3f 94 3f d1 bf cf 9c 57 bf
       -1.2495236 1.3682461 -1.6347528 -0.84223646
000040 8b 01 cc be 29 5f ec be be 9e 91 3e 29 6f 2d bc
       -0.39844927 -0.4616635 0.28441423 -0.010585585
000050 b1 07 ff be 6e e7 19 3f 38 e0 88 3f d9 b7 f1 be
       -0.49810556 0.6011876 1.0693426 -0.47210577
000060 d7 19 97 be 7c f0 65 3e 5e 56 7b be 47 a8 1a 3f
       -0.29511902 0.22455019 -0.24544665 0.6041302
000070 55 44 98 3f 89 c3 43 bf 62 94 62 3e 30 30 3d 3f
       1.1895853 -0.7647024 0.22126916 0.73901653
000080 0d 6e fe bd b4 13 01 3f 4b 6f bf 3d 9c d7 18 bf
       -0.12423334 0.5042069 0.09347399 -0.59703994
000090 51 8e 63 be 27 92 5a 3f e1 7b 74 3f c6 7f 18 3f
       -0.22222258 0.8537926 0.95501524 0.59569967
0000a0 d3 db 3c bf 22 e6 d1 bd 58 d7 40 3f 36 6c c0 3e
       -0.73772925 -0.102489725 0.7532859 0.37582558
0000b0 be 10 8b 3f a3 01 a5 3f a4 51 c5 bd ae 6f 59 3e
       1.0864484 1.2891124 -0.09634712 0.21234009
0000c0 e1 06 16 3e 24 b1 d5 bd d2 f0 65 be 4c cb ba bc
       0.14651062 -0.104341775 -0.22455147 -0.022802018
0000d0 d5 27 02 3f 07 c9 f6 3e 70 69 4a bd 97 fb a5 3e
       0.5084203 0.48200247 -0.04941696 0.3241851
0000e0 b4 ca a5 bd dd 42 66 bf 91 2e d1 3d c2 74 41 bf
       -0.08095303 -0.89945775 0.1021396 -0.75568783
0000f0 0f 0d 82 3f 6a bc d4 3e d3 0f d8 3e 6a 56 72 bf
       1.0160235 0.4155 0.42199573 -0.9466311
000100 07 01 9f be d9 a3 2b be b1 b5 6f bf 93 12 d7 bd
       -0.3105547 -0.16761722 -0.93636614 -0.105015896
000110 df 48 ec bf 77 a9 03 be 0e 2b ed 3e a1 8d 53 be
       -1.8459738 -0.12857614 0.4632191 -0.20659496
000120 23 26 32 3f c7 61 40 3f 63 a4 df be 0b 70 5c bf
       0.6958944 0.75149196 -0.43680105 -0.86108464
000130 b4 d8 1c 3f 42 c8 f0 be 5b f7 41 3d d6 67 8d 3e
       0.6126816 -0.47027785 0.047355037 0.27618283
000140 2c 03 47 be 10 70 2d 3f 82 e0 ae be 27 96 04 be
       -0.19434804 0.6774912 -0.3415566 -0.12947904
000150 ca eb cb 3e 4f e9 97 3d 46 c2 e2 be 4e 84 33 3f
       0.3982833 0.07417547 -0.44288844 0.70123756
000160 9d d7 89 bf fb 41 7c 3e 79 b0 34 bf 3e 91 34 bf
       -1.0768925 0.24634545 -0.70581776 -0.7053412
000170 ac 0f bc be 25 f2 6f 3e 64 83 bc be ab 78 e5 be
       -0.36730707 0.23432215 -0.36818993 -0.44818625
000180 36 be 51 3f 45 fe 11 bd 15 35 1b bf 1d 40 97 3f
       0.81930864 -0.03564288 -0.6062787 1.1816441
000190 91 fa db 3e b3 8c 19 bf e2 93 73 bf 14 cf 3b 3f
       0.42964604 -0.59980315 -0.95147526 0.7336285
0001a0 59 ec cb 3e 84 53 4a be a0 cd 80 3d 05 51 b9 3f
       0.39828756 -0.19758421 0.0628922 1.447785
0001b0 d7 72 6c bf 29 99 9f be 22 dc a2 be 21 df 8a 3e
       -0.9236273 -0.3117154 -0.31808573 0.2712336
0001c0 59 8f f5 3e 27 90 d2 bd 33 f4 84 3f 2e 7f d3 be
       0.47960928 -0.10281401 1.0387024 -0.41307968
0001d0 53 ae ca 3c f3 c6 bd be aa c0 a1 be 44 78 9a 3d
       0.024741327 -0.3706585 -0.31592304 0.0754247
0001e0 12 f5 c9 3e e1 b4 04 bc ab 15 2c bf 18 23 60 3e
       0.39444786 -0.0080997655 -0.6722056 0.21888387
0001f0 3e 55 9c 3e 7c 42 0d bf aa 65 90 3e 99 fb 34 3f
       0.30533785 -0.5517957 0.28202564 0.7069641
000200 1e 0a a2 be ec d6 55 bf b0 b3 69 bf 6b cc 11 3f
       -0.31648344 -0.8353107 -0.91289806 0.5695254
000210 b9 f0 d1 3d 5f 1a 09 3f 4d 80 78 bb 20 be 43 bf
       0.10250992 0.53555864 -0.003791827 -0.7646198
000220 7d ac b1 3e aa 70 0c 3f 10 24 85 3e 69 12 4e bf
       0.3470191 0.5485941 0.26004076 -0.8049684
000230 be 0d 53 3e 2e 3f 6a 3e 63 bc 94 3e 77 c0 ad be
       0.20610711 0.22875664 0.29049978 -0.33935902
000240 18 c1 87 3e f7 57 32 be 5b 62 8d bd 83 18 2a 3e
       0.26514506 -0.17416368 -0.069035254 0.16610913
000250 87 6d d6 3d f5 0f 0e 3e 64 23 c7 be de 54 b1 3f
       0.104701094 0.13873275 -0.38894188 1.3854024
000260 7a d7 a2 3d 56 fe 8a 3c 45 66 4f 3f a7 5f 15 bf
       0.07951255 0.01696698 0.81015426 -0.5834908
000270 4d 12 f4 3f 21 a0 08 3e 85 e3 20 3f 90 19 51 bf
       1.9068085 0.13342334 0.6284717 -0.8167963
000280 06 0a fe be 67 dd 54 be bd 32 e3 3d dd f3 88 3d
       -0.49617022 -0.20787583 0.11093662 0.06687138
000290 04 52 3e 3f e8 42 65 3f 0c 30 70 3e 78 f2 39 3f
       0.74343896 0.89555216 0.23455828 0.726356
0002a0 c1 fe 4d bf f4 65 1a bf b2 69 12 bf 73 ed ec 3d
       -0.8046685 -0.6031182 -0.5719253 0.11568727
0002b0 e9 fa a0 3d 0c e1 02 bf 5d c7 9a bc 58 65 ce be
       0.07860357 -0.51124644 -0.018893892 -0.40311694
0002c0 4b a5 a4 3e d1 8c 10 be a3 bd a2 3d 3d 8a 36 bf
       0.3215736 -0.14116217 0.079463266 -0.71304685
0002d0 c7 df 3e be bc 90 3f bf 07 78 c7 bd a1 11 a8 3e
       -0.18640052 -0.7483022 -0.0973969 0.3282595
0002e0 fb bd 1f bd 24 a3 94 be fd 6d ed 3e 05 5e 5c bf
       -0.03899954 -0.29030716 0.46372977 -0.8608096
0002f0 30 5e 84 bf 0f d5 00 bf 86 1a cf bd 7c 67 3b bf
       -1.0341244 -0.503251 -0.10112481 -0.7320478
000300 62 50 fc bd 04 6c d3 bc ca d8 b3 be 6b f8 f5 be
       -0.12320019 -0.025808342 -0.35126334 -0.4804109
000310 89 1a 1b 3f 36 f4 7f 3e 77 09 10 be 34 fc a0 3e
       0.60587364 0.24995503 -0.1406611 0.31442416
000320 02 a4 23 bb 20 3a 6b be f9 24 ff 3e 90 90 b7 3e
       -0.0024969582 -0.22971392 0.49832895 0.3585248
000330 d9 aa 12 be 61 e9 20 3c 23 40 84 bd 86 01 27 bf
       -0.14322986 0.009821267 -0.064575456 -0.652367
000340 1a c8 fc be 85 8d c4 be ee de f3 be 1e 5b 8e 3d
       -0.49371415 -0.3838922 -0.4763102 0.06950973
000350 f1 40 09 3f a6 a2 28 3f 0d 71 01 be e2 3a 69 be
       0.5361472 0.6587318 -0.12640782 -0.22776368
000360 eb f0 ff be ca 59 96 3f 75 ac cf bd 2f c7 df 3e
       -0.49988493 1.1746151 -0.101403154 0.43706653
000370 14 10 54 3f 51 bd e1 be 41 ef cc 3d 26 61 8c 3f
       0.82837033 -0.4408975 0.100065716 1.0967147
000380 08 14 c8 bf 9e f4 c0 be e8 1e 80 3d 80 7c 4e bf
       -1.5631113 -0.37686628 0.06255895 -0.8065872
000390 d0 80 ca be 5b 5c 33 bf f4 b9 88 be c1 cb 5d bd
       -0.395514 -0.700628 -0.2670437 -0.054149393
0003a0 64 aa 01 3f 38 54 46 3e 88 16 3b 3d f1 7a 23 3d
       0.5065062 0.19368064 0.045675784 0.039912168
0003b0 fa d2 07 3e 3d a8 05 3f b5 5a 17 be 16 f7 67 bf
       0.13264075 0.52209836 -0.14780696 -0.906114
0003c0 6a e2 a2 bd c3 a3 83 3f dd 50 c2 3d 35 95 1c 3d
       -0.07953341 1.0284351 0.0948808 0.038228232
0003d0 d3 bf 9c 3e 08 23 37 3f 8b c7 ea 3e 20 81 4d 3e
       0.306151 0.7153783 0.45855364 0.20068789
0003e0 c3 6e c4 3e ce 96 87 3d de 54 37 3d 97 9e 62 bf
       0.38365754 0.066205606 0.04475867 -0.8852324
0003f0 38 0f c9 3e 0b 06 34 3f 47 d2 a4 be 16 24 46 be
       0.39269423 0.7032172 -0.3219168 -0.19349703

network_body._body_endoder.seq_layers.0.bias f4 [128]
000000 00 00 00 00 00 00 00 00 00 00 00 00 00 00 00 00
       0.0 0.0 0.0 0.0
000010 00 00 00 00 00 00 00 00 00 00 00 00 00 00 00 00
       0.0 0.0 0.0 0.0
000020 00 00 00 00 00 00 00 00 00 00 00 00 00 00 00 00
       0.0 0.0 0.0 0.0
000030 00 00 00 00 00 00 00 00 00 00 00 00 00 00 00 00
       0.0 0.0 0.0 0.0
000040 00 00 00 00 00 00 00 00 00 00 00 00 00 00 00 00
       0.0 0.0 0.0 0.0
000050 00 00 00 00 00 00 00 00 00 00 00 00 00 00 00 00
       0.0 0.0 0.0 0.0
000060 00 00 00 00 00 00 00 00 00 00 00 00 00 00 00 00
       0.0 0.0 0.0 0.0
000070 00 00 00 00 00 00 00 00 00 00 00 00 00 00 00 00
       0.0 0.0 0.0 0.0
000080 00 00 00 00 00 00 00 00 00 00 00 00 00 00 00 00
       0.0 0.0 0.0 0.0
000090 00 00 00 00 00 00 00 00 00 00 00 00 00 00 00 00
       0.0 0.0 0.0 0.0
0000a0 00 00 00 00 00 00 00 00 00 00 00 00 00 00 00 00
       0.0 0.0 0.0 0.0
0000b0 00 00 00 00 00 00 00 00 00 00 00 00 00 00 00 00
       0.0 0.0 0.0 0.0
0000c0 00 00 00 00 00 00 00 00 00 00 00 00 00 00 00 00
       0.0 0.0 0.0 0.0
0000d0 00 00 00 00 00 00 00 00 00 00 00 00 00 00 00 00
       0.0 0.0 0.0 0.0
0000e0 00 00 00 00 00 00 00 00 00 00 00 00 00 00 00 00
       0.0 0.0 0.0 0.0
0000f0 00 00 00 00 00 00 00 00 00 00 00 00 00 00 00 00
       0.0 0.0 0.0 0.0
000100 00 00 00 00 00 00 00 00 00 00 00 00 00 00 00 00
       0.0 0.0 0.0 0.0
000110 00 00 00 00 00 00 00 00 00 00 00 00 00 00 00 00
       0.0 0.0 0.0 0.0
000120 00 00 00 00 00 00 00 00 00 00 00 00 00 00 00 00
       0.0 0.0 0.0 0.0
000130 00 00 00 00 00 00 00 00 00 00 00 00 00 00 00 00
       0.0 0.0 0.0 0.0
000140 00 00 00 00 00 00 00 00 00 00 00 00 00 00 00 00
       0.0 0.0 0.0 0.0
000150 00 00 00 00 00 00 00 00 00 00 00 00 00 00 00 00
       0.0 0.0 0.0 0.0
000160 00 00 00 00 00 00 00 00 00 00 00 00 00 00 00 00
       0.0 0.0 0.0 0.0
000170 00 00 00 00 00 00 00 00 00 00 00 00 00 00 00 00
       0.0 0.0 0.0 0.0
000180 00 00 00 00 00 00 00 00 00 00 00 00 00 00 00 00
       0.0 0.0 0.0 0.0
000190 00 00 00 00 00 00 00 00 00 00 00 00 00 00 00 00
       0.0 0.0 0.0 0.0
0001a0 00 00 00 00 00 00 00 00 00 00 00 00 00 00 00 00
       0.0 0.0 0.0 0.0
0001b0 00 00 00 00 00 00 00 00 00 00 00 00 00 00 00 00
       0.0 0.0 0.0 0.0
0001c0 00 00 00 00 00 00 00 00 00 00 00 00 00 00 00 00
       0.0 0.0 0.0 0.0
0001d0 00 00 00 00 00 00 00 00 00 00 00 00 00 00 00 00
       0.0 0.0 0.0 0.0
0001e0 00 00 00 00 00 00 00 00 00 00 00 00 00 00 00 00
       0.0 0.0 0.0 0.0
0001f0 00 00 00 00 00 00 00 00 00 00 00 00 00 00 00 00
       0.0 0.0 0.0 0.0

network_body._body_endoder.seq_layers.2.weight f4 [128, 128]
000000 90 8e 12 3d 13 5e 3b 3a 58 14 a0 3d 1a cc ac bd
       0.03578049 0.0007147502 0.0781638 -0.08437367
000010 91 00 7d bd 87 ef b5 bd 20 1f 0f 3c 81 b5 56 bc
       -0.06176812 -0.08883577 0.008735448 -0.013104797
000020 ab 67 a5 bc e7 61 2a bd c6 40 f9 3d 34 29 ab bd
       -0.020191034 -0.041597273 0.12170558 -0.08357468
000030 b1 af 02 3c 42 88 bd bd a7 83 c1 bd 8b 57 87 bd
       0.007976458 -0.09254505 -0.09448939 -0.06608494
000040 e2 9f 05 bc 7a e0 a9 bd 63 d3 fb bc 38 b8 ce 3c
       -0.008155795 -0.08294769 -0.030740445 0.025234327
000050 51 5c 5e 3d 51 b2 1f 3e 01 53 9d 3d a1 8a c1 3b
       0.05428726 0.15595366 0.07681847 0.0059064184
000060 7c 95 e8 bb 38 7d 91 bd 2f 41 07 bc 4b d9 8e 3d
       -0.007097898 -0.07103962 -0.008255287 0.06975039
000070 d9 96 2d 3e a0 c9 d1 3d 49 36 1a bd 8c 1a 6a bc
       0.16952075 0.10243535 -0.037649427 -0.014288556
000080 2c 1a 98 bc 13 40 00 3d 63 29 59 3e ce 30 66 bb
       -0.018567167 0.031311106 0.21207194 -0.0035124305
000090 9e 97 9e bd 0d 2f a6 bb fc d3 a5 3d 63 a7 15 be
       -0.077437624 -0.005071527 0.080970734 -0.14614634
0000a0 14 e4 b2 bc ec 3c 3b be 95 13 94 bd 88 2a 1b be
       -0.021837272 -0.18284959 -0.072302975 -0.15152943
0000b0 a0 d2 18 bd 83 68 93 bd aa 4c 57 bd 09 9e c4 3c
       -0.037310243 -0.071976684 -0.052563347 0.024001138
0000c0 f1 81 26 bc 46 9c 2c be 3e a8 4f bd 3d b7 95 3d
       -0.010162816 -0.16856489 -0.050697558 0.073103406
0000d0 6e 25 a7 bc bd 8c 07 3e d1 78 66 3b 6f 51 37 be
       -0.02040359 0.13237281 0.0035167227 -0.17902158
0000e0 2a 02 03 bd db f5 13 bd 22 d8 3c bd 3e 44 04 be
       -0.031984486 -0.036123138 -0.046104558 -0.12916657
0000f0 47 87 b5 bd 30 fc 61 3d af 83 0c 3d 82 16 13 3d
       -0.08863693 0.055172145 0.03430527 0.035910137
000100 27 17 aa 39 f5 89 09 3c 1c 4c 76 3d bf 75 4f 3d
       0.00032442177 0.008394708 0.060131177 0.0506494
000110 c8 01 3b be b1 fb 0b 3d b6 a4 87 3c 9d 2f c4 bd
       -0.18262398 0.03417558 0.016558032 -0.09579394
000120 2c 03 41 bd 71 25 05 bd 9c 50 1b 3d 8b 09 05 bd
       -0.047122166 -0.03250641 0.037918672 -0.032479804
000130 6d 3f 30 be 33 9b 13 3e 6f 83 2e ba b9 f4 a0 bc
       -0.17211695 0.14414673 -0.00066571584 -0.019647943
000140 ea 55 14 3c 68 20 07 3d 63 8e 76 bc d9 16 8c 3d
       0.009053687 0.03298989 -0.015048596 0.06840295
000150 36 f3 a4 bd 8d 84 07 be 94 22 a5 3b af 97 83 bd
       -0.08054201 -0.13234158 0.0050395224 -0.06425416
000160 56 35 aa 3d 0c 60 44 3d c3 b3 81 bd f9 15 47 bd
       0.08310954 0.04794316 -0.06333115 -0.04860494
000170 4d 32 cf bb d7 81 84 bd a6 5f 65 3b 57 eb 13 3e
       -0.006323135 -0.064700775 0.0034999638 0.14445244
000180 7e 61 37 3d 5e ef 8e bd 04 b1 19 3e 5e 23 36 bc
       0.04477071 -0.069792494 0.15008932 -0.011116831
000190 86 92 18 3e 43 41 c6 3c 5f 5f f7 bc 66 cb 2b bd
       0.14899644 0.024201041 -0.030196844 -0.041942023
0001a0 04 36 b5 bd 7a 78 09 3e 38 40 16 3d 64 b2 cb 3d
       -0.08848193 0.13424864 0.036682338 0.09946135
0001b0 5d b8 0e bd a8 c9 72 be e6 37 67 3e 3b c6 7f bc
       -0.03484379 -0.23709738 0.22579917 -0.015611227
0001c0 65 40 4a 3e 1d ce 07 3e d1 d3 12 3d e3 d9 bf 3d
       0.19751127 0.1326222 0.035846535 0.093677305
0001d0 cb 65 fb bd 82 6e 5b bd b2 b0 77 bd 87 5c 3b 3a
       -0.12275275 -0.053572185 -0.060471244 0.00071472715
0001e0 92 36 43 bd 92 52 99 bd 61 e4 25 3d 7d a4 45 be
       -0.047659464 -0.07486452 0.040501002 -0.19301029
0001f0 45 0a 0a be dc b5 20 bd 1c b2 21 3d 09 99 bb bd
       -0.1348048 -0.039235935 0.0394765 -0.091600485
000200 e9 40 39 bd e7 f9 14 3e b7 d2 92 bc 40 ae b3 3d
       -0.04522792 0.14548455 -0.017922742 0.0877347
000210 35 88 3e 3d fc d7 a1 bd e7 5c c8 3c 3e 99 80 bd
       0.046516616 -0.07902524 0.024458362 -0.06279229
000220 50 52 0c 3d ce 0b 8e 3d 1b b6 52 bd ea 36 bd bd
       0.034258187 0.06935845 -0.0514432 -0.0923899
000230 51 c7 99 3d af 2b 0f bd 07 4a 0f be 9d f0 ea 3d
       0.0750872 -0.03495377 -0.13993083 0.114716746
000240 3d 61 74 3d 0c 7e 12 3c 5a a1 ca bd 7a 40 7f bd
       0.059663046 0.008941185 -0.098940566 -0.06231735
000250 55 02 66 bd 42 71 2b 3e 81 f9 95 bd 85 63 49 bd
       -0.056154568 0.16742423 -0.0732298 -0.049167175
000260 dc 9b 41 bd d0 8b 00 be bd ea 69 3d 3c 73 35 3e
       -0.04726778 -0.12553334 0.05710863 0.1771974
000270 b4 ea 14 3c ca 89 ef bc 2e 50 46 3d be 4e cd ba
       0.009089161 -0.029240508 0.04841631 -0.0015663726
000280 78 59 a1 bd 65 3f 8b 3d e2 73 f4 bd 1f 4f 14 3d
       -0.07878393 0.06799201 -0.119361654 0.03620827
000290 f4 4c 88 3d ed 61 4e 3d eb 75 2e bd 94 d7 9a 3d
       0.06655303 0.050386358 -0.042592924 0.075606495
0002a0 7b 9c 4d 3c 5a dd ef bd 7a 87 37 bc 59 62 ef 3d
       0.012549515 -0.11712141 -0.011201734 0.1168868
0002b0 78 3c 3e bd b0 8a 50 3d 7c c1 e8 bc 28 76 f9 3c
       -0.046444386 0.050913513 -0.028412573 0.03045185
0002c0 6b d8 2f bd e8 86 db 3d 96 64 52 3d d4 ef c6 3b
       -0.042931 0.10719091 0.051365457 0.00607107
0002d0 46 03 5a bd ec 47 2d bd 30 0f f2 3c 09 79 87 bd
       -0.053225778 -0.04230492 0.029548258 -0.066148825
0002e0 3b 4e 93 3d a7 9f e3 3c ec 65 72 bb 0e 33 64 3d
       0.07192656 0.02778609 -0.003698702 0.055712752
0002f0 5f 2a 5b bc 12 7f 20 3d a3 4a b4 bd dc f9 aa 3d
       -0.013376801 0.039183684 -0.08803298 0.08348438
000300 bb cc 09 3e 2b 3f 1a bd 24 63 92 bd 59 c9 9e 3c
       0.13457005 -0.037657898 -0.07147816 0.01938312
000310 d1 4a 4a 3e c2 c6 64 3d bf c6 c8 3c 5a 49 f2 bc
       0.19755103 0.055853613 0.024508832 -0.029575992
000320 fc a1 07 be 79 6a 84 3c 13 9e 54 be 68 dd 89 bd
       -0.13245386 0.016164051 -0.20763426 -0.06731683
000330 bc 8e 41 be 45 c2 bf bd 89 54 29 be 6c a4 c8 bc
       -0.18902105 -0.09363226 -0.16536154 -0.024492465
000340 3a be 67 3d f1 12 c9 bd f2 24 d6 3c 0f 82 51 bd
       0.0565779 -0.09818066 0.026140664 -0.051149424
000350 dd 24 76 bd 7e b9 6e bd 12 ba a6 ba d3 e3 94 bc
       -0.06009375 -0.058282368 -0.0012720248 -0.018175041
000360 2e 61 c2 bc e2 70 08 be 06 02 38 3d 3c 1b 02 be
       -0.02372798 -0.13324311 0.044923805 -0.12705702
000370 eb a7 89 3d 4a 64 62 be e3 ad 85 3d 6f 75 ab 3d
       0.06721481 -0.2210857 0.06527307 0.08372008
000380 be 1c cf 3d f3 c5 c0 3b 58 7f 82 3c 12 30 7f 3c
       0.10112904 0.0058829724 0.015929863 0.015575426
000390 b0 e8 19 3d 1e 73 ae 3c f5 c6 da bc ad 1b c6 3d
       0.037575424 0.021295127 -0.026706198 0.096732475
0003a0 12 5c e4 bd 30 01 9b bd ca b5 1b be cc be ec 3c
       -0.111503735 -0.07568586 -0.15206066 0.028899573
0003b0 ea cc 85 3d 39 08 32 3e 32 2d 65 3c 28 71 88 bd
       0.06533225 0.17385949 0.013987826 -0.06662208
0003c0 92 46 01 be 65 e0 75 3d 9d e7 3b 3d f0 3c 19 3d
       -0.12624577 0.060028452 0.04587518 0.03741163
0003d0 ce 5c 17 bd 27 f9 2f 3d 52 83 9a bd b3 d1 d2 bc
       -0.03695374 0.04296222 -0.075445786 -0.025734758
0003e0 83 89 83 3d ef 9b 50 bd 5b bc b1 3d 1f 4c 07 3e
       0.06422713 -0.05092996 0.08678504 0.13212632
0003f0 db a3 e1 3d d3 a8 80 bd 9b 1c 51 bd 43 8e 2b 3d
       0.11017581 -0.06282201 -0.05105267 0.04188372

network_body._body_endoder.seq_layers.2.bias f4 [128]
000000 00 00 00 00 00 00 00 00 00 00 00 00 00 00 00 00
       0.0 0.0 0.0 0.0
000010 00 00 00 00 00 00 00 00 00 00 00 00 00 00 00 00
       0.0 0.0 0.0 0.0
000020 00 00 00 00 00 00 00 00 00 00 00 00 00 00 00 00
       0.0 0.0 0.0 0.0
000030 00 00 00 00 00 00 00 00 00 00 00 00 00 00 00 00
       0.0 0.0 0.0 0.0
000040 00 00 00 00 00 00 00 00 00 00 00 00 00 00 00 00
       0.0 0.0 0.0 0.0
000050 00 00 00 00 00 00 00 00 00 00 00 00 00 00 00 00
       0.0 0.0 0.0 0.0
000060 00 00 00 00 00 00 00 00 00 00 00 00 00 00 00 00
       0.0 0.0 0.0 0.0
000070 00 00 00 00 00 00 00 00 00 00 00 00 00 00 00 00
       0.0 0.0 0.0 0.0
000080 00 00 00 00 00 00 00 00 00 00 00 00 00 00 00 00
       0.0 0.0 0.0 0.0
000090 00 00 00 00 00 00 00 00 00 00 00 00 00 00 00 00
       0.0 0.0 0.0 0.0
0000a0 00 00 00 00 00 00 00 00 00 00 00 00 00 00 00 00
       0.0 0.0 0.0 0.0
0000b0 00 00 00 00 00 00 00 00 00 00 00 00 00 00 00 00
       0.0 0.0 0.0 0.0
0000c0 00 00 00 00 00 00 00 00 00 00 00 00 00 00 00 00
       0.0 0.0 0.0 0.0
0000d0 00 00 00 00 00 00 00 00 00 00 00 00 00 00 00 00
       0.0 0.0 0.0 0.0
0000e0 00 00 00 00 00 00 00 00 00 00 00 00 00 00 00 00
       0.0 0.0 0.0 0.0
0000f0 00 00 00 00 00 00 00 00 00 00 00 00 00 00 00 00
       0.0 0.0 0.0 0.0
000100 00 00 00 00 00 00 00 00 00 00 00 00 00 00 00 00
       0.0 0.0 0.0 0.0
000110 00 00 00 00 00 00 00 00 00 00 00 00 00 00 00 00
       0.0 0.0 0.0 0.0
000120 00 00 00 00 00 00 00 00 00 00 00 00 00 00 00 00
       0.0 0.0 0.0 0.0
000130 00 00 00 00 00 00 00 00 00 00 00 00 00 00 00 00
       0.0 0.0 0.0 0.0
000140 00 00 00 00 00 00 00 00 00 00 00 00 00 00 00 00
       0.0 0.0 0.0 0.0
000150 00 00 00 00 00 00 00 00 00 00 00 00 00 00 00 00
       0.0 0.0 0.0 0.0
000160 00 00 00 00 00 00 00 00 00 00 00 00 00 00 00 00
       0.0 0.0 0.0 0.0
000170 00 00 00 00 00 00 00 00 00 00 00 00 00 00 00 00
       0.0 0.0 0.0 0.0
000180 00 00 00 00 00 00 00 00 00 00 00 00 00 00 00 00
       0.0 0.0 0.0 0.0
000190 00 00 00 00 00 00 00 00 00 00 00 00 00 00 00 00
       0.0 0.0 0.0 0.0
0001a0 00 00 00 00 00 00 00 00 00 00 00 00 00 00 00 00
       0.0 0.0 0.0 0.0
0001b0 00 00 00 00 00 00 00 00 00 00 00 00 00 00 00 00
       0.0 0.0 0.0 0.0
0001c0 00 00 00 00 00 00 00 00 00 00 00 00 00 00 00 00
       0.0 0.0 0.0 0.0
0001d0 00 00 00 00 00 00 00 00 00 00 00 00 00 00 00 00
       0.0 0.0 0.0 0.0
0001e0 00 00 00 00 00 00 00 00 00 00 00 00 00 00 00 00
       0.0 0.0 0.0 0.0
0001f0 00 00 00 00 00 00 00 00 00 00 00 00 00 00 00 00
       0.0 0.0 0.0 0.0

value_heads.value_heads.extrinsic.weight f4 [1, 128]
000000 6c b3 f3 3d 24 fa 3b be b8 56 95 3d ea 81 19 be
       0.118994564 -0.1835714 0.07291931 -0.14990965
000010 d0 ec 38 3e de d3 0c be fc 5d 35 bd cd e9 50 be
       0.18059087 -0.13752696 -0.044279084 -0.20401688
000020 26 a4 42 be 50 eb 10 be 90 95 99 3c 1c 11 82 3d
       -0.1900793 -0.14152265 0.018748075 0.063509196
000030 a0 f9 dc bc 34 8f 3f be 30 a5 cb 3d a8 00 ad bc
       -0.0269745 -0.18706971 0.099436164 -0.021118477
000040 bc 79 57 be 0c 8d 3e bd dc 0d 35 3e a8 c8 5c bd
       -0.21042532 -0.04652123 0.17681068 -0.0539023
000050 54 dd 07 3e 7c 4d 01 bd 62 17 51 3e 5b e2 3e be
       0.13268024 -0.031568035 0.20419076 -0.18641035
000060 04 30 9a bd 70 9b 48 3e 30 b0 5b bd 74 dd 4c 3e
       -0.075286895 0.19590545 -0.053634822 0.20006353
000070 7a 61 4e be e8 a8 80 3d 14 50 04 bd 70 18 4b bd
       -0.20154372 0.06282216 -0.03230293 -0.049583852
000080 a8 c8 87 bc 70 9f 09 3e 2e 7c 29 be 9a 28 50 3e
       -0.016575173 0.13439727 -0.16551277 0.20327988
000090 7a a2 06 3e bc 62 36 be a0 77 3c 3e b0 58 41 3d
       0.13147917 -0.17811102 0.18405008 0.04720372
0000a0 cc bc be bd 7c 34 c6 bd 1a 57 db bd 14 84 9e bd
       -0.09313354 -0.09677979 -0.10709973 -0.07740036
0000b0 28 ac a4 3d e8 c9 f5 bd bc 52 22 be 67 7d 57 be
       0.08040649 -0.12001401 -0.15851873 -0.21043931
0000c0 e4 70 05 bd a8 ac 92 3c 38 56 c8 3d 2e ed 45 3e
       -0.032578364 0.017904595 0.0978207 0.19328758
0000d0 c8 a5 08 3e 46 9e 44 3e fa 9d 13 be e0 fb 8e 3b
       0.1334449 0.19201002 -0.14415732 0.004363522
0000e0 d8 ab 3b be 80 c2 ea 3d 59 34 c9 bd 6a 88 4b be
       -0.18327272 0.11462879 -0.09824438 -0.19876257
0000f0 f6 ad 24 3e 30 0d 2e be 88 17 89 3c 18 53 94 3c
       0.16081986 -0.16997218 0.016734853 0.018106028
000100 40 02 19 3d d0 5e aa 3c a2 12 31 3e 94 da ee 3d
       0.03735566 0.020797163 0.17292264 0.11662784
000110 54 f7 32 be 24 a3 2c 3e 3f 74 bf bd 9b de fe bd
       -0.1747716 0.16859108 -0.09348344 -0.124448024
000120 e4 84 0e be e4 21 02 3e fb 93 07 be 70 56 5c 3c
       -0.13917881 0.12708241 -0.13240044 0.013448343
000130 60 d9 15 bc ed ce ec bd 2e 9f 45 be 20 b4 c7 3d
       -0.0091460645 -0.115629055 -0.19299003 0.09751153
000140 cc 28 28 3e c6 4a 48 3e 4c 23 17 3e 10 6d 43 bd
       0.16421813 0.19559774 0.14759558 -0.047711432
000150 60 19 51 3e bc d6 e5 3d 1c 12 4b 3e b8 44 43 be
       0.20419836 0.11222598 0.19831127 -0.19069183
000160 b0 3a 3e 3c 2e 52 14 be 80 a3 88 bc 00 7e 66 bb
       0.011610672 -0.14484474 -0.016679525 -0.0035170317
000170 5c 72 25 be 00 62 a7 39 54 54 d9 3d 1b 08 48 be
       -0.16156906 0.00031925738 0.106117874 -0.19534342
000180 08 d3 7e 3d bf aa 4c be 9c 31 8f 3d 50 0a 7a 3d
       0.062212974 -0.1998701 0.06991884 0.06104499
000190 ec 5d f5 3d 1c 9e 07 bd ba bc 46 3e 16 f6 31 be
       0.11980805 -0.03310977 0.19407931 -0.1737903
0001a0 ef 10 e2 bd 48 ea 33 3d 5c 65 12 be b8 8c 35 3e
       -0.11038386 0.0439246 -0.14296478 0.17729461
0001b0 49 6f 37 be b8 6d 8d bc 16 64 05 be 03 e6 fd bd
       -0.17913546 -0.017264232 -0.13026461 -0.12397387
0001c0 f0 3f f3 3d b4 54 41 be 26 5c 05 3e 38 7d 7d 3d
       0.118774295 -0.18879968 0.13023433 0.061886996
0001d0 cc d6 70 bd 68 e8 9c bc b0 35 bb bc 1d 38 41 be
       -0.058798596 -0.019153789 -0.022852749 -0.18869062
0001e0 a8 e9 1c be 00 17 ff 3c a4 7e 18 3e 03 db 47 be
       -0.15323508 0.031138897 0.1489206 -0.1951714
0001f0 68 7a c2 bc 14 01 f5 3d 70 52 a3 bc fa 5c a2 bd
       -0.023740008 0.11963096 -0.01993677 -0.0792789
