results/ppo/BalanceBall1/BalanceBall1-320.pt (torch, 160108 bytes, 11 tensors)

network_body._body_endoder.seq_layers.0.weight f4 [128, 16]
0	0x3e48c997	0.1960815
1	0x3cc0354d	0.023462916
2	0x3d8b44b4	0.068002135
3	0x3d9d473a	0.07679601
4	0xbee96bfa	-0.45590192
5	0xbea4f91b	-0.32221302
6	0xbdbd808e	-0.092530355
7	0xbdaa98f1	-0.083299525
8	0xbe2c1be5	-0.16807516
9	0xbc1968ec	-0.009363394
10	0x3e62f09e	0.221621
11	0x3e067e18	0.13134038
12	0xbdbaaa13	-0.0911447
13	0x3e4b458f	0.19850753
14	0xbe0801b3	-0.13281898
15	0xbec15a2f	-0.37764117
16	0xba72fab3	-0.00092689245
17	0x3e890a24	0.2676555
18	0x3dd4ca69	0.10390169
19	0x3e37a142	0.17932609
20	0x3d8f813c	0.070070714
21	0xbe968643	-0.2939931
22	0x3e3466e4	0.17617375
23	0xbeb45da3	-0.3522769
24	0x3dd15294	0.10220829
25	0xbdd2778c	-0.10276708
26	0xbee30730	-0.4434142
27	0xbed4c254	-0.4155451
28	0x3e703c5b	0.23460524
29	0xbddfa73a	-0.10920568
30	0x3e26d893	0.16293554
31	0x3e25e430	0.16200328
32	0x3e52655a	0.20546475
33	0x3e7b2cb6	0.24528775
34	0xbebaf155	-0.36512247
35	0xbdea528c	-0.11441526
36	0xbda61435	-0.08109323
37	0x3e0f4230	0.13990092
38	0xbe240459	-0.16017283
39	0xbdf31e99	-0.118710704
40	0xbceefd9f	-0.02917367
41	0x3e92317e	0.28553385
42	0xbe1b850f	-0.15187477
43	0x3ed3654d	0.41288224
44	0xbbf1671d	-0.0073670284
45	0x3e242603	0.16030125
46	0x3e86ed57	0.2635295
47	0xbe8d6990	-0.276196
48	0x3e910469	0.28323677
49	0xbdaa09d7	-0.08302658
50	0x3e23a9b1	0.15982701
51	0x3cef8193	0.02923659
52	0x3d155205	0.036455173
53	0xbdbe10c0	-0.092805386
54	0x3df4fbbf	0.11962079
55	0xbbd87c21	-0.006606594
56	0xbed35427	-0.4127514
57	0x3e715e2b	0.23571078
58	0x3ebfd3ea	0.37466365
59	0x3ddbccc7	0.107324176
60	0xbe221e9d	-0.1583199
61	0xbdd1b110	-0.1023885
62	0x3d56c517	0.052434053
63	0x3d837585	0.064188994
64	0xbe3d943c	-0.18513578
65	0x3e15d0b4	0.14630395
66	0x3e858499	0.26077726
67	0x3e104c3a	0.14091578
68	0x3e713325	0.23554666
69	0xbe6a2afa	-0.22867957
70	0x3e878ee5	0.26476207
71	0x3d796669	0.06088868
72	0xbe1f62b0	-0.1556499
73	0xbe29c554	-0.16579181
74	0xbd35460b	-0.04425625
75	0xbdf2eda7	-0.11861735
76	0x3db53607	0.088481955
77	0x3f1d0017	0.6132826
78	0xbda34269	-0.07971651
79	0x3e9916af	0.2990012
80	0xbe9ced3a	-0.3064974
81	0x3ddf9e7a	0.10918899
82	0x3c9116a9	0.017711
83	0x3d2cf8f4	0.042229608
84	0x3ef3abfd	0.47592154
85	0x3e92e145	0.28687492
86	0x3e53f807	0.20700084
87	0xbdcd41bb	-0.10022303
88	0xbde3389d	-0.110947825
89	0xbe406419	-0.18788184
90	0xbe6c3185	-0.23065765
91	0xbdd1d23c	-0.10245177
92	0x3e1c16f7	0.15243135
93	0x3e7a0f20	0.24419832
94	0xbdaa31e6	-0.083102986
95	0x3e5aeafb	0.213787
96	0x3e2dff98	0.16992033
97	0x3d0f374c	0.034964845
98	0xbc258874	-0.010103334
99	0xbd2e67c5	-0.04257943
100	0x3d388149	0.04504517
101	0x3eb0c66a	0.34526378
102	0x3df4bb14	0.11949745
103	0x3df8e27a	0.12152572
104	0xbf2cd4d8	-0.67512274
105	0xbe0e1aa0	-0.13877344
106	0xbc0dcc13	-0.008654612
107	0xbf06f8df	-0.527235
108	0x3ee27737	0.4423158
109	0x3e449526	0.1919752
110	0xbe8a03f0	-0.2695613
111	0x3e19f8be	0.15036294
112	0xbe658318	-0.2241329
113	0x3d338ba2	0.043834336
114	0x3d870328	0.06592399
115	0x3f06d267	0.526648
116	0x3e6a1cca	0.22862545
117	0x3e3202a8	0.17383826
118	0xbc05d910	-0.0081694275
119	0xbd585ed2	-0.052824803
120	0xbe8d74da	-0.27628213
121	0x3e7fe2ce	0.24988863
122	0xbc92fdf4	-0.01794336
123	0x3e34f334	0.176709
124	0xbd96f69e	-0.07371257
125	0xbd658fa1	-0.05604518
126	0x3e35e761	0.17764045
127	0x3e354d9e	0.1770539
128	0x3e3979fd	0.18112941
129	0x3d80f30f	0.0629636
130	0x3c1767a5	0.009241019
131	0x3e43bb79	0.19114484
132	0xbea0f879	-0.3143957
133	0x3e6a83a3	0.22901778
134	0xbe617748	-0.22018158
135	0xbeba72c2	-0.36415678
136	0x3e121247	0.14264785
137	0xbea9e703	-0.3318406
138	0xbe787516	-0.24263415
139	0xbe81968f	-0.2531018
140	0x3e1fd09e	0.15606925
141	0xbecb7cf8	-0.3974378
142	0x3e8d1ba9	0.27560166
143	0xbedfd5f3	-0.43717918
144	0x3ea77c06	0.3271181
145	0x3f10382e	0.56335723
146	0xbd527f83	-0.051391136
147	0xbdf9a79f	-0.12190174
148	0xbd03e980	-0.032205105
149	0xbcdb69c2	-0.026783828
150	0xbb8b2c0b	-0.0042471937
151	0xbd173080	-0.036911488
152	0xbf3012ff	-0.68778986
153	0x3ea2dde7	0.31809923
154	0xbcdaa3dc	-0.026689462
155	0xbe4fa77b	-0.20278732
156	0x3d90eb56	0.07076137
157	0xbd9f2dc1	-0.07772399
158	0xbe9a52b3	-0.3014122
159	0x3d1db62d	0.038503814
160	0xbd08b125	-0.033372063
161	0x3cccfdfa	0.02502345
162	0xbf2db650	-0.6785631
163	0xbdd06ee2	-0.10177399
164	0xbe1ba9d7	-0.15201508
165	0x3e92890d	0.28620186
166	0x3f01f724	0.5076773
167	0x3e5de44b	0.21669118
168	0x3d8b2fd1	0.0679623
169	0x3e2f7c1b	0.17137186
170	0x3bcbec2f	0.0062232236
171	0x3d0de37e	0.03464078
172	0xbe123985	-0.14279754
173	0xbd11f597	-0.035634603
174	0xbe1b7806	-0.15182504
175	0xbd42a9f8	-0.047525376
176	0x3ce00075	0.027343968
177	0xbc903edd	-0.0176081
178	0xbe6ffdc4	-0.23436648
179	0x3e7540b6	0.23950467
180	0xbee6c6fb	-0.45073685
181	0x3f0a38a4	0.53992677
182	0x3e8e14b2	0.27750164
183	0xbe6b3fda	-0.22973576
184	0xbea9fdbf	-0.33201405
185	0x3eaf12e6	0.34194106
186	0x3d5232d9	0.051318023
187	0xbe496462	-0.19667199
188	0x3d8c330b	0.06845673
189	0x3de39c95	0.1111385
190	0xbedd3d7b	-0.43210968
191	0xbd6a2f6c	-0.05717413
192	0xbdb9e813	-0.09077468
193	0xbd3c4ffc	-0.045974717
194	0x3e953d23	0.29148206
195	0x3e6f98d0	0.23398137
196	0x3c390a83	0.01129401
197	0x3e928791	0.28619054
198	0x3f02e070	0.51123714
199	0xbd1cd2ed	-0.038287092
200	0xbd7adc7c	-0.061245427
201	0x3e89274a	0.26787788
202	0xbed5ebff	-0.41781613
203	0xbcb47762	-0.022029582
204	0x3ddca456	0.10773532
205	0x3ef1a618	0.47197032
206	0x3d0fedf4	0.03513904
207	0x3e4f14f9	0.20222844
208	0xbdaed0b9	-0.085359044
209	0x3e90c73d	0.28277007
210	0xbea2164a	-0.3165763
211	0x3e1b7fed	0.15185519
212	0x3dfb4fc6	0.12271075
213	0x3e752ff0	0.23944068
214	0xbe5a6dbe	-0.21330926
215	0xbe7a1a57	-0.2442411
216	0x3e5d09dd	0.21585794
217	0xbe85cceb	-0.26132903
218	0xbe24e268	-0.16101992
219	0xbdaf8eba	-0.08572145
220	0xbe8635f2	-0.26213032
221	0x3ee0dd13	0.43918666
222	0xbdd34e3a	-0.10317655
223	0xbe50ca8e	-0.20389768
224	0x3eb8d720	0.36101627
225	0xbef8209e	-0.48462385
226	0xbd9340ae	-0.07190071
227	0x3d8c6607	0.06855398
228	0xbe23f909	-0.16012968
229	0xbe851e28	-0.2599957
230	0xbcfac61b	-0.030612042
231	0x3e0f4273	0.13990192
232	0x3f23b310	0.639451
233	0xbe2c9d52	-0.16856888
234	0xbec8b257	-0.39198563
235	0x3d4d2e6c	0.0500931
236	0xbdb63d4d	-0.08898411
237	0x3e9a3921	0.3012171
238	0xbe16b984	-0.14719206
239	0xbf0399af	-0.5140638
240	0xbd53297d	-0.05155324
241	0x3e03f90a	0.1288797
242	0x3e222072	0.1583269
243	0x3d8cfe4c	0.06884441
244	0xbd9a18a9	-0.07524235
245	0x3ee46d30	0.44614553
246	0xbea4f3e7	-0.32217333
247	0xbdb30405	-0.08741001
248	0xbe369d0e	-0.17833349
249	0x3b9ce924	0.0047885347
250	0x3e116ad6	0.14200911
251	0x3da0cc23	0.07851436
252	0xbcff6dc7	-0.031180276
253	0xbd171915	-0.036889154
254	0xbf10f425	-0.56622535
255	0x3df3f162	0.119112745

network_body._body_endoder.seq_layers.0.bias f4 [128]
0	0x00000000	0.0
1	0x00000000	0.0
2	0x00000000	0.0
3	0x00000000	0.0
4	0x00000000	0.0
5	0x00000000	0.0
6	0x00000000	0.0
7	0x00000000	0.0
8	0x00000000	0.0
9	0x00000000	0.0
10	0x00000000	0.0
11	0x00000000	0.0
12	0x00000000	0.0
13	0x00000000	0.0
14	0x00000000	0.0
15	0x00000000	0.0
16	0x00000000	0.0
17	0x00000000	0.0
18	0x00000000	0.0
19	0x00000000	0.0
20	0x00000000	0.0
21	0x00000000	0.0
22	0x00000000	0.0
23	0x00000000	0.0
24	0x00000000	0.0
25	0x00000000	0.0
26	0x00000000	0.0
27	0x00000000	0.0
28	0x00000000	0.0
29	0x00000000	0.0
30	0x00000000	0.0
31	0x00000000	0.0
32	0x00000000	0.0
33	0x00000000	0.0
34	0x00000000	0.0
35	0x00000000	0.0
36	0x00000000	0.0
37	0x00000000	0.0
38	0x00000000	0.0
39	0x00000000	0.0
40	0x00000000	0.0
41	0x00000000	0.0
42	0x00000000	0.0
43	0x00000000	0.0
44	0x00000000	0.0
45	0x00000000	0.0
46	0x00000000	0.0
47	0x00000000	0.0
48	0x00000000	0.0
49	0x00000000	0.0
50	0x00000000	0.0
51	0x00000000	0.0
52	0x00000000	0.0
53	0x00000000	0.0
54	0x00000000	0.0
55	0x00000000	0.0
56	0x00000000	0.0
57	0x00000000	0.0
58	0x00000000	0.0
59	0x00000000	0.0
60	0x00000000	0.0
61	0x00000000	0.0
62	0x00000000	0.0
63	0x00000000	0.0
64	0x00000000	0.0
65	0x00000000	0.0
66	0x00000000	0.0
67	0x00000000	0.0
68	0x00000000	0.0
69	0x00000000	0.0
70	0x00000000	0.0
71	0x00000000	0.0
72	0x00000000	0.0
73	0x00000000	0.0
74	0x00000000	0.0
75	0x00000000	0.0
76	0x00000000	0.0
77	0x00000000	0.0
78	0x00000000	0.0
79	0x00000000	0.0
80	0x00000000	0.0
81	0x00000000	0.0
82	0x00000000	0.0
83	0x00000000	0.0
84	0x00000000	0.0
85	0x00000000	0.0
86	0x00000000	0.0
87	0x00000000	0.0
88	0x00000000	0.0
89	0x00000000	0.0
90	0x00000000	0.0
91	0x00000000	0.0
92	0x00000000	0.0
93	0x00000000	0.0
94	0x00000000	0.0
95	0x00000000	0.0
96	0x00000000	0.0
97	0x00000000	0.0
98	0x00000000	0.0
99	0x00000000	0.0
100	0x00000000	0.0
101	0x00000000	0.0
102	0x00000000	0.0
103	0x00000000	0.0
104	0x00000000	0.0
105	0x00000000	0.0
106	0x00000000	0.0
107	0x00000000	0.0
108	0x00000000	0.0
109	0x00000000	0.0
110	0x00000000	0.0
111	0x00000000	0.0
112	0x00000000	0.0
113	0x00000000	0.0
114	0x00000000	0.0
115	0x00000000	0.0
116	0x00000000	0.0
117	0x00000000	0.0
118	0x00000000	0.0
119	0x00000000	0.0
120	0x00000000	0.0
121	0x00000000	0.0
122	0x00000000	0.0
123	0x00000000	0.0
124	0x00000000	0.0
125	0x00000000	0.0
126	0x00000000	0.0
127	0x00000000	0.0

network_body._body_endoder.seq_layers.2.weight f4 [128, 128]
0	0xbd60a8b6	-0.054848395
1	0xbd2f5123	-0.042801987
2	0xbe478fe7	-0.19488488
3	0x3c98fd27	0.0186754
4	0xbe803420	-0.25039768
5	0x3cb15162	0.021645252
6	0xbe0b60e0	-0.13611174
7	0x3d2f2513	0.042759966
8	0x3c86747c	0.016412966
9	0xbd31dbdb	-0.04342256
10	0x3d188771	0.037238542
11	0x3c3ce55c	0.011529293
12	0x3cd65469	0.026163297
13	0x3b84f6ca	0.00405774
14	0xbe3c90ff	-0.18414687
15	0x3c3306d4	0.010926921
16	0xbd15dba8	-0.036586434
17	0xbda969d1	-0.08272136
18	0xbdef53f6	-0.11685936
19	0x3d7f5d96	0.06234511
20	0x3dbaa6bb	0.091138326
21	0x3d39db4c	0.045375153
22	0xbd21f0bf	-0.039536234
23	0x3ddf5925	0.10905675
24	0x3cb6086d	0.022220815
25	0xbdc258df	-0.09489607
26	0x3e51dd48	0.20494568
27	0x3bf6fab8	0.007537212
28	0x3d10e698	0.03537616
29	0xbd9137d4	-0.070907265
30	0x3d856102	0.065126434
31	0xbca02057	-0.01954667
32	0xbabb0ae2	-0.0014270211
33	0x3b5a75ff	0.0033334491
34	0x3dd64917	0.104631595
35	0x3b6af10a	0.0035849237
36	0x3c4bf088	0.012447484
37	0x3de4122a	0.11136277
38	0x3df934cf	0.121682756
39	0xbcf4b6e4	-0.029872365
40	0x3ded0d3f	0.11574792
41	0x3d07310c	0.03300576
42	0x3dc03a29	0.09386093
43	0xbd924a0e	-0.07143031
44	0x3dd35d5e	0.10320543
45	0x3e12bd67	0.14330064
46	0x3cb8ead2	0.022572909
47	0xbcff4839	-0.031162368
48	0x3e0ddfd0	0.13854909
49	0x3d8f274b	0.069899164
50	0xbcfadce9	-0.030622916
51	0x3c2af2f5	0.010433902
52	0xbe06a6fa	-0.13149634
53	0xbdb67a72	-0.08910073
54	0xbe00fc4e	-0.12596247
55	0xbcecf815	-0.028926888
56	0x3b92e83f	0.0044832523
57	0x3ce6e32d	0.028184498
58	0x3c8ff501	0.017572882
59	0x3e858fd7	0.26086304
60	0xbdc88f12	-0.097929135
61	0x3d5be019	0.053680513
62	0xbb0ee95c	-0.0021806573
63	0x3cf63ff9	0.030059801
64	0x3dde802b	0.1086429
65	0xbe48ecbe	-0.1962156
66	0xbced1369	-0.02893992
67	0x3cb2a89f	0.02180892
68	0x3d0576ae	0.032583885
69	0xbd9cc2ba	-0.07654329
70	0xbdebc68a	-0.11512478
71	0x3d80b1e3	0.06283929
72	0x3c09aa5c	0.008402433
73	0x3e2d47b8	0.1692189
74	0xbc42d4a0	-0.011891514
75	0x3ca7a20b	0.02046301
76	0x3beced93	0.0072304695
77	0xbe4379e7	-0.19089471
78	0xbd5e9f30	-0.05435103
79	0xbc1ef8b9	-0.009702855
80	0xbc6a2e48	-0.014293261
81	0xbdaf1894	-0.0854961
82	0x3cde9c97	0.027174277
83	0xbd6c03d9	-0.057620857
84	0x3e181035	0.14849932
85	0xbc6a52e8	-0.014301993
86	0xbce8a8f5	-0.028400877
87	0xbcc4b511	-0.02401212
88	0xbc159db3	-0.009131837
89	0x3e5b0089	0.21386923
90	0x3dddf617	0.108379535
91	0xbde9eae4	-0.11421755
92	0x3e1aa5e9	0.15102352
93	0x3db498f9	0.0881824
94	0xbdc1322f	-0.094334
95	0x3d808656	0.062756225
96	0xbe11c9e7	-0.14237176
97	0xbd65018c	-0.05590968
98	0x3ddef63d	0.1088681
99	0x3e4c59ae	0.19956085
100	0xbd219362	-0.039447196
101	0xbe6e8cf5	-0.23295958
102	0xbe182676	-0.14858422
103	0x3d3fb053	0.046799015
104	0x3dacf4ef	0.08445155
105	0x3c26ac51	0.010172919
106	0xbd386de1	-0.045026664
107	0xbd17a1e6	-0.037019633
108	0x3d3eaf86	0.04655411
109	0x3b29f40e	0.0025932821
110	0xbd4fc6ad	-0.05072658
111	0xbd2d4f26	-0.04231181
112	0x3d751e2a	0.05984322
113	0x3d477c80	0.048702717
114	0x3c38d833	0.011282015
115	0x3d9d2fb2	0.07675113
116	0x3d4b6656	0.049658142
117	0xbd82e2aa	-0.06390889
118	0x3dea6767	0.11445504
119	0x3d280e3b	0.041029196
120	0x3dd5f538	0.104471624
121	0xbd9da17d	-0.07696817
122	0xbd8cc238	-0.06872982
123	0x3de7da6a	0.11320956
124	0x3d78504c	0.060623452
125	0x3d1ed36a	0.03877584
126	0x3d7fae29	0.06242195
127	0xbd981477	-0.07425778
128	0xbbb14bf4	-0.0054106656
129	0xba9ca266	-0.0011950254
130	0xbe403c72	-0.18773058
131	0xbda14eb3	-0.07876339
132	0x3b741408	0.0037243385
133	0x3d18e52e	0.037327938
134	0x3c2e0333	0.01062088
135	0x3dbdc5dc	0.09266254
136	0x3cb7c13c	0.022431009
137	0xbe037ae1	-0.12839843
138	0xbe15d37b	-0.14631455
139	0xbd385bff	-0.04500961
140	0xbd823fc7	-0.06359821
141	0x3d26e9cd	0.040750314
142	0xbc9cd4ff	-0.019144533
143	0x3cd85f72	0.0264127
144	0xbc6db335	-0.014508058
145	0xbba72e2b	-0.005101939
146	0x3e21e84b	0.15811269
147	0x3dbf2501	0.0933323
148	0x3cf011d1	0.02930537
149	0xbd81d2c9	-0.06339032
150	0xbdf6d90e	-0.12053119
151	0x3de3a803	0.1111603
152	0x3d860a08	0.06544882
153	0xbce895b9	-0.028391706
154	0x3cb5df61	0.022201242
155	0xbcfd2bba	-0.03090464
156	0x3e34111e	0.17584655
157	0xba0ba03b	-0.00053263054
158	0x3ceca425	0.028886864
159	0x3e0725c9	0.13198008
160	0xbd5d2848	-0.053993493
161	0xbc80a62f	-0.015704243
162	0x3d922f20	0.07137895
163	0x3e0394ad	0.12849684
164	0xbaa57763	-0.0012624081
165	0x3d6f8890	0.058479846
166	0x3d238575	0.039922196
167	0xbd33d69d	-0.043905843
168	0x3dc30a13	0.09523406
169	0xbd20e6b9	-0.039282534
170	0x3e241fd8	0.16027772
171	0x3dad3b3b	0.08458563
172	0x3db72aeb	0.08943733
173	0xbd8e6de7	-0.06954556
174	0x3d6bda8e	0.057581477
175	0xbdbafc2e	-0.09130131
176	0xbdcf5a50	-0.101246476
177	0x3d81f867	0.06346207
178	0x3c2c7166	0.010525083
179	0xbc5f5e39	-0.013633304
180	0xbd9b8661	-0.0759399
181	0xbe765a05	-0.24057777
182	0xbd88ae3d	-0.06673858
183	0x3d419ee7	0.04727068
184	0xbc826138	-0.015915498
185	0x3c4dda66	0.012564277
186	0x3dbee5e8	0.09321195
187	0xbe1ee29d	-0.15516134
188	0xbc62b8d1	-0.013838009
189	0x3df06f2a	0.11739953
190	0xbc883d88	-0.016630903
191	0x3df66d93	0.120326184
192	0xbdf231e1	-0.1182592
193	0xbe006973	-0.12540226
194	0xbd1d6d9d	-0.038434613
195	0x3e5168e7	0.20450173
196	0x3df085a9	0.11744244
197	0x3d4b6a3b	0.049661856
198	0xbe170269	-0.14747013
199	0xbdeadb5b	-0.1146762
200	0x3de6fcaf	0.11278664
201	0xbc1c4849	-0.0095387185
202	0xbe193fc5	-0.14965732
203	0xbce8a97d	-0.02840113
204	0xbe024ef9	-0.12725438
205	0xbd07766d	-0.033071924
206	0x3cc33a02	0.023831371
207	0xbe2f92be	-0.17145821
208	0xbceb3fbb	-0.028716912
209	0x3e00a46e	0.12562725
210	0xbd4d89b7	-0.050180163
211	0x3d3cd837	0.046104636
212	0x3d12f2a9	0.03587595
213	0x3d94141b	0.07230397
214	0xbd6ec25a	-0.058290817
215	0x3dd9e918	0.10640162
216	0xbe19c6ca	-0.15017238
217	0xbcc9c622	-0.02463061
218	0xbde3f35f	-0.11130404
219	0xbd312eb5	-0.043257434
220	0xbcaad5f2	-0.02085397
221	0x3ca39263	0.019967264
222	0x3be5f1ab	0.0070173345
223	0x3d237e29	0.039915238
224	0x3e2d397b	0.16916458
225	0x3b081991	0.0020767192
226	0xbe4d0a8f	-0.20023559
227	0x3e1ba46d	0.15199442
228	0x3cd9572a	0.02653082
229	0x3e15a75b	0.14614622
230	0xbcf93a7b	-0.030423393
231	0xbc672b9f	-0.014109521
232	0xbe2f2399	-0.17103423
233	0xbd2b9a82	-0.041895397
234	0xbe53fe99	-0.2070259
235	0x3da2d172	0.07950105
236	0x3d21d004	0.03950502
237	0x3e1159a7	0.14194356
238	0xbe14fc0c	-0.14549273
239	0xbd15feab	-0.036619823
240	0xbe374864	-0.17898709
241	0x3cd0a102	0.0254674
242	0xb93b312e	-0.0001785203
243	0xbb884a27	-0.0041592303
244	0x3d48ed40	0.049054384
245	0xbd956b82	-0.07295896
246	0xbdb3be3e	-0.0877652
247	0x3e1b787e	0.15182683
248	0x3d76ce13	0.06025512
249	0xbdff7805	-0.12474064
250	0x3caa4968	0.020786956
251	0xbd5f8adc	-0.054575786
252	0x3e308593	0.17238455
253	0xbce925ac	-0.028460346
254	0xbd1ced72	-0.038312383
255	0xbd513a78	-0.05108115

network_body._body_endoder.seq_layers.2.bias f4 [128]
0	0x00000000	0.0
1	0x00000000	0.0
2	0x00000000	0.0
3	0x00000000	0.0
4	0x00000000	0.0
5	0x00000000	0.0
6	0x00000000	0.0
7	0x00000000	0.0
8	0x00000000	0.0
9	0x00000000	0.0
10	0x00000000	0.0
11	0x00000000	0.0
12	0x00000000	0.0
13	0x00000000	0.0
14	0x00000000	0.0
15	0x00000000	0.0
16	0x00000000	0.0
17	0x00000000	0.0
18	0x00000000	0.0
19	0x00000000	0.0
20	0x00000000	0.0
21	0x00000000	0.0
22	0x00000000	0.0
23	0x00000000	0.0
24	0x00000000	0.0
25	0x00000000	0.0
26	0x00000000	0.0
27	0x00000000	0.0
28	0x00000000	0.0
29	0x00000000	0.0
30	0x00000000	0.0
31	0x00000000	0.0
32	0x00000000	0.0
33	0x00000000	0.0
34	0x00000000	0.0
35	0x00000000	0.0
36	0x00000000	0.0
37	0x00000000	0.0
38	0x00000000	0.0
39	0x00000000	0.0
40	0x00000000	0.0
41	0x00000000	0.0
42	0x00000000	0.0
43	0x00000000	0.0
44	0x00000000	0.0
45	0x00000000	0.0
46	0x00000000	0.0
47	0x00000000	0.0
48	0x00000000	0.0
49	0x00000000	0.0
50	0x00000000	0.0
51	0x00000000	0.0
52	0x00000000	0.0
53	0x00000000	0.0
54	0x00000000	0.0
55	0x00000000	0.0
56	0x00000000	0.0
57	0x00000000	0.0
58	0x00000000	0.0
59	0x00000000	0.0
60	0x00000000	0.0
61	0x00000000	0.0
62	0x00000000	0.0
63	0x00000000	0.0
64	0x00000000	0.0
65	0x00000000	0.0
66	0x00000000	0.0
67	0x00000000	0.0
68	0x00000000	0.0
69	0x00000000	0.0
70	0x00000000	0.0
71	0x00000000	0.0
72	0x00000000	0.0
73	0x00000000	0.0
74	0x00000000	0.0
75	0x00000000	0.0
76	0x00000000	0.0
77	0x00000000	0.0
78	0x00000000	0.0
79	0x00000000	0.0
80	0x00000000	0.0
81	0x00000000	0.0
82	0x00000000	0.0
83	0x00000000	0.0
84	0x00000000	0.0
85	0x00000000	0.0
86	0x00000000	0.0
87	0x00000000	0.0
88	0x00000000	0.0
89	0x00000000	0.0
90	0x00000000	0.0
91	0x00000000	0.0
92	0x00000000	0.0
93	0x00000000	0.0
94	0x00000000	0.0
95	0x00000000	0.0
96	0x00000000	0.0
97	0x00000000	0.0
98	0x00000000	0.0
99	0x00000000	0.0
100	0x00000000	0.0
101	0x00000000	0.0
102	0x00000000	0.0
103	0x00000000	0.0
104	0x00000000	0.0
105	0x00000000	0.0
106	0x00000000	0.0
107	0x00000000	0.0
108	0x00000000	0.0
109	0x00000000	0.0
110	0x00000000	0.0
111	0x00000000	0.0
112	0x00000000	0.0
113	0x00000000	0.0
114	0x00000000	0.0
115	0x00000000	0.0
116	0x00000000	0.0
117	0x00000000	0.0
118	0x00000000	0.0
119	0x00000000	0.0
120	0x00000000	0.0
121	0x00000000	0.0
122	0x00000000	0.0
123	0x00000000	0.0
124	0x00000000	0.0
125	0x00000000	0.0
126	0x00000000	0.0
127	0x00000000	0.0

action_model._discrete_distribution.branches.0.weight f4 [3, 128]
0	0x3a571d73	0.00082059874
1	0xbc1a875d	-0.009431687
2	0x3bf7770d	0.0075520338
3	0xbb7f2753	-0.0038933351
4	0x3b9399fb	0.00450444
5	0x3c9be8b7	0.019031866
6	0x3c91b8b6	0.017788272
7	0xbc082363	-0.008309218
8	0x3be4f63f	0.0069873626
9	0x3ab89675	0.0014082926
10	0xbaf9d7f3	-0.001906155
11	0x3bd4ddd3	0.00649617
12	0xbc408dcf	-0.01175256
13	0xbc1c9a67	-0.009558297
14	0x3c149e70	0.009070978
15	0xbb9a8db0	-0.0047165975
16	0x3c2f3ccf	0.01069565
17	0x3a4da610	0.00078448746
18	0xbc08e973	-0.00835644
19	0x3b7948d7	0.00380378
20	0x3c1faa40	0.009745181
21	0x3b00d4a7	0.0019658
22	0xbb93bb5e	-0.00450842
23	0x3ad09837	0.0015914504
24	0x3bc60b3a	0.006043819
25	0xb9cdf3e8	-0.0003928237
26	0x3c8821cd	0.01661768
27	0x3cab82aa	0.020936329
28	0x3bc537c3	0.00601861
29	0xbc3394a6	-0.0109607335
30	0x3b872e7b	0.004125414
31	0x3b49cfe7	0.0030794085
32	0xbbf80a4d	-0.0075695873
33	0xbc1de0cb	-0.009636114
34	0x3b3a20e0	0.0028400943
35	0x39c6ea73	0.0003794018
36	0x3c19aa14	0.009378929
37	0xbb3e689b	-0.002905405
38	0x3bc6bb03	0.006064774
39	0x3cb7992b	0.022411903
40	0x3c0af580	0.008481383
41	0xbbe880f3	-0.00709545
42	0xbc5e7e70	-0.01357995
43	0x3a907f0f	0.0011024195
44	0x3b85cfa6	0.0040835915
45	0xbb07ef5e	-0.002074204
46	0x3c81f2eb	0.015862903
47	0xb8f53f5a	-0.000116943105
48	0xbc40bbff	-0.011763572
49	0xbc5e657d	-0.013574001
50	0xbc4cad6c	-0.012492519
51	0xbc5eeb17	-0.0136058545
52	0x3bf79d03	0.007556559
53	0xbc71d310	-0.014759794
54	0xbb204a67	-0.002445841
55	0x3b49a57b	0.00307688
56	0xbbd42e8f	-0.006475277
57	0x3c162e18	0.009166263
58	0xba749d52	-0.0009331304
59	0x3ba69603	0.0050838008
60	0x3c7b0232	0.015320348
61	0x3b646852	0.0034852219
62	0x3ad67468	0.0016361596
63	0x3b47507b	0.003041296
64	0xbc09f395	-0.008419891
65	0x3c3e5730	0.011617467
66	0xbc8e8ec3	-0.017402058
67	0x3beb1912	0.0071746195
68	0xbb4a7b8f	-0.00308964
69	0x3c07d5ef	0.008290752
70	0xbc996e33	-0.018729305
71	0xbc889ca8	-0.016676262
72	0x3a90d7db	0.0011050658
73	0x3c5ed772	0.013601171
74	0xbb70539d	-0.003667093
75	0xbb053697	-0.0020326728
76	0xb984fe8d	-0.00025366657
77	0x3aa65efc	0.0012693102
78	0x3bdb9673	0.0067012846
79	0x3b5b861a	0.0033496679
80	0x3b5042a7	0.003177801
81	0xbb8c704c	-0.004285848
82	0x3ba163ed	0.004925242
83	0xbbdcf30d	-0.006742841
84	0xba6fc013	-0.0009145748
85	0x3be0700d	0.006849295
86	0xbaac7267	-0.0013156653
87	0x3c5e9423	0.013585123
88	0x3aa9b4d8	0.0012947572
89	0x3ba1076b	0.0049142144
90	0xbb79fc82	-0.003814489
91	0x3bf866cd	0.007580614
92	0x3b94a539	0.0045362976
93	0xbc615bed	-0.013754827
94	0xbbabeccf	-0.0052467356
95	0xbb894bff	-0.0041899676
96	0xbbcc0deb	-0.006227245
97	0x3be6aa4b	0.0070393435
98	0xbc2582d7	-0.010101995
99	0xbca70c9b	-0.020391753
100	0x3bc1c23e	0.005913048
101	0x3c1af559	0.0094579095
102	0xbbb0772e	-0.005385301
103	0xbb8364ef	-0.004009835
104	0xbbac56b3	-0.005259359
105	0x3c3eeb3a	0.011652762
106	0x3b1b555e	0.0023702006
107	0xbc62d32a	-0.013844291
108	0x3ba3030f	0.00497473
109	0xbbaa4913	-0.0051966994
110	0xbb7401e5	-0.0037232575
111	0x3a0317a7	0.0005000778
112	0xbc0d03eb	-0.008606891
113	0x3bfe30ef	0.007757298
114	0xbbfe5048	-0.007761035
115	0x3bd58333	0.0065158843
116	0x3c5cc0bb	0.013473685
117	0x3c902089	0.017593639
118	0x3b8c0eaf	0.0042742114
119	0xbacc8691	-0.0015604069
120	0x3c7211ba	0.014774734
121	0xbac52f13	-0.0015043936
122	0x3b16bc2b	0.002300034
123	0x3a97363f	0.0011536552
124	0xbb562ac3	-0.0032679297
125	0xbb6a42ff	-0.00357455
126	0xbc1af35f	-0.009457438
127	0x39300aa3	0.0001678863
128	0x3c03dcc3	0.008048239
129	0x3beed835	0.0072889575
130	0x3ba3bde7	0.0049970034
131	0x3a72f1d0	0.00092676
132	0xbbe68593	-0.0070349663
133	0x3b412c85	0.0029475999
134	0xbc29e5e2	-0.01036975
135	0x3b92889e	0.0044718524
136	0xbaaa0fa3	-0.0012974631
137	0xbb64ac0d	-0.003489259
138	0x3bfa7943	0.00764385
139	0xbc598f7a	-0.013278836
140	0xbc1b916b	-0.00949512
141	0xbbba7a40	-0.005690843
142	0xbb8464d4	-0.00404034
143	0x3c69e122	0.014274867
144	0xbc07cbf2	-0.00828837
145	0x3cd896d3	0.026439106
146	0xbb8653b1	-0.0040993323
147	0xbba2d619	-0.00496937
148	0xbb6ad658	-0.0035833325
149	0xbbc2c33a	-0.005943683
150	0xbc8e178f	-0.017345218
151	0x3b352009	0.0027637503
152	0xbb22d108	-0.002484383
153	0xbbee75a7	-0.007277209
154	0x3c3083d0	0.010773614
155	0x3c87ae08	0.016562477
156	0xbc28f057	-0.010311208
157	0x378aec75	1.656099e-05
158	0x3a8bc8d5	0.0010664711
159	0x3c622657	0.013803086
160	0xbc02e462	-0.007989021
161	0x3bd8c4b8	0.0066152476
162	0x3ae6ef08	0.0017618844
163	0xbc0a8250	-0.0084539205
164	0x3a4b322c	0.00077513116
165	0x3c353fa5	0.011062537
166	0xbc32c0db	-0.010910238
167	0xbc4c911d	-0.01248577
168	0x3b56f6a5	0.003280082
169	0xbc9b6f90	-0.018974096
170	0x3b3c40c2	0.0028725122
171	0x3c84f723	0.016231125
172	0xbb6a8677	-0.0035785714
173	0x3b574baa	0.0032851496
174	0xbc31fbdb	-0.01086327
175	0x3c082c2f	0.008311315
176	0x3ca94af2	0.02066562
177	0x3c190c55	0.009341319
178	0x3a1645b7	0.0005732434
179	0x3b81e7e4	0.003964411
180	0xbc7fde9d	-0.01561704
181	0xba7d41cd	-0.0009660989
182	0xbbe1a1ed	-0.006885758
183	0x3c0a4b37	0.008440784
184	0xbc0340f8	-0.008011095
185	0x3b6c0d45	0.0036018651
186	0xb9fd7ed0	-0.00048350403
187	0x3c353326	0.011059558
188	0xbb3aca46	-0.0028501912
189	0xbbc30bbf	-0.005952328
190	0xbbfc0d9d	-0.0076920525
191	0x3b8a0143	0.004211576
192	0x3cbf5860	0.02335757
193	0x3b6b6d40	0.0035923272
194	0x393ef78a	0.00018212027
195	0x3bf3c743	0.0074395253
196	0x3b83d2af	0.004022918
197	0xbb1a62e5	-0.002355748
198	0xbc24ee16	-0.01006653
199	0x3c323565	0.010876988
200	0x3ba3b536	0.0049959673
201	0xba1d159e	-0.0005992296
202	0x3c5b16cb	0.0133721335
203	0x3c20c6ea	0.00981305
204	0x3c86a404	0.01643563
205	0x3c5f3832	0.013624238
206	0x3bd3e250	0.0064661875
207	0xbbefc96f	-0.007317714
208	0xbc1bb057	-0.009502492
209	0xbb94ba03	-0.004538776
210	0x3c77afa8	0.015117563
211	0xbbd6b368	-0.0065521486
212	0x3a6a4712	0.0008936982
213	0x3c0096c2	0.007848443
214	0x39011ebe	0.00012313851
215	0xbb8ff86f	-0.0043936293
216	0x3c8fc330	0.017549127
217	0xbaebb04a	-0.0017981615
218	0x3c0faed5	0.008769711
219	0x3c1ae363	0.009453627
220	0xbb82ac7c	-0.003987847
221	0xbbd7b1ba	-0.006582466
222	0x3bd86dad	0.0066048712
223	0x3a6a0073	0.00089264585
224	0xbabc65cb	-0.0014373598
225	0xbba2092f	-0.0049449424
226	0x3ba48089	0.0050202054
227	0x3bf0c6fd	0.00734794
228	0x39b11529	0.00033775836
229	0x3a854063	0.0010166283
230	0x3be8c66f	0.0071037333
231	0x3c43e7c6	0.011957115
232	0xbcd8a23d	-0.026444549
233	0xbaa0b0b3	-0.0012259692
234	0xbc2201cb	-0.009888123
235	0x3bab573d	0.0052289055
236	0xbc4a8623	-0.012361082
237	0xbbd616f0	-0.006533496
238	0x3c3f73cc	0.011685323
239	0xbafec8e0	-0.0019438528
240	0x3ab5db2d	0.0013874524
241	0x3aa0406b	0.0012226229
242	0x3b960613	0.004578361
243	0xbbdf8e50	-0.006822385
244	0x3c128e1f	0.008945017
245	0xbc9fa943	-0.01948989
246	0xbc2a6978	-0.010401122
247	0x3bafed32	0.005368852
248	0x3c79e3a3	0.015252027
249	0xb9b06b77	-0.00033649403
250	0x3cde0d50	0.027105957
251	0x3aed160b	0.0018088234
252	0xbbcf9eb0	-0.0063360557
253	0x3bb6fd9f	0.005584433
254	0x3b09c7e3	0.0021023683
255	0x3b6cf22f	0.0036155095

action_model._discrete_distribution.branches.0.bias f4 [3]
0	0x00000000	0.0
1	0x00000000	0.0
2	0x00000000	0.0

network_body._body_endoder.seq_layers.0.weight f4 [128, 16]
0	0x3e7d95a5	0.24764116
1	0x3e01dcfc	0.12681955
2	0xbeb8c97d	-0.36091223
3	0xbd7020c9	-0.058625016
4	0xbe274284	-0.16333967
5	0xbdcaaf58	-0.098967254
6	0x3e986157	0.29761764
7	0xbea6ec1e	-0.32602018
8	0xbe5d1f9d	-0.21594091
9	0xbe885cd8	-0.26633334
10	0x3e8f8433	0.28030547
11	0xbeb74f4c	-0.35802686
12	0x3e499446	0.19685468
13	0x3e5d2ecd	0.21599884
14	0x3e8ceae4	0.27522957
15	0xbd82c4c9	-0.0638519
16	0x3dc209f3	0.09474554
17	0x3f039674	0.5140145
18	0x3cf7a1c5	0.030228505
19	0x3e3a2d3b	0.18181317
20	0x3e586b2c	0.21134633
21	0xbc858c41	-0.01630223
22	0x3eda7272	0.4266544
23	0xbe052f46	-0.13006315
24	0xbe9ac670	-0.3022952
25	0x3c919a17	0.017773671
26	0x3e02c679	0.12771024
27	0xbe194d2d	-0.14970846
28	0xbe873504	-0.26407635
29	0x3da8b2ab	0.08237203
30	0x3d64c97a	0.055856206
31	0xbde24b0d	-0.11049471
32	0xbe5b4a1f	-0.21414994
33	0xbec9c69d	-0.39409342
34	0x3d8da9b5	0.06917135
35	0xbba868b1	-0.0051394333
36	0xbcfe9ffc	-0.031082146
37	0x3f2aae77	0.6667246
38	0xbea25ca7	-0.31711313
39	0x3e32917e	0.17438313
40	0xbe37e567	-0.17958604
41	0x3e502729	0.20327438
42	0x3e21410b	0.15747468
43	0x3e6d0d08	0.23149502
44	0xbe2390c2	-0.1597319
45	0x3ee52282	0.4475289
46	0x3d05f46a	0.032703795
47	0xbdaa6575	-0.08320133
48	0xbe7b6783	-0.24551205
49	0xbd5383d9	-0.05163941
50	0xbe372d71	-0.17888428
51	0x3d992683	0.07478049
52	0xbe8adb72	-0.27120548
53	0xbda0673e	-0.07832192
54	0xbdc2f025	-0.0951846
55	0xbdcd4bcb	-0.10024222
56	0x3e59bdb0	0.21263766
57	0xbeef64cf	-0.46756598
58	0x3db1a23a	0.086735204
59	0xbd812cf5	-0.06307403
60	0x3e6670a9	0.22503914
61	0xbefd7409	-0.4950259
62	0xbe175abc	-0.14780706
63	0x3e019c87	0.12657367
64	0xbe77acc6	-0.24187002
65	0xbebf9b1c	-0.37423027
66	0xbe898095	-0.26855913
67	0x3cd7c150	0.026337296
68	0xbd65ad05	-0.056073207
69	0x3c96e862	0.018421356
70	0xbe96698b	-0.29377398
71	0x3d384745	0.044989843
72	0xbcca213e	-0.024674054
73	0xbd5a4cf5	-0.05329605
74	0xbe0454a4	-0.12922913
75	0xbea0122e	-0.3126387
76	0xbec49756	-0.3839671
77	0xbe1f3447	-0.15547286
78	0x3e6450b7	0.22296415
79	0x3dcec343	0.10095837
80	0x3e29eb50	0.16593671
81	0x3ed06304	0.40700543
82	0xbba2c589	-0.0049673957
83	0x3df0da89	0.11760432
84	0x3ebae417	0.36502144
85	0x3e6cb8ac	0.23117322
86	0xbd171fd1	-0.036895577
87	0xbd46d947	-0.048547056
88	0xbd8372a5	-0.06418351
89	0x3ec94938	0.39313674
90	0xbdbc267e	-0.09187029
91	0xbd46b8fb	-0.048516255
92	0xbf293600	-0.6609802
93	0x3e00f2ef	0.12592672
94	0xbc437e06	-0.011931902
95	0x3cdf5182	0.027260546
96	0x3e91abf4	0.28451502
97	0xbd951645	-0.07279638
98	0x3edf7c27	0.43649408
99	0x3e3431fe	0.17597196
100	0xbeb3055f	-0.34965035
101	0xbe498079	-0.19677915
102	0x3e7d19b4	0.24716836
103	0xbda02cf1	-0.07821072
104	0x3f00d140	0.5031929
105	0xbe09f694	-0.13472968
106	0x3d95443f	0.072884075
107	0xbe0fe433	-0.14051895
108	0xbe9d2e56	-0.30699414
109	0x3d950ea1	0.07278181
110	0x3e871190	0.26380587
111	0x3edeefdc	0.43542373
112	0x3ed3c036	0.41357583
113	0x3d3e1a0b	0.046411555
114	0xbd14327a	-0.03618095
115	0xbdade8c3	-0.084916614
116	0x3e4a2ad3	0.19742899
117	0xbd0087a8	-0.031379372
118	0x3e83724d	0.25673142
119	0xbe7e2103	-0.2481728
120	0xbe33b40c	-0.17549151
121	0x3df8defc	0.12151906
122	0x3e49bac2	0.19700149
123	0xbebc6c26	-0.3680126
124	0xbea33b1b	-0.3188103
125	0x3e0497aa	0.1294848
126	0xbe0577a6	-0.13033924
127	0xbea581d5	-0.32325616
128	0xbe9827d8	-0.29717898
129	0xbc5ee2de	-0.013603894
130	0xbe2b1359	-0.167066
131	0x3d88028a	0.06641109
132	0x3d5cbfda	0.0538939
133	0xbea1677d	-0.31524268
134	0xbe2fdbf9	-0.17173757
135	0x3da18e33	0.078884505
136	0x3d9a7165	0.075411595
137	0x3ef75c5a	0.48312646
138	0x3e417a25	0.1889425
139	0x3e4739e8	0.19455683
140	0xbf140d80	-0.578331
141	0xbd85e92a	-0.06538613
142	0xbe42a796	-0.19009241
143	0xbdb92369	-0.09039957
144	0xbeb42ca6	-0.35190314
145	0x3e0b89d5	0.13626797
146	0xbd808ecd	-0.06277237
147	0xbeee0cc3	-0.4649411
148	0x3e19462d	0.14968176
149	0x3e1ab842	0.15109351
150	0xbd94d139	-0.072664686
151	0x3e1260cb	0.14294736
152	0xbf1e8737	-0.6192507
153	0xbdc7e8ae	-0.09761177
154	0x3d83a0b3	0.06427135
155	0xbd25a24a	-0.040437974
156	0x3ea4c22a	0.32179385
157	0xbdc3eeb3	-0.09567013
158	0x3e22e907	0.15909205
159	0x3e6731b8	0.2257756
160	0x3da13714	0.078718334
161	0x3e8cb577	0.27482197
162	0xbd36f0cf	-0.044663247
163	0x3e5607b8	0.20901382
164	0x3d068ab9	0.03284714
165	0xbe14027a	-0.1445407
166	0xbf0063d3	-0.5015232
167	0x3e2ab5fe	0.16670987
168	0x3efd2ee2	0.4944983
169	0xbe31a64e	-0.17348596
170	0x3e302c52	0.17204407
171	0xbde87b95	-0.113516964
172	0x3d95a6d0	0.073072076
173	0xbdebfbbc	-0.11522624
174	0x3eb14f0d	0.34630623
175	0x3dc280b6	0.09497206
176	0xbe5bb7f0	-0.21456885
177	0xbe4dea9e	-0.2010903
178	0x3d1921c9	0.037385736
179	0xbebbd699	-0.36687163
180	0x3eb44655	0.3520991
181	0x3d9ad7ac	0.075606674
182	0xbe813691	-0.25236943
183	0x3e2bacac	0.16765088
184	0x3d45f741	0.048331503
185	0x3e85f305	0.26161972
186	0x3f1a6f92	0.6032649
187	0x3f04f8d8	0.51942205
188	0xbdd03109	-0.10165603
189	0x3e539335	0.20661624
190	0x3e928047	0.28613493
191	0x3ee22b12	0.44173485
192	0xbe01e5a7	-0.12685262
193	0x3ef58369	0.4795182
194	0x3db5ce3f	0.08877229
195	0xbdf59441	-0.11991168
196	0xbdd936f8	-0.106061876
197	0x3e001eab	0.12511699
198	0x3d00adc3	0.031415712
199	0xbe4258f8	-0.18979251
200	0xbea71b99	-0.32638243
201	0x3e280923	0.16409735
202	0xbe2e6feb	-0.17034881
203	0xbe4a3499	-0.19746627
204	0xbeb15f8c	-0.3464321
205	0xbb0335e7	-0.0020021142
206	0x3d305b5e	0.043055885
207	0x3c9af604	0.018916138
208	0x3e3cf862	0.18454126
209	0xbead2f15	-0.33824983
210	0xbe43f7e3	-0.1913753
211	0x3e173e02	0.14769748
212	0x3ec587e8	0.3858025
213	0x3ddf94b6	0.10917036
214	0xbdaa6883	-0.08320715
215	0xbdf3a70d	-0.11897097
216	0xbdc2acd1	-0.09505618
217	0x3e7cd509	0.24690641
218	0x3ef27ced	0.47360936
219	0x3d9c2f7e	0.07626246
220	0x3e139373	0.14411716
221	0x3e792bce	0.24333116
222	0xbdc82cc6	-0.09774165
223	0x3ce18a59	0.02753179
224	0x3e25e0b0	0.16198993
225	0xbe668904	-0.22513205
226	0x3eab9b05	0.33516708
227	0xbd17e77b	-0.03708599
228	0xbe896b16	-0.26839513
229	0xbed27820	-0.41107273
230	0xbd5d9a8b	-0.05410246
231	0xbe2fe353	-0.17176561
232	0x3e3448b1	0.17605855
233	0xbe1347d2	-0.14382866
234	0x3ea02484	0.3127786
235	0x3e4567fc	0.19277948
236	0xbc6f1aed	-0.014593822
237	0xbe793b82	-0.24339107
238	0x3f0e0420	0.55475044
239	0xbe0f4f36	-0.1399506
240	0x3e1f2810	0.15542626
241	0xbd93a1c8	-0.07208592
242	0x3d358e7d	0.04432534
243	0xbe417ad5	-0.18894513
244	0xbee8a644	-0.4543935
245	0xbdc0c9fb	-0.09413525
246	0xbe64da15	-0.22348817
247	0xbdff42f1	-0.1246394
248	0x3e8c2757	0.27373764
249	0x3cac347d	0.021021122
250	0xbe2323d0	-0.1593163
251	0xbdf1d9e6	-0.11809139
252	0xbca6eea5	-0.020377466
253	0x3e28fc37	0.16502462
254	0xbf035336	-0.51298845
255	0x3db0ea5e	0.08638452

network_body._body_endoder.seq_layers.0.bias f4 [128]
0	0x00000000	0.0
1	0x00000000	0.0
2	0x00000000	0.0
3	0x00000000	0.0
4	0x00000000	0.0
5	0x00000000	0.0
6	0x00000000	0.0
7	0x00000000	0.0
8	0x00000000	0.0
9	0x00000000	0.0
10	0x00000000	0.0
11	0x00000000	0.0
12	0x00000000	0.0
13	0x00000000	0.0
14	0x00000000	0.0
15	0x00000000	0.0
16	0x00000000	0.0
17	0x00000000	0.0
18	0x00000000	0.0
19	0x00000000	0.0
20	0x00000000	0.0
21	0x00000000	0.0
22	0x00000000	0.0
23	0x00000000	0.0
24	0x00000000	0.0
25	0x00000000	0.0
26	0x00000000	0.0
27	0x00000000	0.0
28	0x00000000	0.0
29	0x00000000	0.0
30	0x00000000	0.0
31	0x00000000	0.0
32	0x00000000	0.0
33	0x00000000	0.0
34	0x00000000	0.0
35	0x00000000	0.0
36	0x00000000	0.0
37	0x00000000	0.0
38	0x00000000	0.0
39	0x00000000	0.0
40	0x00000000	0.0
41	0x00000000	0.0
42	0x00000000	0.0
43	0x00000000	0.0
44	0x00000000	0.0
45	0x00000000	0.0
46	0x00000000	0.0
47	0x00000000	0.0
48	0x00000000	0.0
49	0x00000000	0.0
50	0x00000000	0.0
51	0x00000000	0.0
52	0x00000000	0.0
53	0x00000000	0.0
54	0x00000000	0.0
55	0x00000000	0.0
56	0x00000000	0.0
57	0x00000000	0.0
58	0x00000000	0.0
59	0x00000000	0.0
60	0x00000000	0.0
61	0x00000000	0.0
62	0x00000000	0.0
63	0x00000000	0.0
64	0x00000000	0.0
65	0x00000000	0.0
66	0x00000000	0.0
67	0x00000000	0.0
68	0x00000000	0.0
69	0x00000000	0.0
70	0x00000000	0.0
71	0x00000000	0.0
72	0x00000000	0.0
73	0x00000000	0.0
74	0x00000000	0.0
75	0x00000000	0.0
76	0x00000000	0.0
77	0x00000000	0.0
78	0x00000000	0.0
79	0x00000000	0.0
80	0x00000000	0.0
81	0x00000000	0.0
82	0x00000000	0.0
83	0x00000000	0.0
84	0x00000000	0.0
85	0x00000000	0.0
86	0x00000000	0.0
87	0x00000000	0.0
88	0x00000000	0.0
89	0x00000000	0.0
90	0x00000000	0.0
91	0x00000000	0.0
92	0x00000000	0.0
93	0x00000000	0.0
94	0x00000000	0.0
95	0x00000000	0.0
96	0x00000000	0.0
97	0x00000000	0.0
98	0x00000000	0.0
99	0x00000000	0.0
100	0x00000000	0.0
101	0x00000000	0.0
102	0x00000000	0.0
103	0x00000000	0.0
104	0x00000000	0.0
105	0x00000000	0.0
106	0x00000000	0.0
107	0x00000000	0.0
108	0x00000000	0.0
109	0x00000000	0.0
110	0x00000000	0.0
111	0x00000000	0.0
112	0x00000000	0.0
113	0x00000000	0.0
114	0x00000000	0.0
115	0x00000000	0.0
116	0x00000000	0.0
117	0x00000000	0.0
118	0x00000000	0.0
119	0x00000000	0.0
120	0x00000000	0.0
121	0x00000000	0.0
122	0x00000000	0.0
123	0x00000000	0.0
124	0x00000000	0.0
125	0x00000000	0.0
126	0x00000000	0.0
127	0x00000000	0.0

network_body._body_endoder.seq_layers.2.weight f4 [128, 128]
0	0xbda3999c	-0.07988283
1	0x3d3fb663	0.046804797
2	0xbdc7338c	-0.09726629
3	0xbdbaa78f	-0.091139905
4	0x3aedcdfe	0.0018143055
5	0x3bf42005	0.007450106
6	0x3e6cb607	0.23116313
7	0xbcd56723	-0.026050156
8	0x3e5fe532	0.21864775
9	0x3c32880b	0.010896693
10	0xbe122824	-0.14273125
11	0xbdcfa5ff	-0.10139083
12	0xbdd3b8d0	-0.103379846
13	0x3d14c1f8	0.036317796
14	0x3cbb231e	0.022843894
15	0xbe1385fb	-0.14406578
16	0xbd5473bc	-0.051868185
17	0xbd62b456	-0.055347763
18	0x3b6239b4	0.0034519257
19	0xbe2f056d	-0.17091914
20	0x3bb11d00	0.0054050684
21	0x3c8e9647	0.017405642
22	0x3dc2e321	0.09515978
23	0x3bad8ffc	0.0052967053
24	0x3d5ec363	0.054385554
25	0x3d483912	0.04888255
26	0xbd549753	-0.051902127
27	0xba9a582a	-0.0011775543
28	0xbd3c8471	-0.046024743
29	0x3de8721b	0.11349889
30	0xbb030233	-0.0019990325
31	0x3ccce548	0.025011674
32	0x3c6d6b10	0.014490858
33	0x3e44e9d0	0.19229817
34	0xbda35d8e	-0.079768285
35	0x3da187eb	0.078872524
36	0x3ce6cec6	0.02817477
37	0x3cf4770b	0.02984192
38	0xbca574bb	-0.020197263
39	0xbd3aaba1	-0.045573834
40	0x3e14b218	0.14521062
41	0xbb2b5894	-0.0026145326
42	0x3da5a04a	0.08087213
43	0xbd9927a0	-0.07478261
44	0xbdd82ab8	-0.10555023
45	0xbd894234	-0.0670208
46	0xbdc95006	-0.098297164
47	0xbd26e909	-0.040749583
48	0xbd73eb55	-0.059550602
49	0xbdb176cc	-0.08665237
50	0x3d934b13	0.07192054
51	0x3c826401	0.015916826
52	0xbe389bbb	-0.18028156
53	0xbe2c794b	-0.16843145
54	0xbd905179	-0.0704679
55	0x3ca40b36	0.020024877
56	0x3d852508	0.06501204
57	0x3d9f060e	0.07764827
58	0x3da5f2b3	0.08102932
59	0xbd0399c9	-0.032129083
60	0x3ceff4e1	0.029291572
61	0x3e0635a3	0.13106398
62	0x3db4899c	0.088153094
63	0xbd1f0e60	-0.03883207
64	0xbc56121b	-0.01306584
65	0x3d8b675b	0.06806823
66	0xbc16abee	-0.009196265
67	0x3cbc2c4a	0.022970337
68	0xbdc4779b	-0.095931254
69	0x3d511d75	0.051053483
70	0x3df3c31f	0.11902451
71	0x3db61b03	0.08891871
72	0x3d8c6298	0.06854743
73	0xbd1971c3	-0.037462007
74	0x3d9d6545	0.07685331
75	0x3a30b61a	0.00067410024
76	0xbdf08d60	-0.11745715
77	0xba32391f	-0.0006798673
78	0x3ddee0be	0.1088271
79	0x3c3d4ae8	0.011553504
80	0xbdab21f8	-0.083560884
81	0x3e06da62	0.13169244
82	0x3de34cce	0.11098634
83	0xbb15188f	-0.0022750234
84	0x3ccef0a1	0.025261225
85	0x3d93cf66	0.072172925
86	0xbdd26281	-0.102726944
87	0x3ac51e5c	0.0015038955
88	0xba952d43	-0.0011381287
89	0x3d6dd6ee	0.0580663
90	0x3d1be293	0.038057875
91	0x3dbeaf36	0.093107626
92	0x3c47cc3f	0.012194692
93	0x3d4c604a	0.049896516
94	0x3de23146	0.110445544
95	0xbd10f5d2	-0.035390683
96	0xbe221552	-0.15828446
97	0x3ce41f07	0.027846826
98	0x3d8a17c6	0.06742816
99	0xbdcef469	-0.10105211
100	0xbe4a5155	-0.19757588
101	0xbd237976	-0.039910756
102	0x3d99e4fa	0.07514377
103	0x3d97cf44	0.0741258
104	0x3b929a93	0.004473993
105	0xbd66cb49	-0.05634621
106	0x3ddf2cde	0.108972296
107	0x3cb66c4f	0.022268442
108	0x3e1fd41d	0.15608259
109	0x3d66ca6f	0.0563454
110	0xbe3d222b	-0.18470065
111	0xbd97ed75	-0.07418338
112	0xbd99c2ef	-0.07507884
113	0x3e2369ea	0.15958372
114	0x3b2431e7	0.0025054158
115	0x3dc6f988	0.09715563
116	0x3c5123d1	0.012764887
117	0x3c0429c4	0.008066598
118	0x3df7b531	0.120951064
119	0xbd2ba1e3	-0.041902434
120	0x3cfc6a42	0.030812386
121	0x3dbd74ee	0.09250818
122	0xbc901f59	-0.017593073
123	0xbe118579	-0.14211072
124	0x3c5cfc78	0.013487928
125	0x3d49f279	0.049303506
126	0xbcd36f7d	-0.025809998
127	0xbd840a3c	-0.064472646
128	0xbcf2654e	-0.029589321
129	0xbd34d20a	-0.04414562
130	0xbda053ed	-0.078285076
131	0xbbb1d04d	-0.0054264427
132	0xbd1aaaeb	-0.037760656
133	0xbbbec313	-0.0058215945
134	0xbda6ef04	-0.08151057
135	0x3d90e90e	0.07075702
136	0x3d90b70b	0.07066163
137	0xbd30777c	-0.0430827
138	0xbccc2df1	-0.02492425
139	0xbcdfba92	-0.027310643
140	0xbd1bbc34	-0.03802128
141	0xbd87a1c6	-0.06622653
142	0x3d994200	0.074832916
143	0xbe00aa32	-0.12564924
144	0x3e0610d9	0.13092364
145	0xbd6679e5	-0.05626859
146	0xbd1512c8	-0.036394864
147	0x3c6e36f7	0.014539472
148	0xbdbb83f8	-0.091560304
149	0xbdaefcfe	-0.08544348
150	0xbca7109b	-0.02039366
151	0xbc5e89e3	-0.013582679
152	0xbe0efbe5	-0.13963278
153	0xbd852ca8	-0.06502658
154	0xbd12893e	-0.035775416
155	0xbc95f3b9	-0.018304693
156	0xbd7f29f6	-0.062295876
157	0xbc82056f	-0.015871732
158	0x3e1be022	0.15222219
159	0xbe8ce246	-0.27516383
160	0x3cb5b957	0.022183103
161	0xbe21b04c	-0.15789908
162	0x3d3bb49a	0.045826532
163	0xbe1b8e20	-0.15190935
164	0x3c89fa2d	0.016842926
165	0x3e00914e	0.1255543
166	0xbe4f6c3c	-0.20256132
167	0xbc47ee5f	-0.012202828
168	0xbd51c012	-0.051208563
169	0xbdaf8817	-0.08570879
170	0xbada7858	-0.0016667945
171	0xbd54dae7	-0.051966574
172	0x3d3293c0	0.043597937
173	0x3d3b989f	0.045799848
174	0x3e11744a	0.14204517
175	0x3d0711ab	0.032975834
176	0xbc262d33	-0.010142612
177	0xbddeb587	-0.10874467
178	0xbda8b5c4	-0.08237794
179	0x3d19c0af	0.037537273
180	0x3d4d260d	0.050085116
181	0x3e87fb5f	0.26558968
182	0x3db00a2d	0.08595691
183	0x3e002d12	0.12517193
184	0xbd9d1691	-0.0767032
185	0xba013b9b	-0.00049298414
186	0x3d9827a2	0.07429434
187	0xbc059064	-0.008152101
188	0xbdb7d823	-0.08976772
189	0x3cce2e6c	0.02516862
190	0x3d182257	0.037142124
191	0xbca9fece	-0.020751383
192	0x3e004304	0.12525564
193	0x3dd5f24b	0.10446604
194	0x3d8b9bee	0.068168506
195	0x3cadb357	0.02120368
196	0x3d067297	0.032824125
197	0x3e06e7fb	0.13174431
198	0x3dff10f9	0.12454409
199	0x3d0da49b	0.034580808
200	0xbda33232	-0.07968558
201	0xbd1f074c	-0.03882532
202	0xbe2b79fe	-0.16745755
203	0x3bf4633d	0.007458119
204	0xba92e172	-0.0011206104
205	0x3d917c35	0.07103769
206	0x3e25be83	0.16185956
207	0x3d1b9bb5	0.03799029
208	0xbc1e8c7c	-0.009677049
209	0xbd99cf70	-0.07510269
210	0x3b99085f	0.0046701874
211	0xbd10432e	-0.035220318
212	0x3c781430	0.015141532
213	0xbd524500	-0.051335335
214	0x3c91c50c	0.017794155
215	0x3d830327	0.06397086
216	0x3c9e557d	0.019327873
217	0xbdf7a64f	-0.12092268
218	0x3ce4cdf4	0.027930237
219	0x3dce9ffa	0.10089107
220	0xbd7856b9	-0.06062958
221	0x3cfd2072	0.03089926
222	0x3dfdca7f	0.12392139
223	0x3df94f6a	0.1217335
224	0xbdbadc00	-0.09123993
225	0x3d48a052	0.04898102
226	0x3c71b6e1	0.014753074
227	0x3d21a588	0.039464504
228	0xbdb7cb40	-0.08974314
229	0xbbc3809d	-0.0059662596
230	0x3bbdce8e	0.0057924455
231	0x3d991556	0.07474773
232	0x3cb6142a	0.022226412
233	0xbd2c3302	-0.042040832
234	0xbd100bde	-0.035167567
235	0x3dafe4aa	0.08588536
236	0xbd8de806	-0.069290206
237	0xbe2d5d61	-0.16930152
238	0xbbca49cc	-0.006173348
239	0xbd1c29a5	-0.038125653
240	0x3dd4ddb4	0.10393849
241	0x3d809ce9	0.06279928
242	0xbc775fcc	-0.015098523
243	0x3d333c53	0.0437587
244	0xbd8414d4	-0.06449285
245	0xbe0142d0	-0.12623143
246	0x3d27df25	0.04098429
247	0x3ce06ece	0.027396586
248	0x3d95437c	0.07288262
249	0x3c337126	0.01095227
250	0x3d007df3	0.031370115
251	0x3d8d6a37	0.069050245
252	0x3dc788fc	0.097429246
253	0x3d225fdb	0.039642196
254	0x3dd1fc51	0.10253204
255	0xbbc1b4a0	-0.0059114248

network_body._body_endoder.seq_layers.2.bias f4 [128]
0	0x00000000	0.0
1	0x00000000	0.0
2	0x00000000	0.0
3	0x00000000	0.0
4	0x00000000	0.0
5	0x00000000	0.0
6	0x00000000	0.0
7	0x00000000	0.0
8	0x00000000	0.0
9	0x00000000	0.0
10	0x00000000	0.0
11	0x00000000	0.0
12	0x00000000	0.0
13	0x00000000	0.0
14	0x00000000	0.0
15	0x00000000	0.0
16	0x00000000	0.0
17	0x00000000	0.0
18	0x00000000	0.0
19	0x00000000	0.0
20	0x00000000	0.0
21	0x00000000	0.0
22	0x00000000	0.0
23	0x00000000	0.0
24	0x00000000	0.0
25	0x00000000	0.0
26	0x00000000	0.0
27	0x00000000	0.0
28	0x00000000	0.0
29	0x00000000	0.0
30	0x00000000	0.0
31	0x00000000	0.0
32	0x00000000	0.0
33	0x00000000	0.0
34	0x00000000	0.0
35	0x00000000	0.0
36	0x00000000	0.0
37	0x00000000	0.0
38	0x00000000	0.0
39	0x00000000	0.0
40	0x00000000	0.0
41	0x00000000	0.0
42	0x00000000	0.0
43	0x00000000	0.0
44	0x00000000	0.0
45	0x00000000	0.0
46	0x00000000	0.0
47	0x00000000	0.0
48	0x00000000	0.0
49	0x00000000	0.0
50	0x00000000	0.0
51	0x00000000	0.0
52	0x00000000	0.0
53	0x00000000	0.0
54	0x00000000	0.0
55	0x00000000	0.0
56	0x00000000	0.0
57	0x00000000	0.0
58	0x00000000	0.0
59	0x00000000	0.0
60	0x00000000	0.0
61	0x00000000	0.0
62	0x00000000	0.0
63	0x00000000	0.0
64	0x00000000	0.0
65	0x00000000	0.0
66	0x00000000	0.0
67	0x00000000	0.0
68	0x00000000	0.0
69	0x00000000	0.0
70	0x00000000	0.0
71	0x00000000	0.0
72	0x00000000	0.0
73	0x00000000	0.0
74	0x00000000	0.0
75	0x00000000	0.0
76	0x00000000	0.0
77	0x00000000	0.0
78	0x00000000	0.0
79	0x00000000	0.0
80	0x00000000	0.0
81	0x00000000	0.0
82	0x00000000	0.0
83	0x00000000	0.0
84	0x00000000	0.0
85	0x00000000	0.0
86	0x00000000	0.0
87	0x00000000	0.0
88	0x00000000	0.0
89	0x00000000	0.0
90	0x00000000	0.0
91	0x00000000	0.0
92	0x00000000	0.0
93	0x00000000	0.0
94	0x00000000	0.0
95	0x00000000	0.0
96	0x00000000	0.0
97	0x00000000	0.0
98	0x00000000	0.0
99	0x00000000	0.0
100	0x00000000	0.0
101	0x00000000	0.0
102	0x00000000	0.0
103	0x00000000	0.0
104	0x00000000	0.0
105	0x00000000	0.0
106	0x00000000	0.0
107	0x00000000	0.0
108	0x00000000	0.0
109	0x00000000	0.0
110	0x00000000	0.0
111	0x00000000	0.0
112	0x00000000	0.0
113	0x00000000	0.0
114	0x00000000	0.0
115	0x00000000	0.0
116	0x00000000	0.0
117	0x00000000	0.0
118	0x00000000	0.0
119	0x00000000	0.0
120	0x00000000	0.0
121	0x00000000	0.0
122	0x00000000	0.0
123	0x00000000	0.0
124	0x00000000	0.0
125	0x00000000	0.0
126	0x00000000	0.0
127	0x00000000	0.0

value_heads.value_heads.extrinsic.weight f4 [1, 128]
0	0x3da623dc	0.081123084
1	0x3e5961aa	0.21228662
2	0xbe2ecc04	-0.17070013
3	0xbe35dc1d	-0.17759748
4	0x3d5aeeb8	0.053450316
5	0xbae71280	-0.0017629415
6	0xbe5c9044	-0.21539408
7	0x3d1c4dd8	0.038160175
8	0x3d1152d8	0.035479397
9	0xbe2fc386	-0.1716443
10	0x3e34de9a	0.17663041
11	0xbe325dbc	-0.1741857
12	0x3d0aba28	0.03386894
13	0x3dd1a13c	0.10235831
14	0xbd17986c	-0.037010595
15	0xbe4ef578	-0.20210826
16	0x3d621020	0.05519116
17	0x3dd8bba4	0.105826646
18	0xbd11270c	-0.03543763
19	0x3e523c62	0.20530847
20	0x3e4412d0	0.19147801
21	0xbc783870	-0.0151501745
22	0x3e2e8e34	0.17046434
23	0xbd43eb58	-0.047831863
24	0xbe423564	-0.1896568
25	0xbc226d60	-0.009913772
26	0x3d846720	0.06464982
27	0xbd994d2c	-0.074854225
28	0xbd865e6a	-0.06560977
29	0x3de03c00	0.10948944
30	0x3e5961f0	0.21228766
31	0xbcbcf980	-0.02306819
32	0xbe01f84f	-0.12692378
33	0xbe50d42b	-0.20393436
34	0x3bf3fd40	0.0074459612
35	0xbe580a93	-0.21097784
36	0x3d995b58	0.074881256
37	0xbdceb7be	-0.1009364
38	0xbdc27f4c	-0.09496936
39	0xbe3fc1ed	-0.1872632
40	0xbdadad88	-0.08480364
41	0x3e4ff43e	0.20308015
42	0xbdad901e	-0.08474754
43	0x3e4237b0	0.18966556
44	0xbd1d0b90	-0.038341105
45	0x3e3a017a	0.18164626
46	0x3e5230d4	0.20526439
47	0x3b6a5000	0.003575325
48	0xbe0a8582	-0.13527492
49	0xbe5bfe8b	-0.21483819
50	0xbe433ebc	-0.190669
51	0xbe1a0207	-0.15039836
52	0xbd8a816c	-0.067629665
53	0x3cb8ad80	0.022543669
54	0xbe272844	-0.16323954
55	0x3d4a3ce0	0.04937446
56	0x3e03a67e	0.1285648
57	0x3e11e2e2	0.14246705
58	0xbdd826c4	-0.10554269
59	0x3e48c33c	0.19605726
60	0x3d99b078	0.07504362
61	0xbbb05060	-0.005380675
62	0x3cd83760	0.026393592
63	0x3d399200	0.045305252
64	0x3d5a5990	0.05330807
65	0xbe4748d6	-0.19461378
66	0x3dc8eb7c	0.0981054
67	0xbd422954	-0.047402695
68	0x3e5a5690	0.21322083
69	0x3d369910	0.044579566
70	0x3e3ab970	0.18234801
71	0xbe24235c	-0.16029114
72	0x3e3ca7c4	0.18423373
73	0x3e226834	0.15860063
74	0xbe024191	-0.12720324
75	0xbd66d050	-0.056351006
76	0x3e22789c	0.15866321
77	0xbe009a7c	-0.12558931
78	0x3e532dfe	0.20623013
79	0xbe2fe6bb	-0.1717786
80	0x3e3c7230	0.18402934
81	0xbe451228	-0.19245207
82	0xbd134900	-0.03595829
83	0xbe524a5a	-0.20536175
84	0xbd8c6cb0	-0.06856668
85	0x3d466680	0.048437595
86	0x3cf122c0	0.029435515
87	0xbd2e0a7c	-0.042490467
88	0x3e1fbd16	0.15599474
89	0x3dad213c	0.084536046
90	0xbdb36486	-0.08759408
91	0xbda5f314	-0.08103004
92	0x3d465578	0.048421353
93	0xbe0b15fc	-0.13582605
94	0xbe187a22	-0.1489034
95	0x3dd5ca78	0.104390085
96	0x3d9e2c1c	0.07723257
97	0xbd36b530	-0.044606388
98	0x3e48e530	0.19618678
99	0x3cd60428	0.026125029
100	0x3ba07180	0.0048963428
101	0xbe0acf52	-0.13555649
102	0x3e2b6e00	0.1674118
103	0xbcb5ce08	-0.02219297
104	0x3e2b62c8	0.16736901
105	0xbb8a85a0	-0.004227355
106	0xbe2c28d2	-0.16812447
107	0x3dcb309c	0.09921381
108	0xbe4ffb00	-0.20310593
109	0xbbfe6560	-0.0077635497
110	0xbdd7a25c	-0.105290145
111	0xbe2e2590	-0.17006516
112	0x3e5098b6	0.20370755
113	0xbdba1889	-0.09086711
114	0x3e056860	0.13028097
115	0xbe4e077a	-0.2012004
116	0xbe181775	-0.14852698
117	0x3dc19ff8	0.0945434
118	0x3e3867ea	0.1800839
119	0x3db04234	0.08606377
120	0x3e480686	0.19533738
121	0x3d95a1e0	0.07306266
122	0x3c1f4db0	0.009723112
123	0xbb6d3640	-0.0036195666
124	0xbe4a9834	-0.19784623
125	0x3bc9c920	0.006158009
126	0x3e31c4f6	0.17360291
127	0xbd9f1e16	-0.0776941
