results/ppo/BalanceBall1/BalanceBall1-2880.pt (torch, 160131 bytes, 11 tensors)

network_body._body_endoder.seq_layers.0.weight f4 [128, 16]
000000 8b 57 0f 3e 58 8f 97 3e 03 e7 8a be 14 26 72 be
       0.13998239 0.2960155 -0.27129373 -0.23647338
000010 ab 6b c8 3e 4b 8b c1 3d 6e 48 3c bd 58 1d fc 3e
       0.39144644 0.09450396 -0.04596751 0.49241138
000020 43 97 ce bd 33 a1 1c 3e dc b2 6d bc 91 b8 e0 bd
       -0.10087445 0.15295868 -0.014507975 -0.10972703
000030 6f 40 d1 be 5e ad 06 3e c3 aa 12 3e ea dd 5c 3d
       -0.4086947 0.13152072 0.14322953 0.05392257
000040 50 2a e6 bc e3 b5 12 bd ea 80 a4 3d 4c 44 23 3e
       -0.028096348 -0.035817992 0.08032401 0.15944022
000050 34 22 08 bc f6 d6 53 be 96 6f 1b bc eb f8 a1 3e
       -0.008308936 -0.2068747 -0.009487053 0.31635222
000060 46 f7 39 be 1a d9 ae bd 81 d7 17 3e fa 8b 1f 3e
       -0.18160734 -0.085375026 0.14828302 0.1558074
000070 53 ce 04 3e 83 9f 04 3e 20 9b ae bd ac 0b 80 3e
       0.12969331 0.12951474 -0.085256815 0.25008905
000080 d8 fa be be 1b b1 28 be 3f 92 85 be 04 80 e6 3e
       -0.37300754 -0.1647381 -0.2608814 0.45019543
000090 48 a8 bf be b1 fe ec bd ad 35 34 3e 26 85 00 3e
       -0.37433076 -0.11572016 0.175986 0.12550792
0000a0 ac 35 c4 bd 1a fb 0c 3e 28 6f 1e 3e dc e4 b8 3e
       -0.095805496 0.13767663 0.1547209 0.36112106
0000b0 ae 50 5e 3e 8d 41 ef 3d 63 3c 19 be b6 0c 0f bd
       0.21710464 0.11682425 -0.14964442 -0.03492423
0000c0 17 fb 4f be 18 77 c9 3d b1 fe 0a be fc 5b 2d bd
       -0.20310627 0.098371685 -0.1357372 -0.04232405
0000d0 d9 85 58 bc 23 5b 1f be 53 9e dc 3d bc 2f 36 be
       -0.0132155055 -0.1556211 0.107723854 -0.17791647
0000e0 fb f7 a0 3c a0 a3 40 be dc c4 21 3f 1e 87 a7 3e
       0.019649496 -0.18812418 0.6319101 0.32720274
0000f0 fa a6 0c bf 73 a6 9c be f8 43 89 3d 7a da dc be
       -0.54942286 -0.3059574 0.06702417 -0.43135434
000100 1c 63 8d bc f0 4e cc 3e b3 3e 0f 3e 30 40 83 3e
       -0.017259173 0.39903975 0.13988762 0.2563491
000110 23 a1 3b 3d c2 a6 02 be ce bb 12 be ed 10 05 be
       0.04580797 -0.12758926 -0.14329454 -0.12994738
000120 5f 5f 12 bd 8b 5b 9c bd cb df 0f be 8d 42 48 3e
       -0.035735484 -0.07634648 -0.14050214 0.19556637
000130 2b fa ab be e2 ff 45 be f0 a7 72 bd 17 87 a7 3d
       -0.335893 -0.19335893 -0.05924219 0.08180063
000140 a8 14 d4 3d 93 5c 3b bd c0 07 a3 be fc f9 48 bc
       0.10355502 -0.045742583 -0.3184185 -0.012266632
000150 27 73 1c 3f 04 5f 09 3e 44 2a 3c be 7b e7 f2 bc
       0.6111321 0.13415152 -0.18375498 -0.029651394
000160 b6 c8 a2 be c0 7b 3b be 2b ea 01 be 9f 8f f4 bd
       -0.31793755 -0.18308926 -0.12686984 -0.11941456
000170 62 5a 89 3e 8c 15 99 3c a6 ca 88 be 61 8c 55 3e
       0.2682677 0.018687032 -0.26717108 0.20854332
000180 31 32 88 bc 99 d7 85 be b4 02 aa be e9 78 5f bd
       -0.016625496 -0.2614105 -0.33205187 -0.05455867
000190 e3 2f 3c 3e 71 94 5e 3d 46 50 db 3e be c6 f3 bd
       0.18377642 0.054340784 0.4283468 -0.119031414
0001a0 e0 a1 ee 3d 78 4d 4c be e3 ce 95 be 82 5f ad be
       0.11651969 -0.19951427 -0.29259405 -0.3386193
0001b0 d0 73 a1 3e b6 63 a2 3e 87 4d 6d 3e 86 6c ae be
       0.3153367 0.31716698 0.23174106 -0.34067172
0001c0 bf 27 f4 ba 2f 96 59 be cd ba 07 bd 8b fc 7e 3e
       -0.0018627568 -0.21248697 -0.03313713 0.24901025
0001d0 4a 36 49 3e ee d3 fa be 9b 4b 35 bd 19 7b d7 be
       0.19649616 -0.48989815 -0.044261556 -0.42086104
0001e0 3d 6b ea bd 7c 11 96 3c d7 b2 a4 3a 5e 37 4d be
       -0.11446235 0.018318884 0.0012565505 -0.20040652
0001f0 b8 44 ae be 90 d0 46 3d 91 01 55 bd 61 31 30 3d
       -0.34036803 0.048538744 -0.052003447 0.04301584
000200 8c 32 fe 3e 59 39 6e 3e 45 87 de bc 90 04 d5 3d
       0.4964794 0.23264064 -0.02716411 0.10401261
000210 22 71 13 3c 8b dd 0c be a2 eb 11 3f 72 ce 44 bb
       0.008999141 -0.13756387 0.5700017 -0.0030030278
000220 79 02 88 bd f1 64 47 3e db d0 94 bd 4b ac 24 3e
       -0.066410966 0.194721 -0.072663985 0.1608135
000230 13 d2 64 3e 77 e1 41 3e 6e 79 b8 be 6e ba b7 3e
       0.22345762 0.18933664 -0.36030143 0.35884422
000240 22 dd 92 be fd 2e 70 3d 4c aa b2 3e d3 c6 4e be
       -0.28684336 0.05863856 0.3489555 -0.20193033
000250 b8 a1 0f 3f 33 8e 36 be a4 93 3a 3e 1a 7f 26 3d
       0.5610614 -0.17827682 0.18220383 0.040648557
000260 27 66 51 3e b2 95 48 3e 4e 14 8f 3e 04 5a 99 3d
       0.20449124 0.19588354 0.2794518 0.07487872
000270 1e af f2 bd 46 99 bd 3e 48 f4 0d be 2d 3f a4 bd
       -0.11849807 0.37031 -0.13862717 -0.08019862
000280 eb 3a 06 3e e3 b8 1c bf 63 f2 86 bc c1 25 bd be
       0.13108413 -0.61219615 -0.016473 -0.36942866
000290 cb 5a 41 3d 6d 7b 48 3d ef 70 50 3e bc 12 e1 bc
       0.047205728 0.048945833 0.20355581 -0.027474754
0002a0 81 7c 30 3e 99 e1 fc 3e ae ff 47 be 17 1f 1e 3e
       0.17234994 0.49390867 -0.19531128 0.15441547
0002b0 4f 83 8c bd 84 61 1f 39 27 6e 82 3d ef 36 aa bd
       -0.068609826 0.00015199749 0.06368666 -0.08311259
0002c0 2d 9c 5a ba 3a 28 4e bd 19 94 89 be d3 12 50 be
       -0.0008339312 -0.05033133 -0.26870802 -0.20319681
0002d0 1d 01 7a 3e 47 b4 50 be 99 f3 76 bb 09 34 d4 bd
       0.24414487 -0.2038127 -0.0037681817 -0.103614874
0002e0 d7 07 c5 bd b8 64 63 3e a7 5c 78 be 5c 79 13 3d
       -0.09620636 0.2220639 -0.24254094 0.03600441
0002f0 b9 2c 3a 3d 58 63 ab bd b8 9c 61 3e 13 89 2a bf
       0.045452807 -0.08368558 0.2203244 -0.6661541
000300 62 10 56 be 86 15 fd bd 3b 77 5e be 71 84 f6 bd
       -0.20904687 -0.12357621 -0.2172517 -0.1203698
000310 c1 04 dc bd b7 62 1f be 87 28 84 bd ff 54 fa 3d
       -0.10743094 -0.15565 -0.064530425 0.12223243
000320 79 5b 2e 3e 2d a0 03 be 74 b4 02 be 53 69 7d 3e
       0.17027082 -0.12854071 -0.1276415 0.24747209
000330 d9 db ee bd fd 67 cd be c8 34 2c bd 2f 8c c9 bd
       -0.11663026 -0.401184 -0.042042524 -0.09841191
000340 bc fe 42 3d 30 37 1b be e8 dd b4 3d 57 58 18 bf
       0.047606215 -0.15157771 0.08831388 -0.59509796
000350 8f 9e 86 be d6 79 13 be 00 42 88 be e1 10 1a 3f
       -0.26292846 -0.14401945 -0.26612854 0.60182005
000360 96 ca 9f be e0 3b a0 bd 4e 69 b7 3e 20 16 a7 3e
       -0.31209248 -0.0782392 0.3582253 0.32634068
000370 77 2c 16 3d 81 95 4c 3c e5 42 68 3e b0 c9 57 3e
       0.0366635 0.012486816 0.22681768 0.21073031
000380 2c da 00 3f 3a 5f b6 3d ff 8d c2 3e c5 3d 95 bd
       0.50332904 0.08904882 0.3799896 -0.07287172
000390 df 36 ac 3e c4 4f 5a be 77 11 c0 be 27 db 93 be
       0.33635613 -0.2131949 -0.37513325 -0.28878137
0003a0 3f cd 4c bd 68 1d 18 3e a9 d9 f3 3d 75 be a9 3e
       -0.050000425 0.14854968 0.1190675 0.3315312
0003b0 80 62 f0 be ad 10 e4 bd 9e ec 1f 3d c1 8e f2 bd
       -0.4695015 -0.11135993 0.039044015 -0.118436344
0003c0 94 f7 bf 3c 5f f6 ba 3b 43 11 db 3e 33 d9 69 3e
       0.023433484 0.0057056393 0.42786607 0.22836761
0003d0 db ae dc bd 86 32 c5 3e bd 24 75 3e 6d c6 64 be
       -0.107755385 0.3851511 0.23939796 -0.22341318
0003e0 88 53 53 3e ce 79 11 3f af dc 9d be a8 99 f7 bb
       0.20637333 0.56826484 -0.3083243 -0.007556159
0003f0 27 17 c6 3c 4e 75 ae 3e 54 32 a8 be 2a 0c f7 be
       0.024180962 0.3407387 -0.32850897 -0.48251468

network_body._body_endoder.seq_layers.0.bias f4 [128]
000000 00 00 00 00 00 00 00 00 00 00 00 00 00 00 00 00
       0.0 0.0 0.0 0.0
000010 00 00 00 00 00 00 00 00 00 00 00 00 00 00 00 00
       0.0 0.0 0.0 0.0
000020 00 00 00 00 00 00 00 00 00 00 00 00 00 00 00 00
       0.0 0.0 0.0 0.0
000030 00 00 00 00 00 00 00 00 00 00 00 00 00 00 00 00
       0.0 0.0 0.0 0.0
000040 00 00 00 00 00 00 00 00 00 00 00 00 00 00 00 00
       0.0 0.0 0.0 0.0
000050 00 00 00 00 00 00 00 00 00 00 00 00 00 00 00 00
       0.0 0.0 0.0 0.0
000060 00 00 00 00 00 00 00 00 00 00 00 00 00 00 00 00
       0.0 0.0 0.0 0.0
000070 00 00 00 00 00 00 00 00 00 00 00 00 00 00 00 00
       0.0 0.0 0.0 0.0
000080 00 00 00 00 00 00 00 00 00 00 00 00 00 00 00 00
       0.0 0.0 0.0 0.0
000090 00 00 00 00 00 00 00 00 00 00 00 00 00 00 00 00
       0.0 0.0 0.0 0.0
0000a0 00 00 00 00 00 00 00 00 00 00 00 00 00 00 00 00
       0.0 0.0 0.0 0.0
0000b0 00 00 00 00 00 00 00 00 00 00 00 00 00 00 00 00
       0.0 0.0 0.0 0.0
0000c0 00 00 00 00 00 00 00 00 00 00 00 00 00 00 00 00
       0.0 0.0 0.0 0.0
0000d0 00 00 00 00 00 00 00 00 00 00 00 00 00 00 00 00
       0.0 0.0 0.0 0.0
0000e0 00 00 00 00 00 00 00 00 00 00 00 00 00 00 00 00
       0.0 0.0 0.0 0.0
0000f0 00 00 00 00 00 00 00 00 00 00 00 00 00 00 00 00
       0.0 0.0 0.0 0.0
000100 00 00 00 00 00 00 00 00 00 00 00 00 00 00 00 00
       0.0 0.0 0.0 0.0
000110 00 00 00 00 00 00 00 00 00 00 00 00 00 00 00 00
       0.0 0.0 0.0 0.0
000120 00 00 00 00 00 00 00 00 00 00 00 00 00 00 00 00
       0.0 0.0 0.0 0.0
000130 00 00 00 00 00 00 00 00 00 00 00 00 00 00 00 00
       0.0 0.0 0.0 0.0
000140 00 00 00 00 00 00 00 00 00 00 00 00 00 00 00 00
       0.0 0.0 0.0 0.0
000150 00 00 00 00 00 00 00 00 00 00 00 00 00 00 00 00
       0.0 0.0 0.0 0.0
000160 00 00 00 00 00 00 00 00 00 00 00 00 00 00 00 00
       0.0 0.0 0.0 0.0
000170 00 00 00 00 00 00 00 00 00 00 00 00 00 00 00 00
       0.0 0.0 0.0 0.0
000180 00 00 00 00 00 00 00 00 00 00 00 00 00 00 00 00
       0.0 0.0 0.0 0.0
000190 00 00 00 00 00 00 00 00 00 00 00 00 00 00 00 00
       0.0 0.0 0.0 0.0
0001a0 00 00 00 00 00 00 00 00 00 00 00 00 00 00 00 00
       0.0 0.0 0.0 0.0
0001b0 00 00 00 00 00 00 00 00 00 00 00 00 00 00 00 00
       0.0 0.0 0.0 0.0
0001c0 00 00 00 00 00 00 00 00 00 00 00 00 00 00 00 00
       0.0 0.0 0.0 0.0
0001d0 00 00 00 00 00 00 00 00 00 00 00 00 00 00 00 00
       0.0 0.0 0.0 0.0
0001e0 00 00 00 00 00 00 00 00 00 00 00 00 00 00 00 00
       0.0 0.0 0.0 0.0
0001f0 00 00 00 00 00 00 00 00 00 00 00 00 00 00 00 00
       0.0 0.0 0.0 0.0

network_body._body_endoder.seq_layers.2.weight f4 [128, 128]
000000 71 c9 15 bd 05 4d 52 be da 47 24 3d 69 17 b4 3c
       -0.036569063 -0.20537193 0.040107585 0.02198382
000010 1e dc 13 3e 20 2f e6 bd 43 14 80 3d 19 0b 12 3d
       0.14439437 -0.11239457 0.062538646 0.035655115
000020 c1 0b 82 3a 38 84 0e 3e 6e 24 c2 3d 20 39 7e bd
       0.0009921716 0.13917625 0.09479605 -0.062066197
000030 ef 86 6b bb 94 2a c1 3c 65 3f 96 3e 83 49 94 bd
       -0.003593858 0.023579873 0.2934524 -0.07240584
000040 7f c7 35 bd 0b ef 3f 3d a5 40 f7 bd e7 7d 2c bd
       -0.044379707 0.04685883 -0.12072877 -0.042112257
000050 5b 0d 7a bd d9 c3 3c 3d 28 47 1f 3c 06 f8 26 bc
       -0.061047893 0.046085212 0.009721555 -0.010190969
000060 81 60 5c bd 20 57 84 3b 37 81 af 3d 6f 99 31 3d
       -0.05380297 0.0040387064 0.08569568 0.043359216
000070 17 77 2b be 43 6b e5 bc 15 2d c5 3d e6 d3 2e bd
       -0.16744648 -0.028005248 0.09627739 -0.04268255
000080 3a 67 51 3e 29 5d 8b bd 74 c8 a5 3c 74 9c 65 bc
       0.20449534 -0.06804878 0.020237185 -0.014014352
000090 44 b7 87 3c 81 31 0e 3d 1b 0d 3d 3c d7 6e d3 3d
       0.01656688 0.03471518 0.011538769 0.103238754
0000a0 88 c3 47 3b e0 e0 4b 3d 2b 3a bc bd 5c ea ef bc
       0.0030481536 0.049775004 -0.09190782 -0.029286556
0000b0 aa 29 bb 3d 55 38 76 bd 49 7b 61 3e f2 09 fd 3d
       0.09138806 -0.060112316 0.22019686 0.123554125
0000c0 9a e4 b7 bd 73 c1 0b bd 4a 6f 13 be 43 13 b2 bd
       -0.08979149 -0.034120034 -0.14397922 -0.0869508
0000d0 9c 81 1e 3d e1 67 f4 3d 7a 9a 37 3d 14 5f 8f bc
       0.038697824 0.11933876 0.044825055 -0.017501391
0000e0 6e 51 a3 3d 6f 2e 1d 3e 2a 2c 05 bd 44 68 02 3d
       0.07974516 0.15349744 -0.03251282 0.031837717
0000f0 86 ff 93 bc 26 76 c0 bc 67 12 49 bd f8 2a 38 be
       -0.018066179 -0.023493838 -0.049089815 -0.17985141
000100 4f ae 24 3d cf 47 5d bd 21 02 53 be 97 7f 74 bd
       0.040205296 -0.05402356 -0.20606281 -0.05969199
000110 fe 48 18 3e 14 b7 0a 3b 6e 00 a7 3d c9 b1 be 3b
       0.14871594 0.0021166252 0.08154379 0.0058195335
000120 92 fe 80 3d 92 a4 57 bd c6 14 a5 3c 6e 9b 92 bd
       0.062985554 -0.05264718 0.020151507 -0.07158552
000130 9b b7 81 3d 95 8e e2 3d 95 7c 08 bd e0 44 17 be
       0.06333848 0.110623516 -0.033321936 -0.14772367
000140 1f 84 7c bd 33 79 d1 3b 28 1c 7f bd c1 36 d5 3d
       -0.061649438 0.006392622 -0.06228271 0.10410834
000150 62 b0 6d 3c ed c3 75 be d0 7c ee 3b a7 ce 36 3e
       0.014507385 -0.24000521 0.0072780624 0.17852269
000160 7a db fe bc b4 9e 41 bd cf bd 3a bd d1 5a f8 bc
       -0.031110514 -0.04727049 -0.04559117 -0.030316742
000170 d1 83 2d bd 08 83 55 3e 76 0e 3f 3d c2 b2 45 3d
       -0.042362038 0.20850766 0.04664465 0.04826618
000180 26 31 ff 3d d9 b9 04 3d 82 11 13 3d e9 d9 af bd
       0.12460546 0.0324038 0.03590537 -0.08586485
000190 6f a4 04 be 2e e5 2d bd 18 71 76 bd 33 48 4e be
       -0.12953351 -0.04245489 -0.06016645 -0.2014473
0001a0 9a 58 47 bc 09 d1 ab bc e6 b6 0b 3d 00 94 c9 3d
       -0.01216712 -0.0209737 0.034109972 0.09842682
0001b0 5f fc 38 3e ab f4 a1 3d 18 37 76 3c 84 c1 3a bc
       0.18065022 0.07907995 0.015027784 -0.011398677
0001c0 6a 80 8f 3d d9 c1 9b bd 5f 74 e7 3c 0c f3 9f bb
       0.07006915 -0.07605333 0.028253732 -0.0048812684
0001d0 1c 85 e5 3d d7 d2 c6 bc 68 b9 d0 bc 40 83 18 3b
       0.11207029 -0.024270458 -0.025479034 0.002327159
0001e0 dc 3f ff bd 30 d6 27 bc cd 40 8d 3d 6b 56 e9 bd
       -0.12463352 -0.010243937 0.068971254 -0.11393436
0001f0 83 eb bc 3d ad 88 31 bd d1 4f 2e 3c bd cf 6a bd
       0.09224608 -0.043343235 0.010639147 -0.05732702
000200 a2 f5 08 be 77 eb 70 3c 54 95 d7 3b 6b 82 7a be
       -0.13374951 0.014704577 0.0065790806 -0.24463813
000210 e5 6e a8 3d 59 56 6d be 01 91 03 ba 34 9c ff bc
       0.082242765 -0.2317747 -0.00050188607 -0.031202413
000220 22 ff 50 3e d8 86 9c bd ad af 8f 3c ab 75 1d 3d
       0.20409825 -0.07642907 0.017539823 0.038442295
000230 3e 0e dd bd 3c ba 18 3e ad a3 07 be 57 53 a2 bc
       -0.10793732 0.14914793 -0.13246031 -0.01981513
000240 58 b7 aa bd d6 0b bc 3d 96 6d 61 bb 48 75 0a bb
       -0.08335751 0.09181945 -0.0034397594 -0.0021127034
000250 5d 6c f0 bc be 12 41 3d 97 69 47 3d b5 10 78 bc
       -0.029348547 0.047137015 0.048684683 -0.015140702
000260 0d 0b 24 bc 93 69 4b 3e 9f 21 35 3c ca 77 8e 3c
       -0.0100124 0.19864492 0.011055379 0.017391104
000270 6d 52 97 3d f2 b4 54 3c 19 ed 82 bd d5 99 81 3d
       0.07388768 0.012982594 -0.06392879 0.06328169
000280 4d ee 02 3e 30 df e0 3d 33 3f 01 3e a2 16 37 bd
       0.12786217 0.1098007 0.12621765 -0.04469932
000290 a6 e4 0e 3c 77 40 84 bb f7 e3 71 be 7c 4d 9a 3d
       0.008721506 -0.004036005 -0.23622118 0.0753431
0002a0 a4 8c 53 3d f1 8c 50 be 95 31 bd 3d 1b 09 78 3c
       0.051647797 -0.20366265 0.09237973 0.01513889
0002b0 02 08 94 3d 14 4b 1e be e3 fe c6 3d 37 33 db 3d
       0.0722809 -0.15458328 0.097165845 0.10703128
0002c0 92 ce 8e 3d 21 67 98 3d 62 78 ef bd f9 62 c7 bd
       0.06972994 0.07441545 -0.11692883 -0.097356744
0002d0 22 7f 9c bc d7 b8 8c 3b fa 95 01 bd 1b 2c f9 3c
       -0.01910359 0.0042944956 -0.03163717 0.030416539
0002e0 0b d7 4d 3c 46 29 d6 bc 3c f5 23 bc 1b fd f1 bc
       0.012563477 -0.026142728 -0.010007199 -0.029539635
0002f0 0c be 94 bc 1b b8 15 be 7f 92 ee bd e4 c4 e5 bd
       -0.018157028 -0.14621012 -0.11649036 -0.112191945
000300 69 0a d2 3c 41 18 32 bd ce 1f a7 bd 71 bb 11 be
       0.02563973 -0.04348016 -0.08160363 -0.1423166
000310 42 f3 76 bc 11 e8 15 3e eb af 0b 3d 6b c1 bf 3c
       -0.015072646 0.14639308 0.034103315 0.023407659
000320 9b 62 29 bd 78 5c 96 3d fb db 21 bd 39 04 2a 3d
       -0.041353803 0.07341856 -0.03951643 0.041507933
000330 15 72 de bd 1d 2b 0e bd 65 42 ac bd 38 22 f6 bd
       -0.10861603 -0.034709085 -0.08411101 -0.120182455
000340 42 74 8e 3d a5 76 02 3e a4 74 27 3e f9 58 8f 3d
       0.06955768 0.12740572 0.16353089 0.06999392
000350 79 17 a5 bd 8e 52 ef bd 00 f7 c5 3d 25 53 c5 bd
       -0.08061118 -0.11685668 0.09666252 -0.09634999
000360 51 47 96 bd f8 c9 1a be 5d 89 44 bd 32 55 c9 3d
       -0.07337821 -0.15116107 -0.047982562 0.09830703
000370 cf b1 f3 3d 1c f0 ce 3d 1f ed 15 bc 14 93 5c 3d
       0.11899149 0.10104391 -0.009150772 0.053851202
000380 79 b7 cf 3c 11 95 04 bd af ec 7c bd 9d 97 94 3d
       0.025356041 -0.032368723 -0.061749157 0.072554804
000390 ce 04 0e 3e 65 93 91 3d 62 c6 20 bb a1 e3 f4 bd
       0.1386902 0.071081914 -0.0024532308 -0.11957479
0003a0 c6 67 db 3d 5e 04 fa 3c f2 61 9f bd fd b1 8e 3d
       0.107131526 0.03051966 -0.077823535 0.06967542
0003b0 23 50 d3 b8 a3 c3 12 bd 57 b8 bd bc 2d be 52 bd
       -0.00010076191 -0.035831105 -0.02315919 -0.051450897
0003c0 5f 96 28 3c ec c9 1b be 81 5b 0a 3e 9b b9 82 bd
       0.0102897575 -0.15213746 0.13511468 -0.06383058
0003d0 ff d8 0c 3c 92 67 ce bd 68 ae ef bc 85 02 4b be
       0.008596658 -0.10078348 -0.029257968 -0.1982518
0003e0 93 79 ea 3d c1 2d 2d bc 0f 0e 99 3d 3a 0a 9b 3d
       0.1144897 -0.010569991 0.074733846 0.0757031
0003f0 46 85 7a 3d 97 c8 13 bc 79 99 08 bd ba ef a1 bd
       0.061162256 -0.009019992 -0.033349488 -0.07907052

network_body._body_endoder.seq_layers.2.bias f4 [128]
000000 00 00 00 00 00 00 00 00 00 00 00 00 00 00 00 00
       0.0 0.0 0.0 0.0
000010 00 00 00 00 00 00 00 00 00 00 00 00 00 00 00 00
       0.0 0.0 0.0 0.0
000020 00 00 00 00 00 00 00 00 00 00 00 00 00 00 00 00
       0.0 0.0 0.0 0.0
000030 00 00 00 00 00 00 00 00 00 00 00 00 00 00 00 00
       0.0 0.0 0.0 0.0
000040 00 00 00 00 00 00 00 00 00 00 00 00 00 00 00 00
       0.0 0.0 0.0 0.0
000050 00 00 00 00 00 00 00 00 00 00 00 00 00 00 00 00
       0.0 0.0 0.0 0.0
000060 00 00 00 00 00 00 00 00 00 00 00 00 00 00 00 00
       0.0 0.0 0.0 0.0
000070 00 00 00 00 00 00 00 00 00 00 00 00 00 00 00 00
       0.0 0.0 0.0 0.0
000080 00 00 00 00 00 00 00 00 00 00 00 00 00 00 00 00
       0.0 0.0 0.0 0.0
000090 00 00 00 00 00 00 00 00 00 00 00 00 00 00 00 00
       0.0 0.0 0.0 0.0
0000a0 00 00 00 00 00 00 00 00 00 00 00 00 00 00 00 00
       0.0 0.0 0.0 0.0
0000b0 00 00 00 00 00 00 00 00 00 00 00 00 00 00 00 00
       0.0 0.0 0.0 0.0
0000c0 00 00 00 00 00 00 00 00 00 00 00 00 00 00 00 00
       0.0 0.0 0.0 0.0
0000d0 00 00 00 00 00 00 00 00 00 00 00 00 00 00 00 00
       0.0 0.0 0.0 0.0
0000e0 00 00 00 00 00 00 00 00 00 00 00 00 00 00 00 00
       0.0 0.0 0.0 0.0
0000f0 00 00 00 00 00 00 00 00 00 00 00 00 00 00 00 00
       0.0 0.0 0.0 0.0
000100 00 00 00 00 00 00 00 00 00 00 00 00 00 00 00 00
       0.0 0.0 0.0 0.0
000110 00 00 00 00 00 00 00 00 00 00 00 00 00 00 00 00
       0.0 0.0 0.0 0.0
000120 00 00 00 00 00 00 00 00 00 00 00 00 00 00 00 00
       0.0 0.0 0.0 0.0
000130 00 00 00 00 00 00 00 00 00 00 00 00 00 00 00 00
       0.0 0.0 0.0 0.0
000140 00 00 00 00 00 00 00 00 00 00 00 00 00 00 00 00
       0.0 0.0 0.0 0.0
000150 00 00 00 00 00 00 00 00 00 00 00 00 00 00 00 00
       0.0 0.0 0.0 0.0
000160 00 00 00 00 00 00 00 00 00 00 00 00 00 00 00 00
       0.0 0.0 0.0 0.0
000170 00 00 00 00 00 00 00 00 00 00 00 00 00 00 00 00
       0.0 0.0 0.0 0.0
000180 00 00 00 00 00 00 00 00 00 00 00 00 00 00 00 00
       0.0 0.0 0.0 0.0
000190 00 00 00 00 00 00 00 00 00 00 00 00 00 00 00 00
       0.0 0.0 0.0 0.0
0001a0 00 00 00 00 00 00 00 00 00 00 00 00 00 00 00 00
       0.0 0.0 0.0 0.0
0001b0 00 00 00 00 00 00 00 00 00 00 00 00 00 00 00 00
       0.0 0.0 0.0 0.0
0001c0 00 00 00 00 00 00 00 00 00 00 00 00 00 00 00 00
       0.0 0.0 0.0 0.0
0001d0 00 00 00 00 00 00 00 00 00 00 00 00 00 00 00 00
       0.0 0.0 0.0 0.0
0001e0 00 00 00 00 00 00 00 00 00 00 00 00 00 00 00 00
       0.0 0.0 0.0 0.0
0001f0 00 00 00 00 00 00 00 00 00 00 00 00 00 00 00 00
       0.0 0.0 0.0 0.0

action_model._discrete_distribution.branches.0.weight f4 [3, 128]
000000 c7 6a 59 bc 23 14 bb bb bb c8 49 bc 10 41 7a bc
       -0.013270087 -0.0057091876 -0.012315924 -0.015274301
000010 52 1b 72 3b 99 53 c9 bb bf 96 35 3b 83 43 d5 3b
       0.0036942554 -0.006143999 0.002770826 0.006508292
000020 36 ef a6 bb 88 ee f6 bb 50 a2 50 3a 0f 4a 66 bb
       -0.005094434 -0.0075357594 0.0007958757 -0.0035139357
000030 3a 73 b9 bb 81 a1 a6 bb 7b db bd bb f7 39 c9 ba
       -0.005659488 -0.0050851707 -0.0057939864 -0.0015352358
000040 d3 29 ca bb e0 68 4c 3c 09 71 49 bc be f3 93 3b
       -0.0061695366 0.012476176 -0.012295016 0.0045151403
000050 b5 e9 de b9 2e bc 08 3c bb b2 24 3b 45 03 16 3c
       -0.00042517265 0.008345647 0.0025130946 0.009156053
000060 db e2 b6 bb 47 0b 19 bb a7 7c 1b 3a 1d b0 c1 ba
       -0.0055812425 -0.002335267 0.00059313554 -0.0014777217
000070 b2 d7 2e bc 99 27 ab 3b 92 22 bf bc c3 d2 cc bb
       -0.010671543 0.0052232263 -0.023331914 -0.0062507107
000080 a4 9a 2e 3b 04 ad 13 3a 53 2d c2 39 fe a8 a2 bb
       0.0026642466 0.00056333863 0.00037036333 -0.004963993
000090 4a be a9 bb 6d 6d 77 ba da 95 6a 3c 60 e8 53 bb
       -0.005180155 -0.0009438608 0.014317954 -0.0032334551
0000a0 63 31 20 3c 6d 7d 9b 3a b6 59 4b bc a4 26 84 3c
       0.0097774 0.0011862941 -0.0124115255 0.016131707
0000b0 8f 33 45 3c 10 48 53 bb 03 35 7d ba d0 68 19 3c
       0.012036218 -0.0032238998 -0.00096590834 0.009363368
0000c0 74 fb ad 3b 5e 73 09 3c a8 fd 3a 3c a3 77 05 3c
       0.0053095166 0.008389322 0.011413015 0.008146199
0000d0 bf 1f 4c bb 0a 1d 68 bb 81 c7 96 bb f7 fe 6f 3c
       -0.0031146852 -0.00354177 -0.0046014194 0.014648191
0000e0 9c 56 8b bc ff d6 da 3a e7 09 29 bc 42 d8 f3 bb
       -0.017009072 0.0016696154 -0.010317302 -0.0074415514
0000f0 bf cc 50 bc 76 3a 17 3b 8c 6e 0c 3c 33 51 27 3c
       -0.012744128 0.0023075617 0.008571278 0.0102122305
000100 94 20 84 3c 1d 55 e9 bb 78 18 70 bb 53 35 65 3c
       0.016128816 -0.007120742 -0.0036635678 0.013989764
000110 38 4a 06 3b 2b ec 5f 3c 5b 0a 45 3b a8 d9 c4 bb
       0.0020491015 0.013667147 0.0030065987 -0.006007392
000120 48 84 96 bc 03 56 bb bb 93 41 f6 bb 4c 84 8c 3b
       -0.018373623 -0.0057170405 -0.0075151413 0.004288232
000130 2f ed 14 bc fd a4 c9 3b 3a 15 54 bb a8 c4 f5 3a
       -0.009089752 0.0061537013 -0.0032361285 0.0018750625
000140 2b e3 1c 3c 34 6c 21 bc 53 12 9b 3b bf 4c 25 bb
       0.009575645 -0.009852458 0.004732409 -0.0025222746
000150 d7 0c 9c bb 62 71 d6 bb 14 f4 1b bc 28 bd 68 39
       -0.004762273 -0.006544278 -0.009518642 0.0002219571
000160 dc 0c 24 3b 28 b4 b7 3a 68 68 be 3b 2d fc f6 bb
       0.002503208 0.0014015483 0.005810786 -0.007537386
000170 11 f9 90 bb 76 8f be bb 8a b9 fc bb 9f 0f 41 3b
       -0.0044242223 -0.0058154417 -0.0077125477 0.0029458774
000180 63 74 81 3b d1 6e 84 bb e7 2d 73 3c 42 d3 e3 3c
       0.003950642 -0.0040415307 0.014842487 0.027810697
000190 69 ff 2e bc ae 73 07 3c 38 43 85 3b eb 2e 18 bc
       -0.010681012 0.008267326 0.004066851 -0.00928853
0001a0 3b 6b 81 3c ec d1 3b bb 16 91 89 ba 77 75 c3 3b
       0.015798202 -0.0028659059 -0.001049551 0.0059649306
0001b0 10 fa f7 3b 5b a5 81 3c 7b a0 84 bc ae 5a 48 bb
       0.0075676516 0.015825918 -0.016189804 -0.0030571627
0001c0 bd aa 9c 3a 05 ac 41 bc c0 4b 77 3b 15 ff a8 bb
       0.001195274 -0.011820798 0.003773436 -0.0051573613
0001d0 37 0e b3 bb 9d 0c b4 3b 1a 61 02 3c 23 95 d6 ba
       -0.005464341 0.0054946677 0.007957721 -0.001637135
0001e0 5b ce 02 3c 8b 79 a2 bb 76 64 b2 bb b8 1d 6e bc
       0.007983769 -0.0049583367 -0.005444105 -0.014533453
0001f0 47 43 54 3c d0 f6 db bb b3 ab 87 3a ba 75 25 3c
       0.012955493 -0.006712772 0.0010350853 0.010098869
000200 b1 81 17 3c 74 73 3a 3b 28 f4 b2 3b 05 61 83 bc
       0.009247229 0.0028450163 0.0054612346 -0.016037473
000210 ea 35 10 bc 7a 0d af 3b f8 02 47 bb 42 b5 63 3c
       -0.008801917 0.0053421827 -0.003036676 0.013898196
000220 ad 29 b1 3b fe df 29 3c fa eb ec bb 9d 56 8e 3c
       0.0054065795 0.010368345 -0.007230279 0.017375285
000230 cc 18 84 bb 5f 02 c5 b9 68 b7 8b 3b e1 ca c2 3a
       -0.0040312763 -0.00037576535 0.004263807 0.0014861488
000240 47 a0 39 3c 71 1e 10 3d 1a e5 28 3b ba c7 91 3c
       0.011329717 0.03518528 0.002577132 0.017795432
000250 b6 6a a7 bb 9d e1 4f 37 d5 2a 13 bc fa 6d 16 3b
       -0.0051091565 1.2390691e-05 -0.00898238 0.0022953735
000260 a5 4c 5b 3c 07 19 71 bb 0c 37 a0 bb b3 2a c9 bb
       0.013384973 -0.00367886 -0.0048893746 -0.0061391233
000270 ea 50 13 bc 0f 37 4c bb 5f ad d9 3b 54 f6 a1 3c
       -0.008991459 -0.0031160747 0.006642982 0.019770779
000280 8b d1 b4 bc 97 f0 b6 3b bd d1 d1 3a ae 51 21 bc
       -0.022072574 0.0055828798 0.0016007941 -0.009846134
000290 d3 16 19 ba ef 9e 4b bc ce d2 1d 3b 99 73 a0 bc
       -0.0005839888 -0.012428029 0.0024081948 -0.019586371
0002a0 6a a4 da bb 51 45 99 b9 02 c3 5d bc 58 27 5b 38
       -0.0066724317 -0.0002923408 -0.013535263 5.225031e-05
0002b0 64 c4 0d bb 60 7a eb 38 62 9e d5 ba 44 5d 05 bb
       -0.002163195 0.00011228467 -0.0016297812 -0.002034978
0002c0 b0 df a7 3b 4a 99 43 b8 c3 21 83 bb 3d 93 24 3c
       0.005123101 -4.6634384e-05 -0.0040018274 0.01004487
0002d0 f8 f3 52 3c ad 09 06 ba cf b7 79 3c 5d 8c 4c ba
       0.0128755495 -0.0005113136 0.015241577 -0.0007802898
0002e0 a5 8d 56 bc 18 d1 42 3c 51 be c6 b9 ce 8f b3 ba
       -0.013095294 0.011890672 -0.000379073 -0.0013699473
0002f0 62 a5 70 bc 55 84 0d bb f7 50 94 3c ad 5f e9 ba
       -0.014687868 -0.0021593769 0.018105013 -0.0017805003
000300 6f bb 24 3c 33 90 9a 3b 7a 74 29 bc 5f bd 13 bb
       0.010054453 0.004716897 -0.010342712 -0.0022543294
000310 fc 86 88 3c 6a d8 43 bb 7a 17 f2 3b 8b 9c 29 bb
       0.016665928 -0.0029883632 0.0073880525 -0.002588066
000320 3f ac bb ba 4a d3 95 3b ca c3 21 3b a3 36 98 bb
       -0.0014318301 0.0045723068 0.002468335 -0.004645185
000330 c8 36 97 ba 28 ac 5a bc a8 22 f5 3b bb ce 67 bc
       -0.0011536712 -0.013346709 0.007480938 -0.0141484095
000340 46 05 25 3c e3 de 74 bc 4c af 1e 3c 06 70 07 3b
       0.010072058 -0.014945718 0.009685349 0.0020666136
000350 15 d8 e6 3b c3 1a 29 bb 27 79 2b 3b 22 83 fc bb
       0.007044802 -0.0025803305 0.0026164742 -0.007706062
000360 e8 8d 0e bb a7 2a 1f bc 47 f1 b6 3a f2 dd 1a 3c
       -0.0021752063 -0.009714759 0.0013957404 0.00945233
000370 28 e2 76 3a 78 1e 55 3c 93 e8 5c bc 5a a2 74 bb
       0.0009417855 0.013007753 -0.013483184 -0.0037328214
000380 85 64 96 3b d3 d6 b3 ba ed 35 86 3b e3 5c af 3b
       0.0045896196 -0.0013720639 0.004095784 0.005351649
000390 19 24 0d bb 5b b8 23 3c f7 58 18 3b 53 50 f3 bb
       -0.0021536408 0.009992684 0.0023246387 -0.007425347
0003a0 73 01 44 3c c2 b2 c3 3b af 6e fb 3b 11 57 b2 bb
       0.011963236 0.0059722373 0.0076731066 -0.005442508
0003b0 6e 21 90 b9 f8 22 16 bb fb 74 8b bb 90 e4 59 3b
       -0.00027490727 -0.0022909027 -0.0042558885 0.0033247806
0003c0 d8 c1 bc bb c8 90 6a 3c d9 c2 b1 3b 48 48 a9 3a
       -0.0057604127 0.014316745 0.005424839 0.0012915218
0003d0 60 e4 62 bb 50 7b 41 3c ce 69 a3 3b 7f d3 fa 3a
       -0.0034620985 0.011809185 0.004986978 0.0019136517
0003e0 b4 a5 98 bc 93 6d 7c 3b 8f c8 57 3c dd 71 08 3c
       -0.0186337 0.003851746 0.0131703755 0.008327928
0003f0 3a 74 f1 bb 70 06 3c 3c 9f b9 4b 3b 50 bb 7e bc
       -0.0073685916 0.011476144 0.003108598 -0.0155475885

action_model._discrete_distribution.branches.0.bias f4 [3]
000000 00 00 00 00 00 00 00 00 00 00 00 00
       0.0 0.0 0.0

network_body._body_endoder.seq_layers.0.weight f4 [128, 16]
000000 9d 2c a1 3e 78 69 21 be 04 0f b7 3d 96 5e 4a bd
       0.3147935 -0.1576289 0.08938411 -0.04940661
000010 bf 8f 97 be b4 2a bd bd c3 71 89 be 7f 21 93 be
       -0.29601857 -0.092366606 -0.26844606 -0.28736493
000020 95 76 e0 bc 41 a1 c3 3e eb 75 35 be 89 60 cf 3e
       -0.027400294 0.38208964 -0.17720763 0.40503338
000030 df 26 44 3d 7c 65 a1 be 0d 7b 60 be 5b 9f 6a 3e
       0.047888633 -0.3152274 -0.2192194 0.22912352
000040 71 13 1e be c3 b0 57 3d 0a c0 ee 3c 60 01 e1 3d
       -0.15437104 0.052658807 0.029144306 0.109865904
000050 9d 25 08 be d2 0b d3 3d 49 ff c3 3e 61 34 9d 3e
       -0.13295598 0.10304989 0.38280705 0.30704024
000060 6d 7a 62 bd 2e 49 dc 3e 78 33 69 3e 33 f8 1f 3f
       -0.055292536 0.43024582 0.2277354 0.62488097
000070 79 81 92 3e 09 12 c5 bd a3 84 22 be 12 02 fb bc
       0.28614405 -0.096225806 -0.1587091 -0.030640636
000080 61 f9 7f 3c ea d1 db 3d 01 91 5d 3e e9 52 2b 3e
       0.015623421 0.10733397 0.21637346 0.16730846
000090 41 7c ec bd dd d9 e1 3e ac fa 18 bd 9e fd d0 3d
       -0.11547137 0.4411153 -0.037348434 0.10204624
0000a0 75 56 5f 3d de 8d 08 bf f5 1f b2 bd bd 1a e5 3e
       0.05452581 -0.5334147 -0.086975016 0.44746962
0000b0 0a 13 8b be e7 44 a3 3c 41 91 7a 3e 8b ad 40 3d
       -0.27162963 0.019930316 0.24469472 0.047040503
0000c0 2c 46 2d bc c4 bd 41 be 1c 94 39 3e 0e e9 0f 3c
       -0.010575812 -0.18920046 0.18122905 0.008783592
0000d0 35 d6 8e be af 66 a4 3c a1 14 54 3e 86 50 58 3e
       -0.27897802 0.020068495 0.20710994 0.21124467
0000e0 93 74 89 be 2e 18 21 be 80 92 87 bd d1 c4 9a 3e
       -0.26846752 -0.1573188 -0.066197395 0.30228284
0000f0 38 f3 d7 bd 8d ed 28 bd 93 91 bd 3d 10 d0 20 bd
       -0.10544437 -0.04124217 0.09256282 -0.039260924
000100 57 da 31 3e 55 8c ea be 28 fb c1 bd ae 84 80 3d
       0.17368446 -0.4581019 -0.094717324 0.06275307
000110 6a 65 8b 3e cb b5 02 3d ed 06 8c 3e d2 9d 81 3e
       0.2722581 0.031911653 0.27349034 0.2531572
000120 6c 49 9b bd f4 2d cb be 3a e4 45 bd ec 0f b2 be
       -0.075823635 -0.39683497 -0.048313357 -0.34777772
000130 69 fe b3 3a 56 68 d3 3e 9a 63 ae bd 00 36 7d be
       0.0013732436 0.4129054 -0.08515091 -0.2472763
000140 47 62 ba 3e 67 47 67 be 73 fb fc 3d 81 f7 ae bb
       0.36403105 -0.22585832 0.12352648 -0.0053395634
000150 a7 fc 52 be 28 c4 17 be 81 bb db bd 2d 14 b0 3c
       -0.20604192 -0.14820921 -0.10729123 0.021493996
000160 2a 86 b0 3e c6 23 76 3e 7f 38 20 bd 56 41 9d be
       0.3447736 0.24037084 -0.03911638 -0.3071391
000170 c3 e2 b9 be 94 da 93 3c 65 a9 57 3d 73 66 b4 3e
       -0.36305818 0.018048562 0.05265178 0.35234413
000180 2a c3 05 bf c8 a2 ca 3e 49 f2 78 bd 90 b2 bc 3e
       -0.5225092 0.39577317 -0.060777936 0.36854982
000190 cd ed 43 3e 17 ff 69 be 00 6e 9f be 59 40 16 3e
       0.19133683 -0.22851215 -0.3113861 0.14672984
0001a0 a6 b1 cf bd 17 e7 89 be a1 c8 13 3f 1a 89 b1 be
       -0.101413056 -0.2693412 0.5772801 -0.34674913
0001b0 66 d1 c2 bd e9 fc 80 be f6 0e 92 3e 52 9a 83 bd
       -0.09512596 -0.25192955 0.2852704 -0.06425919
0001c0 ff 55 99 bd 4d 41 18 3e 7c 31 1d 3e 5b 84 31 be
       -0.074871056 0.1486866 0.15350908 -0.17335646
0001d0 5b 12 0a 3e 52 28 8e be 8a e3 bd 3d be fb 51 be
       0.13483565 -0.27765137 0.09271915 -0.20506188
0001e0 35 38 40 be 8b 2a ab bd 24 5e 43 be 86 41 44 bc
       -0.18771441 -0.08357724 -0.1907888 -0.011978513
0001f0 e9 c5 cc be eb 55 ba 3e 44 c7 f9 3d 92 5a ee be
       -0.39994743 0.36393675 0.1219621 -0.46553475
000200 3f b5 46 3d 38 92 cd bd 4d 3d a2 bc 9d b2 f1 bd
       0.048512693 -0.10037655 -0.019804621 -0.11801646
000210 eb a7 00 3f cc 75 9d 3c 81 93 7e bd 4c 79 38 be
       0.5025622 0.019221209 -0.06215239 -0.18015021
000220 d7 af 86 3e c6 26 f6 bc b4 c7 70 3d 01 10 74 3e
       0.2630603 -0.030047785 0.0587842 0.2383423
000230 c0 b3 59 3e 9c 89 01 3e 9a 1e e4 be d7 aa 0b 3f
       0.21259975 0.1265015 -0.44554597 0.54557556
000240 51 9d 8e 3e f4 dd 0b be ca b4 9a be 00 6d d7 bc
       0.27854398 -0.13658887 -0.30216056 -0.026297092
000250 fa c7 02 be 24 3e e2 bd 24 8e d5 be 8f f4 10 3e
       -0.12771598 -0.11047009 -0.41710007 0.14155792
000260 4f 0d a6 bd 13 90 80 be fd 39 e9 3d 66 c0 17 3a
       -0.08108007 -0.2510992 0.113880135 0.00057888625
000270 7f 60 4e 3d e3 ac 8b 3c bc 4a f9 bc 42 10 37 3e
       0.050384995 0.017050212 -0.030431144 0.17877296
000280 8d d8 b9 3e d4 cd d6 3e 80 d7 37 bc fd 92 50 be
       0.36298028 0.4195391 -0.011220813 -0.20368572
000290 ee 91 b7 be 2d 12 cc 3e a6 0e 34 3e 68 97 42 be
       -0.35853523 0.39857617 0.17583713 -0.1900307
0002a0 ec f5 6a 3d 12 fa 0d bf da db db 3d ec 8f 41 3e
       0.057363436 -0.554597 0.10735293 0.18902558
0002b0 fd a4 1d bd c5 6d 3f 3e 75 40 81 3e 78 2e a8 be
       -0.038487423 0.18694218 0.2524449 -0.32847953
0002c0 35 f2 8a be 9c 05 9d be fa cc 4b 3e a7 88 03 3d
       -0.27137914 -0.30668342 0.19902411 0.032112744
0002d0 f1 4e e7 3d a8 5f 64 3e a9 0e 49 3e 1a de 20 3f
       0.11294354 0.22302115 0.19634499 0.628389
0002e0 f8 c2 c3 bd 5d b6 7f 3d 29 1e 95 3e 13 e0 66 bd
       -0.09558672 0.062429775 0.29124573 -0.056366038
0002f0 a9 aa 32 be 45 70 40 3e 9b b2 81 be cf 74 32 bd
       -0.17447914 0.18792827 -0.25331578 -0.04356843
000300 b6 81 d2 3e 9c 78 e5 3d f7 d4 1f 3d f4 fc 76 bd
       0.41114587 0.11204645 0.03902146 -0.06029983
000310 30 3e 62 be 02 4e 13 3c bf 9d 90 be e5 b8 95 3e
       -0.22094035 0.0089907665 -0.2824535 0.29242626
000320 74 77 3e 3e fe 35 4a be 67 bc 8e be 3c 8e ed 3c
       0.18600255 -0.19747159 -0.27878115 0.028998487
000330 30 31 3f 3e 96 25 82 be 7e 11 02 3e f1 59 ae 3e
       0.18671107 -0.254193 0.12701985 0.34052995
000340 49 61 90 bd 3f f8 45 3e 67 0e a6 be 6f 49 74 3e
       -0.07049806 0.1933298 -0.32432863 0.23856138
000350 b5 9e a4 be 1b 46 17 bd 13 7d 90 be da 63 26 be
       -0.32152334 -0.036932092 -0.28220424 -0.16249028
000360 ad e6 1b bd 89 4f b3 bc 10 c8 35 bc 14 77 dc 3e
       -0.038061786 -0.021888511 -0.011095062 0.430596
000370 52 98 a2 3e 4a 0f b0 be e1 0b 06 be d2 35 c9 3d
       0.31756836 -0.34386665 -0.13090469 0.098247185
000380 ad 56 a8 3e 89 b0 6a be d7 c5 76 bc 90 30 bf bd
       0.32878628 -0.22918905 -0.015061817 -0.093354344
000390 e5 5f 99 be 7c db 8c 3e 34 57 bc 3e 3f 66 70 be
       -0.29955974 0.27511203 0.3678528 -0.23476504
0003a0 ba 58 bb 3e bc c9 11 3e d7 c2 8f be 08 b3 87 3d
       0.3659113 0.14237112 -0.28078339 0.066259444
0003b0 73 c9 93 3d a4 f4 a9 bd ba 48 89 be df 03 e7 bc
       0.07216158 -0.082986146 -0.26813298 -0.028200088
0003c0 8c 3a 48 3e 4d ad 00 be 47 d6 94 bd f6 7d 54 3d
       0.19553584 -0.12566109 -0.07267433 0.05187794
0003d0 23 80 a2 3b 3c ca 8a be d6 d3 3a bc 1b 90 fa 3d
       0.0049591227 -0.27107418 -0.011403045 0.12234517
0003e0 29 2a 59 3d 12 15 b7 be e9 3b 46 bd b8 72 13 3e
       0.053018723 -0.35758263 -0.04839698 0.1439923
0003f0 fa e9 9a 3e ce 11 9d be a7 aa 4a 3d a0 fd 3e be
       0.30256635 -0.30677646 0.049479153 -0.18651438

network_body._body_endoder.seq_layers.0.bias f4 [128]
000000 00 00 00 00 00 00 00 00 00 00 00 00 00 00 00 00
       0.0 0.0 0.0 0.0
000010 00 00 00 00 00 00 00 00 00 00 00 00 00 00 00 00
       0.0 0.0 0.0 0.0
000020 00 00 00 00 00 00 00 00 00 00 00 00 00 00 00 00
       0.0 0.0 0.0 0.0
000030 00 00 00 00 00 00 00 00 00 00 00 00 00 00 00 00
       0.0 0.0 0.0 0.0
000040 00 00 00 00 00 00 00 00 00 00 00 00 00 00 00 00
       0.0 0.0 0.0 0.0
000050 00 00 00 00 00 00 00 00 00 00 00 00 00 00 00 00
       0.0 0.0 0.0 0.0
000060 00 00 00 00 00 00 00 00 00 00 00 00 00 00 00 00
       0.0 0.0 0.0 0.0
000070 00 00 00 00 00 00 00 00 00 00 00 00 00 00 00 00
       0.0 0.0 0.0 0.0
000080 00 00 00 00 00 00 00 00 00 00 00 00 00 00 00 00
       0.0 0.0 0.0 0.0
000090 00 00 00 00 00 00 00 00 00 00 00 00 00 00 00 00
       0.0 0.0 0.0 0.0
0000a0 00 00 00 00 00 00 00 00 00 00 00 00 00 00 00 00
       0.0 0.0 0.0 0.0
0000b0 00 00 00 00 00 00 00 00 00 00 00 00 00 00 00 00
       0.0 0.0 0.0 0.0
0000c0 00 00 00 00 00 00 00 00 00 00 00 00 00 00 00 00
       0.0 0.0 0.0 0.0
0000d0 00 00 00 00 00 00 00 00 00 00 00 00 00 00 00 00
       0.0 0.0 0.0 0.0
0000e0 00 00 00 00 00 00 00 00 00 00 00 00 00 00 00 00
       0.0 0.0 0.0 0.0
0000f0 00 00 00 00 00 00 00 00 00 00 00 00 00 00 00 00
       0.0 0.0 0.0 0.0
000100 00 00 00 00 00 00 00 00 00 00 00 00 00 00 00 00
       0.0 0.0 0.0 0.0
000110 00 00 00 00 00 00 00 00 00 00 00 00 00 00 00 00
       0.0 0.0 0.0 0.0
000120 00 00 00 00 00 00 00 00 00 00 00 00 00 00 00 00
       0.0 0.0 0.0 0.0
000130 00 00 00 00 00 00 00 00 00 00 00 00 00 00 00 00
       0.0 0.0 0.0 0.0
000140 00 00 00 00 00 00 00 00 00 00 00 00 00 00 00 00
       0.0 0.0 0.0 0.0
000150 00 00 00 00 00 00 00 00 00 00 00 00 00 00 00 00
       0.0 0.0 0.0 0.0
000160 00 00 00 00 00 00 00 00 00 00 00 00 00 00 00 00
       0.0 0.0 0.0 0.0
000170 00 00 00 00 00 00 00 00 00 00 00 00 00 00 00 00
       0.0 0.0 0.0 0.0
000180 00 00 00 00 00 00 00 00 00 00 00 00 00 00 00 00
       0.0 0.0 0.0 0.0
000190 00 00 00 00 00 00 00 00 00 00 00 00 00 00 00 00
       0.0 0.0 0.0 0.0
0001a0 00 00 00 00 00 00 00 00 00 00 00 00 00 00 00 00
       0.0 0.0 0.0 0.0
0001b0 00 00 00 00 00 00 00 00 00 00 00 00 00 00 00 00
       0.0 0.0 0.0 0.0
0001c0 00 00 00 00 00 00 00 00 00 00 00 00 00 00 00 00
       0.0 0.0 0.0 0.0
0001d0 00 00 00 00 00 00 00 00 00 00 00 00 00 00 00 00
       0.0 0.0 0.0 0.0
0001e0 00 00 00 00 00 00 00 00 00 00 00 00 00 00 00 00
       0.0 0.0 0.0 0.0
0001f0 00 00 00 00 00 00 00 00 00 00 00 00 00 00 00 00
       0.0 0.0 0.0 0.0

network_body._body_endoder.seq_layers.2.weight f4 [128, 128]
000000 7b 13 57 3d a2 48 88 bd 59 24 85 3d dc 3f 29 bc
       0.052508812 -0.066544786 0.065010734 -0.010330167
000010 42 e2 f6 3d f5 8f 35 bd a5 3e f1 bd 3a 77 42 3c
       0.12054874 -0.04432674 -0.117795266 0.011869246
000020 d7 7c fc bd a6 d5 c3 3c 23 88 d3 3d a6 16 72 bd
       -0.12328499 0.023905586 0.103287004 -0.05910363
000030 3b 49 8d 3d 13 5a cc bd 35 e5 f3 3d 2b 91 41 3c
       0.06898733 -0.09978118 0.11908952 0.011814396
000040 e3 52 b5 3d ce ed eb bd 6b 2a a6 bc be 9f 08 3e
       0.088537 -0.11519967 -0.020283898 0.13342187
000050 fb 04 9f bd 66 f5 c4 3c c0 84 ed 3d ed ed 97 3d
       -0.07764622 0.024042796 0.11597586 0.074184276
000060 b9 ac 3f bd 2a 9a b7 3d af f0 44 bd 9c 1a df bd
       -0.04679558 0.08964951 -0.048081096 -0.10893747
000070 93 2f d6 3c 2f f3 ca 3d d3 83 ca 3d 5b c2 a1 bd
       0.026145732 0.09909665 0.09888425 -0.078983985
000080 64 16 34 3d f8 5c f4 3d e2 7a 3d bd 58 64 8f bd
       0.043966666 0.11931795 -0.04625977 -0.07001561
000090 d4 b1 85 bd d0 ef 0f be f8 5f 17 be 70 48 00 bd
       -0.06528059 -0.14056325 -0.14782703 -0.03131908
0000a0 89 76 5f 3d ef 7a a8 bc b1 6e a3 bc 79 66 8a bd
       0.054556403 -0.020566432 -0.019950243 -0.06757826
0000b0 a3 7f c7 bd 14 a5 2c 3e e2 75 2a 3d 9e 6d 0e be
       -0.09741142 0.16859847 0.041616328 -0.13909003
0000c0 38 c7 a8 3d ef 66 f6 3d 33 65 35 bd 39 8a 86 bd
       0.08241123 0.12031352 -0.044285964 -0.06569333
0000d0 da 8c dc 3c b9 92 8c bc d8 b8 b2 3d ca 2b e9 3c
       0.026922632 -0.017159807 0.087266624 0.028463263
0000e0 e3 78 b7 bd e5 b6 f6 bd 66 a4 1a 3e 7d 52 0f be
       -0.08958604 -0.12046603 0.15101776 -0.1399631
0000f0 cb d0 46 be 7f b4 8a bd 77 0f e6 bd 1a 8a f8 bd
       -0.19415586 -0.06772708 -0.112334184 -0.12135716
000100 33 df 75 3d 58 c8 99 3d ac 29 07 3e 43 59 97 3d
       0.060027312 0.07508916 0.1319949 0.07390072
000110 0e 8d ed bd 2c 76 40 3d 24 f8 2e 3e 99 10 a8 3d
       -0.1159917 0.046987697 0.17086846 0.08206291
000120 91 55 00 bc 04 e7 04 3e 2f 10 b3 bd 71 9d 27 3d
       -0.007832901 0.1297875 -0.08743321 0.040921632
000130 3a fa f5 3c e9 bf 40 be f5 44 da bd 17 f2 ee bd
       0.030026544 -0.18823208 -0.10657684 -0.11667269
000140 2f 00 98 3d 11 31 8a 3c 55 af 89 3c 60 79 83 bd
       0.0742191 0.0168691 0.016807238 -0.06419635
000150 86 dc 38 3d a0 14 1e 3e c7 b7 8c 3c dd eb 80 3d
       0.045132183 0.15437555 0.017177476 0.06294987
000160 57 24 06 be 38 f9 33 bc ae 0e 9a 3c b7 f8 85 3c
       -0.130998 -0.010984711 0.018805828 0.016353948
000170 9e 65 89 bd 5c c4 9c bd 1c 9f c2 bc 9c df 52 bd
       -0.06708835 -0.0765464 -0.02375751 -0.05148278
000180 a2 e2 9b bd b7 5e f9 bd 99 b3 c2 bd 46 0c 7c bb
       -0.07611586 -0.121762685 -0.09506912 -0.0038459464
000190 68 fc 51 3c 35 da 19 3e 93 76 b7 3c 24 15 7f 3c
       0.012816526 0.15024646 0.022395408 0.015569005
0001a0 dd a3 32 3d c3 16 c4 3c 2d 35 0c 3d 86 8e 1d be
       0.043613303 0.023936635 0.0342304 -0.153864
0001b0 77 57 cc 3b c3 c0 01 be f8 bc 4d be 96 0f c3 3d
       0.0062360126 -0.12671189 -0.20091617 0.09524457
0001c0 09 19 a3 3d c2 cb be bd 82 79 ec 3d a3 ad 82 3d
       0.079637595 -0.093162075 0.11546613 0.06380775
0001d0 e6 c4 d7 3a 3e b8 62 bd 79 2f 47 bd 8a 48 a1 bc
       0.0016461879 -0.05535149 -0.048629258 -0.01968791
0001e0 c6 e4 83 bc 06 a7 11 3d 00 05 7b 3d d0 94 5f be
       -0.016100299 0.035559677 0.061284065 -0.21834111
0001f0 58 86 60 3d a7 85 48 bd 71 e1 d2 3c 4d 90 3a bc
       0.05481562 -0.048955586 0.025742264 -0.011386943
000200 9b 11 a0 bc d8 95 6c 3d 7c ca ab bc 08 b1 1b 3d
       -0.019539645 0.05776009 -0.020970576 0.038010627
000210 85 f1 a0 3d 56 cc e1 3b 7a 55 76 bd f5 ff 03 3d
       0.07858566 0.006890814 -0.06014011 0.03222652
000220 ec af bf bc ac 30 32 bc 54 81 98 bd 36 3b 7b bd
       -0.023399316 -0.010875862 -0.074465424 -0.061335765
000230 a4 6c 00 3d f7 8a 8e 3d ab d7 87 3d 10 81 73 bc
       0.031353608 0.06960099 0.06632932 -0.014862314
000240 ee 4c b4 bc 49 52 00 be 79 52 22 3d 22 e4 67 3d
       -0.02200934 -0.1253139 0.039629433 0.05661405
000250 63 ae 51 bd bc cb 63 3e bf 45 d7 bc 32 dd 51 3d
       -0.0511917 0.22245687 -0.026278375 0.05123634
000260 12 f0 89 bc 68 54 21 be a2 4c cf 3d e8 fa 27 3c
       -0.016838107 -0.15754855 0.101220384 0.010252692
000270 85 84 99 bd fd 14 4c 3c 60 25 28 bd c1 a4 88 bd
       -0.07495979 0.012456176 -0.04105127 -0.06672049
000280 03 69 9c 3d 0a 4e c4 bd c0 99 4a 3d 1b ee 8f 3b
       0.07637217 -0.09585197 0.049463034 0.004392398
000290 6b 56 7e 3e 01 3a da 3c 61 34 c5 bb 80 b6 95 3c
       0.24837653 0.026638987 -0.006018207 0.0182755
0002a0 41 54 c7 bc dc e9 3d 3d 19 d9 8b 3d 8c 1b 2e bd
       -0.024332168 0.046365604 0.068285175 -0.04250674
0002b0 e6 53 80 3d 42 be e0 bc c0 90 95 bc 97 f0 19 3d
       0.06266002 -0.027434472 -0.018257499 0.03758296
0002c0 a6 c9 94 3d 80 8c a7 bd 4f 0a b8 3a 28 af 7d 3d
       0.07265024 -0.08181095 0.0014041158 0.06193462
0002d0 5c 30 bd 3d 65 de da bd 18 21 7e 3c dc d7 c0 3d
       0.092377394 -0.1068695 0.01551082 0.09416172
0002e0 9b e3 b9 bd b8 9a f1 3c d7 47 b9 bd 10 7a 49 bd
       -0.090766154 0.029492721 -0.090469055 -0.049188673
0002f0 e8 eb ff bd cb 2e be 3b d6 ce 68 bd 1b 5d 30 3d
       -0.124961674 0.005803918 -0.05683788 0.043057542
000300 29 83 54 3d 44 10 98 3d 54 de 81 3b 85 cb a8 bd
       0.051882897 0.074249774 0.003963271 -0.08241943
000310 16 d6 0b be 65 c1 1f bd 0e f1 d4 bd e0 44 41 be
       -0.13655886 -0.039002795 -0.1039754 -0.1887393
000320 79 fa 08 bd 51 e7 61 bd 93 79 e2 bd 65 ae d5 3c
       -0.033441994 -0.05515224 -0.11058345 0.026084134
000330 7b 16 64 3c c4 75 39 bd 1c d9 a5 bd 0d e5 45 3c
       0.013921375 -0.045278326 -0.08098051 0.012078536
000340 b1 f1 a6 3d 8b c3 b9 bd 11 17 03 bd c5 7f 7f 3d
       0.08151568 -0.090705 -0.03200442 0.06237771
000350 48 ca 70 3d 0c 25 0f bd 21 c8 f1 3c bd 8d 9a 3d
       0.05878666 -0.03494744 0.029514374 0.07546566
000360 34 95 8b 3d e7 31 8d bd b1 bd e2 bc fb b9 f0 bb
       0.068155676 -0.06894284 -0.027678343 -0.0073463893
000370 46 86 16 3e 18 21 29 bc cd 39 35 bd cf e2 20 3c
       0.14699659 -0.010322832 -0.044244576 0.0098197
000380 3b 88 ff 3d 4f a7 66 bd 04 19 9a 3d 3b 23 d0 3d
       0.12477156 -0.0563119 0.075243026 0.1016297
000390 8f 4a 14 3e 83 84 a6 3d 7f ce a3 bd 58 9e 30 be
       0.14481567 0.08130743 -0.079983704 -0.17247903
0003a0 1d 18 11 3d a0 73 c5 bd a6 ca 06 bd 58 57 9b 3d
       0.035423387 -0.09641194 -0.032908104 0.07585019
0003b0 fd 08 b7 bc 84 69 9b bd 77 49 32 bc e9 fe ca bd
       -0.022343153 -0.07588485 -0.010881773 -0.099119015
0003c0 f1 b0 90 3d 1a 8d ce bd 29 16 80 bd f9 6e 27 bc
       0.07064999 -0.10085507 -0.06254227 -0.010219329
0003d0 f6 3c 14 3e a8 97 b8 bd 0b d9 3d 3e 94 ca 47 3d
       0.1447638 -0.09013301 0.18539827 0.048777178
0003e0 80 ef 8a b7 96 b2 12 bd 66 db fa bd 0a 27 a9 3c
       -1.6562408e-05 -0.035814844 -0.12248878 0.020648498
0003f0 39 b4 40 3d 85 ac ce bd ec b7 e2 bc cb 9d bd 39
       0.047046874 -0.10091499 -0.027675591 0.00036166454

network_body._body_endoder.seq_layers.2.bias f4 [128]
000000 00 00 00 00 00 00 00 00 00 00 00 00 00 00 00 00
       0.0 0.0 0.0 0.0
000010 00 00 00 00 00 00 00 00 00 00 00 00 00 00 00 00
       0.0 0.0 0.0 0.0
000020 00 00 00 00 00 00 00 00 00 00 00 00 00 00 00 00
       0.0 0.0 0.0 0.0
000030 00 00 00 00 00 00 00 00 00 00 00 00 00 00 00 00
       0.0 0.0 0.0 0.0
000040 00 00 00 00 00 00 00 00 00 00 00 00 00 00 00 00
       0.0 0.0 0.0 0.0
000050 00 00 00 00 00 00 00 00 00 00 00 00 00 00 00 00
       0.0 0.0 0.0 0.0
000060 00 00 00 00 00 00 00 00 00 00 00 00 00 00 00 00
       0.0 0.0 0.0 0.0
000070 00 00 00 00 00 00 00 00 00 00 00 00 00 00 00 00
       0.0 0.0 0.0 0.0
000080 00 00 00 00 00 00 00 00 00 00 00 00 00 00 00 00
       0.0 0.0 0.0 0.0
000090 00 00 00 00 00 00 00 00 00 00 00 00 00 00 00 00
       0.0 0.0 0.0 0.0
0000a0 00 00 00 00 00 00 00 00 00 00 00 00 00 00 00 00
       0.0 0.0 0.0 0.0
0000b0 00 00 00 00 00 00 00 00 00 00 00 00 00 00 00 00
       0.0 0.0 0.0 0.0
0000c0 00 00 00 00 00 00 00 00 00 00 00 00 00 00 00 00
       0.0 0.0 0.0 0.0
0000d0 00 00 00 00 00 00 00 00 00 00 00 00 00 00 00 00
       0.0 0.0 0.0 0.0
0000e0 00 00 00 00 00 00 00 00 00 00 00 00 00 00 00 00
       0.0 0.0 0.0 0.0
0000f0 00 00 00 00 00 00 00 00 00 00 00 00 00 00 00 00
       0.0 0.0 0.0 0.0
000100 00 00 00 00 00 00 00 00 00 00 00 00 00 00 00 00
       0.0 0.0 0.0 0.0
000110 00 00 00 00 00 00 00 00 00 00 00 00 00 00 00 00
       0.0 0.0 0.0 0.0
000120 00 00 00 00 00 00 00 00 00 00 00 00 00 00 00 00
       0.0 0.0 0.0 0.0
000130 00 00 00 00 00 00 00 00 00 00 00 00 00 00 00 00
       0.0 0.0 0.0 0.0
000140 00 00 00 00 00 00 00 00 00 00 00 00 00 00 00 00
       0.0 0.0 0.0 0.0
000150 00 00 00 00 00 00 00 00 00 00 00 00 00 00 00 00
       0.0 0.0 0.0 0.0
000160 00 00 00 00 00 00 00 00 00 00 00 00 00 00 00 00
       0.0 0.0 0.0 0.0
000170 00 00 00 00 00 00 00 00 00 00 00 00 00 00 00 00
       0.0 0.0 0.0 0.0
000180 00 00 00 00 00 00 00 00 00 00 00 00 00 00 00 00
       0.0 0.0 0.0 0.0
000190 00 00 00 00 00 00 00 00 00 00 00 00 00 00 00 00
       0.0 0.0 0.0 0.0
0001a0 00 00 00 00 00 00 00 00 00 00 00 00 00 00 00 00
       0.0 0.0 0.0 0.0
0001b0 00 00 00 00 00 00 00 00 00 00 00 00 00 00 00 00
       0.0 0.0 0.0 0.0
0001c0 00 00 00 00 00 00 00 00 00 00 00 00 00 00 00 00
       0.0 0.0 0.0 0.0
0001d0 00 00 00 00 00 00 00 00 00 00 00 00 00 00 00 00
       0.0 0.0 0.0 0.0
0001e0 00 00 00 00 00 00 00 00 00 00 00 00 00 00 00 00
       0.0 0.0 0.0 0.0
0001f0 00 00 00 00 00 00 00 00 00 00 00 00 00 00 00 00
       0.0 0.0 0.0 0.0

value_heads.value_heads.extrinsic.weight f4 [1, 128]
000000 f4 e0 0f be 14 9a 30 bd 1c e5 07 be 1a ea 8d bd
       -0.14050657 -0.04311569 -0.13270992 -0.06929417
000010 40 22 b8 bc b6 7c 04 3e e4 3a 34 bd 42 cb 90 bd
       -0.02247727 0.12938198 -0.044001475 -0.07070018
000020 58 41 ec bc 16 44 0b 3e ea 95 39 3e 30 32 c5 3c
       -0.028839752 0.13600191 0.18123594 0.024071783
000030 26 bb 54 be c8 ca 26 3d 64 ba 2f 3e cf c6 df bd
       -0.20774516 0.04072073 0.17160946 -0.109265916
000040 98 4f 78 3d 00 34 bb bc 4a 85 03 3e 36 69 a1 bd
       0.06062278 -0.022851944 0.12843814 -0.078813955
000050 10 f7 66 bc d3 1a 58 be dc 85 46 bd c0 b7 d3 3b
       -0.01409699 -0.21103983 -0.048467502 0.0064611137
000060 b4 17 33 3e 7a 4e 32 3e e0 63 56 3d 8d 5f 3f be
       0.17489511 0.17412749 0.052341342 -0.18688793
000070 89 d1 c7 bd 7a 9c 22 3e 48 29 2c bd c2 4b c1 bd
       -0.097567625 0.15880004 -0.042031556 -0.09438278
000080 ac 5f da 3d 78 8d 46 3d 54 09 34 3e 0e c7 32 3e
       0.10662779 0.04847476 0.17581683 0.17458746
000090 8c 02 c1 3d 6e ae 40 be 92 16 b4 bd e8 ba 0c 3e
       0.09424314 -0.1881654 -0.087933674 0.13743174
0000a0 f9 82 18 be 95 6e f0 bd 09 92 2c be ac 41 0a 3e
       -0.14893712 -0.11739842 -0.16852583 0.13501614
0000b0 dc 63 4f be 87 38 55 be be 40 11 be 14 ba c1 3d
       -0.20252937 -0.20822345 -0.14184853 0.0945932
0000c0 20 69 6d 3c ce 87 8e bd b4 2c 3e be 0f 21 f1 bd
       0.014490396 -0.069594964 -0.1857174 -0.117738836
0000d0 33 09 57 be 48 8a 76 bd 88 03 0b 3e f4 d5 58 3e
       -0.20999603 -0.06019047 0.13575566 0.21175367
0000e0 62 ca 52 be ef 93 36 be 94 02 e2 bd e0 75 de 3d
       -0.20585015 -0.1782987 -0.11035648 0.108623266
0000f0 10 d9 64 3d 30 53 97 3c 78 43 f7 3c e3 88 29 be
       0.05587107 0.018472284 0.030183539 -0.16556124
000100 34 b9 9a bd a0 b9 25 3d 88 f9 52 3e 00 77 b4 3d
       -0.07554856 0.04046023 0.20603001 0.0881176
000110 2c e5 35 3e 0e 7f 46 be 80 9c d2 ba 38 4a a9 bd
       0.17763203 -0.19384405 -0.0016068369 -0.08266109
000120 a1 e4 be bd 10 ad 39 bd ca cd 24 3e e6 9f b5 bd
       -0.09320951 -0.04533106 0.16094127 -0.08868389
000130 80 ca 56 bd 3a cc 59 3e 08 6a fe 3d 86 7d 3e 3e
       -0.052439213 0.21269313 0.124225676 0.18602571
000140 64 83 93 3d 9a b7 3c be f0 4f 4d 3d 40 18 2e bc
       0.07202795 -0.18429413 0.050125062 -0.010625899
000150 64 8d 38 3e 78 be f2 3c 10 05 8d 3d c4 0f db 3d
       0.18022686 0.029631838 0.06885731 0.106963664
000160 30 3c 19 3c 74 59 48 3e a0 d2 38 3c d2 19 1c 3e
       0.009352729 0.19565374 0.011280686 0.15244225
000170 d2 be 00 3e 9e 10 97 bd f0 33 b9 3d 18 fd 06 be
       0.12572792 -0.07376216 0.090431094 -0.13182485
000180 78 5f 4a bd f0 9a 00 3e c8 23 0a 3d c5 b3 fb bd
       -0.049407452 0.12559104 0.03372553 -0.12290148
000190 dd 92 d6 bd 3e 4e 9e bd 1c 40 b7 3d 22 d2 24 3e
       -0.10477231 -0.07729767 0.08947775 0.16095784
0001a0 30 68 90 bd 78 7e 00 be e4 53 57 be db a5 49 be
       -0.07051122 -0.12548244 -0.21028095 -0.19692175
0001b0 c0 45 b5 bd ea 3e 42 3e 21 c7 27 be f0 a0 25 3e
       -0.088511944 0.18969312 -0.16384555 0.16174674
0001c0 20 47 26 3d 5e 16 54 be d0 fd f1 bc 95 99 e0 bd
       0.040595174 -0.20711657 -0.029539973 -0.109667934
0001d0 12 6a 53 be 3c b3 0f 3e 17 2b 33 be 40 4a 73 3d
       -0.20645931 0.14033216 -0.17496906 0.059396982
0001e0 b2 1a 09 3e 60 71 38 3d 80 d8 37 3c b2 b3 00 be
       0.1338909 0.045029998 0.011221051 -0.12568548
0001f0 40 f7 1e 3c 58 eb e4 3c 88 bd 13 3e 20 cb b2 3c
       0.009702504 0.027944252 0.14427769 0.021825373
