results/ppo/BalanceBall1/BalanceBall1-3072.pt (torch, 160131 bytes, 11 tensors)

network_body._body_endoder.seq_layers.0.weight f4 [128, 16]
00000000: b1e1 d0bd 8a2b eebc fd50 683d eb2d 203c
00000010: 56f2 e8bd 2cc8 3bbe be6c 343e f353 14bb
00000020: 367c 933d ea63 7fbe 41da c9be e88d 34be
00000030: 5894 f4be 10f9 7c3e b977 ae3d 0ade 773e
00000040: c461 803e a1ec dcbb 9c11 1dbe 1b7b 153f
00000050: 0d79 c63e 27db 3cbd b84a 84bd 3204 10bf
00000060: 42bc 903e 134b de3e d263 93bd 898a f0be
00000070: 4233 96be d9da 0f3e 7ee5 a5be f570 15be
00000080: 16c0 0bbe 3659 6dbe 5da9 eebd fbf4 2bbd
00000090: 0773 03be 65db 9f3d 5822 02be 10c1 193e
000000a0: 950d ed3d 850c fabd 02da 8e3e 11eb 23be
000000b0: 3f66 29bf 8aed d23d 3067 d7be ffea c1be
000000c0: 2cd3 d13e e975 a5bb 5470 b2be a48a e2bd
000000d0: d3ad 263e 6e5c ee3d 2fd0 203e 8848 1bbe
000000e0: 3b00 4c3c f8d6 ca3e fb40 aebd 3009 273e
000000f0: 2a7a c73d 670b 87bd 5f87 08be dd98 733e
00000100: 6480 c3bd d727 603d dd28 ec3e 2623 adbe
00000110: cf54 98be 2fb1 9bbc 401e 073e eb2f 093e
00000120: 4212 06be 0a55 333f f896 113f e0ef 26bf
00000130: c4a8 2c3e a434 db3e b4ff aabe db56 90be
00000140: 3c73 b2be b93e c83d 3c9b a4be 919c d7be
00000150: f5b1 4a3d 89db 93bd 967c c13e e056 c9bd
00000160: 436a 8f3e ed68 8fbc 5957 053c c567 db3d
00000170: d350 f23e c2e4 9c3e eb40 aebe a976 ffbd
00000180: bf29 073f 8e7a ba3d dfba 203e 764a 083e
00000190: de8d aa3e 4550 2abe 9107 a6bc ddde 803e
000001a0: 8f12 71bd 9c1e 30be 914c f3be 317c 303e
000001b0: 0c23 253c 6d40 d1bd e851 503e 15bf 11bd
000001c0: 22db 2abb a483 debe 45eb f5bc 2ad7 113e
000001d0: 8f8f fbbd 3795 d03d 5b4b 9c3c d60f 133f
000001e0: fa67 babe 3d16 643c 3d6d 423e f2d1 993e
000001f0: f55b a4bc 87e4 313d d3d7 2fba 2b5a 3c3e
00000200: c114 403e 798c d73e d42e 2bbe 3ccd e03c
00000210: a994 c63e 46e5 a3bd fe31 7e3e d5fd 4e3e
00000220: 1328 bb3c 0ce5 ea3c ce53 613d 4894 47be
00000230: 3cce 0ebd 76eb 29be 5880 e83e 6f66 813d
00000240: 2db8 a4be 7ae1 4f3e 20b6 93be 191c 513e
00000250: 641d 28be 834d afbe fd65 75be d38b 823d
00000260: 270a 5d3c ef53 453e 6ed7 c1be 5799 d73d
00000270: 35dc 94be 4149 dbbd 0cec 9c3e a706 b43e
00000280: 0217 a43c edb6 96be 4327 7f3d 6f3e 7f3c
00000290: b2e8 b53e 0768 cfbb 8938 f83d d2c6 753e
000002a0: 02c3 5d3e e397 cbbc f9dc 923e b2b6 073d
000002b0: 746e 9e3e 65ab 16be 6d85 713e 49d1 fc3d
000002c0: 300e 38be f103 73be 5e50 093d fc1d e6be
000002d0: 072f 9bbd b855 e6bc 15ed 3ebe 73d1 06bc
000002e0: 02a3 283e 5324 fa3d 0733 433d 03d0 8c3e
000002f0: 77a8 823e 2fe6 113f 0017 7b3e 2d62 9ebe
00000300: 3855 1b3e a1cd 0abe 1234 9dbe 8df6 8cbc
00000310: 149a d83e 0ba0 6dbd a2d5 333e fb5b e6bd
00000320: bbb7 9c3d cdab 3c3e fd8f 4fbe ab98 d8be
00000330: d1e5 8f3e 7960 f63d d852 133e 4765 ed3e
00000340: b733 a3be ad29 98be 3c43 8ebe 239e a43e
00000350: e0ac e4bd e948 23be edb2 873b dc46 913e
00000360: 2e36 913d 61e8 bcbd d26d 9bbe 8326 c33e
00000370: 3bb7 58bf 4740 05be ab84 663e 68ad 56bc
00000380: 6310 91be a329 0dbe 71f5 5d3e 1224 ef3d
00000390: 129c 04bd 4451 413e fb9d f8be 6f1f 80be
000003a0: 963d a53e 4602 36bd 7861 b63c 601c c13e
000003b0: e35c 9f3d 31fa ec3d a650 3e3e 64ba 85be
000003c0: 15f0 d03d 8db6 4bbe 74d1 a5bd e122 febe
000003d0: 5be0 1abe 3f3e aebc 6564 8f3e d940 aebd
000003e0: 03f2 883b 715b ba3c e40a e6be 24af a9bd
000003f0: 2f8f f83e ea11 91bd 175d 803e fb09 ccbe
-0.10199297 -0.029073495 0.05671786 0.009776573 -0.11374347 -0.18338078 0.17619607 -0.0022633045
0.07201426 -0.24940458 -0.39424327 -0.17632258 -0.47769427 0.24704385 0.08518929 0.24205795
0.2507459 -0.0067420756 -0.15338749 0.5839097 0.3876423 -0.046107437 -0.06459564 -0.562564
0.2826863 0.43416652 -0.071967736 -0.46980694 -0.29335982 0.14048328 -0.3240165 -0.14593871
-0.13647494 -0.23178563 -0.11653397 -0.04198168 -0.12836848 0.07805518 -0.12708414 0.15015054
0.11574856 -0.12209419 0.27900702 -0.1600764 -0.6617164 0.10299213 -0.42070913 -0.378746
0.40981424 -0.0050494564 -0.34851325 -0.110616 0.16277246 0.11638723 0.15704416 -0.15164387
0.012451227 0.39617133 -0.08508488 0.16312099 0.09740098 -0.06593972 -0.1333289 0.23788781
-0.09545973 0.054725494 0.46124926 -0.3381588 -0.29752204 -0.019005386 0.13195133 0.13397186
-0.13092902 0.70051634 0.56870985 -0.6520977 0.16861254 0.428136 -0.3339821 -0.28191265
-0.34853542 0.097775884 -0.32149684 -0.42111638 0.04948612 -0.072196074 0.37790364 -0.09831023
0.2801076 -0.017506087 0.008138501 0.10713152 0.4732729 0.30643278 -0.34033903 -0.124738045
0.52798074 0.09105407 0.15696286 0.13309655 0.3331136 -0.16632183 -0.02026728 0.2517003
-0.05885559 -0.17199177 -0.47519353 0.17234875 0.010079157 -0.10217366 0.20343745 -0.03558262
-0.0026070555 -0.4345981 -0.030019412 0.14242235 -0.12283241 0.101847105 0.019078901 0.5744604
-0.36407453 0.013921318 0.18986984 0.30042988 -0.02006338 0.04343083 -0.00067078805 0.18393771
0.18757917 0.4209936 -0.16717082 0.027441613 0.38785294 -0.08002715 0.24823758 0.20214017
0.022846257 0.028673671 0.055011563 -0.19490159 -0.03486465 -0.16593727 0.4541042 0.06318366
-0.32171765 0.20300856 -0.28849888 0.20420875 -0.16417462 -0.34238824 -0.23964687 0.063743256
0.01349119 0.192703 -0.37859672 0.10527294 -0.29074255 -0.107073314 0.3064884 0.35161325
0.020030502 -0.29436436 0.062293302 0.01557885 0.35529095 -0.0063295397 0.12120158 0.24001625
0.21656421 -0.024852699 0.28684214 0.033133216 0.30943644 -0.1471382 0.23586054 0.123446055
-0.17974162 -0.23731972 0.03352391 -0.4494475 -0.07577329 -0.028117046 -0.18645127 -0.0082286475
0.16468433 0.122139595 0.047656085 0.2750245 0.25519153 0.5699186 0.24520493 -0.30934277
0.15169227 -0.13555004 -0.3070379 -0.017207408 0.42305052 -0.058013957 0.17561963 -0.11248013
0.07652231 0.18424912 -0.20269771 -0.42303976 0.28105024 0.120301194 0.14387071 0.4636633
-0.31875393 -0.29719296 -0.2778567 0.321519 -0.11165786 -0.15945782 0.0041412027 0.28374374
0.07090412 -0.0922401 -0.30357224 0.3811532 -0.8465459 -0.13012801 0.22511546 -0.013102867
-0.28332815 -0.13785414 0.2167566 0.11676802 -0.032375403 0.18878657 -0.4855803 -0.25023982
0.3227355 -0.044435762 0.022263274 0.3771696 0.077813886 0.11571158 0.18585452 -0.26118767
0.10202042 -0.19893856 -0.08096591 -0.49635985 -0.15124647 -0.021269916 0.28006282 -0.085084625
0.0041792407 0.02274868 -0.44930184 -0.082853585 0.4854674 -0.07083495 0.25071022 -0.39851364

network_body._body_endoder.seq_layers.0.bias f4 [128]
00000000: 0000 0000 0000 0000 0000 0000 0000 0000
00000010: 0000 0000 0000 0000 0000 0000 0000 0000
00000020: 0000 0000 0000 0000 0000 0000 0000 0000
00000030: 0000 0000 0000 0000 0000 0000 0000 0000
00000040: 0000 0000 0000 0000 0000 0000 0000 0000
00000050: 0000 0000 0000 0000 0000 0000 0000 0000
00000060: 0000 0000 0000 0000 0000 0000 0000 0000
00000070: 0000 0000 0000 0000 0000 0000 0000 0000
00000080: 0000 0000 0000 0000 0000 0000 0000 0000
00000090: 0000 0000 0000 0000 0000 0000 0000 0000
000000a0: 0000 0000 0000 0000 0000 0000 0000 0000
000000b0: 0000 0000 0000 0000 0000 0000 0000 0000
000000c0: 0000 0000 0000 0000 0000 0000 0000 0000
000000d0: 0000 0000 0000 0000 0000 0000 0000 0000
000000e0: 0000 0000 0000 0000 0000 0000 0000 0000
000000f0: 0000 0000 0000 0000 0000 0000 0000 0000
00000100: 0000 0000 0000 0000 0000 0000 0000 0000
00000110: 0000 0000 0000 0000 0000 0000 0000 0000
00000120: 0000 0000 0000 0000 0000 0000 0000 0000
00000130: 0000 0000 0000 0000 0000 0000 0000 0000
00000140: 0000 0000 0000 0000 0000 0000 0000 0000
00000150: 0000 0000 0000 0000 0000 0000 0000 0000
00000160: 0000 0000 0000 0000 0000 0000 0000 0000
00000170: 0000 0000 0000 0000 0000 0000 0000 0000
00000180: 0000 0000 0000 0000 0000 0000 0000 0000
00000190: 0000 0000 0000 0000 0000 0000 0000 0000
000001a0: 0000 0000 0000 0000 0000 0000 0000 0000
000001b0: 0000 0000 0000 0000 0000 0000 0000 0000
000001c0: 0000 0000 0000 0000 0000 0000 0000 0000
000001d0: 0000 0000 0000 0000 0000 0000 0000 0000
000001e0: 0000 0000 0000 0000 0000 0000 0000 0000
000001f0: 0000 0000 0000 0000 0000 0000 0000 0000
0.0 0.0 0.0 0.0 0.0 0.0 0.0 0.0
0.0 0.0 0.0 0.0 0.0 0.0 0.0 0.0
0.0 0.0 0.0 0.0 0.0 0.0 0.0 0.0
0.0 0.0 0.0 0.0 0.0 0.0 0.0 0.0
0.0 0.0 0.0 0.0 0.0 0.0 0.0 0.0
0.0 0.0 0.0 0.0 0.0 0.0 0.0 0.0
0.0 0.0 0.0 0.0 0.0 0.0 0.0 0.0
0.0 0.0 0.0 0.0 0.0 0.0 0.0 0.0
0.0 0.0 0.0 0.0 0.0 0.0 0.0 0.0
0.0 0.0 0.0 0.0 0.0 0.0 0.0 0.0
0.0 0.0 0.0 0.0 0.0 0.0 0.0 0.0
0.0 0.0 0.0 0.0 0.0 0.0 0.0 0.0
0.0 0.0 0.0 0.0 0.0 0.0 0.0 0.0
0.0 0.0 0.0 0.0 0.0 0.0 0.0 0.0
0.0 0.0 0.0 0.0 0.0 0.0 0.0 0.0
0.0 0.0 0.0 0.0 0.0 0.0 0.0 0.0

network_body._body_endoder.seq_layers.2.weight f4 [128, 128]
00000000: 3bb2 67bd 6bbf d4bd a8be 9f3d 9b03 e9bd
00000010: 9f3b 853d d988 4fbc 8144 a43d 9d20 d5bd
00000020: 7e8d cd3d fb90 813d e5ec ecbc f601 b23d
00000030: 3297 ab3d f928 ba3d ea34 08bd d67a eb3c
00000040: 7620 cf3d c6ca 9abb e616 053d 77ff 6f3d
00000050: 34c7 1c3d 98c6 8d3d 5bfd f7bd 60b7 e63c
00000060: 13d2 9c3d 94cf 27be 7cc8 b23d 7ab3 d8bc
00000070: 930f bc3c ddb0 40bc 4f41 aabd a109 393c
00000080: ea2b 043e 8206 bbbd 507a acbd a9db b43b
00000090: 0891 1d3b a051 f5bb cf64 8ebd ec2e ddbc
000000a0: e484 d9bd 5d11 babc 1a4a 09be fb67 963d
000000b0: 652c e83d 4106 72bd bc45 b7bd e786 2abd
000000c0: 9e99 19ba 4a25 cd3d 9a72 b13d 2345 ad3d
000000d0: ac76 0d3e 4d31 da3c 2f37 a3bd 8cc3 c73d
000000e0: dd3b c03d 2d03 213e 0d8e c3bd 7efe f9bb
000000f0: ee43 18be 0929 e13d e7c0 d23c fad0 28bd
00000100: c83c ef3c db93 d4bc 7336 b9bb 3d6d aa3d
00000110: e1d5 123c 79e4 a1be 765c 7b3d 2aa3 59bc
00000120: 0b92 0d3d 2129 133e b5f7 483e 894d 0fbd
00000130: b3c0 163d 1de4 a63d da08 20be e7e5 a53d
00000140: faf1 783d 1132 6f3c f7cc 40be 211c 8abd
00000150: 76f4 cfbd af75 5cbe 59e5 013d e299 0dbd
00000160: 1edf e5bb 7a5c 873c 7d09 ef3c 39c2 53bd
00000170: 542b 0ebd 1387 50be fc99 b33b e2fe b83d
00000180: 21ac a23d 2c74 ba3d 7a8c 5c3d 252f 2d3d
00000190: f1fd d8bc 368e 433d bbb7 5a3e 5a5d 6e3b
000001a0: a237 ebbd 8eda fd3d 7fa0 b83c c6bc 883a
000001b0: c1f0 b9bd 67c9 84bd db58 6dbc 93a2 973d
000001c0: 5d4b 3dbe 8cf7 80bd 33c2 9bbd f2b4 96bc
000001d0: 0dd1 cabd 3a87 ac3d 4781 e83c f7e0 3d3d
000001e0: b02e afbd 02ce e9bc 1699 bdbd e51f c5bd
000001f0: cb36 d33d 72ba 4abd 4dd7 04bc 4289 ebbd
00000200: ba99 cf3d 8621 b3bd 9e87 e8bd a2d9 ebbd
00000210: de85 bcbd 81f4 00be b69b 36be 56b0 fb3c
00000220: 48c6 42bd cb2c fdbb 107e febd c284 933d
00000230: 2893 1d3e 768c 2e3e 8dfa bfbb cadb 46bd
00000240: 0bb1 e13d c848 6ebd 094d 87bc 608e 5cbd
00000250: aa29 c93d 5dcc ebbd 31a1 70be a261 ebbc
00000260: dc97 91bd 1555 2ebe e87b 93bc 47f6 63bb
00000270: fd1a 0dbd 33ec b4bd b2d4 ee3d 09e3 10bd
00000280: 82b1 e8bb 658d 983d b811 413d e56e 0abe
00000290: 4842 f9bd b52c 92bd 4bf1 fb3c 19fd 893d
000002a0: 995f 493d c3a7 09bc 0dbd 1c3c 87bf e23d
000002b0: a05b 5fbd 3e7c 55bd 7572 0ebd 135d 0cba
000002c0: 9f9a bd3d 8a29 e3bc 80e5 edbc 8f78 1b3e
000002d0: 734f a53d f93b b03d 2046 df3c 07c3 603c
000002e0: 4ce7 363d a02c 243c c4cb d5bd 68b2 9f3d
000002f0: 8847 94bd 19e0 92ba 77c9 6fbb 214f ffbc
00000300: 5a0d 75bc 4308 9c3c 2f76 b13d 59c5 85bd
00000310: 67a3 acbd 5ce2 96bd df3c 983d 539c edbd
00000320: c690 0fbe 24c0 be3d f36f 15bd a86b 173d
00000330: c179 9a3d 01ce df3c 427d 0b3c f4db 05bd
00000340: 449d 0dbe 0fbe cabb 00b7 c4bd 1bf4 a4bc
00000350: dc43 85bd f265 1abd dc74 6e3d 2dc0 2fbd
00000360: c7d5 833c 809c 07bd 4ea4 bb3c 1bd5 5fbd
00000370: 4ccc d9b9 203e 32bd 8485 6b3d a993 08bd
00000380: bf57 e1bd ae41 fbbd 24b4 dcbd 5265 a83d
00000390: befa e03c 7ff8 dc3d 1e36 90bd 5371 38be
000003a0: c4ba c8bd 8817 da3d cc2d 4bbd a593 30bd
000003b0: 81bc 6fbc bdc5 42bd 1dd9 973d ec39 ee3d
000003c0: 71f6 ac3d c9f1 18be 27b8 cc3c 2d0c 3f3d
000003d0: 5de6 3c3b 436d 24bd bc63 babc 24a1 07bd
000003e0: 0068 133e 1478 e9bd 5356 32bd d6f7 8b3d
000003f0: b310 993c 9626 ddbd 4025 2f3c c6c9 11be
-0.05656646 -0.103880726 0.07800037 -0.11377641 0.065055124 -0.012666904 0.080208786 -0.10406611
0.10036753 0.06326481 -0.028921554 0.0869178 0.083784476 0.09089846 -0.033253588 0.028745096
0.10113613 -0.0047238795 0.03249254 0.05859324 0.038275912 0.069226444 -0.121088706 0.028163612
0.07657256 -0.16387779 0.087296456 -0.026452769 0.022956645 -0.0117609175 -0.08313238 0.0112938
0.12907377 -0.09132101 -0.08421767 0.0055193496 0.0024042744 -0.007486537 -0.069528215 -0.026999913
-0.1062105 -0.022713358 -0.13407174 0.073440515 0.113365926 -0.059087995 -0.08948848 -0.04163256
-0.00058593776 0.10016878 0.08664437 0.084604524 0.13814801 0.026634837 -0.0796951 0.097540945
0.09386418 0.15723868 -0.095485784 -0.007629215 -0.14869663 0.10994155 0.025726749 -0.04121492
0.029203787 -0.02594941 -0.005652243 0.08321617 0.0089621255 -0.31619623 0.061367474 -0.01328353
0.034563106 0.14371158 0.19625743 -0.034986053 0.036804866 0.08148978 -0.15628377 0.08100491
0.06077764 0.014599339 -0.18828188 -0.067436464 -0.10154049 -0.21529268 0.031712864 -0.034570582
-0.007015123 0.016523588 0.029179329 -0.051698897 -0.03470929 -0.20364027 0.005481003 0.0903299
0.07942987 0.09104189 0.053844906 0.04228129 -0.026488276 0.047743045 0.2135915 0.003637156
-0.114852205 0.123952016 0.022537468 0.0010432235 -0.09079123 -0.06483727 -0.014486517 0.074040554
-0.1848578 -0.06297216 -0.076054 -0.018396828 -0.099031545 0.0842423 0.028381957 0.04635712
-0.08553827 -0.028540615 -0.092577145 -0.09625224 0.10313185 -0.049494214 -0.008107972 -0.11500789
0.10136743 -0.087466285 -0.11353992 -0.115161195 -0.09205221 -0.12593271 -0.17832837 0.030723732
-0.047552377 -0.007726287 -0.12426388 0.07203056 0.15388167 0.17045769 -0.0058587254 -0.04854945
0.110200964 -0.05817488 -0.016516225 -0.053846717 0.098224 -0.115135886 -0.2349899 -0.028733078
-0.07109043 -0.17024644 -0.018003419 -0.0034784244 -0.034449566 -0.08834114 0.11661662 -0.035372768
-0.0071012387 0.07448844 0.04713604 -0.13518865 -0.12170845 -0.071374334 0.030754706 0.06737728
0.049163435 -0.008401814 0.009566558 0.11071687 -0.05453074 -0.05212044 -0.034777123 -0.00053544453
0.09258007 -0.027729768 -0.029040098 0.15182708 0.08071794 0.08605189 0.027255118 0.013718373
0.044654176 0.010020405 -0.10439256 0.077977 -0.07240206 -0.0011205702 -0.0036588588 -0.031165661
-0.014956797 0.019046908 0.0866512 -0.06531782 -0.08429604 -0.073673934 0.07433485 -0.11602082
-0.1402007 0.09313992 -0.036483716 0.036967903 0.07542754 0.02731991 0.0085137505 -0.032680467
-0.13829523 -0.0061872075 -0.09605217 -0.02013593 -0.06507084 -0.03769488 0.058216915 -0.042907882
0.016093148 -0.033108234 0.022905495 -0.054646593 -0.00041541678 -0.04351628 0.057500377 -0.033343945
-0.11003064 -0.12268387 -0.107765466 0.0822245 0.027463313 0.10789584 -0.07041572 -0.1801198
-0.09801248 0.106490195 -0.049604222 -0.043109555 -0.014632345 -0.04755186 0.07414458 0.116321415
0.084454425 -0.14935984 0.024990154 0.04664247 0.002882383 -0.040143263 -0.022752635 -0.03311266
0.14395142 -0.11399856 -0.043539356 0.0683438 0.01868472 -0.10798375 0.010690033 -0.14237127

network_body._body_endoder.seq_layers.2.bias f4 [128]
00000000: 0000 0000 0000 0000 0000 0000 0000 0000
00000010: 0000 0000 0000 0000 0000 0000 0000 0000
00000020: 0000 0000 0000 0000 0000 0000 0000 0000
00000030: 0000 0000 0000 0000 0000 0000 0000 0000
00000040: 0000 0000 0000 0000 0000 0000 0000 0000
00000050: 0000 0000 0000 0000 0000 0000 0000 0000
00000060: 0000 0000 0000 0000 0000 0000 0000 0000
00000070: 0000 0000 0000 0000 0000 0000 0000 0000
00000080: 0000 0000 0000 0000 0000 0000 0000 0000
00000090: 0000 0000 0000 0000 0000 0000 0000 0000
000000a0: 0000 0000 0000 0000 0000 0000 0000 0000
000000b0: 0000 0000 0000 0000 0000 0000 0000 0000
000000c0: 0000 0000 0000 0000 0000 0000 0000 0000
000000d0: 0000 0000 0000 0000 0000 0000 0000 0000
000000e0: 0000 0000 0000 0000 0000 0000 0000 0000
000000f0: 0000 0000 0000 0000 0000 0000 0000 0000
00000100: 0000 0000 0000 0000 0000 0000 0000 0000
00000110: 0000 0000 0000 0000 0000 0000 0000 0000
00000120: 0000 0000 0000 0000 0000 0000 0000 0000
00000130: 0000 0000 0000 0000 0000 0000 0000 0000
00000140: 0000 0000 0000 0000 0000 0000 0000 0000
00000150: 0000 0000 0000 0000 0000 0000 0000 0000
00000160: 0000 0000 0000 0000 0000 0000 0000 0000
00000170: 0000 0000 0000 0000 0000 0000 0000 0000
00000180: 0000 0000 0000 0000 0000 0000 0000 0000
00000190: 0000 0000 0000 0000 0000 0000 0000 0000
000001a0: 0000 0000 0000 0000 0000 0000 0000 0000
000001b0: 0000 0000 0000 0000 0000 0000 0000 0000
000001c0: 0000 0000 0000 0000 0000 0000 0000 0000
000001d0: 0000 0000 0000 0000 0000 0000 0000 0000
000001e0: 0000 0000 0000 0000 0000 0000 0000 0000
000001f0: 0000 0000 0000 0000 0000 0000 0000 0000
0.0 0.0 0.0 0.0 0.0 0.0 0.0 0.0
0.0 0.0 0.0 0.0 0.0 0.0 0.0 0.0
0.0 0.0 0.0 0.0 0.0 0.0 0.0 0.0
0.0 0.0 0.0 0.0 0.0 0.0 0.0 0.0
0.0 0.0 0.0 0.0 0.0 0.0 0.0 0.0
0.0 0.0 0.0 0.0 0.0 0.0 0.0 0.0
0.0 0.0 0.0 0.0 0.0 0.0 0.0 0.0
0.0 0.0 0.0 0.0 0.0 0.0 0.0 0.0
0.0 0.0 0.0 0.0 0.0 0.0 0.0 0.0
0.0 0.0 0.0 0.0 0.0 0.0 0.0 0.0
0.0 0.0 0.0 0.0 0.0 0.0 0.0 0.0
0.0 0.0 0.0 0.0 0.0 0.0 0.0 0.0
0.0 0.0 0.0 0.0 0.0 0.0 0.0 0.0
0.0 0.0 0.0 0.0 0.0 0.0 0.0 0.0
0.0 0.0 0.0 0.0 0.0 0.0 0.0 0.0
0.0 0.0 0.0 0.0 0.0 0.0 0.0 0.0

action_model._discrete_distribution.branches.0.weight f4 [3, 128]
00000000: 72bf 81ba 5983 01ba 4062 913b 96ba 073b
00000010: e70e f3bb 74a6 833b af11 46bb 0969 3dbb
00000020: ee75 c43b 4327 2f3b 07fe 9d3a d73b 423b
00000030: ebad 2d3b 9525 7b3b 2df4 7f3b c5de 78bb
00000040: e5df 6fbc ed39 9b3b 8cc5 1fbc 707b e2ba
00000050: f4ee 493b 12ca eb3a 731a b2bb f80b 563c
00000060: dd6c d53b 9518 d83c ac9e 123c c1dd 23bc
00000070: 7ed8 ac3b e218 2f3b 5fb9 28bb e835 203c
00000080: f34c abbb 44a0 953b 53ef 77bc 6742 85bb
00000090: c0e5 053c 759c 8e39 c50b 9ebb 5e8b 17bc
000000a0: 3056 59bc bdae fd3b 0cab 9d3a 60d4 71bb
000000b0: dd59 f93b 1324 7f3c 40dd 0d3c 1f54 803b
000000c0: 1bae ddbb 11ac 11b9 90f3 90b8 6a8d 06bb
000000d0: 553c 113c ee7a 8cbc e7f4 2eba 4cd5 43bc
000000e0: 9370 c5bb 94f4 2c3c 8f47 76bc 430d d23b
000000f0: 93ef 223c 7f66 e1ba 9870 71bc c983 923c
00000100: fb54 d3b9 428f 3d3c 1e39 35bb ff7c ac3b
00000110: 4a2c 5fbc fb8f 423c 31a4 aa3b 071b 523c
00000120: 68ba 1939 5f12 b7ba 49b4 10bc 727f 93bc
00000130: 40c4 343b da9d a93b eab6 64bc fb79 d23b
00000140: fa4f 7b3c 9752 3e3b 1914 943c 109f a0bb
00000150: 90e4 f73b 3ff6 ef3b 4845 febb 3f63 013c
00000160: 8a46 6e3a 2baa 68bc f3e7 db39 d072 1dba
00000170: 0592 6c3b 47f2 3c3c df74 a53b 8e09 9abb
00000180: dd9e cfbb f716 143c 6d25 cc3b 8e2e b0bb
00000190: a856 583b 93ea 843c c8e5 2d3c a82d d3bb
000001a0: 7850 103c 2bcd f2ba 2b02 b13b 43eb 523c
000001b0: 54f4 433a efca 0abc 631d bebb 8753 753b
000001c0: ffc8 59bc 90da 29bb ab7a 74bc 5494 12bc
000001d0: 5ecb b7bb 7b53 25bc 1900 0ebb f37a 56ba
000001e0: dbaa e83a f791 eabb 6f4a 413c db28 2fbb
000001f0: 75ce 52bc ea5b 423c 9273 9e3b f2b9 6a3c
00000200: 459e 6bbc 5f4a 4f3c 8a15 a8ba e2fe dc3b
00000210: c65c 9b3b 1301 97bb 948e 463c e729 0f3b
00000220: 8b7d 20bc 4d0f 67bc 83da aaba d25a d13a
00000230: 94ad 173c 4f70 463c 50da ee39 bda2 22bc
00000240: 7409 94bc 8196 ba3b d929 b53b 68d2 67bb
00000250: f16b 29bc 506e d93b 9364 e839 78f9 de3c
00000260: db78 c33a 173a 3dbc 8af1 093c c0ad 283c
00000270: 8683 baba 43d7 073b 30c2 583b 55ef 2c3b
00000280: 6310 763b 8776 7c3c 77fc a7b9 254f 8ebb
00000290: 53f9 c13b e3b2 a7bb cfd1 783c 07ed 53bc
000002a0: e8d5 a13c a849 8bbb c7f9 92bb 8450 c03a
000002b0: 58b4 88bb c966 0abb ef58 8c3c 900a 8cba
000002c0: 879b a3ba 42eb 26bb 63bc 02bc 009b 4d3b
000002d0: fbb4 a1ba 6afb 873c 9226 ddbb 67f1 ae3b
000002e0: f7fe e53b 4b22 e53a 1fa4 a33c 50d8 e03b
000002f0: 48b0 24bc 7d91 053c 8533 eabb fac4 783a
00000300: dd6e e23b 9b91 88bb 0336 11bc 8b66 7939
00000310: 8b3a 093c 8827 4dba ab86 66bb 46ba 0aba
00000320: a1c2 0d3b 9a60 143c eb20 adbb 66f0 3dbb
00000330: fada a33a ff46 f7bc 2d69 653b 622f 12bc
00000340: d089 0c3c 77c2 30bc 4f0d 9b3a cc8a b8ba
00000350: 0be5 233c 5f1b 793b e9a5 85bc d25e f23b
00000360: be94 ba3b ea1d 2d3a 466b 91ba 115a adbb
00000370: 37b7 5b3c 302a 6dbb 9380 bd3b bbcf 00bb
00000380: 10e9 5abb 6f2d 833a 7162 35bc 3fd4 993a
00000390: f270 f13b 138f c8ba af4f 39bc ea90 8cbc
000003a0: e832 69bc 8f29 4dbb bbc9 203c 03a4 d73b
000003b0: 42eb ddbb 2bd3 953b a0e6 8a39 4e38 c5bc
000003c0: a949 c93a 407c 3d3c 000f 9e3b 82fe 6abc
000003d0: 77e7 a0ba 1ed6 24bc a65e 023b af65 31ba
000003e0: ff38 5639 34c1 00bc 1b20 a43b 7c16 2c3c
000003f0: adec 983b 6714 1f3b ea16 86bc a2ee e13b
-0.0009898974 -0.0004940532 0.004436761 0.002071058 -0.007417548 0.0040176455 -0.0030222943 -0.0028901717
0.0059955036 0.0026726283 0.0012053855 0.0029637718 0.0026501368 0.0038321961 0.0039055452 -0.0037974578
-0.014640783 0.00473713 -0.009751689 -0.0017279219 0.0030812593 0.0017989299 -0.005435282 0.013064377
0.0065132217 0.02637891 0.008948963 -0.010001601 0.0052748313 0.0026717712 -0.0025745255 0.009778477
-0.005227679 0.0045662243 -0.015132743 -0.0040667537 0.008172452 0.0002720092 -0.0048231804 -0.009249536
-0.013265178 0.0077417777 0.0012029125 -0.0036900267 0.0076095895 0.015572566 0.008658707 0.003916278
-0.0067651398 -0.00013892377 -6.911822e-05 -0.0020531067 0.008864482 -0.017148461 -0.00066740665 -0.011952709
-0.006025383 0.010556359 -0.015031709 0.0064102723 0.009944814 -0.0017196684 -0.014736317 0.017885106
-0.00040308372 0.0115698 -0.0027652453 0.005263924 -0.013621399 0.011875148 0.0052075614 0.012823827
0.00014660659 -0.0013967267 -0.008832046 -0.018005107 0.0027582794 0.005176288 -0.013959626 0.0064232326
0.015338892 0.0029040927 0.01807599 -0.004901774 0.0075650886 0.007323056 -0.007759724 0.007897197
0.00090894906 -0.014200727 0.0004194375 -0.0006006183 0.0036097777 0.011532373 0.0050493325 -0.004700846
-0.0063360767 0.009038678 0.0062300474 -0.0053766435 0.0033010636 0.016225135 0.010613866 -0.0064446516
0.008808248 -0.001852428 0.00540187 0.012873474 0.00074750674 -0.008471235 -0.005801843 0.003743382
-0.01329255 -0.0025917627 -0.014921824 -0.008946497 -0.00560896 -0.010090704 -0.0021667539 -0.0008181773
0.0017751114 -0.0071585136 0.0117975315 -0.0026727233 -0.012866606 0.011862734 0.0048355544 0.014326559
-0.014380996 0.012652009 -0.0012823802 0.0067442516 0.004741284 -0.0046082824 0.012118954 0.0021845044
-0.009795557 -0.014102769 -0.0013035092 0.0015972501 0.009257693 0.012111737 0.00045557553 -0.009926495
-0.018070914 0.005694211 0.0055286703 -0.0035373215 -0.010340677 0.0066354647 0.00044325422 0.027218565
0.0014913337 -0.011549494 0.008419404 0.0102953315 -0.0014229871 0.0020727671 0.003307473 0.002638777
0.0037546388 0.0154091185 -0.00032040823 -0.004342931 0.0059196143 -0.0051177605 0.015186741 -0.01293493
0.019755319 -0.004250724 -0.004485342 0.0014672433 -0.0041718893 -0.0021118394 0.01713225 -0.00106843
-0.0012482264 -0.0025469814 -0.007979485 0.0031372905 -0.0012337262 0.016599376 -0.0067489827 0.005338836
0.0070189196 0.0017481534 0.01997572 0.006861724 -0.010051794 0.008152363 -0.007147255 0.0009489801
0.0069101886 -0.004167748 -0.008862975 0.0002378469 0.008375774 -0.000782602 -0.0035175483 -0.0005292039
0.00216309 0.009056235 -0.005283465 -0.00289824 0.0012501173 -0.03018522 0.0035005317 -0.00892243
0.008577779 -0.0107885515 0.0011829528 -0.0014079451 0.010003339 0.00380107 -0.016314464 0.0073965574
0.005694001 0.0006603884 -0.0011094592 -0.005290278 0.013410381 -0.0036188476 0.0057831495 -0.0019655067
-0.0033403076 0.0010008047 -0.011070834 0.0011736228 0.0073682005 -0.0015301429 -0.011310502 -0.017158944
-0.014233328 -0.0031305288 0.009813721 0.006580831 -0.0067724297 0.0045722923 0.0002649324 -0.0240747
0.0015357035 0.011565268 0.0048235655 -0.014342906 -0.0012276013 -0.010060815 0.001989284 -0.0006767166
0.00020429863 -0.007858563 0.00500871 0.010503408 0.004666886 0.0024273635 -0.016368348 0.0068949023

action_model._discrete_distribution.branches.0.bias f4 [3]
00000000: 0000 0000 0000 0000 0000 0000
0.0 0.0 0.0

network_body._body_endoder.seq_layers.0.weight f4 [128, 16]
00000000: 03fc 593d f21f e33d 802c dcbd 0dee 183c
00000010: b712 813d b4dd ccbd 3973 ea3e 6150 83be
00000020: d038 b63e 4503 aebe 0ba6 463d 4878 183e
00000030: 7bce 113e 9361 6bbe f764 9e3d 2db6 8abe
00000040: be48 acbe 5700 ee3d 7dee 2abd 7c00 893e
00000050: d5c7 883e 0a4b b73e aa96 9abe fd96 77be
00000060: 4b64 813e 907a 1dbe 306a 483e f584 fc3d
00000070: 239d 96bd d984 9a3e cb87 90be 89d8 b4bc
00000080: 057b 21be f58c 40be 792b f5be 213a af3e
00000090: 6b6b 9a3d 5000 41bc 14f5 633e 4ffe d83e
000000a0: bcb1 57be 8894 dc3e 68c4 9abe f289 b23e
000000b0: b0d6 d33d 484d 193e 0d7d 83be d87f ffbe
000000c0: db71 4fbd 2f82 b7bd b748 523e 53a0 1b3e
000000d0: 436e c2be 640f 12bf f89d e23e 9b28 763e
000000e0: fbb0 fe3d fa87 5bbe 93fe c7be fe4f 14be
000000f0: 310d 543d 46b6 053d 7499 763e 56d7 38be
00000100: 0521 2a3f 8c09 683d a298 c13d 39a7 45bd
00000110: 3f30 893e e44c 93be 163f 51be 0d33 43bc
00000120: d6d3 a4be 2f5b 80be baf6 e33d e678 42be
00000130: 9f61 a0be d8b6 5dbe 7207 c43e 49e0 18be
00000140: a7a8 cabd 7365 d9be 1376 8fbd 7a99 c23b
00000150: 4baa 783d e368 6cbe 94af 65be 5594 d73d
00000160: e137 6dbe 8932 8f3e 8573 7ebe ffa8 0dbd
00000170: 4bd6 f2bc b89a 813e 844b 973d 07a2 9a3e
00000180: aa46 693e 1075 cabd f1f3 103e fa90 c7be
00000190: 4bf1 11bc 6bb8 05bb 30a0 8cbe 06af 33bd
000001a0: c57d 2cbe c71b b1bd 10e8 8a3e 1700 f5bc
000001b0: f88f 72be e2a5 5a3e 4f23 963c 101f e13d
000001c0: 85ba f3be 7ad7 5d3e 7f36 a2be b8d6 02bd
000001d0: b64b f8be 467a 583e 563c 843e 49b0 e53e
000001e0: be8d 1bbf 2876 03be 205d 1cbd cdc0 233e
000001f0: 9241 4a3e b6de b3be 29fc 0abf fa4c d43e
00000200: 31ce 8bbe 275f b9be 0d2b 823c 1443 31be
00000210: 3bd0 c93e 6822 523e 7c55 ba3e 539f d0be
00000220: cbe6 1ebe 880d 9bbd 1b16 003e ab2f 92be
00000230: 2e79 2d3d 857b ea3d 405b 9f3d 56f8 bcbe
00000240: e6f0 dfbd ddbf 30bd e200 f4be deba 89be
00000250: 4137 ac3d dfec 423e b6c8 463c af95 493e
00000260: 99fb f2bc ec48 533e 574c 513e eaed 963d
00000270: e96d 47bd 5735 40be 6b1b 4dbd 016c 79be
00000280: bb95 0f3e b096 bebd 4faf fa3d 733d 243e
00000290: 4bff 163e 2e1b e7bd 3dd1 a1be 5f72 d83d
000002a0: d3ee 2c3e c3d1 f5be 58de 2c3d 31bf 3a3c
000002b0: 4cfd 673c 6798 61be 558c 58be 909d bf3b
000002c0: b70a f23e 08eb e53e 143c b2be d3c6 88be
000002d0: 7240 8e3e 5a1e 353e 44e7 8dbe a30b bfbe
000002e0: f605 83b9 072b 2e3e dad8 f4bd 6247 cdbe
000002f0: f837 0f3f 3015 2ebe cc87 1ebe 802a 8b3d
00000300: 316d 0d3f 9541 8dbc cbd0 5a3e cade c5be
00000310: 63d2 7b3d c297 2e3e b68f 7cbe 2c40 a93d
00000320: a60c 533d 2fb1 b6bd 77a3 cf3d 01f0 bb3e
00000330: f53b afbe 5562 ea3c 62c4 67bd 6c2c 0e3f
00000340: afdd b43e 4aaf 123c eecc 4fbd 8b07 b0bd
00000350: 7cfb 553d 2ffe bd3e 724b debd b034 0fbf
00000360: cb07 033e ffa8 15bf 939a c6be 8cc8 8d3d
00000370: a196 5a3d 59ae e23d 590b f23d addf 46be
00000380: ce1e b83d 6ef1 a13c ff59 99be 4a20 0dbe
00000390: 53ff 9dbb b06a e0bd 0b01 ef3e 3f87 bd3e
000003a0: f516 c23e 37ca 733c 7420 943c d12e 1fbe
000003b0: 3adb 50be 5a78 8dbe f758 5dbe 46d7 c03e
000003c0: 23b4 323d fe56 08be c9a9 ce3d c46f e7bd
000003d0: bd4e e83e caf8 183d c348 9a3c e402 c43d
000003e0: ea15 603e f348 a8bd 9e3f 463e e1e0 febd
000003f0: cc52 e93d 2165 9b3e 43a6 9dbd 80e5 063d
0.053218853 0.110900775 -0.10750675 0.0093340995 0.06302398 -0.10003224 0.45791033 -0.25647262
0.3559022 -0.3398687 0.048498195 0.14889634 0.14238922 -0.2298644 0.07734101 -0.27092114
-0.33649248 0.116211586 -0.041731346 0.26758182 0.2671496 0.35799438 -0.30193073 -0.24178691
0.2527183 -0.15378785 0.19571757 0.12330047 -0.0735419 0.3017948 -0.28228602 -0.022075908
-0.15769584 -0.18803771 -0.4788473 0.34224036 0.075400196 -0.01177986 0.22261459 0.42381522
-0.21063894 0.4308207 -0.3022797 0.3487087 0.10343683 0.14970887 -0.25681344 -0.49902225
-0.05064569 -0.089603774 0.20535551 0.15197878 -0.37974748 -0.57054734 0.44261146 0.24038927
0.124361 -0.2143859 -0.39061412 -0.1448364 0.051770393 0.032644533 0.24081975 -0.18050894
0.66456634 0.05664973 0.094529405 -0.04825518 0.2679462 -0.287696 -0.20434222 -0.011914027
-0.32192868 -0.25069568 0.11131044 -0.18991432 -0.3132448 -0.2165178 0.3828693 -0.14929308
-0.09895449 -0.42460212 -0.07004943 0.005938706 0.06070928 -0.23086886 -0.22430259 0.10526339
-0.23165847 0.27968243 -0.24848755 -0.034584995 -0.029643198 0.25313354 0.0738745 0.30201742
0.22780862 -0.09885609 0.14155556 -0.38977796 -0.008907626 -0.002040411 -0.27465963 -0.043868087
-0.16844852 -0.08647876 0.27130175 -0.02990727 -0.23687732 0.21352342 0.018327383 0.10992253
-0.4760324 0.21664229 -0.31682202 -0.031943053 -0.48495263 0.21140394 0.25827283 0.44861057
-0.60763156 -0.12838042 -0.03817475 0.15991516 0.19751576 -0.35130852 -0.54291016 0.41464978
-0.2730575 -0.36205408 0.015889669 -0.17310745 0.3941668 0.20520937 0.36393344 -0.40746555
-0.15517728 -0.0757094 0.12508433 -0.28551993 0.042351894 0.11449341 0.077810764 -0.36908215
-0.109346196 -0.043151725 -0.47656924 -0.2690038 0.08408976 0.19035672 0.012132814 0.19686006
-0.029660987 0.20633286 0.20439278 0.07369597 -0.048688803 -0.18770348 -0.050074976 -0.24357606
0.14021961 -0.09306085 0.12240469 0.16039066 0.14745824 -0.11284481 -0.3160495 0.105686896
0.16887979 -0.48011598 0.04220423 0.011398123 0.014159512 -0.22030793 -0.21147282 0.0058476403
0.472738 0.44905877 -0.3481146 -0.2671419 0.27783543 0.1768736 -0.27715504 -0.37313566
-0.00024990708 0.17008601 -0.11955424 -0.40093523 0.55944777 -0.1700027 -0.1548149 0.067952156
0.5524474 -0.017243186 0.2136871 -0.38646537 0.061479937 0.17050079 -0.24664196 0.08264193
0.051525734 -0.08920514 0.101386 0.36706546 -0.3422543 0.028611341 -0.05658377 0.5553653
0.3532538 0.008952925 -0.050732546 -0.08595189 0.052241787 0.3710799 -0.10854234 -0.5593977
0.12795942 -0.5846099 -0.38789806 0.06923017 0.053366307 0.110684104 0.11818571 -0.19421263
0.089902505 0.019768443 -0.29951474 -0.13781849 -0.004821697 -0.10957849 0.46680483 0.37017247
0.3790814 0.014879755 0.018081881 -0.15545203 -0.20396128 -0.27630883 -0.21615969 0.3766424
0.043628823 -0.13314435 0.10090978 -0.113006145 0.45372573 0.03734664 0.018833524 0.09570864
0.2188336 -0.08217039 0.19360206 -0.12445236 0.113927454 0.30350593 -0.076977275 0.032933712

network_body._body_endoder.seq_layers.0.bias f4 [128]
00000000: 0000 0000 0000 0000 0000 0000 0000 0000
00000010: 0000 0000 0000 0000 0000 0000 0000 0000
00000020: 0000 0000 0000 0000 0000 0000 0000 0000
00000030: 0000 0000 0000 0000 0000 0000 0000 0000
00000040: 0000 0000 0000 0000 0000 0000 0000 0000
00000050: 0000 0000 0000 0000 0000 0000 0000 0000
00000060: 0000 0000 0000 0000 0000 0000 0000 0000
00000070: 0000 0000 0000 0000 0000 0000 0000 0000
00000080: 0000 0000 0000 0000 0000 0000 0000 0000
00000090: 0000 0000 0000 0000 0000 0000 0000 0000
000000a0: 0000 0000 0000 0000 0000 0000 0000 0000
000000b0: 0000 0000 0000 0000 0000 0000 0000 0000
000000c0: 0000 0000 0000 0000 0000 0000 0000 0000
000000d0: 0000 0000 0000 0000 0000 0000 0000 0000
000000e0: 0000 0000 0000 0000 0000 0000 0000 0000
000000f0: 0000 0000 0000 0000 0000 0000 0000 0000
00000100: 0000 0000 0000 0000 0000 0000 0000 0000
00000110: 0000 0000 0000 0000 0000 0000 0000 0000
00000120: 0000 0000 0000 0000 0000 0000 0000 0000
00000130: 0000 0000 0000 0000 0000 0000 0000 0000
00000140: 0000 0000 0000 0000 0000 0000 0000 0000
00000150: 0000 0000 0000 0000 0000 0000 0000 0000
00000160: 0000 0000 0000 0000 0000 0000 0000 0000
00000170: 0000 0000 0000 0000 0000 0000 0000 0000
00000180: 0000 0000 0000 0000 0000 0000 0000 0000
00000190: 0000 0000 0000 0000 0000 0000 0000 0000
000001a0: 0000 0000 0000 0000 0000 0000 0000 0000
000001b0: 0000 0000 0000 0000 0000 0000 0000 0000
000001c0: 0000 0000 0000 0000 0000 0000 0000 0000
000001d0: 0000 0000 0000 0000 0000 0000 0000 0000
000001e0: 0000 0000 0000 0000 0000 0000 0000 0000
000001f0: 0000 0000 0000 0000 0000 0000 0000 0000
0.0 0.0 0.0 0.0 0.0 0.0 0.0 0.0
0.0 0.0 0.0 0.0 0.0 0.0 0.0 0.0
0.0 0.0 0.0 0.0 0.0 0.0 0.0 0.0
0.0 0.0 0.0 0.0 0.0 0.0 0.0 0.0
0.0 0.0 0.0 0.0 0.0 0.0 0.0 0.0
0.0 0.0 0.0 0.0 0.0 0.0 0.0 0.0
0.0 0.0 0.0 0.0 0.0 0.0 0.0 0.0
0.0 0.0 0.0 0.0 0.0 0.0 0.0 0.0
0.0 0.0 0.0 0.0 0.0 0.0 0.0 0.0
0.0 0.0 0.0 0.0 0.0 0.0 0.0 0.0
0.0 0.0 0.0 0.0 0.0 0.0 0.0 0.0
0.0 0.0 0.0 0.0 0.0 0.0 0.0 0.0
0.0 0.0 0.0 0.0 0.0 0.0 0.0 0.0
0.0 0.0 0.0 0.0 0.0 0.0 0.0 0.0
0.0 0.0 0.0 0.0 0.0 0.0 0.0 0.0
0.0 0.0 0.0 0.0 0.0 0.0 0.0 0.0

network_body._body_endoder.seq_layers.2.weight f4 [128, 128]
00000000: 76b0 d73b 061d 41ba d56e 59bd f213 e93c
00000010: c6d4 5d3d 7416 10bd e104 5d3d 01ae 8b3d
00000020: 4806 dcbd 7d4c a2bc 1a39 56bb 7814 afbd
00000030: 4323 ba3d e86a 0b3e a785 f0bb 4579 be3c
00000040: 9487 b43d e22c a6bc 4d7a d9bc 24bf 863d
00000050: 2afe 68be 99b3 8e3d bb0b 07bd 03ac edbd
00000060: 56d0 8c3c e7fa cbbd 86e3 87bd b0e0 f2bc
00000070: 657c 713c 1916 4cbe 6cd0 b8bc f494 543c
00000080: c746 0c3e 025e c9bd 2bd2 1e3d 1d85 3dbd
00000090: f952 c7bd af6c 593d f7f0 853c 4c12 f63d
000000a0: e50b 4cbe 6e5c d63d e127 43be 966a 3c3d
000000b0: 3dea 29be eb42 efbd f10d 92be 4b61 6bbd
000000c0: e3cc d3bc 911e 3ebd 4891 403c 70fc 873d
000000d0: 632d 993d 236e 17be b223 bbbb d0a8 213d
000000e0: 6def 173d 5723 c13c 13a1 92bd 5551 803b
000000f0: 0583 c83d 1e88 243e 2e5d 29bd 27d3 4a3d
00000100: 49e6 b1bc c7a3 cd3d dcd1 b2bd 5077 20be
00000110: b5ed 86bd f55d 31be 7816 993d 4ef2 113e
00000120: 4774 d7bd 9053 d0bd c1ff d13d d905 0c3e
00000130: 8cb0 02be b4f1 de3c eab1 5f3b 36ff 97bd
00000140: 02d0 b1bd 5443 aebd 4e79 63bd 0b7d d23c
00000150: a9da 993d e485 aabd be9b 023d 3065 0a3d
00000160: a350 42bd 892d 983d 4f3d 85bd 9cd6 d4bd
00000170: 240a fabb 316e 013e a1ba c7bd 9e70 a83a
00000180: 7419 1bbe b5e3 6bbd feeb 543c 4e93 be3d
00000190: 33a2 e83c fef3 cebc 883b f3bc 743c ddbd
000001a0: 7c45 133d 3850 d2bd 850b b43d ab3c 5cbd
000001b0: 3f29 3cbd e69b 8c3d f127 983d 5b9d aebd
000001c0: 2bda 273c fe8f e03d 907a 74bd d7a4 c03a
000001d0: a628 a93d 7e01 e03d a59a a93d bf8d 5c3d
000001e0: 2736 bdbe 3609 e0bb f265 023e b356 1a3d
000001f0: 0be4 383d 249c 09be 35ba b23c 3b7f 843b
00000200: 08e5 053d 0c6d 823d a2e2 a63d b264 c3bc
00000210: 65f9 40be 8726 2ebd dfd8 883d bb54 81bd
00000220: 51ee de3d 2f90 b93c c5e6 55bd 902c ab3d
00000230: 0e0a 8c3c 74eb 213d 95da 89bd b53b 8cbc
00000240: da5d c4bc de94 13bd eef7 ac3d 4c76 d03b
00000250: bc03 3d3c 4c7c 303d a9a3 703e 024c 07bd
00000260: 3a62 f2bb 8813 42bd 67b9 a0bd aae2 7d39
00000270: 13d0 f7bc 66ab a7bc 3bce 8e3d c4d6 423d
00000280: 5d5a acbc b1f1 f13d 687c 30bb c636 2a3d
00000290: 37c4 2dbe a9ac 70bc 9551 1cbd 4637 013e
000002a0: e81c eabd a72f 933d 0bdd e5bd 9b02 67bc
000002b0: 943b aebd 525d 5e3d 1477 22be c512 13bd
000002c0: e990 7c3d 863e 12be 0c03 893d 3fcb 473e
000002d0: a4b0 c13d 7db9 6f3d f529 27be 364b 453d
000002e0: 3669 02bd eba3 843d cdfe 10bd 6a5d 273e
000002f0: 7e0b e03b 01bd 00bc d094 b1bc 8b40 70bc
00000300: 941d a0bd 11bf acbe 5a2e 663c 4653 223c
00000310: dd1d 903c 71f6 efbd 9319 933c be95 a23c
00000320: b1cc c0bc 8e7b 8ebc 9a25 8f3d 6dd3 b93d
00000330: 506b a63c 041a 423d 531a cfbd ea74 59bd
00000340: fa98 9f3d f216 5cbe 9d07 7bbd c018 0f3d
00000350: ec24 fe3d 2ca8 803d 05d8 ed3d 1735 04bc
00000360: fd9f 623d 5fcc e7bd 24e8 d13d 22a8 3a3d
00000370: 69b3 6c3d 6777 e3bd 01fb c03d 40cf 05bd
00000380: 9aed 0c3d fc10 66bd 43a0 983d 57db 1c3e
00000390: 0d5d 983d 4b99 db3c 8e2f 9d3d c9b0 44bd
000003a0: 4ac5 e93d 6ac2 e7bc 27ed f43d 119d 513d
000003b0: b5e7 323a 13e9 10be 8d68 673b ceb7 0abe
000003c0: 4f09 883d 0ea1 673d e176 07bd 711e c4bd
000003d0: 9308 893d 3c60 02bd bf51 dc3d b345 26be
000003e0: ac4d 73bd e3d0 efbc aa10 50bc 34a7 f23d
000003f0: 7e6e 7d39 d0e0 673d 20ba 543d dc99 1abd
0.006582315 -0.00073666906 -0.053084213 0.028451893 0.054157995 -0.035177663 0.05395973 0.06820298
-0.107433856 -0.019811863 -0.0032687844 -0.08548826 0.09088757 0.13615 -0.0073401514 0.023251185
0.08814922 -0.020285074 -0.026547575 0.06579426 -0.22753206 0.06967849 -0.03297017 -0.11605074
0.017189186 -0.09959965 -0.066351935 -0.029648155 0.014739131 -0.19930305 -0.02256032 0.012974966
0.13698874 -0.09832384 0.03877465 -0.046269525 -0.09732623 0.053082164 0.016350253 0.120152086
-0.19926412 0.10466848 -0.19058181 0.046000086 -0.16593261 -0.116826855 -0.2852626 -0.057465833
-0.025854534 -0.04641587 0.011753388 0.066399455 0.0747936 -0.14788108 -0.0057110423 0.039467633
0.03709357 0.023576422 -0.07159629 0.0039159455 0.09790615 0.1606755 -0.04134863 0.049517777
-0.021716254 0.10041004 -0.08731434 -0.15670514 -0.06588308 -0.17320998 0.07474989 0.14252588
-0.10520225 -0.10172188 0.10253859 0.13674106 -0.1276266 0.027214862 0.0034133145 -0.074217245
-0.086822525 -0.085089356 -0.055535607 0.02569439 0.07512409 -0.08326319 0.03188681 0.033787906
-0.047440182 0.0743056 -0.06505834 -0.10392496 -0.0076306034 0.12639691 -0.097523935 0.0012850945
-0.15146428 -0.057590205 0.012995718 0.0930544 0.028397655 -0.025262829 -0.029691473 -0.10802546
0.035954937 -0.10269207 0.0879126 -0.053768795 -0.045937773 0.06865673 0.07429493 -0.08526107
0.010244886 0.10964964 -0.059687197 0.0014697564 0.08259706 0.109377846 0.08281449 0.053846117
-0.36955377 -0.0068370355 0.12734202 0.03768034 0.045139354 -0.13438469 0.021817306 0.0040434874
0.032689124 0.06368455 0.081486955 -0.023851726 -0.18845136 -0.04251721 0.0668199 -0.06314989
0.10885299 0.02265176 -0.052222032 0.08358109 0.017094638 0.039531186 -0.06731144 -0.017118314
-0.023970533 -0.036030643 0.08445726 0.0063617583 0.011536535 0.04308729 0.23499931 -0.03303147
-0.0073969634 -0.047381908 -0.07847863 0.00024212399 -0.030250585 -0.020467471 0.06972929 0.047568098
-0.021039182 0.11813677 -0.002692962 0.041556142 -0.16969381 -0.014689603 -0.03816374 0.12618741
-0.11431295 0.07186823 -0.11223801 -0.014099742 -0.085074574 0.054288216 -0.15865737 -0.035906572
0.061661635 -0.14281663 0.06690034 0.19511126 0.0945752 0.058526505 -0.16324599 0.04816743
-0.03183862 0.06476577 -0.035399247 0.16344228 0.0068373075 -0.007857562 -0.021677405 -0.014663826
-0.078181416 -0.33739522 0.014049137 0.009907549 0.017592365 -0.11716927 0.01795653 0.019846793
-0.023535104 -0.0173929 0.06989594 0.090735294 0.020314842 0.04738809 -0.10112443 -0.053090014
0.0779285 -0.21493128 -0.061286557 0.034935713 0.12409386 0.06282076 0.11613468 -0.008069298
0.055328358 -0.113182776 0.102493554 0.0455705 0.057788286 -0.111067586 0.09422875 -0.032668352
0.034406282 -0.05616854 0.074524425 0.15318047 0.07439623 0.026806494 0.07675086 -0.048020158
0.11414583 -0.028290946 0.11959296 0.05117518 0.0006824688 -0.14151411 0.003531012 -0.13546678
0.066424005 0.056550078 -0.033072356 -0.09576119 0.066910885 -0.031830058 0.10757779 -0.16237526
-0.059400246 -0.02927441 -0.0126992855 0.11848298 0.00024169122 0.056610882 0.051935315 -0.037744388

network_body._body_endoder.seq_layers.2.bias f4 [128]
00000000: 0000 0000 0000 0000 0000 0000 0000 0000
00000010: 0000 0000 0000 0000 0000 0000 0000 0000
00000020: 0000 0000 0000 0000 0000 0000 0000 0000
00000030: 0000 0000 0000 0000 0000 0000 0000 0000
00000040: 0000 0000 0000 0000 0000 0000 0000 0000
00000050: 0000 0000 0000 0000 0000 0000 0000 0000
00000060: 0000 0000 0000 0000 0000 0000 0000 0000
00000070: 0000 0000 0000 0000 0000 0000 0000 0000
00000080: 0000 0000 0000 0000 0000 0000 0000 0000
00000090: 0000 0000 0000 0000 0000 0000 0000 0000
000000a0: 0000 0000 0000 0000 0000 0000 0000 0000
000000b0: 0000 0000 0000 0000 0000 0000 0000 0000
000000c0: 0000 0000 0000 0000 0000 0000 0000 0000
000000d0: 0000 0000 0000 0000 0000 0000 0000 0000
000000e0: 0000 0000 0000 0000 0000 0000 0000 0000
000000f0: 0000 0000 0000 0000 0000 0000 0000 0000
00000100: 0000 0000 0000 0000 0000 0000 0000 0000
00000110: 0000 0000 0000 0000 0000 0000 0000 0000
00000120: 0000 0000 0000 0000 0000 0000 0000 0000
00000130: 0000 0000 0000 0000 0000 0000 0000 0000
00000140: 0000 0000 0000 0000 0000 0000 0000 0000
00000150: 0000 0000 0000 0000 0000 0000 0000 0000
00000160: 0000 0000 0000 0000 0000 0000 0000 0000
00000170: 0000 0000 0000 0000 0000 0000 0000 0000
00000180: 0000 0000 0000 0000 0000 0000 0000 0000
00000190: 0000 0000 0000 0000 0000 0000 0000 0000
000001a0: 0000 0000 0000 0000 0000 0000 0000 0000
000001b0: 0000 0000 0000 0000 0000 0000 0000 0000
000001c0: 0000 0000 0000 0000 0000 0000 0000 0000
000001d0: 0000 0000 0000 0000 0000 0000 0000 0000
000001e0: 0000 0000 0000 0000 0000 0000 0000 0000
000001f0: 0000 0000 0000 0000 0000 0000 0000 0000
0.0 0.0 0.0 0.0 0.0 0.0 0.0 0.0
0.0 0.0 0.0 0.0 0.0 0.0 0.0 0.0
0.0 0.0 0.0 0.0 0.0 0.0 0.0 0.0
0.0 0.0 0.0 0.0 0.0 0.0 0.0 0.0
0.0 0.0 0.0 0.0 0.0 0.0 0.0 0.0
0.0 0.0 0.0 0.0 0.0 0.0 0.0 0.0
0.0 0.0 0.0 0.0 0.0 0.0 0.0 0.0
0.0 0.0 0.0 0.0 0.0 0.0 0.0 0.0
0.0 0.0 0.0 0.0 0.0 0.0 0.0 0.0
0.0 0.0 0.0 0.0 0.0 0.0 0.0 0.0
0.0 0.0 0.0 0.0 0.0 0.0 0.0 0.0
0.0 0.0 0.0 0.0 0.0 0.0 0.0 0.0
0.0 0.0 0.0 0.0 0.0 0.0 0.0 0.0
0.0 0.0 0.0 0.0 0.0 0.0 0.0 0.0
0.0 0.0 0.0 0.0 0.0 0.0 0.0 0.0
0.0 0.0 0.0 0.0 0.0 0.0 0.0 0.0

value_heads.value_heads.extrinsic.weight f4 [1, 128]
00000000: d3e1 c6bd 909e 96bd 08cb 213d f8a6 84bd
00000010: b064 42bc a0c8 2abe b8ae 2cbd 18f0 5c3d
00000020: 192d 57be 0281 313e fc17 4fbe 8040 373b
00000030: e261 b5bd 3a25 523e 005c 6cbb c0af 1d3d
00000040: 5a26 2f3e fde9 24be 70cb 263c d8ce c4bd
00000050: 740b 3b3e 3053 ce3c 30a7 67bc 9804 843d
00000060: 1888 00bd 2817 5dbd fcac e63d 3649 243e
00000070: 92bb 393e f224 413e a4c5 a6bd 7418 b63d
00000080: 0020 7fb8 c0f2 97bb 365e 563e e443 353e
00000090: c051 cabc d0dc 9dbd 2404 30be c041 f6bc
000000a0: 80c7 fe3b 58fe 773d c11d 5bbe 84ae 3ebe
000000b0: d1b2 f5bd 1c0a 583e 23c5 02be 247d c83d
000000c0: e4bb 7abd 60c8 d43d dced efbd c0cc 41bd
000000d0: 7c1e 1d3e a538 c4bd 8627 28be 422d 12be
000000e0: 5d03 03be 54c6 b6bd 2802 f73d 3c76 ca3d
000000f0: b00f 28be 68fd ce3d 2d6b 30be 20ee 4ebe
00000100: e032 653d 54de 063d defb 16be e4f9 033d
00000110: 4c0a 1d3e 8c25 883d 48dd 1fbd 4515 babd
00000120: 0850 9ebd 20f5 1bbe ccd8 b7bd 4a7b 3c3e
00000130: 10dc 213d 7c7f 6dbd defe 29be ae14 033e
00000140: 6cda 52bd 1c0b b9bd 7ff0 01be fccb b73d
00000150: 12f4 fabd 37f6 b9bd 80c8 283d 10dd aa3d
00000160: c4e6 453e 4072 17be 8070 cd3d baad 1fbe
00000170: 584f b43d 9ea9 3d3e 0612 2b3e 826f 13be
00000180: 34a4 af3d fc00 233e 2082 30be 55c1 edbd
00000190: a498 193e 848e 4abd 306b 1b3c 4624 5b3e
000001a0: 68f3 253e 3a06 4a3e 287c cc3d 2c60 e73d
000001b0: d036 2abd 1c1a 4dbe 7a21 273e f099 c1bc
000001c0: c00a 183e 90a8 013c 1c39 26be f0f6 74bd
000001d0: d4a1 b93d bda2 40be 44e8 64bd aac0 003e
000001e0: 5472 3cbd cc2b 2e3e bd4e 5bbe 28aa 5dbd
000001f0: 0893 c2bc b433 2dbd f4ab 1fbd 4079 c5bb
-0.09711041 -0.07354462 0.039500266 -0.06477159 -0.011864826 -0.16678095 -0.042158812 0.05393991
-0.21013297 0.17334369 -0.20223993 0.002796203 -0.0885656 0.20522013 -0.0036065578 0.038497686
0.17104474 -0.16104884 0.010180339 -0.09609765 0.18266088 0.025186151 -0.014138982 0.06446189
-0.03137979 -0.05397716 0.11263463 0.16043553 0.18137959 0.1886175 -0.08143166 0.08891383
-6.082654e-05 -0.0046370924 0.20934376 0.1770168 -0.024697185 -0.07708132 -0.1718908 -0.030060649
0.007775247 0.060545295 -0.21398069 -0.1862126 -0.11996997 0.21097606 -0.12770514 0.09789494
-0.061214343 0.10389781 -0.1171529 -0.047314405 0.1534366 -0.095811166 -0.16421327 -0.14275077
-0.12794252 -0.08924547 0.12060958 0.09885833 -0.16412234 0.10106927 -0.17228384 -0.20208025
0.05595672 0.032926872 -0.14744517 0.032220736 0.15335959 0.066477865 -0.03902939 -0.09086088
-0.077301085 -0.15230227 -0.089768976 0.18406406 0.03951651 -0.057982907 -0.1660113 0.12800857
-0.051477835 -0.09035322 -0.12689398 0.08974454 -0.12253584 -0.09080165 0.041206837 0.083429456
0.19326311 -0.14789677 0.10031223 -0.15593615 0.08804196 0.18521735 0.16706094 -0.14398006
0.08576241 0.15918344 -0.17237139 -0.11609141 0.14999634 -0.04945232 0.009486005 0.21400556
0.16206133 0.19728938 0.099846184 0.1129764 -0.04155618 -0.20029491 0.16321364 -0.023632973
0.14847851 0.007913724 -0.16232723 -0.05980581 0.090640694 -0.1881208 -0.05588557 0.12573496
-0.04600747 0.17008895 -0.21416755 -0.05411735 -0.02375175 -0.042285636 -0.038982347 -0.006026417
