results/ppo/BalanceBall1/BalanceBall1-1664.pt (torch, 147843 bytes, 11 tensors)

network_body._body_endoder.seq_layers.0.weight f4 [128, 4]
0.09080739 0.60944986 1.0261781 0.26848137 0.5855183 0.5824948 0.1789851 0.35072818
0.3522224 -0.2611278 0.76602435 -0.6486241 0.57321054 0.2914096 -0.43435648 0.32121247
-0.55087745 0.027174434 0.15544344 -1.3435488 1.1857984 -0.657079 -0.639951 -0.9881762
0.057925332 -0.5320447 0.6887839 -0.2735548 0.57524437 0.7845634 0.16892993 -0.47837594
0.12637194 -0.14700666 0.13291872 0.8284319 -0.40281793 0.2509676 -0.27879387 -0.66177523
0.13405852 -0.40315986 0.48684284 0.813878 0.0780636 0.04852081 0.47949076 -0.37403646
0.22117259 0.37969077 0.50026447 0.606245 -0.22481367 0.53318715 -0.23479448 0.17060198
-0.026909018 -0.39173475 -0.50508296 0.43416914 -0.37062612 1.2778374 0.24624288 1.0097898
-0.3590449 -0.08046907 -0.69257295 0.45238435 -0.3560994 -0.19563815 0.47980958 0.019594483
-0.630371 0.8757053 -0.031923268 0.09647383 0.35369268 -0.094606794 0.7266588 0.15968895
-0.084982514 -0.41887423 0.6090957 0.42144236 -0.4896031 -0.508656 0.39574352 0.67740595
0.04129122 0.24954541 -0.098458044 -0.5722766 0.2918742 -0.2137194 -0.7404776 -0.51392186
0.66785127 -0.112372376 0.4887121 -0.5986379 -0.22230518 -1.1372541 0.03540984 0.0855448
1.1964608 -0.0952465 -0.15764774 -0.28246137 0.23448765 -0.47373196 -0.78517795 0.36843908
0.06433355 -0.34414718 -1.205343 0.6193313 0.15175587 -0.36948702 -0.20588368 0.009801334
-0.29070058 -0.88031596 0.4662249 -0.12934269 0.5113203 0.026621744 -0.70713663 -0.07455112
0.013578281 0.27411935 0.19534093 0.34205377 -0.7914533 -1.0196595 -0.718315 -0.15535349
0.28382245 0.33196494 -0.74276745 0.721451 -0.020122917 -0.50390273 0.45999354 -0.55025613
-0.08750103 -0.27678066 0.0291445 0.42816302 0.43160212 -0.90424263 -0.4520732 0.12228527
0.06938801 0.5186436 0.49145767 0.22259909 -0.60343075 0.24037783 -0.7637485 -0.3859708
0.54258865 0.7199724 -0.74506974 -0.48259932 0.3710063 -0.2600759 -0.19070613 0.44849572
0.0021968426 0.055349257 0.16839403 -0.47125062 0.619095 -0.12906337 0.15905689 -0.039896198
-0.32760704 -0.35371208 -0.2948075 -0.33435583 0.076222055 -0.31276688 0.02296127 0.58745855
-0.22121306 -0.49375412 -0.6841056 -0.25845775 -0.6183008 -0.30721545 0.13584511 1.1300789
-0.2616665 -0.5916862 0.16874234 0.570672 0.3138996 -0.45902458 0.038398035 0.39204308
0.3256407 0.019551322 0.7166481 0.6717151 -0.07926325 -0.8255863 1.0459557 0.08163841
-0.28268263 0.1455581 0.74029726 0.20663814 -0.7321711 -0.091375396 0.3408113 0.22657324
-0.270334 -0.5444493 -0.9887137 -0.32641703 0.0783614 0.5798183 -0.35869905 0.4476659
0.18093188 -0.074733235 -1.0595745 -0.32684743 0.43437308 -0.578442 0.08297337 0.011315855
-0.1221484 -0.2802957 0.4478261 0.554813 0.8203302 -0.6173547 -0.2789074 0.40798998
-0.33989605 0.13995922 0.34201616 0.19103272 0.8445109 -0.7094934 0.020962114 0.73808277
-0.48549935 -0.38973606 -0.5737859 0.18963034 -0.83877146 0.24764179 0.37846223 -0.88304436
00000000: 3af9 b93d e804 1c3f ce59 833f 6476 893e
00000010: 87e4 153f 611e 153f df47 373e a592 b33e
00000020: 7f56 b43e 8bb2 85be 2c1a 443f 3b0c 26bf
00000030: edbd 123f a433 953e f963 debe f675 a43e
00000040: 4e06 0dbf eb9c de3c 912c 1f3e 68f9 abbf
00000050: 3ec8 973f 5436 28bf d4d3 23bf 1ef9 7cbf
00000060: 1d43 6d3d 1534 08bf 2454 303f 600f 8cbe
00000070: 3743 133f 26d9 483f f8fb 2c3e b1ed f4be
00000080: a567 013e ea88 16be d81b 083e 1d14 543f
00000090: 273e cebe d37e 803e 12be 8ebe 1a6a 29bf
000000a0: a346 093e f86a cebe 7743 f93e 4f5a 503f
000000b0: cfdf 9f3d c2bd 463d d07f f53e b581 bfbe
000000c0: 117b 623e d466 c23e 5511 003f df32 1b3f
000000d0: 8e35 66be f47e 083f f76d 70be 49b2 2e3e
000000e0: 4d70 dcbc 7591 c8be 1e4d 01bf 6b4b de3e
000000f0: b5c2 bdbe 2d90 a33f 1827 7c3e cb40 813f
00000100: bcd4 b7be f8cc a4bd 764c 31bf ec9e e73e
00000110: a952 b6be 5e55 48be 9aa9 f53e 9c84 a03c
00000120: fe5f 21bf 392e 603f f9c1 02bd 1294 c53d
00000130: 3517 b53e 35c1 c1bd 5006 3a3f 8085 233e
00000140: 500b aebd af76 d6be b2ed 1b3f 4bc7 d73e
00000150: 42ad fabe 4837 02bf e59e ca3e 7a6a 2d3f
00000160: fb20 293d d588 7f3e 5fa4 c9bd b880 12bf
00000170: 8970 953e 42d9 5abe f18f 3dbf 6290 03bf
00000180: 4df8 2a3f 7d23 e6bd 7938 fa3e 5540 19bf
00000190: f8a3 63be 8b91 91bf e909 113d 1d32 af3d
000001a0: a125 993f 9910 c3bd 696e 21be c79e 90be
000001b0: 881d 703e ff8c f2be 6c01 49bf 0ca4 bc3e
000001c0: 4fc1 833d 0f34 b0be ae48 9abf 7f8c 1e3f
000001d0: e465 1b3e 672d bdbe 2cd3 52be c695 203c
000001e0: b5d6 94be 635c 61bf 08b5 ee3e 6972 04be
000001f0: e3e5 023f d815 da3c e806 35bf 42ae 98bd
00000200: 7077 5e3c 5f59 8c3e 7407 483e ac21 af3e
00000210: af9c 4abf 3484 82bf 7ee3 37bf fc14 1fbe
00000220: 2d51 913e 4ff7 a93e 0226 3ebf 03b1 383f
00000230: d1d8 a4bc c5ff 00bf 4684 eb3e 96dd 0cbf
00000240: bd33 b3bd 32b6 8dbe 72c0 ee3c 2f38 db3e
00000250: f4fa dc3e 727c 67bf 2376 e7be b370 fa3d
00000260: 4d1b 8e3d d4c5 043f 57a0 fb3e 04f1 633e
00000270: 707a 1abf 9b25 763e 0685 43bf f79d c5be
00000280: 17e7 0a3f 1c50 383f e4bc 3ebf 4217 f7be
00000290: 8af4 bd3e ab28 85be 7848 43be 3ba1 e53e
000002a0: e7f8 0f3b e7b5 623d 7c6f 2c3e c347 f1be
000002b0: 037d 1e3f 3029 04be cfdf 223e 326a 23bd
000002c0: 1cbc a7be c019 b5be 02f1 96be b030 abbe
000002d0: 4f1a 9c3d fb22 a0be 4619 bc3c af63 163f
000002e0: ad85 62be 57cd fcbe 8b21 2fbf 9354 84be
000002f0: f648 1ebf 584b 9dbe fb1a 0b3e 6da6 903f
00000300: 27f9 85be bf78 17bf cbca 2c3e 8f17 123f
00000310: 73b7 a03e 4505 ebbe 4247 1d3d dfb9 c83e
00000320: 61ba a63e 182a a03c 4076 373f 85f5 2b3f
00000330: c554 a2bd a059 53bf e0e1 853f 0a32 a73d
00000340: c7bb 90be 2f0d 153e 1f84 3d3f f398 533e
00000350: 916f 3bbf 0623 bbbd d27e ae3e d102 683e
00000360: 3869 8abe 0861 0bbf 571c 7dbf 2220 a7be
00000370: f17b a03d f96e 143f 67a7 b7be 7734 e53e
00000380: 3546 393e bd0d 99bd 23a0 87bf 8c58 a7be
00000390: 2666 de3e c614 14bf f1ed a93d 2366 393c
000003a0: f128 fabd eb82 8fbe 7649 e53e 3a08 0e3f
000003b0: 2901 523f f50a 1ebf f3cc 8ebe 10e4 d03e
000003c0: db06 aebe 7851 0f3e be1c af3e 159e 433e
000003d0: de31 583f 5ca1 35bf bdb8 ab3c fef2 3c3f
000003e0: 5f93 f8be 7c8b c7be a2e3 12bf 752e 423e
000003f0: bab9 56bf cf95 7d3e cdc5 c13e 320f 62bf

network_body._body_endoder.seq_layers.0.bias f4 [128]
0.0 0.0 0.0 0.0 0.0 0.0 0.0 0.0
0.0 0.0 0.0 0.0 0.0 0.0 0.0 0.0
0.0 0.0 0.0 0.0 0.0 0.0 0.0 0.0
0.0 0.0 0.0 0.0 0.0 0.0 0.0 0.0
0.0 0.0 0.0 0.0 0.0 0.0 0.0 0.0
0.0 0.0 0.0 0.0 0.0 0.0 0.0 0.0
0.0 0.0 0.0 0.0 0.0 0.0 0.0 0.0
0.0 0.0 0.0 0.0 0.0 0.0 0.0 0.0
0.0 0.0 0.0 0.0 0.0 0.0 0.0 0.0
0.0 0.0 0.0 0.0 0.0 0.0 0.0 0.0
0.0 0.0 0.0 0.0 0.0 0.0 0.0 0.0
0.0 0.0 0.0 0.0 0.0 0.0 0.0 0.0
0.0 0.0 0.0 0.0 0.0 0.0 0.0 0.0
0.0 0.0 0.0 0.0 0.0 0.0 0.0 0.0
0.0 0.0 0.0 0.0 0.0 0.0 0.0 0.0
0.0 0.0 0.0 0.0 0.0 0.0 0.0 0.0
00000000: 0000 0000 0000 0000 0000 0000 0000 0000
00000010: 0000 0000 0000 0000 0000 0000 0000 0000
00000020: 0000 0000 0000 0000 0000 0000 0000 0000
00000030: 0000 0000 0000 0000 0000 0000 0000 0000
00000040: 0000 0000 0000 0000 0000 0000 0000 0000
00000050: 0000 0000 0000 0000 0000 0000 0000 0000
00000060: 0000 0000 0000 0000 0000 0000 0000 0000
00000070: 0000 0000 0000 0000 0000 0000 0000 0000
00000080: 0000 0000 0000 0000 0000 0000 0000 0000
00000090: 0000 0000 0000 0000 0000 0000 0000 0000
000000a0: 0000 0000 0000 0000 0000 0000 0000 0000
000000b0: 0000 0000 0000 0000 0000 0000 0000 0000
000000c0: 0000 0000 0000 0000 0000 0000 0000 0000
000000d0: 0000 0000 0000 0000 0000 0000 0000 0000
000000e0: 0000 0000 0000 0000 0000 0000 0000 0000
000000f0: 0000 0000 0000 0000 0000 0000 0000 0000
00000100: 0000 0000 0000 0000 0000 0000 0000 0000
00000110: 0000 0000 0000 0000 0000 0000 0000 0000
00000120: 0000 0000 0000 0000 0000 0000 0000 0000
00000130: 0000 0000 0000 0000 0000 0000 0000 0000
00000140: 0000 0000 0000 0000 0000 0000 0000 0000
00000150: 0000 0000 0000 0000 0000 0000 0000 0000
00000160: 0000 0000 0000 0000 0000 0000 0000 0000
00000170: 0000 0000 0000 0000 0000 0000 0000 0000
00000180: 0000 0000 0000 0000 0000 0000 0000 0000
00000190: 0000 0000 0000 0000 0000 0000 0000 0000
000001a0: 0000 0000 0000 0000 0000 0000 0000 0000
000001b0: 0000 0000 0000 0000 0000 0000 0000 0000
000001c0: 0000 0000 0000 0000 0000 0000 0000 0000
000001d0: 0000 0000 0000 0000 0000 0000 0000 0000
000001e0: 0000 0000 0000 0000 0000 0000 0000 0000
000001f0: 0000 0000 0000 0000 0000 0000 0000 0000

network_body._body_endoder.seq_layers.2.weight f4 [128, 128]
0.08669102 0.042287484 -0.04533823 -0.0050370647 -0.118325956 0.111585476 0.06323252 -0.03397407
0.08664695 0.04923469 -0.012968045 0.09017433 -0.007823403 0.02454098 -0.07432776 0.11366098
0.10972567 0.0020849342 0.01597762 0.05136455 0.0012016986 0.054032598 -0.072191246 -0.1526586
0.212947 -0.04959426 0.0021368416 -0.030100597 0.03864724 0.043631345 -0.015265558 0.18910743
-0.013067516 0.12315483 -0.09871436 -0.013344671 0.09426818 0.0035596585 0.05576495 -0.11747111
0.053772602 0.046165172 -0.034360107 0.17829788 0.12319919 -0.063390955 -0.03974524 -0.042030744
-0.18292686 -0.008565191 -0.045286357 0.08846071 0.013366728 -0.020730555 0.04771079 0.08627355
-0.09312038 0.01367584 -0.10592819 -0.05988228 0.13126329 -0.06419031 -0.0468762 -0.03048361
-0.18679976 0.020990115 -0.07419006 0.11075966 -0.053572875 -0.031625085 0.08482473 0.034085993
-0.03863095 -0.02451869 -0.03318622 -0.11235556 -0.071820915 -0.03755954 -0.030608153 -0.103142135
0.09069801 0.1619015 0.01337806 0.14391053 0.06695638 -0.030777719 -0.053233773 -0.15947668
0.0852041 0.14497936 0.095335715 -0.01349837 0.021825975 0.024687074 0.013648008 -0.013863724
0.03947683 0.18262322 -0.019885726 -0.05196432 0.11401502 -0.02986124 0.12517995 0.06143525
-0.056904897 0.07205331 0.012760347 0.108539395 -0.0052949567 -0.15502465 -0.10471968 0.04347274
-0.04737392 -0.08890723 -0.06828154 -0.14294152 0.0069385506 0.010389554 -0.044412788 0.22089696
0.15976922 -0.0044503263 0.025691818 -0.24541011 -0.010147099 -0.027357252 0.040124338 0.027507119
-0.016977316 0.02848504 -0.005354947 0.0764661 -0.077830456 -0.0969715 0.09964165 0.0017768941
0.111835115 -0.016612273 -0.09661932 0.05140352 0.19329946 0.013618585 0.12927173 0.07213826
-0.07965201 0.11200517 0.030974016 -0.08858592 -0.17292261 -0.15081927 0.13267271 0.055197194
-0.11193868 0.09597595 0.06334558 0.056030255 0.15296787 0.12945408 -0.14132845 -0.0326881
-0.030353604 0.12870613 -0.039530236 -0.14197241 -0.017748082 -0.06895709 0.024064064 -0.019552832
0.006824699 0.0014477405 0.21911609 0.027095415 0.1631808 0.08757738 -0.07120916 0.018890958
-0.056895707 -0.027248366 -0.012680028 0.093278244 -0.013166577 -0.07344445 0.023129923 0.20554312
0.26658037 0.008785063 -0.10263104 -0.010734658 -0.096378185 0.15126789 0.036538836 -0.018536832
0.020592315 0.09603073 -0.12784848 0.0069639427 0.062762246 0.1319645 -0.05125779 -0.052836396
0.19602695 -0.07110819 0.06861716 -0.096203186 0.023014244 0.06132479 -0.0240839 -0.032915145
0.10907402 0.025890002 0.011389049 -0.020025272 -0.03921315 -0.009434802 -0.14270811 -0.010679124
-0.041346863 0.10383554 -0.04210329 -0.010962464 0.02607167 -0.089940764 0.0420657 -0.08935742
0.057952296 0.024636 0.0124489395 0.09842357 0.054976728 -0.052162673 -0.037888408 -0.07922671
0.07860526 -0.055591777 -0.014647017 -0.0015136128 0.058771014 -0.020019274 -0.00020965932 -0.019897245
-0.08893269 -0.029362213 -0.044284727 0.01510188 0.011497157 -0.022866735 0.080307044 0.0037900654
0.076590955 -0.14658698 0.012255767 0.08600824 0.008861057 -0.013980979 0.0044202087 -0.001785399
00000000: 108b b13d a435 2d3d 94b4 39bd f60d a5bb
00000010: e154 f2bd ed86 e43d 0d80 813d 6528 0bbd
00000020: f573 b13d 50aa 493d ec77 54bc 52ad b83d
00000030: bb2d 00bc 2a0a c93c 2739 98bd 16c7 e83d
00000040: dab7 e03d 64a3 083b 7fe3 823c a263 523d
00000050: 5082 9d3a 4951 5d3d 01d9 93bd 8952 1cbe
00000060: c70e 5a3e 5a23 4bbd 410a 0c3b 8795 f6bc
00000070: 914c 1e3d c8b6 323d 641c 7abc 61a5 413e
00000080: 2219 56bc 9938 fc3d c12a cabd 9ba3 5abc
00000090: ad0f c13d 2949 693b ca69 643d b194 f0bd
000000a0: a940 5c3d b117 3d3d 2fbd 0cbd b893 363e
000000b0: db4f fc3d 1ed3 81bd e8cb 22bd 6e28 2cbd
000000c0: 2e51 3bbe 0455 0cbc 307e 39bd e42a b53d
000000d0: 1f00 5b3c 20d3 a9bc 646c 433d 30b0 b03d
000000e0: e6b5 bebd a110 603c e1f0 d8bd 1f47 75bd
000000f0: e269 063e 3676 83bd 4201 40bd c4b8 f9bc
00000100: 7048 3fbe 76f3 ab3c f5f0 97bd f6d5 e23d
00000110: 3b6f 5bbd 4e89 01bd 97b8 ad3d c19d 0b3d
00000120: 7d3b 1ebd 6bdb c8bc 46ee 07bd ac1a e6bd
00000130: d816 93bd 08d8 19bd f3bd fabc 2f3c d3bd
00000140: e1bf b93d 82c9 253e a72f 5b3c 485d 133e
00000150: 6d20 893d 8e21 fcbc a80b 5abd db4d 23be
00000160: 7d7f ae3d 7875 143e 5f3f c33d 4428 5dbc
00000170: 63cc b23c 8c3c ca3c e59b 5f3c ac24 63bc
00000180: 75b2 213d 9501 3b3e 64e7 a2bc 8ad8 54bd
00000190: b580 e93d 8f9f f4bc 2c2f 003e 87a3 7b3d
000001a0: 1c15 69bd b090 933d c610 513c e749 de3d
000001b0: 5181 adbb c8be 1ebe 4677 d6bd 7910 323d
000001c0: 280b 42bd fe14 b6bd 31d7 8bbd 435f 12be
000001d0: c85c e33b f338 2a3c 2fea 35bd d032 623e
000001e0: 8b9a 233e 0bd4 91bb a677 d23c ca4c 7bbe
000001f0: 0540 26bc 511c e0bc 6b59 243d 9c56 e13c
00000200: 0314 8bbc 7559 e93c 8d78 afbb 429a 9c3d
00000210: 9365 9fbd fe98 c6bd ec10 cc3d ace6 e83a
00000220: cf09 e53d 7616 88bc 5ae0 c5bd 7f8c 523d
00000230: 4bf0 453e 7c20 5f3c cf5f 043e 39bd 933d
00000240: 9820 a3bd f762 e53d 38bd fd3c 896c b5bd
00000250: a012 31be 5e70 1abe 5bdb 073e 7416 623d
00000260: 1b40 e5bd 0a8f c43d 54bb 813d fb7f 653d
00000270: 9ca3 1c3e 9c8f 043e 68b8 10be f5e3 05bd
00000280: 1fa8 f8bc 8acb 033e 75ea 21bd 3761 11be
00000290: 6d64 91bc 6039 8dbd 0022 c53c 432d a0bc
000002a0: baa1 df3b 1cc2 bd3a f85f 603e 34f7 dd3c
000002b0: de18 273e c55b b33d 1cd6 91bd 36c1 9a3c
000002c0: 790b 69bd f737 dfbc e4bf 4fbc aa08 bf3d
000002d0: a0b8 57bc 0b6a 96bd f77a bd3c e579 523e
000002e0: 397d 883e 3aef 0f3c 3930 d2bd 6be0 2fbc
000002f0: ed61 c5bd f8e5 1a3e bfa9 153d 8eda 97bc
00000300: 37b1 a83c c2ab c43d b6ea 02be c931 e43b
00000310: 7e89 803d b421 073e b0f3 51bd fa6a 58bd
00000320: 4abb 483e 2ca1 91bd 2787 8c3d 2d06 c5bd
00000330: 5e88 bc3c b42f 7b3d 994b c5bc 08d2 06bd
00000340: 3362 df3d 4517 d43c 2299 3a3c 0a0c a4bc
00000350: f89d 20bd 6e94 1abc 1322 12be 7ef7 2ebc
00000360: 545b 29bd baa7 d43d 8074 2cbd e89b 33bc
00000370: 4194 d53c dd32 b8bd 154d 2c3d 0601 b7bd
00000380: 635f 6d3d 70d1 c93c a3f6 4b3c 4c92 c93d
00000390: 472f 613d 87a8 55bd e030 1bbd 9d41 a2bd
000003a0: cbfb a03d 34b4 63bd 0bfa 6fbc 6b64 c6ba
000003b0: e0b9 703d 76ff a3bc ffd7 5bb9 8cff a2bc
000003c0: 5822 b6bd 0689 f0bc e763 35bd e06d 773c
000003d0: 925e 3c3c 0553 bbbc 0578 a43d bf62 783b
000003e0: b8db 9c3d e61a 16be 6acc 483c 1725 b03d
000003f0: f82d 113c 7a10 65bc 66d7 903b 0d04 eaba

network_body._body_endoder.seq_layers.2.bias f4 [128]
0.0 0.0 0.0 0.0 0.0 0.0 0.0 0.0
0.0 0.0 0.0 0.0 0.0 0.0 0.0 0.0
0.0 0.0 0.0 0.0 0.0 0.0 0.0 0.0
0.0 0.0 0.0 0.0 0.0 0.0 0.0 0.0
0.0 0.0 0.0 0.0 0.0 0.0 0.0 0.0
0.0 0.0 0.0 0.0 0.0 0.0 0.0 0.0
0.0 0.0 0.0 0.0 0.0 0.0 0.0 0.0
0.0 0.0 0.0 0.0 0.0 0.0 0.0 0.0
0.0 0.0 0.0 0.0 0.0 0.0 0.0 0.0
0.0 0.0 0.0 0.0 0.0 0.0 0.0 0.0
0.0 0.0 0.0 0.0 0.0 0.0 0.0 0.0
0.0 0.0 0.0 0.0 0.0 0.0 0.0 0.0
0.0 0.0 0.0 0.0 0.0 0.0 0.0 0.0
0.0 0.0 0.0 0.0 0.0 0.0 0.0 0.0
0.0 0.0 0.0 0.0 0.0 0.0 0.0 0.0
0.0 0.0 0.0 0.0 0.0 0.0 0.0 0.0
00000000: 0000 0000 0000 0000 0000 0000 0000 0000
00000010: 0000 0000 0000 0000 0000 0000 0000 0000
00000020: 0000 0000 0000 0000 0000 0000 0000 0000
00000030: 0000 0000 0000 0000 0000 0000 0000 0000
00000040: 0000 0000 0000 0000 0000 0000 0000 0000
00000050: 0000 0000 0000 0000 0000 0000 0000 0000
00000060: 0000 0000 0000 0000 0000 0000 0000 0000
00000070: 0000 0000 0000 0000 0000 0000 0000 0000
00000080: 0000 0000 0000 0000 0000 0000 0000 0000
00000090: 0000 0000 0000 0000 0000 0000 0000 0000
000000a0: 0000 0000 0000 0000 0000 0000 0000 0000
000000b0: 0000 0000 0000 0000 0000 0000 0000 0000
000000c0: 0000 0000 0000 0000 0000 0000 0000 0000
000000d0: 0000 0000 0000 0000 0000 0000 0000 0000
000000e0: 0000 0000 0000 0000 0000 0000 0000 0000
000000f0: 0000 0000 0000 0000 0000 0000 0000 0000
00000100: 0000 0000 0000 0000 0000 0000 0000 0000
00000110: 0000 0000 0000 0000 0000 0000 0000 0000
00000120: 0000 0000 0000 0000 0000 0000 0000 0000
00000130: 0000 0000 0000 0000 0000 0000 0000 0000
00000140: 0000 0000 0000 0000 0000 0000 0000 0000
00000150: 0000 0000 0000 0000 0000 0000 0000 0000
00000160: 0000 0000 0000 0000 0000 0000 0000 0000
00000170: 0000 0000 0000 0000 0000 0000 0000 0000
00000180: 0000 0000 0000 0000 0000 0000 0000 0000
00000190: 0000 0000 0000 0000 0000 0000 0000 0000
000001a0: 0000 0000 0000 0000 0000 0000 0000 0000
000001b0: 0000 0000 0000 0000 0000 0000 0000 0000
000001c0: 0000 0000 0000 0000 0000 0000 0000 0000
000001d0: 0000 0000 0000 0000 0000 0000 0000 0000
000001e0: 0000 0000 0000 0000 0000 0000 0000 0000
000001f0: 0000 0000 0000 0000 0000 0000 0000 0000

action_model._discrete_distribution.branches.0.weight f4 [3, 128]
0.013536229 -0.0019427602 0.0043762214 -0.0041413847 0.0010652109 -0.01035403 0.008340394 -0.002385012
0.0011720851 0.0064059743 0.0022336 0.00012304696 -0.009655436 0.009388265 -0.011676133 -0.0024665908
0.01303678 -0.0009619719 -0.004107534 -0.004097626 0.0020674074 0.003747667 -0.0034707517 0.0066402294
-0.0014011535 -0.006241071 -0.0027412886 0.010348379 -0.0059481203 -0.0036117334 0.0038463552 -0.0064262236
-0.0025754466 0.007376769 0.006705136 0.0002803149 0.008244846 0.013900262 -0.002495817 0.0006553987
-0.001039814 -0.005527819 0.010870005 -0.012576285 0.011346643 -0.00030879476 -0.013746925 -0.0022140443
0.006733106 -0.008656122 0.0005595529 4.6417343e-05 -0.0021194883 0.0059817354 -0.006390791 -0.0032462056
-0.0011050118 0.016574562 1.3954954e-05 0.010269491 -0.0049060592 0.0039013028 0.008816523 0.008273581
-0.002264545 -0.006808965 0.0030544482 0.004755232 0.0019560622 0.004346643 -0.0024686593 -0.0130524235
0.003976581 0.00089626777 -0.0012116991 0.0051606996 0.0035954134 -0.0031206084 -0.011834595 -0.0009934893
0.0045070676 -0.007874003 0.013814886 0.023532335 0.010157713 -0.0032261794 0.0020651973 0.014131029
-0.015170342 -0.004218617 0.0029121279 -0.0074248114 -0.007273916 -0.0030080588 -0.01123436 -0.008118088
-3.792765e-05 -0.014540193 -0.0002721232 -0.019820042 -0.007339123 -0.018285817 0.0107770795 0.002183877
0.014687873 0.0026225522 0.009454823 -0.007068255 -0.0032429819 -0.0033674308 -0.004292839 -0.014550137
0.0034745198 0.00945834 -0.0016768735 -0.0069145034 -0.0039542196 -0.008091153 0.005047195 0.019141596
0.005515065 -0.011251492 0.00020883286 0.0062616854 -0.0011917738 0.009129926 0.007592052 -0.007850586
0.011843025 0.006382048 0.014556614 -0.0056329328 -0.015304699 -0.01358379 -0.00914661 0.015718257
0.0023786712 0.011432211 0.011475666 -0.010624882 -0.028050562 0.015297352 -0.0060345787 -0.0035891419
0.0021072999 0.000567466 0.006890022 0.0058833165 0.008176471 0.010624076 0.014933231 -0.009472404
-0.012336264 -0.017291961 -0.00087838323 -0.01244416 -0.0033785996 -0.013354294 0.0057884897 0.0002134877
-0.0024925515 -0.007093772 0.00534777 0.00014476843 0.0027224848 0.010576738 -0.0038148784 -0.009162873
0.0047746547 -0.0074618324 0.0025325331 0.012131273 -0.005378143 0.007892023 -0.007983088 0.008654745
-0.014549712 0.00876081 -0.014713438 0.0065250355 0.0012183021 -0.006729563 0.007788846 0.005718886
0.010726957 -0.002820529 0.011663664 0.004668887 -0.0047801374 0.0004977293 -0.0019276271 0.017370706
-0.0043722354 0.00637567 -0.007207412 0.0012247271 -0.0012752459 0.007601528 -0.021986816 -0.004153099
-0.008409104 0.00011665618 0.0020030474 -0.0049420665 -0.004625426 -0.009101808 0.007728188 -0.005881513
-0.0022264603 -0.00016680038 -0.0036625774 -0.02235825 0.012443847 0.006349101 -0.003504603 -0.007891339
0.002066585 0.008319948 0.014362911 0.012198934 0.0038696702 -0.012101191 0.004142209 0.0002365636
-0.0094358465 0.010067975 -0.004388819 -0.004146436 -0.0053426684 -0.0043063755 -0.007907315 0.011250912
0.0011698011 -0.0040076836 0.0077026538 0.005440747 0.001044441 -0.0073208646 -0.0070901993 0.0026184171
-0.0027572417 -0.0055414843 -0.0010234081 0.003891499 0.010614592 -0.0061577186 0.006180176 -0.01405216
-0.005730647 -0.013031377 -0.0069397925 -0.008965835 -0.013191809 0.0005341946 -0.011646735 -0.007843116
00000000: 0fc7 5d3c 37a4 feba 6866 8f3b 74b4 87bb
00000010: 8c9e 8b3a f3a3 29bc 26a6 083c dd4d 1cbb
00000020: a6a0 993a 35e9 d13b 9761 123b 2b06 0139
00000030: d531 1ebc 3dd1 193c 404d 3fbc 87a6 21bb
00000040: 3898 553c d72c 7cba 7e98 86bb 6145 86bb
00000050: 577d 073b 6b9b 753b 8d75 63bb 4896 d93b
00000060: e9a6 b7ba e681 ccbb 31a7 33bb 3f8c 293c
00000070: 73e8 c2bb d5b2 6cbb 2213 7c3b 1293 d2bb
00000080: d3c8 28bb d3b8 f13b c2b6 db3b 3bf7 9239
00000090: 6415 073c edbd 633c dc90 23bb 10cf 2b3a
000000a0: 5e4a 88ba b522 b5bb 1b18 323c c30c 4ebc
000000b0: 45e7 393c bbe5 a1b9 c83a 61bc 8019 11bb
000000c0: 63a1 dc3b 68d2 0dbc f6ae 123a 3eb0 4238
000000d0: 1de7 0abb 6f02 c43b d769 d1bb 4bbe 54bb
000000e0: 0bd6 90ba 60c7 873c 1220 6a37 5e41 283c
000000f0: 02c3 a0bb 00ad 7f3b 2d73 103c ea8d 073c
00000100: c368 14bb bd1d dfbb 232d 483b c7d1 9b3b
00000110: 4731 003b 496e 8e3b 3bc9 21bb d5d9 55bc
00000120: fb4d 823b 83f3 6a3a e0d1 9eba 161b a93b
00000130: 07a1 6b3b 1f83 4cbb e4e5 41bc f837 82ba
00000140: 06b0 933b f601 01bc d557 623c e2c6 c03c
00000150: 896c 263c 4f6e 53bb 4358 073b d585 673c
00000160: 078d 78bc 533c 8abb 66d9 3e3b d54b f3bb
00000170: 085a eebb da22 45bb 5210 38bc bb01 05bc
00000180: 8114 1fb8 fd39 6ebc c2ab 8eb9 a45d a2bc
00000190: 077d f0bb 23cc 95bc 5992 303c 601f 0f3b
000001a0: 68a5 703c 20df 2b3b 67e8 1a3c d29c e7bb
000001b0: 3588 54bb 1db0 5cbb f2aa 8cbb b363 6ebc
000001c0: c5b4 633b 27f7 1a3c 8aca dbba 0f93 e2bb
000001d0: 6692 81bb c190 04bc f162 a53b d6ce 9c3c
000001e0: b8b7 b43b 2e58 38bc 25fa 5a39 d32e cd3b
000001f0: 4b35 9cba af95 153c c0c6 f83b bf9f 00bc
00000200: 3f09 423c 8020 d13b dd7e 6e3c 7794 b8bb
00000210: 8fc0 7abc 8b8e 5ebc aadb 15bc 93c3 803c
00000220: 7be3 1b3b 2b4e 3b3c 6f04 3c3c fc13 2ebc
00000230: 4bca e5bc bfa1 7a3c b7bd c5bb cf37 6bbb
00000240: a01a 0a3b 00c2 143a b2c5 e13b d6c8 c03b
00000250: 9bf6 053c 9b10 2e3c 83aa 743c 2432 1bbc
00000260: 0b1e 4abc dfa7 8dbc 4d43 66ba 97e2 4bbc
00000270: 7f6b 5dbb f8cb 5abc 5fad bd3b abdb 5f39
00000280: 135a 23bb df72 e8bb 593c af3b fbcc 1739
00000290: b76b 323b 0e4a 2d3c 0a03 7abb e01f 16bc
000002a0: b574 9c3b 6382 f4bb dbf8 253b 3fc2 463c
000002b0: 223b b0bb 8b4d 013c 7fcb 02bc a2cc 0d3c
000002c0: ea61 6ebc 8089 0f3c a210 71bc f7cf d53b
000002d0: 6faf 9f3a ab83 dcbb 9339 ff3b 7e65 bb3b
000002e0: 1ec0 2f3c a0d8 38bb f418 3f3c 76fd 983b
000002f0: b3a2 9cbb 0c7a 023a 6fa8 fcba 034d 8e3c
00000300: f844 8fbb ffea d03b 272c ecbb 0687 a03a
00000310: 2726 a7ba 3d16 f93b b21d b4bc b816 88bb
00000320: 57c6 09bc 4fa5 f438 8f45 033b 0ff1 a1bb
00000330: e390 97bb c01f 15bc bd3c fd3b b5b9 c0bb
00000340: cee9 11bb 23e7 2eb9 da07 70bb a628 b7bc
00000350: 47e1 4b3c 1f0c d03b 7bad 65bb ad4a 01bc
00000360: 8b6f 073b 6450 083c 6a52 6b3c 0ade 473c
00000370: 4b9a 7d3b 1344 46bc 5ebb 873b 0f0e 7839
00000380: cf98 1abc 26f4 243c 15d0 8fbb d4de 87bb
00000390: 8d11 afbb 7f1c 8dbb af8d 01bc bf55 383c
000003a0: 0354 993a e352 83bb 8b66 fc3b 4b48 b23b
000003b0: a0e5 883a dde3 efbb e754 e8bb c099 2b3b
000003c0: d7b2 34bb 5795 b5bb e123 86ba 8508 7f3b
000003d0: d3e8 2d3c b0c6 c9bb 1383 ca3b 083b 66bc
000003e0: 27c8 bbbb 8f81 55bc 3367 e3bb 70e5 12bc
000003f0: 7522 58bc 3109 0c3a f2d1 3ebc 6a80 00bc

action_model._discrete_distribution.branches.0.bias f4 [3]
0.0 0.0 0.0
00000000: 0000 0000 0000 0000 0000 0000

network_body._body_endoder.seq_layers.0.weight f4 [128, 4]
1.0256131 0.30001783 0.20824258 0.9383233 0.2551751 -0.7603806 0.44215277 0.25569263
-0.056855295 -0.33182344 0.68769073 -0.3568963 0.17336814 0.40394887 0.22198558 -0.33757737
0.7757177 0.014598633 0.6436522 -0.011248676 0.4140644 0.113680944 -0.8227026 -0.014126543
0.40956637 -0.76279676 -0.15972824 0.665699 -1.0483912 -0.2185339 1.0914111 0.2802866
0.38039 -0.040325694 -0.29569697 -0.539964 -0.54069585 -0.29471883 0.36785692 -0.15617742
0.5727873 -0.68788075 0.015399082 0.2957487 -0.13440725 -0.3809401 0.6123444 -0.49766114
-0.123109646 -0.019740734 0.47928995 0.25167477 0.035758883 0.33799547 -0.45127147 0.33140904
0.8811056 -0.08259657 -0.2883546 -0.2866973 -0.56996673 -0.018266514 0.25543025 0.46949425
-0.21660352 -0.34710246 0.117406026 0.45426294 -0.8678743 -0.059886664 0.06682237 0.4815182
0.66437155 -0.08972437 -0.06806434 0.4917039 -0.00072718365 -0.3634557 -0.33132872 -0.06209971
0.31963232 0.053666558 0.15537015 0.8444113 -0.94961447 0.35754436 0.094188675 0.10117938
-0.13856089 -0.31209493 -0.17177394 0.07690499 0.007036057 -0.2805077 -0.56017745 -0.3668675
0.68448967 0.3286748 0.7570375 -0.7044763 -0.1139258 -0.22484931 0.084567815 -0.735212
0.23918547 0.13306017 0.1575848 0.00717612 -1.579053 -0.27801448 -0.6633474 -0.32942584
0.013127686 0.036441352 -0.1843906 -0.0747398 0.09756079 0.119919345 -0.3654933 0.20337667
0.18152857 -0.09857355 1.275952 -0.69940996 0.53334695 0.11686505 0.6515247 0.27315506
0.84003234 0.6263322 0.35906395 -0.57409567 -0.1871991 -0.24322811 0.6019447 0.69017655
0.54324 -1.5974002 0.06463767 -0.44727048 0.21961707 -0.8254811 -0.2727358 0.4879945
0.389625 -0.012618615 -0.24126555 0.25757906 -0.82478523 -0.008794963 -0.6480255 1.257246
0.37148613 -0.19958149 0.32418367 0.44413474 -0.28648782 -0.7874489 0.0036948826 0.72959304
-0.17982237 -0.30673948 -0.51130366 -0.22656097 -0.43023223 -0.13020606 -0.41888103 0.1314285
0.60806483 -0.31375045 0.87348425 -0.22693178 -0.6471914 1.1802796 0.40068573 -0.81289643
0.09547654 -0.45949623 -0.2615203 0.30861473 -0.7297956 0.47715747 -0.02974774 0.83385736
-0.008533141 0.20294203 0.12778698 -0.6580037 -0.13791507 0.3910565 -0.9602094 0.048841912
0.7590685 0.19766574 -0.039202146 -0.5546162 -0.4703057 -0.049509704 -0.67465806 0.48431826
0.24510765 -0.19754538 0.9429646 0.24219854 0.0472316 0.2137014 -0.18386465 0.75624496
-0.037689596 -0.5651745 -0.27447113 -0.48960188 1.0083971 -0.35525432 -0.56280935 -0.72240674
0.5741802 0.05972597 -0.12420872 -0.022283912 -0.14120711 0.7313102 0.9917715 -1.3287619
-0.8712402 0.38302347 -0.16447268 0.8931432 0.33433357 -0.19759564 -0.36747423 0.50795066
-0.3015272 -0.36246267 0.23363358 0.14167073 0.1481025 0.0806548 -0.81024426 0.9171294
-0.072558366 -0.3894233 0.7736695 0.12185446 -0.4704814 0.45344183 0.075430624 0.045161385
-0.046628 0.0067186723 -0.52943736 1.2450875 -0.85169166 -0.49759075 -0.37875736 0.70290303
00000000: 4a47 833f f09b 993e 8b3d 553e f535 703f
00000010: 50a6 823e 4ea8 42bf d961 e23e 25ea 823e
00000020: 19e1 68bd c3e4 a9be 800c 303f 1dbb b6be
00000030: 6b87 313e 63d2 ce3e 3050 633e f1d6 acbe
00000040: 6f95 463f 1b2f 6f3c 64c6 243f 5e4c 38bc
00000050: 4000 d43e 8ed1 e83d a39c 52bf 0473 67bc
00000060: afb2 d13e a646 43bf cd8f 23be 406b 2a3f
00000070: af31 86bf 5ac7 5fbe 5cb3 8b3f ba81 8f3e
00000080: 7ac2 c23e 8e2c 25bd 9865 97be 153b 0abf
00000090: 0b6b 0abf 63e5 96be be57 bc3e f9ec 1fbe
000000a0: 30a2 123f f418 30bf 6e4c 7c3c 606c 973e
000000b0: 0ea2 09be 950a c3be 9ac2 1c3f 71cd febe
000000c0: e920 fcbd 52b7 a1bc 7e65 f53e 84db 803e
000000d0: e877 123d be0d ad3e 0e0d e7be 72ae a93e
000000e0: 2390 613f 6428 a9bd 37a3 93be fdc9 92be
000000f0: 57e9 11bf a8a3 95bc c1c7 823e 8d61 f03e
00000100: 50cd 5dbe 6ab7 b1be 9272 f03d 2795 e83e
00000110: 032d 5ebf b84b 75bd 2bda 883d 8e89 f63e
00000120: 4114 2a3f 69c1 b7bd 5165 8bbd 9dc0 fb3e
00000130: 78a0 3eba de16 babe eba3 a9be 445c 7ebd
00000140: d9a6 a33e 77d1 5b3d 5a19 1f3e 572b 583f
00000150: ef19 73bf 0e10 b73e fee5 c03d 2337 cf3d
00000160: e8e2 0dbe e8ca 9fbe 82e5 2fbe 5d80 9d3d
00000170: b98e e63b b59e 8fbe ca67 0fbf 0fd6 bbbe
00000180: b73a 2f3f 1048 a83e 36cd 413f 8f58 34bf
00000190: ee51 e9bd e63e 66be e431 ad3d db36 3cbf
000001a0: 09ed 743e ed40 083e e95d 213e a825 eb3b
000001b0: 691e cabf ea57 8ebe 23d1 29bf 81aa a8be
000001c0: 8215 573c 8743 153d e4d0 3cbe 2e11 99bd
000001d0: f4cd c73d 4698 f53d f021 bbbe f941 503e
000001e0: a0e2 393e eee0 c9bd 6552 a33f 880c 33bf
000001f0: 6d89 083f f156 ef3d 53ca 263f fbda 8b3e
00000200: 5c0c 573f 4f57 203f 3bd7 b73e eff7 12bf
00000210: 1fb1 3fbe ca10 79be 0c19 1a3f 69af 303f
00000220: c711 0b3f 9c77 ccbf c160 843d a300 e5be
00000230: 4ce3 603e bb52 53bf 07a4 8bbe 6ada f93e
00000240: ee7c c73e 4fbe 4ebc 510e 77be 67e1 833e
00000250: 2025 53bf c018 10bc 00e5 25bf 70ed a03f
00000260: 6e33 be3e 175f 4cbe 67fb a53e a165 e33e
00000270: 88ae 92be 4096 49bf d825 723b 9cc6 3a3f
00000280: 5b23 38be f50c 9dbe cce4 02bf 99ff 67be
00000290: 6647 dcbe bd54 05be 9377 d6be 3195 063e
000002a0: 23aa 1b3f e6a3 a0be aa9c 5f3f ce60 68be
000002b0: 56ae 25bf 6713 973f ae26 cd3e fb19 50bf
000002c0: 3489 c33d 1743 ebbe fde5 85be c002 9e3e
000002d0: e2d3 3abf fc4d f43e 88b1 f3bc ad77 553f
000002e0: 96ce 0bbc 09d0 4f3e 97da 023e ee72 28bf
000002f0: 9c39 0dbe 8f38 c83e 49d0 75bf 750e 483d
00000300: 5052 423f e368 4a3e 6e92 20bd 54fb 0dbf
00000310: e9cb f0be b0ca 4abd 64b6 2cbf 90f8 f73e
00000320: 80fd 7a3e 5649 4abe 2166 713f e502 783e
00000330: ec75 413d 8ad4 5a3e 0447 3cbe 4599 413f
00000340: 6860 1abd 47af 10bf 7b87 8cbe 19ad fabe
00000350: 2813 813f e5e3 b5be 4614 10bf a6ef 38bf
00000360: 79fd 123f 38a3 743d 2461 febd c08c b6bc
00000370: 9998 10be 2537 3b3f bde4 7d3f df14 aabf
00000380: 9909 5fbf a71b c43e 876b 28be 08a5 643f
00000390: c52d ab3e 8356 4abe 9525 bcbe 0e09 023f
000003a0: c661 9abe b594 b9be a43d 6f3e 2212 113e
000003b0: 2fa8 173e 582e a53d 2b6c 4fbf fec8 6a3f
000003c0: 7b99 94bd 7e62 c7be 340f 463f d58e f93d
000003d0: f0e2 f0be 8729 e83e 5f7b 9a3d 25fb 383d
000003e0: 00fd 3ebd 4f28 dc3b 3589 07bf 075f 9f3f
000003f0: 7708 5abf 37c4 febe 7cec c1be 74f1 333f

network_body._body_endoder.seq_layers.0.bias f4 [128]
0.0 0.0 0.0 0.0 0.0 0.0 0.0 0.0
0.0 0.0 0.0 0.0 0.0 0.0 0.0 0.0
0.0 0.0 0.0 0.0 0.0 0.0 0.0 0.0
0.0 0.0 0.0 0.0 0.0 0.0 0.0 0.0
0.0 0.0 0.0 0.0 0.0 0.0 0.0 0.0
0.0 0.0 0.0 0.0 0.0 0.0 0.0 0.0
0.0 0.0 0.0 0.0 0.0 0.0 0.0 0.0
0.0 0.0 0.0 0.0 0.0 0.0 0.0 0.0
0.0 0.0 0.0 0.0 0.0 0.0 0.0 0.0
0.0 0.0 0.0 0.0 0.0 0.0 0.0 0.0
0.0 0.0 0.0 0.0 0.0 0.0 0.0 0.0
0.0 0.0 0.0 0.0 0.0 0.0 0.0 0.0
0.0 0.0 0.0 0.0 0.0 0.0 0.0 0.0
0.0 0.0 0.0 0.0 0.0 0.0 0.0 0.0
0.0 0.0 0.0 0.0 0.0 0.0 0.0 0.0
0.0 0.0 0.0 0.0 0.0 0.0 0.0 0.0
00000000: 0000 0000 0000 0000 0000 0000 0000 0000
00000010: 0000 0000 0000 0000 0000 0000 0000 0000
00000020: 0000 0000 0000 0000 0000 0000 0000 0000
00000030: 0000 0000 0000 0000 0000 0000 0000 0000
00000040: 0000 0000 0000 0000 0000 0000 0000 0000
00000050: 0000 0000 0000 0000 0000 0000 0000 0000
00000060: 0000 0000 0000 0000 0000 0000 0000 0000
00000070: 0000 0000 0000 0000 0000 0000 0000 0000
00000080: 0000 0000 0000 0000 0000 0000 0000 0000
00000090: 0000 0000 0000 0000 0000 0000 0000 0000
000000a0: 0000 0000 0000 0000 0000 0000 0000 0000
000000b0: 0000 0000 0000 0000 0000 0000 0000 0000
000000c0: 0000 0000 0000 0000 0000 0000 0000 0000
000000d0: 0000 0000 0000 0000 0000 0000 0000 0000
000000e0: 0000 0000 0000 0000 0000 0000 0000 0000
000000f0: 0000 0000 0000 0000 0000 0000 0000 0000
00000100: 0000 0000 0000 0000 0000 0000 0000 0000
00000110: 0000 0000 0000 0000 0000 0000 0000 0000
00000120: 0000 0000 0000 0000 0000 0000 0000 0000
00000130: 0000 0000 0000 0000 0000 0000 0000 0000
00000140: 0000 0000 0000 0000 0000 0000 0000 0000
00000150: 0000 0000 0000 0000 0000 0000 0000 0000
00000160: 0000 0000 0000 0000 0000 0000 0000 0000
00000170: 0000 0000 0000 0000 0000 0000 0000 0000
00000180: 0000 0000 0000 0000 0000 0000 0000 0000
00000190: 0000 0000 0000 0000 0000 0000 0000 0000
000001a0: 0000 0000 0000 0000 0000 0000 0000 0000
000001b0: 0000 0000 0000 0000 0000 0000 0000 0000
000001c0: 0000 0000 0000 0000 0000 0000 0000 0000
000001d0: 0000 0000 0000 0000 0000 0000 0000 0000
000001e0: 0000 0000 0000 0000 0000 0000 0000 0000
000001f0: 0000 0000 0000 0000 0000 0000 0000 0000

network_body._body_endoder.seq_layers.2.weight f4 [128, 128]
0.029381515 -0.038610876 -0.061862864 -0.07667454 0.004396321 0.089214906 0.08722755 -0.098881744
-0.11423393 -0.026424633 0.08473932 0.10234181 -0.029112032 0.08142922 -0.056862548 0.12703566
0.11932457 0.16146843 -0.08641252 0.07186281 -0.053795423 0.07197546 -0.0010639977 0.059734084
0.044337716 -0.024996888 -0.0055802683 -0.0982092 -0.045478355 -0.25304782 0.03048061 -0.049797755
-0.09404851 -0.04567401 -0.06463388 0.13512659 -0.03664901 -0.0018267642 -0.03796976 -0.07537587
-0.19662043 -0.07152812 -0.033525124 -0.08354231 -0.06435524 0.23014286 0.1861814 -0.09443198
-0.107012585 -0.04616637 0.124075525 -0.1436422 0.11749282 0.09442142 0.03068511 0.123591356
0.032643434 0.044670444 0.1352694 0.038217224 -0.01949012 0.24414556 -0.07658034 0.013283032
0.03244458 -0.048572633 -0.0476933 0.0129773 0.05016733 0.04484242 0.06157515 -0.17095685
0.17363647 0.03537999 -0.023812437 -0.052991085 0.1640929 0.056169353 0.108269006 -0.15830977
0.067574434 0.13655233 -0.009142678 -0.06852136 -0.04923062 0.015487846 0.1725866 -0.052334856
-0.11805214 0.04488046 0.017835949 -0.20941238 0.08443026 0.11502354 0.017555943 -0.040821183
0.006459418 -0.040089685 -0.056832805 -0.052163042 -0.109956644 0.007672535 -0.14763474 -0.14398313
-0.10189717 0.11531095 0.045249436 0.053130545 0.1665254 -0.0037809587 0.18209404 0.052078452
0.030041004 0.021280322 0.10814491 0.011187182 0.042208564 -0.12410333 -0.07649671 0.13052154
0.011260511 -0.06339095 -0.014036515 -0.00983118 0.060563024 -0.0313672 -0.069667704 0.020668752
-0.03916147 -0.04083142 0.009374161 0.04656109 -0.009397428 0.019923037 0.051170316 0.0005671945
-0.011920938 0.039262738 0.18747328 0.0035439555 0.07966371 -0.027268136 0.004525123 -0.01370391
-0.044668537 -0.06906265 -0.06321796 -0.018025504 0.014187755 -0.124014504 0.004166169 -0.010984718
-0.1401265 0.1217283 0.032298397 -0.08000932 0.0173292 -0.18133907 -0.062519275 -0.0044966517
0.1242317 0.031906046 -0.10546258 -0.0034048215 -0.01341301 0.05207817 0.06099271 -0.08624087
-0.05418977 -0.05988909 0.019187702 -0.03368886 0.0070524355 0.07831792 0.04745626 0.056313008
-0.1232233 0.082556404 0.10712356 0.059567746 0.06430206 -0.009015641 0.033907343 -0.06686393
-0.08523695 0.06711815 -0.05443974 0.005576768 -0.052579742 -0.034519 -0.061412163 -0.0059578363
0.22360747 0.0519266 -0.12334006 -0.15564272 0.0068899347 -0.15334246 -0.105724595 -0.005790528
-0.10952752 -0.0020775662 -0.051605258 -0.06981237 0.097766526 0.044732258 0.09646583 0.11374241
0.11666081 -0.032361932 -0.09311371 -0.1111774 0.00051938044 -0.02001261 0.12878866 0.071901016
-0.0030041216 -0.010381554 0.10974548 -0.12358946 -0.06397616 -0.08243151 -0.016954355 -0.21898663
0.14831476 -0.14376111 0.11214577 -0.0860013 0.0073801745 0.0010517404 0.16940556 0.039546136
-0.0063941577 -0.08795032 0.01839026 -0.026134448 0.07215666 0.0047071185 0.010358561 0.04690507
0.03661087 0.06648532 -0.009106273 0.08309207 -0.04776522 0.09779545 0.0909457 -0.033134606
-0.03989035 -0.07489118 0.091929406 -0.17772757 -0.017022649 0.006042423 -0.01716528 -0.093087934
00000000: 81b1 f03c 7026 1ebd ea63 7dbd 8b07 9dbd
00000010: 030f 903b 4eb6 b63d 5ca4 b23d 8382 cabd
00000020: 7bf3 e9bd 7978 d8bc cf8b ad3d 9598 d13d
00000030: 5b7c eebc 5dc4 a63d b4e8 68bd a315 023e
00000040: 7160 f43d fb57 253e 0cf9 b0bd cf2c 933d
00000050: 9758 5cbd df67 933d d775 8bba baab 743d
00000060: 779b 353d 46c6 ccbc afda b6bb e821 c9bd
00000070: 8347 3abd 7c8f 81be 79b2 f93c bbf8 4bbd
00000080: 819c c0bd ac14 3bbd c55e 84bd a05e 0a3e
00000090: 461d 16bd 0970 efba 2e86 1bbd aa5e 9abd
000000a0: de56 49be 567d 92bd a451 09bd 3b18 abbd
000000b0: aecc 83bd 92aa 6b3e 56a6 3e3e 8e65 c1bd
000000c0: 6a29 dbbd f318 3dbd 4f1b fe3d f116 13be
000000d0: 13a0 f03d 0460 c13d 575f fb3c 771d fd3d
000000e0: 1fb5 053d 5bf8 363d 1084 0a3e aa89 1c3d
000000f0: bea9 9fbc 4b01 7a3e 27d6 9cbd 13a1 593c
00000100: 9ce4 043d 19f4 46bd 0d5a 43bd be9e 543c
00000110: 427c 4d3d afac 373d 3936 7c3d 500f 2fbe
00000120: c2cd 313e 9cea 103d 4d12 c3bc 2e0d 59bd
00000130: f807 283e d611 663d 24bc dd3d f51b 22be
00000140: 7764 8a3d 60d4 0b3e 2ccb 15bc ed54 8cbd
00000150: 0ca6 49bd bcc0 7d3c 8bba 303e 135d 56bd
00000160: 52c5 f1bd 93d4 373d b21c 923c 3370 56be
00000170: c6e9 ac3d 7691 eb3d 7bd1 8f3c 1d34 27bd
00000180: 87a9 d33b 1535 24bd 84c9 68bd eaa8 55bd
00000190: f330 e1bd e369 fb3b 902d 17be 5070 13be
000001a0: 77af d0bd 2628 ec3d 7957 393d 6a9f 593d
000001b0: a285 2a3e f6c9 77bb dc76 3a3e 3750 553d
000001c0: 8d18 f63c 1254 ae3c 147b dd3d 714a 373c
000001d0: e3e2 2c3d e329 febd 4faa 9cbd 70a7 053e
000001e0: 027e 383c 1dd3 81bd 69f9 65bc f512 21bc
000001f0: ef10 783d e57a 00bd f1ad 8ebd 8451 a93c
00000200: c767 20bd d93e 27bd 1596 193c d7b6 3e3d
00000210: abf7 19bc a335 a33c f797 513d c7af 143a
00000220: 0a50 43bc f7d1 203d fff8 3f3e b541 683b
00000230: ba26 a33d 6d61 dfbc 7c47 943b 5d86 60bc
00000240: 5bf6 36bd b870 8dbd 6b78 81bd 39aa 93bc
00000250: c273 683c 51fb fdbd 5c84 883b 3ff9 33bc
00000260: 527d 0fbe b04c f93d 534b 043d eddb a3bd
00000270: f7f5 8d3c f3b0 39be 1b0a 80bd a658 93bb
00000280: 316d fe3d eaaf 023d c4fc d7bd 6d23 5fbb
00000290: 3ec2 5bbc eb4f 553d 7ed3 793d 0e9f b0bd
000002a0: 18f6 5dbd 434e 75bd 872f 9d3c 54fd 09bd
000002b0: 1e18 e73b 2565 a03d 7f61 423d 78a8 663d
000002c0: 7f5c fcbd 5513 a93d 9963 db3d 4ffd 733d
000002d0: ccb0 833d 57b6 13bc 6de2 0a3d f5ef 88bd
000002e0: b690 aebd 3e75 893d 34fc 5ebd 52bd b63b
000002f0: db5d 57bd cc63 0dbd 528b 7bbd f439 c3bb
00000300: 5bf9 643e fdb0 543d b799 fcbd ce60 1fbe
00000310: f6c4 e13b ce05 1dbe 2386 d8bd 78be bdbb
00000320: f74f e0bd c727 08bb 0960 53bd caf9 8ebd
00000330: d139 c83d 2c39 373d e18f c53d c8f1 e83d
00000340: ddeb ee3d f28d 04bd 67b2 bebd fab0 e3bd
00000350: 0827 083a 7cf1 a3bc 2de1 033e d740 933d
00000360: cce0 44bb 6517 2abc 3dc2 e03d 791c fdbd
00000370: ef05 83bd dad1 a8bd dce3 8abc 083e 60be
00000380: d3df 173e 1d36 13be aeac e53d 7321 b0bd
00000390: 64d5 f13b 8dda 893a a778 2d3e 21fb 213d
000003a0: 1586 d1bb 4c1f b4bd 2ca7 963c e917 d6bc
000003b0: dfc6 933d 2c3e 9a3b f4b6 293c 881f 403d
000003c0: 48f5 153d 7529 883d 7a32 15bc 2d2c aa3d
000003d0: 77a5 43bd fb48 c83d bd41 ba3d 27b8 07bd
000003e0: 1064 23bd 8c60 99bd 7c45 bc3d 37fe 35be
000003f0: 1573 8bbc 85ff c53b 349e 8cbc e3a4 bebd

network_body._body_endoder.seq_layers.2.bias f4 [128]
0.0 0.0 0.0 0.0 0.0 0.0 0.0 0.0
0.0 0.0 0.0 0.0 0.0 0.0 0.0 0.0
0.0 0.0 0.0 0.0 0.0 0.0 0.0 0.0
0.0 0.0 0.0 0.0 0.0 0.0 0.0 0.0
0.0 0.0 0.0 0.0 0.0 0.0 0.0 0.0
0.0 0.0 0.0 0.0 0.0 0.0 0.0 0.0
0.0 0.0 0.0 0.0 0.0 0.0 0.0 0.0
0.0 0.0 0.0 0.0 0.0 0.0 0.0 0.0
0.0 0.0 0.0 0.0 0.0 0.0 0.0 0.0
0.0 0.0 0.0 0.0 0.0 0.0 0.0 0.0
0.0 0.0 0.0 0.0 0.0 0.0 0.0 0.0
0.0 0.0 0.0 0.0 0.0 0.0 0.0 0.0
0.0 0.0 0.0 0.0 0.0 0.0 0.0 0.0
0.0 0.0 0.0 0.0 0.0 0.0 0.0 0.0
0.0 0.0 0.0 0.0 0.0 0.0 0.0 0.0
0.0 0.0 0.0 0.0 0.0 0.0 0.0 0.0
00000000: 0000 0000 0000 0000 0000 0000 0000 0000
00000010: 0000 0000 0000 0000 0000 0000 0000 0000
00000020: 0000 0000 0000 0000 0000 0000 0000 0000
00000030: 0000 0000 0000 0000 0000 0000 0000 0000
00000040: 0000 0000 0000 0000 0000 0000 0000 0000
00000050: 0000 0000 0000 0000 0000 0000 0000 0000
00000060: 0000 0000 0000 0000 0000 0000 0000 0000
00000070: 0000 0000 0000 0000 0000 0000 0000 0000
00000080: 0000 0000 0000 0000 0000 0000 0000 0000
00000090: 0000 0000 0000 0000 0000 0000 0000 0000
000000a0: 0000 0000 0000 0000 0000 0000 0000 0000
000000b0: 0000 0000 0000 0000 0000 0000 0000 0000
000000c0: 0000 0000 0000 0000 0000 0000 0000 0000
000000d0: 0000 0000 0000 0000 0000 0000 0000 0000
000000e0: 0000 0000 0000 0000 0000 0000 0000 0000
000000f0: 0000 0000 0000 0000 0000 0000 0000 0000
00000100: 0000 0000 0000 0000 0000 0000 0000 0000
00000110: 0000 0000 0000 0000 0000 0000 0000 0000
00000120: 0000 0000 0000 0000 0000 0000 0000 0000
00000130: 0000 0000 0000 0000 0000 0000 0000 0000
00000140: 0000 0000 0000 0000 0000 0000 0000 0000
00000150: 0000 0000 0000 0000 0000 0000 0000 0000
00000160: 0000 0000 0000 0000 0000 0000 0000 0000
00000170: 0000 0000 0000 0000 0000 0000 0000 0000
00000180: 0000 0000 0000 0000 0000 0000 0000 0000
00000190: 0000 0000 0000 0000 0000 0000 0000 0000
000001a0: 0000 0000 0000 0000 0000 0000 0000 0000
000001b0: 0000 0000 0000 0000 0000 0000 0000 0000
000001c0: 0000 0000 0000 0000 0000 0000 0000 0000
000001d0: 0000 0000 0000 0000 0000 0000 0000 0000
000001e0: 0000 0000 0000 0000 0000 0000 0000 0000
000001f0: 0000 0000 0000 0000 0000 0000 0000 0000

value_heads.value_heads.extrinsic.weight f4 [1, 128]
-0.03243245 -0.14950964 0.058814466 -0.17425989 -0.11666388 -0.16162257 0.10106945 -0.21502247
0.07659149 0.06966692 -0.083540976 0.013859883 -0.14544278 0.18075812 0.06904811 -0.1354706
0.11288798 0.13039473 0.02053088 0.12420523 -0.034190595 0.014415994 -0.08489886 0.07335976
0.028981626 0.14856961 -0.15540178 -0.15879917 0.18476638 0.034673065 0.18295974 -0.068318605
0.079717964 -0.055064827 -0.03491591 -0.013792962 -0.017196208 0.21258831 0.081129014 0.061302423
-0.0995637 0.050400496 -0.20921616 0.04375732 0.10029921 0.06576839 0.10684973 -0.18059164
-0.15841646 0.12104285 -0.16814992 -0.073943004 0.1352447 -0.11551143 0.119510025 0.1406692
0.11464468 0.15848002 0.17127755 0.14684099 0.19581482 -0.16516837 -0.09655908 -0.076100305
0.023065627 -0.13886137 -0.11310682 -0.2058836 -0.14691785 0.099016696 -0.14467895 0.15104932
0.20199823 0.058036566 -0.070947275 0.16812277 0.024893403 -0.16924256 0.12117836 -0.060532555
0.06299567 0.0980365 -0.019548938 -0.12642318 0.19641551 -0.113874 0.1683135 -0.043279156
-0.06807248 0.07996473 -0.06171888 -0.085329965 -0.15233743 -0.009980261 0.114654124 -0.124628015
0.07304725 0.011913061 -0.046052754 -0.19168936 -0.04581155 -0.17413749 -0.16525944 0.04246196
0.20007041 0.09419596 0.04384464 -0.13910007 0.11538264 0.081478775 -0.07499838 -0.0697058
-0.14376143 0.19921812 0.10887021 0.07010409 -0.0012754351 0.13197264 0.2093631 0.0882324
-0.1522565 0.12996227 -0.09378216 -0.15939257 -0.044303074 0.17340353 0.09971756 0.07485452
00000000: e4d7 04bd 0e19 19be 70e7 703d 2f71 32be
00000010: 79ed eebd 6380 25be 80fd ce3d da2e 5cbe
00000020: 00dc 9c3d 88ad 8e3d 8817 abbd 9014 633c
00000030: f4ee 14be a818 393e 1869 8d3d ceb8 0abe
00000040: d031 e73d 3286 053e 6030 a83c 505f fe3d
00000050: 700b 0cbd 1031 6c3c 74df adbd a43d 963d
00000060: e06a ed3c a222 183e a521 1fbe 409c 22be
00000070: 6633 3d3e 5805 0e3d cc59 3b3e a0ea 8bbd
00000080: 2c43 a33d a88b 61bd fc03 0fbd e0fb 61bc
00000090: 10df 8cbc c0b0 593e f826 a63d 4018 7b3d
000000a0: 0ee8 cbbd c070 4e3d c33c 56be e03a 333d
000000b0: ac69 cd3d 94b1 863d 08d4 da3d 04ed 38be
000000c0: ed37 22be 50e5 f73d 7e2f 2cbe 6e6f 97bd
000000d0: 967d 0a3e 4291 ecbd acc1 f43d 960b 103e
000000e0: d4ca ea3d 9648 223e 6263 2f3e 7c5d 163e
000000f0: ae83 483e e621 29be c4c0 c5bd 7ada 9bbd
00000100: 20f4 bc3c ad31 0ebe 8ca4 e7bd 27d3 52be
00000110: a271 16be 44c9 ca3d b826 14be acac 1a3e
00000120: a0d8 4e3e c0b7 6d3d ce4c 91bd 6028 2c3e
00000130: 40ed cb3c ec4d 2dbe 5c2c f83d fcf0 77bd
00000140: e003 813d 5cc7 c83d 1825 a0bc 1475 01be
00000150: 2621 493e c636 e9bd 605a 2c3e 7c45 31bd
00000160: 9669 8bbd 8cc4 a33d f0cc 7cbd 7ac1 aebd
00000170: 58fe 1bbe 4084 23bc c8cf ea3d f93c ffbd
00000180: cc99 953d 002f 433c d0a1 3cbd 374a 44be
00000190: e4a4 3bbd 1951 32be c539 29be 98ec 2d3d
000001a0: 42df 4c3e d0e9 c03d 7096 333d 4070 0ebe
000001b0: bc4d ec3d 58de a63d c098 99bd eac1 8ebd
000001c0: 3236 13be d6ff 4b3e 58f7 de3d bc92 8f3d
000001d0: 802c a7ba d623 073e 4863 563e 30b3 b43d
000001e0: 21e9 1bbe d414 053e dc10 c0bd ce37 23be
000001f0: 2477 35bd b290 313e b838 cc3d 544d 993d
