results/ppo/BalanceBall1/checkpoint.pt (torch, 497250 bytes, 33 tensors)

network_body._body_endoder.seq_layers.0.weight f4 [128, 24]
000000 a2 91 c6 bd 29 e6 0b 3e 0c 43 f2 3d 7c f9 bf 3d
       -0.09695746 0.13662018 0.118291944 0.09373757
000010 da 55 7e be 68 97 22 3e bd e9 35 bc 06 2e fa 3e
       -0.24837437 0.1587807 -0.011103091 0.48863238
000020 e7 e9 12 bd 8b 50 3a 3d b8 ab ae 3d da a8 1e be
       -0.035867598 0.045486968 0.085288465 -0.154941
000030 03 26 42 3e 71 5f 94 bd 2c 80 5c 3e 49 c3 22 3d
       0.18959813 -0.072447665 0.21533269 0.03973702
000040 f1 31 80 3c 9a c2 01 3d 4a a9 90 3d e8 45 b3 3d
       0.015648814 0.031679727 0.07063539 0.08753568
000050 ae 20 aa 3e a0 1e c1 3c 26 0a 21 3f 56 48 9c 3e
       0.33228058 0.023574173 0.6290611 0.30523938
000060 67 62 bf be 99 35 3a 3e 2e 1f 75 3e 44 ba e9 bd
       -0.37379763 0.18184508 0.23937675 -0.114124805
000070 cf a0 15 3f 2a d7 e3 bd e6 0b 29 3e 89 6f 79 3d
       0.584485 -0.11125024 0.16508445 0.060897384
000080 6c 2a c6 bb 51 5c 9b be 77 27 13 bd 92 51 89 3d
       -0.0060475376 -0.3034387 -0.03592631 0.067050114
000090 fc 21 2d be e4 00 d5 3e 59 62 81 be e0 0b 8c 3e
       -0.16907495 0.41602242 -0.25270346 0.2735281
0000a0 56 ce 1b 3e 9b 1d fc 3d fd 00 79 3d de 52 3a 3e
       0.1521543 0.12310334 0.060791958 0.18195674
0000b0 3d 35 8f 3e a0 28 0d 3e 16 9b 37 be d4 3b 13 be
       0.27970305 0.13785028 -0.17930254 -0.14378291
0000c0 fb c2 84 3d a3 62 a0 3e 56 ab b6 3d 44 6d 1a be
       0.06482502 0.31325254 0.089193985 -0.15080744
0000d0 c8 a1 84 be a7 6e c7 bc 45 00 4b 3e 81 02 8b bd
       -0.2590468 -0.024344755 0.19824322 -0.06787587
0000e0 9e b3 ea 3d 7b 93 77 be c0 af 00 bc b8 fe 74 be
       0.114600405 -0.24177353 -0.007854402 -0.23925292
0000f0 58 7e 11 be c3 3e bc 3e 80 bd 68 3d b3 82 69 be
       -0.14208353 0.36766633 0.056821346 -0.22803764
000100 ee e8 4a be 82 3e 42 3e 61 01 47 3e cf 75 aa be
       -0.19815418 0.18969157 0.1943412 -0.33293006
000110 34 19 c0 be ae 63 d5 3c 33 9b 36 3d dd bf b7 3c
       -0.37519228 0.026048508 0.044581603 0.022430355
000120 64 cf 18 3f 1f 06 14 3e 1b 2b 63 3e 34 7f 56 3e
       0.5969145 0.1445546 0.22184412 0.20946962
000130 4a 41 35 bd 34 be d9 bd 27 ea e1 3d 57 94 11 3e
       -0.044251718 -0.106319815 0.11030989 0.14216743
000140 90 58 47 3c 6b 27 11 bd b0 e7 8f 3e 33 2b 69 bd
       0.012167111 -0.035437983 0.2810645 -0.056925964
000150 06 f8 0f 3e ab 7d cb bc 84 0e d5 bc 51 ce 17 3e
       0.14059457 -0.024840197 -0.026007898 0.14824797
000160 ce 28 57 bd 9b d9 d1 3e ec d7 5d 3e d7 b4 83 3d
       -0.05252915 0.40986332 0.21664399 0.06430977
000170 3e ef 31 3d fa 4b 97 3e 27 98 5c bc bb 41 a9 bd
       0.04344105 0.29550153 -0.01346401 -0.0826449
000180 ee 78 ce 3b b5 77 34 be 4b a4 8d 3d 78 08 a1 3d
       0.006301037 -0.1762379 0.06916102 0.078629434
000190 99 52 39 3e 4a 2f a3 be 8d 29 d7 bd ce 60 e1 3e
       0.18097915 -0.31872016 -0.10505972 0.4401917
0001a0 53 53 14 3a 89 58 4d be cc e8 4d be 01 49 8f be
       0.0005658168 -0.20053305 -0.20108336 -0.27985385
0001b0 05 cc b1 bd 0f 7d 50 3e fd 13 63 3d 89 c9 9e bd
       -0.08681492 0.20360206 0.055438984 -0.077532835
0001c0 ad e6 e4 3c b8 43 1f 3e 56 42 d2 be dd ba f1 3d
       0.027942026 0.15553176 -0.41066235 0.118032195
0001d0 1c 1e 0f 3e 9a 7d 21 be 1c 61 74 3e f6 9e ad 3b
       0.1397633 -0.1577057 0.2386517 0.0052984906
0001e0 d6 8b 8f 3b 6f 0e 8c be 0e de c0 be 9a ba a1 be
       0.0043806834 -0.27354762 -0.37669414 -0.31587678
0001f0 28 31 0a 3e 62 8a be 3b 7a 51 df 3e bf 60 ba 3e
       0.13495314 0.0058148364 0.4361685 0.36401936
000200 65 38 21 3d 3e 54 07 3e 03 42 be 3d 7a 22 6e 3e
       0.039360423 0.1321573 0.092899345 0.2325534
000210 2d 1f 9c bb c4 4b e0 be e1 77 8b be 05 7f a9 ba
       -0.0047644586 -0.43807805 -0.27239898 -0.0012931532
000220 8c ca 3c be e0 2a 0d 3d 15 51 b5 be 9f a5 48 3e
       -0.1843664 0.034464717 -0.35413423 0.1959443
000230 b4 68 62 be 81 3f 37 bd 0e ff 5b 3d c6 7e a4 be
       -0.22110254 -0.044738296 0.053710036 -0.3212797
000240 8e 9d 4b bd 03 26 11 bf 6c fc c5 be 81 34 0c be
       -0.049710803 -0.56698626 -0.38669145 -0.13691904
000250 a3 dc 79 be 0d 46 34 be ac 2b 2a 3d 06 bd 8b bd
       -0.24400572 -0.17604847 0.041545555 -0.06823163
000260 20 13 3d be 1e 68 33 bd 73 06 59 3e 01 b7 f5 3c
       -0.18464327 -0.043800466 0.21193866 0.02999449
000270 44 65 d7 3d 15 21 9e 3e 3e 56 9f be f0 94 8b be
       0.10517362 0.30884615 -0.31120485 -0.27262068
000280 e1 8a 89 3e 1a e0 b3 3d 08 d1 87 3c 9c a5 95 be
       0.2686377 0.08782978 0.016579166 -0.29227912
000290 e8 2b 98 3d a7 d4 58 3e e6 86 9a 3c 0d f9 83 3e
       0.074302495 0.2117487 0.018863153 0.25775948
0002a0 d2 39 90 bb 6f be ba 3d 1a 3c 19 be 91 c1 b8 be
       -0.004401424 0.091183536 -0.14964333 -0.3608518
0002b0 0f f5 1a 3e 91 f6 f3 bd f4 56 ce 3e 48 2f 32 3e
       0.15132545 -0.11912263 0.40300715 0.17400849
0002c0 ff 27 15 bf 73 0f 02 3f 0c 4d 65 3d fb 86 86 be
       -0.58264154 0.50804824 0.05598168 -0.26274857
0002d0 e1 31 30 bc 45 be 17 bd 96 b7 8a bd a8 ec a2 be
       -0.01075408 -0.03704669 -0.067732975 -0.3182118
0002e0 26 e5 6a 3e 0c bf ee bd 0a e4 06 be 95 00 83 3d
       0.22938976 -0.11657533 -0.13172927 0.063965954
0002f0 69 36 fe bd 50 fb 09 bf 8c 2e 03 3e 08 81 e5 bd
       -0.12412722 -0.538991 0.12810725 -0.112062514
000300 dc e4 f1 3e ae 72 c0 be 2c 18 3b be 0a ff be be
       0.47244918 -0.37587494 -0.1827094 -0.37303954
000310 9b dd 27 3e 48 47 28 be d2 95 39 be aa f5 2d be
       0.1639313 -0.16433442 -0.18123558 -0.16988245
000320 eb a6 2f 3e af a4 4b bc fa 95 7a 3e 9c 7b f2 3d
       0.17153518 -0.0124294 0.24471274 0.11839983
000330 09 3d 8e 3e 47 99 36 3c 1e 7e ef bd c8 6c 04 3d
       0.2778094 0.011144943 -0.11693977 0.032330304
000340 eb ea 85 3e b6 31 e3 be d5 99 ce bd 5d 97 03 be
       0.2615579 -0.44373864 -0.10087935 -0.1285071
000350 93 b4 bc be 6e cd 8e bd 0b 0c 18 be 6c 97 92 bd
       -0.36856517 -0.06972776 -0.14848344 -0.07157788
000360 88 5b 02 be 51 fe 10 be 0a 71 85 3e a1 7e 3d be
       -0.12730229 -0.14159514 0.26062804 -0.18505336
000370 5a 0d bd bc a7 7b 26 be 19 3b 05 bd a7 2e 60 3d
       -0.023077656 -0.16258107 -0.032527063 0.05473199
000380 92 ba 66 be 3a 2f 8e bd 25 b8 06 be af 49 10 3e
       -0.22532108 -0.069426015 -0.13156183 0.14090608
000390 fb 81 2b 3e 89 76 70 3d c3 87 12 bd de 82 2e be
       0.16748802 0.058706794 -0.035774004 -0.1704211
0003a0 43 38 87 3d 4d a9 5c bd 14 f9 63 3e d5 2a be 3e
       0.06602528 -0.053872395 0.22262985 0.37142053
0003b0 da 21 8d 3e 9e 1f f8 bd 5c 5b 60 be f3 4a 5e bd
       0.2756489 -0.121154055 -0.21909851 -0.054270696
0003c0 cc 9e bc 3d 8f 99 80 3d 04 b5 a5 bd c2 e0 92 3d
       0.092099756 0.06279289 -0.080911666 0.071717754
0003d0 8b 76 85 3e 9f 00 41 bd 2e 4d db 3e de 96 28 3e
       0.26067004 -0.047119733 0.4283232 0.16463801
0003e0 9e 45 04 3e 53 1b 90 bd 0a 0b 82 3e fa a7 80 bd
       0.12917182 -0.07036462 0.25399047 -0.06282039
0003f0 50 b2 08 bd a2 6b 4c be 13 54 60 be 61 90 78 be
       -0.033373177 -0.19962934 -0.21907072 -0.24273826

network_body._body_endoder.seq_layers.0.bias f4 [128]
000000 69 22 e8 3c 36 d4 49 3c e4 5b 07 bc c7 29 91 3c
       0.02833672 0.012318661 -0.0082616545 0.017720116
000010 61 23 35 3c 6b d3 20 bd d6 7a e8 3c a0 5b cf 3c
       0.011055798 -0.039264124 0.028378885 0.025312245
000020 a9 9e aa bb 10 6c b9 bc fa 16 06 3d e9 1b a7 3c
       -0.005206902 -0.022634536 0.032736756 0.02039905
000030 45 2d e9 3c 68 96 62 3d a3 22 e1 bb e5 46 65 3c
       0.028463969 0.05531922 -0.006870584 0.013993953
000040 dd 20 53 bc 88 15 05 bd 8d cf 55 bc be e9 c7 3a
       -0.012886253 -0.032491237 -0.013049972 0.0015252156
000050 5f d5 69 bc fb c4 59 3d 3a e0 d2 3c cf 52 63 3d
       -0.014272063 0.05316637 0.025741685 0.055498894
000060 e1 89 fb ba 17 2d 4c 3c 2a 33 0a 3d 64 32 32 3c
       -0.0019190871 0.012461922 0.0337402 0.010876272
000070 2e db ec bc 18 34 6c 3c 0e 35 d9 3c 71 ab 51 3c
       -0.028913107 0.014416717 0.026514556 0.0127972225
000080 7b 3f 7f bb c9 df 82 bb e7 2f 28 3d ce 45 d9 3c
       -0.003894775 -0.0039939624 0.04106131 0.026522543
000090 54 8d 6c 3c 87 d1 13 bc 6f 92 2e 3d 1d 02 d8 3b
       0.014437992 -0.009022123 0.04262012 0.006592049
0000a0 26 4d 88 3c 81 57 ec 3c cf 58 94 3b f5 6a 86 ba
       0.01663835 0.028850319 0.0045271884 -0.0010255264
0000b0 d4 30 09 bc 53 37 e8 3c 22 22 72 bc 90 9a 52 3b
       -0.008373458 0.028346693 -0.014778646 0.0032135583
0000c0 9e 73 1a bc dd 17 d6 3c d1 1f 93 bc bc 8f 7e 3c
       -0.009426979 0.026134426 -0.017959507 0.015537199
0000d0 ee 04 a1 3c 88 be 84 3c 1c 78 07 bc bd 05 f5 3c
       0.019655671 0.016204134 -0.008268382 0.029909963
0000e0 c1 26 73 3c 35 ed 90 bc 49 24 b2 3b 9d 72 e3 3c
       0.014840783 -0.017691234 0.0054364544 0.027764613
0000f0 0c 49 8d ba f1 de ca 3c 98 0f 07 3c 0b eb 6b bc
       -0.0010779216 0.02476451 0.008243464 -0.0143993
000100 c5 19 3a 3b 60 15 50 bc fd ef 99 3c 0b 1d 99 3a
       0.0028396707 -0.012700409 0.018791193 0.0011681629
000110 71 05 24 3c 8e 7a 11 bc 1a 94 d8 3b f9 17 ce ba
       0.010011063 -0.008879317 0.006609452 -0.0015723697
000120 40 51 4d bc e0 17 b8 3c 27 f4 ad bc 71 3f 1c 3c
       -0.012531579 0.022472322 -0.021234585 0.00953661
000130 b9 7a ad 3c 56 41 8e 3c 6e 74 71 3b 9c d8 75 3b
       0.021176683 0.017365139 0.003684308 0.0037513142
000140 15 e1 4e bc f3 7b b7 3b f3 e2 7e 3c c7 93 4c 39
       -0.012626906 0.0055994927 0.015557039 0.00019510007
000150 db 13 12 3c a9 9c 0d 3d c2 7a 0c 3d 69 9c 96 3b
       0.008915867 0.03457323 0.03429676 0.0045962823
000160 1b 4b 86 3c a6 1b 0d bc 1e 7e 52 3b 08 a4 a9 3c
       0.016393235 -0.008612549 0.0032118629 0.020708099
000170 42 2d 57 3a 45 f4 87 3c 57 8f 82 3c 44 1f c8 3c
       0.0008208343 0.016595969 0.01593749 0.024428971
000180 61 7a 99 3c fb ca 2d bc d1 52 bf 3c 12 de a6 bc
       0.018735113 -0.010607476 0.02335492 -0.020369563
000190 32 30 50 3c 1c 6d ad 3a 66 dc e8 3c 8e 28 fd ba
       0.012706803 0.001323137 0.028425407 -0.0019314454
0001a0 84 e6 3c bc 7a b8 b9 b9 21 72 53 3c 92 0d c8 3c
       -0.011529569 -0.00035423395 0.012905628 0.024420533
0001b0 01 53 7d bb af e0 44 3c 14 44 a3 bc 77 d0 fc bc
       -0.003865421 0.012016459 -0.019929923 -0.030861123
0001c0 20 10 7d b6 e9 55 ac 3c 74 34 98 bc ca 1f 0e 3d
       -3.7709324e-06 0.021037059 -0.0185797 0.034698285
0001d0 54 b4 4e 3d 8b d6 0c 3d 1a 39 9d 3c 27 29 a7 3a
       0.050464943 0.03438429 0.019192267 0.0012753353
0001e0 82 16 3e bc 59 c8 3d b9 ce 39 67 3c 16 0e 06 bc
       -0.011602046 -0.0001809908 0.014112903 -0.008182069
0001f0 da c3 9f 3c 14 e5 49 bb 3c 64 b8 3c 71 bf bd 3a
       0.019502569 -0.0030806707 0.022508733 0.001447661

network_body._body_endoder.seq_layers.2.weight f4 [128, 128]
000000 c3 77 00 3e 63 b5 0a bc c3 3e 9b bd 3b 11 6b 3d
       0.12545685 -0.0084660975 -0.0758033 0.05738948
000010 1a f7 a7 3c 2b 2d 8c bd d6 56 75 3b 36 68 b4 b9
       0.02050357 -0.068445526 0.0037435791 -0.0003440992
000020 5f 08 26 3e 16 81 ef 3c d3 78 89 3d 1e 15 49 3d
       0.16214131 0.029236358 0.067124985 0.049092405
000030 f6 89 27 be 01 5b 46 3d 67 14 45 3a 10 97 08 3d
       -0.16361222 0.04842663 0.0007517994 0.03334719
000040 fb 6b 71 bd 9f 27 e1 3c f4 d9 02 be ca b2 db bd
       -0.05894087 0.027484713 -0.12778455 -0.10727461
000050 89 ae 37 be f0 83 17 be 19 c1 09 3d 95 e6 96 bc
       -0.17937674 -0.14796424 0.033631418 -0.018420497
000060 8a 15 65 be 82 75 cc 3d a7 b6 8b bd 87 a0 d5 3d
       -0.22371498 0.0998335 -0.068219475 0.10431009
000070 08 78 dc 3d f2 f5 ce bc d1 20 aa bc 4c 5b 12 bc
       0.10765082 -0.02526376 -0.020767601 -0.0089329
000080 eb ed 42 bc ca 3b 06 3d 27 41 9b 3c 14 71 11 3d
       -0.011897544 0.032771863 0.018951965 0.03550823
000090 93 d9 a9 3d 79 d8 0b be 47 25 d0 bc 3a 69 87 3d
       0.08293452 -0.13656797 -0.0254084 0.06611867
0000a0 7b 47 c4 3d da 63 94 3c 58 04 c8 3b 73 51 9f bd
       0.09583946 0.01811402 0.0061040334 -0.07779207
0000b0 c0 df a1 3c 17 22 87 bc 79 ed 7b 3d 99 fc 17 bd
       0.019760013 -0.016495747 0.06150577 -0.03710613
0000c0 16 2e 10 3e 94 53 19 3c 3a 5b 02 bd d7 0f 22 bd
       0.1408008 0.0093583055 -0.03182528 -0.039565887
0000d0 a1 7c 42 3e 95 23 8e bd 6a b0 c4 bd 37 84 3c be
       0.18992855 -0.069403805 -0.09603961 -0.18409811
0000e0 c9 fa b7 3d f9 bb 2c be ab bb ac 3d 5b b6 16 3e
       0.0898338 -0.16868581 0.08434232 0.14718
0000f0 65 90 2c bd c8 e7 ee 3d 8f b4 a0 3c 6e 28 0f 3d
       -0.042129893 0.116653025 0.019617347 0.034950666
000100 64 a0 0e bc 21 18 23 3d 2f 47 10 be 10 b8 ed bd
       -0.008705232 0.039817933 -0.14089654 -0.11607373
000110 1e 0b c4 3b 71 55 12 be 23 3d d4 3a 88 d2 25 3e
       0.0059827706 -0.14290406 0.0016192537 0.16193593
000120 0a 9f 19 3d a5 7a ed 3c 1c e4 03 3d 65 00 95 bd
       0.037505187 0.028989146 0.032199964 -0.07275466
000130 7e 26 2a bd c0 a7 db 3c 69 d0 93 bd 6f 9e bc 3c
       -0.041540615 0.026813388 -0.072174855 0.023024766
000140 18 2b 46 bd 59 92 57 bd e6 dd b7 bd d1 e3 bc 3c
       -0.04838094 -0.052629802 -0.08977871 0.02305785
000150 c0 49 27 3d 5c 62 88 3d e6 9d 11 3e 9b ea d1 3d
       0.040841818 0.066593856 0.1422039 0.102498256
000160 20 a3 88 3e 7b 53 04 3c b7 4c 85 bb e9 92 09 be
       0.26686954 0.008076544 -0.004067983 -0.13434948
000170 ad d7 85 bd 18 28 0b 3e 56 5c 38 bd 04 24 d1 bd
       -0.065352775 0.13589513 -0.045009933 -0.102119476
000180 98 19 8f bd f4 c3 fc 3d 51 1e 35 3e ba 8d 6b bd
       -0.069873035 0.123420626 0.17687346 -0.057508208
000190 c0 78 61 bc 9b 1b 61 bd 18 bf 19 3e 3e aa f1 bd
       -0.013761699 -0.054957967 0.15014303 -0.11800049
0001a0 9d 53 70 bd 54 fb d1 bd 4d ba 55 bd e9 b8 10 3d
       -0.05867349 -0.10253015 -0.052179623 0.035332594
0001b0 c0 34 12 be 0b 36 fd bd 1b fa 0a bc 2f ad 23 be
       -0.14277935 -0.123638235 -0.008482481 -0.15984033
0001c0 3f fc 91 bd 42 e1 da bd a3 97 25 3c 65 2a 12 bd
       -0.0712819 -0.10687496 0.010106954 -0.03568496
0001d0 31 29 7f 3c 53 33 a4 bd 76 0e c0 bd c7 be 1f be
       0.015573786 -0.08017602 -0.09377758 -0.1560012
0001e0 b6 2d 5c be 33 59 1f be 8b cf d4 3c 26 92 d7 3d
       -0.21501812 -0.1556137 0.02597787 0.105259225
0001f0 56 99 7a bb 5f 5c 4e 3d 94 dc bb bd e6 f3 1b bd
       -0.0038238368 0.05038106 -0.09172931 -0.038074397
000200 d8 28 bf bd 70 4b 0c 3d cd 6c f3 ba 81 bd cd bc
       -0.09333962 0.03425163 -0.0018571854 -0.025114777
000210 c8 fe b1 bc e7 87 17 bd 9b ac e7 bd e0 83 ae bc
       -0.021727934 -0.03699484 -0.11312219 -0.021303117
000220 1e ee 0e bd e7 b1 52 3c 00 44 85 bd 99 1e f6 3c
       -0.034895055 0.012859798 -0.065071106 0.030043887
000230 95 d0 1e 3d a4 9d cd bd a0 c6 4e bd e1 94 55 bc
       0.038773138 -0.10039833 -0.050482392 -0.013035984
000240 fd 07 9e 3d 74 43 5c 3c cb 58 c3 3c c6 eb 00 be
       0.077163674 0.013443816 0.02384605 -0.1258994
000250 70 58 b5 bd f0 d4 22 3e 68 dd 7c bd 1f bb cb bc
       -0.08854759 0.15901542 -0.061734587 -0.0248695
000260 4a 64 bc 3d 2e a2 95 bd 85 6c 58 3d 1b 65 1a be
       0.09198816 -0.07306324 0.052837867 -0.15077631
000270 85 55 00 3c 87 89 05 b9 79 48 46 3d 2c 07 8e bd
       0.007832889 -0.00012735101 0.04840896 -0.06934962
000280 19 ed d7 3d a0 03 fd bd 61 c5 76 3d 29 11 d6 3c
       0.1054327 -0.12354207 0.06024683 0.02613123
000290 6c f0 9a 3d 8c 3e 91 bc fb 47 91 bc 60 08 15 3d
       0.07565388 -0.01773002 -0.017734518 0.03638494
0002a0 76 36 db 3c 8d 36 f2 bd 2d 74 82 3c 13 c0 3e 3c
       0.026759367 -0.11826811 0.015924538 0.011642474
0002b0 2a 63 14 be 21 98 14 3d 4f ff 86 bd 39 43 45 bc
       -0.14490953 0.036277894 -0.06591665 -0.012039953
0002c0 c6 a9 c9 bc af 2e f8 bb 88 8d a8 bd 8f b5 33 3d
       -0.024617087 -0.0075739245 -0.0823012 0.04387432
0002d0 c9 a4 c1 3d 7d 4a 54 bd 16 b9 ea bd c0 1d 19 bd
       0.094552584 -0.05182885 -0.114610836 -0.037381887
0002e0 fd d7 7b bd 4f a6 a3 ba d2 10 37 be b3 d3 29 be
       -0.06148528 -0.0012485477 -0.1787751 -0.16584663
0002f0 aa a4 1c 3d 6a a6 45 bd 4f ff 1e 3d 92 d9 08 3e
       0.038242973 -0.048254408 0.0388177 0.13364246
000300 1c 06 5f 3c e4 6c a3 bd 7f 81 dd 3d 9b 03 02 3d
       0.013612296 -0.079797536 0.10815715 0.03174172
000310 70 87 93 bd 6a e8 36 bc 3d b9 c5 bd c0 74 ad 3c
       -0.07203567 -0.01116381 -0.09654472 0.021173835
000320 81 50 1c 3e 22 20 b1 3d ee 95 c9 3d d0 fa ab bc
       0.15265085 0.08648707 0.0984305 -0.02099362
000330 2e 61 ca 3d b2 3b 5d 3d a5 c8 2f 3c cd d2 4a 3d
       0.09881817 0.054012008 0.01072899 0.04951744
000340 a8 93 58 bc cd 4d dd 3d 06 76 3f be 25 60 d3 3d
       -0.013218798 0.10805855 -0.18697366 0.103210725
000350 90 9e 63 3c c8 47 8c bc c2 c7 03 be 76 fb 2a be
       0.013892785 -0.017124072 -0.1286917 -0.16697487
000360 e2 64 10 bd f6 e2 d4 bd d5 23 9b 3c 93 44 40 3b
       -0.03525246 -0.10394852 0.018937984 0.0029337748
000370 a1 8b ac 3d 16 e4 b4 bc e3 d8 49 3d ae 7d 17 3e
       0.084250696 -0.022081416 0.049279105 0.14794037
000380 a1 98 f7 bd 25 a0 14 bd 84 c0 be 3d a6 12 13 be
       -0.120896585 -0.03628554 0.09314063 -0.14362583
000390 e1 8b ef 3d 56 26 8c bd 93 79 dc bd 88 fa ae bd
       0.11696602 -0.068432495 -0.10765376 -0.08543879
0003a0 c1 f7 3f bc 3b e9 45 3e 3c 5b d4 bc 07 7b dd 3c
       -0.011716784 0.19327252 -0.02592241 0.027036203
0003b0 74 09 1b be ff 85 c2 bd 36 28 15 bd 4c e8 a7 bc
       -0.15140325 -0.09498214 -0.0364153 -0.02049651
0003c0 97 b5 f9 3d c0 03 62 bd 60 18 f2 b8 89 02 e8 3d
       0.12192839 -0.055179358 -0.000115439994 0.113286085
0003d0 5c d9 86 bd 04 d8 8b 3d c9 26 ff bd 6a ec b4 bd
       -0.06584427 0.06828311 -0.124585696 -0.08834155
0003e0 8c 6b 9e 3d 06 fb e0 3d 38 8b d1 3d 72 c2 0f be
       0.07735357 0.10985379 0.10231632 -0.14039019
0003f0 b0 d4 73 3d e8 d9 a8 bb de e3 c4 bd 43 6e d0 bd
       0.059529006 -0.0051529296 -0.09613775 -0.10177281

network_body._body_endoder.seq_layers.2.bias f4 [128]
000000 79 ea ef 3c 5e c8 86 bb 77 1a 4e bc 47 c5 10 3c
       0.02928661 -0.004113241 -0.012579552 0.008836097
000010 ea f0 ab 3c 0f 38 38 bc 0c 81 bf bc 23 43 ab bc
       0.0209889 -0.011243834 -0.023376964 -0.020906037
000020 7e 10 67 3c f4 ed e3 3c 23 c8 17 3c 84 a7 01 3c
       0.014103053 0.027823426 0.009264025 0.007913474
000030 5a 86 59 bc a3 49 d0 3c af 61 17 3c ba 40 84 3c
       -0.013276661 0.025425738 0.009239598 0.016144145
000040 fe 3a ee 3c d7 42 8b 3c 1e a3 05 3c 2c 01 ac 3c
       0.029080864 0.016999645 0.008156566 0.020996653
000050 c3 a3 54 3c 71 b5 c3 3c 03 df f2 3b ee 81 27 bc
       0.012978497 0.023890229 0.007411839 -0.010223849
000060 44 b4 07 3c 6a 8a 29 3b a8 90 00 bc ef 24 89 3b
       0.008282725 0.0025869855 -0.007846989 0.004185311
000070 aa f1 69 bc 20 90 9c bc ad e5 9f 3b 61 20 90 3c
       -0.014278809 -0.019111693 0.0048796744 0.017593564
000080 cb 24 cf 3b 57 67 69 3b 84 84 47 3c 02 68 7f 3b
       0.0063215247 0.0035614574 0.01217759 0.0038971906
000090 45 04 ec bb 89 81 49 bc 6e 26 f9 ba 73 6e 3b bb
       -0.0072026574 -0.01229895 -0.0019008645 -0.0028599768
0000a0 b9 80 09 bb de 3c 5b 3c 65 89 97 bc 90 61 19 3c
       -0.0020981266 0.013381211 -0.018498132 0.00936164
0000b0 c3 67 88 bc 39 ae 9a bb 34 e1 b0 bb 17 8e 6b 3c
       -0.01665104 -0.004720476 -0.00539794 0.014377139
0000c0 7c e3 97 3c 13 1b 3f bc a2 7f 80 3c bb 7c 72 3d
       0.01854109 -0.01166417 0.01568586 0.059200983
0000d0 5b 5c b9 3b 13 e0 06 3d 99 1b da 3c 59 18 43 3c
       0.0056567616 0.032928538 0.026624488 0.01190766
0000e0 43 69 35 3c 56 0f 81 3c 52 c3 a9 bb 18 ab 0a 3c
       0.01107246 0.015754383 -0.0051807547 0.0084636435
0000f0 c4 73 30 3d b4 e9 70 3c 34 48 a1 bb f9 fc 25 ba
       0.043079153 0.014704157 -0.0049219374 -0.00063319464
000100 cf 1a aa b9 12 f2 40 3c d4 5c ff 3c 4f 41 41 3c
       -0.000324449 0.011776464 0.031172194 0.011795356
000110 91 a6 cc 3b 8e b4 52 3c 57 68 fd bb ce ac 5c 3b
       0.006245442 0.01286043 -0.0077333855 0.0033672336
000120 df ec 88 3c 3a 63 80 3b 5d 8e 96 3c 12 d1 c8 3c
       0.016714511 0.0039180787 0.018378431 0.024513755
000130 d8 80 dd 3b 54 32 51 3c e2 04 5e bc ba 01 51 3c
       0.006759744 0.012768347 -0.013550969 0.012756759
000140 75 c5 0a 3c bf 40 76 bc 3c 1f cd bc c3 a5 82 3b
       0.008469929 -0.015030085 -0.025039308 0.0039870455
000150 ca d0 f9 39 52 bb 35 ba d2 c1 ac 3c df d7 23 bc
       0.0004764854 -0.0006932515 0.021088514 -0.010000198
000160 81 20 44 3c 28 1e f6 bb 5e 74 6d bc b0 fa 8e bc
       0.01197064 -0.007510919 -0.014493076 -0.017453521
000170 24 d5 f9 3b 2a ce e7 3c 27 a0 98 3c d7 11 bd 3c
       0.0076242853 0.028296549 0.018631054 0.023079796
000180 b9 1f 6c 3c 62 99 e0 3b 1b 7c 79 3c f4 2c 53 bc
       0.01441186 0.006854222 0.015227343 -0.012889136
000190 75 ea 1a bc 6e 68 7a bc 08 8d 96 bb 10 f7 2c 3c
       -0.009455313 -0.015283687 -0.004594449 0.010556951
0001a0 cb 3b 05 3d 6e b2 9a bc 9d eb 2c bb 6a 47 02 3c
       0.032527726 -0.01888391 -0.0026385554 0.007951597
0001b0 2b ea b0 3c 88 bd 5a 3c 9a 83 90 3c 51 d9 cf 3c
       0.021596035 0.013350852 0.017640878 0.02537218
0001c0 ae af eb 3c b4 c0 1b bc 6a 42 3e 3c 13 2b 1c 3d
       0.028770294 -0.009506393 0.011612514 0.038127016
0001d0 79 68 3e 3d 96 25 be bb 96 15 4b ba 72 33 61 3c
       0.04648635 -0.0058028204 -0.0007747052 0.013745176
0001e0 38 2d 0c 3c dd c2 60 3c ad 96 f8 3b d4 74 d1 3c
       0.008555703 0.013718334 0.0075863213 0.025568403
0001f0 80 e0 68 bc 4c 77 70 3c 8c cd 9f 3c a0 5a c7 bb
       -0.014213681 0.01467688 0.019507192 -0.0060838014

action_model._discrete_distribution.branches.0.weight f4 [3, 128]
000000 98 a7 22 3d a1 62 da bc 2f b2 5f 3c 29 2d aa 3c
       0.03971061 -0.026658358 0.013653322 0.020773487
000010 b7 6d ae bb 68 8a 58 3b dc 4a 72 bc 53 3f 07 bc
       -0.0053231376 0.003304148 -0.014788356 -0.008254844
000020 a9 27 b9 3c e3 5d 00 3d 80 c6 e8 3b ca 71 6d 3c
       0.02260192 0.031339537 0.007103741 0.014492461
000030 0c f1 5a 3a e5 32 3e bd ef e0 00 3c e9 0e bf 3a
       0.0008351959 -0.046435256 0.007866128 0.0014576587
000040 40 d5 e1 3b 60 4a a0 bc 05 1d c1 3b 20 31 11 bc
       0.0068918765 -0.019566715 0.005893352 -0.00886181
000050 f0 10 ec 3a 8d 49 fb ba 85 d1 19 39 16 b5 0d bc
       0.0018010419 -0.00191717 0.00014669269 -0.008649131
000060 19 0b b1 bc 71 a6 52 bd 13 83 7a bc 71 62 aa bc
       -0.021611737 -0.051428262 -0.01529004 -0.020798894
000070 af d6 ac b9 cd 70 09 bc 89 1e a9 bb 02 f9 fc 3b
       -0.00032966348 -0.00838871 -0.005161111 0.0077201137
000080 17 80 b1 bb 1c 4f 59 3c e3 24 be 3b d0 b1 d1 bb
       -0.005416881 0.01326349 0.005802737 -0.0063993707
000090 a6 8e f8 3b a6 2e 92 bb e8 87 e3 bb 7f 22 23 bc
       0.0075853644 -0.0044611273 -0.0069436915 -0.009956955
0000a0 72 e1 8b 3a e1 40 b7 bc 45 3a 47 bc 8d 86 af bc
       0.0010672046 -0.022369804 -0.012159889 -0.021426463
0000b0 9a 48 00 bc f3 0a e3 bb c7 e7 a2 3b e6 3f 44 3c
       -0.00782981 -0.0069287955 0.0049714777 0.011978125
0000c0 47 be 36 3c 9d 59 29 bc 39 72 12 3c 99 e2 a1 3b
       0.011153764 -0.010336307 0.008938366 0.0049403426
0000d0 48 19 fb 3c 90 54 d6 b9 9d 90 84 3d 90 02 9c 3a
       0.030651703 -0.00040880265 0.06472895 0.0011902619
0000e0 08 63 6c 3c 54 be 24 3d 3a 16 50 bc fe 29 35 bd
       0.014427908 0.040220574 -0.012700612 -0.0442295
0000f0 e9 e0 cd 3c 3f 69 95 3c 4b 44 eb 3b 9b d7 29 3c
       0.02513166 0.018238662 0.007179772 0.010366346
000100 d7 40 fb bb b6 2f df 3a 69 e0 d6 3c b7 9f 53 bc
       -0.0076676416 0.0017027769 0.026230054 -0.012916497
000110 0b e4 91 bc c5 f1 f3 3c c9 ab c2 bc 71 3a b2 3b
       -0.017808935 0.02977837 -0.023763554 0.0054390957
000120 25 ae dc 3c 5a 15 93 bc 97 fd b6 3c f7 32 e8 3c
       0.026938507 -0.017954517 0.022337718 0.028344614
000130 ae 20 d0 3b 6a c7 3f bc ba f8 c6 bb 8f 89 c2 ba
       0.006351552 -0.011705259 -0.006072131 -0.0014842021
000140 47 35 b8 bc e7 65 74 bc e7 5d ed bb 7a 37 d8 3c
       -0.022486342 -0.014916874 -0.00724386 0.02639364
000150 fb 97 19 bc 72 9f a6 3c 69 87 9a 3b 82 23 b7 bb
       -0.009374614 0.020339701 0.004715849 -0.0055889497
000160 ca 1a 2c bd e3 cc 77 bb 15 7c 91 bb 71 d1 f7 bb
       -0.042017736 -0.003781133 -0.0044398406 -0.007562809
000170 91 e3 b9 bc 42 49 18 3c fa fb 38 3a 79 f2 56 3c
       -0.02269152 0.00929481 0.00070565904 0.013119333
000180 18 02 8a bc 48 8c 77 3c 72 1f 95 bb a8 07 a5 bb
       -0.016846702 0.015109129 -0.0045508677 -0.005036313
000190 1d 22 0e 3b 0d 0e 19 3a b3 08 b4 3c b8 d0 9b 3c
       0.0021687814 0.00058385805 0.021976804 0.019020423
0001a0 da 45 27 37 07 59 7d bc de 81 5d bc e6 da 94 3b
       9.970239e-06 -0.01546312 -0.013519732 0.0045426963
0001b0 2a 2b 60 3c 4a af 05 bd 26 ac 8c 3b 23 91 88 3c
       0.013682166 -0.03263787 0.0042929826 0.01667077
0001c0 0f 04 6f bb 1c c4 38 3b c8 33 af 3c 73 ea 2c bd
       -0.0036470925 0.0028193062 0.021386996 -0.042215776
0001d0 fb 39 82 bc 46 ff 9e bc 28 d8 7d bc bc 43 41 bc
       -0.015896788 -0.019408833 -0.01549343 -0.011795934
0001e0 82 2d 3f bd d0 4e 1f bc 02 1a 7e b9 91 25 e2 3c
       -0.04667426 -0.00972338 -0.00024233016 0.027605804
0001f0 0e b0 03 bc f3 b3 2a 3c c7 10 94 3c c1 f7 d1 bb
       -0.00803758 0.01041888 0.018074406 -0.0064077084
000200 8d ba 9e bc e1 88 01 3d 3f ab 66 bb 5d 69 a8 ba
       -0.019376064 0.03162468 -0.0035197285 -0.0012848784
000210 55 f3 78 bc 82 3d 8e 3c 33 b0 14 3c 20 69 fb 3b
       -0.015194734 0.017363314 0.009075212 0.007672444
000220 a0 f8 4f bb cb 4a 5b 3b aa ef bb 3b 17 80 1c bc
       -0.0031733885 0.0033461328 0.0057353573 -0.009552023
000230 51 8e 23 3c 90 8d 47 bc 54 d6 0e bc d9 9d 7a 3c
       0.009982661 -0.012179747 -0.008718092 0.015296423
000240 8e 20 ee bc 1a ce c9 bb f6 7d cc bb dc 9b c2 bb
       -0.029068258 -0.0061586024 -0.0062406017 -0.00593899
000250 7f 21 69 bc 15 d9 82 bc 69 96 a6 3b 1b de 0d 3b
       -0.0142291775 -0.015972653 0.0050838483 0.0021647278
000260 f8 a4 c8 3b 05 40 19 bb 6a de 29 3c 43 d8 b1 3c
       0.0061231814 -0.0023384106 0.010367969 0.021709567
000270 2f 2e dc 3b 4d 71 8f 3b a4 eb d3 ba 0a 07 02 bc
       0.0067193727 0.00437752 -0.0016168249 -0.007936249
000280 0d 0f 8a bb 7d c6 82 bb c8 69 81 ba 7f 58 6f 3c
       -0.00421322 -0.003990947 -0.0009873444 0.014608501
000290 5c db 65 3c 53 23 2c 3c 2f fa 38 ba 61 77 95 3b
       0.01402935 0.010506469 -0.0007056323 0.00456135
0002a0 57 fc dd ba fd 1d 98 bc 3b a6 43 3c a6 5c 21 bc
       -0.0016936165 -0.018568987 0.011941488 -0.009848749
0002b0 98 34 b8 3a 04 fb 01 3c 46 05 e6 3c 35 06 aa bb
       0.001405376 0.007933382 0.028078686 -0.005188728
0002c0 26 21 ed bb 62 b1 d8 3b 1e e9 3b bc 7a 69 8b bc
       -0.0072366176 0.0066129426 -0.011469154 -0.017018069
0002d0 0b 46 27 3b 68 38 a7 bc 3e 6b 83 bc 81 0e 6d bc
       0.0025523927 -0.020412639 -0.016042348 -0.01446879
0002e0 72 5e 37 bc 2c 8b 1c 3c c4 bc 55 3c 04 f3 e6 b7
       -0.011191951 0.009554666 0.0130454935 -2.75313e-05
0002f0 28 7b df bc 64 63 0f 3a 74 c8 8f 3a 49 21 d6 bb
       -0.027280405 0.00054698274 0.0010969774 -0.0065347296
000300 64 e9 57 bc 96 ea d2 3b 84 6c 15 bc 3e 6e 41 3a
       -0.013178203 0.006436656 -0.00912011 0.0007378793
000310 e4 75 a1 bb c8 10 06 3c 62 f5 3e 3c 50 ad 72 3a
       -0.0049273837 0.008182712 0.0116551835 0.0009257393
000320 c9 ef e6 3a d5 60 7c bb fd 8c aa bc 3b ce cd ba
       0.0017619069 -0.0038509865 -0.020819182 -0.001570172
000330 fe 47 80 3b 31 42 a2 bc bc ca 72 bb de 08 83 3b
       0.003914832 -0.019806953 -0.0037047109 0.00399886
000340 24 07 af 3b dc b0 7f 3c f8 89 07 3d 12 3f 53 ba
       0.0053414274 0.015606131 0.03309056 -0.00080584094
000350 18 37 43 bc aa 42 80 3c 69 07 eb bb b8 7b ca 36
       -0.011914991 0.015656788 -0.007172514 6.034472e-06
000360 ee 78 ea 3b ba 75 03 bc 55 85 98 3c c5 b2 96 3c
       0.007155529 -0.008023674 0.018618265 0.01839579
000370 0c f4 bf 36 e1 a7 89 bc 12 c3 9a bc 77 6c 91 bc
       5.7206544e-06 -0.016803684 -0.018891845 -0.017751915
000380 0b 0d 9e bb 54 7a b6 bb eb 3f ce bc 06 7c 02 3c
       -0.004823332 -0.005568782 -0.025176963 0.00796414
000390 93 ec 10 3c ff 93 de 3c 37 32 39 3c cb 46 9d 39
       0.008845466 0.02717018 0.011303476 0.00029998118
0003a0 45 7f 2b bc 4c 4d 98 bb c5 54 ef b9 d9 49 39 bb
       -0.010467355 -0.0046478864 -0.0004564879 -0.0028272776
0003b0 97 94 9e bb 1d 91 7c bc d2 7d ab bc 11 ce b7 bb
       -0.0048394906 -0.015415457 -0.02093402 -0.005609282
0003c0 d6 48 f7 bc 43 72 ed 3b 82 c7 a6 3b 0a 7e 2d bc
       -0.030186098 0.007246287 0.005089701 -0.010589132
0003d0 e3 53 9b bc 3d cf ce 3c e5 c7 da 3b 5b 88 f8 bc
       -0.018960899 0.025245303 0.0066766613 -0.030338457
0003e0 27 38 54 bb a5 54 ef 3b ea cc 8c ba 83 ed 3d bc
       -0.0032382102 0.0073037916 -0.0010742221 -0.011592272
0003f0 25 99 ee 3c bb 1f a1 bb 57 bd 0d 3a b0 8b 0e bb
       0.02912576 -0.0049171126 0.0005406937 -0.002175074

action_model._discrete_distribution.branches.0.bias f4 [3]
000000 d6 3d 33 3c b0 2d a9 bc fa a1 e4 3b
       0.010940036 -0.020651668 0.006977317

exp_avg f4 [128, 24]
000000 0f 05 0b b8 b4 b9 e8 b7 df 99 57 37 71 52 33 39
       -3.3144894e-05 -2.774303e-05 1.28508245e-05 0.00017101482
000010 7a 3b a4 b7 c8 a7 40 37 e0 3c 87 39 e2 d9 97 b8
       -1.957802e-05 1.1483156e-05 0.00025794562 -7.240825e-05
000020 de 47 b4 37 bd ac cf 39 00 2f b8 b8 a8 c7 20 38
       2.1491138e-05 0.00039610817 -8.782558e-05 3.8332917e-05
000030 25 90 c5 39 9a 44 38 b9 81 b2 dc 37 3d 58 53 39
       0.00037682164 -0.00017573163 2.6309166e-05 0.000201554
000040 1f a4 92 b9 5c 00 03 b8 a9 be 91 38 14 df 78 b9
       -0.0002796957 -3.123317e-05 6.949652e-05 -0.00023734226
000050 1a d4 93 37 35 f7 bd 38 44 6d 07 b9 11 4f 1c b8
       1.7622533e-05 9.058268e-05 -0.00012915308 -3.7266935e-05
000060 50 7c b4 39 29 c3 2f b9 46 44 98 b7 5a 1f 0a ba
       0.00034424895 -0.00016762003 -1.8151604e-05 -0.0005268954
000070 0f af 82 b8 ce 26 32 b8 af 9d 7e ba 0c 1c b5 b8
       -6.23149e-05 -4.2474647e-05 -0.0009712828 -8.635977e-05
000080 f8 5d 8a b8 2d 4d c7 ba 80 11 c9 b8 1f 9f 42 b7
       -6.597856e-05 -0.0015205495 -9.5876865e-05 -1.1600349e-05
000090 bb 0c fc ba 74 ac c4 b8 3d 6a de 37 f4 f4 d6 ba
       -0.0019229868 -9.37813e-05 2.6513933e-05 -0.0016399906
0000a0 a5 35 9c 38 83 05 c7 38 85 8a 26 bb 71 49 a3 b8
       7.448652e-05 9.490086e-05 -0.0025412154 -7.786125e-05
0000b0 63 08 08 39 65 26 3a bb b2 66 eb b8 ac 81 2c 39
       0.00012973095 -0.0028404233 -0.00011224802 0.00016451505
0000c0 66 c2 af b8 94 b0 0c 38 43 a7 02 b6 08 6c 94 38
       -8.38086e-05 3.3543052e-05 -1.9468869e-06 7.077312e-05
0000d0 75 68 af b6 3b 57 0c b7 d7 dc 9a 38 54 33 99 b6
       -5.227567e-06 -8.36496e-06 7.384427e-05 -4.5657307e-06
0000e0 8c 50 db b6 e0 dc 05 39 68 f6 cd b7 d6 2c 0f b6
       -6.5360855e-06 0.00012766151 -2.4552646e-05 -2.1334758e-06
0000f0 f7 88 df 38 0b c7 bb b7 1a 88 b1 b6 42 ab da 38
       0.0001065898 -2.2384824e-05 -5.2908554e-06 0.00010426949
000100 d0 d9 c6 b7 13 38 5e b6 ed a6 87 39 a1 b9 68 37
       -2.3704866e-05 -3.3113217e-06 0.00025873576 1.3871498e-05
000110 29 aa ab b7 dc 69 87 39 c5 b9 2c 37 73 98 ce b7
       -2.0464026e-05 0.00025828078 1.0295252e-05 -2.4628103e-05
000120 31 25 2d b9 47 f4 be 37 cd 84 1c b7 fe cf e7 b6
       -0.0001651242 2.2763516e-05 -9.329245e-06 -6.90855e-06
000130 52 ce 4d 38 99 3b 05 b7 a3 bb 97 38 d8 6c 13 38
       4.906796e-05 -7.941294e-06 7.235191e-05 3.51489e-05
000140 3d 41 e6 b6 59 e1 ac 39 eb ea e0 37 3b 54 6d b7
       -6.862129e-06 0.00032974294 2.6812273e-05 -1.4145912e-05
000150 26 15 e3 39 bd b7 84 37 8e 4d c6 b6 15 fe a7 39
       0.0004331257 1.5821186e-05 -5.9098884e-06 0.00032042028
000160 4c 2e 6b b8 ef 33 06 b8 50 10 21 3a e0 8a 35 b8
       -5.6071483e-05 -3.1996457e-05 0.00061440933 -4.32831e-05
000170 26 0e 12 b8 05 f4 3e 3a a3 1c 43 b7 1c 7c 49 b8
       -3.482229e-05 0.00072842865 -1.1629573e-05 -4.803772e-05
000180 9f 59 23 b8 8d d7 ed b7 79 e6 a1 37 f7 45 ae b8
       -3.8945695e-05 -2.8352975e-05 1.9300018e-05 -8.3099985e-05
000190 4b 24 32 b8 68 96 ff 37 e1 62 af b8 f9 10 3b b8
       -4.2472308e-05 3.0468407e-05 -8.363068e-05 -4.460008e-05
0001a0 08 62 f5 37 55 b2 2c b9 33 b7 b3 b7 04 1e ca 37
       2.9251925e-05 -0.00016469632 -2.1423772e-05 2.4094254e-05
0001b0 3e 1e 71 b8 06 16 a3 b8 9f 1a 12 38 33 38 27 b8
       -5.7487043e-05 -7.776548e-05 3.4833905e-05 -3.9868242e-05
0001c0 67 3a d1 b8 36 4d 13 38 b6 4b 89 b9 82 f3 5f b8
       -9.976775e-05 3.511944e-05 -0.00026187085 -5.3394127e-05
0001d0 b5 6e 31 38 7c 25 4d b9 74 3d 17 b8 e0 e8 1d 38
       4.2303192e-05 -0.00019564288 -3.6058438e-05 3.76486e-05
0001e0 ee 22 a5 38 bd da ef 36 7c ca f7 b7 ec 1a 83 b8
       7.874319e-05 7.1482195e-06 -2.9538984e-05 -6.251581e-05
0001f0 74 50 5b 38 8b f4 0f b8 01 81 5c b8 69 55 19 38
       5.2288597e-05 -3.4321605e-05 -5.257223e-05 3.6557587e-05
000200 6f dd 08 b8 8f 9b 21 39 2b 1c 02 b8 f8 2e 0b b8
       -3.2631153e-05 0.00015412107 -3.102065e-05 -3.3183926e-05
000210 2c ab 1e b9 fc 6b a2 38 5e c0 87 b8 08 59 15 b9
       -0.0001513182 7.7448756e-05 -6.473133e-05 -0.00014242914
000220 db 57 95 38 13 5a a8 b8 31 32 03 39 1b e3 13 38
       7.121238e-05 -8.027642e-05 0.00012511831 3.525904e-05
000230 3e 19 e9 b8 1a af e6 38 85 76 d9 37 72 a5 df b8
       -0.000111150075 0.0001099987 2.5923606e-05 -0.00010664285
000240 8e 82 79 b8 15 5f b7 37 38 73 44 35 83 38 85 b9
       -5.9487815e-05 2.1859576e-05 7.3183355e-07 -0.0002540984
000250 8b 66 84 38 97 ce da b5 60 bb bb b9 e1 e6 7b 38
       6.3133506e-05 -1.6302391e-06 -0.00035807025 6.0058086e-05
000260 82 b9 ce b6 68 6f 96 b9 33 f8 80 38 64 a2 0b b7
       -6.1608744e-06 -0.00028693234 6.149746e-05 -8.322855e-06
000270 47 ce bf b9 61 fc b3 38 be 68 e4 b5 45 b4 8c b9
       -0.00036584047 8.5823944e-05 -1.7017808e-06 -0.00026837192
000280 40 83 e3 38 75 cf d3 35 6a d3 9d b9 fb 41 da 38
       0.00010848651 1.5781103e-06 -0.0003010289 0.0001040734
000290 f4 2c ee 36 fb f0 a3 b9 29 59 b5 38 f6 c9 8f 37
       7.098186e-06 -0.00031269327 8.64736e-05 1.7140974e-05
0002a0 08 59 13 b9 0e 8f 13 b8 75 fc d8 38 89 3f a1 39
       -0.00014052179 -3.518076e-05 0.000103467064 0.0003075565
0002b0 c3 7f 5e b9 67 13 03 39 e5 58 8f 39 e4 08 48 b9
       -0.00021219165 0.00012500361 0.00027341317 -0.00019076798
0002c0 47 76 ff 38 3d 3d be b9 86 eb d2 36 45 e7 ed 38
       0.000121813784 -0.0003628525 6.2859062e-06 0.00011344118
0002d0 92 60 a4 39 03 65 7c b9 b5 20 00 39 39 ee bd 39
       0.00031352468 -0.00024070223 0.00012219216 0.0003622638
0002e0 cf c4 5d b9 3e 20 ef 38 6e b1 44 b9 c6 db 70 b9
       -0.0002114952 0.00011402414 -0.00018758114 -0.00022970056
0002f0 9d f0 4c 39 2a 90 63 b9 38 28 2f b9 36 05 3b 39
       0.00019544591 -0.00021702112 -0.00016704283 0.00017835651
000300 cc f4 46 b8 6b 1b 93 b7 79 bf 2d 37 7f 7c f0 38
       -4.7434864e-05 -1.7536533e-05 1.0356184e-05 0.00011467281
000310 73 93 9e b8 2f 31 9f 37 a0 3a 17 39 cd 48 a1 b8
       -7.561492e-05 1.897718e-05 0.00014422322 -7.6906384e-05
000320 7e 70 68 37 4c 47 96 39 ac ef 3e b8 23 47 5d 37
       1.3854469e-05 0.0002866335 -4.5522742e-05 1.3189189e-05
000330 5b bb 0c 3a ea d3 d4 b8 7a 43 13 38 ee 5b 17 3a
       0.00053684943 -0.0001014842 3.5110374e-05 0.00057738915
000340 d0 33 bd b8 c6 37 23 38 66 fe c6 39 54 b9 9a b8
       -9.021873e-05 3.891417e-05 0.00037955045 -7.377812e-05
000350 f9 51 87 38 71 b1 fd 39 0a ed 86 b8 20 0e 82 38
       6.45257e-05 0.00048388125 -6.43377e-05 6.201514e-05
000360 90 b9 8e 37 21 c4 3f b8 d9 c4 ae b7 a9 73 cb b8
       1.7014128e-05 -4.5720608e-05 -2.083408e-05 -9.701338e-05
000370 f1 8b fe b6 07 e0 1c b8 8b 4a 29 b9 32 f9 4f b6
       -7.586081e-06 -3.740194e-05 -0.00016144865 -3.0990454e-06
000380 46 71 20 b8 9f ff 42 b9 36 b1 f5 b7 19 a9 1f b8
       -3.8252467e-05 -0.00018596508 -2.9288796e-05 -3.806604e-05
000390 f0 6c d2 b9 b9 be 00 38 fd 90 3f b8 72 9d 87 b9
       -0.00040135486 3.0695202e-05 -4.567298e-05 -0.00025866512
0003a0 02 06 ba 38 02 33 f6 b7 ee f3 1d ba 83 c2 47 38
       8.87029e-05 -2.9349238e-05 -0.0006025423 4.762645e-05
0003b0 b2 fe 13 b8 1e 5c 2a ba db 24 02 38 4c 6a 14 b8
       -3.5284735e-05 -0.0006498712 3.102874e-05 -3.5384946e-05
0003c0 9b 59 89 b9 0f eb 1a b8 1a bc 92 37 a2 56 9c 38
       -0.00026197438 -3.6935377e-05 1.7492148e-05 7.454796e-05
0003d0 73 54 a3 b8 b9 57 9f 37 9c 32 18 39 af 8e 0f b8
       -7.7881756e-05 1.8995126e-05 0.00014514703 -3.422674e-05
0003e0 83 e9 a9 37 04 bd 9d b8 16 ec 9d 38 4c 5f 47 37
       2.0255107e-05 -7.52155e-05 7.530318e-05 1.1883512e-05
0003f0 50 3f d0 38 81 d2 2c b8 df 36 39 37 6c 13 58 b8
       9.930006e-05 -4.1204043e-05 1.1039635e-05 -5.15165e-05

exp_avg_sq f4 [128, 24]
000000 e4 4b 12 35 10 eb 22 34 a2 2b 5d 32 8e 40 1c 35
       5.4499674e-07 1.5172941e-07 1.2873814e-08 5.820847e-07
000010 36 fb 3d 34 ef 59 89 32 8c f8 4f 35 98 99 76 34
       1.7693387e-07 1.5989796e-08 7.747519e-07 2.2966412e-07
000020 50 52 bc 32 32 b2 7f 35 6f 93 8c 34 9e ba d8 32
       2.1923512e-08 9.525421e-07 2.6184304e-07 2.5230573e-08
000030 54 50 a4 35 1f 58 99 34 97 ee ee 32 39 88 e8 35
       1.2242331e-06 2.8562587e-07 2.7815345e-08 1.7324993e-06
000040 d2 4e bd 34 ce 77 1d 33 c2 02 3b 36 a0 96 e5 34
       3.5261343e-07 3.6663373e-08 2.7866777e-06 4.2764168e-07
000050 7b 04 4c 33 87 b4 90 36 30 73 14 35 f4 06 86 33
       4.7501526e-08 4.3125506e-06 5.5301916e-07 6.241126e-08
000060 56 78 9f 35 0f ee a3 34 f7 1f 1b 33 f9 69 e1 35
       1.1881446e-06 3.0534326e-07 3.611782e-08 1.6794648e-06
000070 8a 78 d2 34 88 4c 40 33 5b bd 15 36 0b 16 f5 34
       3.9203252e-07 4.477309e-08 2.231295e-06 4.5650845e-07
000080 0c c0 62 33 74 5d 75 36 8c d6 11 35 1d 97 81 33
       5.279439e-08 3.6562242e-06 5.4328916e-07 6.034518e-08
000090 63 ce aa 36 54 9c 28 35 66 73 93 33 33 54 e5 36
       5.0904214e-06 6.2812364e-07 6.866212e-08 6.834534e-06
0000a0 c4 ee 35 35 35 d8 b6 33 b0 61 16 37 b6 0f 48 35
       6.7775204e-07 8.514363e-08 8.963441e-06 7.452867e-07
0000b0 4b 67 cf 33 1c 05 31 37 a2 74 57 35 35 92 da 33
       9.6579775e-08 1.0551212e-05 8.0263464e-07 1.0178011e-07
0000c0 3c 6c 9d 34 2f 10 60 32 ce a8 92 30 fa a1 b4 34
       2.932228e-07 1.3042196e-08 1.0670875e-09 3.3645466e-07
0000d0 71 59 7c 32 63 e0 aa 30 81 85 ed 34 00 8e 9d 32
       1.4688667e-08 1.2432902e-09 4.4241827e-07 1.834178e-08
0000e0 c1 34 d9 30 cc a3 08 35 34 15 b4 32 ad 51 f6 30
       1.5803822e-09 5.0902304e-07 2.09644e-08 1.7922069e-09
0000f0 ee 84 17 35 51 7b c1 32 bc 36 0b 31 18 dc 1e 35
       5.644532e-07 2.2524235e-08 2.0258275e-09 5.9179865e-07
000100 f1 4d c2 32 7e 71 11 31 83 06 37 35 45 b1 e3 32
       2.2620016e-08 2.116479e-09 6.818229e-07 2.6506891e-08
000110 39 69 2e 31 76 d6 3f 35 de 80 fb 32 aa 3a 43 31
       2.5380145e-09 7.1465126e-07 2.9278848e-08 2.8409581e-09
000120 7b 76 03 34 34 22 22 33 85 54 79 31 4a e2 05 34
       1.2243429e-07 3.7749672e-08 3.6282313e-09 1.2468914e-07
000130 0b e0 45 33 4f c3 9f 31 42 0c 2d 34 55 d2 81 33
       4.6071403e-08 4.649713e-09 1.611634e-07 6.04529e-08
000140 65 c8 d7 31 3c 8a aa 34 db 75 a6 33 af fa 08 32
       6.2801058e-09 3.1765546e-07 7.751415e-08 7.973241e-09
000150 a2 40 12 35 0a a2 c5 33 57 a1 1f 32 e9 e3 6f 35
       5.448329e-07 9.203002e-08 9.2917025e-09 8.936609e-07
000160 d6 de e3 33 44 c7 53 32 34 25 9b 35 24 dd f5 33
       1.0611045e-07 1.2327124e-08 1.1559227e-06 1.1448927e-07
000170 15 a6 74 32 02 76 bb 35 6d 18 01 34 cf 81 80 32
       1.4240432e-08 1.396693e-06 1.2022947e-07 1.4960191e-08
000180 50 87 08 34 ed 25 b4 32 5a 04 db 30 82 f5 14 34
       1.2715213e-07 2.0972005e-08 1.5935584e-09 1.387289e-07
000190 5c ff c8 32 0d 2c 06 31 4e 0a 2c 34 ff db e8 32
       2.3399188e-08 1.9524606e-09 1.6022497e-07 2.7108397e-08
0001a0 83 f3 1e 31 17 cc 4f 34 07 0d 07 33 cb 26 3e 31
       2.3130446e-09 1.9352625e-07 3.1443985e-08 2.767069e-09
0001b0 bf 93 8e 34 54 bf 26 33 33 a7 79 31 b4 cb cb 34
       2.655706e-07 3.88239e-08 3.632931e-09 3.795991e-07
0001c0 83 c1 50 33 0a 54 ae 31 25 81 10 35 bb 8b 7d 33
       4.860477e-08 5.0736206e-09 5.383211e-07 5.9033237e-08
0001d0 35 e8 db 31 1b 04 53 35 f8 aa a5 33 1d 49 00 32
       6.4001378e-09 7.86096e-07 7.71451e-08 7.467205e-09
0001e0 70 08 89 33 b3 5e ba 32 26 66 07 31 45 03 aa 33
       6.3810944e-08 2.1696314e-08 1.970315e-09 7.9168366e-08
0001f0 5b f7 dc 32 de 89 1e 31 dc ef 1b 34 22 35 03 33
       2.5723855e-08 2.3070394e-09 1.452276e-07 3.054914e-08
000200 72 43 41 31 8a 21 bb 34 c3 00 29 33 d9 2e 79 31
       2.8123535e-09 3.4855867e-07 3.934907e-08 3.6260899e-09
000210 49 1a 48 35 f7 e2 62 33 83 35 a8 31 35 59 98 35
       7.4544056e-07 5.282615e-08 4.895527e-09 1.1350845e-06
000220 e4 82 8c 33 28 7e f0 31 63 43 e5 35 ab 10 a4 33
       6.543067e-08 6.9992616e-09 1.7081442e-06 7.639877e-08
000230 26 09 0f 32 93 99 0f 36 1f 3d ae 33 85 63 18 32
       8.325776e-09 2.1398052e-06 8.113624e-08 8.870193e-09
000240 b3 c2 5b 32 d8 70 ea 30 ec 7e 55 2f fc c1 44 33
       1.2791747e-08 1.7057813e-09 1.9417329e-10 4.5811234e-08
000250 16 2c 9d 31 f8 05 fa 2f 9b 52 a6 33 c8 65 00 32
       4.5743134e-09 4.5478976e-10 7.745003e-08 7.473723e-09
000260 74 ad 46 30 13 49 e1 33 8c b0 25 32 0d c8 92 30
       7.227847e-10 1.0490671e-07 9.644406e-09 1.0679756e-09
000270 7f 4a 0d 34 68 29 3f 32 29 78 b3 30 be d2 30 34
       1.315875e-07 1.1127078e-08 1.3058116e-09 1.6467945e-07
000280 c6 d2 55 32 49 df eb 30 8a 56 4f 34 ca 50 6a 32
       1.2446156e-08 1.7161962e-09 1.930986e-07 1.3638962e-08
000290 ec 32 00 31 8f c3 75 34 f2 b7 88 32 81 30 0e 31
       1.8655397e-09 2.2888547e-07 1.5916132e-08 2.069129e-09
0002a0 ef 0e 0a 35 c6 5c 55 34 3b 80 b7 32 28 6c 54 35
       5.143074e-07 1.9870922e-07 2.1362316e-08 7.913354e-07
0002b0 d6 76 84 34 97 6f e7 32 9e b3 ca 35 21 27 a8 34
       2.467338e-07 2.6942685e-08 1.5102448e-06 3.1320909e-07
0002c0 26 81 11 33 05 ea 61 36 1f fc d8 34 e9 c2 3c 33
       3.3877903e-08 3.366383e-06 4.0416577e-07 4.394943e-08
0002d0 dc 99 c4 36 3a 02 08 35 aa 00 6c 33 18 e4 0b 37
       5.859167e-06 5.066719e-07 5.4948636e-08 8.338153e-06
0002e0 77 3e 23 35 3a ec a0 33 91 3f 3d 37 bd 76 3a 35
       6.081313e-07 7.49355e-08 1.1280078e-05 6.9463186e-07
0002f0 54 7c b5 33 be 50 6e 37 6d d4 56 35 19 89 d5 33
       8.4510845e-08 1.4204705e-05 8.003033e-07 9.943523e-08
000300 09 35 15 34 4b fe a2 32 18 83 01 31 e1 d0 58 34
       1.3896e-07 1.8974921e-08 1.8846489e-09 2.0192557e-07
000310 dd f3 e3 32 4e bd 31 31 ab 8e aa 34 3a e1 0d 33
       2.6537174e-08 2.5864497e-09 3.1768772e-07 3.3033963e-08
000320 82 02 60 31 6b f0 fa 34 c9 e0 2f 33 1f 62 9b 31
       3.2597716e-09 4.6741056e-07 4.0949804e-08 4.522249e-09
000330 b0 43 2c 35 1e ed 53 33 70 5a c1 31 af f1 81 35
       6.417349e-07 4.9342923e-08 5.627321e-09 9.681588e-07
000340 a2 87 85 33 76 ef f9 31 e2 a8 b5 35 15 25 98 33
       6.2179666e-08 7.2740773e-09 1.3534702e-06 7.084797e-08
000350 16 19 0d 32 1f f5 d8 35 7d fb a4 33 93 1c 15 32
       8.212984e-09 1.6164594e-06 7.6825906e-08 8.6794385e-09
000360 12 33 ef 33 a2 a0 10 33 3a 27 85 31 4b e2 1a 34
       1.11385944e-07 3.3673707e-08 3.875269e-09 1.4424693e-07
000370 fe d9 39 33 78 5c a6 31 35 13 88 34 e1 fa 76 33
       4.3271932e-08 4.8417483e-09 2.534595e-07 5.750451e-08
000380 68 7f d6 31 9f c6 f6 34 1b 00 9a 33 97 7c 03 32
       6.242704e-09 4.5965587e-07 7.171203e-08 7.653532e-09
000390 e9 b9 50 35 40 a8 ba 33 c8 77 1a 32 22 f7 97 35
       7.7756573e-07 8.6919044e-08 8.991215e-09 1.1322302e-06
0003a0 37 e3 d6 33 a8 b6 46 32 4b 25 e1 35 35 2e fd 33
       1.0006482e-07 1.1566648e-08 1.677466e-06 1.17896356e-07
0003b0 68 25 73 32 c7 de 17 36 01 9b 0d 34 dc 2b 8b 32
       1.4152967e-08 2.2630427e-06 1.3188038e-07 1.6201675e-08
0003c0 d6 33 8e 34 b0 e4 c5 33 73 d4 30 32 66 a9 8f 34
       2.6487277e-07 9.2151254e-08 1.0292854e-08 2.675908e-07
0003d0 65 b5 ef 33 64 a9 62 32 ee aa ac 34 a4 e7 10 34
       1.11623e-07 1.3193446e-08 3.2161864e-07 1.3495315e-07
0003e0 d8 a9 83 32 2f 40 5b 35 e7 95 2e 34 04 f7 a7 32
       1.5327643e-08 8.1677257e-07 1.6259547e-07 1.9553688e-08
0003f0 f6 31 99 35 d0 c5 3f 34 b3 15 b3 32 d5 a4 ce 35
       1.1413929e-06 1.7860225e-07 2.084821e-08 1.5396168e-06

exp_avg f4 [128]
000000 43 6d 87 b8 af 66 6b b8 c5 b9 ac 36 97 1c c3 b6
       -6.457653e-05 -5.6123998e-05 5.147626e-06 -5.814781e-06
000010 77 3d 97 b7 90 76 59 37 2b 59 35 38 3a 28 af b8
       -1.8029225e-05 1.2961813e-05 4.3236807e-05 -8.352143e-05
000020 07 ed 06 b8 dc 24 82 37 d0 d1 43 b8 39 6a 5f 38
       -3.216884e-05 1.5514372e-05 -4.6687026e-05 5.326627e-05
000030 cf 87 d9 36 fe f4 4e 38 78 af a1 36 04 fc 05 b7
       6.482914e-06 4.9342394e-05 4.818601e-06 -7.986095e-06
000040 48 d7 8e 36 26 bc 8d 37 1e f7 5e 38 c5 52 32 37
       4.256992e-06 1.6896123e-05 5.315907e-05 1.0628898e-05
000050 9e fc b7 38 e5 a1 95 b8 75 a9 34 b7 cb 07 41 b8
       8.7731736e-05 -7.135029e-05 -1.0768291e-05 -4.6022044e-05
000060 c0 e6 ae 38 81 ca 7c b8 bb 8b b5 b8 dd e7 46 b6
       8.339947e-05 -6.027008e-05 -8.6567794e-05 -2.9639261e-06
000070 9b 8f bc b7 70 3e 59 38 f9 cc f9 b7 6b d7 53 b8
       -2.2478218e-05 5.179498e-05 -2.9778561e-05 -5.0506944e-05
000080 c8 00 8f b7 b8 2c 0e 36 af 4d 2c b6 85 4f 04 b8
       -1.7047292e-05 2.1185679e-06 -2.5675215e-06 -3.154531e-05
000090 17 2d 58 37 80 13 4e 38 dc 2a d5 37 3c ee 96 36
       1.2885102e-05 4.9132388e-05 2.5411537e-05 4.4980825e-06
0000a0 67 ef 5e b8 d8 f6 3d b7 1c 6e 92 b7 70 b0 36 37
       -5.3151885e-05 -1.1322751e-05 -1.745583e-05 1.0889125e-05
0000b0 a2 06 a3 37 66 67 60 37 9e bd 46 37 d8 77 d6 38
       1.9434203e-05 1.3375515e-05 1.1845868e-05 0.00010226638
0000c0 e2 13 d8 37 5d 27 99 b8 4c 3e 20 38 ba b5 d6 38
       2.5758465e-05 -7.3029405e-05 3.820499e-05 0.000102381644
0000d0 d5 0d 9c b7 84 6f 1b b7 8e 3e 10 38 c0 75 86 38
       -1.860309e-05 -9.264684e-06 3.4390534e-05 6.4115506e-05
0000e0 e8 c0 f5 38 58 45 4f 37 4e 25 22 38 43 29 7d b8
       0.00011718442 1.2354307e-05 3.8658553e-05 -6.035833e-05
0000f0 c6 d3 de 36 72 d9 c0 b7 35 a6 82 38 52 2b c1 36
       6.6407692e-06 -2.298944e-05 6.2298415e-05 5.7568914e-06
000100 83 1e ac 37 66 06 03 35 0d 56 ef b7 c0 43 e7 37
       2.0518206e-05 4.8810614e-07 -2.853109e-05 2.7568894e-05
000110 d5 d7 9a 35 66 6b 72 35 3a 4e 19 b8 64 b6 1a b7
       1.153671e-06 9.030831e-07 -3.6550897e-05 -9.221581e-06
000120 a2 0e 68 b6 72 c3 36 b9 aa d1 82 b8 15 e8 35 38
       -3.4579211e-06 -0.00017429682 -6.237936e-05 4.3369906e-05
000130 8d 17 84 b8 63 14 a3 38 ae a4 2b b6 67 4b 1f b7
       -6.298637e-05 7.776243e-05 -2.5576842e-06 -9.4946945e-06
000140 3d ec 38 38 b7 41 f0 b7 1e 6e 70 b8 d7 00 53 b8
       4.4089033e-05 -2.864083e-05 -5.7323014e-05 -5.0307102e-05
000150 85 fe 78 b7 41 16 d2 b8 ec e3 9a b8 2b c9 97 b7
       -1.4841212e-05 -0.000100177254 -7.385746e-05 -1.8094279e-05
000160 ed 86 17 37 b3 2c 33 b8 70 e0 75 36 dd d0 7e b8
       9.031716e-06 -4.2718555e-05 3.6638485e-06 -6.0752838e-05
000170 fb 1e 84 b8 c4 7f 26 b8 3c 5e 00 b8 24 14 9e 37
       -6.300021e-05 -3.9696475e-05 -3.060534e-05 1.8844446e-05
000180 07 cf cc b8 c8 c5 1c b6 7a 7e 6a 38 95 a7 be 38
       -9.76604e-05 -2.3360935e-06 5.5907738e-05 9.0911206e-05
000190 36 66 5a b7 bf c9 ce 36 d0 23 ce b8 e2 77 f4 36
       -1.301761e-05 6.1627647e-06 -9.829516e-05 7.285723e-06
0001a0 16 1e 0d 38 e4 7e 4d 35 38 08 1b b7 dc 2b d2 b7
       3.364504e-05 7.65531e-07 -9.2406335e-06 -2.5054374e-05
0001b0 55 e1 07 b8 a5 5e 1e b7 50 c5 1f 38 93 8a a6 37
       -3.2396365e-05 -9.43957e-06 3.8092316e-05 1.985327e-05
0001c0 22 d4 55 37 25 f6 90 38 a5 16 d5 b7 b7 b4 32 37
       1.274518e-05 6.912303e-05 -2.5402123e-05 1.0651703e-05
0001d0 93 30 73 b8 c6 a9 ae b7 69 3f da b6 38 14 a0 b7
       -5.7980953e-05 -2.0821473e-05 -6.504288e-06 -1.9082901e-05
0001e0 04 62 84 b7 24 40 1d 36 4a 61 66 b8 ab ce 01 b8
       -1.5781268e-05 2.3432158e-06 -5.492688e-05 -3.094847e-05
0001f0 78 52 e6 37 d4 0e e5 b6 8a e1 89 b8 73 3e d5 b8
       2.745654e-05 -6.826458e-06 -6.574679e-05 -0.000101682635
