results/ppo/BalanceBall1/checkpoint.pt (torch, 147682 bytes, 11 tensors)

network_body._body_endoder.seq_layers.0.weight f4 [128, 4]
1.494092 0.46546888 0.9382453 -0.10998784 0.2921152 -0.437243 0.67821926 0.05525917
1.7444787 -0.59012115 0.5273072 0.73148084 -0.80669004 0.36318868 0.59245765 -0.39538014
0.3232777 -0.4069372 0.8575528 0.9495407 0.17152113 0.030289344 -0.15137763 -0.25263864
-0.33184612 0.90400153 -0.22433381 0.4974293 -0.07567505 -0.5351758 0.7513976 -0.37386003
-0.33728886 -0.5103958 0.020192463 0.07283702 0.34586143 -0.34661233 -0.27776593 -0.28258684
-0.03335773 0.5916035 -0.2866127 -0.40113947 0.38478723 0.25691196 0.43905815 0.032226935
-0.5650491 -0.0031253693 -0.053208515 0.22525184 -0.3619873 -0.3544214 0.51224655 -0.78679353
-0.8152756 -0.49228626 0.44321808 -0.2980498 -0.65485716 -0.34425426 -0.9348736 0.6400542
0.44349077 -0.74164283 0.19294761 0.3542605 0.3921126 0.29210788 -0.7830253 0.30121008
-0.1034476 -0.54691654 0.9126546 0.36192724 -0.2159438 -0.56791216 0.24880227 0.70074856
-0.41588134 -0.09112566 0.3187998 0.29804406 -0.28627282 0.8460556 -0.4044374 0.08057377
-0.5974843 -0.18110874 -0.31896383 0.41340557 0.03876028 0.41779834 -0.087220386 -0.19900936
0.1533736 -0.55518234 -0.39454108 0.20783567 0.111584574 0.19127841 0.00026984495 0.88071936
-0.5959111 -0.2596889 0.1702003 -0.8501766 0.49353927 -0.1854546 -0.082940325 -0.024760893
0.42948398 -0.38611263 0.65186435 -0.47159687 0.16990185 -0.29985204 -0.12619352 -0.31607577
0.18751884 0.26153517 -0.9513025 -0.9484948 -0.52946013 -0.6736291 -0.5394172 -0.39931175
-0.30889818 0.76371056 0.35010374 -0.5155004 -0.26102185 -0.36980313 0.8526936 0.844125
-0.3698207 -0.12211729 -0.43521237 -0.16096036 -0.6848252 -0.14235108 0.36817896 0.26657596
0.1576791 -0.050140437 -0.31404725 -0.7686904 -0.3775853 -0.56573176 0.7052893 0.49394512
-0.5041953 -0.62085456 -0.46158525 0.264373 0.34128588 -0.105992995 0.49738014 0.3047032
-0.23501363 -0.0059442 -0.4260364 0.38821873 -0.16561478 -0.17524718 0.6811146 -0.24689493
0.14949581 0.31922403 -0.6428832 -0.6736419 0.41943428 -0.20681006 -0.15434977 0.22750573
0.17076965 0.2932147 0.55759704 0.004381142 -0.14488328 0.4430857 -0.36257476 -0.042275686
0.16079733 -0.6015035 -0.9178373 0.30051836 0.38723785 -1.0391651 -0.23012948 -0.84584826
0.5984121 0.36823606 0.5891849 0.15872456 -0.15063524 0.60265934 0.440446 -0.10620697
-0.47175014 0.63553447 -0.57573307 0.5108262 -0.40986663 0.19002594 0.56018615 0.66635525
-0.18684398 0.51065546 -1.0231484 0.09554764 0.28693795 -0.32361388 -0.40616623 0.28136304
-0.36847088 -0.9783293 -0.5674262 -0.23129252 0.08378173 -0.3558997 0.39354727 0.4483694
-0.2416198 1.233314 -0.47201326 -0.013792556 0.011240844 0.065709814 -0.16559877 -0.22012205
-0.07544082 0.23276198 -0.025654597 0.21372597 0.18539368 -0.41778475 0.43902877 -0.6600208
-0.079988144 0.3219764 -0.22954558 0.44089064 -0.2581271 -0.7717429 -0.62533146 0.07407815
-0.5960785 -0.27864367 0.02936744 -0.3225859 -0.49865338 0.5942524 -0.44054386 0.82145125
00000000: 683e bf3f f051 ee3e d830 703f 4e41 e1bd
00000010: 2090 953e 51de dfbe c79f 2d3f 7057 623d
00000020: 144b df3f 2e12 17bf 9bfd 063f 5442 3b3f
00000030: 3d83 4ebf def3 b93e 4eab 173f 446f cabe
00000040: a884 a53e 135a d0be 9588 5b3f 1915 733f
00000050: 3ca3 2f3e 5c21 f83c bd02 1bbe da59 81be
00000060: bce7 a9be a56c 673f c3b7 65be 0eaf fe3e
00000070: 85fb 9abd 4801 09bf 985b 403f 956a bfbe
00000080: 20b1 acbe 4da9 02bf aa6a a53c 932b 953d
00000090: c014 b13e 2c77 b1be 5637 8ebe 39af 90be
000000a0: 1da2 08bd 5473 173f e6be 92be 2762 cdbe
000000b0: d502 c53e f789 833e 3bcc e03e 6400 043d
000000c0: 0fa7 10bf ffd2 4cbb 2cf1 59bd 6ba8 663e
000000d0: 6656 b9be b976 b5be 9722 033f 4d6b 49bf
000000e0: e7b5 50bf f20c fcbe 7bed e23e fc99 98be
000000f0: b8a4 27bf 1842 b0be e053 6fbf 98da 233f
00000100: 3911 e33e 4edc 3dbf 0f94 453e a261 b53e
00000110: fcc2 c83e 2a8f 953e 5974 48bf 3538 9a3e
00000120: 56dc d3bd b902 0cbf bba3 693f 874e b93e
00000130: 5f20 5dbe b162 11bf 06c6 7e3e 4264 333f
00000140: 66ee d4be 17a0 babd ba39 a33e 3b99 983e
00000150: 5a92 92be 1a97 583f 6b12 cfbe dc03 a53d
00000160: bbf4 18bf 9274 39be 3a4f a3be e5a9 d33e
00000170: 19c3 1e3d aae9 d53e 9aa0 b2bd 1cc9 4bbe
00000180: f80d 1d3e 6e20 0ebf 4a01 cabe e0d2 543e
00000190: 7486 e43d 7dde 433e fa79 8d39 d376 613f
000001a0: a18d 18bf f2f5 84be fd48 2e3e 2ca5 59bf
000001b0: 2eb1 fc3e d0e7 3dbe 9edc a9bd 5bd7 cabc
000001c0: 53e5 db3e 8eb0 c5be 95e0 263f 2575 f1be
000001d0: c0fa 2d3e 3586 99be e038 01be afd4 a1be
000001e0: f004 403e f0e7 853e 9088 73bf 8ed0 72bf
000001f0: b38a 07bf f572 2cbf 3f17 0abf 9772 ccbe
00000200: e727 9ebe 8982 433f cc40 b33e d6f7 03bf
00000210: a8a4 85be d656 bdbe 214a 5a3f 9318 583f
00000220: 2459 bdbe a118 fabd 28d4 debe cbd2 24be
00000230: b450 2fbf 7bc4 11be f481 bc3e a57c 883e
00000240: a176 213e 0f60 4dbd cdca a0be e5c8 44bf
00000250: dc52 c1be ccd3 10bf d78d 343f 60e6 fc3e
00000260: f112 01bf 53f0 1ebf e754 ecbe e65b 873e
00000270: 06bd ae3e db12 d9bd 9ca8 fe3e 0f02 9c3e
00000280: 6aa7 70be 90c7 c2bb 7121 dabe 9bc4 c63e
00000290: ec96 29be ff73 33be 875d 2e3f 06d2 7cbe
000002a0: 6e15 193e 5571 a33e fe93 24bf cc73 2cbf
000002b0: 17c0 d63e 04c6 53be de0d 1ebe 43f7 683e
000002c0: 3dde 2e3e 3d20 963e aebe 0e3f af8f 8f3b
000002d0: 485c 14be 21dc e23e 66a3 b9be 4529 2dbd
000002e0: 0ea8 243e 22fc 19bf 63f7 6abf 8bdd 993e
000002f0: 0a44 c63e 5d03 85bf 10a7 6bbe 8389 58bf
00000300: 8931 193f 7089 bc3e d2d4 163f b188 223e
00000310: 2040 1abe e247 1a3f 2382 e13e 0a83 d9bd
00000320: 3c89 f1be 63b2 223f 3e63 13bf 81c5 023f
00000330: 0ada d1be 2996 423e 5c68 0f3f 4296 2a3f
00000340: 0754 3fbe 51ba 023f 87f6 82bf 7bae c33d
00000350: 88e9 923e b8b0 a5be 05f5 cfbe d10e 903e
00000360: 37a8 bcbe ca73 7abf d842 11bf f2d7 6cbe
00000370: c195 ab3d 7c38 b6be 077f c93e ad90 e53e
00000380: 2e6b 77be 3cdd 9d3f b9ab f1be 2cfa 61bc
00000390: 842b 383c de92 863d b992 29be ad67 61be
000003a0: b780 9abd 2859 6e3e 9729 d2bc fbda 5a3e
000003b0: d7d7 3d3e e2e7 d5be 61c8 e03e 20f7 28bf
000003c0: d3d0 a3bd 17da a43e ff0d 6bbe 6bbc e13e
000003d0: 3c29 84be f190 45bf b915 20bf 49b6 973d
000003e0: 9a98 18bf 62aa 8ebe fc93 f03c fb29 a5be
000003f0: 7f4f ffbe ed20 183f f78e e1be a14a 523f

network_body._body_endoder.seq_layers.0.bias f4 [128]
0.0 0.0 0.0 0.0 0.0 0.0 0.0 0.0
0.0 0.0 0.0 0.0 0.0 0.0 0.0 0.0
0.0 0.0 0.0 0.0 0.0 0.0 0.0 0.0
0.0 0.0 0.0 0.0 0.0 0.0 0.0 0.0
0.0 0.0 0.0 0.0 0.0 0.0 0.0 0.0
0.0 0.0 0.0 0.0 0.0 0.0 0.0 0.0
0.0 0.0 0.0 0.0 0.0 0.0 0.0 0.0
0.0 0.0 0.0 0.0 0.0 0.0 0.0 0.0
0.0 0.0 0.0 0.0 0.0 0.0 0.0 0.0
0.0 0.0 0.0 0.0 0.0 0.0 0.0 0.0
0.0 0.0 0.0 0.0 0.0 0.0 0.0 0.0
0.0 0.0 0.0 0.0 0.0 0.0 0.0 0.0
0.0 0.0 0.0 0.0 0.0 0.0 0.0 0.0
0.0 0.0 0.0 0.0 0.0 0.0 0.0 0.0
0.0 0.0 0.0 0.0 0.0 0.0 0.0 0.0
0.0 0.0 0.0 0.0 0.0 0.0 0.0 0.0
00000000: 0000 0000 0000 0000 0000 0000 0000 0000
00000010: 0000 0000 0000 0000 0000 0000 0000 0000
00000020: 0000 0000 0000 0000 0000 0000 0000 0000
00000030: 0000 0000 0000 0000 0000 0000 0000 0000
00000040: 0000 0000 0000 0000 0000 0000 0000 0000
00000050: 0000 0000 0000 0000 0000 0000 0000 0000
00000060: 0000 0000 0000 0000 0000 0000 0000 0000
00000070: 0000 0000 0000 0000 0000 0000 0000 0000
00000080: 0000 0000 0000 0000 0000 0000 0000 0000
00000090: 0000 0000 0000 0000 0000 0000 0000 0000
000000a0: 0000 0000 0000 0000 0000 0000 0000 0000
000000b0: 0000 0000 0000 0000 0000 0000 0000 0000
000000c0: 0000 0000 0000 0000 0000 0000 0000 0000
000000d0: 0000 0000 0000 0000 0000 0000 0000 0000
000000e0: 0000 0000 0000 0000 0000 0000 0000 0000
000000f0: 0000 0000 0000 0000 0000 0000 0000 0000
00000100: 0000 0000 0000 0000 0000 0000 0000 0000
00000110: 0000 0000 0000 0000 0000 0000 0000 0000
00000120: 0000 0000 0000 0000 0000 0000 0000 0000
00000130: 0000 0000 0000 0000 0000 0000 0000 0000
00000140: 0000 0000 0000 0000 0000 0000 0000 0000
00000150: 0000 0000 0000 0000 0000 0000 0000 0000
00000160: 0000 0000 0000 0000 0000 0000 0000 0000
00000170: 0000 0000 0000 0000 0000 0000 0000 0000
00000180: 0000 0000 0000 0000 0000 0000 0000 0000
00000190: 0000 0000 0000 0000 0000 0000 0000 0000
000001a0: 0000 0000 0000 0000 0000 0000 0000 0000
000001b0: 0000 0000 0000 0000 0000 0000 0000 0000
000001c0: 0000 0000 0000 0000 0000 0000 0000 0000
000001d0: 0000 0000 0000 0000 0000 0000 0000 0000
000001e0: 0000 0000 0000 0000 0000 0000 0000 0000
000001f0: 0000 0000 0000 0000 0000 0000 0000 0000

network_body._body_endoder.seq_layers.2.weight f4 [128, 128]
0.06635928 -0.017843386 0.03151943 0.07880156 -0.067118384 -0.06047651 0.02552877 0.1255481
-0.012350341 -0.04299698 -0.018224102 0.026710024 -0.05103128 -0.069276914 -0.067070626 -0.039217878
0.07405173 0.09128542 -0.04671298 0.07648275 -0.016215812 0.108243234 -0.07059132 0.06162227
0.036185723 -0.06448648 -0.02027575 -0.16475008 -0.026968166 -0.075632945 -0.0019074422 0.067242265
-0.03734795 -0.026840715 0.1450504 0.08424822 0.058925003 -0.02893134 -0.0113088 -0.024030607
0.05461276 -0.121885516 0.13019979 -0.005271438 -0.120326735 -0.008226912 -0.032629542 0.0621804
0.0628074 -0.0076678772 -0.03037777 0.03788973 0.16083433 0.2441079 -0.07442655 -0.062530525
-0.11947376 -0.045050263 0.02682776 -0.021099815 -0.040384647 0.097420275 0.034926903 0.11600045
0.00092964765 0.17949797 -0.0036797465 0.012182185 0.09673196 0.039882265 -0.02112363 0.08625717
-0.011312633 -0.068354934 -0.06858156 -0.0314595 -0.0591913 -0.09976413 0.021402346 0.0062819724
-0.064523794 0.07574591 -0.09520447 0.12658793 -0.047255125 0.020274427 0.04783768 -0.25491017
0.050639573 -0.0022820276 -0.05240631 -0.043266896 0.08434346 -0.023887519 0.045033284 -0.06394787
-0.045580268 0.06859811 -0.02568585 0.023967803 -0.018315285 0.024114862 0.056929577 -0.066482484
0.23533747 -0.0029345006 -0.034261983 0.08417096 -0.02244676 -0.11977859 -0.005129138 -0.074390605
-0.13029914 0.10106323 -0.13970317 0.08655709 -0.022915162 -0.02826051 -0.10024779 0.008074856
-0.049351636 -0.05664638 -0.21881676 0.06834276 0.016915707 -0.05612634 0.034183547 0.108589
-0.1283002 0.03524311 -0.07469285 -0.084515296 0.23209192 -0.0056873336 0.038951024 -0.09321341
-0.015854968 0.010602113 0.12841246 0.010296386 -0.10071145 0.17838208 -0.06629869 -0.03383754
0.22069693 -0.16539803 -0.039609928 0.054404475 0.08703951 0.029598564 -0.040640607 0.0852845
-0.18116792 0.015435044 0.13997114 0.04474877 -0.14891584 -0.1982612 -0.077036835 0.0027576073
-0.07541405 -0.043541513 0.088275775 -0.098079905 -0.024054004 -0.038361628 0.010171621 0.06367806
-0.06681956 -0.013107026 -0.0080364905 -0.156634 0.043677434 -0.02133688 -0.105024815 0.010615753
-0.057085227 0.14942454 -0.09846007 -0.09907296 0.016103102 0.15858473 0.067751125 -0.1506264
-0.040416215 0.16072452 -0.03203042 0.04120667 0.027707154 -0.063291565 -0.01456608 -0.21580693
0.045935042 -0.04418063 0.0331148 -0.13442314 -0.09966444 0.086606584 -0.107290365 0.06897802
0.11791881 0.12086763 -0.02737947 0.07643522 0.13592361 0.18813206 0.017376486 0.014586512
0.10722766 -0.003648973 -0.03978512 -0.10813419 -0.00036377882 -0.048078425 -0.04097823 0.02527144
-0.03196083 0.033837546 0.15667693 0.06577581 0.033874344 -0.017201746 0.13494463 0.021024516
0.04492387 0.06328835 -0.16951741 -0.16144186 -0.024458708 0.0091779055 0.005255397 0.0037467883
0.029436871 0.0030693624 -0.0035298606 -0.08166918 -0.093667366 -0.057554726 0.01479681 0.03395996
-0.081168555 0.08439072 -0.06681743 0.08197563 -0.12100743 0.09042627 -0.004729778 0.047400206
0.21394953 0.056515895 -0.06823301 0.133048 0.011649691 -0.01631972 0.0651732 -0.05268562
00000000: 60e7 873d 4b2c 92bc 851a 013d b662 a13d
00000010: 5d75 89bd 38b6 77bd b621 d13c ae8f 003e
00000020: 1659 4abc 9a1d 30bd b64a 95bc fbce da3c
00000030: 2d06 51bd 0ee1 8dbd 535c 89bd eda2 20bd
00000040: 6fa8 973d daf3 ba3d 1c56 3fbd fda2 9c3d
00000050: 06d7 84bc a1ae dd3d 2f92 90bd a267 7c3d
00000060: 7b37 143d 7d11 84bd 5419 a6bc 3fb4 28be
00000070: 58ec dcbc 72e5 9abd 2403 faba 50b6 893d
00000080: 2afa 18bd 0fe1 dbbc 1888 143e 558a ac3d
00000090: 585b 713d 6b01 edbc 8c48 39bc d6db c4bc
000000a0: a1b1 5f3d 1d9f f9bd 1853 053e 07bc acbb
000000b0: dd6d f6bd 2bca 06bc 8ea6 05bd e0b0 7e3d
000000c0: 2ba1 803d d142 fbbb cdda f8bc 4332 1b3d
000000d0: c1b1 243e 6cf7 793e f26c 98bd 0110 80bd
000000e0: a9ae f4bd a086 38bd e4c5 db3c 85d9 acbc
000000f0: 5f6a 25bd 4884 c73d 830f 0f3d a591 ed3d
00000100: 99b3 733a 51ce 373e e727 71bb ca97 473c
00000110: 681b c63d 965b 233d 770b adbc 99a7 b03d
00000120: 9f58 39bc acfd 8bbd 7d74 8cbd addb 00bd
00000130: 9472 72bd 2351 ccbd f953 af3c 01d9 cd3b
00000140: 0d25 84bd ac20 9b3d 90fa c2bd 44a0 013e
00000150: 978e 41bd 8e16 a63c 71f1 433d 9683 82be
00000160: 716b 4f3d 128e 15bb 00a8 56bd a138 31bd
00000170: 44bc ac3d c2af c3bc d274 383d 1af7 82bd
00000180: 60b2 3abd 2a7d 8c3d 226b d2bc 2058 c43c
00000190: f009 96bc 888c c53c fd2e 693d f827 88bd
000001a0: 4efc 703e c050 40bb 4b56 0cbd d361 ac3d
000001b0: 45e2 b7bc 7a4e f5bd 5412 a8bb 1a5a 98bd
000001c0: 236d 05be 3dfa ce3d 590e 0fbe d844 b13d
000001d0: 94b8 bbbc 9682 e7bc b74e cdbd 674c 043c
000001e0: f124 4abd 0906 68bd 8011 60be 4af7 8b3d
000001f0: cf92 8a3c bce4 65bd 0c04 0c3d e963 de3d
00000200: 2161 03be 145b 103d 91f8 98bd 5b16 adbd
00000210: 81a9 6d3e d05c babb 1c8b 1f3d ace6 bebd
00000220: 47e2 81bc 7cb4 2d3c 8e7e 033e 2cb2 283c
00000230: ce41 cebd cba9 363e 9cc7 87bd 3b99 0abd
00000240: 60fe 613e 1a5e 29be 053e 22bd 3ad7 5e3d
00000250: c541 b23d b078 f23c c476 26bd a4a9 ae3d
00000260: 1584 39be 44e3 7c3c 9854 0f3e 7c4a 373d
00000270: 657d 18be fc04 4bbe 7dc5 9dbd f9b8 343b
00000280: ae72 9abd 9658 32bd eec9 b43d 1ede c8bd
00000290: e70c c5bc 1521 1dbd dfa6 263c a569 823d
000002a0: b2d8 88bd dabe 56bc 7cab 03bc aa64 20be
000002b0: 1ce7 323d aeca aebc 4017 d7bd b2ed 2d3c
000002c0: 33d2 69bd bf02 193e 6fa5 c9bd c4e6 cabd
000002d0: a7ea 833c 0964 223e 1ac1 8a3d cf3d 1abe
000002e0: 798b 25bd f894 243e 5432 03bd 53c8 283d
000002f0: 1dfa e23c 029f 81bd 91a6 6ebc 7efc 5cbe
00000300: 6226 3c3d c0f6 34bd 62a3 073d 38a6 09be
00000310: df1c ccbd cb5e b13d 0dbb dbbd 5944 8d3d
00000320: 6b7f f13d 7389 f73d e94a e0bc 128a 9c3d
00000330: 8f2f 0b3e b1a5 403e 2259 8e3c 44fc 6e3c
00000340: 2d9a db3d 9c23 6fbb b9f5 22bd 7575 ddbd
00000350: 91b9 beb9 e2ed 44bd cad8 27bd 0d06 cf3c
00000360: 5ce9 02bd 3d99 0a3d eb6f 203e 78b5 863d
00000370: d3bf 0a3d adea 8cbc ed2e 0a3e 9b3b ac3c
00000380: 1802 383d 539d 813d f995 2dbe 0451 25be
00000390: a15d c8bc ed5e 163c 7735 ac3b ad8c 753b
000003a0: 9825 f13c 5b27 493b 3c55 67bb 2c42 a7bd
000003b0: add4 bfbd 81be 6bbd 526e 723c 9919 0b3d
000003c0: b33b a6bd 0bd5 ac3d 94d7 88bd d7e2 a73d
000003d0: bed2 f7bd 6931 b93d 41fc 9abb b826 423d
000003e0: 9615 5b3e 367d 673d c0bd 8bbd bc3d 083e
000003f0: 58de 3e3c efb0 85bc 8779 853d e0cc 57bd

network_body._body_endoder.seq_layers.2.bias f4 [128]
0.0 0.0 0.0 0.0 0.0 0.0 0.0 0.0
0.0 0.0 0.0 0.0 0.0 0.0 0.0 0.0
0.0 0.0 0.0 0.0 0.0 0.0 0.0 0.0
0.0 0.0 0.0 0.0 0.0 0.0 0.0 0.0
0.0 0.0 0.0 0.0 0.0 0.0 0.0 0.0
0.0 0.0 0.0 0.0 0.0 0.0 0.0 0.0
0.0 0.0 0.0 0.0 0.0 0.0 0.0 0.0
0.0 0.0 0.0 0.0 0.0 0.0 0.0 0.0
0.0 0.0 0.0 0.0 0.0 0.0 0.0 0.0
0.0 0.0 0.0 0.0 0.0 0.0 0.0 0.0
0.0 0.0 0.0 0.0 0.0 0.0 0.0 0.0
0.0 0.0 0.0 0.0 0.0 0.0 0.0 0.0
0.0 0.0 0.0 0.0 0.0 0.0 0.0 0.0
0.0 0.0 0.0 0.0 0.0 0.0 0.0 0.0
0.0 0.0 0.0 0.0 0.0 0.0 0.0 0.0
0.0 0.0 0.0 0.0 0.0 0.0 0.0 0.0
00000000: 0000 0000 0000 0000 0000 0000 0000 0000
00000010: 0000 0000 0000 0000 0000 0000 0000 0000
00000020: 0000 0000 0000 0000 0000 0000 0000 0000
00000030: 0000 0000 0000 0000 0000 0000 0000 0000
00000040: 0000 0000 0000 0000 0000 0000 0000 0000
00000050: 0000 0000 0000 0000 0000 0000 0000 0000
00000060: 0000 0000 0000 0000 0000 0000 0000 0000
00000070: 0000 0000 0000 0000 0000 0000 0000 0000
00000080: 0000 0000 0000 0000 0000 0000 0000 0000
00000090: 0000 0000 0000 0000 0000 0000 0000 0000
000000a0: 0000 0000 0000 0000 0000 0000 0000 0000
000000b0: 0000 0000 0000 0000 0000 0000 0000 0000
000000c0: 0000 0000 0000 0000 0000 0000 0000 0000
000000d0: 0000 0000 0000 0000 0000 0000 0000 0000
000000e0: 0000 0000 0000 0000 0000 0000 0000 0000
000000f0: 0000 0000 0000 0000 0000 0000 0000 0000
00000100: 0000 0000 0000 0000 0000 0000 0000 0000
00000110: 0000 0000 0000 0000 0000 0000 0000 0000
00000120: 0000 0000 0000 0000 0000 0000 0000 0000
00000130: 0000 0000 0000 0000 0000 0000 0000 0000
00000140: 0000 0000 0000 0000 0000 0000 0000 0000
00000150: 0000 0000 0000 0000 0000 0000 0000 0000
00000160: 0000 0000 0000 0000 0000 0000 0000 0000
00000170: 0000 0000 0000 0000 0000 0000 0000 0000
00000180: 0000 0000 0000 0000 0000 0000 0000 0000
00000190: 0000 0000 0000 0000 0000 0000 0000 0000
000001a0: 0000 0000 0000 0000 0000 0000 0000 0000
000001b0: 0000 0000 0000 0000 0000 0000 0000 0000
000001c0: 0000 0000 0000 0000 0000 0000 0000 0000
000001d0: 0000 0000 0000 0000 0000 0000 0000 0000
000001e0: 0000 0000 0000 0000 0000 0000 0000 0000
000001f0: 0000 0000 0000 0000 0000 0000 0000 0000

action_model._discrete_distribution.branches.0.weight f4 [3, 128]
-0.012958236 -0.010151452 0.0012965008 0.004365341 -0.008225999 0.001228192 0.0035872457 0.0019506188
-0.0015507143 -0.009478062 0.0073363357 0.007188642 5.637821e-06 -0.0053831288 0.013087253 -0.00823301
0.00759599 0.00047901232 0.0024594932 -0.0011163548 -0.008842432 0.02212937 0.010447894 -0.01876549
0.0073738634 -0.010282884 -0.01022326 0.005173937 -0.006360426 -0.011958431 0.003195421 -0.0014835591
-0.012174898 -0.008748542 -0.004112217 0.0003734704 0.00958871 -0.013758098 -0.0028980384 -0.002219394
-0.0057351436 -0.0040253387 0.018204575 0.00281567 -0.018639006 -0.004314648 0.010549219 0.003766372
0.0029582847 -0.0011432976 -0.010580592 0.0042705704 -0.008604229 0.011687857 -0.0015767403 0.006421003
0.0020406207 -0.007493091 -0.0072095017 0.0036345224 0.0058813556 0.000104179744 -0.0043426426 0.006504468
-0.003961517 0.008061513 -0.012167406 0.0068310723 0.009427997 -0.0077936314 -0.0002615869 -0.0027389817
0.014474575 0.0017749682 -0.0011333855 -0.009322531 -0.010967224 0.004538794 -0.012201714 -0.006615589
-0.0074449517 -0.0037989474 -0.0010378053 -0.012895296 -0.009461305 -0.0024120326 -0.00801062 0.005489668
0.0031394202 -0.010096461 -0.007969188 -0.0150297275 0.00609185 0.009973367 -0.009886353 -0.00484579
-0.0043235035 0.005269799 -0.0036711523 -0.0034822018 0.0008847029 -0.014797138 0.011120797 0.003079889
-0.0035201379 -0.0119110895 -0.0022024028 0.002611525 -0.004291933 -0.0032357525 0.00843194 -0.0023744076
-0.006369833 0.005758845 -0.006880108 -0.016397761 -0.004920417 -0.011230733 -0.0027766337 -0.008822105
-0.019538932 -0.0019255996 0.007300181 0.0017773452 0.009370133 -0.0026531385 -0.0025963644 -0.013338349
-0.01119957 0.012808854 -0.001805113 0.0067756674 -0.00061448256 -0.007213644 0.0014411759 0.0039050453
0.0017172875 0.00074915175 -0.002762431 -0.0033831426 -0.00018663451 0.010114854 0.001021996 -0.011168924
0.0066954144 -0.0026319183 0.0047909045 -0.0111224335 -0.006656674 -0.01243054 0.003039059 0.0023823949
-0.0047678794 -0.008976366 -0.0051278905 -0.001550124 -0.009920178 -0.0045311204 -0.0020314709 0.00045793605
-0.02026342 0.0005945628 0.0024989932 -0.0077155763 0.0023367926 -0.00214895 0.0030260668 0.0013411102
0.003875499 -0.0072878203 0.003346386 -0.003591926 -0.013716613 0.0019206863 0.0057075648 0.0020262613
-0.0124427 -0.0018938453 -0.0068343664 -0.008033866 0.008108032 0.013292247 0.013372659 -0.003880889
0.007912568 -0.0007633208 0.0039491653 -0.010188986 -0.0074635604 0.0032691513 0.006281377 0.00051916426
-0.0045194337 -0.006966637 -0.022735614 -0.003875394 0.008284983 -0.007085071 0.014605159 -0.00839131
0.019685024 0.005090298 0.0047382824 -0.009686056 -0.0062302956 -0.0057431892 0.010976511 0.012456769
0.0062970403 -0.010223383 0.0051749847 -0.0021925112 0.008053242 0.0032772615 0.0034872524 0.005777791
0.004591867 0.0069934777 0.005189029 0.0050574453 -0.014935985 0.0032313725 -0.011834546 0.009587906
0.005445655 -0.0029022421 0.008188627 -0.008056534 -0.013901214 0.005436417 -0.0064204745 0.016553594
0.0029912295 -0.013149125 -0.020269554 0.000904635 -0.006353382 0.014006066 -0.0018627424 0.010468469
0.0034498838 0.005815467 0.0034906503 -0.011362575 0.005771738 0.0025143176 0.015266741 -0.0071311668
-0.016586032 0.0041157915 0.0054750587 -0.012443097 -0.005097034 -0.007359437 -0.023173822 0.0034177962
00000000: c84e 54bc 4752 26bc 59ef a93a 220b 8f3b
00000010: 57c6 06bc 49fb a03a ff17 6b3b e8ab ff3a
00000020: 5641 cbba e049 1bbc a565 f03b b38e eb3b
00000030: 832c bd36 f564 b0bb eb6b 563c bfe3 06bc
00000040: c8e7 f83b f223 fb39 732f 213b a752 92ba
00000050: d9df 10bc a748 b53c a52d 2b3c 16ba 99bc
00000060: 73a0 f13b 8b79 28bc 767f 27bc 218a a93b
00000070: 1f6b d0bb 4ced 43bc 456a 513b fc73 c2ba
00000080: 3979 47bc 0b56 0fbc c7bf 86bb 59ce c339
00000090: f719 1d3c a569 61bc 04ed 3dbb 4173 11bb
000000a0: dfed bbbb fde6 83bb c321 953c 1b87 383b
000000b0: d4b0 98bc e461 8dbb a2d6 2c3c 3dd5 763b
000000c0: c8df 413b b4da 95ba 385a 2dbc 24f0 8b3b
000000d0: c1f8 0cbc 6d7e 3f3c a0aa ceba 4767 d23b
000000e0: efbb 053b 9a88 f5bb af3d ecbb 2b31 6e3b
000000f0: 63b8 c03b 137b da38 ba4c 8ebb 6f23 d53b
00000100: 9dcf 81bb 7014 043c cd59 47bc 30d7 df3b
00000110: e377 1a3c b861 ffbb 9925 89b9 7d80 33bb
00000120: c526 6d3c 0da6 e83a 1b8e 94ba 87bd 18bc
00000130: dfaf 33bc 2aba 943b b3e9 47bc 95c7 d8bb
00000140: c8f4 f3bb c3f7 78bb f806 88ba cb46 53bc
00000150: 9703 1bbc 3113 1ebb fa3e 03bc ace2 b33b
00000160: bbbe 4d3b a06b 25bc 3291 02bc 3f3f 76bc
00000170: 249e c73b 5567 233c 5ffa 21bc 6fc9 9ebb
00000180: 2dac 8dbb 47ae ac3b b797 70bb a735 64bb
00000190: 68eb 673a b26f 72bc 0134 363c f7d7 493b
000001a0: 1db2 66bb bb26 43bc 3056 10bb 1e26 2b3b
000001b0: 58a3 8cbb eb0e 54bb 1f26 0a3c f39b 1bbb
000001c0: 08ba d0bb b1b4 bc3b 8772 e1bb 9954 86bc
000001d0: 733b a1bb 1c01 38bc 2ff8 35bb 978a 10bc
000001e0: 1c10 a0bc 6764 fcba 5b36 ef3b cff5 e83a
000001f0: 3085 193c 47e0 2dbb c427 2abb 1789 5abc
00000200: 677e 37bc 3adc 513c 8b99 ecba 6b06 de3b
00000210: 3a15 21ba 6f60 ecbb d7e5 bc3a caeb 7f3b
00000220: 9b16 e13a b962 443a e709 35bb b7b7 5dbb
00000230: 52b3 43b9 c6b8 253c 7ff4 853a ddfd 36bc
00000240: 3565 db3b 437c 2cbb 05fd 9c3b de3a 36bc
00000250: 3b20 dabb 77a9 4bbc f32a 473b f421 1c3b
00000260: df3b 9cbb 9c11 13bc dd07 a8bb 882d cbba
00000270: 3e88 22bc cb79 94bb 6d22 05bb 2317 f039
00000280: 79ff a5bc 6fdc 1b3a 26c6 233b f2d2 fcbb
00000290: e024 193b 66d5 0cbb fa50 463b 31c8 af3a
000002a0: 15fc 7d3b abce eebb 0a4f 5b3b 8566 6bbb
000002b0: a5bb 60bc 8abf fb3a 8606 bb3b 06cb 043b
000002c0: 77dc 4bbc e73a f8ba d2f2 dfbb 7aa0 03bc
000002d0: 8dd7 043c bac7 593c ff18 5b3c 8356 7ebb
000002e0: b7a3 013c 9719 48ba 0068 813b b4ef 26bc
000002f0: e290 f4bb 423f 563b 02d4 cd3b 8618 083a
00000300: c217 94bb 6348 e4bb 0a40 babc 52fa 7dbb
00000310: bdbd 073c e229 e8bb 7a4a 6f3c b57b 09bc
00000320: 7d42 a13c 84cc a63b 9843 9b3b 43b2 1ebc
00000330: 8227 ccbb 5d31 bcbb d3d6 333c 7a17 4c3c
00000340: 6757 ce3b fa7f 27bc eb92 a93b 3cb0 0fbb
00000350: bff1 033c 53c7 563b 638a 643b a053 bd3b
00000360: 5f77 963b 8b29 e53b bb08 aa3b edb8 a53b
00000370: 10b6 74bc 6fc5 533b afe5 41bc 9816 1d3c
00000380: 7771 b23b 8b33 3ebb 9729 063c 8eff 03bc
00000390: ebc1 63bc f923 b23b d862 d2bb 679b 873c
000003a0: 8108 443b 6d6f 57bc 560c a6bc 0725 6d3a
000003b0: 0830 d0bb b379 653c 4327 f4ba f183 2b3c
000003c0: 7217 623b ac8f be3b 65c3 643b 182a 3abc
000003d0: d920 bd3b 40c7 243b 5a21 7a3c 90ac e9bb
000003e0: 6edf 87bc c3dd 863b 1f68 b33b 22de 4bbc
000003f0: 0505 a7bb 6f27 f1bb 07d7 bdbc 1bfd 5f3b

action_model._discrete_distribution.branches.0.bias f4 [3]
0.0 0.0 0.0
00000000: 0000 0000 0000 0000 0000 0000

network_body._body_endoder.seq_layers.0.weight f4 [128, 4]
-0.5256974 0.50819623 -1.0722419 -0.16754901 0.7445476 0.7764155 0.34644353 0.2832225
0.09770339 -0.2884541 -0.550257 0.10895356 0.4223919 -0.5103511 -0.66174895 0.62094665
0.20021853 -0.76854205 0.39231893 -0.096006796 -0.043734312 0.3204359 0.7017644 0.3805729
-0.023008103 0.8337276 -0.59778476 0.4050192 0.5926979 -0.30988058 0.16980557 -0.38690686
1.3928379 0.50867796 -0.3538399 0.87859344 -0.75249827 -0.54461235 -0.27777937 0.68885964
-0.08780376 0.16698933 -0.36332723 0.3946785 -0.054213185 0.24687363 0.105042666 0.71738106
-0.5555042 0.25755525 0.19649076 0.96696264 -0.5958856 0.13257867 -0.461104 0.3945126
0.22588582 1.0823684 -0.09934655 -0.291447 0.06133564 -0.38768098 -0.7720654 0.12953015
-0.42643666 -0.35834575 -0.0056177913 0.055512175 -0.26717 0.068527706 0.6088175 -0.032278065
-0.5943794 -0.6093674 0.29806036 -0.28594154 -0.60660493 0.4811808 -0.043156106 0.7044646
-0.4895832 -0.5428414 -1.2834998 -0.32102823 -0.04951669 1.0161859 0.727371 0.6987669
-0.119719416 -0.18763295 -0.31109256 -0.061910253 -0.18712108 0.4577566 -0.38205287 0.21398868
0.2371882 -0.36182338 0.2231376 -1.0134528 0.1707642 0.36261892 0.50112087 -0.09082439
-0.31984544 -0.8996887 0.60369647 0.45053098 0.04976054 0.52101415 -0.5063608 -0.36697033
-0.7550566 -0.239668 -0.3787208 0.8291732 -0.6736792 0.7737881 -0.23771735 0.42588127
0.16251442 1.1992831 0.36875054 -0.7086673 -0.6899775 -0.63461465 0.17519702 0.04515313
-0.06955994 0.3457679 -0.24741705 0.46437478 -0.35670063 0.29665086 -0.077004276 0.4635531
-0.73198503 0.56605303 -0.76658595 0.1870418 0.17184977 0.57061577 -0.1546358 -0.83589596
-0.8629804 0.48314708 -0.6356833 0.61574835 -0.39990804 -0.14106993 -0.14758547 0.9860298
0.8254145 -0.05698117 0.4818446 0.079806685 0.34346327 -0.091349944 -1.0927942 0.21266574
-0.101458624 -0.50095224 -0.4525922 -0.83523244 0.78961146 0.5408054 0.23621103 0.69265
0.34598663 -0.7928861 -0.6647354 -0.07180944 -0.5669201 -0.294607 0.051232032 0.06269882
0.18847378 0.5718108 0.32064864 -0.29646912 -0.6841102 0.42238632 0.31737676 -0.06636522
0.31899828 -0.015703099 0.16805221 0.54999566 0.3891039 0.55184233 -0.9920649 -0.6900126
-0.8767741 0.2045468 -0.34257495 -0.31984705 0.7797901 -0.7863464 0.06389408 0.5273312
0.09427834 -0.29256 0.081014834 -0.57612365 -0.052313223 1.7537273 -0.20367876 -0.19415402
-0.16268545 -1.0379585 0.11319597 0.008606204 0.5151828 -0.38489655 0.44106373 -0.72904533
0.27901727 0.32629803 -0.48382443 0.49511638 -0.1253141 0.6662064 0.24635921 -0.3629951
-0.7808211 -0.20665458 0.69437826 0.0035446023 0.23350443 -0.3836574 -0.0022320694 -0.74570817
-0.4516622 -0.33355758 0.4024869 -0.021964949 -0.17891467 -0.22525403 0.14699271 -0.34189
0.22747104 0.52466327 0.72464216 0.7825401 -0.37102753 0.011458935 0.5463953 -0.09869604
0.29334277 0.72701585 0.7011561 -0.076573625 -0.3482071 0.18449435 -0.18778431 -0.8643545
00000000: 1b94 06bf 2619 023f 393f 89bf f891 2bbe
00000010: ac9a 3e3f 2bc3 463f 0c61 b13e 8a02 913e
00000020: b718 c83d 41b0 93be a5dd 0cbf 0b23 df3d
00000030: c043 d83e 5fa6 02bf 6168 29bf 5cf6 1e3f
00000040: 1606 4d3e 2cbf 44bf 07de c83e 369f c4bd
00000050: c022 33bd 2d10 a43e d5a6 333f 73da c23e
00000060: 7d7b bcbc 2c6f 553f 6c08 19bf ad5e cf3e
00000070: 0dbb 173f aba8 9ebe 83e1 2d3e a818 c6be
00000080: 8348 b23f b838 023f 812a b5be 80eb 603f
00000090: baa3 40bf b76b 0bbf 1939 8ebe 1b59 303f
000000a0: 75d2 b3bd 40ff 2a3e 0706 babe 4d13 ca3e
000000b0: a50e 5ebd 71cc 7c3e 9c20 d73d 49a6 373f
000000c0: 8635 0ebf 48de 833e e034 493e dd8a 773f
000000d0: f58b 18bf b4c2 073e d315 ecbe 8efd c93e
000000e0: 9d4e 673e 0c8b 8a3f 3476 cbbd 8b38 95be
000000f0: 143b 7b3d 1f7e c6be 14a6 45bf 8da3 043e
00000100: e855 dabe 1879 b7be 7315 b8bb bc60 633d
00000110: 82ca 88be 4158 8c3d 77db 1b3f 0136 04bd
00000120: 4029 18bf 80ff 1bbf 5e9b 983e ee66 92be
00000130: 764a 1bbf 545d f63e 75c4 30bd cb57 343f
00000140: a6aa fabe a7f7 0abf b949 a4bf d05d a4be
00000150: 03d2 4abd 6112 823f fc34 3a3f 63e2 323f
00000160: 742f f5bd da22 40be 8647 9fbe 9b95 7dbd
00000170: ab9c 3fbe 135f ea3e 6f9c c3be d91f 5b3e
00000180: 77e1 723e ea40 b9be 2f7e 643e d2b8 81bf
00000190: cfdc 2e3e 30a9 b93e 7549 003f 2302 babd
000001a0: c8c2 a3be 0052 66bf da8b 1a3f ffab e63e
000001b0: b5d1 4b3d 2f61 053f dda0 01bf 89e3 bbbe
000001c0: 644b 41bf 876b 75be b1e7 c1be b244 543f
000001d0: 3d76 2cbf fa16 463f 2d6c 73be 1c0d da3e
000001e0: 2e6a 263e 1c82 993f dfcc bc3e 386b 35bf
000001f0: 5ea2 30bf 1b76 22bf d966 333e 7df2 383d
00000200: 7175 8ebd 7d08 b13e e55a 7dbe 88c2 ed3e
00000210: 77a1 b6be 9fe2 973e 6bb4 9dbd d556 ed3e
00000220: 5f63 3bbf dae8 103f fa3e 44bf e387 3f3e
00000230: 63f9 2f3e e013 123f d958 1ebe 47fd 55bf
00000240: 49ec 5cbf 0e5f f73e 24bc 22bf afa1 1d3f
00000250: bfc0 ccbe a374 10be a520 17be 736c 7c3f
00000260: 5d4e 533f 1665 69bd 56b4 f63e b071 a33d
00000270: 6bda af3e ae15 bbbd aee0 8bbf 0cc5 593e
00000280: 8ac9 cfbd 683e 00bf 2aba e7be cbd1 55bf
00000290: fa23 4a3f 3972 0a3f 4ee1 713e 8351 313f
000002a0: 2925 b13e 95fa 4abf 192c 2abf d410 93bd
000002b0: ad21 11bf bbd6 96be aed8 513d 3d68 803d
000002c0: 45ff 403e 3162 123f 0f2c a43e cdca 97be
000002d0: d921 2fbf 0543 d83e 357f a23e 7dea 87bd
000002e0: be53 a33e c9a3 80bc e115 2c3e 84cc 0c3f
000002f0: a038 c73e 8a45 0d3f f7f7 7dbf aaa4 30bf
00000300: 4474 60bf b774 513e fc65 afbe fec2 a3be
00000310: 53a0 473f ff4d 49bf e6da 823d 2dff 063f
00000320: 0115 c13d 6dca 95be 1beb a53d d77c 13bf
00000330: 6446 56bd 237a e03f 2a91 50be 50d0 46be
00000340: 0497 26be d3db 84bf 4ad3 e73d 0901 0d3c
00000350: 05e3 033f 2911 c5be 1bd3 e13e b7a2 3abf
00000360: 5adb 8e3e 8910 a73e d6b7 f7be e57f fd3e
00000370: 5752 00be 818c 2a3f 9745 7c3e 7eda b9be
00000380: e4e3 47bf 429d 53be c6c2 313f 8f4c 683b
00000390: c91b 6f3e be6e c4be e947 12bb bbe6 3ebf
000003a0: 4540 e7be 0fc8 aabe c312 ce3e d6ef b3bc
000003b0: 6835 37be fea8 66be 4285 163e 350c afbe
000003c0: 2bee 683e 5550 063f 2682 393f 8c54 483f
000003d0: 52f7 bdbe 42be 3b3c 90e0 0b3f 2621 cabd
000003e0: 0631 963e b61d 3a3f f77e 333f a2d2 9cbd
000003f0: 3348 b2be 16ec 3c3e 884a 40be 5646 5dbf

network_body._body_endoder.seq_layers.0.bias f4 [128]
0.0 0.0 0.0 0.0 0.0 0.0 0.0 0.0
0.0 0.0 0.0 0.0 0.0 0.0 0.0 0.0
0.0 0.0 0.0 0.0 0.0 0.0 0.0 0.0
0.0 0.0 0.0 0.0 0.0 0.0 0.0 0.0
0.0 0.0 0.0 0.0 0.0 0.0 0.0 0.0
0.0 0.0 0.0 0.0 0.0 0.0 0.0 0.0
0.0 0.0 0.0 0.0 0.0 0.0 0.0 0.0
0.0 0.0 0.0 0.0 0.0 0.0 0.0 0.0
0.0 0.0 0.0 0.0 0.0 0.0 0.0 0.0
0.0 0.0 0.0 0.0 0.0 0.0 0.0 0.0
0.0 0.0 0.0 0.0 0.0 0.0 0.0 0.0
0.0 0.0 0.0 0.0 0.0 0.0 0.0 0.0
0.0 0.0 0.0 0.0 0.0 0.0 0.0 0.0
0.0 0.0 0.0 0.0 0.0 0.0 0.0 0.0
0.0 0.0 0.0 0.0 0.0 0.0 0.0 0.0
0.0 0.0 0.0 0.0 0.0 0.0 0.0 0.0
00000000: 0000 0000 0000 0000 0000 0000 0000 0000
00000010: 0000 0000 0000 0000 0000 0000 0000 0000
00000020: 0000 0000 0000 0000 0000 0000 0000 0000
00000030: 0000 0000 0000 0000 0000 0000 0000 0000
00000040: 0000 0000 0000 0000 0000 0000 0000 0000
00000050: 0000 0000 0000 0000 0000 0000 0000 0000
00000060: 0000 0000 0000 0000 0000 0000 0000 0000
00000070: 0000 0000 0000 0000 0000 0000 0000 0000
00000080: 0000 0000 0000 0000 0000 0000 0000 0000
00000090: 0000 0000 0000 0000 0000 0000 0000 0000
000000a0: 0000 0000 0000 0000 0000 0000 0000 0000
000000b0: 0000 0000 0000 0000 0000 0000 0000 0000
000000c0: 0000 0000 0000 0000 0000 0000 0000 0000
000000d0: 0000 0000 0000 0000 0000 0000 0000 0000
000000e0: 0000 0000 0000 0000 0000 0000 0000 0000
000000f0: 0000 0000 0000 0000 0000 0000 0000 0000
00000100: 0000 0000 0000 0000 0000 0000 0000 0000
00000110: 0000 0000 0000 0000 0000 0000 0000 0000
00000120: 0000 0000 0000 0000 0000 0000 0000 0000
00000130: 0000 0000 0000 0000 0000 0000 0000 0000
00000140: 0000 0000 0000 0000 0000 0000 0000 0000
00000150: 0000 0000 0000 0000 0000 0000 0000 0000
00000160: 0000 0000 0000 0000 0000 0000 0000 0000
00000170: 0000 0000 0000 0000 0000 0000 0000 0000
00000180: 0000 0000 0000 0000 0000 0000 0000 0000
00000190: 0000 0000 0000 0000 0000 0000 0000 0000
000001a0: 0000 0000 0000 0000 0000 0000 0000 0000
000001b0: 0000 0000 0000 0000 0000 0000 0000 0000
000001c0: 0000 0000 0000 0000 0000 0000 0000 0000
000001d0: 0000 0000 0000 0000 0000 0000 0000 0000
000001e0: 0000 0000 0000 0000 0000 0000 0000 0000
000001f0: 0000 0000 0000 0000 0000 0000 0000 0000

network_body._body_endoder.seq_layers.2.weight f4 [128, 128]
0.13765866 -0.042032167 -0.04904043 -0.052456036 -0.06279905 0.06371364 0.062490273 -0.08961385
0.14412853 -0.101520985 -0.2738712 0.011998302 -0.08207435 -0.057827745 0.13467439 0.25991568
-0.030019077 -0.24470752 -0.14043821 0.11830383 -0.022314731 0.041005157 0.09963856 0.13578166
-0.1455461 0.00043539156 -0.004627909 0.090264186 0.2051708 -0.1084952 -0.20239966 -0.08367834
-0.10279315 0.01757782 0.07679042 -0.10705791 0.053015877 -0.11665567 0.050668746 0.07401152
0.024480067 -0.051171415 0.046937402 -0.13559823 -0.04298482 -0.008118364 -0.048138414 -0.031947225
-0.1426341 -0.073826544 0.024680099 0.03965813 -0.08456583 0.052564904 -0.010539314 -0.049508344
0.078228466 -0.0041858004 -0.12626441 -0.08816602 0.12298979 0.03008877 0.013428618 -0.07299046
-0.0124615915 0.084073834 0.07378628 0.010595817 -0.06528543 0.050909188 -0.06872426 -0.08476194
-0.19104882 -0.06805315 0.004695532 -0.030448424 0.023034237 0.09113388 -0.1365291 0.01865042
-0.14527187 0.056222685 0.098672844 0.0618615 0.1475688 -0.2404393 -0.17021139 0.21916652
0.057444826 -0.08746792 0.04158234 0.07103139 -0.037549403 -0.10244904 -0.09239705 0.09457298
-0.09244055 0.11366528 -0.115148254 0.15857284 0.080905914 -0.15104032 -0.07938575 0.0029430995
0.029877996 -0.03924906 -0.019004736 0.03405459 0.05752391 -0.02816173 0.04614584 -0.08934624
0.08869637 0.06953312 -0.12318899 -0.09008981 -0.17493282 0.018231504 0.07989679 0.011369652
-0.13201693 -0.13559566 -0.077045314 -0.06494304 0.045765914 0.01354183 -0.07599207 -0.11534632
0.043879867 0.11802009 0.032586943 0.049230486 0.019848792 0.006079957 0.019008901 -0.035473786
0.0559615 -0.065661676 -0.08123 0.102860615 -0.046165764 0.03062998 -0.08787743 -0.0062541855
-0.084499225 0.002386346 0.025608009 -0.017290687 0.009513673 -0.014133696 -0.0019373812 0.054747798
-0.008436691 0.12479099 0.03568396 -0.23582582 -0.06666876 -0.12973396 0.06510251 -0.09647992
0.009814774 0.034498915 -0.0001507969 -0.036699306 0.0015290616 -0.03960321 -0.04417908 -0.066931926
0.17792068 0.17488003 -0.13182457 0.19178833 0.0623585 -0.120202124 0.04333351 0.023622138
-0.026606955 0.017115759 0.118333176 -0.01632709 -0.028548876 0.05530858 0.03813558 -0.02797109
0.061106756 0.011439925 0.08198354 -0.0300618 -0.02656805 0.027897999 -0.055742577 0.09393481
0.06220645 -0.16978498 -0.02255344 0.07197049 -0.08042572 0.16918032 -0.04469665 0.04364241
-0.07265163 0.09595595 -0.046473317 0.028245192 -0.029230751 -0.024301654 0.010932208 -0.031208681
0.014403598 -0.06138707 -0.07571107 -0.0021292046 -0.057488654 -0.033170857 -0.020526186 0.07550743
0.03312986 0.048714895 -0.021889513 0.078988925 -0.036539268 -0.0074086427 0.19197749 0.15238291
-0.022226755 -0.034941312 -0.041058537 -0.032351803 -0.00018076258 -0.033045195 0.021287207 0.11704236
-0.054581992 0.09219663 -0.010868484 0.0054060384 -0.052050862 0.024680736 -0.12822194 -0.19524714
0.1680165 0.09830479 0.14649718 -0.14977773 0.08030301 -0.030018926 -0.0718194 -0.028447544
0.031056883 -0.057056595 0.012804355 0.096234955 -0.076245956 0.11203175 -0.0247843 -0.08733466
00000000: 64f6 0c3e ec29 2cbd 9ede 48bd 24dc 56bd
00000010: ca9c 80bd 4c7c 823d cdf5 7f3d 7787 b7bd
00000020: 6e96 133e 3cea cfbd d938 8cbe 8794 443c
00000030: 9916 a8bd c9dc 6cbd 15e8 093e ab13 853e
00000040: 91ea f5bc 9c94 7abe 09cf 0fbe 4749 f23d
00000050: 62cd b6bc 06f5 273d 4d0f cc3d 590a 0b3e
00000060: 090a 15be 4445 e439 b7a5 97bb 6edc b83d
00000070: 4b18 523e bb32 debd db41 4fbe 8d5f abbd
00000080: 3785 d2bd 5cff 8f3c 4c44 9d3d 2d41 dbbd
00000090: 2d27 593d 2be9 eebd 088a 4f3d 5a93 973d
000000a0: 6c8a c83c 1e99 51bd 6f41 403d 43da 0abe
000000b0: da10 30bd e302 05bc c92c 45bd 18db 02bd
000000c0: ac0e 12be 5f32 97bd eb2d ca3c 9070 223d
000000d0: da30 adbd 4c4e 573d 16ad 2cbc 43c9 4abd
000000e0: 3f36 a03d 0a29 89bb 754b 01be 6390 b4bd
000000f0: 12e2 fb3d b97c f63c b503 5c3c 067c 95bd
00000100: b42b 4cbc e72e ac3d 431d 973d 149a 2d3c
00000110: 5eb4 85bd 2786 503d 4ebf 8cbd ab97 adbd
00000120: 4da2 43be 735f 8bbd fadc 993b f96e f9bc
00000130: 4cb2 bc3c 66a4 ba3d 49ce 0bbe c4c8 983c
00000140: 26c2 14be c249 663d fd14 ca3d 7c62 7d3d
00000150: 471c 173e b835 76be e54b 2ebe 306d 603e
00000160: 444b 6b3d 6122 b3bd 3e52 2a3d e878 913d
00000170: 67cd 19bd cdd0 d1bd aa3a bdbd 7baf c13d
00000180: 7951 bdbd 58c9 e83d d9d2 ebbd eb60 223e
00000190: 00b2 a53d 50aa 1abe ff94 a2bd 04e1 403b
000001a0: b3c2 f43c 9fc3 20bd d2af 9bbc d37c 0b3d
000001b0: 319e 6b3d 6eb3 e6bc 6c03 3d3d 29fb b6bd
000001c0: 71a6 b53d 6167 8e3d 824a fcbd 0281 b8bd
000001d0: 9721 33be 3c5a 953c eea0 a33d c747 3a3c
000001e0: 722f 07be 97d9 0abe efc9 9dbd db00 85bd
000001f0: 0a75 3b3d 8dde 5d3c bba1 9bbd b13a ecbd
00000200: 60bb 333d 84b4 f13d e379 053d e8a5 493d
00000210: ef99 a23c 603a c73b 8eb8 9b3c f64c 11bd
00000220: e337 653d a179 86bd ea5b a6bd 96a8 d23d
00000230: 5018 3dbd b9eb fa3c 15f9 b3bd e9ef ccbb
00000240: ee0d adbd 3e64 1c3b e3c7 d13c 33a5 8dbc
00000250: 3ddf 1b3c 0591 67bc baef fdba 3a3f 603d
00000260: 0c3a 0abc 6b92 ff3d 5829 123d 537c 71be
00000270: a189 88bd fbd8 04be 7754 853d 4497 c5bd
00000280: 25ce 203c bc4e 0d3d 3c1f 1eb9 0352 16bd
00000290: cb6a c83a fa36 22bd 1ff5 34bd 9b13 89bd
000002a0: d730 363e c013 333e 05fd 06be 2964 443e
000002b0: a06b 7f3d 882c f6bd 7b7e 313d 3783 c13c
000002c0: d4f6 d9bc 5936 8c3c aa58 f23d 64c0 85bc
000002d0: 55df e9bc 408b 623d 0e34 1c3d a123 e5bc
000002e0: 144b 7a3d 866e 3b3c fce6 a73d 2a44 f6bc
000002f0: 3da5 d9bc 588a e43c 5452 64bd e560 c03d
00000300: 31cc 7e3d 1ddc 2dbe fec1 b8bc 4465 933d
00000310: 3db6 a4bd 9b3d 2d3e d613 37bd 62c2 323d
00000320: 61ca 94bd 8e84 c43d ce5a 3ebd 7662 e73c
00000330: 5475 efbc 4314 c7bc 011d 333c 59a9 ffbc
00000340: 12fd 6b3c 0271 7bbd 680e 9bbd 208a 0bbb
00000350: 3979 6bbd 2ade 07bd 8826 a8bc a4a3 9a3d
00000360: 2db3 073d 4589 473d a351 b3bc f2c4 a13d
00000370: 33aa 15bd 33c4 f2bb bf95 443e 440a 1c3e
00000380: e214 b6bc 9f1e 0fbd ff2c 28bd 5383 04bd
00000390: 168b 3db9 665a 07bd 8262 ae3c e8b3 ef3d
000003a0: 5e91 5fbd 96d1 bc3d ba11 32bc 2325 b13b
000003b0: 4933 55bd 412f ca3c 9d4c 03be deee 47be
000003c0: 840c 2c3e 0654 c93d 5b03 163e 555f 19be
000003d0: e875 a43d 40ea f5bc 0d16 93bd d30a e9bc
000003e0: 016b fe3c 2db4 69bd 5bc9 513c d516 c53d
000003f0: d726 9cbd e770 e53d 7208 cbbc 84dc b2bd

network_body._body_endoder.seq_layers.2.bias f4 [128]
0.0 0.0 0.0 0.0 0.0 0.0 0.0 0.0
0.0 0.0 0.0 0.0 0.0 0.0 0.0 0.0
0.0 0.0 0.0 0.0 0.0 0.0 0.0 0.0
0.0 0.0 0.0 0.0 0.0 0.0 0.0 0.0
0.0 0.0 0.0 0.0 0.0 0.0 0.0 0.0
0.0 0.0 0.0 0.0 0.0 0.0 0.0 0.0
0.0 0.0 0.0 0.0 0.0 0.0 0.0 0.0
0.0 0.0 0.0 0.0 0.0 0.0 0.0 0.0
0.0 0.0 0.0 0.0 0.0 0.0 0.0 0.0
0.0 0.0 0.0 0.0 0.0 0.0 0.0 0.0
0.0 0.0 0.0 0.0 0.0 0.0 0.0 0.0
0.0 0.0 0.0 0.0 0.0 0.0 0.0 0.0
0.0 0.0 0.0 0.0 0.0 0.0 0.0 0.0
0.0 0.0 0.0 0.0 0.0 0.0 0.0 0.0
0.0 0.0 0.0 0.0 0.0 0.0 0.0 0.0
0.0 0.0 0.0 0.0 0.0 0.0 0.0 0.0
00000000: 0000 0000 0000 0000 0000 0000 0000 0000
00000010: 0000 0000 0000 0000 0000 0000 0000 0000
00000020: 0000 0000 0000 0000 0000 0000 0000 0000
00000030: 0000 0000 0000 0000 0000 0000 0000 0000
00000040: 0000 0000 0000 0000 0000 0000 0000 0000
00000050: 0000 0000 0000 0000 0000 0000 0000 0000
00000060: 0000 0000 0000 0000 0000 0000 0000 0000
00000070: 0000 0000 0000 0000 0000 0000 0000 0000
00000080: 0000 0000 0000 0000 0000 0000 0000 0000
00000090: 0000 0000 0000 0000 0000 0000 0000 0000
000000a0: 0000 0000 0000 0000 0000 0000 0000 0000
000000b0: 0000 0000 0000 0000 0000 0000 0000 0000
000000c0: 0000 0000 0000 0000 0000 0000 0000 0000
000000d0: 0000 0000 0000 0000 0000 0000 0000 0000
000000e0: 0000 0000 0000 0000 0000 0000 0000 0000
000000f0: 0000 0000 0000 0000 0000 0000 0000 0000
00000100: 0000 0000 0000 0000 0000 0000 0000 0000
00000110: 0000 0000 0000 0000 0000 0000 0000 0000
00000120: 0000 0000 0000 0000 0000 0000 0000 0000
00000130: 0000 0000 0000 0000 0000 0000 0000 0000
00000140: 0000 0000 0000 0000 0000 0000 0000 0000
00000150: 0000 0000 0000 0000 0000 0000 0000 0000
00000160: 0000 0000 0000 0000 0000 0000 0000 0000
00000170: 0000 0000 0000 0000 0000 0000 0000 0000
00000180: 0000 0000 0000 0000 0000 0000 0000 0000
00000190: 0000 0000 0000 0000 0000 0000 0000 0000
000001a0: 0000 0000 0000 0000 0000 0000 0000 0000
000001b0: 0000 0000 0000 0000 0000 0000 0000 0000
000001c0: 0000 0000 0000 0000 0000 0000 0000 0000
000001d0: 0000 0000 0000 0000 0000 0000 0000 0000
000001e0: 0000 0000 0000 0000 0000 0000 0000 0000
000001f0: 0000 0000 0000 0000 0000 0000 0000 0000

value_heads.value_heads.extrinsic.weight f4 [1, 128]
-0.2054384 0.026106372 0.08323249 -0.1712158 -0.13640726 0.18168902 -0.03375697 0.14971438
0.049974203 -0.025342852 0.20050794 0.16733539 -0.20360108 0.005821675 0.052512348 -0.20841171
0.1751877 0.124987274 -0.109328695 -0.12566951 -0.18096137 0.14278233 -0.108983785 -0.14086002
-0.16329572 -0.14771158 0.16676277 0.055446953 -0.008964464 0.011697188 0.08440748 -0.10552472
0.21245515 0.115725785 0.20925108 -0.1151233 0.03676662 0.15962332 0.122841775 -0.087652564
-0.17211522 0.06096989 -0.15065992 0.06753415 0.10414368 0.08721748 0.13073176 -0.057589307
0.12286833 0.08671585 0.07915899 -0.121283665 -0.08387357 -0.08040826 0.054188788 0.117617816
0.13608411 0.051234037 -0.006403625 -0.16966365 -0.20060407 -0.04688452 -0.20148332 -0.055697843
-0.066501364 -0.17057836 -0.035938904 0.076593846 -0.025450751 0.018627286 -0.075273514 -0.16178513
-0.054056406 -0.18570538 0.17998809 0.1368342 0.14611197 -0.12259734 -0.061637312 0.128862
0.15582356 -0.1304184 0.19670644 -0.04623145 0.029666826 -0.18117373 0.10863164 -0.018631116
-0.1565783 0.12994385 0.016571358 -0.05483441 -0.19681858 -0.1411395 -0.12532157 -0.0032993853
0.122871876 -0.017418712 -0.17617792 0.10061973 0.010728613 0.18271765 -0.029127419 -0.022884399
0.15245906 0.039945275 -0.21310501 -0.049344167 0.07862404 -0.029232264 -0.10098545 -0.08983064
0.09364268 0.092445135 0.20088828 -0.15334603 -0.052290767 -0.11405773 0.051602036 -0.2017029
-0.19085589 0.057939976 -0.17031525 -0.05607815 0.03827253 0.021256894 0.086120635 -0.16218679
00000000: 725e 52be 08dd d53c cc75 aa3d 3253 2fbe
00000010: 58ae 0bbe b00c 3a3e c044 0abd ba4e 193e
00000020: c0b1 4c3d d09b cfbc f451 4d3e f859 2b3e
00000030: cd7c 50be c0c3 be3b 3017 573d e169 55be
00000040: 6864 333e 54f9 ff3d b9e7 dfbd 82af 00be
00000050: f04d 39be 8835 123e e432 dfbd 9c3d 10be
00000060: fe36 27be b441 17be dcc3 2a3e 581c 633d
00000070: b0df 12bc 90a5 3f3c d4dd ac3d 581d d8bd
00000080: d88d 593e a401 ed3d ea45 563e c4c5 ebbd
00000090: 9898 163d 4c74 233e 7894 fb3d 3083 b3bd
000000a0: f93e 30be 90bb 793d 9846 1abe 584f 8a3d
000000b0: 4849 d53d 149f b23d 8cde 053e c4e2 6bbd
000000c0: 64a2 fb3d 1498 b13d 1c1e a23d 9263 f8bd
000000d0: e8c5 abbd 16ad a4bd 10f5 5d3d 9ce1 f03d
000000e0: a259 0b3e c8da 513d 80d5 d1bb 4fbc 2dbe
000000f0: 276b 4dbe fc09 40bd a551 4ebe 6c23 64bd
00000100: de31 88bd 18ac 2ebe ac34 13bd 3cdd 9c3d
00000110: 187e d0bc 4098 983c 0029 9abd 00ab 25be
00000120: 406a 5dbd 8d29 3ebe cc4e 383e 441e 0c3e
00000130: 609e 153e 5014 fbbd 6877 7cbd 66f4 033e
00000140: 3690 1f3e 678c 05be 6a6d 493e 305d 3dbd
00000150: d807 f33c 9b85 39be 447a de3d 48a0 98bc
00000160: 1056 20be 0010 053e a8c0 873c 0c9a 60bd
00000170: cf8a 49be e086 10be 4c54 00be 803a 58bb
00000180: 40a4 fb3d b0b1 8ebc fc67 34be b811 ce3d
00000190: 10c7 2f3c 561a 3b3e a09c eebc 1078 bbbc
000001a0: 3a1e 1c3e a89d 233d 3338 5abe 1c1d 4abd
000001b0: a405 a13d 8078 efbc 76d1 cebd 20f9 b7bd
000001c0: bcc7 bf3d e053 bd3d a8b5 4d3e be06 1dbe
000001d0: d82e 56bd 1997 e9bd a85c 533d 348b 4ebe
000001e0: ba6f 43be 7852 6d3d 1f67 2ebe 34b2 65bd
000001f0: a8c3 1c3d f022 ae3c 0460 b03d 4b14 26be
